clone_data/marigold_episodes/marigold_clone_25ep_75trn_1000_expert_runs/marigold_clone_25ep_75trn_1000_expert_runs_s0/pyt_save/model.pt (torch, 104138 bytes, 9 tensors)

log_std f4 [2]
-0.5 -0.5
00000000: 0000 00bf 0000 00bf

weight f4 [128, 60]
0.085750096 0.0566648 -0.09395393 -0.114832856 -0.0011562048 -0.06332796 0.1440658 0.10278701
-0.06063685 0.23654278 -0.07503918 0.009895775 0.048730556 0.10227102 0.039340846 -0.018587755
0.016598074 -0.097291976 -0.047577355 0.04402472 0.038453147 0.041253235 -0.03484137 -0.07583655
0.023075303 -0.010920309 -0.041111834 -0.053096227 0.066062905 -0.069455326 0.03822656 -0.13077103
0.087065056 -0.063918784 0.10690046 0.13846676 0.10499115 0.0021329208 -0.05940931 0.0629655
-0.028942943 -0.0026040669 -0.12683155 0.056407757 0.13049424 0.0481563 -0.04800589 0.016295522
0.1054348 0.17249711 0.26285648 0.16603534 -0.019729942 -0.06636021 -0.15187255 -0.06844532
-0.21868296 -0.15707026 0.10159644 0.0019232391 0.13729237 -0.06260466 0.05762097 0.08015178
-0.13385144 -0.10124301 -0.21960303 0.051772043 -0.03917548 0.21539968 0.11103323 -0.037962295
-0.11074792 -0.27963048 -0.20948435 0.16536947 0.37575933 0.15333731 0.08497002 -0.11703005
0.021499116 -0.0005243563 -0.0048380177 -0.085838124 0.08250525 0.12186303 -0.06913123 -0.11616694
0.014974341 -0.0014879383 0.010986303 -0.01586716 -0.07202094 -0.16122198 -0.12565234 0.08456495
-0.0034916697 -0.06815939 -0.074021325 -0.009237116 -0.06807317 0.034625795 0.05816597 -0.012896979
0.043687034 -0.19825703 -0.052431673 0.064781025 0.094025776 -0.048645362 -0.16442074 -0.008880298
-0.05635636 -0.041396216 -0.17762765 0.018863583 0.10447636 -0.021433162 0.0956768 0.0959254
0.047414858 0.07507473 -0.033051066 0.0109642 0.1585914 0.1903521 0.13841072 0.046486363
-0.028872564 -0.10664653 -0.10222161 0.015422197 -0.015927114 0.051296983 0.3657517 0.10770978
-0.15441364 -0.0018699229 0.10719566 -0.034477025 -0.09558767 -0.2078625 0.045942187 -0.084500566
0.03757274 -0.021371206 -0.18674037 0.056882117 -0.1178429 0.07665546 -0.022507839 0.024857542
-0.078409426 0.030238299 0.19403696 0.036615737 0.0327834 0.039838206 -0.000442379 0.068336695
-0.01569348 0.09074114 0.00024959754 -0.037119694 -0.025617527 0.08303991 0.027158124 -0.03424874
-0.20695543 0.18904538 0.11356744 -0.025765363 -0.1889383 -0.057726525 0.1717459 0.064345926
-0.09486732 -0.13459122 -0.06898387 -0.029378675 -0.14873318 0.04137003 -0.07292505 0.15977226
0.012393552 -0.03740125 -0.13504249 -0.012082772 -0.027159594 -0.10710756 0.010911937 -0.12019833
0.07051254 -0.13302317 -0.025362836 0.09892333 0.23055604 0.20891128 0.04980609 0.115613654
-0.088659525 -0.041794945 0.025029358 0.18059902 -0.006965438 0.10918362 0.078764364 0.003568169
0.03329672 0.0068494044 -0.1175853 0.07237228 -0.07543533 -0.042939547 0.16930632 -0.035075583
-0.0046893796 -0.052733023 0.15633754 -0.0938724 -0.03781615 0.06675295 0.037753716 -0.057058558
-0.1210133 -0.03431401 0.14728372 -0.026324198 0.13419172 0.0900948 -0.06882349 -0.04169505
-0.016886676 -0.06141951 -0.19885641 0.10608708 0.1521035 0.12153748 -0.22489741 -0.025745085
-0.12069524 -0.1165441 0.0068188286 -0.020667095 0.08734327 -0.19975035 0.03445078 0.05175022
0.14227392 0.18195768 0.19039337 0.15548952 0.2214978 -0.07359825 -0.1464161 -0.13691674
00000000: bf9d af3d 5919 683d eb6a c0bd 7d2d ebbd
00000010: cc8b 97ba 17b2 81bd fc85 133e ff81 d23d
00000020: 585e 78bd 4538 723e 24ae 99bd e321 223c
00000030: b199 473d 7873 d13d de23 213d 5945 98bc
00000040: aff8 873c 0441 c7bd 79e0 42bd 4453 343d
00000050: 0c81 1d3d 27f9 283d d3b5 0ebd 3150 9bbd
00000060: 6b08 bd3c 19eb 32bc e264 28bd 6e7b 59bd
00000070: fd4b 873d 983e 8ebd 7493 1c3d d7e8 05be
00000080: 2a4f b23d dae7 82bd a1ee da3d 3bca 0d3e
00000090: 9a05 d73d 79c8 0b3b 2d57 73bd 0ef4 803d
000000a0: c019 edbc fea8 2abb 21e0 01be d20b 673d
000000b0: 48a0 053e 8a3f 453d d3a1 44bd 307e 853c
000000c0: 33ee d73d 15a3 303e 2095 863e 2b05 2a3e
000000d0: b0a0 a1bc dde7 87bd 7a84 1bbe 0f2d 8cbd
000000e0: 6dee 5fbe 07d7 20be cb11 d03d 3215 fc3a
000000f0: 5f96 0c3e df36 80bd f703 6c3d 9e26 a43d
00000100: 5a10 09be 7f58 cfbd 9edf 60be ec0e 543d
00000110: 7876 20bd bc91 5c3e 6465 e33d 5a7e 1bbd
00000120: cecf e2bd ba2b 8fbe 1183 56be 9d56 293e
00000130: 8763 c03e 7504 1d3e c304 ae3d 73ad efbd
00000140: ea1e b03c f574 09ba 3c88 9ebb e6cb afbd
00000150: 83f8 a83d 5393 f93d ad94 8dbd efe8 edbd
00000160: f056 753c ed06 c3ba e5ff 333c d9fb 81bc
00000170: b77f 93bd 6017 25be 02ab 00be 6330 ad3d
00000180: 7fd4 64bb 2697 8bbd 7e98 97bd 4657 17bc
00000190: f269 8bbd c7d3 0d3d 713f 6e3d da4d 53bc
000001a0: 2df1 323d e403 4bbe 98c2 56bd eaab 843d
000001b0: 9690 c03d 5c40 47bd e95d 28be ab7e 11bc
000001c0: edd5 66bd 148f 29bd 06e4 35be cd87 9a3c
000001d0: b4f7 d53d 9994 afbc 33f2 c33d 8974 c43d
000001e0: 1536 423d c8c0 993d 8e60 07bd 30a3 333c
000001f0: c965 223e a9eb 423e 8abb 0d3e 7c68 3e3d
00000200: 2886 ecbc 7f69 dabd 9059 d1bd 62ad 7c3c
00000210: 9479 82bc c91c 523d cf43 bb3e f296 dc3d
00000220: 9c1e 1ebe 3318 f5ba 6689 db3d c837 0dbd
00000230: 78c3 c3bd e8d9 54be e02d 3c3d a20e adbd
00000240: e0e5 193d ab12 afbc de38 3fbe 39fd 683d
00000250: 9e57 f1bd 8afd 9c3d 5c62 b8bc 0ba2 cb3c
00000260: 1f95 a0bd 4fb6 f73c a0b1 463e 62fa 153d
00000270: e347 063d 632d 233d 1bef e7b9 1cf4 8b3d
00000280: 9d8f 80bc 7ed6 b93d 6adc 8239 d20a 18bd
00000290: d9db d1bc d410 aa3d b77a de3c 6848 0cbd
000002a0: 20ec 53be 1d95 413e 0c96 e83d e211 d3bc
000002b0: 0b79 41be a672 6cbd 28de 2f3e ccc7 833d
000002c0: cc49 c2bd 48d2 09be 6a47 8dbd 8cab f0bc
000002d0: 834d 18be 9f73 293d bb59 95bd 579b 233e
000002e0: 530e 4b3c 0e32 19bd 9448 0abe d2f6 45bc
000002f0: cc7d debc 355b dbbd fbc7 323c 8b2a f6bd
00000300: e168 903d 3a37 08be b9c5 cfbc 5198 ca3d
00000310: e216 6c3e d7ec 553e 7801 4c3d dac6 ec3d
00000320: 2093 b5bd 2d31 2bbd 5e0a cd3c f3ee 383e
00000330: 543e e4bb a99b df3d 364f a13d f1d7 693b
00000340: 2462 083d f870 e03b 90d0 f0bd eb37 943d
00000350: d77d 9abd 61e1 2fbd a35e 2d3e 6aab 0fbd
00000360: 5ea9 99bb 95fe 57bd f316 203e 2c40 c0bd
00000370: 1be5 1abd c5b5 883d a4a3 1a3d 3cb6 69bd
00000380: d2d5 f7bd d98c 0cbd 8bd1 163e d8a5 d7bc
00000390: 8e69 093e 9f83 b83d 54f3 8cbd 6ec8 2abd
000003a0: ed55 8abc 0693 7bbd 04a1 4bbe 2f44 d93d
000003b0: 05c1 1b3e a4e8 f83d 824b 66be 5be7 d2bc
000003c0: 112f f7bd acae eebd 7b70 df3b 0a4e a9bc
000003d0: 07e1 b23d 5b8b 4cbe 431c 0d3d 0af8 533d
000003e0: 41b0 113e 1d53 3a3e 7bf6 423e a538 1f3e
000003f0: 52d0 623e aeba 96bd 1aee 15be e733 0cbe

bias f4 [128]
-0.07245585 -0.05076544 0.08296206 0.110586144 0.084941104 0.11644538 0.030825704 -0.0973141
0.12349455 -0.0034357302 -0.046878625 0.13108042 -0.10612797 0.046830516 -0.08802459 0.03283052
0.1400728 -0.042076126 0.08601521 0.110251665 -0.041138444 0.09442651 -0.11104381 -0.028143445
0.020739054 -0.06344039 -0.04265746 -0.079972446 0.11142862 0.08510729 -0.1286174 -0.11131387
0.033535242 0.030073157 -0.006282797 0.0709419 0.06292408 0.02912192 -0.019365514 0.028508902
0.046298195 -0.13617778 -0.07103453 -0.11709674 0.042288363 -0.037637006 0.025899151 -0.04840056
-0.019913545 0.02973219 -0.0034615782 0.028882785 0.13174452 0.014989576 0.01413457 -0.056697194
-0.12414225 0.056149364 -0.04400794 -0.0699841 -0.08309628 0.017482016 0.15959263 -0.048986338
-0.07204478 -0.13060474 0.025093123 -0.0065518306 0.023510657 -0.010419353 -0.053104784 -0.08571862
-0.05432558 0.021433063 -0.06617541 0.012580837 -0.0019265831 -0.10494198 -0.07037161 -0.107453644
0.03806655 -0.075778574 -0.1042761 0.09232751 0.11723743 0.105356164 0.00046939703 -0.023152724
-0.07155461 0.08046635 0.09360428 -0.14117938 -0.082946464 0.10191997 -0.09217655 -0.05195171
-0.08702562 -0.065356895 -0.102914594 -0.08110285 0.08133281 -0.0052509643 -0.07636133 -0.14150442
-0.0738031 0.046517998 -0.073589996 0.018060943 0.072970726 0.061620828 -0.012346657 -0.057027686
-0.084083475 0.09168123 -0.041395277 0.017619101 0.12889393 0.1336406 0.06395235 0.0538145
0.008794997 -0.016953574 0.0080495 -0.11297495 0.07589209 -0.042953327 0.07592225 0.095598936
00000000: bc63 94bd 6cef 4fbd 03e8 a93d fd7a e23d
00000010: 9af5 ad3d ea7a ee3d 3086 fc3c 9d4c c7bd
00000020: b6ea fc3d fd29 61bb cd03 40bd f239 063e
00000030: 9f59 d9bd 5bd1 3f3d 3c46 b4bd 4c79 063d
00000040: 3e6f 0f3e 0458 2cbd be28 b03d a0cb e13d
00000050: c980 28bd b062 c13d f06a e3bd 158d e6bc
00000060: f3e4 a93c 09ed 81bd 97b9 2ebd 98c8 a3bd
00000070: b034 e43d bb4c ae3d 48b4 03be 87f8 e3bd
00000080: 405c 093d fb5b f63c ecdf cdbb fd49 913d
00000090: 57de 803d 1891 ee3c 6da4 9ebc 808b e93c
000000a0: 2da3 3d3d 3072 0bbe 8d7a 91bd 6ad0 efbd
000000b0: 9036 2d3d 4329 1abd 752a d43c aa3f 46bd
000000c0: bb21 a3bc ec90 f33c a5db 62bb 979b ec3c
000000d0: 09e8 063e d796 753c af94 673c 513b 68bd
000000e0: 4b3e febd e0fc 653d ab41 34bd d353 8fbd
000000f0: 622e aabd 7236 8f3c 406c 233e e6a5 48bd
00000100: 378c 93bd 40bd 05be 1890 cd3c bdb0 d6bb
00000110: 6c99 c03c efb5 2abc 6784 59bd 3e8d afbd
00000120: 8084 5ebd 6494 af3c f986 87bd db1f 4e3c
00000130: 6785 fcba d2eb d6bd fe1e 90bd a810 dcbd
00000140: aceb 1b3d cc31 9bbd b58e d5bd 3516 bd3d
00000150: 2d1a f03d f9c4 d73d 6719 f639 c8aa bdbc
00000160: 398b 92bd 8bcb a43d 9ab3 bf3d 5491 10be
00000170: d6df a9bd 6bbb d03d 0fc7 bcbd 51cb 54bd
00000180: 7d3a b2bd d6d9 85bd e3c4 d2bd 4019 a6bd
00000190: d191 a63d 4810 acbb 5463 9cbd 89e6 10be
000001a0: 1426 97bd a889 3e3d 5ab6 96bd 8bf4 933c
000001b0: ad71 953d 1f66 7c3d a249 4abc dd95 69bd
000001c0: f533 acbd 5ec3 bb3d 188e 29bd ef55 903c
000001d0: c5fc 033e 15d9 083e 73f9 823d 986c 5c3d
000001e0: e418 103c 39e2 8abc 0de2 033c 695f e7bd
000001f0: 506d 9b3d d4ef 2fbd 207d 9b3d 60c9 c33d

weight f4 [128, 128]
-0.052980218 0.044986576 -0.045260284 -0.10411728 -0.0566345 0.060771637 -0.019370845 -0.027599193
-0.079747766 -0.13901994 -0.0042512547 0.029741729 0.06088087 -0.11128755 0.017167201 -0.12234898
0.021734213 -0.015983041 -0.026892506 -0.009686145 -0.063427456 0.08076703 -0.006358867 -0.15305875
-0.040624823 0.02208478 -0.041651495 0.04833682 -0.0564851 0.022888785 0.034039162 -0.14350756
0.032936342 -0.07023192 0.046272658 -0.041014705 -0.058749545 -0.0028445434 0.086668216 0.033023346
-0.00023358264 -0.030533684 0.022994434 0.043634426 -0.05743145 0.03816336 -0.0046075284 0.01443427
0.025076777 -0.046487607 0.01685689 0.032356407 0.047509402 0.004436537 -0.034633588 -0.06771848
0.012818603 -0.095902026 -0.09057341 -0.14240317 0.040477257 -0.06433878 -0.064300336 0.032819744
-0.061911583 -0.041672807 0.025511682 0.030398855 0.05248459 -0.02835448 0.04918912 0.075218864
0.052803308 -0.014854359 0.022628635 -0.0057528587 -0.13192895 -0.12777458 -0.046691142 0.025970722
0.17688155 0.06695714 0.02291042 0.0035673482 -0.09669887 -0.023497446 -0.13066731 0.028111681
-0.021619594 0.006082147 0.08625384 0.039246984 0.07562487 0.0277646 -0.006582532 -0.014146864
-0.051865697 0.046244934 0.11280626 -0.0077288738 -0.0035181702 -0.083273344 -0.035976324 -0.0067961668
0.020346317 0.062490214 -0.052267388 -0.08560643 0.007770504 0.071856745 -0.017193254 0.032430626
0.0794084 -0.006495759 0.05485044 -0.10852985 0.03381347 -0.062323138 -0.05134462 0.0755399
-0.15083951 0.021383112 -0.019181902 0.044926178 0.0155237885 0.024379002 0.04189344 -0.035505995
-0.11446791 0.038564466 -0.017389266 -0.045371383 -0.07526118 -0.06529423 -0.02371377 -0.042132225
0.003666421 0.033422206 -0.014330842 -0.10007772 -0.09179596 0.0015994988 0.08978071 -0.06881084
0.06916038 0.07677022 -0.032101464 0.051075872 0.023175878 0.10262453 0.02009968 0.070984825
-0.012776239 0.05687208 0.043057222 -0.08047185 0.06401167 -0.08114864 -0.013952887 -0.022744102
0.042147 -0.087725446 -0.022553442 -0.08204489 0.01857965 -0.098008744 0.03622492 -0.04418961
0.043149095 -0.07773667 -0.011805715 0.03945507 -0.03473018 0.0072234534 0.053221934 0.050560426
0.100895084 0.09163657 0.06288489 -0.06102643 0.053965393 0.0070238947 -0.05762871 -0.05496853
0.03996141 -0.0701503 -0.008169487 0.06826116 -0.027494222 0.04647932 0.053315025 0.009216526
-0.021212924 -0.06933761 0.025403537 0.066757716 -0.016211985 -0.031043433 -0.02898842 0.07411197
-0.04730945 -0.03883335 0.001200453 0.071629226 -0.07225098 -0.07529801 -0.025489861 0.06694431
-0.1111969 -0.03638829 -0.06446207 0.041993186 0.08241546 -0.061972916 -0.035135254 -0.031613793
0.058703434 -0.04420599 -0.0239104 0.06485654 0.09309253 -0.048735578 -0.055552885 -0.08401154
0.05805154 -0.0870039 0.06413789 0.0115701305 0.084013835 0.02238487 0.06669734 0.025334487
0.094595805 -0.024465188 -0.02047007 0.005706995 0.08162302 -0.092793524 -0.06801834 -0.077487215
0.045234192 0.056935567 0.06447561 0.032629043 0.040119894 0.06385998 -0.06175866 -0.035911635
-0.19509189 -0.026811054 0.071560815 0.08241298 0.03096967 0.065596335 0.069468714 -0.10803536
00000000: c901 59bd d843 383d d962 39bd 713b d5bd
00000010: 94f9 67bd aeeb 783d 9baf 9ebc b417 e2bc
00000020: cc52 a3bd 3e5b 0ebe 1c4e 8bbb eda4 f33c
00000030: 385e 793d baea e3bd 3ba2 8c3c 1a92 fabd
00000040: f30b b23c deee 82bc ac4d dcbc a3b2 1ebc
00000050: 41e6 81bd 2f69 a53d 0b5e d0bb 6fbb 1cbe
00000060: 3766 26bd 24eb b43c c29a 2abd d4fc 453d
00000070: ec5c 67bd 4381 bb3c a66c 0b3d a5f3 12be
00000080: 42e8 063d c1d5 8fbd 6688 3d3d 09ff 27bd
00000090: 5da3 70bd 856b 3abb 1b7f b13d 7d43 073d
000000a0: dded 74b9 c721 fabc d35e bc3c 03ba 323d
000000b0: 3d3d 6bbd 2f51 1c3d c0fa 96bb b77d 6c3c
000000c0: d06d cd3c ca69 3ebd 7617 8a3c 2788 043d
000000d0: 3899 423d 5f60 913b f3db 0dbd fdaf 8abd
000000e0: 1e05 523c 4868 c4bd 8d7e b9bd 23d2 11be
000000f0: 7bcb 253d 0dc4 83bd e5af 83bd ff6d 063d
00000100: 0097 7dbd 1bb1 2abd e0fd d03c 0507 f93c
00000110: 15fa 563d a847 e8bc 887a 493d 590c 9a3d
00000120: 4848 583d b35f 73bc b05f b93c 7a82 bcbb
00000130: 6218 07be 57d7 02be 363f 3fbd 8dc0 d43c
00000140: 7020 353e d320 893d a2ae bb3c 2cca 693b
00000150: 0f0a c6bd b77d c0bc a7cd 05be 784a e63c
00000160: 931b b1bc bf4c c73b daa5 b03d 72c1 203d
00000170: 36e1 9a3d 9672 e33c 48b2 d7bb 40c8 67bc
00000180: 2071 54bd 546b 3d3d f806 e73d 7e42 fdbb
00000190: 1a91 66bb 378b aabd e95b 13bd 61b2 debb
000001a0: 52ad a63c bdf5 7f3d 5416 56bd 6d52 afbd
000001b0: b69f fe3b a129 933d ded8 8cbc fad5 043d
000001c0: dfa0 a23d 60da d4bb dbaa 603d e644 debd
000001d0: fe7f 0a3d 8c46 7fbd bc4e 52bd aab4 9a3d
000001e0: ac75 1abe a32b af3c 5d23 9dbc 8304 383d
000001f0: 7d57 7e3c 79b6 c73c 7598 2b3d bc6e 11bd
00000200: 276e eabd c6f5 1d3d ef73 8ebc 58d7 39bd
00000210: 8922 9abd fbb8 85bd 6143 c2bc d792 2cbd
00000220: 5648 703b b9e5 083d e8cb 6abc 8cf5 ccbd
00000230: 85ff bbbd 46a6 d13a f3de b73d b3ec 8cbd
00000240: f5a3 8d3d b539 9d3d d37c 03bd ef34 513d
00000250: 57db bd3c cf2c d23d 16a8 a43c 7e60 913d
00000260: 6e53 51bc b3f2 683d c55c 303d 6dce a4bd
00000270: 8d18 833d 4231 a6bd a69a 64bc d751 babc
00000280: 55a2 2c3d 66a9 b3bd ffc1 b8bc 2707 a8bd
00000290: 5a34 983c cfb8 c8bd 9560 143d 2a00 35bd
000002a0: 1bbd 303d 6734 9fbd c26c 41bc a49b 213d
000002b0: 3c41 0ebd b8b2 ec3b 3eff 593d 7318 4f3d
000002c0: 15a2 ce3d f4ab bb3d cbc9 803d daf6 79bd
000002d0: d10a 5d3d b328 e63b 150c 6cbd ae26 61bd
000002e0: 93ae 233d f6aa 8fbd 50d9 05bc 82cc 8b3d
000002f0: 903b e1bc 1961 3e3d db60 5a3d e900 173c
00000300: bac6 adbc e000 8ebd 141b d03c 45b8 883d
00000310: ffce 84bc cc4e febc 1f79 edbc 04c8 973d
00000320: 8ec7 41bd b80f 1fbd 8558 9d3a 58b2 923d
00000330: 52f8 93bd d835 9abd 1dd0 d0bc 191a 893d
00000340: 33bb e3bd e30b 15bd b104 84bd 0c01 2c3d
00000350: 70c9 a83d 50d7 7dbd fce9 0fbd 777d 01bd
00000360: 0373 703d 5711 35bd bedf c3bc 81d3 843d
00000370: 4ca7 be3d f59e 47bd 6c8b 63bd 3e0e acbd
00000380: 74c7 6d3d 1a2f b2bd ba5a 833d a590 3d3c
00000390: 720f ac3d 7a60 b73c 9d98 883d 458a cf3c
000003a0: 72bb c13d 386b c8bc d9b0 a7bc be01 bb3b
000003b0: f829 a73d 880a bebd 334d 8bbd 9eb1 9ebd
000003c0: 7d47 393d 4535 693d ca0b 843d 08a6 053d
000003d0: c254 243d 05c9 823d a6f6 7cbd 1418 13bd
000003e0: 2bc6 47be dba2 dbbc 7a8e 923d 23c8 a83d
000003f0: 1bb4 fd3c 5f57 863d 9d45 8e3d a541 ddbd

bias f4 [128]
0.0033976196 0.046655763 0.015168331 0.020898722 0.02469285 -0.0017276048 0.07560585 -0.032058693
-0.031781066 0.06965604 -0.04248299 0.04932305 -0.051906757 -0.0028395231 -0.01590593 0.037605815
-0.02400356 0.08359372 -0.05520756 -0.0063414327 -0.06527003 -0.065545194 -0.0075883335 0.034090422
-0.0785972 0.07841104 -0.045743804 0.04044791 -0.020328403 -0.029052952 0.020218607 -0.06379537
-0.05899782 0.04518355 -0.025045017 -0.035558317 -0.015604367 -0.01645126 -0.06353563 -0.059311643
-0.08211805 -0.017427588 0.052109204 -0.036220692 -0.012698823 -0.061128415 -0.009056433 0.07019362
0.02971162 -0.06328358 -0.070519224 -0.009818188 -0.049909987 0.021634601 -0.021124328 0.061474953
-0.0677964 -0.06284366 0.08218806 0.06887545 -0.065062895 0.017933281 -0.026684625 -0.033564847
-0.063541405 -0.035678476 0.019882645 -0.055053104 0.048880953 -0.060736578 -0.010865617 -0.08255272
0.041716605 -0.038824707 0.0057496093 0.05332511 0.06375296 0.044355255 0.08855038 0.05993736
-0.0034987456 -0.0517272 -0.0011973631 -0.041601278 0.047377028 -0.0563712 -0.015633715 -0.07041192
-0.03635965 0.04298737 -0.075786285 -0.07385555 0.06749473 -0.045941837 -0.025153538 -0.081323
0.06672198 0.041335016 -0.014952293 -0.06917574 0.025563119 0.028093774 0.03646728 0.019474238
-0.0049350588 0.09488239 0.06858246 -0.040945563 0.08091649 0.04191922 0.008666468 0.02955593
-0.040738586 0.076154836 -0.079348855 -0.006967422 -0.077080324 0.025268646 0.04713719 0.03631688
0.06278242 -0.04190085 -0.011760625 0.022721298 0.011594516 -0.06373563 0.038563576 0.09040688
00000000: 99aa 5e3b 1d1a 3f3d 9784 783c cc33 ab3c
00000010: a948 ca3c cc70 e2ba 3dd7 9a3d fa4f 03bd
00000020: dd2c 02bd d3a7 8e3d a502 2ebd f706 4a3d
00000030: 2e9c 54bd 4b17 3abb 274d 82bc 8e08 1a3d
00000040: 1da3 c4bc 2f33 ab3d 5321 62bd cbcb cfbb
00000050: 4bac 85bd 8f3c 86bd 8ea7 f8bb 66a2 0b3d
00000060: 92f7 a0bd f895 a03d db5d 3bbd b5ac 253d
00000070: c087 a6bc 7500 eebc 7ea1 a53c 26a7 82bd
00000080: b3a7 71bd 6312 393d 352b cdbc 99a5 11bd
00000090: 75a9 7fbc cbc4 86bc f81e 82bd c4f0 72bd
000000a0: 822d a8bd 4dc4 8ebc 7670 553d 265c 14bd
000000b0: b90e 50bc ca61 7abd 6f61 14bc acc1 8f3d
000000c0: c965 f33c d29a 81bd 626c 90bd 77dc 20bc
000000d0: 6a6e 4cbd 0c3b b13c ed0c adbc 29cd 7b3d
000000e0: d7d8 8abd 2db4 80bd 3752 a83d 920e 8d3d
000000f0: b23f 85bd d1e8 923c b799 dabc 4b7b 09bd
00000100: ff21 82bd 9823 12bd eee0 a23c 5d7f 61bd
00000110: 6537 483d ebc6 78bd b305 32bc 6711 a9bd
00000120: 08df 2a3d a806 1fbd 3867 bc3b 6e6b 5a3d
00000130: e990 823d dbad 353d e759 b53d e180 753d
00000140: 364b 65bb e7df 53bd d7f0 9cba 1a66 2abd
00000150: 6a0e 423d 7de5 66bd 4712 80bc 2034 90bd
00000160: dbed 14bd 8613 303d d735 9bbd 9441 97bd
00000170: ad3a 8a3d 822d 3cbd cb0e cebc ac8c a6bd
00000180: 89a5 883d e84e 293d 76fa 74bc 03ac 8dbd
00000190: bf69 d13c ea24 e63c b75e 153d 7088 9f3c
000001a0: 46b6 a1bb b351 c23d f674 8c3d 89b6 27bd
000001b0: 8bb7 a53d 7db3 2b3d cdfd 0d3c 471f f23c
000001c0: 81dd 26bd 11f7 9b3d a781 a2bd f94e e4bb
000001d0: 4adc 9dbd 3100 cf3c ed12 413d 02c1 143d
000001e0: 1294 803d 3aa0 2bbd a3af 40bc 0422 ba3c
000001f0: edf6 3d3c d387 82bd d7f4 1d3d 3e27 b93d

weight f4 [2, 128]
0.097812824 -0.104812145 -0.07201798 -0.04447367 0.1119753 -0.07597532 -0.064045906 0.058153655
0.11002846 -0.10340389 -0.16335647 -0.062377017 0.029747995 0.15694289 -0.076770805 0.10768821
0.07480045 -0.09515815 -0.105508424 0.010476452 -0.11114986 0.06968079 -0.018812269 -0.048269086
0.07159385 -0.07786317 -0.12389693 0.049462106 0.06439192 0.057106335 -0.13712074 -0.048958708
-0.1644835 0.03900271 0.023894586 0.08374119 -0.09469646 -0.15158151 -0.115236804 0.03506304
-0.061915293 -0.053574886 0.014098454 -0.02490726 0.03873353 -0.19244245 0.039942473 -0.028966304
0.04799968 -0.034657948 0.012208014 0.060546078 -0.31290132 0.03300272 -0.15028755 0.06500467
-0.1280521 -0.038026437 -0.029268898 0.021208748 -0.039835345 0.025518248 -0.005328778 0.12520908
0.20697272 0.04500334 0.09394378 -0.058272306 -0.029225836 -0.017885545 0.04392977 0.07859461
-0.058149066 0.13033228 -0.06795778 0.065960206 0.026533768 0.03782042 -0.09412351 -0.031025944
0.048581652 0.111855954 0.08816658 0.014023704 -0.15820992 0.086046904 -0.038871076 -0.07234194
-0.13329527 0.028846532 -0.041542005 -0.083487794 -0.12315827 -0.026768532 0.11748844 0.104304984
-0.07681696 0.042272933 -0.049569625 -0.1440279 -0.011049582 0.10898369 0.066343956 -0.09315258
0.06667356 0.14839444 0.11746494 -0.100756496 -0.004166115 0.040545866 0.040409252 0.030067971
0.08582641 0.043966502 0.019371437 -0.06147576 -0.044181403 0.14145404 0.10302859 0.07305022
0.074056774 0.14827652 0.06293245 0.08228244 -0.15365781 -0.054453623 -0.038105324 0.13486923
0.019813744 0.08228518 0.099681675 -0.06919021 -0.03940236 0.022482589 -0.0029165323 0.096111335
0.01623382 0.12976973 0.020506792 -0.046145916 0.039347507 0.03605262 -0.14269547 0.034498356
-0.087829255 -0.02824916 0.016009811 -0.01151699 0.14057323 0.092377715 0.053200815 0.044635504
-0.07347617 -0.15608054 0.18647607 -0.029468486 0.104962304 0.0024334432 -0.071479894 -0.09085367
-0.16392156 -0.101028256 -0.0665177 0.08378324 0.02622308 -0.09141087 -0.043325685 -0.019734707
0.048070412 0.045624025 -0.050604068 0.05047446 0.13620527 -0.037807483 0.028952973 -0.011150967
-0.025676657 -0.07495022 0.058129773 -0.033359893 -0.09561345 -0.1167015 0.16554022 0.10914437
0.049983546 -0.10396556 0.11564732 0.040061247 -0.0810354 -0.15493852 0.018472068 0.101167805
0.03694439 -0.036407243 -0.017863557 -0.028255926 0.065186575 0.16233817 -0.018710993 0.02782245
-0.08335516 -0.09220132 -0.02698672 -0.019825581 -0.07110226 -0.024646116 -0.038321838 0.07034757
-0.024938058 -0.1319306 -0.121955335 0.113418795 0.033944614 0.13010435 0.10079049 0.030274889
-0.11875159 0.17265107 0.09602908 0.115891114 0.06415186 -0.20808135 -0.095246136 -0.1278782
-0.043341607 -0.028146638 -0.012925588 0.03874449 0.081054404 -0.09714476 -0.17837293 -0.095958635
-0.1534679 -0.0557959 0.032933075 0.089932635 0.119743034 0.10510196 -0.06888319 -0.13299172
0.076459706 -0.008306263 -0.057025798 -0.03422796 0.010647372 -0.12940046 -0.115992494 0.08474431
-0.037361555 0.077078715 0.10909946 0.018959291 -0.11900997 -0.14901143 0.062371816 -0.07832924
00000000: 1752 c83d c0a7 d6bd 2a7e 93bd 062a 36bd
00000010: 4e53 e53d f398 9bbd 802a 83bd 8732 6e3d
00000020: 9a56 e13d 6bc5 d3bd eb46 27be 0b7f 7fbd
00000030: 11b2 f33c a3b5 203e 033a 9dbd a38b dc3d
00000040: fa30 993d 47e2 c2bd cd14 d8bd 6da5 2b3c
00000050: 8aa2 e3bd cdb4 8e3d 301c 9abc ceb5 45bd
00000060: cc9f 923d ba76 9fbd acbd fdbd c798 4a3d
00000070: e9df 833d 55e8 693d 6169 0cbe ed88 48bd
00000080: 5d6e 28be 4ec1 1f3d 94be c33c 8080 ab3d
00000090: 38f0 c1bd 2f38 1bbe 4601 ecbd 439e 0f3d
000000a0: e49a 7dbd 5771 5bbd 34fd 663c 4f0a ccbc
000000b0: 0da7 1e3d a20f 45be b89a 233d be4a edbc
000000c0: 509b 443d 7ef5 0dbd 1f04 483c 2aff 773d
000000d0: 9a34 a0be dc2d 073d fbe4 19be 2b21 853d
000000e0: 1720 03be 9cc1 1bbd 54c5 efbc f8bd ad3c
000000f0: 632a 23bd a50b d13c 089d aebb cf36 003e
00000100: a8f0 533e 6c55 383d 9965 c03d f1ae 6ebd
00000110: 056b efbc b584 92bc b4ef 333d 36f6 a03d
00000120: b72d 6ebd d375 053e 732d 8bbd 2516 873d
00000130: 585d d93c 96e9 1a3d d4c3 c0bd 1f2a febc
00000140: 8efd 463d bc14 e53d ae90 b43d aec3 653c
00000150: c801 22be 5c39 b03d 4737 1fbd 0328 94bd
00000160: 8e7e 08be 904f ec3c f327 2abd a6fb aabd
00000170: 673a fcbd ae49 dbbc c79d f03d da9d d53d
00000180: 3652 9dbd 6226 2d3d 8509 4bbd 0d7c 13be
00000190: 4e09 35bc d732 df3d 57df 873d c8c6 bebd
000001a0: 268c 883d b6f4 173e 7591 f03d 6c59 cebd
000001b0: e883 88bb 6c13 263d 2c84 253d 1b51 f63c
000001c0: c2c5 af3d 3816 343d d9b0 9e3c 02ce 7bbd
000001d0: 8ff7 34bd 54d9 103e a700 d33d 5b9b 953d
000001e0: 14ab 973d cdd5 173e bae2 803d b283 a83d
000001f0: 7958 1dbe c30a 5fbd 5414 1cbd 291b 0a3e
00000200: 6f50 a23c 2285 a83d e825 cc3d 99b3 8dbd
00000210: 5e64 21bd 682d b83c 4b23 3fbb 05d6 c43d
00000220: cafc 843c 5be2 043e dcfd a73c 8003 3dbd
00000230: da2a 213d e9ab 133d c31e 12be 264e 0d3d
00000240: d3df b3bd c86a e7bc 0227 833c c2b1 3cbc
00000250: 6ef2 0f3e 8730 bd3d 19e9 593d b8d3 363d
00000260: ad7a 96bd 94d3 1fbe 95f3 3e3e e567 f1bc
00000270: 7af6 d63d 677a 1f3b 0d64 92bd 7d11 babd
00000280: 0edb 27be e7e7 cebd 6f3a 88bd 8c96 ab3d
00000290: c9d1 d63c 9f35 bbbd 4676 31bd aeaa a1bc
000002a0: 7be5 443d 42e0 3a3d 3646 4fbd 4fbe 4e3d
000002b0: 6579 0b3e 05dc 1abd c92e ed3c 8cb2 36bc
000002c0: da57 d2bc 807f 99bd 7c19 6e3d 62a4 08bd
000002d0: fcd0 c3bd 3201 efbd 6083 293e 1587 df3d
000002e0: 8cbb 4c3d e5eb d4bd 81d8 ec3d 4317 243d
000002f0: e3f5 a5bd 34a8 1ebe bc52 973c 1131 cf3d
00000300: 0053 173d c31f 15bd 9856 92bc f978 e7bc
00000310: 8a80 853d fa3b 263e cc47 99bc e8eb e33c
00000320: 1cb6 aabd 0cd4 bcbd 4113 ddbc 4269 a2bc
00000330: 109e 91bd a7e6 c9bc 5cf7 1cbd 6312 903d
00000340: e64a ccbc d118 07be b8c3 f9bd 1d48 e83d
00000350: 8209 0b3d 133a 053e 3f6b ce3d 0b03 f83c
00000360: 0934 f3bd 71cb 303e e5aa c43d 5258 ed3d
00000370: 0d62 833d 4713 55be 6810 c3bd 81f2 02be
00000380: f886 31bd c793 e6bc d8c5 53bc 8bb2 1e3d
00000390: daff a53d d5f3 c6bd 65a7 36be f685 c4bd
000003a0: b026 1dbe 3e8a 64bd d5e4 063d 9a2e b83d
000003b0: d63b f53d b23f d73d a112 8dbd fb2e 08be
000003c0: e896 9c3d fe16 08bc e293 69bd 9e32 0cbd
000003d0: 5172 2e3c 8e81 04be 798d edbd 6d8e ad3d
000003e0: 6e08 19bd 72db 9d3d 8a6f df3d 8450 9b3c
000003f0: 80bb f3bd 7496 18be 9779 7f3d 156b a0bd

bias f4 [2]
0.040003948 -0.036515594
00000000: 2edb 233d 6091 15bd

weight f4 [2, 128]
-0.014816067 0.02603711 -0.0134350285 -0.050558686 -0.03172842 -0.058701947 0.032972123 -0.023462411
-0.034512684 0.061938137 0.014225266 -0.04960356 -0.0022586628 0.008806338 -0.00035035965 -0.07319298
-0.04444646 0.020833276 -0.037822515 0.06608875 -0.029587677 0.019558592 0.057234675 -0.067683235
-0.008610176 0.040783558 0.018273745 0.056127127 0.06967704 -0.009298151 -0.029712576 0.07121971
0.014524425 0.06564665 0.008259187 0.06548804 0.027561868 0.03056103 0.0018478103 0.03898705
0.027162308 0.013815669 0.05589461 0.07101164 0.020649109 0.020959238 -0.06913037 0.08274149
-0.055886004 -0.076979294 0.021229517 -0.058005884 -0.017439662 0.033057027 -0.047270305 -0.062283047
-0.044541378 0.05138152 -0.0014482001 -0.031131476 -0.07335605 -0.0591069 0.002896068 0.06104604
-0.008226761 0.07568322 0.03618453 -0.05785101 -0.037917204 -0.01948401 -0.03706712 -0.058356415
0.037916508 -0.04011403 -0.020385593 0.07470138 0.061607298 -0.02623569 -0.04956513 -0.031918325
-0.020147027 0.014583558 0.04531311 -0.040215824 -0.004320138 -0.029279945 0.06561741 -0.057712708
-0.0025761768 -0.034204103 0.032976113 -0.023808995 -0.036072787 0.050671585 -0.04410917 0.05019551
0.0013733864 -0.05204852 0.02887768 -0.075090915 0.012675108 -0.021599865 -0.0026080192 -0.047168132
-0.016894717 -0.06078977 0.058875985 -0.050372064 -0.06539806 0.019651806 -0.0076396503 0.052566957
0.051961042 -0.04826558 0.033912335 -0.029317157 -0.019869803 0.005650612 -0.06605391 0.056027163
0.015184186 -0.03261135 -0.05665125 0.044425312 -0.058063004 0.032386944 -0.0060454374 -0.0060390187
-0.0067549394 0.0061673187 0.028866062 -0.005128994 -0.056475237 -0.0005538741 -0.02326279 0.052695338
-0.013475814 0.050006274 0.019327492 -0.084762394 0.02840761 0.011543954 -0.050503545 0.014893863
-0.014784987 -0.0024585254 0.023890758 0.07642447 -0.012570322 0.05451093 0.017702604 0.0022976159
-0.062001154 0.05072174 0.03964965 -0.0064829 -0.062995054 -0.046931956 -0.009415774 -0.0064159767
-0.004952034 -0.025559654 -0.011389751 -0.0643228 0.06428392 0.058915306 -0.0052452083 0.0038323326
0.066580676 -0.046111595 0.066749506 0.028569108 -0.02921924 -0.002274808 0.040457305 0.060835484
-0.038388994 0.009530489 -0.029659655 -0.056610696 -0.055337243 -0.067022406 -0.05078875 0.049450144
0.005663477 -0.044131447 0.015860392 -0.05476271 -0.054584667 0.04213332 -0.075939916 0.0101157315
-0.037605107 -0.007916796 -0.01078824 0.0044120955 -0.06771068 0.009033337 0.081495605 0.022640357
0.04024269 -0.010253547 -0.01255376 0.053283464 0.06902465 -0.034458883 0.035282508 0.036599915
0.061433997 0.031312365 0.013385921 0.0014994178 -0.06499372 -0.044459917 0.023945048 -0.050776035
0.037000228 0.0040953937 -0.031098282 0.04470366 0.013008583 0.010777343 -0.020359943 0.039861955
0.058000337 0.023636889 -0.068173744 -0.002300205 0.0046742996 0.0071290215 0.03727791 0.04281353
-0.00391995 0.050806876 -0.0048663463 -0.074644946 0.03506961 0.034030467 0.039382417 -0.022632577
-0.020264162 0.013108225 -0.032246146 0.059879772 -0.008993982 0.009644588 0.053697396 0.0007818566
-0.06623836 -0.012702799 0.03915409 0.007735558 0.031641055 -0.010135551 0.045273725 0.021031616
00000000: 17bf 72bc c74b d53c 981e 5cbc a016 4fbd
00000010: a9f5 01bd 7471 70bd c70d 073d 3e34 c0bc
00000020: 2c5d 0dbd d8b2 7d3d 1711 693c 1a2d 4bbd
00000030: 1306 14bb 7548 103c 7ab0 b7b9 33e6 95bd
00000040: 7e0d 36bd 8caa aa3c c8eb 1abd 8a59 873d
00000050: db61 f2bc 5739 a03c e86e 6a3d 829d 8abd
00000060: b211 0dbc a90c 273d d2b2 953c 8fe5 653d
00000070: d6b2 8e3d 4657 18bc ca67 f3bc a4db 913d
00000080: dbf7 6d3c c071 863d 8b51 073c 981e 863d
00000090: 6dc9 e13c 205b fa3c 3a32 f23a e3b0 1f3d
000000a0: 7d83 de3c 1e5b 623c bff1 643d 8d6e 913d
000000b0: 5228 a93c b5b2 ab3c 3994 8dbd 5f74 a93d
000000c0: b9e8 64bd 52a7 9dbd 86e9 ad3c 9497 6dbd
000000d0: 9fdd 8ebc ce66 073d 829e 41bd 821c 7fbd
000000e0: 0571 36bd 6e75 523d 88d1 bdba 7007 ffbc
000000f0: b23b 96bd 141a 72bd f5cb 3d3b 6a0b 7a3d
00000100: 89c9 06bc ceff 9a3d 3b36 143d 2ef5 6cbd
00000110: 124f 1bbd ee9c 9fbc b1d3 17bd 2307 6fbd
00000120: 574e 1b3d 9c4e 24bd b0ff a6bc 0afd 983d
00000130: ef57 7c3d 3bec d6bc ce04 4bbd cabc 02bd
00000140: 610b a5bc e0ef 6e3c 3d9a 393d 59b9 24bd
00000150: f28f 8dbb 7fdc efbc 6c62 863d 2964 6cbd
00000160: 13d5 28bb 9a19 0cbd f611 073d 150b c3bc
00000170: 0fc1 13bd 028d 4f3d d1ab 34bd cf99 4d3d
00000180: 3303 b43a d430 55bd e290 ec3c 44c9 99bd
00000190: 42ab 4f3c 33f2 b0bc 4deb 2abb 5f33 41bd
000001a0: ca66 8abc b2fe 78bd f227 713d f052 4ebd
000001b0: 6bef 85bd d3fc a03c 0856 fabb 7350 573d
000001c0: 1ad5 543d 21b2 45bd a9e7 0a3d 892a f0bc
000001d0: ffc5 a2bc c528 b93b 4647 87bd bd7c 653d
000001e0: 18c7 783c 7b93 05bd 240b 68bd 51f7 353d
000001f0: 79d3 6dbd 2ca8 043d ce18 c6bb f6e2 c5bb
00000200: 8a58 ddbb 3817 ca3b 8578 ec3c 1f11 a8bb
00000210: 9452 67bd dd31 11ba 9b91 bebc 11d7 573d
00000220: a9c9 5cbc 61d3 4c3d b054 9e3c e897 adbd
00000230: 13b7 e83c da22 3d3c cedc 4ebd 6405 743c
00000240: bb3c 72bc 361f 21bb 8db6 c33c 6f84 9c3d
00000250: c0f3 4dbc da46 5f3d 0d05 913c 9993 163b
00000260: ecf4 7dbd 99c1 4f3d ac67 223d 826e d4bb
00000270: 8d03 81bd b93b 40bd 9e44 1abc 1d3d d2bb
00000280: ac44 a2bb 7b62 d1bc 149c 3abc acbb 83bd
00000290: 4aa7 833d 2d51 713d ffdf abbb df27 7b3b
000002a0: 735b 883d 83df 3cbd f7b3 883d c309 ea3c
000002b0: 305d efbc f214 15bb 8fb6 253d a12e 793d
000002c0: c73d 1dbd c525 1c3c cef8 f2bc 9ee0 67bd
000002d0: 4ea9 62bd 0b43 89bd dd07 50bd 3c8c 4a3d
000002e0: b094 b93b 2dc3 34bd a7ed 813c dd4e 60bd
000002f0: 2c94 5fbd fd93 2c3d 6386 9bbd 74bc 253c
00000300: d007 1abd 73b5 01bc 28c1 30bc 5793 903b
00000310: e6ab 8abd 9000 143c 2be7 a63d 4578 b93c
00000320: 85d5 243d 7efe 27bc 49ae 4dbc c33f 5a3d
00000330: cc5c 8d3d c224 0dbd 6484 103d cbe9 153d
00000340: 37a2 7b3d 6541 003d 9f50 5b3c 1d88 c43a
00000350: 6d1b 85bd 9a1b 36bd 6828 c43c 88fa 4fbd
00000360: 8d8d 173d a732 863b d3c1 febc 2f1b 373d
00000370: f421 553c 7493 303c e5c9 a6bc 4a46 233d
00000380: c391 6d3d 26a2 c13c ad9e 8bbd 09bf 16bb
00000390: de2a 993b 919a e93b b9b0 183d 3d5d 2f3d
000003a0: ed72 80bb df1a 503d df75 9fbb 73df 98bd
000003b0: 27a5 0f3d 8863 0b3d 754f 213d f467 b9bc
000003c0: 0701 a6bc e1c3 563c 8914 04bd 7e44 753d
000003d0: 7f5b 13bc 5604 1e3c cdf1 5b3d 82f5 4c3a
000003e0: faa7 87bd 671f 50bc 0a60 203d 907a fd3b
000003f0: 0d9a 013d 950f 26bc f170 393d 7f4a ac3c

bias f4 [2]
0.045051318 0.048104763
00000000: bb87 383d 8009 453d
