clone_data/marigold_episodes/marigold_clone_100ep_100trn_250expert_runs/marigold_clone_100ep_100trn_250expert_runs_s0/pyt_save/model.pt (torch, 104138 bytes, 9 tensors)

log_std f4 [2]
0	0xbf000000	-0.5
1	0xbf000000	-0.5

weight f4 [128, 60]
0	0x3dcec866	0.10096817
1	0x3bc6b4ef	0.0060640494
2	0x3c5e6fd3	0.013576466
3	0xbd816f8b	-0.06320103
4	0xbd6cbaf0	-0.057795465
5	0xbd9dbf71	-0.0770253
6	0x3dec2dc5	0.11532167
7	0x3e2d97e5	0.16952474
8	0xbd470372	-0.04858727
9	0x3d092ed4	0.033491924
10	0x3d35874b	0.04431848
11	0xbe5c9e3a	-0.21544734
12	0xbdc19cc9	-0.094537325
13	0xbe89509a	-0.26819307
14	0xbdd6d2a6	-0.10489397
15	0x3e3ab80b	0.1823427
16	0x3e9c46a4	0.30522645
17	0x3d41493c	0.047188982
18	0x3d107ab5	0.035273273
19	0xbd50599d	-0.050866712
20	0x3ddf8fac	0.10916075
21	0x3c3bc24b	0.011459897
22	0x3d86f987	0.06590562
23	0xbd8c02c5	-0.06836466
24	0x3ca8273b	0.020526519
25	0xbd31e5f5	-0.043432195
26	0xbdd5885d	-0.104264
27	0x3cf57d7a	0.029967058
28	0x3da9208f	0.08258163
29	0x3d5fe30d	0.054659892
30	0x3d9515fd	0.072795846
31	0xbd1f2abf	-0.038859125
32	0xbaf9141c	-0.0019003185
33	0x3c52a557	0.012856803
34	0xbd051c9b	-0.032497983
35	0x3dffdb30	0.124929786
36	0x3d8192d9	0.06326837
37	0x3dd2f5ea	0.10300811
38	0xbd525541	-0.051350836
39	0xbdced156	-0.100985214
40	0xbd83815c	-0.06421158
41	0xbd346c9b	-0.044048887
42	0x3d879237	0.06619685
43	0xbc8957b6	-0.016765457
44	0x3e07c0d9	0.1325716
45	0x3e1b54ba	0.1516904
46	0xbdaf536b	-0.085608326
47	0x3d5f48c3	0.05451275
48	0xbe53cdb2	-0.20683935
49	0xbe22c414	-0.1589511
50	0xbdfce4ec	-0.12348351
51	0xbe3ae016	-0.18249545
52	0x3dc272d7	0.0949456
53	0xbcfcdf26	-0.030868124
54	0x3e07e820	0.13272142
55	0x3e0bceef	0.13653158
56	0xbd90c2a4	-0.07068375
57	0x3d614278	0.05499503
58	0xbc662198	-0.014046095
59	0x3d444411	0.047916476
60	0x3d04b500	0.032399178
61	0x3d850d70	0.064967036
62	0xbd8745ce	-0.06605111
63	0xbdad2b18	-0.08455485
64	0xbdf58a5e	-0.11989282
65	0x3c408156	0.011749586
66	0xbd5c4995	-0.05378111
67	0x3e773371	0.24140717
68	0x3d95ba14	0.07310882
69	0x3dad8c4d	0.08474026
70	0xbd7ca6ef	-0.061682638
71	0x3d96deb5	0.07366697
72	0xbe6d0e1a	-0.2314991
73	0xbeb08609	-0.3447726
74	0xbe786921	-0.24258853
75	0xbe84d04c	-0.25940168
76	0x3eb6df68	0.3571732
77	0x3e897b40	0.26851845
78	0xbd03594e	-0.03206759
79	0x3c34d4ee	0.0110370945
80	0x3d88fac8	0.06688458
81	0x3cf2b5b9	0.029627668
82	0x3d280d7a	0.041028477
83	0x3d66d78b	0.0563579
84	0xbc288f7a	-0.010288114
85	0xbdedc5ea	-0.11610015
86	0x3c33128d	0.010929716
87	0x3dfba927	0.122881226
88	0xbbf7b378	-0.007559236
89	0xbcacad93	-0.02107886
90	0x3e21c2df	0.15796994
91	0xbcdfe999	-0.027333068
92	0x3daea21e	0.08527015
93	0x3e17b3dc	0.14814705
94	0xbd28c0e2	-0.041199572
95	0xbd8b65c3	-0.06806519
96	0x3c8bc167	0.017059995
97	0x3cf793c5	0.03022183
98	0x3d4a12e7	0.049334433
99	0x3e31ac92	0.17350987
100	0xbd8e8311	-0.06958593
101	0x3d0e9bab	0.034816425
102	0xbdba42fb	-0.09094807
103	0x3e4bdb19	0.19907798
104	0x3e3ab975	0.18234809
105	0xbe2dcfa1	-0.16973735
106	0xbe77c884	-0.24197584
107	0xbe45fe45	-0.19335277
108	0xbdac1e50	-0.08404219
109	0xbe51284b	-0.20425527
110	0xbe6553f7	-0.22395311
111	0x3e05b272	0.13056353
112	0x3e67fb3c	0.22654432
113	0x3e344eb7	0.17608152
114	0x3e291785	0.16512878
115	0xbcb711e6	-0.022347402
116	0x3a5a880e	0.0008336314
117	0x3dfe9904	0.12431529
118	0x3e21de79	0.15807523
119	0x3dbb695d	0.09150956
120	0xbe22f18c	-0.15912455
121	0xbd334b38	-0.043772906
122	0x3d489f5e	0.04898011
123	0xbe2bdc00	-0.16783142
124	0xbe0d40f5	-0.1379431
125	0x3dba9978	0.09111303
126	0x3e16955e	0.14705417
127	0x3e611c2b	0.21983401
128	0x3d8ce311	0.06879247
129	0x3e7ad884	0.24496657
130	0xbd6e7ad4	-0.058222607
131	0xbe79b718	-0.24386251
132	0xbe127c74	-0.14305288
133	0xbe68aa83	-0.22721295
134	0xbd8b17a7	-0.06791621
135	0x3eaffc82	0.34372336
136	0x3ec57f71	0.38573793
137	0x3d6fa010	0.058502257
138	0x3e770d95	0.24126275
139	0xbd67b34e	-0.056567483
140	0x3ccf18d1	0.025280388
141	0xbce59bf8	-0.028028473
142	0xbabd88db	-0.0014460342
143	0x3dc13c28	0.09435302
144	0xbcee6079	-0.029098736
145	0x3ce6fdcf	0.028197197
146	0x3d2452d7	0.040118065
147	0xbd27a58f	-0.040929373
148	0x3da09261	0.078404196
149	0x3d5e687c	0.054298863
150	0xbbbaeaa0	-0.005704239
151	0x3d9e1d53	0.07720437
152	0x3df5a76a	0.11994822
153	0xbe0ea255	-0.13929112
154	0xbd4f654c	-0.050633714
155	0xbd4f0122	-0.05053819
156	0x3da89120	0.082308054
157	0xbdb40fb9	-0.08792061
158	0x3c79d183	0.015247705
159	0x3e35534f	0.17707561
160	0xbd707e8e	-0.058714442
161	0xbe230b99	-0.15922393
162	0x3cc3ee16	0.02391724
163	0xbe20e1c6	-0.15711126
164	0x3d164a88	0.036692172
165	0xbd6e1f43	-0.058135282
166	0x3bbdf89e	0.0057974597
167	0x3e2465fb	0.16054527
168	0x3d1d94de	0.03847205
169	0xbd1d443a	-0.038395144
170	0x3d03854e	0.03210955
171	0xbd9e270a	-0.0772229
172	0x3d116dc3	0.035505068
173	0xbcfc3b53	-0.030790007
174	0xbd872e04	-0.06600574
175	0xbdb28d5f	-0.08718371
176	0xbc8cb16b	-0.017174443
177	0xbcf368e4	-0.029713102
178	0xbda0a1b1	-0.0784334
179	0xbd9f6e3b	-0.07784697
180	0xbdfc1ed5	-0.12310568
181	0xbdb7abbf	-0.08968305
182	0xbdbfac4f	-0.09359037
183	0xbd0c3a92	-0.034235545
184	0x3e52a68c	0.20571345
185	0xbe1881ea	-0.14893308
186	0xbdd02e7d	-0.10165117
187	0x3c80cac6	0.01572169
188	0xbe13d76d	-0.14437647
189	0xbca526bb	-0.02016007
190	0x3e28383c	0.16427702
191	0x3e4f4ad3	0.20243387
192	0x3e65fe0b	0.22460191
193	0x3e508c4e	0.20366022
194	0x3e2c3b7f	0.16819571
195	0x3d96d29b	0.073643886
196	0xbd5c31e6	-0.053758524
197	0xbd9ea719	-0.07746715
198	0xbe6d567d	-0.23177524
199	0x3e026543	0.12733941
200	0x3dbec09d	0.09314082
201	0x3c488292	0.012238162
202	0xbdb279b6	-0.08714621
203	0xbd4382f1	-0.047732297
204	0x3d027e75	0.03185888
205	0xbd43f27f	-0.047838684
206	0x3da1779d	0.078841425
207	0xbd9ee56c	-0.077586025
208	0xbdda5847	-0.10661369
209	0xbdf97250	-0.121800065
210	0xbd95aca6	-0.07308321
211	0xbd301175	-0.0429854
212	0x3dd242ca	0.10266645
213	0x3d2eeabc	0.04270433
214	0xbd877a35	-0.06615106
215	0xbd60695d	-0.054787982
216	0x3d985e4b	0.0743986
217	0x3dbd910d	0.09256182
218	0xbe18979b	-0.14901583
219	0xbd2a4cb5	-0.04157706
220	0x3d138eca	0.036024846
221	0x3dd55897	0.10417288
222	0x3db3dc44	0.08782247
223	0xbe1ece0d	-0.1550829
224	0xbcdd3a19	-0.027005242
225	0x3cf2788b	0.029598495
226	0x3dbfb8dc	0.09361431
227	0xbe85a498	-0.26102138
228	0xbdb2bfdf	-0.08728003
229	0x3e840573	0.25785407
230	0x3e1979b8	0.14987838
231	0xbe4b67cc	-0.19863814
232	0xbe694b3b	-0.22782604
233	0xbc24222f	-0.010017916
234	0xbd9002d6	-0.07031791
235	0x3cbb0b3c	0.022832505
236	0xbdeba6a1	-0.11506391
237	0x3d99f21e	0.07516883
238	0x3dd32783	0.10310271
239	0x3d7bd0f4	0.06147857
240	0xbd3f9fd3	-0.04678328
241	0x3bea5943	0.007151754
242	0x3c862205	0.016373644
243	0x3db922d8	0.09039849
244	0xbdaf3215	-0.08554474
245	0x3d186af0	0.03721136
246	0x3df9f581	0.12205029
247	0x3e862371	0.26198915
248	0x3e46a4f4	0.19398862
249	0x3dc3a645	0.09553198
250	0xbe8aba86	-0.2709543
251	0xbe592c8d	-0.21208401
252	0xbe967fda	-0.29394418
253	0xbe410fef	-0.18853734
254	0xbe0ada03	-0.13559727
255	0x3d93e09e	0.07220577

bias f4 [128]
0	0x3dad4de5	0.08462123
1	0x3df9ac97	0.12191122
2	0xbdae9869	-0.08525164
3	0x3d812f73	0.06307878
4	0x3c5bd90a	0.013418445
5	0xbd533af3	-0.05156989
6	0xbd12083c	-0.035652384
7	0xbdc3b198	-0.09555358
8	0xbde8b81a	-0.113632396
9	0x3ab6796c	0.0013921685
10	0x3dab4f48	0.08364731
11	0x3c3e9980	0.011633277
12	0x3da833fd	0.08213041
13	0x3d1063bb	0.03525136
14	0x3d71b425	0.05900969
15	0x3e24f32b	0.16108386
16	0xbdf13296	-0.117772266
17	0x3d872b5d	0.06600068
18	0x3c9b17d8	0.018932268
19	0x3dd69f60	0.10479617
20	0xbca0814e	-0.019592907
21	0xbdc8c0f3	-0.09802427
22	0x3d4cba85	0.049982566
23	0xbdd65a77	-0.104664735
24	0xbdb6dc68	-0.08928758
25	0x3e019aa7	0.12656651
26	0xbc3859cb	-0.011251877
27	0x3d9fd1fe	0.07803725
28	0x3d3f20ad	0.04666202
29	0xbc6f9ab3	-0.0146242855
30	0xbd500448	-0.050785333
31	0x3dbbc5e8	0.09168607
32	0x3d18dd10	0.037320197
33	0xbd7b546c	-0.061359808
34	0x3d75984d	0.0599597
35	0xbb74188d	-0.0037246079
36	0xbc46416f	-0.0121005615
37	0xbde4f8d5	-0.111802734
38	0x3d67788a	0.05651144
39	0x3d933f9a	0.071898654
40	0x3c9bc1ea	0.019013364
41	0x3cacb7ae	0.021083679
42	0xbd144067	-0.03619423
43	0x3db2d165	0.08731345
44	0xbba98aee	-0.0051740324
45	0x3dab0cfc	0.08352086
46	0xbc4b0379	-0.012390965
47	0xbdf6f052	-0.12057556
48	0xbdd23e38	-0.102657735
49	0x3de1ed43	0.11031582
50	0xbd708863	-0.05872382
51	0xbd8d82b8	-0.06909698
52	0xbde06666	-0.10957031
53	0x3df200b7	0.118165426
54	0x3d48d060	0.049026847
55	0x3cfb97c9	0.030712025
56	0xbe08b3bd	-0.13349815
57	0xbd06c52b	-0.032902878
58	0x3de82de1	0.11336876
59	0x3de1313e	0.1099572
60	0x3d47e1c9	0.04879931
61	0xbddbf25b	-0.10739585
62	0xbdd008eb	-0.10157951
63	0x3dadf939	0.08494801
64	0xbdc9288d	-0.098221876
65	0xbd0d9aaf	-0.034571346
66	0xbe0c984b	-0.1372997
67	0xbd60bbb0	-0.054866493
68	0xbbd985f4	-0.006638283
69	0x3c9cf250	0.019158512
70	0xbd9bbb30	-0.076040626
71	0x3da13b05	0.07872585
72	0xbdf7fa0c	-0.121082395
73	0x3d40a07e	0.047028057
74	0xbd253d30	-0.040341556
75	0x3d9eac41	0.077476986
76	0x3d8cba95	0.06871525
77	0x3dd2a5bb	0.10285517
78	0xbc5c719f	-0.013454824
79	0x3d4fd119	0.05073652
80	0xbd2b0fa3	-0.04176296
81	0xbd2fb84d	-0.042900372
82	0x3bae42c3	0.005318017
83	0x3dc71715	0.097211994
84	0xbdd9e135	-0.10638658
85	0x3d984b2d	0.07436214
86	0x3dd97b9a	0.10619278
87	0xbd28a917	-0.04117688
88	0x3dea8a84	0.11452201
89	0x3d369eb5	0.04458495
90	0xbd9a5704	-0.07536128
91	0xbdca6e90	-0.098843694
92	0x3d334035	0.043762404
93	0xbc990f96	-0.01868419
94	0x3d8f508b	0.06997784
95	0xbde6809d	-0.11255
96	0xbc6c1f9f	-0.014411836
97	0x3c514223	0.012772116
98	0x3e01a701	0.12661363
99	0xbd318b9c	-0.043346033
100	0x3de25f16	0.110532925
101	0xbc437eac	-0.011932056
102	0xbd065427	-0.032795098
103	0x3b1beefc	0.0023793569
104	0xbd8a2173	-0.06744661
105	0xbdc11184	-0.09427169
106	0x3df56282	0.119816795
107	0xbd9967c2	-0.07490493
108	0xbd27c768	-0.040961653
109	0x3d4aadfd	0.049482334
110	0xbc124abc	-0.008928951
111	0xbda752a1	-0.08170057
112	0x3db1c150	0.086794496
113	0xbe01d08f	-0.12677215
114	0xbdcc6db2	-0.0998186
115	0xbdbdc677	-0.0926637
116	0x3dfad869	0.12248308
117	0x3c9642ad	0.01834234
118	0xbba8d306	-0.005152109
119	0xbdcc47ea	-0.09974654
120	0xbd8a3155	-0.067476906
121	0x3d6c8afd	0.057749737
122	0x3cad39f6	0.021145802
123	0xbb1d5659	-0.0024007766
124	0x3aba0447	0.0014191949
125	0x3b8e7a73	0.004348093
126	0xbd68ce73	-0.05683751
127	0x3d1f562c	0.03890054

weight f4 [128, 128]
0	0x3db2396c	0.087023586
1	0x3de7309d	0.11288569
2	0x3c93b4c5	0.018030534
3	0xbd20f968	-0.039300352
4	0x3d62301d	0.055221666
5	0xbd8a56e0	-0.06754851
6	0x3beba746	0.0071915714
7	0x3da7d4a5	0.081948556
8	0x3d90ae5f	0.07064509
9	0x3da87139	0.082247205
10	0xbc6ee87e	-0.014581798
11	0x3c998ba2	0.01874334
12	0x3ca0e46e	0.019640174
13	0xbb9ab28e	-0.0047209924
14	0xbd11307e	-0.035446636
15	0x3cbe0be5	0.023199031
16	0xbb9f8326	-0.004867929
17	0xbdd0d717	-0.10197275
18	0xbdb4d588	-0.0882979
19	0xbd268605	-0.040655155
20	0xbe163cb6	-0.14671597
21	0x3d51045a	0.05102954
22	0x3d24e5c7	0.040258195
23	0x3da01826	0.07817106
24	0xbcee5ed2	-0.029097948
25	0xbe1fa7a0	-0.15591288
26	0x3d591dfe	0.05300712
27	0x3d2e52e4	0.04255952
28	0xbcd35302	-0.025796417
29	0x3c8e9044	0.017402776
30	0xbcf8924c	-0.030343197
31	0xbd00b3d8	-0.031421512
32	0xbd9cac3a	-0.07650037
33	0x3d813167	0.06308251
34	0x3c984977	0.018589718
35	0x3dc179bf	0.09447049
36	0x3d45d297	0.048296537
37	0xbde3b868	-0.11119157
38	0x3d03896d	0.03211348
39	0x3d605234	0.054765895
40	0x3d46b906	0.048516296
41	0x3bc6a9df	0.0060627307
42	0x3d700183	0.05859519
43	0xbc5d8429	-0.013520279
44	0xbd1f9396	-0.03895911
45	0xbdc47c2c	-0.095939964
46	0xbd8f4d6b	-0.06997188
47	0x3d8f330a	0.06992157
48	0x3c8d9a1a	0.017285395
49	0x3c6afb60	0.014342159
50	0xbc49a8bb	-0.012308295
51	0xbd31df7d	-0.043426026
52	0x3e348e94	0.17632514
53	0xbd3c6f61	-0.046004657
54	0xbd1063bc	-0.035251364
55	0xbe0a2c84	-0.13493544
56	0xbc732b75	-0.014841904
57	0xbd02cfd3	-0.031936478
58	0x3c056bb2	0.008143352
59	0xbd91cb69	-0.071188755
60	0xbd69912a	-0.057023205
61	0x3d97ca81	0.074116714
62	0x3d9a8cdc	0.07546398
63	0x3d0bce8f	0.034132537
64	0x3d034440	0.03204751
65	0x3d6faec6	0.058516286
66	0xbd095108	-0.033524543
67	0xbe0095a0	-0.12557077
68	0xbd6cab6e	-0.057780676
69	0x3a3a9884	0.00071180635
70	0x3d30cdb8	0.04316494
71	0x3bc125a2	0.0058943788
72	0xbdae16a1	-0.0850041
73	0xbb811dff	-0.0039403434
74	0xbd5b374e	-0.05351954
75	0xbd69d692	-0.057089396
76	0x3db10ccc	0.08645019
77	0x3ce8b16e	0.028404918
78	0x3d80d7c7	0.06291156
79	0xbc1a8b58	-0.009432636
80	0xbd8df838	-0.069321096
81	0xbdebc712	-0.11512579
82	0xbdf39671	-0.11893929
83	0xbbf167e6	-0.007367122
84	0xbc1f1610	-0.00970985
85	0xbd04787b	-0.03234146
86	0x3d840c1a	0.06447621
87	0xbd3c432b	-0.045962494
88	0x3d260412	0.040531226
89	0xbb95111f	-0.00454916
90	0x3d8a7b4b	0.067617975
91	0xbaf5d356	-0.0018755
92	0x3dac0d6e	0.08400999
93	0xbbb2c3f4	-0.0054554883
94	0x3d87ece1	0.06636978
95	0xbdb2eb88	-0.0873633
96	0x3d57dd5f	0.05270135
97	0xbd67ac70	-0.056560934
98	0xbba44dae	-0.005014143
99	0xbdb9faaa	-0.090810135
100	0xbbc238e3	-0.0059271916
101	0xbdda4d54	-0.106592804
102	0xbd8af349	-0.06784684
103	0x3d8c85d2	0.06861462
104	0xbce4621d	-0.027878815
105	0x3db7e435	0.08979074
106	0xbe4d0c47	-0.20024215
107	0xbd3e7180	-0.04649496
108	0x3d0b43ce	0.03400021
109	0x3d927c07	0.071525626
110	0x3c967edc	0.018371038
111	0x3d6d4662	0.05792845
112	0xbdbb0454	-0.09131685
113	0x3e16ad80	0.14714622
114	0x3dcd2f6c	0.10018811
115	0xbdd1f10f	-0.102510564
116	0xbdb81983	-0.08989241
117	0xbd9749b9	-0.07387108
118	0xbd7c9c03	-0.061672222
119	0xbd793371	-0.060840074
120	0x3db728b6	0.08943312
121	0xbd0fe83c	-0.035133585
122	0xbdce0434	-0.100593954
123	0xbd71438b	-0.058902305
124	0x3c81d5fa	0.015849102
125	0xbd5fec29	-0.05466858
126	0x3bd6972a	0.006548782
127	0x3db55b05	0.08855251
128	0x3d8748e7	0.06605702
129	0x3dc3abd5	0.09554259
130	0xbe0beb03	-0.13663869
131	0xbc99e543	-0.018786078
132	0x3d4a3ea3	0.04937614
133	0xbc0e1b1e	-0.008673457
134	0x3cd7d9f8	0.026349053
135	0xbda3bcb8	-0.079949796
136	0xbd9415e0	-0.07230735
137	0x3d0563ac	0.032565758
138	0x398da1b9	0.00027014108
139	0x3dba0597	0.090830974
140	0x3c94859f	0.018130122
141	0x3b8c4572	0.0042807395
142	0x3d3de50a	0.046361007
143	0x3d6f5a3a	0.058435656
144	0xbd59da48	-0.053186685
145	0x3d7ce24f	0.061739262
146	0xbcd8f1a1	-0.026482405
147	0x3dbc4644	0.091930896
148	0x3d397b3f	0.045283552
149	0xbc81a20f	-0.015824346
150	0xbd9a77f2	-0.07542409
151	0x3d9a459a	0.07532807
152	0xbd0d1dc0	-0.0344522
153	0xbd834e02	-0.06411363
154	0xbda05dd6	-0.07830398
155	0xbd03945f	-0.03212392
156	0x3d40798f	0.046990927
157	0xbda2e8b9	-0.079545446
158	0xbc4e8d7a	-0.012606973
159	0x3d34ded1	0.044157807
160	0xbd77d13f	-0.060502287
161	0xbc9105e7	-0.01770301
162	0x3d2bb93e	0.041924708
163	0xbba893a2	-0.0051445523
164	0x3da4a172	0.08038606
165	0xbc4cde48	-0.012504168
166	0x3dae8818	0.085220516
167	0x3d80e79a	0.062941745
168	0xbd8edfcd	-0.0697628
169	0x3d860269	0.065434285
170	0x3d36d00d	0.044632006
171	0xb903beff	-0.00012564285
172	0x3dc74341	0.097296245
173	0x3d85357d	0.06504343
174	0xbc1be005	-0.00951386
175	0x3b86ce86	0.004113975
176	0xbd1bdaa0	-0.038050294
177	0xbba8948e	-0.005144662
178	0xbd41b544	-0.04729201
179	0x3b20e1ed	0.0024548725
180	0x3d1fdb4e	0.039027505
181	0x3db33ace	0.087514505
182	0x3cfbf404	0.030756004
183	0xbd2eb742	-0.042655237
184	0x3c486084	0.012230042
185	0x3a1b66d0	0.0005928101
186	0xbd97e714	-0.074171215
187	0xbc95291c	-0.018208079
188	0x3cc5302c	0.024070822
189	0xbd4606d5	-0.04834636
190	0x3e07a8c0	0.13247967
191	0x3d486f8d	0.048934508
192	0x3c97de06	0.018538486
193	0x3dbe6f6c	0.09298596
194	0xba9ed063	-0.0012116547
195	0x3c8b556f	0.017008511
196	0xbde13388	-0.10996157
197	0x3cf75eda	0.030196596
198	0xbd5de827	-0.054176476
199	0xbe36da7a	-0.1785678
200	0xbd350978	-0.044198483
201	0x3c652877	0.013986698
202	0xbd25b4f3	-0.04045577
203	0xbd0f0fe8	-0.03492728
204	0xbb54f55d	-0.003249488
205	0x3da6c948	0.0814386
206	0xbd5dc708	-0.05414489
207	0xbaa3210d	-0.0012445763
208	0xbd33dbe2	-0.04391087
209	0x3d599e24	0.05312933
210	0x3d328383	0.04358245
211	0xbddc8050	-0.10766661
212	0xbdb65dcc	-0.08904609
213	0xbcc8945e	-0.02448481
214	0x3d3a81f8	0.045534104
215	0x3d898c97	0.067162685
216	0x3d9672c8	0.073461115
217	0x3d788846	0.060676835
218	0x3d43d3b0	0.047809303
219	0x3d3582bb	0.044314127
220	0xba38a129	-0.00070430577
221	0x3d9851cd	0.07437477
222	0x3c842eb0	0.016135544
223	0x3be98a88	0.00712711
224	0xbd29a76e	-0.04141944
225	0x3e092c8a	0.13395897
226	0x3ced8af8	0.02899693
227	0x3cb9e0f9	0.022690283
228	0x3e088966	0.13333663
229	0x3cc78d9c	0.024359517
230	0xbd93db6c	-0.07219586
231	0xbd81a2b8	-0.06329864
232	0xbd973d9d	-0.07384799
233	0xbd8212f9	-0.06351275
234	0xbd9ca2f4	-0.07648268
235	0x3bb8339c	0.0056213867
236	0x3d839531	0.064249404
237	0x3d3dc7cd	0.046333123
238	0x3dbabdf8	0.09118265
239	0xbdfb2a81	-0.12263966
240	0x3bb9a072	0.0056648785
241	0xbb5d312d	-0.0033751235
242	0xbd22cee9	-0.039748106
243	0x3d82cd40	0.063868046
244	0xbd38f7a7	-0.045158055
245	0x3e37b4db	0.17940085
246	0xbd984fc1	-0.07437087
247	0xbd0dced3	-0.03462107
248	0xbda7a960	-0.081866026
249	0xbe0ece21	-0.1394582
250	0xbd72af7d	-0.05924939
251	0xbc5d234f	-0.013497188
252	0xbd0684f8	-0.032841653
253	0xbdae4d62	-0.08510853
254	0xbe1a0486	-0.15040788
255	0xbb348c29	-0.0027549362

bias f4 [128]
0	0xbd83ad35	-0.06429521
1	0x3d4cf7fc	0.050041184
2	0xb93e83f1	-0.00018168964
3	0x3baf1b05	0.005343797
4	0xbccb16ea	-0.0247912
5	0x3da9218c	0.08258352
6	0xbd42bd8c	-0.047544047
7	0xbd613bf4	-0.054988816
8	0xbda6d2c1	-0.08145667
9	0xbd20433c	-0.03912662
10	0x3d301485	0.04298832
11	0xbd15a145	-0.03653075
12	0xbc181ecd	-0.009284687
13	0xbd0a1f7e	-0.03372144
14	0xbd64deeb	-0.055876654
15	0x3c3142bc	0.010819133
16	0xbd32617a	-0.043549992
17	0xbd9ba6a0	-0.076001406
18	0xbd5accf1	-0.053418104
19	0x3da81f5e	0.08209108
20	0x3c2c5230	0.010517642
21	0xbcfb893f	-0.030705092
22	0xbc5b90a1	-0.013401181
23	0x3cfce357	0.030870123
24	0x3d912796	0.070876285
25	0x3d2a6a86	0.041605495
26	0xbd304624	-0.04303564
27	0x3dbb19cc	0.0913578
28	0xbd028a0f	-0.031869944
29	0xbd0aa76a	-0.033851065
30	0xbd4feeeb	-0.05076496
31	0x3d222f9f	0.039596196
32	0xbce82be9	-0.02834125
33	0x3d2f3f8e	0.04278522
34	0xbda8fa65	-0.08250884
35	0xbd803428	-0.06259948
36	0x3cdb4627	0.02676685
37	0xbcc8e696	-0.024524014
38	0xbdb0b120	-0.08627534
39	0x3d891598	0.06693572
40	0x3daa1e67	0.0830658
41	0xbd1fc32d	-0.039004494
42	0xbd80c756	-0.0628802
43	0xbc92b587	-0.017908825
44	0xbd6c94c2	-0.057759054
45	0x39fae7f4	0.00047856534
46	0x3d9e9bef	0.07744586
47	0x3d9bdaa9	0.076100655
48	0x3d63d8ba	0.05562661
49	0xbd1d7e69	-0.038450632
50	0xbd020b59	-0.031749103
51	0x3d954cba	0.07290025
52	0x3bd07446	0.006361517
53	0x3be9cf3f	0.0071353014
54	0x3d3d0f40	0.04615712
55	0xbd1aed31	-0.03782386
56	0xbd7a5cf3	-0.0611238
57	0x3c41e3c4	0.011834089
58	0xbc8b9229	-0.017037468
59	0x39534ef6	0.00020151943
60	0x3cc3db75	0.023908356
61	0x3dbf87df	0.09352087
62	0xbd8cf63f	-0.06882905
63	0xbd01a22e	-0.031648807
64	0x3cd40f05	0.025886068
65	0x3d9ad18f	0.075595014
66	0xbd4bc779	-0.04975078
67	0x3dc43da5	0.0958207
68	0xbd75e811	-0.06003577
69	0xbdaad845	-0.083420314
70	0xbc961b02	-0.018323425
71	0x3c2735a8	0.010205664
72	0xbb45cd50	-0.003018219
73	0x3d5d2b00	0.053996086
74	0x3c87031d	0.016480977
75	0x3ca2c508	0.019869342
76	0x3bb73fea	0.005592336
77	0xbc45668f	-0.012048378
78	0x3d70ab82	0.058757313
79	0x3b719855	0.0036864479
80	0xbd27d77b	-0.040976983
81	0x3dacbf23	0.08434894
82	0x3cdb32f1	0.02675769
83	0x3cfcd479	0.030863034
84	0xbd69a1fa	-0.05703924
85	0xbce05237	-0.027382953
86	0xbd541e0a	-0.05178646
87	0x3d2788cc	0.040901944
88	0x3ca21138	0.019783601
89	0x3cbfaf90	0.023399144
90	0xbd857b11	-0.06517614
91	0xbd03f0b0	-0.03221196
92	0x3cbfb7f4	0.023403145
93	0x3d8ea8bd	0.06965778
94	0x3d9b0ca8	0.07570773
95	0x3c42d6ab	0.011892001
96	0x3cbe5f91	0.023238929
97	0x3c9d5221	0.019204201
98	0x3db32df0	0.08748996
99	0xbd4847a8	-0.04889646
100	0x3db2d70b	0.087324224
101	0x3d4db01d	0.050216783
102	0xbd432211	-0.04763991
103	0x3b3e9828	0.0029082391
104	0xbbea92ac	-0.007158598
105	0x3d22546e	0.0396313
106	0x3d43e95d	0.047829974
107	0x3cb3cce6	0.02194829
108	0xbd74e6f4	-0.059790567
109	0x3c4512cf	0.01202841
110	0xbcff4b16	-0.031163733
111	0xbd6ed5cd	-0.058309365
112	0xbd5309c0	-0.05152297
113	0x3d08b9a8	0.03338018
114	0xbcd32735	-0.025775531
115	0x3ced3a87	0.028958572
116	0xbcd0dcb3	-0.025495863
117	0xbd4e42e9	-0.05035678
118	0xbc26d689	-0.010182985
119	0x3d74b985	0.059747238
120	0x3ce1cc8e	0.02756336
121	0xbc9b194b	-0.018932959
122	0xbda4d1d9	-0.08047838
123	0xbc5c62f4	-0.013451327
124	0x3d5d78cd	0.054070283
125	0x3db4d1f5	0.088291086
126	0xbd60f7d7	-0.05492386
127	0x3d8f83bd	0.07007549

weight f4 [2, 128]
0	0xbcb22760	-0.021747291
1	0xbdbc1ee1	-0.09185577
2	0x3df1fbb7	0.11815589
3	0xbc03910d	-0.008030188
4	0xbb53ac46	-0.0032298728
5	0xbe4996ea	-0.19686475
6	0x3e09d0e7	0.13458596
7	0x3df37ec6	0.118894145
8	0x3d4e6a04	0.050394073
9	0xbd9b6622	-0.0758784
10	0xbe0b690c	-0.13614291
11	0xbba3b26c	-0.004995635
12	0x3ddaa140	0.10675287
13	0x3d2c1511	0.042012278
14	0xbdf53692	-0.11973299
15	0xbd81b027	-0.063324265
16	0xbe185bd4	-0.1487878
17	0xbdb838fc	-0.08995244
18	0xbe1d2961	-0.15347816
19	0xbdd303f3	-0.10303488
20	0x3d339464	0.04384269
21	0x3d9f02cc	0.07764205
22	0xbe147cf6	-0.14500794
23	0x3df1d333	0.11807861
24	0xbd84106a	-0.06448443
25	0x3d9a6053	0.07537904
26	0x3d4dd89a	0.050255395
27	0xbd876822	-0.06611659
28	0xbd71326a	-0.05888597
29	0xbc7f65c9	-0.015588232
30	0x3de60d09	0.11232955
31	0xbd4b7ab9	-0.049677584
32	0x3c9615a4	0.018320866
33	0x3d3bf5e0	0.04588878
34	0x3d1db43f	0.038501974
35	0x3d8c688c	0.06855878
36	0xbe136792	-0.14394978
37	0xbe2d7bdd	-0.16941781
38	0xbd4788ac	-0.048714325
39	0x3da7d0e6	0.08194141
40	0xbddea66b	-0.108715855
41	0x3c39b9c2	0.011335792
42	0x3d6d3799	0.05791435
43	0x3d0846fa	0.033270814
44	0xbd02ded4	-0.031950787
45	0xbd5ff023	-0.05467237
46	0x3db91e0a	0.090389326
47	0xbc7d249f	-0.015450626
48	0x3dc44426	0.09583311
49	0xbd8578f8	-0.065172136
50	0x3dba9ae6	0.09111576
51	0x3bae83fe	0.0053257933
52	0xbc165a6d	-0.009176833
53	0xbd52c7dd	-0.051460136
54	0xbcc6a16f	-0.0242469
55	0xbdcb44e1	-0.09925247
56	0x3cefadb1	0.029257627
57	0xbda97d11	-0.08275808
58	0x3d431c48	0.047634393
59	0x3e3abe08	0.18236554
60	0x3d83bc73	0.06432428
61	0xbd2b28ca	-0.041786946
62	0x3d8a41a7	0.067508034
63	0x3d971060	0.0737617
64	0x3dd7daf4	0.10539809
65	0x3c04bb34	0.008101273
66	0xbcd84aa3	-0.026402777
67	0xbdd267ad	-0.10273681
68	0x3dfa59e3	0.12224176
69	0xbdbb1b13	-0.09136023
70	0x3d0c1738	0.03420183
71	0xbd2739bb	-0.04082654
72	0x3d18a670	0.037268102
73	0xbd1d10df	-0.038346168
74	0xbd91ab95	-0.07112805
75	0xbdbc2965	-0.09187583
76	0xbdd14ce3	-0.10219743
77	0x3c1ac37d	0.009446022
78	0xbc42a07b	-0.011879082
79	0x3db5cf55	0.08877436
80	0xbdd05e9c	-0.10174295
81	0x3d085e85	0.033293266
82	0x3e005ed6	0.12536177
83	0xbe00e053	-0.12585573
84	0xbdb974ed	-0.09055505
85	0x3dfd10e8	0.1235674
86	0xbe015192	-0.12628773
87	0xbd159748	-0.036521226
88	0xbd0622c5	-0.032748003
89	0xbc34b3cf	-0.011029198
90	0xbda124cd	-0.07868347
91	0x3e025c8e	0.1273062
92	0xbd809404	-0.06278232
93	0x3c2485bb	0.010041649
94	0xbe2d0b85	-0.16898926
95	0xbdac0fdc	-0.084014624
96	0xbd2d3b7b	-0.042293053
97	0x3d80ecfd	0.06295202
98	0xbd50e4cd	-0.05099945
99	0xbdaac406	-0.0833817
100	0x3dc86e91	0.09786714
101	0x3dc9ee72	0.09859933
102	0xbd0dd4dc	-0.034626827
103	0x3e0141b1	0.12622716
104	0x3e3c6bb9	0.18400468
105	0x3d0152de	0.03157317
106	0x3d9737c8	0.07383686
107	0x3ddd24bf	0.107980244
108	0x3d917c8b	0.07103833
109	0xbd981993	-0.07426753
110	0xbd43daf2	-0.047816224
111	0x3d929964	0.07158163
112	0xbd406aa6	-0.046976708
113	0x3d653084	0.05595447
114	0xbcfb357a	-0.030665148
115	0xbc801f85	-0.01564003
116	0xbe07460a	-0.13210312
117	0xbc43b638	-0.0119453
118	0x3d2ce8c4	0.04221417
119	0xbba1c0bb	-0.0049363053
120	0xbc9a233a	-0.018815625
121	0x3b956cad	0.0045600743
122	0x3c9e6086	0.019333135
123	0x3d7347e7	0.059394743
124	0x3e18be55	0.14916356
125	0xbd081a1f	-0.033228036
126	0xbcf9ae8f	-0.030478744
127	0x3db13ba3	0.08653953
128	0xbde3537f	-0.1109991
129	0xbd0fae58	-0.035078377
130	0x3da6f842	0.0815282
131	0xbd8453dd	-0.06461308
132	0x3da2f07b	0.07956024
133	0x3e3a0815	0.18167146
134	0xbda1ddc9	-0.0790363
135	0x3dac731a	0.084203914
136	0xbd8b9cf8	-0.06817049
137	0x3d2f815a	0.04284797
138	0xbdd17250	-0.102268815
139	0x3d63657b	0.0555167
140	0x3daae328	0.08344108
141	0x3dcf9871	0.10136498
142	0x3c732471	0.014840231
143	0x3db10ec0	0.086453915
144	0xbd976320	-0.073919535
145	0x3da16fc5	0.078826465
146	0xbc93037f	-0.017946003
147	0xbcb3b6e9	-0.021937804
148	0x3dade572	0.08491029
149	0x3de4bb77	0.111685686
150	0x3e0caf43	0.13738732
151	0x3d422678	0.047399968
152	0xbd46e739	-0.048560355
153	0x3d6e2633	0.0581419
154	0x3cca141e	0.024667796
155	0x3e114cff	0.14189528
156	0x39c007be	0.00036626862
157	0x3d1313b1	0.03590745
158	0x3bc99768	0.0061520822
159	0x3daf78e1	0.08567978
160	0xbe6c06dc	-0.23049492
161	0xbe215943	-0.15756707
162	0x3e632c99	0.22184981
163	0xbd197577	-0.03746554
164	0xbdf6c133	-0.120485686
165	0x3d16e188	0.036836177
166	0xbd26d860	-0.040733695
167	0x3e13437a	0.14381209
168	0x3d2b4bf8	0.041820496
169	0x3d535742	0.051596887
170	0x3da41417	0.08011644
171	0x3e05bef1	0.1306112
172	0xbda55ca1	-0.08074308
173	0x3e60dfb6	0.21960339
174	0xbcf89df7	-0.030348761
175	0x3d85ce82	0.06533529
176	0x3daa5a4d	0.08318005
177	0x3a530a45	0.00080505415
178	0x3de5f7f2	0.112289324
179	0x3dd86265	0.10565642
180	0xbcccedf7	-0.025015814
181	0x3d5c82ea	0.053835787
182	0x3d0c2a3a	0.034219958
183	0xbdc13261	-0.09433437
184	0xbc87c24f	-0.016572146
185	0xbd5abf6a	-0.053405203
186	0x3c6459e0	0.0139374435
187	0x3da19fff	0.07891845
188	0xbe29414b	-0.16528814
189	0x3de5188f	0.11186325
190	0xbde5331f	-0.11191391
191	0xbd1db185	-0.038499374
192	0xbd2f3656	-0.04277643
193	0x3d9a143d	0.075233914
194	0x3e1106c0	0.14162731
195	0xbe16844b	-0.14698903
196	0xbe239115	-0.15973313
197	0xbbcf44d2	-0.0063253427
198	0xbd898745	-0.06715254
199	0x3dc0dda6	0.09417276
200	0x3db3e4f7	0.08783906
201	0xbc8df082	-0.017326597
202	0x3e06af0f	0.13152717
203	0xbcd0c5ff	-0.025485037
204	0x3ac1893f	0.0014765634
205	0x3dd3e71c	0.10346815
206	0xbdb47805	-0.088119544
207	0xbd995e0c	-0.07488641
208	0x3d7feb93	0.06248052
209	0xbdad5c0d	-0.08464823
210	0xbd718e92	-0.058973856
211	0xbda790ae	-0.08181892
212	0x3c61b909	0.013777026
213	0x3e41d62e	0.1892936
214	0x3de546a6	0.11195116
215	0xbd9d669a	-0.07685585
216	0xbdac5439	-0.08414502
217	0xbda4a00f	-0.08038341
218	0x3d7e47d7	0.06208023
219	0x3b496e31	0.0030735845
220	0xbdc84d44	-0.09780362
221	0xbdb5912f	-0.08865582
222	0x3d78f517	0.06078061
223	0xbd8b7ed0	-0.06811297
224	0xbdb0be5c	-0.08630058
225	0x3d5a6e9f	0.053328153
226	0x3da87aec	0.082265705
227	0x3de75547	0.11295562
228	0x3dd59a3e	0.1042981
229	0x3d9f2363	0.07770421
230	0x3d75e8bd	0.06003641
231	0xbe0a6af8	-0.13517368
232	0xbdd5d550	-0.10441077
233	0x3ddf0fa6	0.108916566
234	0x3c90f210	0.01769355
235	0x3d95ebf6	0.073203966
236	0x3d6ab27f	0.057299133
237	0xbd79f13a	-0.061021067
238	0x3e01e196	0.1268371
239	0xbe00cce7	-0.12578164
240	0x3daa7ab1	0.08324183
241	0xbd3690c2	-0.044571646
242	0x3cc4f117	0.024040742
243	0xbd6e4225	-0.05816855
244	0x3e7d5726	0.24740276
245	0xbe04d09d	-0.12970205
246	0xbdb61c7d	-0.088921525
247	0xbb90b25d	-0.004415794
248	0xbd9c074d	-0.0761858
249	0x3e253786	0.16134462
250	0xbe059ea9	-0.13048805
251	0xbdb27f9e	-0.08715747
252	0xbdf1e7a9	-0.11811764
253	0x3d85874f	0.06519949
254	0xbd8343ea	-0.06409438
255	0xbd1ad653	-0.03780205

bias f4 [2]
0	0xbd691fe8	-0.056915194
1	0x3d28b75b	0.041190486

weight f4 [2, 128]
0	0xbc56b605	-0.01310492
1	0x3ccd3415	0.025049249
2	0xbcdeb3a7	-0.027185274
3	0xbd8fbc99	-0.07018394
4	0xbd800e76	-0.06252758
5	0xbc658bfd	-0.014010427
6	0xbbeafb1c	-0.007171048
7	0x3c11b216	0.008892557
8	0x3d030f62	0.031997092
9	0x3d2da7d1	0.04239637
10	0xbd3adb91	-0.04561955
11	0xbd3bc6fb	-0.04584406
12	0x3d42b444	0.047535196
13	0xbd4593a7	-0.048236515
14	0x3d2146cc	0.039374158
15	0xbd39e6e2	-0.045386203
16	0xbcde7bc6	-0.02715863
17	0xbc493769	-0.012281277
18	0x3c3239e2	0.010878058
19	0x3d61dfb0	0.055144966
20	0xbc8f9384	-0.017526396
21	0x3c6290a2	0.013828428
22	0x3d23861d	0.039922822
23	0x3d1ed036	0.038772784
24	0xbce56afe	-0.02800512
25	0x3d4375be	0.04771971
26	0x3d5704d7	0.05249485
27	0x3d4c3a6a	0.049860395
28	0x3cbac8f4	0.0228009
29	0x3d048793	0.032355856
30	0x3d1955fe	0.037435524
31	0x3d8dec93	0.069298886
32	0x3c46da95	0.012137075
33	0x3ba1547d	0.004923402
34	0x3c65ab85	0.014017944
35	0xbb35252e	-0.002764057
36	0x3c1d5d25	0.009604727
37	0xbc1a60f3	-0.009422529
38	0x3d818527	0.06324225
39	0xbd218348	-0.03943184
40	0xbc891658	-0.016734287
41	0xbd3ea1eb	-0.046541136
42	0xbd319a14	-0.04335983
43	0xbd79f228	-0.061021954
44	0x3cc7f83b	0.024410358
45	0xbc1b9e82	-0.00949824
46	0x3d186b4b	0.037211698
47	0xbd2d68dc	-0.04233633
48	0xbd6ed346	-0.058306955
49	0x3c19b290	0.0093809515
50	0x3d1b47a5	0.037910122
51	0xbcfc40ae	-0.03079256
52	0x3d0cb60f	0.034353312
53	0xbd47bb56	-0.04876264
54	0x3caae98a	0.020863313
55	0xbd07d830	-0.033165157
56	0x3c9fe4c4	0.019518264
57	0xbc406ad5	-0.011744221
58	0x3d0f2a4f	0.034952458
59	0x3c5fde80	0.013663888
60	0x39a94961	0.00032288863
61	0xbd0ec5ea	-0.034856714
62	0xbccb4472	-0.02481291
63	0xbd80ba1a	-0.06285496
64	0x3d4cb941	0.04998136
65	0x3c8e3ae4	0.017362066
66	0xbc13f35c	-0.009030189
67	0x3cb1e250	0.02171436
68	0x3d22a51a	0.039708234
69	0xbca7c07c	-0.020477526
70	0x3c107239	0.008816295
71	0xbd7de49e	-0.061985604
72	0xbc752ab0	-0.014963791
73	0x3cb6fc89	0.022337215
74	0x3ca21b8f	0.019788532
75	0x3c85b80d	0.016323114
76	0x3d032e58	0.03202662
77	0x3a94d7d5	0.0011355827
78	0xbcbedf56	-0.023299854
79	0x3d882f4f	0.066496484
80	0xbcdb83b8	-0.026796207
81	0xbd388b9a	-0.04505501
82	0xbd0b83ea	-0.03406135
83	0xbbab7c83	-0.005233349
84	0xbd487687	-0.04894116
85	0xbc74aa65	-0.014933203
86	0xbbbd610b	-0.0057793907
87	0x3c845b58	0.016156837
88	0xbd4d579f	-0.05013239
89	0xbd68c11f	-0.0568248
90	0x3d00d3f9	0.031452153
91	0xbc8d718a	-0.017266054
92	0x3d2811be	0.041032545
93	0x3d21e2ce	0.03952294
94	0x3b0a0d0e	0.002106491
95	0x3cf5c75d	0.03000229
96	0x3d096dc1	0.033551935
97	0x3d88eac4	0.06685403
98	0xbbea695d	-0.0071536736
99	0x3d563dd6	0.052305065
100	0xbba3eb3a	-0.0050024064
101	0x3c86ddd9	0.016463207
102	0x3c38ac25	0.011271511
103	0x3c7b91a7	0.01535455
104	0x3b969aaa	0.004596074
105	0xbd463e43	-0.04839922
106	0x3d5b5dd2	0.05355627
107	0xba994497	-0.0011693415
108	0xbc0762d6	-0.00826331
109	0xbda047c3	-0.078261875
110	0x3bf936a3	0.00760539
111	0xbc25661a	-0.010095144
112	0xbd1ca760	-0.03824556
113	0x3d001621	0.031271104
114	0xbd367d5e	-0.044553153
115	0xbd4362e6	-0.04770174
116	0xba5d869f	-0.0008450541
117	0xbcbba78f	-0.022907047
118	0xbc710d1c	-0.014712598
119	0xbd7e6715	-0.062110025
120	0xbc0500cc	-0.008117866
121	0xbc0661f2	-0.008202063
122	0xbcd6e7da	-0.026233602
123	0xbd15710c	-0.036484763
124	0xbd44f3ec	-0.048084185
125	0xbce50506	-0.027956497
126	0xbd9ebb98	-0.077506244
127	0x3cfc9482	0.030832533
128	0xbb77d62d	-0.0037816868
129	0x3d2d647d	0.04233216
130	0xbac9990d	-0.0015380696
131	0x3d78f722	0.06078256
132	0xbcddf4c2	-0.027094249
133	0x3c33f361	0.010983319
134	0x3c16534e	0.009175135
135	0xbb25e906	-0.0025315895
136	0xbce2f236	-0.027703386
137	0xbd2e600f	-0.042572077
138	0x3d96777f	0.07347011
139	0xbda2e37d	-0.07953546
140	0x3d1c69ac	0.038186714
141	0x3d1bc87c	0.038032994
142	0x3bc6c903	0.006066443
143	0xbd3514bf	-0.04420924
144	0x3c87863f	0.016543506
145	0xbcb3a4de	-0.0219292
146	0x3bd56760	0.0065125674
147	0x3d79d159	0.060990665
148	0x3d7c531e	0.061602704
149	0xbcdf62d7	-0.02726881
150	0xbc985da8	-0.018599346
151	0x3d7e0123	0.062012803
152	0x3d836eaa	0.06417592
153	0xbd45dc6f	-0.048305925
154	0xbd006399	-0.031344984
155	0x3c0dbab1	0.008650468
156	0xbbc3485d	-0.005959554
157	0x3b9a1485	0.004702153
158	0xbd2f56e0	-0.04280746
159	0x3ce85c97	0.028364463
160	0x3bbb7bfe	0.005721568
161	0xbc688af3	-0.014193284
162	0x3b8891b5	0.0041677603
163	0x3d1097d6	0.035301052
164	0x3af7f355	0.0018917123
165	0xbca4b780	-0.02010703
166	0x3c3ea949	0.01163704
167	0xbd13ae72	-0.036055036
168	0x3cf29b2b	0.029615005
169	0xbd891850	-0.0669409
170	0xbd17bb07	-0.037043598
171	0x3c0bdd91	0.008536712
172	0xbd2f43dd	-0.04278933
173	0xb982c071	-0.00024938912
174	0xbc954f23	-0.018226212
175	0x3cec5653	0.028849756
176	0x3d61b9df	0.0551089
177	0x3da917c6	0.082564875
178	0x3b5d7b94	0.0033795582
179	0x3cefb3b2	0.02926049
180	0x3c8e097f	0.017338512
181	0xbd7e7a27	-0.062128212
182	0x3d42bf52	0.04754574
183	0x3d455a1a	0.04818163
184	0x3d889ef0	0.0667094
185	0xbcdfcbcc	-0.027318858
186	0x3ce0aef5	0.027427176
187	0xba9d960d	-0.0012022868
188	0xbc7effe2	-0.015563937
189	0xbac1de8f	-0.0014791059
190	0xbc22f4c0	-0.009946048
191	0xbc9ff2e6	-0.019525003
192	0xbaf466b9	-0.0018646336
193	0xbd3ad624	-0.045614377
194	0xbce0f130	-0.027458757
195	0xbb47269d	-0.0030388006
196	0xbd3f94f1	-0.0467729
197	0x3d6adc93	0.057339262
198	0xbd84fad9	-0.06493158
199	0x3d86957b	0.0657148
200	0xbd0827a0	-0.033240914
201	0x3b9e6937	0.00483432
202	0x3cf8a028	0.030349806
203	0xbd059f2c	-0.0326225
204	0xbc8ddb0a	-0.01731636
205	0x3c7ec539	0.015549951
206	0x3d178f50	0.037001908
207	0x3c7b3dee	0.015334589
208	0xbcd579f4	-0.026059128
209	0xbc34c683	-0.011033657
210	0x3cf7b082	0.030235533
211	0x3d328936	0.043587886
212	0x3aebfe9e	0.0018004959
213	0xbc58e71d	-0.013238695
214	0xbcba1f0f	-0.022719888
215	0x3be9dc43	0.007136853
216	0xbd3ea8c3	-0.046547662
217	0xbd8b96a4	-0.06815842
218	0x3b2746d9	0.0025524406
219	0xbd08be01	-0.033384327
220	0xbd00212f	-0.031281646
221	0xbd0a9e55	-0.033842403
222	0x3c8f65e1	0.017504634
223	0xbc17f93a	-0.009275729
224	0xbb0694ca	-0.0020535463
225	0xbcadb288	-0.021203294
226	0xbc825ea7	-0.015914274
227	0xbc598de9	-0.013278463
228	0x3b9b1cad	0.004733643
229	0xbbf2ce78	-0.007409867
230	0x3c92e198	0.017929837
231	0xbd5858fd	-0.05281924
232	0xbd1a7f32	-0.03771896
233	0x3d5f4a02	0.05451394
234	0x3d24ac87	0.040203597
235	0xbd441e93	-0.04788072
236	0xba405564	-0.0007336943
237	0xbd8bb083	-0.06820776
238	0xbb28f417	-0.0025780255
239	0x3d32ac5d	0.04362141
240	0x3b01a5f4	0.0019782754
241	0x3d5162ff	0.0511198
242	0x3d43fb80	0.04784727
243	0x3d55d2d3	0.05220301
244	0xbc7c6c34	-0.015406657
245	0x3c6dea5b	0.014521207
246	0x3ba8cf91	0.005151697
247	0xbd227e08	-0.039670974
248	0xbcbebc9b	-0.023283293
249	0xbb907722	-0.004408733
250	0xbc693fff	-0.014236449
251	0x3d4c50e2	0.049881823
252	0x3d796f1b	0.060896974
253	0xbd3808ad	-0.04493015
254	0xbc4dc3b9	-0.012558871
255	0xbd383a74	-0.04497762

bias f4 [2]
0	0x3b0fdc01	0.00219512
1	0xbcd8ba0b	-0.0264559
