clone_data/marigold_episodes/marigold_clone_100ep_25trn_1000_expert_runs/marigold_clone_100ep_25trn_1000_expert_runs_s0/pyt_save/model.pt (torch, 104138 bytes, 9 tensors)

log_std f4 [2]
00000000: 0000 00bf 0000 00bf
-0.5 -0.5

weight f4 [128, 60]
00000000: 87f3 9ebd a83d 9c3d 921d 1d3d 120e adbd
00000010: b4b9 b6bc 8130 ebbd 4774 febc 660f 943e
00000020: e1b0 083e 735e c83c 79c4 1d3d 1233 64bc
00000030: 9aec 2dbc 98af 22be ac09 4cbe 0fef 083e
00000040: 0a61 9c3e e0e6 753e a07e 743d 5d9c 463d
00000050: fd09 dd3d 7675 96bd f2ee c53d bcee 113e
00000060: a06b 80bd 8ece 913d fcdb b93d 1932 1cbe
00000070: e696 d53c 15ef 1ebd 239c 0d3d 6c0a c23d
00000080: 734a 023e 2685 e9bd e4d3 683d f8b1 d0bc
00000090: 7642 d83d 0dfe 1c3c f2f7 06be 1a6e 90bd
000000a0: a310 e5bd f405 c2bd 47c7 e2bd a061 c83c
000000b0: 1335 edbd 3b94 30bd 65e3 e43d abea 25bb
000000c0: afc3 b73d 910d 083e 9eaf cb3d ecec abbd
000000d0: df62 f53d 7400 803c f8e1 78be e911 8cbc
000000e0: 4839 dbbd 6fdf f73c 3f8a 993d b71f 643d
000000f0: 6762 a9bd ff80 ca3b beb8 9a3d e014 0e3e
00000100: 7424 be3c 7373 9c3e 0e3a c83d 2768 dc3c
00000110: 5089 d2be ddbd 99bd d03b edbd be74 793c
00000120: 266a aa3c acb3 033e e7bd 913e ff18 f03c
00000130: 15cf a9be f6b5 903d c3f3 243e 0d10 e5bd
00000140: bb43 3d3d af5e f03d ad29 06be 8c38 53bd
00000150: 85d1 223d 2750 ec3d 3af8 1fbe 4d61 fdbc
00000160: 1098 e9bc 4331 9abd ed42 1bbe 5909 6f3d
00000170: 6fb2 8f3c e201 d3bd 2f8d 5c3d c5a8 17bd
00000180: 9799 89bd 64b4 c93d 5e5a a5bd 9da1 33bd
00000190: de2c f03d 3560 9d3d 4b39 d4bb cdb1 ccbc
000001a0: a159 36bc cd1b b1bd fead 873b 8f8b 0ebe
000001b0: 840e a43c 524a 133e f4c7 6a3d e77b 393d
000001c0: 7c19 08bd 6a6d f93c 0817 023e 43ef 563c
000001d0: 23e9 703c e408 91bd c83e 39bb a5b5 733d
000001e0: 3b25 123e bd7a 433b e22b 253d 8d17 fe3d
000001f0: 62e6 0a3e a015 fe3d 054a 2f3d 8226 88be
00000200: 45ed 68be 8931 14be 6f10 01be 96ee a13c
00000210: acc9 403e ae55 8b3e 6dea be3e 0bae dabc
00000220: 1f7f 42be 0d48 25bd c8b8 243d b713 4b3d
00000230: 234f b83d 7413 32bd 8e9f 87bd 525c 293d
00000240: 4877 a0bd 3830 5bbd 37e4 7fbd e094 d93d
00000250: 977d 9b3d 424e cebd 1cdd fd3d de5c 503c
00000260: 023d bfbd befe 2a3d 23e5 1ebd b395 13be
00000270: de35 83bd 3b4e afbd 28ae 623c f5b5 97bc
00000280: fd31 433d 3635 abbc 29c5 69bd 8320 a7bd
00000290: 4c44 9c3d e0fc 43bc d211 373e 8e0b d1bc
000002a0: d62b 0c3e b18b 7f3e 5d67 b5bb e889 203e
000002b0: e2cf 0dbe cce3 bfbd ced2 22bd 8305 1abe
000002c0: 7698 95bd c2d4 24be 5e2b 09be 5bfb 92bd
000002d0: ef16 ae3d 7e59 9dbd c2c0 183d c438 e83b
000002e0: da5c 743e 2d9a e33d cff5 5f3c 976b a3be
000002f0: 8eda acbc 9f1d 3cbe 815d 69bd 68cc 9d3d
00000300: 677a 0b3d 884d 063e c59f 993e 104e 11be
00000310: d538 84be 2e4f ebbd e65a c8bd b438 4fbd
00000320: 01b8 32bd ca1b cb3c e2ed bbba 7f67 e8bb
00000330: 5f3a 23bd 1c74 e03d af5c e03d 578c 903d
00000340: cb9a 00bd b96c 123d 2cfa b53d 58e8 34be
00000350: 02d5 4cbc 98ec 1f3d c8e7 9b3d 49b3 553d
00000360: fe92 e63c fa1e 06bd 780c 343e 22e1 b53d
00000370: 91f3 1b3d de7c ff3d 6255 e7bc 32e8 513e
00000380: 2517 203e 3ae6 b13c c5d1 6d3d e35c 87be
00000390: c4a8 24be d00b 00bd c827 e6bd 0dfe 0a3e
000003a0: 308e 8a3d 12e2 f13d 7f45 d33d 4eb0 2d3e
000003b0: d4d3 2e3d d4ed a83d a4b6 bb3c 7f41 013e
000003c0: b6a6 ef3d 8645 423d b87f b13c fafb 2cbe
000003d0: 7b9b 72bd c6b3 183b 22d9 61bc 87f3 23be
000003e0: d0f8 e6bd 8ed1 abbc 6156 9ebd 1fc3 c33d
000003f0: 3c71 333e 3af8 143e c56d dd3c d86b 6bbe
-0.07761293 0.076289475 0.03835828 -0.08449949 -0.022305347 -0.11483861 -0.031061305 0.28917998
0.13348724 0.0244591 0.03851745 -0.013928192 -0.010615492 -0.15887296 -0.19925565 0.13372444
0.30542785 0.24013853 0.05969107 0.048488963 0.10792921 -0.07346623 0.09664716 0.14251226
-0.06270528 0.07119475 0.09075162 -0.15253486 0.02607293 -0.038802225 0.03457273 0.09474644
0.12723713 -0.11402349 0.0568427 -0.025475487 0.105595514 0.009582055 -0.13180521 -0.0705225
-0.11184814 -0.09473792 -0.110731654 0.024460614 -0.11582389 -0.043110114 0.111761846 -0.0025316875
0.089728706 0.13286425 0.09945606 -0.08394799 0.11981749 0.015625216 -0.2430495 -0.017098384
-0.10704285 0.030257909 0.074970715 0.055694308 -0.08270722 0.0061799283 0.07554768 0.1387515
0.023210742 0.3055683 0.09776698 0.026905132 -0.41120386 -0.07506917 -0.11583674 0.015225587
0.020802569 0.12861508 0.28465196 0.029308794 -0.33165804 0.07065956 0.16108613 -0.11184702
0.04620717 0.117368095 -0.13101836 -0.0515676 0.039750595 0.11538725 -0.15622035 -0.030930186
-0.028514892 -0.07528927 -0.15162249 0.058358524 0.017541138 -0.103030935 0.05384558 -0.037026186
-0.06718748 0.0984886 -0.08073877 -0.0438553 0.11727308 0.07684366 -0.0064765564 -0.024987126
-0.011129768 -0.08647881 0.0041406145 -0.13920425 0.020026453 0.1438382 0.057319596 0.045284178
-0.03322743 0.03044768 0.12704098 0.013118568 0.014704022 -0.07081774 -0.002826618 0.0594994
0.14272015 0.0029827796 0.040325053 0.12406836 0.13564447 0.124064684 0.0427952 -0.2659188
-0.22746761 -0.14472021 -0.12603925 0.019767087 0.18826932 0.27213806 0.37288228 -0.026694318
-0.18993805 -0.040351916 0.040215284 0.04957935 0.08999469 -0.043475583 -0.066222295 0.04134781
-0.07835251 -0.05351278 -0.062473502 0.10624099 0.07592314 -0.1007352 0.12395689 0.012717454
-0.09337808 0.041746847 -0.03879274 -0.14412574 -0.06406759 -0.08559843 0.013835467 -0.018519381
0.047655094 -0.020899396 -0.057072792 -0.08160498 0.07630214 -0.011962146 0.17877892 -0.025518205
0.13688597 0.24955632 -0.0055360035 0.15677607 -0.13848832 -0.09369621 -0.03975182 -0.15041165
-0.0730447 -0.16096786 -0.1339545 -0.071768485 0.08500468 -0.07683085 0.037293203 0.007086845
0.23863545 0.11113391 0.013669445 -0.31918022 -0.021100309 -0.18370675 -0.056973938 0.07705003
0.03405228 0.13115513 0.30004707 -0.14189935 -0.2582461 -0.11489712 -0.097829625 -0.050591186
-0.04363251 0.024793524 -0.0014337862 -0.007092416 -0.03985059 0.10959646 0.10955178 0.07058018
-0.031397622 0.035748217 0.08885607 -0.17666757 -0.012501957 0.039043993 0.07612568 0.052172933
0.028146263 -0.032744385 0.17582881 0.08880831 0.03807408 0.124749884 -0.028238956 0.20498732
0.15633829 0.021716226 0.05806138 -0.26438054 -0.16080004 -0.031261265 -0.112380564 0.13573475
0.06765401 0.118106976 0.1031599 0.16961786 0.042682484 0.08248487 0.022914238 0.12622641
0.117017195 0.047429584 0.021667346 -0.16892996 -0.05923031 0.0023300513 -0.013784679 -0.16010867
-0.11277926 -0.020973947 -0.07731319 0.09558701 0.17523664 0.14547816 0.027029881 -0.22990358

bias f4 [128]
00000000: 516e fb3c 72e7 34bd 3421 b6bc 901a cdbd
00000010: 92f8 723d f3b5 223d c1ad c93d 4cb3 7b3d
00000020: e166 943c 6071 703d 39cc f5bb 0aba e1bc
00000030: a10c 1a3d 2f4d ca3d 31b6 d93d 17d8 e53d
00000040: 4394 b6bd c001 dc3d 2db1 9bbd 90b0 813d
00000050: ae85 ce3d 1473 ecbd 07ff 0cbd 6a46 003d
00000060: d0d1 18bc f0c3 8f3c 1fdf 8fbd 6515 46bd
00000070: 5710 b43d e722 f83c 3b53 78bd a6cd e3bd
00000080: 9816 143e 101e bebd e648 ddbd 145a 84bd
00000090: bab4 e43d cd8d bb3d 1a57 413d b89c 3c3d
000000a0: 4a47 f5bc 9621 e5bd d46f 64bd c8c8 9dbd
000000b0: f3f1 f33d b4d9 cf3d 6bd7 6639 a6fb 82bd
000000c0: 2f22 e33b 9a23 31bc c568 0dbe d6a6 b3bc
000000d0: 6e81 a63b 53f2 56bd 83f6 ac3d 5db6 593c
000000e0: 2c1e d3bc 9794 643c 8cf1 90bd acfc 863c
000000f0: c3ce 0fbd 2695 d83d ffbb 093d 22c9 0f3e
00000100: 7fe3 073d c2bd e33d 8cd9 613d d2e2 aa3d
00000110: 6d9b 4f3d 03b8 c83d 1705 713d 44c1 afbd
00000120: 2fcc 433d 90d9 c13d cf75 103e 1eef 0c3e
00000130: 2191 71bd b112 863d 39a3 6fbd b4ea 283c
00000140: f9e5 26bd 615b 8a3d 1505 58bd aa9c 9eba
00000150: 2871 f0bd ae63 5ebc bce2 e8bc 7792 c139
00000160: 229d 063e 45da db3c 6f7e ec3d 2964 95bd
00000170: 9fd0 97bd 77b4 afbd d3d6 4f3d a3d8 c0bd
00000180: cd21 d03d 3af9 8d3d 0793 163d 0d65 9abd
00000190: 0664 573d 692f babd 9ee6 03bd 1bba edbd
000001a0: 50d8 63bd 5029 dd3c ef78 033e 91f3 173d
000001b0: 59ae 66bd 48a7 d83d 82cb 5f3d 698b cc3d
000001c0: 76ea f23d 51e0 7dbd 28f2 04bb 6a76 28bd
000001d0: 06c7 d8bd 982e 65bd 0a03 a23d 4ab0 1ebd
000001e0: 649a a23c 1e3e e53c f774 debc f361 fb3d
000001f0: 1938 963b f5a3 293d ed5c f03d 47ce 02bd
0.030692251 -0.044166036 -0.02223263 -0.10014832 0.059319086 0.0397243 0.09847594 0.061450288
0.018115463 0.058701873 -0.007501152 -0.02755453 0.0376097 0.09878003 0.106304534 0.112228565
-0.089149974 0.10742521 -0.07602153 0.06332505 0.10084091 -0.11545387 -0.0344229 0.031317152
-0.009327367 0.017549485 -0.07024979 -0.048360247 0.08792179 0.03029008 -0.06062625 -0.11123209
0.14461744 -0.09283078 -0.1080492 -0.064624935 0.11167283 0.09157906 0.047202207 0.046047896
-0.02994122 -0.11188047 -0.05577071 -0.077043116 0.119113825 0.101489455 0.00022014759 -0.063956544
0.0069315652 -0.010811711 -0.13809498 -0.02193014 0.005081347 -0.052477192 0.08445456 0.013288108
-0.025771223 0.013951442 -0.070773214 0.016477905 -0.035109293 0.10575323 0.033626553 0.1404157
0.03317594 0.11120178 0.05513911 0.08344044 0.050685335 0.098007225 0.058842745 -0.08581784
0.047802147 0.09465325 0.1410744 0.13763091 -0.058976296 0.06546534 -0.05850527 0.010309864
-0.040746663 0.067557104 -0.05273922 -0.0012101133 -0.11740333 -0.01357357 -0.028428428 0.00036920953
0.13145879 0.026837477 0.11547553 -0.07294495 -0.07412838 -0.08579343 0.05074198 -0.0941632
0.10162697 0.06932302 0.03676131 -0.07538805 0.052585624 -0.09091074 -0.032202356 -0.116077624
-0.055626214 0.026997238 0.12839101 0.037097517 -0.056318615 0.10578781 0.05463744 0.09987528
0.11861126 -0.061981503 -0.0020285938 -0.041128553 -0.10584836 -0.05595264 0.07910736 -0.03874234
0.01984901 0.027983721 -0.027155383 0.12274542 0.004584324 0.041416127 0.11736474 -0.031935003

weight f4 [128, 128]
00000000: 2bd2 e7bc a28b 83bd 3073 933c 91e8 7d3b
00000010: bf9a 0b3d e404 a53c 3eb8 13bd e251 913c
00000020: a661 eb3c a1bf 95bd c45b 593c af62 df3c
00000030: e5a7 963d 4335 e6bb a39e 48bd 0d00 9dbb
00000040: 74bc 6cbd b270 9b3d b320 e63c 0121 573b
00000050: 877f 993d 29bb 97bd 27b9 f5bc 79a1 8e3d
00000060: a37f b8bd b69c e03c a2df 07be 3a5f 603d
00000070: 22f7 7c3d bee8 773d 47e3 adbd d961 213c
00000080: 9ac3 993d 6372 59bd bed5 b6bc 758e ae3d
00000090: 0f36 613d 307e d43c e61c 66bd 4a37 a53d
000000a0: 4765 ccbd 4785 543d ae53 a03c bada 8d3d
000000b0: 5015 9dbd e8ce 00bb 7944 57bc 7beb 6abc
000000c0: 783b a9bc 3706 063d fc5c 873d 810a ae3d
000000d0: 5acb 233c 8ede 483d 9e94 cb3c c9a4 6c3d
000000e0: 0aa7 91bd 98d6 053b b859 543d eb37 16bd
000000f0: c9e7 753a 90ea 0fbb ece0 f8bc 60ae 523e
00000100: 9d8a 083d dd6d b0bc 8f76 6cba e9ce 17be
00000110: 97ac e4ba f19a c9bd 6611 70ba 680f 4dbd
00000120: 4e09 e13c c077 213d 55a6 763c bcf1 9dbc
00000130: 35f8 5abd 870e e3bd 662f 7bbd d0e2 9fbc
00000140: d0ac 3dbd dae8 153c a4fe ebba e65e 05bd
00000150: 331b 0e3d 5e22 823d 62f8 233d 4ea2 46bd
00000160: d52f e33c c3f4 893d cf8b 813d 44ea 863d
00000170: 8c00 f93c a07e a03c e2ce 4abd 518b 01bc
00000180: 595b 6d3c 00ba a23d c616 e13b c973 f3bd
00000190: 7540 0bbc 293f e83a 1d71 983d 8344 743c
000001a0: aa62 003d 6462 e93c d2aa 0fbe eac7 5abd
000001b0: bbce fcbc 0d1d babd 7113 0fbd 2ef2 723d
000001c0: 18fb a03c 2254 5fbc 2d24 6abd 7b79 5d3b
000001d0: ac10 8f3d 30e8 eb3c 95ed d4bc 08bb 87bd
000001e0: 7de9 3d3d 00c4 6bbc 0df2 9bbc b01e f6bc
000001f0: f202 853d 59f0 42bc 7b12 5b3d ef9e b73c
00000200: aaa6 71bd 5be5 243c f143 0b3d 023a 39bd
00000210: 45cc a93d 9bf1 25bd 5655 4f3d 7adb 54bd
00000220: 71d1 e1bc b8fa c8bc 0163 58bd 1072 e43c
00000230: 674e 7bbd 0a6f 1abd fac1 323d 0291 b6bd
00000240: 57bf 1cbc e120 463b d091 323c e02f 4c3d
00000250: 29f4 0bbd 2bff 14bb a0fb bcbd c1dd 953d
00000260: e5ff 443c 9c1e 2bbd f3b2 1e3d eee4 9cbd
00000270: 006c 6e3d dda7 dfbc da52 d2bc 2941 7c3d
00000280: cf51 c1bc cc26 663d 008a aebd f81e 9d3d
00000290: 8775 eabc 3dd8 113d ed10 ab3c 48fe 3a3c
000002a0: cd3f 523d 3603 c3bc d53a b2bd ed9e 843d
000002b0: 6c3e 86bd 3c5a 213d e094 3f3d f502 8cbc
000002c0: 09cc 7abd f643 93bc 8c75 93bd d2f1 70bd
000002d0: 3470 babd e780 2dbc bd25 843d 456c aabd
000002e0: 071b 78bc c74f 99bd d80a 34bd bfe3 88bd
000002f0: eb47 4b3d e984 e7bc 4c04 b1bb 20f9 473d
00000300: 3a08 343d 60f2 57bc 5440 373d eff3 48bc
00000310: 049c 4a3d 4d93 2dbd 5281 a6bc f3b8 c1bb
00000320: c34d 5e3d 178d dfbc 08d9 eeba 8787 5fbd
00000330: 1d58 8dbd a312 8ebd 8336 f93c 14d6 8c3b
00000340: 802d 1dbd d07d f3bd 853b eebd 5978 9f3d
00000350: 2346 973d 70cb 073d 6bf9 a33d fd0d f53c
00000360: 6c37 9ebd 3bdf 6fbd fd14 e7bc fddd 97bd
00000370: f4fa cc3b d191 b43d 0d55 713b 17c6 8f3d
00000380: 1ef0 dbbc 8659 1fbd 2ff0 133d a01e c03d
00000390: 61d9 14bd f9a5 7cbd 43cb 95bd 3f42 4d3d
000003a0: fe20 903a 605c a5bd 8b20 0e3d 5244 413d
000003b0: 895c 59bd 85a6 98bd e411 11bd 32eb c7b9
000003c0: c51c 4cbd 591e 08be 0d90 96bd 6b57 a03d
000003d0: 93f3 82bd ee5b 97bd b711 813d da2c dd3c
000003e0: 6028 ec3b 9586 593d 72ab d4bd 3e3e 7c3d
000003f0: 2d10 f5bc 0d74 46bd be7b 72bd e842 41bd
-0.028298458 -0.06423117 0.017999262 0.0038743357 0.034083124 0.020143934 -0.03606438 0.01773924
0.028733086 -0.07311941 0.013266508 0.027268736 0.07356242 -0.0070253923 -0.048979413 -0.004791266
-0.05779691 0.07589854 0.028091764 0.0032826068 0.07495027 -0.07408745 -0.029995514 0.06964392
-0.0900872 0.027418476 -0.13268903 0.054778315 0.06175912 0.060524695 -0.08490615 0.009849989
0.07508011 -0.053087603 -0.022318717 0.08523265 0.054983195 0.025939077 -0.056179903 0.08067186
-0.099802546 0.051884916 0.019571152 0.069264844 -0.07670081 -0.0019654576 -0.013138884 -0.0143383695
-0.02065824 0.03272077 0.06609532 0.08498097 0.009997213 0.04904037 0.02485114 0.05777434
-0.07111938 0.0020422097 0.051843375 -0.03667442 0.0009380547 -0.0021959879 -0.030380689 0.20574331
0.033335317 -0.021536762 -0.0009020352 -0.14825024 -0.0017446455 -0.09844006 -0.0009157866 -0.05006352
0.027470257 0.039420843 0.015054305 -0.019280307 -0.053459365 -0.11086755 -0.0613245 -0.019517332
-0.046307385 0.009149754 -0.0018004966 -0.032561205 0.034693908 0.06354211 0.0400318 -0.04849463
0.027732769 0.06736138 0.063254945 0.06587651 0.030395769 0.01959163 -0.049513705 -0.007906751
0.014487111 0.07945633 0.00686917 -0.11887319 -0.0084992545 0.0017719019 0.0744345 0.014908913
0.031344093 0.0284893 -0.14030007 -0.05341331 -0.030860296 -0.09087572 -0.03493065 0.05931299
0.01965098 -0.013630899 -0.057163406 0.0033794332 0.06985602 0.028797239 -0.025992194 -0.0662747
0.04636525 -0.014389992 -0.019036317 -0.03004393 0.064947024 -0.011898124 0.05348442 0.022414653
-0.058996834 0.010064448 0.03400034 -0.045221336 0.082909144 -0.040513616 0.050618492 -0.05196712
-0.02756569 -0.024533615 -0.052828792 0.02788642 -0.061354067 -0.03770355 0.04364202 -0.08914377
-0.009567103 0.0030232 0.010899022 0.049850345 -0.034168396 -0.00227351 -0.09227681 0.07317687
0.012023901 -0.04177724 0.038744878 -0.076608524 0.058208466 -0.027301723 -0.025674272 0.06158558
-0.02359858 0.056189343 -0.08522415 0.076719224 -0.028620495 0.03560661 0.020882094 0.011413164
0.051330376 -0.023805242 -0.087026276 0.06475625 -0.06554875 0.039392695 0.046772838 -0.017091254
-0.06122974 -0.017976742 -0.07200155 -0.058824368 -0.09103432 -0.010589815 0.064525105 -0.08321432
-0.015143163 -0.074859194 -0.043955654 -0.06684064 0.049629133 -0.028261619 -0.0054021236 0.04882157
0.043953158 -0.013180345 0.044739082 -0.01226519 0.049465194 -0.042376805 -0.020325337 -0.0059119402
0.054273378 -0.027288957 -0.0018222639 -0.05457261 -0.06901572 -0.069371484 0.030421501 0.004297981
-0.03837347 -0.11889231 -0.11632446 0.07786626 0.073864244 0.033152997 0.08006557 0.029913897
-0.07725415 -0.0585625 -0.02820825 -0.07415388 0.006255502 0.08816875 0.0036824376 0.070202045
-0.026847895 -0.038903736 0.03611773 0.09380841 -0.03634012 -0.06168172 -0.0731416 0.050112005
0.001099616 -0.0807426 0.034699004 0.047184296 -0.053066764 -0.07453636 -0.035417452 -0.00038131472
-0.049832124 -0.13292827 -0.07351694 0.07829174 -0.06394114 -0.07390581 0.06302207 0.026998926
0.0072069615 0.053106863 -0.10384263 0.061582796 -0.02991494 -0.04845052 -0.05920004 -0.047182947

bias f4 [128]
00000000: 6e37 b0b9 9a50 32bd 311a ae3d 84a6 c5bc
00000010: af59 923d 7bbd 453d 5283 ac3d 5e32 8d3d
00000020: 35d6 ffba 95f1 7cbd a0f8 b43c 53f2 033d
00000030: 5854 353d 4038 20bc 7c45 403d fc01 e83c
00000040: fc0f 33bd df1c 273c 548e 32bd a841 82bd
00000050: e6ed d33c 1700 ce3b 3db5 a53d 74da b03d
00000060: 318e d73c d54b 9e3c 81fd 1abd 0545 babc
00000070: 59c2 83bd 88e8 9e3d 7b51 a73d 3fa0 bb3c
00000080: a5f7 a1bd 95ed 24bd f805 b1bb d2eb b73d
00000090: a262 f03c 1015 c2bc 9dcb 6b3d 7dd7 4abc
000000a0: 3917 3abc 10fa 163d ddf7 4c3c 1f2a b53d
000000b0: e802 cdbc 0f3a 2abd a4b3 7cbd ba5b ef3c
000000c0: 09c0 8b3d 6e8a 6d3d c55f 4fbd c701 29bd
000000d0: c249 39bc 8e32 873d e457 84bd 5302 88bc
000000e0: f8df f4bb dba6 ac3c 479a 0c3d 027f a6bd
000000f0: 86d2 8fbc 087f 373d 88ef 1b3d 7c4b 0c3d
00000100: 7516 c6bc 0e6c 313d 1590 64bc 491a 6ebd
00000110: 6ec4 9c3d 4679 763c 8024 063d d9cb 4d3d
00000120: b8ad 2cbb 21cf aabc 984e 24bd 5050 53bb
00000130: c210 94bd 6caf 9c3d de30 4abd ad1b 1dbc
00000140: 478e d8bc bec1 883d 3983 2bbd 6115 bebc
00000150: e0cb 973d ce4d b0bb dcf0 b23d 8a6d 0fbd
00000160: 54b4 6e39 29e3 53bd 9772 32bd e85a bdbd
00000170: c498 cabc 1b5c bc3d 2e94 80bc c73a 96bc
00000180: 330c be3d 0292 803d 499b 523d 1503 59bd
00000190: 257f 4fbc 5382 823d 64b4 5dbd d1ba 80bd
000001a0: 9afc 6bbd 62e2 243d 605d b3bd 9254 8cbd
000001b0: 7017 b73d 1d9c 46bd 5f17 c93d be48 fcbc
000001c0: ef3f b13d fc33 2bbd 9e22 85bd 4b6e 19bb
000001d0: 2112 32bd cefc aabb 56db 77bd fdb1 c43c
000001e0: 36f6 18bb f38b 8dbd 280e 24bd 75e5 5b3d
000001f0: 03d4 c03d f006 9fbd 174a 383d fe2f 86bd
-0.00033610634 -0.0435339 0.08501089 -0.024127252 0.07146012 0.048276406 0.08423485 0.068943724
-0.0019518795 -0.061753828 0.02209121 0.03221352 0.04426989 -0.009779036 0.046941265 0.028321259
-0.043716416 0.0101997545 -0.043592766 -0.06360179 0.025870275 0.006286632 0.08091209 0.086354166
0.02631292 0.019323269 -0.037839416 -0.02273799 -0.06433553 0.077591956 0.08169838 0.02290356
-0.079085626 -0.04026564 -0.005402323 0.08980526 0.029343907 -0.023691684 0.057567228 -0.012380478
-0.011358076 0.036859572 0.012510267 0.088459246 -0.0250258 -0.041559275 -0.061694756 0.029218543
0.06823737 0.057993345 -0.050628442 -0.04126146 -0.011309089 0.066014394 -0.06462076 -0.01660267
-0.007472988 0.021075657 0.034326818 -0.081296936 -0.01755644 0.04479888 0.03807023 0.034251675
-0.02418063 0.04331594 -0.013950367 -0.058130536 0.076546535 0.015043562 0.032749653 0.050243232
-0.0026348662 -0.02085072 -0.040114015 -0.0032243915 -0.07229759 0.076506466 -0.04936301 -0.009589118
-0.02643503 0.066775784 -0.04187319 -0.023203554 0.07411933 -0.005380369 0.087373465 -0.035016574
0.00022764626 -0.05173031 -0.043566313 -0.092458546 -0.024731047 0.09197255 -0.015695658 -0.018338574
0.092796706 0.06277849 0.051417623 -0.052981455 -0.012664591 0.063725136 -0.054127112 -0.062856324
-0.057613946 0.040254958 -0.08758044 -0.06852068 0.08940017 -0.048488725 0.09818911 -0.030796405
0.086547725 -0.041797623 -0.06500743 -0.0023411687 -0.04347432 -0.005218125 -0.06051191 0.024010653
-0.0023340113 -0.06911459 -0.040052563 0.053685624 0.09415438 -0.07764995 0.044992533 -0.065521225

weight f4 [2, 128]
00000000: 3382 babd b57d 883d cce6 b13c 7cb8 5cbe
00000010: 8087 58bd 4d00 cabd d901 0abe 23e6 e23d
00000020: 4fa1 ddbd a791 95bd 2dab b2bd ff49 9abd
00000030: 4604 6c3d 8672 113d e093 be3d 7cbe 6dbd
00000040: 545a 093e 3421 c53d 6620 87bd 0a3b 4abc
00000050: 866d 16be b63b bebd 4c97 1dbe c3ba cdbc
00000060: fa6b 42bd 3a5f abbd e12f 90bd 42a7 babd
00000070: 8640 3a3c 0dc7 a43d ac4e abbb 7f1e 903a
00000080: c687 e5bb 9600 67be ff84 383d 7fc2 a83d
00000090: 496d d63d 569a 4f3d 2d0b 2c3d a445 d8bc
000000a0: f951 e83d 1a39 d8bd 1421 dbbc 4ca7 0ebd
000000b0: b297 053d 6c32 6abc 3612 07bd 136d c03d
000000c0: 2851 24bd 866a 92bd 5c01 2e3d 0f7e 5d3d
000000d0: dfd9 513c 4de6 e93d b9f9 5d3d 3aa6 9abd
000000e0: 87ff 12be 912f 7f3d c8cf 0abd a98b be3b
000000f0: 2285 8a3d 6f05 f5bc 358a 813d 9fec fc3d
00000100: bcf2 20be ed4a 8fbd c041 a1bd 2323 13be
00000110: 459a d83d 0cc6 1a3d 1f5d 42bd 4e5c 9cbd
00000120: af83 efbd 565f 963d fca1 2d3c fe88 adbd
00000130: 7189 ce3d d862 7b3d cced c4bd 3565 b83c
00000140: b81b 993d cb0d d83d cefb f63d 085e debb
00000150: 0e19 0fbd 64cb a63d a6f2 52bd 5ff4 023e
00000160: ac97 de3c 51c9 fc3d a796 823c 4b08 7e3d
00000170: 1f0c 95bd 7e7f dabd 1242 9c3d 3860 803d
00000180: f0df 283e 7e9c 57bd 8bce c3bc 369c a8bb
00000190: a668 0c3d c495 05bd 5233 b9bc b309 edbd
000001a0: 3e5b 12bd 1155 333b a331 13bd 2a80 9d3d
000001b0: 0352 033b e5af 8639 e71c 21be 1788 ea3d
000001c0: 8719 f83d fe21 d73c 7e09 a8bc 9dcd 173c
000001d0: fec0 cf3d 5e65 293e 1de4 633d 40fb 28bc
000001e0: 290f 63bd a5f1 2a3d ed62 80bd 79c2 023e
000001f0: 9bb8 903d 024f 013e b494 8cbd 3af7 ae3c
00000200: 9a0d 153b f8be 40bd 4615 ddbd 188a 2dbd
00000210: ba22 72be c0fa 07be 599b 24bd 26a8 983d
00000220: d35d 0e3c e9ab 16be 645e a13d 10d3 ba3d
00000230: 9fc0 0c3d 9784 863d ee99 16be 8d36 933c
00000240: d897 06bd aef3 9c3d 5734 553d 6ae3 19bd
00000250: 63e2 3a3d d284 923e 1fdf f63c 59e4 523d
00000260: 4938 8a3e b4ed de3d ec2a 633d fa1a 5ebe
00000270: f6af d0bc a94b 3fbd 303d 80bd 8b0b b6bd
00000280: 048d f5bd 3990 bd3d d299 c73d 5543 bd3d
00000290: 1936 583d fa03 83bc ec34 5cbe 1b46 873d
000002a0: d631 823d c1a5 613c 75f3 bdbd 6a32 d7bd
000002b0: d8ef 903d d288 52bc c323 153c 8af1 bdbd
000002c0: 357d a83d faee 9a3d 5a4f 7a3d 9525 ee3d
000002d0: c7bf 2d3d 08d6 1e3d 4d13 55bd 136b 823d
000002e0: b051 4e3e 19d7 95bd 6d5e 373d 8156 c93d
000002f0: 7d2f c03d 5c4d 29be 343d 293e 0055 3cbd
00000300: 3218 acbd 01ca fa3d d2f1 2c3d 8896 7a3d
00000310: 40ef 4fbd d050 14be afbc bf3d be21 1eb9
00000320: 79f8 e1bd 5559 b0bd cb75 bf3d 8290 313a
00000330: 975b 55bd 2739 0ebe a2be d8bb 07e2 02be
00000340: 5782 8dbd 3760 babd bcaf aabc f6c4 e03d
00000350: 8e61 803d be24 12bc 5270 443d 8135 77bd
00000360: a312 c93d 5d3e 21bd cc0b bf3d 1433 873e
00000370: 9c9c c33d 7656 13bd d934 0f3e ff05 1b3e
00000380: 4d88 2cbe ec72 113c ccc4 91bd 8916 c8bd
00000390: 76b7 ec3d ded5 a4bd d75c 993d 95d3 afbc
000003a0: fb72 583d 4194 fabc b4c1 773d 82c1 ff3d
000003b0: b6ea 0e3e ffb9 933c f3e5 41bd 1685 4cbc
000003c0: 7c6b bdbd bc0c 0dbc 8832 2abe 3508 e4bd
000003d0: de5a b8bd fff7 69bd 23a4 933d a076 99bd
000003e0: 172d 093e d100 0a3d 17f7 863c 8a67 a4bc
000003f0: 26cd 23be b435 c13d 42cd 1fbd bab4 3cbd
-0.09106865 0.06664602 0.021716498 -0.2155475 -0.052863598 -0.098633386 -0.13477267 0.11079051
-0.10821783 -0.073031716 -0.087240554 -0.07533645 0.057621263 0.03550961 0.09305549 -0.05804299
0.13413364 0.096254736 -0.065979764 -0.012343178 -0.14690217 -0.09288733 -0.15389746 -0.025113469
-0.047466256 -0.083677724 -0.07040382 -0.09113933 0.011367923 0.080457784 -0.0052278843 0.0010995417
-0.007004711 -0.22558817 0.04504871 0.08240222 0.10470063 0.050684296 0.042002846 -0.026400395
0.1134376 -0.10557766 -0.026749171 -0.034827515 0.03261537 -0.014294248 -0.03297635 0.09395804
-0.04011646 -0.07149224 0.042481765 0.054075297 0.012808292 0.114208795 0.054193232 -0.075512365
-0.14355288 0.062301222 -0.033889562 0.0058149886 0.06763674 -0.029909818 0.06325189 0.123498194
-0.15717596 -0.06996713 -0.07873869 -0.14368872 0.105762996 0.03778653 -0.04745209 -0.07634793
-0.116950385 0.07342403 0.010597702 -0.08473395 0.100848086 0.06137356 -0.09615669 0.022509197
0.0747599 0.10549506 0.12059747 -0.0067861117 -0.034936003 0.081442624 -0.05150094 0.12788533
0.027171932 0.123430856 0.015940977 0.062019628 -0.072777025 -0.106688485 0.076297894 0.06268352
0.16491675 -0.052639477 -0.023902198 -0.005145575 0.034279488 -0.03261353 -0.02260748 -0.115741156
-0.035731547 0.0027363936 -0.03593601 0.07690461 0.0020037896 0.00025689523 -0.15733682 0.11451738
0.12114244 0.026261326 -0.020512339 0.009265331 0.10144232 0.16542575 0.055637468 -0.010313809
-0.05543438 0.041734356 -0.062688686 0.12769498 0.07066461 0.12627795 -0.068643 0.021358121
0.0022743703 -0.047057122 -0.10795073 -0.042368025 -0.2364606 -0.13279247 -0.040187214 0.07453947
0.008689362 -0.14714016 0.07879332 0.09122288 0.034363385 0.06568258 -0.14707157 0.017970348
-0.032859653 0.07663666 0.05205187 -0.037570395 0.045626055 0.2861696 0.03013569 0.0514873
0.26996067 0.10885182 0.055460855 -0.21689978 -0.02547453 -0.046703015 -0.062616706 -0.088889204
-0.11989787 0.09256024 0.09746136 0.09241358 0.052785967 -0.015993107 -0.21504563 0.066051684
0.06357162 0.013772429 -0.09274951 -0.105076626 0.070769966 -0.012850003 0.009102765 -0.092745855
0.08227006 0.075651124 0.06111083 0.11628262 0.04241922 0.038778335 -0.05202036 0.06368079
0.20148349 -0.07316417 0.044767786 0.098309524 0.09384058 -0.16533417 0.16527253 -0.0459795
-0.084030524 0.122455604 0.042222805 0.061178714 -0.050765276 -0.14483953 0.093621604 -0.00015080624
-0.110337205 -0.08610789 0.09348639 0.00067735475 -0.0520893 -0.1388899 -0.006614522 -0.12781535
-0.06909626 -0.09100383 -0.02083575 0.10975067 0.06268607 -0.008919893 0.04795868 -0.06035376
0.09818008 -0.039366115 0.09328422 0.26406157 0.09551355 -0.035971127 0.13985004 0.15139006
-0.1684887 0.008877497 -0.07117614 -0.09769923 0.1155843 -0.080486044 0.07488411 -0.021463195
0.05284403 -0.030588271 0.060487464 0.124880806 0.13956723 0.018033026 -0.047338437 -0.012482902
-0.09249017 -0.008608993 -0.16620839 -0.11134378 -0.090017065 -0.057121273 0.07209041 -0.07493329
0.13396107 0.033692185 0.016475243 -0.020068903 -0.15996227 0.09434071 -0.03901411 -0.04607079

bias f4 [2]
00000000: 6442 893d c13e cdbc
0.06702116 -0.025054337

weight f4 [2, 128]
00000000: 3bf4 e33c 78b1 ba3c 6f67 5f3c 1cf0 c03b
00000010: 6e1c b53a 988c a7bb d5ba ab3c d3f2 f0bc
00000020: aae3 3bbc cb42 223c 7fde 633a 1f09 b13c
00000030: 2068 db3a f92c 68bc 4a90 e8bb 297b 393b
00000040: c3d0 203d 9e62 5e3c d56f 5fbd 600c fd3b
00000050: ee4b ec3b e07d fabb 4457 a3bc 17cb 74bc
00000060: da4a 94bc 27c1 07bd 1f7b 5dbc a112 ec3c
00000070: 25a2 d33c 0395 093c 0fbe d13c 6bc4 1ebd
00000080: ed5a 46bd b293 823c 89f6 9a3c c7f2 3b3b
00000090: 037c f9bc fd2e fa3b 3450 a3bc e61f 063d
000000a0: 066c 323c 7ca8 70bd 8602 ef3c eb13 55bd
000000b0: 185a ec3c e8aa e93b 6d8d 63bd 3488 05bd
000000c0: d434 a0bc a6f7 20bd 4994 a9bb a8ef f1bc
000000d0: e15a 433d f000 e33c c03f b03c 08e3 783d
000000e0: 553f c6bb 91c8 72bd cda8 19bd f810 0c3d
000000f0: 459a 113d c1ae 9abb 7c56 9a3c c45f 283d
00000100: 9f99 3d3c 4a64 e83c 6a2e 333c cf00 a6bc
00000110: f797 46bd 7120 513d 413d a2bc 1b72 74bd
00000120: 8b73 703c f312 d2bb 64fa a0bc 00a6 3b3d
00000130: 30a5 ac3a c7e0 e13b a777 4a3d 22ee 78bc
00000140: c5a8 68bd d08f b9bc 7f8f 82bc e015 323d
00000150: 921e bfbb a982 383d 4b35 4fbd acf7 d3bc
00000160: 4bec fb3c c52e 4e3c 8932 16bd d3d3 a7bc
00000170: 6de0 f1bc f541 0a3c 7b2f 063d 3d11 31bd
00000180: b55b 533d 8d91 af3c af47 183c 620a 77bd
00000190: 9779 1e3c ef21 683d 9ba5 9cbb ce48 cb3c
000001a0: 4909 863d 36b8 e1bc 8fac 9fbc e7e5 163b
000001b0: 918d 1fbd 2b9b e83c 4025 12ba 9d9e 6f3c
000001c0: c8a4 06bd 8d75 b43c 0d48 48bd b3a7 e83c
000001d0: 051a 24bd 0d58 bd3b 0b47 f03c 53f5 58bd
000001e0: e480 973c 6e13 123d 2b3e 1b3c 6611 16bc
000001f0: dffe 6cbc df7a c5bc 975b f7bc 53bb 283d
00000200: 78f1 4b3d a58b dbbc 629c 89ba 466e e3bc
00000210: 21d8 363c 1449 bb3b 220a b73b 8741 9dbc
00000220: 15fc 133a b5c1 b8bc ff45 1b3d b1bd 853c
00000230: 1c63 3fbb 285b 7ebc 892c 0abd d2de b73c
00000240: 323f 0cbd 0cf6 893d 6e52 84bd 58c0 4a3c
00000250: badf 5dbd 59fc b6bc 3f35 ffbc a435 453d
00000260: 3a3a 7ebb 6c8a 5e3d e0b5 2bbc 7b2a e1bc
00000270: 4bda 1ebd 12df 7cbd c25f e7ba 78b9 74bd
00000280: f517 45bd 7c90 9fbc 69a2 e03c 39f2 36bc
00000290: 7e66 4cbd 0161 903d 5f95 163d 07bf 403d
000002a0: 7024 c2bc 7525 8c3d 40d6 2e3d eb27 283d
000002b0: ec71 423a 1925 74bd 6248 72bc d488 07bc
000002c0: 1520 4ebd c167 203d 10b3 abbc 2d16 4dbd
000002d0: 1d31 38bd e9cd 6f3d 36bd 1ebd e927 0dbd
000002e0: 51ee c2bb 4a34 51bc 8848 33bd dd08 07bd
000002f0: 2c76 dbbb 13cf 4dbc 0aa8 a13c d0fa 243b
00000300: 6286 283d 652e d3bc df1a 81bd 7c89 2abc
00000310: a39e ca3b 86ec 78bd 3229 45bd deb7 1e3d
00000320: 419a 483d 0542 953c 9821 4ebd a2b5 89bc
00000330: d786 36bd 4572 87bc 4364 6b3d be3f b33c
00000340: 44cf 4ebd baca c6bc 453d 563d 962b 3fbd
00000350: 892f 2abd b5e8 b13c b415 32bd 0448 293c
00000360: f4e3 cc3c c0c6 493c decb 8c3d 38c8 753b
00000370: 1a14 673d e041 0ebd 7ede ee3b 19a4 1b3d
00000380: 69ad cd3c a4b4 a53a e3ec 2ebc a6d4 ddbb
00000390: e870 57bd fbf6 a53d 4c20 5ebc 9f31 6bbd
000003a0: b26a 9cbd 5a98 663d 78f6 5b3d d380 c2bc
000003b0: 450f 5f3d 0cc8 813d fe86 a73c abcb da3c
000003c0: 8e40 88bd 5eb9 593d 4a08 b53c fd1b 323c
000003d0: fe33 0a3d 5148 0bbd 8a78 0c3d 8dfc a03a
000003e0: 875e 9f3c d72d 863d 6e1e ab3c 0c8c 4ebd
000003f0: 888f e93c 5f42 0d3d 0bd0 2abc a546 313d
0.02782642 0.022789702 0.0136355 0.0058879983 0.0013817677 -0.0051131956 0.020963112 -0.029412663
-0.011467854 0.00990362 0.00086925173 0.021610795 0.0016739406 -0.014170879 -0.0070972787 0.002830217
0.03926159 0.013573317 -0.05455001 0.0077224225 0.0072112 -0.0076444 -0.019939072 -0.0149409985
-0.018102098 -0.03314319 -0.013518124 0.028817477 0.025834152 0.008397344 0.025603322 -0.038761538
-0.048426557 0.015939567 0.018916385 0.0028678642 -0.030454641 0.007634996 -0.019935705 0.032745264
0.010890013 -0.05875443 0.029176008 -0.05202095 0.028851554 0.0071309693 -0.055554796 -0.032600597
-0.01955644 -0.039298676 -0.0051751477 -0.029533222 0.04769409 0.027710408 0.021514773 0.06076339
-0.0060500302 -0.059273306 -0.037514497 0.03419587 0.035547514 -0.0047205393 0.018840067 0.041106954
0.011572271 0.028368134 0.010936359 -0.020264057 -0.04848477 0.05105633 -0.019804599 -0.059679132
0.014675985 -0.0064109503 -0.019650646 0.045812607 0.0013171788 0.0068932506 0.049430516 -0.015193494
-0.056801576 -0.022651583 -0.015937565 0.043477893 -0.0058325017 0.045046482 -0.050587934 -0.025874935
0.030752322 0.012584393 -0.036669288 -0.020486748 -0.02952596 0.008438577 0.032760125 -0.04322933
0.05160113 0.021431709 0.009294434 -0.060312636 0.009672544 0.056672987 -0.004780484 0.02481499
0.0654474 -0.027553659 -0.019491462 0.0023025216 -0.038953368 0.028394302 -0.00055750087 0.014625219
-0.03287199 0.022028709 -0.048896838 0.028400278 -0.040063877 0.0057783187 0.02933075 -0.052968334
0.018494077 0.03566306 0.009475271 -0.009159422 -0.014465063 -0.024106441 -0.03019504 0.04119427
0.04979083 -0.026799986 -0.0010498876 -0.027762543 0.011159928 0.0057154987 0.0055859247 -0.019196285
0.0005645168 -0.022553304 0.03790855 0.016325803 -0.002920336 -0.015524663 -0.03373388 0.022445116
-0.034239955 0.06736383 -0.06461035 0.01237496 -0.05416844 -0.022337126 -0.03115332 0.04814686
-0.003879203 0.054331228 -0.010480374 -0.027486077 -0.0387824 -0.061736174 -0.001765244 -0.05974719
-0.04811855 -0.019478075 0.027421193 -0.011166149 -0.04990243 0.07049752 0.036763545 0.047057178
-0.023699015 0.06843082 0.042684793 0.041053694 0.00074174884 -0.05960569 -0.014787765 -0.008272368
-0.050323565 0.039161447 -0.020959407 -0.050069977 -0.044968713 0.05854598 -0.038754664 -0.03446189
-0.0059488197 -0.012768814 -0.043770343 -0.032967437 -0.006697437 -0.012561577 0.019733448 0.002517391
0.041143782 -0.025778959 -0.063039534 -0.010408755 0.0061834618 -0.06077244 -0.04813499 0.03874957
0.048975233 0.018219957 -0.050325006 -0.016810242 -0.044562187 -0.01653398 0.057468664 0.02188098
-0.050490633 -0.02426659 0.052304525 -0.046672426 -0.04154924 0.021717409 -0.04347773 0.010332111
0.02501104 0.012315452 0.06874822 0.0037503373 0.056415655 -0.034730792 0.0072897067 0.037998293
0.025107102 0.0012642336 -0.010676595 -0.0067697344 -0.05259791 0.081037484 -0.013557505 -0.05742037
-0.07637538 0.056297638 0.053701848 -0.023743069 0.05445792 0.06336984 0.020450111 0.026708445
-0.06652938 0.053155296 0.02209868 0.010870931 0.03374099 -0.034004513 0.034294643 0.0012282297
0.019454254 0.06551712 0.020888533 -0.050426528 0.028510824 0.034487125 -0.010425578 0.043280263

bias f4 [2]
00000000: 3142 863d 303f eab9
0.06555594 -0.00044679036
