clone_data/marigold_episodes/marigold_clone_25ep_5trn_1000_expert_runs/marigold_clone_25ep_5trn_1000_expert_runs_s0/pyt_save/model.pt (torch, 104138 bytes, 9 tensors)

log_std f4 [2]
000000 00 00 00 bf 00 00 00 bf
       -0.5 -0.5

weight f4 [128, 60]
000000 8d ec 30 bd 6a 79 85 bd c3 e3 d0 bc 6d 3f 74 3c
       -0.043194342 -0.065172985 -0.02549923 0.0149077
000010 40 ca 8e 3d 8b 9d d8 3c ff 51 91 3d 5a 8a c9 bc
       0.0697217 0.02644231 0.07095718 -0.024602104
000020 ac aa ef 3d 7d ae 1c 3d 5a 5a 67 bd 7c 2f d1 bd
       0.11702475 0.038252342 -0.05648265 -0.10214135
000030 58 62 f6 bd e3 8f 86 3c 7f 09 e3 3d 5f b1 ed 3d
       -0.12030476 0.016426032 0.110857956 0.116060965
000040 25 26 06 bd b2 f3 af 3c 25 26 15 3c e2 29 9f bd
       -0.03275122 0.021478508 0.009103333 -0.077716604
000050 03 67 ad 3d 97 c2 db 3d cc 2b 27 3d 67 c9 6c bd
       0.084669136 0.107304744 0.040813252 -0.05780926
000060 1d 55 0f 3e df c5 b8 bd 01 f2 bd 3c 38 d2 08 bd
       0.13997312 -0.09022116 0.023186686 -0.033403605
000070 6b 0c a6 3d 36 c5 8c 3d 58 e3 8f 3d 9b d6 bc bd
       0.08107837 0.068735525 0.07025784 -0.0922062
000080 72 4c aa 3d ae a2 2f 3d 12 13 ec bd 99 96 32 bd
       0.08315362 0.042879753 -0.11527075 -0.043600652
000090 03 5b db 3d 01 c5 f5 bc 6c fb d4 bd 48 02 a0 bd
       0.107107185 -0.030001165 -0.103995174 -0.07812935
0000a0 24 18 8e bd 3a c3 e5 bd 8b 9e 41 3d 31 cf 5d bd
       -0.06938198 -0.11218877 0.04727034 -0.05415267
0000b0 55 96 7c 3d 77 5c eb 3d 3a 80 e6 3d b9 f7 63 bd
       0.061666805 0.11492246 0.11254926 -0.05565617
0000c0 d0 4f 9b bd 64 73 26 3d 90 4b 9d bd fe 4e 73 3c
       -0.075835824 0.04063739 -0.07680428 0.014850376
0000d0 b5 9f cb 3d c0 33 40 3d cc b1 c3 37 20 20 ad 3d
       0.09942571 0.046924353 2.3328605e-05 0.08453393
0000e0 10 69 ae 3d 4f e3 7a 3c 3b bd 15 bd d3 63 66 bd
       0.08516133 0.015312984 -0.036557417 -0.056247544
0000f0 d9 bf 21 3d b2 42 ca 3d 65 29 fe 3d b6 7f 18 3d
       0.0394896 0.09876002 0.12410239 0.03723117
000100 7d 9e 04 bd bd 7c ea 3d 28 49 4f 3d 28 ad f7 3d
       -0.03237771 0.11449573 0.050606877 0.12093574
000110 54 7d f8 3d 14 39 a0 bd 0e f7 fb bd bf 98 71 3d
       0.121332794 -0.07823387 -0.12302981 0.05898356
000120 6e 71 e7 bd 6a a8 0c bd b2 4f 95 bb 29 86 5d bd
       -0.11300932 -0.0343403 -0.0045566196 -0.054083023
000130 d6 0f c0 bc 2e 1c e1 3d c0 5b 30 bd 53 95 bf 3d
       -0.023445051 0.10991703 -0.04305625 0.09354653
000140 be c7 1c 3d 3a 0e f8 bd ae 7d 95 3c 81 6f 16 bd
       0.038276426 -0.121120885 0.018248405 -0.036727432
000150 19 29 71 bc 8a 1b 4a 3d f5 c1 4a 3c 08 d3 00 3d
       -0.014719271 0.04934267 0.0123753445 0.031451255
000160 27 a5 2d bd 5c 50 d6 bc e7 86 31 3d a7 50 02 3e
       -0.04239383 -0.026161365 0.043341544 0.12726079
000170 ac 3e f3 bd 9d 7f 4f bc 0d fb 93 bd fc 5a 44 bd
       -0.11877188 -0.012664703 -0.072256185 -0.047938332
000180 ab c3 84 3d a9 21 36 3d 0d 41 80 bc 47 24 15 3d
       0.06482633 0.044465695 -0.015656019 0.03641155
000190 6f 3e 2d bc cd 29 e7 bc b6 d5 ec 3d 88 39 90 bd
       -0.010573967 -0.028218174 0.115641996 -0.07042223
0001a0 32 49 61 bd 93 07 62 bc 92 09 cd bb 0f d6 27 bd
       -0.055001445 -0.013795751 -0.0062572444 -0.040975627
0001b0 bf e9 d9 3d 22 5d da 3d 83 a6 82 3d 25 70 7c 3d
       0.10640287 0.10662295 0.06379416 0.061630387
0001c0 7c d9 62 bc 2d ce f0 bd 74 4a e2 3d 94 f8 31 3c
       -0.013845798 -0.11758075 0.11049357 0.010862488
0001d0 02 19 86 bd 85 5b 80 3d 39 9b c1 3d 7b 34 91 3d
       -0.065477386 0.06267456 0.094534345 0.07090088
0001e0 c3 04 65 bd 53 94 b9 3c 50 5b b4 bd 97 f5 c1 3d
       -0.055912744 0.022653734 -0.08806479 0.09470671
0001f0 05 2f 49 bd 5e 1a a3 bb 92 58 be 3d 52 89 9a bd
       -0.049117107 -0.0049775084 0.09294237 -0.07545723
000200 e7 d3 32 3d 18 2e 15 be 08 e3 1f be f1 70 57 3d
       0.043659117 -0.14568365 -0.1561395 0.052597944
000210 7e 5e 9b bd 4f 9e 94 3b b4 6a 3a 3d ca d1 40 3d
       -0.07586382 0.0045354734 0.045511916 0.04707507
000220 9f 64 e9 3b 15 30 85 3d 69 57 ae 3d 62 0a c6 bd
       0.0071225907 0.065033115 0.08512766 -0.09669949
000230 cb af af bc e6 d2 00 3c 71 53 ea bd 44 3a b6 3c
       -0.02144613 0.007862782 -0.114416964 0.02224458
000240 c1 e0 98 bd 10 16 8c bc 7e b3 49 3d ab 73 05 3d
       -0.074647434 -0.017100364 0.049243443 0.032581013
000250 7e f2 64 3d ba 74 5f 3d 4d e6 8f bd 92 4f 90 bd
       0.05589532 0.05455468 -0.07026348 -0.07046427
000260 69 8f d4 bc 10 4b 4c 3d ef 52 b4 bd c6 96 f9 3d
       -0.02594729 0.049876273 -0.08804881 0.12186961
000270 25 4a 02 be df 70 b9 bb ae d7 5e bd a0 47 f5 bd
       -0.12723596 -0.0056592072 -0.054404907 -0.11976552
000280 52 85 b3 3d 93 eb d5 3d e3 cb 9b bc 80 50 46 bd
       0.08765663 0.10445323 -0.01901812 -0.048416615
000290 f1 ff bc 3d 92 9e 4d 3d 3b d1 15 bb 92 4d c8 3d
       0.092285044 0.050200053 -0.0022860307 0.0978042
0002a0 1d c7 ad 3d 27 5f ec 3b 6d ee 36 3d e8 30 8f bc
       0.084852435 0.0072134915 0.044660974 -0.017479375
0002b0 fb 93 8c bd 12 1e d7 3c 3b 85 5c bd dd 3c 2e 3d
       -0.068641625 0.026259456 -0.053837996 0.042538512
0002c0 59 c1 64 bc b8 42 18 bd 4b 6c 89 3d 01 c5 76 3d
       -0.013962113 -0.037173003 0.06710108 0.06024647
0002d0 f8 c8 ad 3b 52 4f f7 3d 46 88 fd 3d f6 9c b1 3c
       0.0053034984 0.12075676 0.12379508 0.02168129
0002e0 0f 42 0f 3c 07 7c a0 bd 53 3f 99 bb 61 9d 5e bd
       0.008743777 -0.07836156 -0.0046767383 -0.054349307
0002f0 fc c8 22 3d 30 a4 04 bd f0 73 fa bc 2f 69 d0 bc
       0.039742455 -0.032383144 -0.030572861 -0.02544078
000300 27 7d 32 3d f1 b2 c9 3c 14 3e 64 3b fb d4 fd 3d
       0.043576386 0.024621459 0.003482704 0.123941384
000310 3b 6e db 3d 76 ac 8d bd c7 e7 32 3d bd 96 f4 bd
       0.10714384 -0.0691766 0.04367807 -0.119428135
000320 81 07 a0 bd ba 61 28 be 92 66 d6 3d d8 c2 5c bc
       -0.07813931 -0.1644353 0.104687825 -0.013474189
000330 0c 63 27 bd 0b 16 fe 3d d5 e6 6a bd 32 a8 c4 3d
       -0.040865943 0.12406548 -0.057349045 0.09602393
000340 8f 6f 6d bd 6e 98 3f 3d ac 0f 32 3d 50 5d ae 3d
       -0.05796772 0.046776228 0.043471977 0.08513892
000350 bf 3f ac 3d 79 5a 2f bc fc e4 c7 3d 72 e2 39 3d
       0.08410596 -0.010702723 0.09760472 0.04538197
000360 ea 18 cd bd 8a a8 46 bd 0d 78 a0 bd 82 ae a2 3d
       -0.100145176 -0.048500575 -0.07835398 0.07943441
000370 5b 99 bf bd 7d 9a e5 3d 1f 48 68 3d b2 d2 1d 3d
       -0.09355422 0.11211107 0.056709405 0.038531013
000380 74 81 4b ba d7 6f ac bd bf ac 65 bd ca 29 81 3d
       -0.00077631255 -0.08419769 -0.056072947 0.06306799
000390 26 26 d9 3d b6 bf 8f 3c dd ae bc bc 1b 0a bd bd
       0.10602979 0.01754747 -0.0230326 -0.09230443
0003a0 5c 6c b8 3d 17 c8 53 bd f7 79 5c bd 47 14 ac 3d
       0.09005043 -0.051704492 -0.053827252 0.08402305
0003b0 27 65 e1 bd 31 65 0b 3e f9 d5 88 3d 6b e4 b5 bd
       -0.110056214 0.1361282 0.06681437 -0.08881458
0003c0 eb 0a e0 3d 6f 83 de 3c 3b f0 d6 bd ff 42 d2 3d
       0.109395824 0.027162282 -0.10495039 0.10266685
0003d0 2e ab c3 3d 6b 8f a7 3d bb 4d 10 bb be ac 0f 3d
       0.09554134 0.08181652 -0.0022018987 0.03507685
0003e0 70 0a 31 3c 95 80 c3 bd 37 92 49 bc 1c 09 fd bc
       0.010805711 -0.095460095 -0.012302927 -0.030888133
0003f0 2c 57 a5 b9 52 8c f1 3d 67 3b fd 3d 97 8b 01 be
       -0.000315362 0.11794342 0.12364846 -0.12650906

bias f4 [128]
000000 96 95 00 3e 06 82 71 bd 28 13 6f bd 96 c4 d5 3d
       0.12557063 -0.05896189 -0.05836788 0.104378864
000010 7f 40 84 bc fa cd 36 bc f0 72 31 3c dc af 9f 3d
       -0.016144035 -0.011157507 0.010830626 0.077972144
000020 72 c5 dc 3d 56 63 df bc b9 22 9d 3d 65 f1 e3 bc
       0.10779847 -0.027269047 0.076726384 -0.027825067
000030 c7 ba 9f bd 37 fd cb bd dd 8a cd bd dc a5 b7 3d
       -0.07799297 -0.09960406 -0.10036252 0.08967182
000040 17 59 ea 3d 05 0e ef 3d cc 49 e1 bc b9 99 ff 3a
       0.11442774 0.11672596 -0.02750101 0.0019500769
000050 a8 21 0d 3d 73 36 a7 3d 2f ad 7b 3d 33 c0 5f bc
       0.034455925 0.08164682 0.061444458 -0.013656664
000060 5f 19 d3 3d b3 7c 99 3c d0 c7 9a bd 46 61 4a bd
       0.103075735 0.018736219 -0.075576425 -0.049409173
000070 2f a5 8d 3d 14 89 91 bd 22 61 c0 bd 3b 57 1d 3d
       0.06916272 -0.07106224 -0.093935266 0.038413268
000080 57 d8 b8 3d 0e 4a 8e bd 0f a6 1f bc c5 99 92 3c
       0.090256386 -0.069477186 -0.009744181 0.017895589
000090 fe a8 aa bc 74 55 73 3d 96 8e a1 3d 00 d8 a3 3b
       -0.020832535 0.059407666 0.07888524 0.0050001144
0000a0 f1 ba d5 bd b7 b1 b8 bd ed b8 c1 bd 93 70 f3 bd
       -0.10436047 -0.090182714 -0.094591 -0.11886706
0000b0 26 8d de 3d 2b c9 e8 3d 62 66 b7 bd b2 ca ea bd
       0.10866766 0.11366495 -0.08955075 -0.11464442
0000c0 91 d7 86 bd 31 be 92 3d 3b 6d b3 bd 4a d5 65 3c
       -0.06584085 0.071651824 -0.087610684 0.014027903
0000d0 22 ca df 3d 28 62 8a 3d 8f 55 b0 bd ec a0 70 3c
       0.10927226 0.06757003 -0.08610069 0.014686804
0000e0 5c 62 91 3d 0c b6 01 bd fb 50 a2 3d e9 2c d7 3d
       0.07098839 -0.031667754 0.07925602 0.10506613
0000f0 2b fd 35 3d 7b 8a 62 3d aa e7 ed b9 3a 2d 4c 3d
       0.044430893 0.055307847 -0.00045376766 0.04984782
000100 5e 4f 0b 3e 70 3a 86 bd ce 4b 48 bd 31 46 d5 bd
       0.13604495 -0.06554115 -0.048900418 -0.104137786
000110 94 d6 30 3d 83 2e 08 3d 00 a7 83 3d 35 a7 2f bd
       0.043173388 0.033247482 0.06428337 -0.04288407
000120 58 ba fe 3d 15 a2 e6 bd ba 4e 00 3e da 37 75 bd
       0.12437886 -0.112613834 0.12530032 -0.059867717
000130 40 ba 8b 38 ef 91 c7 bc 92 15 c6 bc 47 d9 a1 bc
       6.662728e-05 -0.024361579 -0.024180207 -0.019756926
000140 e6 2b bc 3d 91 16 99 bd 00 4c f0 bd 18 c4 dc 3d
       0.091880605 -0.07475007 -0.11733246 0.107795894
000150 cd 3c 91 3d 3f ac 48 bd 21 bb 79 bd 76 70 34 bd
       0.07091675 -0.04899239 -0.060969476 -0.044052564
000160 bd 35 ce bd 1d c5 3d 3d 20 46 b2 bd 25 42 9d bc
       -0.100688435 0.04633056 -0.087047815 -0.01919658
000170 b5 13 96 3d ed 10 f2 3d d0 6d b2 3c ef b3 be bd
       0.073279776 0.118196346 0.021780878 -0.09311663
000180 4b ab 8c bc da 94 bf 3d df b4 2d bd d0 cd fb bd
       -0.017171523 0.09354563 -0.04240882 -0.12295115
000190 c7 76 9c 3d ee 0c 58 3b 60 70 c5 3d 1b ce eb bd
       0.076398425 0.003296669 0.096405745 -0.11513921
0001a0 85 18 9e 3d f7 d7 52 3c 4f 5a 31 3d a3 51 12 3d
       0.077195205 0.012868873 0.043299016 0.035722386
0001b0 73 8b 07 3e 25 a1 80 3d bf 9d 95 bd c8 ef 61 3d
       0.1323679 0.06280736 -0.07305478 0.055160314
0001c0 46 31 d9 3d 15 f5 f3 3d b3 a4 54 3d 17 be 96 bd
       0.10605101 0.1191198 0.051914882 -0.073604755
0001d0 85 7c 47 bd 43 a3 c3 38 52 9f ec bd 0c e7 95 3d
       -0.048702735 9.3287344e-05 -0.115538254 0.07319459
0001e0 bb c2 6f 3d a9 f0 ee 3c 08 8c 84 3d fb 09 f7 bc
       0.05853532 0.02916749 0.06472021 -0.030156126
0001f0 a5 d6 2b bd c1 93 5c 3d c4 3a d9 3d a6 51 c4 bd
       -0.041952748 0.053851847 0.10606912 -0.09585886

weight f4 [128, 128]
000000 ce 95 5f 3d d6 fc 5c 3d d7 a0 8e bd 23 2a cd bb
       0.054586224 0.05395206 -0.069642715 -0.0062611266
000010 5e 8f cf bc bb 52 12 3d e7 10 75 3d 65 ba d6 3a
       -0.025336917 0.03572343 0.059830572 0.0016382454
000020 c1 74 85 3c ce dc 50 3c ed 43 90 bc 96 28 21 3d
       0.016291024 0.012747956 -0.017610515 0.039345346
000030 bb 75 92 3d b5 d0 77 bd 25 e3 54 3c 1c 9d 96 bd
       0.071513616 -0.060501773 0.012993609 -0.07354185
000040 a2 4b 9a 3c 51 60 6c bd 89 c9 89 3d 2d a6 9e 3d
       0.018834893 -0.057709042 0.06727893 0.07746539
000050 3c e2 e5 bc ab 46 06 bd a2 c0 f3 bc 58 33 1a bd
       -0.028061979 -0.032782238 -0.02975494 -0.03764662
000060 65 d3 80 3d a9 c9 4a 3d b4 37 ff bb 2d c6 7e 3d
       0.0629032 0.049508724 -0.0077886228 0.062200714
000070 aa 5d 90 3d 83 ce 7c 3d d8 ca 71 bd c3 46 1c 3d
       0.07049115 0.061720382 -0.059031337 0.03815342
000080 d1 a5 fc bc 79 5f 87 bc ea 73 2e 3c 69 70 25 bd
       -0.030840786 -0.016525017 0.010647753 -0.040390406
000090 a6 54 8c 3d a7 32 bc bc 47 c4 21 3d 40 5a 6e 3d
       0.06852083 -0.022973372 0.039493825 0.058191538
0000a0 9d 69 88 bd 22 75 80 bd 32 14 21 3d 10 1a 85 3d
       -0.06660769 -0.06272341 0.0393259 0.06499112
0000b0 67 b2 3c 3d 84 53 e2 bc 76 0d 5c bd 8a 1a b7 3d
       0.046068575 -0.027627714 -0.053723775 0.08940609
0000c0 5f 29 ce bc 01 04 37 3d 89 c6 24 3c 83 82 94 bd
       -0.025166212 0.044681553 0.0100571 -0.07251456
0000d0 64 09 b2 bd e5 e5 92 3d c9 95 23 bd 3a 60 23 3d
       -0.08693197 0.07172755 -0.039937768 0.03988669
0000e0 53 8c 68 3d 60 5f 9e bd fc a2 30 3a cc b0 03 3b
       0.05677445 -0.07733035 0.0006738154 0.0020094393
0000f0 3e e9 72 3c 8d 4c ae bc df bd 81 3d f1 81 b8 3c
       0.014826117 -0.021276737 0.06335043 0.022522898
000100 15 ac 0c bb fe c3 5f bd fb 68 bd bc 52 34 4d 3d
       -0.0021464874 -0.054630272 -0.023121348 0.050098725
000110 c4 d3 b6 bd fd c8 43 3d 0f 1e 8d bd 24 be 53 3d
       -0.0892711 0.0477991 -0.06890499 0.051695004
000120 a1 25 82 bd 59 4a 8f bd 44 fb b2 3d a9 b4 9c 3d
       -0.063548334 -0.069966026 0.08739331 0.07651646
000130 eb aa 57 bc 27 4b 80 bd 5c 85 6e bd ab e0 41 bb
       -0.013163309 -0.06264334 -0.05823265 -0.0029583375
000140 21 36 1f 3c ab 71 53 bb 93 cb 65 3d b0 cb 13 3b
       0.009717495 -0.0032263796 0.056102347 0.0022551827
000150 13 9a e4 3b 62 2c 00 bd 90 e4 6a bc b9 9a 7e bd
       0.006976375 -0.031292327 -0.01433672 -0.062159274
000160 35 83 80 3d b4 24 b5 3d a9 da 95 3c 84 54 27 bd
       0.06275026 0.08844891 0.018292742 -0.040852085
000170 74 2e 09 bd 4b bd 48 bd 21 90 af bc e4 9b 12 bc
       -0.033491567 -0.04900865 -0.02143103 -0.0089483
000180 2b 35 1e bd 14 39 74 3c 13 ae b0 b9 38 08 21 3d
       -0.038624924 0.014906187 -0.0003369903 0.03931448
000190 a8 dd b1 3d 87 e8 31 bd 1d c5 8a bd fc cd 7c 3d
       0.08684856 -0.043434646 -0.067758776 0.06171988
0001a0 7e 79 7b bd dd da 06 3c 02 0a 8d 3c 39 d9 02 bd
       -0.06139516 0.008230892 0.017216686 -0.03194544
0001b0 2d ba d8 3c 67 55 82 3d b6 15 1b bd 82 fe 36 3d
       0.026455963 0.063639455 -0.037862502 0.04467631
0001c0 79 17 a9 bd 60 58 62 3d e1 10 41 bd 53 b3 77 3d
       -0.0825643 0.055260062 -0.047135238 0.06047375
0001d0 59 4f 3a 3d 0f c5 50 bd 15 cb ac bd 64 85 67 bd
       0.045485828 -0.05096918 -0.08437172 -0.056523696
0001e0 0d 21 92 bd 63 0f 1b 3d f5 48 96 3c 9e 1a ad 3d
       -0.0713521 0.03785647 0.018345335 0.084523425
0001f0 3a 36 55 bd 1e 2b a3 3d 02 55 af bc cb 28 51 bd
       -0.052053668 0.07967208 -0.02140284 -0.051064294
000200 25 d7 81 bc f8 5f a7 3d 86 49 a3 3d 64 b8 89 bc
       -0.01584966 0.081726015 0.07973008 -0.016811557
000210 79 cf ca 3c de 92 13 3d c6 82 33 bb 0e 47 35 3d
       0.024757134 0.036028735 -0.002739118 0.044257216
000220 c4 69 cd bc 6a f0 1d 3d 00 77 2e 3d ae f7 27 3c
       -0.025074847 0.038559355 0.042593956 0.0102519225
000230 8a 14 2f bd 8c 06 9f bd 1a ba 2c bd 9b 34 3e 3d
       -0.042744197 -0.077649206 -0.042169668 0.046436887
000240 1d 8b da bc 5d 64 32 3d 1e 48 01 bd 6a d1 17 bd
       -0.026677663 0.043552745 -0.031562917 -0.037064947
000250 ca 21 11 3d 77 54 8f 3b 4e a4 a6 bd 67 38 99 3d
       0.035432614 0.0043740827 -0.081368074 0.07481461
000260 45 50 ae bd 66 17 a9 3d c1 e2 cf 3d 5f 40 05 3d
       -0.08511404 0.08256416 0.10150672 0.032532092
000270 eb 32 dc bc c8 d4 9a 3d 66 85 15 3d 9d 5b 0b bd
       -0.026879748 0.07560116 0.03650417 -0.034022916
000280 4d ab 9e bc c5 b7 c7 3d 15 0a 72 bd 34 58 c6 bc
       -0.019368792 0.09751848 -0.059091646 -0.02421198
000290 a6 5c 45 3c ce e9 8c bd 54 a7 47 bc 6e a7 b6 bd
       0.012046015 -0.06880532 -0.01218589 -0.089186534
0002a0 36 45 b0 bd 65 c2 af bd e0 16 50 bd 2c 29 be bc
       -0.08606951 -0.08582 -0.050803065 -0.023212992
0002b0 0c 15 21 3c 25 95 1d 3d 45 c1 b6 3d 2b 76 55 3c
       0.009831678 0.038472313 0.08923582 0.013028662
0002c0 74 2a 97 bc be c1 5e 3c 13 a0 88 bd 3b 57 f1 bc
       -0.01845286 0.013595996 -0.06671157 -0.02946054
0002d0 b8 19 83 bd 53 68 40 bc 62 f2 ce bc da 85 7e bd
       -0.0640139 -0.011743623 -0.025262062 -0.06213937
0002e0 27 c6 91 bd f1 59 36 bc 09 6a f8 bb aa 96 c9 bd
       -0.07117873 -0.011129842 -0.0075809998 -0.0984319
0002f0 fc b5 7c 3b 04 d3 bc 3d 2f 25 50 3d 56 16 9b 3c
       0.003856062 0.092199355 0.05081671 0.018931549
000300 07 1d 90 bd 09 df ab bd 9d 00 19 3d db ab 88 bc
       -0.070367865 -0.0839215 0.0373541 -0.01668351
000310 83 29 a4 3d 5d 99 f8 3c 06 e4 b4 bd b8 1a 3f 3d
       0.0801573 0.030346567 -0.088325545 0.04665634
000320 42 43 97 bd b2 9d 6c 3d 8e 54 03 3d b9 5a 56 bd
       -0.07385875 0.057767577 0.03206306 -0.052332614
000330 32 af 01 3d 20 14 60 3c 61 78 8a bd ef 7b 93 bd
       0.03166122 0.013676673 -0.06761242 -0.07201373
000340 1c ad a5 bd 73 e1 15 ba 43 20 fa bc 7e ff 34 3d
       -0.080896586 -0.00057174935 -0.030532962 0.04418897
000350 ce c3 cf bc ac ec 04 bd e1 44 dc 3c f7 89 f8 3b
       -0.025361922 -0.03245227 0.026888313 0.007584806
000360 e0 3c 7b bb 24 10 5e bd 33 f1 ab bd 39 fa 06 bc
       -0.0038335845 -0.05421461 -0.083956145 -0.008238369
000370 90 e7 5b bd f1 51 65 3d 23 e5 ae 3d 52 1c aa 3d
       -0.053687632 0.05598635 0.08539798 0.08306183
000380 73 4a 45 bd 3f bd 0b bc a8 10 e5 3c 62 92 75 3d
       -0.048166703 -0.0085290065 0.027962044 0.059954055
000390 30 cf 00 bd 25 75 be 3b 74 47 66 3c 90 1e 3c bc
       -0.03144759 0.0058123046 0.014055122 -0.011481896
0003a0 64 08 77 bc ce 60 f2 bc bd a5 ba bd 9a 28 2d 3d
       -0.015077684 -0.029587176 -0.09113643 0.04227505
0003b0 1f 96 0f 3d 4f 13 d3 bc 80 8b b3 3d 98 d8 14 3d
       0.035055276 -0.025766043 0.08766842 0.036339372
0003c0 f6 10 5e bd 24 04 82 3d 3f b8 0f 3d 19 97 03 bd
       -0.054215394 0.06348446 0.03508782 -0.03212652
0003d0 2a ca 51 bd de 2a 4d 3d 86 65 98 bb 1b 66 e6 3c
       -0.05121819 0.05008971 -0.0046507744 0.02812486
0003e0 c7 60 82 3d 1b 19 0c 3d c1 f5 fd 3c 89 6d c7 3b
       0.06366115 0.03420363 0.031000974 0.0060860557
0003f0 7f 33 8a 3c 63 e6 8c bd 44 ef 34 bd 55 09 97 bb
       0.016870258 -0.0687988 -0.044173494 -0.0046092668

bias f4 [128]
000000 62 67 2f bc b4 e0 b2 bd 59 7b 6d 3d a2 1d ac bc
       -0.010705801 -0.08734265 0.05797896 -0.021010224
000010 74 d3 77 3d f9 69 2d bd 15 21 a6 3d 93 25 e8 bc
       0.06050439 -0.04233739 0.08111779 -0.02833823
000020 38 9a f7 3c aa 52 13 3d 49 95 88 3d 4a 05 24 bd
       0.030224904 0.035967506 0.06669099 -0.040044107
000030 c4 c0 97 bc e5 9d 1f bd 60 44 eb bc ad df cf bb
       -0.018524535 -0.03896894 -0.028719127 -0.006343803
000040 81 9b f1 3c 2e de 19 bd 7d f6 a0 bc 2c b1 a6 bc
       0.029493095 -0.037565403 -0.019648785 -0.020348154
000050 a8 49 19 3c 37 dc e8 3c f9 c6 aa bd 6d da 1c 3c
       0.00935594 0.02842532 -0.08338732 0.009573561
000060 63 4b 24 bd 01 6a da 3b cd bb 6c 3d 6e c0 17 3d
       -0.040110957 0.0066654687 0.05779629 0.03704875
000070 df 6e 38 3d c1 f0 22 3b f3 ab bb bd ff b6 53 bd
       0.04502761 0.0024862739 -0.09163656 -0.05168819
000080 e4 de 27 3d 67 3c 86 bc 13 2a 02 3d 05 91 12 bd
       0.04098405 -0.016386224 0.031778406 -0.035782833
000090 94 d5 6e 3a b2 25 4f 3c 28 a6 f8 3b 84 e2 35 bd
       0.0009110805 0.012643265 0.0075881667 -0.044405475
0000a0 8a 81 cb bb 36 e0 9f 3c bf 0f 92 3d bf 75 0d bc
       -0.0062105106 0.019516092 0.071319096 -0.00863403
0000b0 e1 43 86 bd a2 7f 2f 3d 3a b8 88 bd 19 7e 8d 3d
       -0.065559156 0.04284633 -0.066757634 0.06908817
0000c0 00 ab 9f bd 5f 47 89 bd 9e e0 a0 3c 0f 43 a7 3c
       -0.077962875 -0.06703066 0.019638356 0.020417718
0000d0 d4 9a 96 bd 5d 54 93 3d 57 77 be bd 16 b8 b7 3b
       -0.0735375 0.071938254 -0.09300106 0.0056066616
0000e0 39 92 88 3b 9a 9f a1 bc 77 c8 3b bd 6d 3f 54 3d
       0.0041678217 -0.019729424 -0.045845475 0.0518183
0000f0 59 6b 17 bd cf 70 ae 3d 42 82 f2 bc ed 4f a4 bd
       -0.03696761 0.0851761 -0.029603127 -0.08023057
000100 2f b0 19 3d 67 aa a9 3d 03 6b 84 bd 8c ae 56 bd
       0.037521537 0.08284455 -0.06465723 -0.052412555
000110 00 e7 8b bd 5b bc 70 3d 4d 42 5a 3c 31 a8 9f 3d
       -0.06831169 0.05877338 0.013321471 0.07795752
000120 a6 8e 38 3d f4 eb a6 38 c5 80 a6 3d 96 d7 cc bc
       0.045057915 7.9594465e-05 0.081300296 -0.025005143
000130 fc 87 11 3d ae b0 8e 3c 24 8c a2 3d 9b e4 8e bd
       0.035530075 0.017418232 0.07936886 -0.06977197
000140 5c 84 b0 bd cc 0c cc bc fa 30 24 3d 00 57 38 bb
       -0.086189955 -0.024908446 0.04008577 -0.0028128028
000150 88 46 24 3d 89 d5 3c 3d 20 d8 b1 bd 25 fd d2 bc
       0.040106326 0.04610208 -0.08683801 -0.025755474
000160 82 4e ae bc fb a9 26 bd 6b 16 6b bd 55 16 52 3d
       -0.02127767 -0.04068945 -0.057394426 0.05129083
000170 2a 00 7f 3d d6 45 74 3d 1b 03 58 3d b1 1a 14 3d
       0.062256016 0.059636913 0.052737337 0.036158267
000180 f6 a0 90 bd b4 fe 0a 3d 65 99 d6 bc de 81 92 bd
       -0.07061951 0.03393431 -0.026196191 -0.071536765
000190 ad 95 2e bd 4a ba ed bc 1e 96 95 3d 46 70 96 3d
       -0.04262321 -0.029019494 0.07304023 0.07345633
0001a0 e5 e5 a3 3c 70 2a c2 bc a7 59 a6 3d 03 59 d8 bc
       0.020007083 -0.023701876 0.081225686 -0.026409632
0001b0 cf dd 0f bd cb d4 9a bd 12 7d 8b bd f6 77 4f bc
       -0.035123643 -0.07560118 -0.06810965 -0.012662878
0001c0 7c 2c 89 bd f8 78 26 bd fb 62 ab 3d 2d 2a a9 3d
       -0.06697938 -0.04064271 0.083684884 0.082599975
0001d0 c4 71 16 bd 2e 50 88 bc 47 e0 5f 3d 6a eb 0e bc
       -0.03672959 -0.016639795 0.054657247 -0.008723119
0001e0 af 1a 85 bc 2a 6d 9c 3c c0 25 3b bc 96 1e fc 3b
       -0.016248075 0.019095022 -0.0114225745 0.007694076
0001f0 d5 55 48 bc ce 43 6c 3c d7 fc c4 3a e1 ef 6b bc
       -0.012227495 0.014420463 0.0015028965 -0.014400453

weight f4 [2, 128]
000000 66 28 50 bd 10 88 6f 3d 3e bb 58 3c 98 7a 30 bd
       -0.050819777 0.05847937 0.013228236 -0.043085665
000010 01 b3 e4 bc 44 e9 34 3c 56 8c 87 3c a2 02 a9 3d
       -0.027917387 0.011041943 0.01654641 0.08252455
000020 3c e5 9d bd a4 d2 00 be f1 30 01 3d 08 04 69 3d
       -0.077097386 -0.12580353 0.031540815 0.05688861
000030 33 d9 7a bd 67 7f 20 bd 51 b6 a7 3d b6 34 f5 bc
       -0.061242294 -0.039184 0.08189071 -0.029932361
000040 57 f0 06 3b 2b 3e 9d 3d 5f be 9b bb 17 aa 42 3d
       0.002059003 0.07677873 -0.0047529186 0.04752549
000050 5a ba 9e bc 32 a1 3b 3d e5 29 83 bd d7 7a 81 3c
       -0.019375969 0.045808025 -0.06404475 0.015805645
000060 ed 23 a6 3c b0 55 c4 bd 49 8e 8b 3d ef 04 a1 bd
       0.020280803 -0.09586656 0.06814248 -0.07862269
000070 5c 9e 1e 3d 28 94 03 bc 32 4c 3c 3d a7 cf d7 bc
       0.038725242 -0.008030929 0.045971103 -0.026344134
000080 a2 87 b2 bc 60 bb b2 bd ea 63 c8 3d b4 f5 de bd
       -0.02179319 -0.08727145 0.09784682 -0.10886708
000090 8d 99 be 3d 7c ee 9f 3d 9f 71 7b bd cf 97 37 bd
       0.09306631 0.07809159 -0.061387654 -0.04482251
0000a0 09 b8 b2 3d 80 98 9d 3c 83 fc 7d 3c 56 a8 8d 3d
       0.08726508 0.019237757 0.015502098 0.06916873
0000b0 ac 4f c8 bd f6 9b e3 3d cc 24 60 3d 47 4f 31 bc
       -0.09780821 0.111137316 0.054722592 -0.010822124
0000c0 70 82 dc 3c 9a 10 e1 bc de d3 d1 bc 81 cf b2 3d
       0.026917666 -0.027473737 -0.025613721 0.087309845
0000d0 1e 6a e4 bc da ed b0 bd c5 ea 0b 3d 10 ae 1f bc
       -0.027882632 -0.086391166 0.03415944 -0.00974609
0000e0 a5 cc 2a bd 0b d7 19 3d bc d6 2a 3d 83 f2 9a 3d
       -0.04169907 0.037558597 0.041708693 0.07565787
0000f0 bb 02 bf 3d 91 00 8e 3d 79 a3 84 3d c8 a8 1f 3d
       0.09326693 0.06933702 0.064764924 0.03897932
000100 02 8e a2 3c 49 87 99 bd c7 0d f3 bd a6 06 31 3d
       0.019843105 -0.07496507 -0.11867862 0.04321923
000110 f9 ce 3c bd 61 a7 63 3c 2e 3e 96 3d 30 4b e5 bc
       -0.046095822 0.013894887 0.073360786 -0.027989954
000120 d9 0a 05 3d 7b 8b a3 bd 8c a3 e5 bd 3e e0 c7 bc
       0.03248105 -0.07985588 -0.11212835 -0.02439892
000130 c6 95 70 bd 58 a4 49 3d 07 05 a7 bd 56 2a a0 bd
       -0.058736585 0.049228996 -0.08155256 -0.07820575
000140 23 62 9a bd ee f4 13 3d 6e eb a5 bd 4b 31 e6 3d
       -0.07538249 0.036122255 -0.08101545 0.11239871
000150 54 b5 ce 3d da 11 30 bb ae a9 36 bd 4b 9a 1c 3d
       0.10093179 -0.002686611 -0.044595413 0.038233083
000160 6d 8d b0 3d 4b 4c 19 3d be 3d bd bc a7 74 dd bd
       0.08620725 0.037426274 -0.02310073 -0.10813265
000170 e6 29 24 3d 08 26 24 3d ec 74 96 3d cc 89 21 3c
       0.04007902 0.040075332 0.0734652 0.0098595135
000180 27 4a ad 3d 08 2a f3 bc 85 d4 81 bb 69 49 de bc
       0.08461409 -0.029683128 -0.003962102 -0.027134614
000190 33 87 0a bd 95 98 2b bd 74 c2 00 bd 5f 21 8b bd
       -0.033820342 -0.04189356 -0.031435445 -0.067934744
0001a0 2e 50 6b bd c7 19 35 3d 48 73 3d 3a b2 bd 9e bd
       -0.057449512 0.044214036 0.0007226956 -0.07751025
0001b0 e8 a7 bb bc a8 c1 eb 3c 0e 16 e9 3c b0 b7 7b 3c
       -0.022907212 0.028778866 0.0284529 0.015363619
0001c0 52 12 65 3d e0 d0 76 3d 1a ad 64 bd 16 37 a1 3d
       0.055925675 0.060257792 -0.055829145 0.07871835
0001d0 ba a5 f3 3c bf 18 78 bd 82 c8 90 3d ff f3 4a 3c
       0.02974211 -0.060570475 0.07069494 0.012387275
0001e0 ab 1d 6e 3d 70 56 31 3d ed c4 5f 3d ea 7e 9b 3d
       0.058133762 0.043295324 0.054631162 0.07592566
0001f0 e2 3d 98 bb e9 b3 19 bd f7 86 98 3d 56 4f 78 bc
       -0.004646049 -0.03752509 0.074476175 -0.015155634
000200 a9 2f 8a 3b 80 15 9b 3c 61 18 e3 bd e3 31 99 3c
       0.0042171073 0.01893115 -0.11088634 0.018700546
000210 22 e1 fb 3b c0 a4 b7 3c 81 56 bd 3c b6 04 33 bc
       0.00768675 0.022417426 0.023112537 -0.010926416
000220 79 fb 74 bc 0f dc 14 3d dd dc 23 bd a5 24 a6 3d
       -0.014952534 0.036342677 -0.040005554 0.08112458
000230 83 12 0b bd 0b 07 5a bd 41 5e b5 bd 42 5c c6 bd
       -0.0339532 -0.053229373 -0.08855868 -0.096855655
000240 8a cb 52 3d 2b 0a b0 bc 84 b7 6d 3d 8e 2c 9f 3c
       0.05146364 -0.021489223 0.058036342 0.019430425
000250 71 57 20 3c d5 ea 93 bd d3 1a 92 3d f2 5d 83 3c
       0.009786473 -0.07222525 0.071340226 0.016036008
000260 e3 3c 8d bd 86 aa 09 3d 0a de c5 bc d1 b7 a3 bc
       -0.06896379 0.03360989 -0.024153728 -0.019985111
000270 41 45 9a 3d 32 b1 eb bb 70 9b 9f 3d 4e 24 38 3d
       0.075327404 -0.007192754 0.07793319 0.044956498
000280 78 9d 23 bd ff b0 82 3c d1 1a d3 3d fd 96 98 3d
       -0.039945096 0.015953539 0.10307849 0.07450674
000290 89 7c 27 3d f0 13 5b 3d 6e d8 77 3d 50 91 92 3c
       0.04089025 0.05348581 0.060509138 0.017891556
0002a0 d0 ef 39 3d 77 e5 3f bc fa a2 a0 3d a2 69 41 3d
       0.04539472 -0.0117124235 0.07843585 0.04721988
0002b0 03 62 cc bc 75 89 13 bd 87 3c a5 3d c4 ee 84 3b
       -0.02494908 -0.03601976 0.08068185 0.0040567834
0002c0 9c dd a7 3d 63 03 d2 3c 94 95 25 bd 64 21 57 bd
       0.081965655 0.02563638 -0.040425852 -0.05252208
0002d0 13 79 98 3c 40 4e b4 bc 5a da 5d 3d 0e 1b ac 3d
       0.01861242 -0.022009969 0.054163314 0.08403598
0002e0 df 95 a3 3d bd ef 94 3d 5b e9 83 3d 85 77 c0 bd
       0.0798757 0.07272289 0.064409934 -0.093977965
0002f0 eb c3 89 3c 5a 59 b8 3d eb 50 40 3b 38 0f bf bd
       0.016817054 0.090014175 0.0029345106 -0.093290746
000300 63 df ce bd a1 4d 62 bd fd c4 99 3d 45 32 aa bc
       -0.101012014 -0.055249814 0.07508276 -0.020775924
000310 9b 62 21 3d 90 ec ff 3c d1 bf 60 bd 86 ba e4 bc
       0.039400678 0.031240731 -0.05487043 -0.027920973
000320 a4 0c 2d 3a 7d d0 9c bd a7 2f 25 3c 70 79 2d bd
       0.000660131 -0.076569535 0.010082162 -0.04235214
000330 c4 59 8a 3d 9a d0 f4 3c 1f fb a9 bd 62 e3 74 bd
       0.06755403 0.029884625 -0.08299851 -0.05978716
000340 74 2a 80 3c d3 f3 87 3d 80 43 2a bd c1 ce 48 3d
       0.015645243 0.06638303 -0.04156828 0.0490253
000350 b5 e3 ee 3c 0b b8 94 bb ea 02 89 3a 07 43 0b bc
       0.029161314 -0.004538541 0.0010453139 -0.008499867
000360 ae 98 a6 bc b2 f8 f7 3c 60 a5 15 3d 51 a3 6e 3d
       -0.020336475 0.030269954 0.036534667 0.05826122
000370 e8 6b ad bd 1e ac 36 bc 66 1d 39 3d 84 b7 88 3d
       -0.08467847 -0.011149434 0.045194052 0.06675628
000380 75 3b 0a bd 71 75 60 3b f5 de 46 bc bb 08 8d 3d
       -0.03374811 0.0034249688 -0.012138118 0.06886431
000390 19 69 5c bd e5 38 60 bd fb d3 1a 3d ba b9 9a 3d
       -0.053811166 -0.05474176 0.037799817 0.07554956
0003a0 63 d1 6c 3d 30 f8 82 3d 16 7b 02 3d 91 a8 be bc
       0.057816874 0.06394994 0.031855665 -0.023273738
0003b0 d1 f4 9e 3d d1 88 0d bc 43 18 e4 3c b6 de 9f bd
       0.07761539 -0.008638577 0.0278436 -0.078061506
0003c0 54 97 97 3d 7e aa 77 3d f6 de 11 3d 2f 2d b8 bd
       0.074019104 0.06046533 0.035613023 -0.08992993
0003d0 42 84 15 bc 89 fa 47 bc 64 ab b3 bd eb 5c c4 bd
       -0.009125771 -0.012205728 -0.087729245 -0.09588035
0003e0 3e eb 97 bd 26 9b 85 bd 19 79 98 bd 46 e8 65 bd
       -0.07417916 -0.06523733 -0.074449725 -0.056129716
0003f0 47 c7 d1 3a 3e 57 9e bd c7 59 6c 3d 8a b8 27 3d
       0.0016004824 -0.07731484 0.057702806 0.040947475

bias f4 [2]
000000 6e 7b ae bc c7 ba ce 3b
       -0.02129909 0.0063088867

weight f4 [2, 128]
000000 e1 cf 13 3d 0e 8e 7f b9 fa a2 4c 3d 74 6c e9 bc
       0.03608692 -0.00024371615 0.049960114 -0.028494097
000010 07 29 ef 3b 5a fb 26 bd 34 ab af 3d 9f e4 a3 bd
       0.007298592 -0.04076705 0.08577576 -0.080025904
000020 54 6b df 3c 7c d9 8f 3d ba 8b 14 3d 36 bd 8e bc
       0.027272858 0.07023904 0.036266066 -0.017424207
000030 c4 bf 9a 3d 1e 06 82 3d 2f 10 1d bc 43 e0 32 bd
       0.07556108 0.06348823 -0.009586378 -0.043670904
000040 b0 8a 83 bd 95 93 26 3d cf f7 40 bd 7c d9 26 bc
       -0.06422937 0.04066809 -0.04711133 -0.010183688
000050 6c cb 6c 3d 42 01 5b 3d 8f 1d 88 bd e6 1e 6a bd
       0.057811186 0.053467996 -0.06646263 -0.057158373
000060 1e 48 14 bd 05 87 9f 3d 80 f7 a8 bd 29 0c 45 3d
       -0.03620159 0.07789425 -0.08250332 0.0481073
000070 66 e1 6a bd b8 df 54 bd 73 c1 26 3d 18 96 aa 3d
       -0.057343863 -0.051971167 0.04071183 0.08329409
000080 b9 46 24 3d a6 c9 b5 3c 1a e6 bb 3c 1a 40 2e bd
       0.04010651 0.02219088 0.02293687 -0.0425416
000090 10 b4 5a 3b 6d cb 2e 3d 97 f3 25 3c 99 2d 29 bd
       0.0033371486 0.04267447 0.010128877 -0.04130325
0000a0 cd 85 01 bd 3f 3e b1 3d 2f 5c f9 3c 30 8d 9c 3d
       -0.031621743 0.086544506 0.030439464 0.07644117
0000b0 13 bb 35 3b 68 a2 00 3c b2 11 dd 3c bb aa 15 bc
       0.0027729913 0.007851221 0.026985977 -0.009134944
0000c0 84 52 ab bd 94 c3 53 3d 82 b1 9e 3d 4d e5 9b 3d
       -0.08365348 0.05170019 0.07748701 0.07612095
0000d0 22 5c 53 3d a5 56 81 bd 7d 27 8d 3d b6 cd 9e bd
       0.051601537 -0.06315354 0.068922974 -0.0775408
0000e0 b0 e7 d6 bc fb 1e 77 bc e4 41 04 3d 21 3b b2 3d
       -0.026233524 -0.01508307 0.0322894 0.08702684
0000f0 da 80 c2 bc 62 89 ab 3d 64 27 59 3d 1f 65 2c bd
       -0.023743082 0.08375813 0.05301608 -0.042088624
000100 b6 e0 8a 3d 25 0a a7 bc 21 af 71 3d a1 3e b6 3d
       0.067811415 -0.02039058 0.059004907 0.08898664
000110 18 4e 83 3d 78 57 2c bd a2 55 04 3d 9d ce a9 3d
       0.064113796 -0.042075604 0.03230823 0.082913615
000120 37 49 68 bd 61 84 54 3c 2a 2f d8 bc 43 2d 94 bd
       -0.056710448 0.012971015 -0.026389677 -0.072351955
000130 d3 c2 b2 bd 14 81 b3 bd ed d8 12 3d 7e 4c 0e bd
       -0.08728566 -0.08764854 0.035851408 -0.034740917
000140 99 d4 c7 bc e5 9d ad bd 9f 45 3f bd ba a1 8e 3d
       -0.024393367 -0.084773816 -0.046697255 0.06964441
000150 f4 71 90 3d 20 24 70 bd 01 66 73 3c 0f 40 6e 3d
       0.07052985 -0.0586282 0.014855863 0.05816656
000160 76 8e ad bd 6f 0a 3b bd 7a 93 4a bd 14 71 d3 3c
       -0.08474438 -0.045664247 -0.04945705 0.025810756
000170 67 19 d4 3c af 03 58 bd 78 60 a4 bc f7 d2 a3 bd
       0.025891019 -0.052737888 -0.020065531 -0.07999223
000180 a6 50 5c 3d 3e 06 08 3d 7b 50 8c bd 56 e8 40 3d
       0.05378785 0.033209078 -0.06851288 0.047096573
000190 5c 56 a9 3d 04 7a e9 3b 35 f7 92 bd c9 fb 8d bd
       0.08268425 0.007125141 -0.07176057 -0.0693279
0001a0 a2 01 d4 3c ac 37 f0 ba bd c0 26 3d 9b 9d 43 bd
       0.025879685 -0.0018327138 0.040711153 -0.047757726
0001b0 1d 5d 73 bd 8b 60 99 3d 0c 20 a3 3d e0 55 ad bc
       -0.05941497 0.07489117 0.07965097 -0.021159112
0001c0 b3 f0 68 bc 85 02 03 bd 63 54 0e bd 03 0d a5 bd
       -0.014217543 -0.031984825 -0.034748446 -0.080591224
0001d0 9b de 27 bd c1 7e ae 3d 27 b7 7a bd c0 a3 40 bb
       -0.040983777 0.0852027 -0.061209824 -0.0029394478
0001e0 f8 9a 6a bd 17 9b 56 3d 41 ec 2c bc 4d 22 41 3d
       -0.057276696 0.052394 -0.010554374 0.047151852
0001f0 41 15 bf 3c 00 9a 70 3d 6d 2f 4d bd 17 79 11 bd
       0.023325564 0.058740616 -0.050094057 -0.03551587
000200 7f ef 6d bc 76 6f 8c bc da b6 47 3a c9 3b 4b bd
       -0.014522432 -0.017142992 0.00076184946 -0.049617562
000210 21 2d 0e bd 93 c7 a8 bd 55 34 77 3c 19 2b 81 3d
       -0.034711007 -0.08241191 0.0150881605 0.06307048
000220 d9 b6 02 bd c7 f7 b0 bd 72 f8 96 bc ba c1 11 bd
       -0.03191266 -0.0864101 -0.018429015 -0.035585143
000230 69 af 4e bd 41 9e 5d bd 98 11 2b 3a 8a 59 2d bd
       -0.050460253 -0.054106 0.0006525754 -0.04232172
000240 f4 dd 73 3d 5f 6c 9f 3d 3d d7 b5 bd 18 05 89 3b
       0.059537843 0.07784342 -0.08878944 0.0041815154
000250 90 6d e1 bc 4a 5b 1f bd 73 42 d2 bc 9b 4a 91 bd
       -0.027518064 -0.03890542 -0.025666451 -0.07094308
000260 51 f1 5d bd b5 1f 3d 3d 98 5d cd bc de c3 00 bc
       -0.054185215 0.046172816 -0.025069043 -0.007859198
000270 85 ba 93 bd 8a 80 d8 bc ec 58 8f bd 29 59 1d 3d
       -0.0721331 -0.02642848 -0.069993824 0.038415108
000280 05 f9 87 bb c0 b0 bc bd 2a 9f 4a bc 60 0e e4 ba
       -0.0041495585 -0.092134 -0.012367049 -0.0017399304
000290 81 81 b1 3d 3b 56 50 bd d2 be b9 bc 30 d9 80 bd
       0.08667279 -0.050863486 -0.022673998 -0.06291425
0002a0 06 de a2 bd 0f 67 ee bc cc 92 7f 3d db c1 4c 3d
       -0.07952504 -0.029101877 0.062395856 0.049989562
0002b0 78 7b bd b6 a5 36 b4 bc f4 5c 80 3d e3 80 76 3d
       -5.6470126e-06 -0.021998713 0.062677294 0.06018151
0002c0 32 bc ea 3c f2 6d 2d 3d 40 cf 8d bd 8c ca cc 3b
       0.028654192 0.04234118 -0.069242954 0.0062497314
0002d0 8d c2 6d 3d f2 3b eb 3c 4f 08 51 bd 78 11 a3 bd
       0.058046866 0.028715108 -0.051033314 -0.07962316
0002e0 a9 4d 8e 3d 36 55 7f bd 51 55 2b ba 23 87 aa 3d
       0.06948406 -0.062337123 -0.00065358455 0.083265565
0002f0 89 7b 86 bd 3d 9c 1a 3d 10 9a 92 bd cc 38 4c bd
       -0.06566531 0.037746657 -0.07158291 -0.049858853
000300 80 36 2b bc 3a a1 a9 bd 8b 09 bd bc 10 98 a2 bd
       -0.0104500055 -0.08282705 -0.02307584 -0.0793916
000310 f8 63 a9 3d 8b 3f 65 bc 00 cd 97 bd d2 da 38 3d
       0.08271021 -0.013992201 -0.074121475 0.04513056
000320 e0 f8 0b bc 4d 6f a5 bd 08 ce 9a 3d df a8 ae bd
       -0.008543223 -0.080778696 0.075588286 -0.08528303
000330 e5 d0 48 3c 09 fb 83 bc 81 78 c4 3c da 50 d8 3c
       0.012256836 -0.016110914 0.023983242 0.02640574
000340 56 28 1d 3d b8 a2 c3 bc 1d 27 2c 3c 0b e6 93 3d
       0.038368545 -0.023881301 0.010507372 0.072216116
000350 88 0f 66 bc bd f0 00 bc a6 c6 a7 bd d3 bf a7 bc
       -0.014041789 -0.0078698965 -0.08192186 -0.020477211
000360 b2 e1 71 38 ac 1c 48 bd 5b 0d 18 bd a2 c3 9f 3c
       5.7669073e-05 -0.04885547 -0.03712211 0.019502465
000370 f4 c9 ba bb e9 25 1a 3d 1d d3 81 bc 51 9a 8e 3d
       -0.005700344 0.03763381 -0.015847737 0.06963027
000380 f4 d1 78 bd f7 ea a9 3d 65 bb 19 3c 31 45 47 bb
       -0.060747102 0.08296769 0.009383057 -0.0030406232
000390 18 5d 5c 3d ab 2d 59 bd a4 bc 4b 3d e5 1e c2 bc
       0.05379972 -0.053022068 0.04974045 -0.023696372
0003a0 18 1e 7e 3c 92 35 95 3c 63 a9 56 3d b2 ff aa 3d
       0.015510105 0.01821402 0.052407634 0.08349551
0003b0 fb 71 7e 3d 60 46 a6 bd ea 7f 8d 3d 44 6e a1 3c
       0.06212042 -0.08118892 0.06909163 0.019705899
0003c0 0a af 2e 3c a8 03 90 bc d3 e1 29 3c 1e f7 ab bc
       0.01066185 -0.017579868 0.010368782 -0.020991858
0003d0 4a 5b 9a bd 3e 8f 3b 3d 7a 3c 96 bd a6 0d 94 3d
       -0.07536943 0.045790903 -0.07335754 0.07229166
0003e0 21 79 fa bc e6 df 1e 3c a2 ab a4 3d d8 39 a2 3d
       -0.030575337 0.009696936 0.08040549 0.07921189
0003f0 50 eb 8b 3c 5e e4 46 3c 75 e9 c6 3b 85 5b 82 3d
       0.01707998 0.012139408 0.0060703107 0.06365112

bias f4 [2]
000000 7e e5 93 3d f6 2b 36 bd
       0.072215065 -0.04447552
