data/ppo_penalized_peony_8Ks_50e_64x2/ppo_penalized_peony_8Ks_50e_64x2_s0/pyt_save/model.pt (torch, 705515 bytes, 29 tensors)

log_std f4 [2]
000000 00 00 00 bf 00 00 00 bf
       -0.5 -0.5

weight f4 [128, 60]
000000 b1 5f 7d ba 57 d5 8d 3d 0c 9c d9 bd 3f 94 c2 bd
       -0.0009665443 0.06925457 -0.10625467 -0.09500932
000010 92 aa 4b bd 9e cc 0d 3d f2 a1 27 bb f4 a2 d1 3d
       -0.049723215 0.034618966 -0.0025578705 0.10236159
000020 55 b5 3b bc c1 ec 0b 3d c2 ce 1f bd 57 e2 cf bc
       -0.011456807 0.034161333 -0.03901554 -0.025376482
000030 0a 97 fc bd c2 1a af bd e1 fa 59 bd e1 b4 9c 3b
       -0.12333496 -0.085500255 -0.053217772 0.0047823046
000040 c1 0c 51 3d b7 a4 9e 3d a3 3e b3 bd db 44 66 bd
       0.051037554 0.077462606 -0.087521814 -0.05621801
000050 e9 10 40 3d 0c 8d db 3d 94 a6 d9 bc b3 d9 c5 3d
       0.046891127 0.10720262 -0.026568688 0.096606635
000060 f8 76 aa bc 77 d0 5f 3c 6b 67 ef 3d a3 45 f5 bd
       -0.020808682 0.013660542 0.11689647 -0.11976173
000070 75 72 a6 bd 20 df 05 bd 72 1f 4e bd 25 70 e4 3d
       -0.081273 -0.03268349 -0.050322957 0.11154202
000080 3a 60 ab bd 87 6b 73 bd af b7 b8 bd 67 9f f7 bd
       -0.08367963 -0.059428718 -0.0901941 -0.120909505
000090 a5 56 9a bd 24 46 e3 3d d7 f4 6b 3d 34 25 80 3d
       -0.075360574 0.11097363 0.057606544 0.06257096
0000a0 cd 7a de 3b 22 8d 87 bd 42 ed b2 3c 66 dd f6 bd
       0.0067895413 -0.06618716 0.021841649 -0.12053947
0000b0 1b 0b bf bd cc 4d 88 bd 37 d1 a6 3d 52 05 9b 3d
       -0.0932829 -0.066554636 0.08145373 0.07569374
0000c0 2e 84 6a bd f3 a3 98 bb da 18 a9 3d 18 6c 03 3e
       -0.057254963 -0.004658216 0.08256693 0.12834203
0000d0 2b de 51 3d 32 df 8e 3c 10 46 b1 3d 42 ad 9b bd
       0.051237267 0.017440412 0.086559415 -0.07601406
0000e0 ff 12 c5 3c c7 fc cc bd bc 3f b7 bd 1c 95 88 bd
       0.02405691 -0.10009151 -0.08947703 -0.06669065
0000f0 8a 43 6f 3d b0 a8 54 3d 8d 9d 9c bd 6a c0 1f 3d
       0.05841402 0.051918685 -0.07647238 0.03900186
000100 54 25 91 3d 3c 7c 85 bc 43 85 a1 3b 00 0c f5 3c
       0.07087198 -0.016294591 0.004929216 0.029912949
000110 5e 06 a4 3d 04 df fd 3d e1 bf cb bd 38 c9 41 bd
       0.08009027 0.123960525 -0.09948707 -0.047311038
000120 fa d1 4f 3d 9b 10 db 3d 3c 14 e6 3d 93 4a e9 3d
       0.05073736 0.106965266 0.11234328 0.11391177
000130 6e 79 d2 3c f4 e9 e5 bd 4f 94 42 3c 47 68 a5 bd
       0.025692668 -0.11226264 0.01187618 -0.0807653
000140 96 67 f6 bd df e9 ea 3d 2c 09 c9 3d fc de 03 be
       -0.12031476 0.114703886 0.098162025 -0.1287803
000150 2e f3 c5 3c 0f 29 b2 bc 7a 09 ae bc d0 0e 72 bd
       0.024163809 -0.021748094 -0.021244753 -0.059096158
000160 97 59 4b 3d 3c 9a 9c bd ae d9 41 3d 00 b5 85 3d
       0.049645986 -0.07646605 0.047326736 0.06528664
000170 f9 45 bd 3d 91 b8 45 3d 42 d7 02 be 3d 83 ab bd
       0.09241862 0.04827172 -0.12777427 -0.08374641
000180 48 04 84 3d 7d 5a dd 3c 36 40 ce bd 82 3e 98 bd
       0.06446129 0.027020687 -0.10070841 -0.074337974
000190 e3 ba f8 3d 8f 27 b2 3d fa 90 66 bd b7 16 05 bd
       0.12145021 0.086989515 -0.056290604 -0.032492366
0001a0 e1 dc fb bd b6 12 18 bb 03 1b c7 bd 80 f1 cb bd
       -0.12297989 -0.0023204512 -0.09721949 -0.09958172
0001b0 ed 16 e9 bb 72 ca 9e 3c 5a 8e 58 bd ef e2 9c 3d
       -0.0071133287 0.019383643 -0.052870132 0.07660472
0001c0 25 e5 a0 bd 9b e7 ef 3d b8 30 b5 3d d9 f5 de bd
       -0.07856206 0.11714097 0.08847183 -0.108867355
0001d0 9d 9b 03 bd 34 e2 be 3b 6e 4d 9a 3c d6 d4 fa 3c
       -0.032130826 0.0058253054 0.01883575 0.030619066
0001e0 3e 83 4f 3d c2 65 fd 3b 99 01 81 bd de 37 7a 3d
       0.05066227 0.0077330777 -0.06299133 0.061088435
0001f0 0a 9f fd bd 86 b5 9c bd 4c 5f 04 bd 69 ca 80 bd
       -0.1238385 -0.0765181 -0.032317445 -0.06288607
000200 25 fd 38 bd 55 b4 d8 bd bf f6 e0 bc ab 10 e2 3c
       -0.045163292 -0.105812706 -0.027461408 0.027595839
000210 a6 3e ac bd 0d 19 d9 bb 92 44 bd 3d 84 70 59 bc
       -0.08410387 -0.0066253007 0.092415944 -0.013271455
000220 f9 23 6b 3b 16 79 36 bc f7 08 d6 3c fa 1c a8 3d
       0.0035879596 -0.011137268 0.026127322 0.08208652
000230 a2 72 fa 3d f1 e7 a7 3d 54 05 fb 3d e5 f8 18 bc
       0.12228896 0.08198536 0.12256876 -0.009336685
000240 27 83 ed bd 1c b0 7a bd 44 07 b4 3d 64 62 5b ba
       -0.11597281 -0.061203107 0.08790448 -0.00083688484
000250 ba 6a 83 bd 09 9c ca bd 6b 6f f7 bd f1 26 df bd
       -0.06416841 -0.098930426 -0.12081798 -0.10896099
000260 42 84 d6 bc 05 ff 90 3d 72 f1 8e 3d da fd fe bd
       -0.026186112 0.07079891 0.06979646 -0.12450762
000270 de ec a4 3d 61 e4 ce bd 77 95 df bc 11 69 56 bd
       0.08052991 -0.101021536 -0.02729295 -0.052346293
000280 e2 b4 cb bc 0d a6 cf bc 64 41 ed bd 0b 4a e4 bd
       -0.024866525 -0.025347734 -0.11584738 -0.11146935
000290 6f 7d a5 bc 61 d4 da 3a 74 37 70 bd fd 31 47 3d
       -0.020201413 0.0016695374 -0.058646634 0.048631657
0002a0 b6 f8 ed bd 26 bf 0e bc c2 83 e8 3d 93 b0 57 bd
       -0.116197035 -0.0087125655 0.11353256 -0.05265863
0002b0 07 c0 ee 3d f7 80 3f 3d 54 9b ee bd 4d 48 a7 3d
       0.1165772 0.04675385 -0.1165072 0.08168087
0002c0 11 14 74 bc 5a 0e 6c bd c4 6c d3 3d 29 a8 d5 bd
       -0.014897362 -0.057630874 0.1032348 -0.10432465
0002d0 b9 f7 62 3c ba 6c dd bc ec ce bc 3d f5 9b 13 3d
       0.013853007 -0.027029384 0.09219155 0.036037404
0002e0 49 16 7e 3d 55 bf 3a 3d 66 52 fe bc 57 6a de bc
       0.06203297 0.045592625 -0.03104515 -0.027150316
0002f0 30 e2 d9 bd e0 42 8f 3d a3 ec d1 3d f5 e7 b4 3d
       -0.10638845 0.06995177 0.10250213 0.08833305
000300 bc 7f ba bd 1b ac bc 3b ab 61 ba bd ae 8b 91 bd
       -0.09106395 0.0057578213 -0.0910066 -0.0710672
000310 97 10 9a bd 39 b6 34 3d 8e 8e 9d bd 87 96 38 bb
       -0.075226955 0.044119094 -0.07693206 -0.0028165893
000320 4a f6 b1 3b 7f 6f aa 3d ab dc c7 bd c7 82 b5 bd
       0.0054309713 0.083220474 -0.09758886 -0.088628344
000330 3e 86 99 bd 32 0f b9 3d fc 14 3e bd c7 03 df 3d
       -0.07496308 0.090361014 -0.04640673 0.10889392
000340 06 37 3f 3d e0 ea 85 3c eb ec 7b ba 88 10 d1 bc
       0.046683334 0.016347349 -0.00096101937 -0.025520578
000350 e7 b0 84 3c 4d 7e f1 bc 09 cb 6d ba b0 f0 86 3c
       0.016197635 -0.02947917 -0.0009071087 0.01647219
000360 c7 cf ce bd fd 93 8a bd 61 7f d5 3d c6 91 d6 bd
       -0.10098224 -0.06766508 0.10424686 -0.10477023
000370 c8 e1 17 bc 74 c6 02 3e de 04 3f 3d 0b 8c 6f 3b
       -0.009270139 0.12771016 0.0466355 0.0036551978
000380 be 20 e5 bd cc f9 82 3d ee 52 bc bd de 1a 16 bd
       -0.11187886 0.06395301 -0.09195505 -0.036646716
000390 0a 6b 31 bd 59 9d 9c bc 1c 17 b9 3a 56 13 da 3d
       -0.04331497 -0.019117998 0.0014121267 0.10648219
0003a0 02 07 84 3c 3a d1 ec 3d ef bb a1 3d 95 27 a7 bd
       0.016116623 0.11563344 0.078971736 -0.081618465
0003b0 42 2a 6d 3d 77 e6 ba bd 74 1d 60 bd 8f 87 1b 3d
       0.05790163 -0.09125989 -0.05471559 0.037971076
0003c0 4b 9a 2e 3d 67 5b c6 3d f0 39 2a bd a5 b5 58 39
       0.042627614 0.09685402 -0.04155916 0.00020667033
0003d0 fb 1d 88 3d ea b1 ff bd 27 27 bf 3d 7c a2 da bd
       0.06646343 -0.12485106 0.093336396 -0.10675523
0003e0 d8 37 e9 3a 89 ce b3 bc 03 40 8b bd 24 c8 8b 3c
       0.0017793132 -0.02194907 -0.06799319 0.017063208
0003f0 3c a2 da 3d 77 93 1a bd 5b f8 9c bd 4c 91 43 bd
       0.10675475 -0.03773829 -0.076645575 -0.047745988

bias f4 [128]
000000 39 0d e4 3c bf 12 a0 3b 4b 83 b1 3d 2e ee 01 be
       0.027838336 0.004885047 0.0866762 -0.12688515
000010 9f a9 85 3d f3 b0 b3 bd 8d 3c f5 3d 16 58 ce bd
       0.06526493 -0.08773985 0.1197444 -0.10075395
000020 55 3b e9 bc 2b bd 2e 3d ab d2 2f 3d 88 e0 30 3d
       -0.028470675 0.042660873 0.042925518 0.04318288
000030 df b6 aa 3b 2a 2b 11 3d 18 f4 b1 bd 02 f0 f9 bb
       0.005209788 0.035441555 -0.08689135 -0.007627488
000040 25 70 13 3d 88 16 d4 3d 2d 3e d7 bd b6 bb 50 bd
       0.03599562 0.1035586 -0.10509906 -0.050960265
000050 f1 3b b1 bd c4 a0 88 bd ef 83 9a bd bb 67 a1 bc
       -0.08654011 -0.066712886 -0.075446956 -0.019702783
000060 79 11 3f 3d db ae cd bc b8 ed d3 3c d4 0a fa bc
       0.046647523 -0.025107792 0.02587019 -0.030522741
000070 55 6c fe bd eb 80 86 3c df 3a b9 3b 80 8d b3 bd
       -0.124230064 0.016418895 0.00565277 -0.08767223
000080 6d 96 fe bd 4c 8f 02 3d 4a 82 11 bd cd ce d3 3c
       -0.12431035 0.03187494 -0.035524644 0.025855446
000090 38 2b e7 bc 65 34 02 bd 1c 14 54 bd 38 10 fe 3d
       -0.02821885 -0.03178825 -0.05177699 0.12405437
0000a0 a1 7a eb bd 69 49 03 bd dd 1f 10 bd 65 1e 3a bd
       -0.11497999 -0.03205243 -0.035186637 -0.045439143
0000b0 a2 0d 86 3d 89 14 eb 3d 74 0e da 3d 64 a8 80 bd
       0.06545569 0.11478526 0.10647288 -0.06282118
0000c0 90 bb 66 bd c2 ec 51 3d d4 eb 8d 3d e8 ad dd bd
       -0.056331217 0.05125118 0.06929746 -0.108241856
0000d0 ab bf 6f bd b5 41 79 bd fa e0 4d bc 4c e2 39 bd
       -0.0585324 -0.06085368 -0.012565846 -0.04538183
0000e0 5a 61 cc bd 8f 8e b1 bc 6a 7f f4 bc 68 5e 22 3c
       -0.09979506 -0.021674423 -0.029845912 0.0099102035
0000f0 08 8d 49 bd b9 d4 76 bd c8 10 ec 3d 9c 61 18 bd
       -0.049206764 -0.060261462 0.11526638 -0.037202463
000100 ed 7a 9d 3d ad ef ac bd 82 3b 65 bd e9 2c 57 3d
       0.07689462 -0.08444152 -0.055964954 0.052533064
000110 b1 d0 d0 3c da 5f c7 bd b1 65 cc 3d a1 f4 0f bd
       0.025490137 -0.09735079 0.099803336 -0.035145406
000120 5c 56 18 b8 61 ff 8f bc f3 ed c9 3d f1 01 00 3d
       -3.6320052e-05 -0.017577829 0.09859838 0.03125185
000130 b6 61 76 3d e8 08 e6 bc 5b ce 03 3e 3d c8 4d 3d
       0.06015178 -0.028080419 0.12871687 0.05023979
000140 74 82 82 3d eb 2f cd bc 61 df da bd 0b 10 bf 3d
       0.06372538 -0.025047263 -0.106871374 0.09329232
000150 d0 73 eb bd 21 b1 02 be dd e9 48 3c 34 6d cc bc
       -0.11496699 -0.12762882 0.012262789 -0.024954416
000160 25 7d be bd 0b 85 cb 3d 20 4b 55 3c 58 11 75 bd
       -0.09301213 0.09937485 0.0130183995 -0.059830993
000170 bd 05 aa 3d a7 34 3b 3d de 6f ce bd 94 cf ae bc
       0.08301876 0.04570451 -0.10079931 -0.021339215
000180 4b ce e3 bd eb 56 93 bd b9 a7 be 3c 74 7f 12 3d
       -0.11123332 -0.07194313 0.023273336 0.03576608
000190 c8 84 4c bd ee 2a 3a bd 0c c8 e1 bd 60 74 a3 bd
       -0.049931318 -0.045451097 -0.11024484 -0.07981181
0001a0 2b 6c 06 bc 1f 00 98 3b f0 c1 94 3d 1a a5 af 3d
       -0.0082045 0.0046386863 0.07263553 0.085764125
0001b0 63 bc e6 3d 5e a8 cd 3c b1 a1 c3 bd ce 83 15 bd
       0.11266401 0.025104698 -0.095523246 -0.036502652
0001c0 31 aa e8 bd fe a7 22 bc 0f 74 8a 3d 70 06 72 3c
       -0.113605864 -0.009927748 0.06760418 0.014772043
0001d0 8b 78 71 3d c0 3a df 3d 20 8e 89 3d 4c e8 db bc
       0.05895285 0.108998775 0.06716561 -0.026844166
0001e0 f7 e1 f0 3d a2 91 92 3d a2 38 c4 bd ed fa 97 3c
       0.117618494 0.071566835 -0.09581114 0.018552268
0001f0 41 0c 7f 3d 35 9a 29 3d 54 87 fe 3d 3b 82 ad bd
       0.062267546 0.04140683 0.124281555 -0.08472105

weight f4 [128, 128]
000000 ad ec 4b 3c 3d 7f af 3d eb 0c 63 bd 30 fd 42 bd
       0.012446565 0.08569191 -0.05543224 -0.04760474
000010 2f 50 75 3d 71 63 36 3d 74 74 8e 3d 40 7e 7b bc
       0.059890922 0.04452843 0.069558054 -0.015349925
000020 92 9a 56 3d 22 94 9b bd 40 bd 50 bd b6 2a 68 3c
       0.052393503 -0.075966135 -0.050961733 0.014170339
000030 97 75 80 bd 3b 92 c7 ba 25 15 07 bd bc f2 b2 3d
       -0.062724285 -0.0015226075 -0.03297915 0.08737704
000040 bf 52 d8 bc 5b fc fb 3c 3c 05 8b 3c 84 6a ae 3d
       -0.026406644 0.03075998 0.01697027 0.0851641
000050 44 94 71 3a f9 ae 4d 3d d1 ae 75 bd 95 95 82 bd
       0.0009215514 0.050215695 -0.05998117 -0.06376187
000060 a9 69 3b 3d 43 ed 60 3d d9 57 37 bd 9c 03 91 3d
       0.045755062 0.05491377 -0.044761512 0.070807666
000070 36 c4 ee 3c b7 2d 4d bd 41 98 2e 3d 83 fd b3 3d
       0.029146295 -0.050092425 0.04262567 0.08788588
000080 04 9a b9 bc 4f 99 8c 3d 34 81 df bc 30 e7 a9 bd
       -0.022656448 0.06865179 -0.027283289 -0.08296049
000090 9b 08 8f bd 84 79 f3 bc 76 36 ab 3d 4b 24 18 3d
       -0.06984063 -0.02972103 0.08359997 0.037143987
0000a0 e3 14 9c 3d 6f 7b 37 3d aa b8 a4 ba b2 38 6f bd
       0.07621171 0.04479545 -0.0012567241 -0.05840368
0000b0 9e 84 a4 bd 31 75 f2 bc f1 e0 1f bd 51 eb a2 3d
       -0.08033107 -0.029596897 -0.03903288 0.07955039
0000c0 b8 e4 ae bc c0 06 2f bc 22 56 83 3c 68 99 94 3d
       -0.021349296 -0.010682762 0.016032282 0.072558224
0000d0 d2 02 15 bc 04 db 3d 3d fc c5 79 bd 78 76 ac bd
       -0.009094911 0.046351448 -0.06097983 -0.084210336
0000e0 85 2e 5e bc 1c df 25 3d cf c9 62 3d 49 01 04 3d
       -0.013560896 0.040495977 0.05536824 0.032227788
0000f0 93 32 89 3d 70 df 54 bd bf d3 a2 3c 19 9c 96 3d
       0.066990994 -0.0519709 0.019876359 0.07353992
000100 3b 15 60 bd c7 8d 7a 3d ca a1 92 bd 48 7b 6b 3d
       -0.054707747 0.061170366 -0.07159765 0.057490617
000110 39 bf 3c 3d e0 21 9e 3d 67 98 1c bc 91 41 9f bb
       0.0460808 0.07721305 -0.00955782 -0.004860111
000120 4f 83 59 bd 13 f8 a5 3d 21 88 48 bb d3 2f bc bc
       -0.05310374 0.08103957 -0.0030598717 -0.022972023
000130 0c 33 bd 3b 47 42 3c 3d 4c a3 37 bd a7 25 90 bd
       0.0057739075 0.045961645 -0.044833466 -0.070384316
000140 72 47 b0 bc f5 a4 da 3c 78 b2 11 3c 06 9e c0 bc
       -0.021518443 0.026689986 0.008892648 -0.023512851
000150 53 55 3c 3c 8e 76 eb bb c0 43 8c 3d ab bc 54 bd
       0.011494952 -0.0071857637 0.0684886 -0.05193774
000160 e3 90 ae 3d f4 0a 5c 3a d0 4a 7e 3d ee c2 11 3d
       0.08523729 0.0008393966 0.062083066 0.03558629
000170 62 26 88 bd 51 d8 81 3d 90 7b fd bc 46 83 73 bd
       -0.06647946 0.06340087 -0.030942708 -0.059451364
000180 2b 71 1e 3d 1e ed 88 3c 9b 17 36 bd 9d 19 2a bd
       0.038682144 0.016714629 -0.044456106 -0.041528333
000190 69 43 9e 3d f9 f9 b4 bd a1 19 4f 3c 76 0e ea 3a
       0.07727701 -0.08836741 0.012640388 0.0017857093
0001a0 2b 87 90 bd 7c 5f 1d 3d f2 92 a2 bd e4 a8 2c bb
       -0.07057031 0.03842114 -0.07938184 -0.0026345784
0001b0 f2 d0 98 bc 71 98 4b 3d ff 4e 9c bc 41 79 a7 bd
       -0.01865432 0.049705926 -0.019080637 -0.08177424
0001c0 ee 74 dc bb 73 86 8e 3d 31 89 50 bd 2e 8d 98 3d
       -0.0067278063 0.06959238 -0.050912086 0.07448803
0001d0 25 86 49 3d 81 3f 25 bc 1c a7 33 bb 13 ec 95 3d
       0.049200196 -0.010085941 -0.0027412837 0.07320418
0001e0 05 49 bb 3a 8f 76 44 3c fb e1 ed 3b 46 0b da 3b
       0.0014288729 0.011991157 0.007259605 0.006654176
0001f0 c9 1e 9d bd e3 16 51 bd 16 11 a7 3d 30 ac 57 3d
       -0.076718874 -0.051047217 0.08157556 0.052654445
000200 72 c1 96 3b b9 16 ab 3d 35 5d 0d bd 35 e0 1a 3d
       0.004600697 0.083539434 -0.034512717 0.037811477
000210 0f 81 3d bd 4f f1 8b 3d 18 97 47 3d 0b 91 f9 3c
       -0.046265658 0.06833135 0.04872808 0.03046467
000220 6c 32 ad bb 5a a1 76 3d 7a e7 44 3d 64 42 3b 3d
       -0.005285552 0.06021247 0.048072316 0.045717612
000230 d9 c9 06 bd 18 93 21 3b 0e c7 ac bc ed 68 53 bd
       -0.03290734 0.0024654325 -0.02109101 -0.051613737
000240 58 b8 af 3c 3e bb 9b 3d 3e 1d 55 3d b0 1f ca bc
       0.021450207 0.07604073 0.05202984 -0.024673313
000250 f1 f5 4e 3d 84 cf d6 bb 55 51 ab 3d 4b 1d b3 bd
       0.050527517 -0.0065554995 0.08365122 -0.087458216
000260 d8 fe c2 3c 50 db 9f bd 74 84 2c 3d 43 0a 82 3d
       0.02380316 -0.078055024 0.042118505 0.063496135
000270 d8 c7 8a 3d ec 85 ed bc dd 34 ff 3b 3f 8d bd 3c
       0.067763984 -0.028994523 0.007788284 0.02313864
000280 c9 3d f8 bc 27 97 a9 3d ec ea 77 3d a9 33 33 3d
       -0.030302899 0.08280783 0.060526773 0.04375044
000290 99 74 13 bd e9 28 7d 3d 67 6c 38 bd 04 6a 93 bd
       -0.035999868 0.061806593 -0.045025256 -0.07197955
0002a0 ba c2 e2 bc a0 4f 05 bc 93 67 64 3d c1 52 15 3d
       -0.027680743 -0.00813666 0.05576284 0.036455873
0002b0 eb 7e 02 3d a7 7b db bc aa 84 8c 3d 58 c9 ac 3d
       0.03185932 -0.02679236 0.06861241 0.08436841
0002c0 b5 f7 9b bd f3 df a2 3d 00 f9 8d 3c 79 71 fc 3c
       -0.07615606 0.07952871 0.017330647 0.030815827
0002d0 0b 7c 0d 3d 61 f7 52 3d 17 e3 b1 3a 69 73 ba bc
       0.034542125 0.05150545 0.0013571706 -0.02276011
0002e0 e6 96 f9 bc ce 5e 68 bd 30 f6 5e bb b1 3b 4b bd
       -0.030467462 -0.056731038 -0.003402125 -0.049617473
0002f0 35 0d 58 3d d8 99 81 bd 4e 5b 9d 3d 53 da 9f bd
       0.05274697 -0.063281715 0.076834306 -0.07805314
000300 94 bd 96 3d 86 09 24 3c f9 a2 aa bd 5b 1d d9 3c
       0.07360378 0.010012036 -0.08331866 0.026503256
000310 db 15 69 bd 41 65 8f bd 4a 75 98 3b 1e 03 ce bc
       -0.05690561 -0.070017345 0.004652654 -0.02514797
000320 4d b1 b2 3c b0 28 8f 3d ad 03 a6 bd fa 0b b4 3d
       0.02181306 0.069901824 -0.0810617 0.08791347
000330 0a c1 48 bd b9 15 8f bc 87 ad 6a 3d 44 39 17 bd
       -0.04901222 -0.017466413 0.057294395 -0.036919847
000340 37 78 36 bd 85 67 a9 bc 43 82 0d 3d 06 da 7a bb
       -0.04454824 -0.020679245 0.034548055 -0.0038276925
000350 5d e8 a4 3d a6 4f 1c 3d 37 2e a5 bd 36 4f 82 bd
       0.08052132 0.038161896 -0.080654554 -0.063627645
000360 d0 37 e4 3b 7e ec 5d bb 78 0a dc bc 3a 20 ee 3c
       0.006964661 -0.0033862884 -0.02686046 0.029068101
000370 1f f0 17 3d 7f 24 52 bd e1 72 90 bc 79 9f 01 3d
       0.03709423 -0.051304337 -0.017632904 0.031646226
000380 d1 31 03 3d d5 ee 01 bc 7e 04 36 3d 65 60 01 3d
       0.03202993 -0.007930477 0.044437878 0.03158607
000390 75 e5 a9 bd 29 f4 ac bd 3d e1 41 3b 33 dd f7 3c
       -0.082957186 -0.08445007 0.0029583715 0.030256843
0003a0 b2 0a 81 bd ec 70 3a bd 51 fa ac bd 5c 24 89 3c
       -0.06300868 -0.045517847 -0.084461816 0.01674097
0003b0 c8 33 83 3d 75 61 a0 3d 99 63 93 bd d6 c6 8b 3d
       0.06406361 0.078310885 -0.07196731 0.06825034
0003c0 5c 01 11 bd 27 6d 9f bd 8c 57 68 3d ce 1b 98 3d
       -0.035401687 -0.07784491 0.056724116 0.07427178
0003d0 41 aa 94 bb be fc cf bc 38 ed 34 3c e7 de 29 3d
       -0.0045368974 -0.025389072 0.0110428855 0.041472342
0003e0 e4 6c 27 3d 4e 56 36 bd 19 07 41 3b d6 4e c7 3c
       0.04087533 -0.0445159 0.0029453693 0.024329584
0003f0 c7 c9 51 3c b2 8d 96 3c f7 c2 a4 3c 2d f2 bf 3c
       0.012804455 0.018378112 0.020112498 0.023430908

bias f4 [128]
000000 65 c4 0e bd cf ab 81 bd 64 c8 1d 3d 8c d0 4b bd
       -0.034855265 -0.06331598 0.038521186 -0.049759433
000010 e0 7b 35 3d 09 6d 9d 3d 0d 41 94 bc de 0b 82 3c
       0.04430759 0.076868124 -0.018097425 0.0158748
000020 58 d9 18 bd 1d 97 4e 3d af f0 d6 bc 25 29 9b 3d
       -0.03731665 0.05043708 -0.026237814 0.07576207
000030 42 4a a7 3d ff a1 bd 3c e8 0c d2 3c 8f 25 d8 bc
       0.081684604 0.023148535 0.02564092 -0.026385097
000040 82 d3 4f 3d 65 80 a2 bd cf 73 70 3c fd a4 8d 3d
       0.05073882 -0.079346456 0.014676048 0.06916235
000050 be 39 9c 3d 88 1c 32 bd 64 37 17 bd 01 05 22 bd
       0.07628201 -0.04348424 -0.03691806 -0.039555553
000060 c4 bb a9 3d d7 b4 7b bd 2c 2b 8d 3d 8b 6b 97 bd
       0.082877666 -0.06145176 0.06893 -0.07393559
000070 a7 68 70 bd 1c 8d 81 3d a8 18 90 3c f7 0b 4e bd
       -0.058693554 0.063257426 0.017589882 -0.05030438
000080 10 39 ab bc 5c 24 b2 bd f3 59 80 3c 10 a2 6f 3c
       -0.020901233 -0.08698341 0.015667891 0.014626041
000090 66 1c 5a bd 07 99 3c 3d 8f a3 e0 bc f1 d8 84 3d
       -0.05324974 0.046044376 -0.02742174 0.06486691
0000a0 67 7e 93 bd ac c1 0f bd ed eb f5 3c 07 00 b2 bd
       -0.07201844 -0.03509681 0.030019725 -0.086914115
0000b0 12 81 8d bd 09 86 91 bd b6 a1 47 3d 22 c8 61 3d
       -0.06909384 -0.07105643 0.048738204 0.055122502
0000c0 6b e9 bc 3c ef d5 33 3d 36 98 a3 3c 56 e8 29 3d
       0.023060521 0.043905195 0.01997004 0.04148134
0000d0 b3 97 1b 3d 58 a3 8f bd f6 09 49 bd cd 3e 63 3d
       0.03798647 -0.07013577 -0.049081765 0.055479813
0000e0 fe 5f 50 bd 88 d4 85 bd 5b 8f a0 3d 73 d2 6e 3d
       -0.050872795 -0.06534678 0.07839843 0.05830617
0000f0 49 3e fe 3c c7 d6 b2 3b 2b 19 b5 3c 93 15 44 bd
       0.03103556 0.0054577324 0.022106728 -0.047872137
000100 24 c2 2d 3d be f5 ca 3c 57 c2 fd bb 3e aa a7 bc
       0.042421475 0.024775382 -0.0077441144 -0.02046692
000110 a8 18 6c b9 e1 71 e1 bb b6 e9 61 bd 5c 03 8d 3d
       -0.00022515899 -0.0068800305 -0.055154525 0.068854064
000120 bf be 5a bc 40 3d 55 bd 41 47 a3 3d ce 54 8e 3d
       -0.0133511415 -0.052060366 0.07972575 0.06949769
000130 82 d2 37 3d f0 d3 de 3c fb 92 67 bd 40 b6 fe 3c
       0.04487849 0.027200669 -0.056536656 0.031092763
000140 37 8f 89 3d 7d 76 1f 3d 2b ff f6 bc 34 20 a7 3a
       0.06716769 0.03893136 -0.03015097 0.0012750686
000150 d4 e3 a6 bd 14 ab a5 bd 00 4c 53 3d 8d bb cc bc
       -0.081489235 -0.08089271 0.05158615 -0.024991775
000160 06 4f b1 3d 8b 56 e5 bb 07 ae 7c 3d cc 8e 49 3d
       0.08657651 -0.006998842 0.061689403 0.049208447
000170 54 6c 3c bd 8d 76 24 ba 20 a2 a4 bb 4c a3 a5 bd
       -0.046001747 -0.0006273769 -0.0050242096 -0.08087787
000180 35 4e 66 3b c7 76 b1 bd 7b b4 15 3c 41 c1 81 3d
       0.003514183 -0.08665233 0.009137268 0.063356884
000190 21 e3 cb bc 70 d3 a4 3d d0 7f d6 bc 9f 29 13 3d
       -0.024888577 0.08048141 -0.026183993 0.035928365
0001a0 d0 77 86 bb 1d fc 10 3d 41 a7 91 3d 05 63 94 bd
       -0.004103638 0.035396684 0.07111979 -0.07245449
0001b0 1d c8 6b 3d 88 61 a9 3c e9 95 87 bd 4e 39 4b 3d
       0.05756389 0.02067639 -0.0662039 0.049615197
0001c0 e8 31 35 3d 8f f4 9e 3c 25 58 31 3b 73 e2 42 bd
       0.044237047 0.019403724 0.0027060595 -0.04757924
0001d0 97 03 b5 bd 6c 33 96 bd 40 72 95 3d ee dc 2a 3d
       -0.08838575 -0.07334027 0.07297182 0.0417146
0001e0 6d fe 78 bd bd 3a 1d 3d 53 39 98 3d 16 c6 9a 3c
       -0.060789514 0.038386095 0.07432809 0.018893283
0001f0 48 20 f9 bc 59 c3 40 bc 65 c1 a8 3b ff 71 e8 3c
       -0.0304109 -0.0117653245 0.0051500075 0.02837467

weight f4 [128, 128]
000000 e6 58 95 bd 92 a2 a9 bd 42 37 90 3c fa d4 36 bd
       -0.07292347 -0.08282961 0.017604474 -0.044636704
000010 d7 af 13 3d 7a 8b 28 3d b8 14 c7 3c 65 3d 9a 3d
       0.036056366 0.04114864 0.024301872 0.07531241
000020 b4 5d 81 bd 30 38 8e 3d 51 95 21 bd e2 e2 93 3d
       -0.063167006 0.06944311 -0.03944904 0.07221009
000030 9b 9b 98 bd 3a 30 37 3d f7 8b 9b 3d 24 ba 96 3d
       -0.074515544 0.044723727 0.075950556 0.07359722
000040 41 5c 0f bc 49 f6 90 3d 3b c9 21 bc 3b 72 a6 3c
       -0.008750022 0.07078225 -0.009874637 0.020318141
000050 8e 86 0e bd 58 64 b3 3d 22 eb 01 bd bc 75 94 bd
       -0.03479629 0.087593734 -0.03171838 -0.072490185
000060 24 f3 f3 3b 9d 6a 8f bd a3 70 b0 bd 35 85 16 3d
       0.007444756 -0.07002757 -0.08615234 0.03674813
000070 f1 9b ac 3d 9c 6c b0 3d 11 8a ab 3d 3a 5a b3 bd
       0.08428181 0.086144656 0.083759435 -0.08757444
000080 51 bc 9d 3d 61 ab ba bc 9b 15 94 3c 03 5f b0 3d
       0.07701934 -0.022786798 0.018076709 0.08611872
000090 af ee 80 bb 51 13 08 3d 32 59 0b 3d e2 48 a7 3d
       -0.0039347033 0.033221547 0.03402061 0.08168198
0000a0 ff 27 8b 3c af 36 88 bc 09 d3 81 3c 29 0f 65 3d
       0.016986845 -0.016627638 0.0158477 0.05592266
0000b0 f2 40 97 bd b4 fd 1f bd 8c bf a0 3d f1 05 e8 3b
       -0.07385434 -0.03906031 0.07849035 0.0070807864
0000c0 e5 8f 57 3d 8c f4 09 bd e0 5a 3d bd 0c cb ae 3d
       0.052627463 -0.033680484 -0.046229243 0.08534822
0000d0 2c 50 ab bd dd 16 dc bc 4a d8 9b bc 2a e9 93 bd
       -0.08364901 -0.02686637 -0.019024033 -0.07222207
0000e0 07 80 96 3d 95 e8 a0 bd 2b 54 ca 3c 08 77 8f 3d
       0.07348638 -0.078568615 0.024698338 0.07005125
0000f0 48 83 65 bd fc ca 52 bd b9 c7 81 3c 12 2b 17 bc
       -0.056033403 -0.051463112 0.015842305 -0.009226577
000100 5c cc c5 3c 37 18 91 bd ac e2 9f bd dd 0e a0 3d
       0.024145298 -0.07084697 -0.07806906 0.07815335
000110 50 fe 42 bd 7e b4 aa bd 89 ea 9d bd 76 fd 95 3d
       -0.047605813 -0.083352074 -0.0771075 0.073237345
000120 0e 73 a3 3d e4 72 84 bd 15 9f 08 bd bc 3b de 3c
       0.07980929 -0.06467226 -0.033354837 0.027128093
000130 2f c1 50 3d 3d 94 3b bc 25 c1 0e 3d a3 8f 90 bd
       0.050965484 -0.011448917 0.034852166 -0.070586465
000140 0d 76 4f bd d1 d9 87 3d 2b 0f af 3c 08 c6 8b bc
       -0.05064969 0.06633342 0.021369537 -0.017062202
000150 f4 25 a1 3d ad 7f 8a 3d 36 ce 41 3d a9 b2 6f bd
       0.07868567 0.067626335 0.0473158 -0.058519993
000160 c8 17 12 bd 2e f2 cf ba 46 6e 40 3d cf 19 c2 b9
       -0.03566721 -0.0015865022 0.046980165 -0.00037021792
000170 e0 30 cf 3c 7a 17 9d 3d d9 04 ee 3c 79 8d c0 3b
       0.02529186 0.076704934 0.029055046 0.00587624
000180 ea 5c 83 3d 0e be 97 bd 80 54 97 bc fe e5 7b 3d
       0.06414206 -0.07409297 -0.01847291 0.061498635
000190 74 bf 8a bd ff 01 c0 bb 81 12 2d bd de 09 bf bc
       -0.06774798 -0.005859613 -0.042253975 -0.023320135
0001a0 96 3a 92 3d 56 29 b6 3a e6 1e a3 bb 59 df e5 bc
       0.07140081 0.0013897817 -0.0049780486 -0.028060602
0001b0 c2 6a 2d 3d 14 1a 86 bc 9e 31 70 bd dc bb 76 3c
       0.04233814 -0.016369857 -0.05864107 0.015059438
0001c0 56 35 a1 3c f5 d8 46 3d 16 6e ca bb 2e 53 ab 3c
       0.019678753 0.04854675 -0.006177674 0.020913687
0001d0 70 de 89 3d ad c7 01 bd b6 1d 8f 3d a0 25 77 bd
       0.0673188 -0.031684566 0.06988089 -0.060338616
0001e0 b4 ad 29 bd 19 3a 49 3d 66 17 9c 3c 1a 28 a7 3d
       -0.04142542 0.049127672 0.019054126 0.08161946
0001f0 f5 45 48 bd e7 c2 b4 bc 0e 6e 95 bc f7 68 5a 3d
       -0.04889484 -0.022065593 -0.018240955 0.05332276
000200 02 b4 e2 bc ce 57 a5 3d e9 07 db bc 6f 0d 31 3d
       -0.027673725 0.08073388 -0.02673717 0.043225702
000210 f4 7a 92 bc 7c f0 8e 3d 4f 93 59 3d 1b 6a f5 3c
       -0.017880894 0.069794625 0.053119 0.029957822
000220 62 24 fa 3b 29 c9 76 bc 87 c1 52 bc b4 38 2a 3d
       0.0076337317 -0.015062609 -0.012863523 0.041557983
000230 8a ee f8 bc b2 22 b4 3d 7d 7e 56 3d 7b 21 82 3d
       -0.030387182 0.0879568 0.052366722 0.06354042
000240 86 cc 43 3d 9c 06 7e bd 62 89 4f 3d 35 08 ad 3d
       0.04780247 -0.062018022 0.050668128 0.08448831
000250 11 1e ae bc db 09 3d 3b 7c 32 19 3c d2 9f 17 bd
       -0.021254571 0.0028844986 0.009350415 -0.03701765
000260 ad 67 c2 3b 01 e4 83 bd 7a 3d e3 3c 69 f3 4c 3d
       0.0059327693 -0.06439973 0.027739275 0.05003682
000270 c2 d9 06 bd b0 f3 82 3d 3a 38 90 bd 4c f3 09 bc
       -0.032922514 0.06394136 -0.07041974 -0.008419823
000280 61 7c a6 3d 5e 7f 78 3d a5 86 c0 bc 50 e4 f7 3c
       0.08129192 0.06066834 -0.023501704 0.030260235
000290 b5 61 b6 bc d9 93 42 3d 67 fa 7b 3d ba b6 23 3d
       -0.022263387 0.04750428 0.0615181 0.039969184
0002a0 c1 61 98 3c 44 b4 7d bd 70 8f 23 3d 13 28 41 bd
       0.0186013 -0.061939493 0.039931715 -0.04715736
0002b0 cf 1a b2 3d 78 b7 1c bd a4 ad 13 bd e2 96 98 3d
       0.086965196 -0.038260907 -0.03605427 0.074506536
0002c0 dd 79 20 bd 2c dd 56 3c 8d 37 72 bd c5 5c 95 bd
       -0.039178718 0.013114255 -0.05913501 -0.07293085
0002d0 83 0c 0e 3c a5 c0 d2 bc 7d 82 5e 3d 2e 36 2f bd
       0.008669975 -0.025726626 0.054323662 -0.04277628
0002e0 e3 56 f8 3c cd 8d da 3c 12 57 7b 3d d7 0f 68 3d
       0.030314868 0.026678944 0.061362334 0.05665573
0002f0 e5 e8 6b bd f6 a0 8e 3c b7 37 b3 bd 1f e4 06 3d
       -0.057595152 0.017410737 -0.08750861 0.032932397
000300 87 f2 33 3d 2b 19 31 3c 1a a7 67 3d cd 09 ac 3d
       0.043932464 0.010809223 0.056555845 0.08400307
000310 6a 63 5f bd b1 de 64 bc b7 d3 92 bd ca 7e 10 bc
       -0.054538168 -0.013969109 -0.07169288 -0.008819291
000320 a4 45 02 3d d8 50 11 bd dc a8 8d bd 70 0f 84 bd
       0.031804696 -0.03547749 -0.06916973 -0.06448257
000330 b0 04 52 3b dd 8b 92 3d 12 24 ee 3c 54 ad ac bd
       0.003204625 0.07155583 0.029069934 -0.08431497
000340 12 d3 ce 3c c3 da 0d 3d 5a 9e b0 bd 29 87 bf 3c
       0.02524713 0.034632456 -0.08623953 0.02337988
000350 3c 8e 6a 3d 8e 9e 7b bd 7c 15 a3 bd 65 89 38 bd
       0.05726455 -0.061430506 -0.07963082 -0.045052905
000360 cd 33 62 3c 25 0d c6 3c c9 d2 8f bb fb 5b 00 3d
       0.013806296 0.02417619 -0.004389141 0.03133772
000370 ae ac 61 bd e0 a9 02 bd 9a 0c a3 bd 44 27 b4 3d
       -0.05509632 -0.031900287 -0.07961388 0.08796552
000380 27 c7 11 bd ab 31 88 ba db e0 a8 3d ff 1b e3 bc
       -0.035590317 -0.0010390779 0.08246013 -0.02772331
000390 7c f1 d9 3c 0f f7 3d bd a8 92 be 3b 1b e0 03 37
       0.026604407 -0.04637819 0.0058158226 7.860387e-06
0003a0 01 2a 42 bd 42 2e a7 bd d4 ef 9b bd ce 09 9c bd
       -0.04740334 -0.0816312 -0.07614103 -0.076190576
0003b0 b8 f1 4c 3d 8e 2c 8e 3c 80 99 4e 3d e6 5a 80 bc
       0.05003521 0.01735523 0.050439358 -0.015668344
0003c0 c6 6e f0 bc d1 01 56 3d 8a 4c 8b bd a5 f0 42 bd
       -0.029349696 0.052247826 -0.06801708 -0.047592778
0003d0 ce 97 a0 3d 05 c0 55 bd 75 e7 11 bc f7 a1 d4 3b
       0.078414544 -0.052185077 -0.008905281 0.0064890343
0003e0 4d d5 27 3d 42 09 46 bb 81 f2 50 3a 8b 54 44 bd
       0.040974904 -0.003021792 0.0007970706 -0.04793219
0003f0 61 9d b4 3c 9b e8 f6 3c ef be e0 3c b6 fc 7b bd
       0.0220477 0.030140212 0.027434794 -0.0615203

bias f4 [128]
000000 35 ab ad bc 2f f7 b0 3b 90 7e 04 3d 0e 88 eb 3b
       -0.021199802 0.0054005603 0.032347262 0.00718785
000010 4d b0 72 bc d4 bc af 3c b6 93 c7 bc 14 47 98 bd
       -0.014812541 0.021452345 -0.024362426 -0.07435432
000020 56 35 cb bc 51 8a 92 bd 47 87 a3 bd 3b 71 b4 bc
       -0.024805706 -0.07155288 -0.079847865 -0.022026649
000030 2c d6 38 bb 57 0f 7e 3d ef 15 b2 3c 38 a6 ad bd
       -0.0028203828 0.062026348 0.021738974 -0.08478969
000040 7d 0a 6d 3b 55 0f c2 bc 96 7d c0 3c c3 bf 85 bd
       0.0036169582 -0.023688952 0.023497384 -0.06530716
000050 8d a6 8a bd 9e 69 b2 3c 27 fa 3b 3c a9 77 b0 bc
       -0.06770048 0.021778878 0.011473215 -0.021541433
000060 e3 76 8e bc 6c e9 70 bd 65 59 a0 bd 7a 3b bf 3b
       -0.017390674 -0.05881636 -0.07829551 0.0058359476
000070 c5 72 64 3d cb aa c5 bc 65 99 83 3b 64 68 7c bc
       0.055773515 -0.024129292 0.004016089 -0.015405748
000080 0c 20 9f bd 17 48 09 bc fb 92 5f bd 1b 2c 70 3d
       -0.07769784 -0.008379004 -0.05458353 0.058635812
000090 6a a7 23 3d 88 ae 53 3d 1a 32 16 3d 03 37 d4 b9
       0.03995458 0.051680118 0.036668874 -0.00040476778
0000a0 50 20 81 3c a7 17 5d bb 07 2e 1c bd 22 78 ae 3d
       0.015762478 -0.0033736022 -0.038129833 0.08519007
0000b0 01 fc af bc 18 ad ab bd d0 ae 8a 3c ee 76 ae bd
       -0.02148247 -0.083826244 0.01692906 -0.08518778
0000c0 af 03 9c 3d 6c 68 2a 3b fe 73 8e bd 55 6c 24 3d
       0.0761789 0.0026002182 -0.069557175 0.040142376
0000d0 9b 0a 74 3c 7a aa c6 3b 63 0c 37 bd 34 90 6a bd
       0.014895107 0.006062803 -0.044689547 -0.05726643
0000e0 80 37 98 bd 3c b2 0b bc 7a a7 28 bd e4 ef a2 3d
       -0.07432461 -0.008526381 -0.041175343 0.07955912
0000f0 9f ca d4 3c ed 46 08 bc 6f b5 ba bc 60 5b 96 3d
       0.025975524 -0.008317691 -0.022791592 0.07341647
000100 77 85 fd 3c 33 6b a2 bd 50 e5 80 bd ab a2 b3 bd
       0.03094743 -0.07930603 -0.06293738 -0.08771261
000110 20 ec 97 3d a2 4b 80 bd 06 6d 6a 3d a6 00 27 3d
       0.07418084 -0.06264426 0.05723288 0.040772103
000120 1f 74 3d 3d 7f 85 9a 3d a2 99 65 3d c4 36 9e 3d
       0.04625332 0.075449936 0.05605472 0.077252895
000130 f7 c7 80 3d cc 59 90 bc 8c dd 37 bd 48 aa 20 3b
       0.0628814 -0.017620943 -0.044889018 0.0024515558
000140 c8 98 97 3d d4 89 aa bd 01 da a7 3d c6 f9 e1 3c
       0.074021876 -0.0832707 0.08195878 0.027584922
000150 b5 2f a4 bc 48 1d 93 3c 34 db 28 bd 02 fe e3 b9
       -0.02004228 0.017958298 -0.041224673 -0.00043486065
000160 f5 e7 b4 ba 30 c8 9b bd e6 20 4f bd bf ba 2a bd
       -0.0013802039 -0.07606542 -0.050568484 -0.041682
000170 d3 a9 9a 3c d3 80 8b bc 5c 90 8d bd c0 cb 82 3d
       0.018879807 -0.017029202 -0.069123 0.063865185
000180 3f 8f 2a 3d bc d0 27 bd 1b 43 81 bd 57 a3 96 3d
       0.041640516 -0.04097055 -0.063116275 0.07355373
000190 47 6f cf 3c c1 68 86 bd 53 ee 93 bd 56 7d 4e 3d
       0.025321616 -0.06562949 -0.07223191 0.0504125
0001a0 5a 4b aa bd 58 9b b9 bc 0c 9d d6 bb 6e 53 67 bd
       -0.083151534 -0.022657081 -0.006549483 -0.05647605
0001b0 74 8a 9d 3d 2f ed fe bc 0b cd c5 bc 1c 43 82 3d
       0.076924235 -0.031118957 -0.024145624 0.06360456
0001c0 43 52 75 bc 50 ed f6 3b 6e 4d 84 bd 83 5f 40 3b
       -0.014973226 0.007535614 -0.06460081 0.0029353804
0001d0 3f 73 ad bd 45 31 32 3c fc 02 97 bc 30 b5 32 3c
       -0.08469247 0.010876005 -0.01843404 0.010907456
0001e0 74 fa 23 3d 18 49 f9 bb 9f 80 91 3d 86 ad 91 bd
       0.040033773 -0.0076075904 0.07104611 -0.07113175
0001f0 aa 44 9a 3c 5b 53 8e bb f2 25 af 3d 47 4c 40 bd
       0.01883157 -0.004343433 0.08552159 -0.046947744

weight f4 [128, 128]
000000 c0 f7 a9 bc 0d 74 a9 3c 6f 58 8f bd d5 5f 16 3d
       -0.02074802 0.02068522 -0.06999289 0.036712486
000010 69 94 29 3d 2a 82 52 3d 7c d7 1d 3d 3c f2 3e 3d
       0.0414013 0.051393665 0.03853558 0.04661773
000020 18 dc ab 3c a7 f5 a4 bc 06 9f a5 bd bd e7 1f 3c
       0.020978972 -0.020136667 -0.08086972 0.009759841
000030 91 53 5c bc 39 04 aa bd 76 a6 3f 3d b3 a6 8f 3c
       -0.013447658 -0.08301587 0.04678961 0.017535543
000040 3d f2 7f 3c cb a9 7f bd 0f c3 42 bd b9 d7 b1 3d
       0.015621719 -0.062417787 -0.047549304 0.08683724
000050 27 7a 6c 3d 8b d4 50 3c 06 b8 89 3d 20 e2 93 bd
       0.05773368 0.012745987 0.06724553 -0.07220864
000060 42 1b 90 3d fe 74 ae bd d4 5d b0 3c 60 6c 87 bd
       0.07036449 -0.08518408 0.021529116 -0.06612468
000070 e0 47 43 bd 26 b6 69 bd 86 a8 7a bc 3b ef 81 3c
       -0.047675967 -0.057058476 -0.015298968 0.015861144
000080 cd 4f 59 bb 2e 17 a0 bd a9 67 2e bd c3 88 8a bd
       -0.0033159137 -0.07816921 -0.042579327 -0.067643665
000090 54 17 b2 bd e3 5f a5 3d fa 97 86 3d c4 eb 8d bb
       -0.08695856 0.080749296 0.06571956 -0.004331084
0000a0 2a b1 1e bd d7 49 e9 3c b7 49 ae 3d c9 16 02 3c
       -0.038743176 0.028477592 0.08510154 0.007940003
0000b0 1f 9f 33 3d aa c9 47 3d eb 75 46 3d 11 87 b4 bd
       0.04385292 0.048776306 0.0484523 -0.088148244
0000c0 af 98 ac bd d8 46 a1 3d 4a b1 f3 3b 00 74 54 3b
       -0.084275596 0.078748405 0.007436906 0.0032417774
0000d0 e3 fb c1 3c b9 ec 88 3d 86 65 af 3c 8e e4 9c bd
       0.02367968 0.06685776 0.021410715 -0.07660781
0000e0 90 09 0e bd 9d 91 9e 3d d6 b3 18 bd cb 5e ec 3c
       -0.03467709 0.07742617 -0.03728088 0.028853795
0000f0 a3 c2 a7 bd 87 88 13 3d 2e af b2 3c c9 95 33 3c
       -0.08191421 0.036018874 0.021812048 0.0109610045
000100 d1 20 24 3c 56 19 80 bd 1a 68 89 3d 2c d3 52 bd
       0.01001759 -0.062548324 0.06709309 -0.05147092
000110 ae 90 98 3d f3 3b bd bc 92 0e 2f bd 15 b1 60 3d
       0.074494705 -0.023099875 -0.042738505 0.05485638
000120 66 b1 b4 3c aa b0 b1 3d 9e d7 1b 3d 85 ee a1 bd
       0.022057246 0.08676274 0.038047425 -0.07906822
000130 cb 98 ae 3c 5b 4b 34 3d 72 af 45 bd 38 6f 6b 3c
       0.021313092 0.044017177 -0.04826302 0.014369778
000140 7d 91 90 bd 91 c0 52 bd 1c 3d 72 bd 07 7a 85 3c
       -0.07059 -0.051453177 -0.05914031 0.016293539
000150 32 c4 81 bd 56 fe 9c bd 40 8f 8f 3d 2d d3 79 bd
       -0.063362494 -0.07665698 0.07009745 -0.06099241
000160 56 38 b7 bb 60 f1 2b 3d ef 8c f4 3c a3 44 99 bd
       -0.0055914326 0.04197824 0.029852359 -0.074837945
000170 7c d6 86 bd 07 6f c8 3b 6c 27 17 bd 26 f2 59 bd
       -0.065838784 0.006116751 -0.03690283 -0.053209446
000180 ec 5d 05 3d c6 93 1a 3c c1 13 af bd b7 fc 65 bd
       0.032560274 0.009434646 -0.0854869 -0.05614921
000190 57 72 c0 bc 78 d6 f1 3c b2 79 b4 bd 03 5d a7 b9
       -0.023492021 0.029521212 -0.08812274 -0.0003192202
0001a0 38 d4 98 bb 98 2a 4c bd 50 29 1b 3d c6 11 6a bc
       -0.0046639703 -0.049845308 0.037881196 -0.014286464
0001b0 97 b5 66 bd 9e d0 9f bd 2b c3 96 bd de 9f e0 3b
       -0.05632552 -0.078034624 -0.07361444 0.006854995
0001c0 d3 43 c8 bc b7 06 b1 3c ad a1 93 3d c0 59 83 3d
       -0.024446404 0.021609647 0.072085716 0.06413603
0001d0 96 dd 64 bc f8 c3 65 3b a5 6d 42 bd 45 ad 1f 3d
       -0.013968846 0.0035059433 -0.047467846 0.038983602
0001e0 f1 3c 9f 3d 2a a5 c4 bc 1e 1b 54 bd 77 b4 b2 bd
       0.077752955 -0.024004538 -0.051783673 -0.08725827
0001f0 21 85 21 3c 5f 33 f1 3c 24 d5 52 bd 50 cd 12 39
       0.009858401 0.029443441 -0.051472798 0.0001400013
000200 f5 bd 3b bd 16 fd 2b bd 9b 5f 81 bd 34 aa a9 bd
       -0.045835454 -0.04198941 -0.063170634 -0.08284417
000210 4c 7f 16 bd 49 65 7e 3d 46 27 53 bd f3 2b 44 3d
       -0.036742494 0.06210831 -0.051551126 0.047893476
000220 e4 65 b9 bb 64 97 81 bd a1 ee 11 bd 7c 77 c9 bb
       -0.0056578983 -0.063277036 -0.035627965 -0.006148277
000230 4f c1 9f 3d 40 55 78 bd 99 3a 4f bc 50 ab 9d 3c
       0.078005426 -0.060628176 -0.012648248 0.019246727
000240 5c 1c aa 3d d3 ee ec 3b e3 97 94 3d 7b 3f 36 3d
       0.0830619 0.0072306185 0.072555326 0.044494133
000250 68 fa 39 3d ff 0c 28 bc 01 85 a3 3d 82 a0 f5 3c
       0.04540482 -0.010257005 0.07984353 0.029983763
000260 c1 35 6b 3d d8 6b f2 bc 67 5d 68 3c b9 b6 c1 3b
       0.05742431 -0.02959244 0.014182425 0.005911675
000270 66 1d ee 3c ee 5b bc 3c 4c 13 cd bc 37 49 bc bc
       0.029066753 0.022993054 -0.025033616 -0.02298413
000280 87 d9 43 3d 0b ce 9d 3d ca 66 10 3c ef 75 90 bd
       0.047814872 0.07705315 0.008813569 -0.07053744
000290 3c af 5a bb 7a 5a 63 bd 07 61 6c 3d 5d 70 78 3c
       -0.0033368608 -0.055506207 0.05770972 0.015163508
0002a0 85 14 80 bc b8 bf a3 3c 08 0f 32 3d 7e f0 a3 3d
       -0.015634784 0.01998888 0.043471366 0.080048546
0002b0 82 df cf 3c 9d 2f 6f 3d c6 8b 82 3d 99 d9 7b 3d
       0.025375132 0.058395017 0.06374316 0.061486814
0002c0 15 2a 86 3d 41 dd 64 3d 87 ea 3d 3d 70 8c 13 bd
       0.06550995 0.055875067 0.04636624 -0.036022604
0002d0 ae 82 20 3a eb 76 3b 3d bf 4a 45 3d 90 04 a3 bd
       0.00061229884 0.045767706 0.048166987 -0.079598546
0002e0 29 1c 27 3d da a2 3c 3d e7 41 d1 3c 39 95 5d 3d
       0.04079834 0.046053745 0.02554412 0.054097388
0002f0 a8 9c 9f bd 41 b9 65 bd ad 1b 9c 3d c0 5e 33 bd
       -0.07793552 -0.056084875 0.07622466 -0.043791533
000300 f0 de a0 bd 42 ec cf 3b dc dc e3 3b 02 26 5f bd
       -0.07855022 0.006345303 0.0069538187 -0.054479606
000310 2c cb 09 3c 87 5c a6 bd 83 0c a3 3a 4c fc 47 bb
       0.008410256 -0.08123117 0.0012439642 -0.003051537
000320 f2 0b 58 3c 97 50 04 3d 8b ef a0 3d 48 08 e4 bc
       0.013186442 0.03230342 0.07858189 -0.02783598
000330 12 2e 2b bd 50 e9 b3 3d 0b 53 93 3c 60 ed 9d bd
       -0.041791983 0.08784735 0.017983934 -0.07711291
000340 a5 ad d1 3c 69 c7 a5 bd 59 94 9d 3d 91 3c 44 bd
       0.025595495 -0.08094675 0.07694311 -0.047909323
000350 4a 9b 83 bd 1d 17 6c 3d 67 f5 00 3a ca 7b e7 3b
       -0.064261034 0.05763923 0.00049193803 0.0070643174
000360 61 a1 49 ba b1 fb 88 bd 98 f6 a4 bd 35 cf b0 3c
       -0.0007691589 -0.06688631 -0.080548465 0.021583179
000370 09 4b a5 bd 6b 36 99 bb ea 52 cd bc e0 af b0 bc
       -0.080709524 -0.0046756766 -0.02506395 -0.021568239
000380 e3 e2 f1 3c 1b de af bc ff a2 d1 bc f5 57 0b bd
       0.029527133 -0.021468213 -0.025590418 -0.03401943
000390 60 3e e0 3b 83 0a 47 3d 3c 24 12 bd 68 a5 b0 3d
       0.006843373 0.04859401 -0.035679087 0.08625299
0003a0 ee 25 65 bc 8e c7 82 bd 71 5f 90 3d d6 69 a8 3d
       -0.013986094 -0.06385718 0.07049454 0.082233116
0003b0 86 01 df 3c 48 06 a4 bd d7 18 6f 3c 6d b0 83 3d
       0.027222406 -0.080090106 0.014593325 0.06430135
0003c0 2d e1 2d 3d b8 e1 7d bd 2f ed 1d bd 80 ca 19 bd
       0.042451072 -0.06198284 -0.038556274 -0.037546635
0003d0 d5 3f 36 bd 52 9e 88 3c dc 0e a2 bd 57 12 74 bc
       -0.04449447 0.016677056 -0.079129905 -0.014896951
0003e0 64 3c a6 bd a9 c4 f9 bc b8 31 a1 3d e4 eb 9c 3d
       -0.08116987 -0.030489283 0.07870811 0.0766218
0003f0 e0 db 55 3c 17 db 70 bd 37 83 92 3d 46 d5 6d 3d
       0.013052911 -0.05880269 0.071539335 0.05806472

bias f4 [128]
000000 af 89 ab bd db c4 1d 3d 40 14 80 3d fa a1 a2 3d
       -0.083758704 0.038517814 0.062538624 0.07941051
000010 f6 92 1b 3d 35 b2 36 bd 72 8c 97 3d 8f af 9c bd
       0.03798195 -0.044603545 0.07399835 -0.07650673
000020 f9 b9 af bd 88 0b 79 3c 5c a3 b6 bc b7 85 da bc
       -0.08580393 0.015200503 -0.022294693 -0.026675088
000030 9d 91 a1 bd bd 2e e7 bc 40 f4 1c 3d 53 a5 1f bd
       -0.07889102 -0.028220529 0.038318872 -0.038976025
000040 a2 21 8f bc b9 e8 ba bc 0d 72 80 bd a4 8d 42 bc
       -0.017472092 -0.022816049 -0.062717535 -0.01187459
000050 b9 a7 6f 3d 2d 1a 96 3d e7 fe 63 3d 17 d7 80 bd
       0.058509562 0.073292114 0.055663016 -0.06291025
000060 e4 b4 54 bd 40 1b 2c 3c bf 46 87 3d c0 81 51 bd
       -0.051930323 0.010504544 0.066052906 -0.05114913
000070 d2 41 21 3c 84 79 da bc 3a e3 86 bc 78 bb db 3c
       0.009842353 -0.026669271 -0.016465772 0.02682279
000080 cb 2d 96 3d 54 17 36 3d a1 f0 80 bb 13 d5 7c 3d
       0.07332953 0.04445584 -0.003934935 0.06172664
000090 d2 29 26 3c 2e d2 fa bc 16 73 04 bd a7 b8 c4 3c
       0.010141807 -0.0306178 -0.032336317 0.02401383
0000a0 aa 5f 34 bd 08 a2 a5 bc 0f 9f 0e bc 46 a3 95 3d
       -0.044036545 -0.020218864 -0.008704915 0.073065326
0000b0 6c cf 68 bd ad 1b 85 bc e7 ed 10 3d 6e 8a 30 bd
       -0.056838438 -0.016248548 0.03538313 -0.043100767
0000c0 0a 1f 32 3d ab d0 86 bd f9 12 9d 3d 5b d0 28 3d
       0.043486632 -0.06582769 0.07669634 0.04121433
0000d0 4a e1 8e bd 7d 8b 8c 3d 9c 15 8b bc 7f a2 75 3d
       -0.06976564 0.06862543 -0.016978078 0.05996942
0000e0 c8 6d 67 3c 4c b3 df 3c 89 36 6e bd 3b 9e b0 3d
       0.014125295 0.027307175 -0.058157478 0.0862393
0000f0 f9 dc d6 bc 97 66 71 bd 40 b9 af bb a7 ce 09 3d
       -0.026228415 -0.058935728 -0.0053626597 0.033644345
000100 57 07 6d 3d f6 bd 32 bd eb 6d af 3c ae a4 a4 3d
       0.057868328 -0.043638192 0.021414718 0.08039223
000110 67 78 83 bd a0 c9 a2 3c 29 6a 12 3d 4d 41 2c bb
       -0.06419449 0.019871533 0.035745773 -0.002628404
000120 c2 27 45 3d fd d3 91 3c ab e9 96 3d 62 0e f0 3b
       0.04813362 0.01780128 0.073687874 0.0073259333
000130 f8 ee 7a bc 91 fb 2a 3d 8f 12 57 bc c3 9b 9d bd
       -0.015315764 0.04174382 -0.013126983 -0.07695725
000140 27 0b 04 3d 91 af 8d bd 09 dd 03 bd e5 3c 64 3d
       0.0322372 -0.06918252 -0.032193217 0.055722136
000150 97 1b aa bc af 92 2a bd 3f 36 ad 3d e2 92 ef 3c
       -0.020765109 -0.041643795 0.08457612 0.029244844
000160 88 48 1e bd 22 dd 6a bd 5d a1 9c 3d 98 69 ed 3c
       -0.03864339 -0.057339795 0.07647965 0.028981015
000170 f2 a3 ad 3d 8b 7e 99 bd e5 95 42 bd f2 0f f6 bc
       0.08478536 -0.07494839 -0.04750623 -0.0300369
000180 8e 04 4e bd 61 26 98 bc e2 5c b2 3d c8 bb d2 3c
       -0.050297312 -0.018572988 0.08709122 0.025724307
000190 f4 46 a0 3c 0e da 93 bc b3 2f aa 3d 09 f5 0f 3c
       0.019565083 -0.018048313 0.08309879 0.008786448
0001a0 c3 52 9f bd 1b 10 94 ba 13 15 e0 3c 0f e4 be 3b
       -0.077794574 -0.0011296304 0.027353799 0.0058255265
0001b0 73 4e 91 3d cf 15 83 3c ef ac 06 bb 0c 53 7b bd
       0.07095041 0.01600161 -0.0020549854 -0.061358497
0001c0 c6 e0 67 3d 16 5e 18 bd 95 5d 24 3c 72 79 70 bd
       0.056610845 -0.037199102 0.010032077 -0.05870957
0001d0 be 8f f8 3b 20 87 c1 bc 3e 1a cc bc bf 3e 4e bd
       0.007585495 -0.023624003 -0.024914857 -0.050352808
0001e0 ea bf 8b 3c a8 8a 05 3d 82 f4 34 3c 86 77 70 3d
       0.017059285 0.032602936 0.011044623 0.058707736
0001f0 be 7b 03 bd eb 92 b2 bc de 4a 94 3d 57 91 60 3d
       -0.03210043 -0.021798572 0.07240842 0.054826107

weight f4 [2, 128]
000000 c7 b8 0d 3d b5 28 4d 3b 9e 1a 72 3d e5 f9 a3 bd
       0.034600046 0.003130478 0.059107415 -0.08006648
000010 ce 53 96 bd a8 7a 21 bc 0c 97 bb bc 1a 48 1c 3a
       -0.07340203 -0.009855904 -0.022899173 0.00059616717
000020 fa 55 7f 3d 70 7c 89 bc 66 19 16 3d f1 4f 25 bc
       0.062337853 -0.01678297 0.036645316 -0.01008986
000030 71 68 50 bb 7d 73 9e 3c ea d8 89 3c d8 b2 4c bc
       -0.0031800533 0.019342178 0.016827065 -0.012493812
000040 16 dc b9 bc db 79 17 3d 92 fb 21 bb 6a 61 dd bc
       -0.022687953 0.036981445 -0.0024716598 -0.02702399
000050 85 b6 98 38 68 ea 81 3d e9 99 56 bd 03 02 84 bd
       7.281922e-05 0.063435376 -0.052392874 -0.06445696
000060 94 f8 85 bc c2 a1 a9 3d 62 ff de bc 87 d3 ae bc
       -0.016353883 0.08282806 -0.027221385 -0.021341098
000070 03 42 1a bd 2d 45 96 bd 97 30 fd ba 07 fb 4b 3d
       -0.03766061 -0.07337413 -0.0019316849 0.049799945
000080 d6 e3 36 bd f2 30 35 bd 45 3c 48 3d 13 3f 84 bd
       -0.044650875 -0.04423613 0.048885603 -0.06457343
000090 a2 8a 16 bd ee 3f 19 bd 32 e4 8b bc 74 ed 07 bd
       -0.036753304 -0.037414484 -0.017076585 -0.033185437
0000a0 4e bb 24 bd a9 87 66 3d 57 d3 52 bb 22 4e 40 3d
       -0.04021769 0.05628172 -0.0032169425 0.046949513
0000b0 db a6 4a bd cf ec 36 bc 4d 82 77 bd 7f b9 2e 3c
       -0.049475532 -0.011164858 -0.060427 0.010664343
0000c0 78 f7 eb 3c 7b d2 0a bb 3f d4 c9 3c c7 ed 54 bd
       0.028804526 -0.0021182585 0.02463734 -0.051984575
0000d0 25 a1 a3 bd 85 49 6b bc ef 7f bb 3c c2 7d 56 bc
       -0.0798972 -0.01436079 0.022888152 -0.013091506
0000e0 da 21 42 3d c0 4a be 3c 94 64 7e bc d0 1c 03 3c
       0.047395565 0.023229003 -0.015526909 0.008002475
0000f0 fc 45 02 ba 42 3e 70 3d f7 fa 9a bc e5 64 39 3d
       -0.0004969535 0.058653124 -0.018918497 0.045262236
000100 be f8 53 bc f7 4d 8e 3b 98 c0 10 bd 7b d7 aa bc
       -0.012937723 0.00434279 -0.03533992 -0.020854702
000110 33 13 b1 ba b7 e6 ec bc 29 a9 3c 3d 81 92 8f bc
       -0.001350975 -0.028918607 0.04605976 -0.017525913
000120 7e 7f a7 3d 92 c4 8c bc 10 5e cf bc 26 47 6a 3d
       0.08178614 -0.017183576 -0.025313407 0.05719676
000130 10 e8 74 3c 32 78 33 bd d4 43 76 3c 3d c6 5e 3c
       0.014947906 -0.0438158 0.01503082 0.013597068
000140 49 89 4b ba 71 63 b4 bd d2 df 59 bd b6 b1 47 bd
       -0.00077642925 -0.088080294 -0.053191967 -0.048753463
000150 57 86 69 bb d8 bb be 3a 00 c0 22 bd 8b 4c 48 bd
       -0.0035633051 0.0014551831 -0.039733887 -0.048901122
000160 28 be 1c bd 99 d5 23 bd 52 c6 8e bd 86 e6 b8 3c
       -0.038267285 -0.039998624 -0.0697142 0.02257086
000170 7a fa 97 3d ed bf e5 3c b9 3f a1 3d f1 03 2b 3d
       0.074208215 0.028045619 0.07873482 0.041751806
000180 5d f7 b2 bd b8 a9 ad bd 64 a1 47 bc 36 f7 6e bd
       -0.08738587 -0.08479637 -0.012184475 -0.058341227
000190 b0 4e 8f bd dd e1 0d 3d 4c 25 9c 3d 62 b0 45 3c
       -0.0699743 0.034639228 0.07624301 0.012065979
0001a0 5f 75 ad bd 55 1e 0e 3d dc d1 02 3d 99 d2 80 bd
       -0.084696524 0.034696896 0.03193842 -0.06290168
0001b0 c2 a8 2c 3c a2 82 8e bd a5 72 da 3c 46 30 c3 3c
       0.010538282 -0.0695851 0.026665995 0.02382673
0001c0 b3 95 11 3c ec 84 c0 bc d3 66 80 bd 8e f8 b8 3b
       0.008885789 -0.023500882 -0.06269612 0.0056448644
0001d0 51 d1 98 bd 48 fb 69 bd e0 f5 5d 3d 57 f4 26 bd
       -0.07461799 -0.057124406 0.054189563 -0.040760364
0001e0 f5 34 a3 bd 39 7f 5f bd 77 00 22 3d 8a b9 70 3d
       -0.07969085 -0.05456469 0.039551225 0.058770694
0001f0 e7 59 89 3c 85 f7 f2 bc a5 26 2f bd 8e 89 8f 3c
       0.016766502 -0.029659042 -0.042761464 0.017521646
000200 ab 5c a1 3c 69 88 21 3d 29 ca 58 3c 02 ea b3 bd
       0.019697508 0.03943673 0.0132317925 -0.08784868
000210 05 e6 61 3b 38 52 68 bd a9 65 94 bd 07 62 04 bd
       0.0034469378 -0.056719035 -0.07245953 -0.03232005
000220 cc fe 68 bc eb 12 58 bd ca 80 93 3d 6b 84 d0 3c
       -0.014220905 -0.052752417 0.07202299 0.025453767
000230 67 05 9e 3c d9 66 25 3d 95 03 f8 bc 25 79 d9 bc
       0.019289685 0.040381286 -0.030275146 -0.026547024
000240 a1 37 0d 3c 43 a0 1f bd 31 ad 10 3b aa ba ac 3d
       0.00861922 -0.038971197 0.0022075886 0.08434041
000250 1e 61 3f 3d 06 65 a8 3d dc f4 d6 bc 73 85 c9 3a
       0.046723478 0.08222394 -0.026239805 0.0015374854
000260 6c 0c 0a 3d 92 62 66 bd 60 a1 f4 3c d1 3b 07 bd
       0.033703253 -0.056246348 0.029862106 -0.03301603
000270 d5 90 01 3c d5 d6 34 3d 20 74 af bd 45 bf 57 3c
       0.007908066 0.044150192 -0.08567071 0.013168161
000280 59 9a 4e bc b6 f0 40 bd 5f 85 ed 3c e1 43 ad 3c
       -0.012610042 -0.04710456 0.02899426 0.021150531
000290 21 99 ec bc b1 16 31 3c 2b f1 a6 bd 30 85 bc 3b
       -0.028881611 0.010808633 -0.08151468 0.005753182
0002a0 9c db 99 3d 2d a9 a9 bd 0d 09 54 bd 32 e3 9d bd
       0.0751259 -0.08284221 -0.051766444 -0.0770935
0002b0 5b 99 5f 3d 93 f0 9a bd 00 43 f4 bc 46 a9 55 3c
       0.05458961 -0.07565417 -0.029817104 0.013040846
0002c0 66 6a e3 bb 64 33 a2 3d dc 16 fa 3c cd 4d 64 3d
       -0.006940174 0.07919958 0.030528478 0.05573826
0002d0 6e 79 82 3d 29 38 94 3d 50 90 98 bd 06 a9 b4 bb
       0.06370817 0.07237274 -0.074494004 -0.005513313
0002e0 14 93 b5 bc 12 2a 79 bc f5 15 80 b9 04 f2 33 3d
       -0.022164859 -0.015207784 -0.00024430422 0.043931976
0002f0 10 da 33 3c 54 fc 8e 3d b1 5a 62 3a 6d e4 2f 3c
       0.010977283 0.069817215 0.000863473 0.010735613
000300 24 e3 25 bd d3 1f 21 3d 38 20 20 3d 77 71 95 3d
       -0.04049982 0.03933699 0.039093226 0.07297032
000310 37 cf 74 bd 40 f5 f9 3c c6 25 c4 3c a2 d8 08 bd
       -0.059767928 0.030512452 0.023943793 -0.033409722
000320 e5 ea 00 3d 39 03 94 bd 82 18 a8 3d a5 68 b0 bd
       0.031474013 -0.07227177 0.082077995 -0.08613709
000330 3d 02 49 bd 5b 06 30 bd c3 5a 70 3d 1e 2c 95 3d
       -0.0490744 -0.04297481 0.058680307 0.07283805
000340 32 a9 db 3c 0f 03 c8 bc 9b 29 88 bd 32 0f b2 3d
       0.026814077 -0.024415521 -0.066485606 0.086943045
000350 bf bb 1e 3d 91 fc 1a bd 54 35 94 3d e9 65 22 bd
       0.038753267 -0.037838522 0.07236734 -0.03964797
000360 e5 3f 8e 3d c9 e4 54 bc 4e 4f 85 3d 31 85 80 3c
       0.06945781 -0.012994 0.06509267 0.01568851
000370 51 9b 82 3d 99 35 37 3c e9 d4 ae bd a4 0c 37 3d
       0.063772805 0.011182212 -0.08536703 0.04468979
000380 a1 13 a3 3d f3 8e b0 bd 35 d7 bd 3c a6 7e 0d bc
       0.07962728 -0.086210154 0.023173908 -0.008636152
000390 72 c2 83 3d be f4 a3 3d 16 e3 9c 3d cd 3a 8c 3d
       0.06433572 0.08005665 0.07660501 0.06847153
0003a0 c9 1a 34 bd 09 7a ac bd ed 33 a0 bd 86 a0 44 bd
       -0.043970857 -0.08421714 -0.07822404 -0.04800465
0003b0 9f 04 98 3d b0 bb 5a bd a9 39 8d bc a6 7c 8d bd
       0.074227564 -0.05340165 -0.017239409 -0.069085404
0003c0 1c 0b 29 bd 1f fa 9b bc b6 4a 24 3b 3b b2 ba 3c
       -0.04127036 -0.019040165 0.0025068945 0.022790065
0003d0 8d 09 da 3c ca 51 09 bd ac 71 6f 3a 76 23 38 bd
       0.026615882 -0.033525266 0.0009134065 -0.044955693
0003e0 44 3d 92 3d 81 3c 41 bd 36 4e 99 3d e0 cd b1 bd
       0.07140592 -0.04717684 0.07485621 -0.08681846
0003f0 1c 00 0b bd 82 00 93 bd fc e3 f2 bc af fb 18 3d
       -0.03393565 -0.07177831 -0.029649727 0.0373494

bias f4 [2]
000000 5b 42 8b 3c 44 3f 5f 3d
       0.016999414 0.054503694
