data/test-ppo/test-ppo_s0/pyt_save/model.pt (torch, 71574 bytes, 12 tensors)

log_std f4 [2]
0	0xbf070945	-0.5274852
1	0xbf00c29a	-0.5029694

weight f4 [64, 60]
0	0x3c9ff83a	0.019527543
1	0x3c01f0a2	0.0079309065
2	0xbe110d60	-0.14165258
3	0xbd275007	-0.040847804
4	0xbd36fbe1	-0.044673804
5	0x3d09bf7f	0.03362989
6	0x3de384bd	0.11109302
7	0x3e424915	0.18973191
8	0xbd6edf75	-0.058318574
9	0x3db9c35a	0.090704635
10	0x3c3bc1fc	0.011459824
11	0x3dc53e20	0.0963099
12	0x3c45b6f1	0.012067542
13	0x3d7a7ad8	0.06115231
14	0x3bc68f51	0.006059565
15	0x3d069a26	0.03286185
16	0x3e174b5c	0.14774841
17	0x3dfe2a44	0.12410405
18	0xbd68f9b5	-0.056878764
19	0xbd6644db	-0.05621801
20	0x3d4010e9	0.046891127
21	0x3e191d06	0.14952478
22	0xbdcf51f7	-0.101230554
23	0x3de3961b	0.11112615
24	0xbd5f29a1	-0.05448306
25	0xbc833710	-0.016017467
26	0x3d9e5d01	0.07732583
27	0xbd873937	-0.0660271
28	0xbc5645dd	-0.01307818
29	0xbd34cce6	-0.04414072
30	0xbdb664af	-0.089059226
31	0x3d9a79ab	0.075427376
32	0xbdaec3e5	-0.08533458
33	0xbbb81533	-0.0056177615
34	0xbd8438ee	-0.06456171
35	0xbdb3ce22	-0.08779551
36	0xbcf5e2c6	-0.03001536
37	0x3de76ed0	0.11300433
38	0x3d918790	0.071059346
39	0x3d8a9aca	0.06767805
40	0x3bde7acd	0.0067895413
41	0x3d567ce1	0.052365188
42	0x3e128ed5	0.14312299
43	0x3bd1aca8	0.006398756
44	0xbb2c6737	-0.0026306638
45	0x3c665668	0.014058687
46	0x3e2dea69	0.16983952
47	0x3e10507a	0.140932
48	0x3d38cd8c	0.0451179
49	0xbb801f9e	-0.003910019
50	0x3e1da109	0.15393461
51	0x3e4cb355	0.19990285
52	0x3dfcbf4f	0.12341177
53	0x3db596d4	0.08866659
54	0x3e743fd0	0.23852468
55	0xbdc164d4	-0.094430596
56	0x3e09aacb	0.13444059
57	0xbdbd4297	-0.09241217
58	0xbda33556	-0.079691574
59	0xbd88951c	-0.06669065
60	0x3d3a6eac	0.0455157
61	0x3d2d1074	0.04225202
62	0xbd587992	-0.052850313
63	0x3d65cdb3	0.056104373
64	0x3c9e49e7	0.019322349
65	0xbda1270a	-0.07868774
66	0xbe2e1223	-0.16999106
67	0xbdda6afd	-0.10664938
68	0x3d8a1a1f	0.067432635
69	0x3db6d952	0.08928169
70	0xbd5064ab	-0.050877254
71	0xbda4747c	-0.0803003
72	0x3db91e95	0.09039036
73	0x3dd750d0	0.10513461
74	0x3d835141	0.06411982
75	0x3e5cee17	0.21575199
76	0x3cf2982e	0.02961358
77	0xbdbbfb15	-0.091787495
78	0x3cd0c676	0.025485259
79	0xbda56847	-0.0807653
80	0xbdf66796	-0.12031476
81	0x3c95e056	0.018295448
82	0x3e08e155	0.13367207
83	0xbde834a9	-0.11338169
84	0x3d48ffe3	0.049072158
85	0x3b381987	0.0028091387
86	0x3a6591fe	0.0008757411
87	0xbdd1b3f9	-0.10239405
88	0xbb2948ac	-0.002583067
89	0xbd946f4a	-0.07247789
90	0x3d93d068	0.07217485
91	0x3dbb61b7	0.09149497
92	0x3db62286	0.088933036
93	0x3d99dd44	0.07512906
94	0xbda31b96	-0.07964246
95	0xbdadd9ec	-0.08488831
96	0x3d8fe4a8	0.070260346
97	0x3c23847c	0.009980317
98	0xbe0407c2	-0.12893584
99	0xbdba7de0	-0.0910604
100	0x3df8bae3	0.12145021
101	0x3b29a076	0.0025882996
102	0xbe0c7b4e	-0.13718912
103	0xbd554cd3	-0.05207522
104	0xbe59940c	-0.21247882
105	0xbde191d2	-0.11014141
106	0xbe6a2757	-0.2286657
107	0xbe0b5a21	-0.136086
108	0xbd9e14cf	-0.07718813
109	0x3d087545	0.033314962
110	0xbce3e3bb	-0.027818551
111	0x3db7b40d	0.08969889
112	0xbcc1168d	-0.023570323
113	0x3e08f307	0.13373958
114	0x3bc87abe	0.0061181476
115	0xbcd28ece	-0.02570286
116	0xbd91f6be	-0.071271405
117	0xbcca2d24	-0.024679728
118	0x3c8e8aba	0.017400134
119	0x3cfad4d6	0.030619066
120	0x3d46a84b	0.04850034
121	0xbd22816f	-0.03967422
122	0xbd11b165	-0.035569567
123	0x3e1bccaa	0.15214792
124	0xbde05d4e	-0.109552965
125	0xbd9a356b	-0.0752972
126	0x3e40c87f	0.18826483
127	0x3e108831	0.14114453
128	0x3d238411	0.03992087
129	0xbd535079	-0.051590417
130	0xbddf3c81	-0.10900212
131	0x3cdef849	0.027218001
132	0xbd638809	-0.055549655
133	0x3c83eb9b	0.016103556
134	0x3e5247b9	0.20535173
135	0xbacf3ba5	-0.0015810622
136	0x3deb782a	0.11497529
137	0x3d1c4b69	0.038157854
138	0x3dee5867	0.11637955
139	0x3da81cfa	0.08208652
140	0x3dfa72a2	0.12228896
141	0x3dad43ef	0.08460223
142	0x3e112943	0.14175896
143	0xbc433eb0	-0.011916801
144	0xbde3532e	-0.1109985
145	0xbcd3b05d	-0.025840933
146	0x3deb2563	0.1148174
147	0x3d6d020f	0.05786329
148	0xbd27ed61	-0.040997867
149	0xbd87f635	-0.06638757
150	0xbdf389c1	-0.11891509
151	0xbda994e3	-0.08280351
152	0x3c249855	0.010046084
153	0x3e0b3a70	0.13596511
154	0x3e0f344e	0.13984796
155	0xbd9c59ce	-0.076343164
156	0x3dffdbcf	0.12493097
157	0xbdbab33e	-0.09116219
158	0xbd56cb2d	-0.052439857
159	0xbd163538	-0.036671847
160	0xbccbb4e2	-0.024866525
161	0x3dfe2d0b	0.12410935
162	0x3d5fe55c	0.054662094
163	0xbcdc88e0	-0.026920736
164	0x3ce902b5	0.028443674
165	0x3d1d4af8	0.038401574
166	0x3cc8b9bd	0.02450263
167	0x3d86283b	0.06550642
168	0xbd94d2dd	-0.072667815
169	0x3d0fba34	0.035089687
170	0x3e289ecb	0.16466825
171	0x3c91f264	0.017815776
172	0x3e1a2205	0.1505204
173	0x3dc2b4df	0.09507155
174	0xbd8ff390	-0.07028878
175	0x3dc48e1d	0.095974185
176	0x3dd0fa82	0.102040306
177	0xbdb6f737	-0.08933871
178	0x3e0145f9	0.12624349
179	0xbdd5a829	-0.10432465
180	0x3c98fc69	0.018675046
181	0x3d3a884e	0.045540147
182	0x3dbc83cd	0.092048265
183	0x3c02204f	0.007942273
184	0x3d93a329	0.07208855
185	0x3d24b580	0.040212154
186	0xbe6e0da1	-0.23247387
187	0xbe58eb3b	-0.21183483
188	0xbe87acc8	-0.2649901
189	0x3d2e35b0	0.04253167
190	0x3e551e01	0.20812227
191	0x3df7cb3f	0.12099313
192	0xbdd8e74b	-0.10590991
193	0xbc6c0daa	-0.014407555
194	0xbe827501	-0.25479892
195	0xbe199dac	-0.15001553
196	0xbe4d6f8b	-0.20062082
197	0x3c30e195	0.01079597
198	0xbdc94b0a	-0.09828766
199	0xbb389687	-0.0028165893
200	0x3bb1f64a	0.0054309713
201	0x3dac753a	0.08420797
202	0xbe4c1f8d	-0.1993391
203	0xbdac4f9d	-0.084136225
204	0xbd8f5752	-0.06999077
205	0x3d97a1e1	0.07403923
206	0xbd5c5c48	-0.053798944
207	0x3d4a46d3	0.04938395
208	0x3d268e82	0.04066325
209	0x3cb3f031	0.021965118
210	0x38afba8b	8.3793966e-05
211	0xbcb83488	-0.022485986
212	0xbca1261f	-0.019671498
213	0xbd8bf0a6	-0.068330094
214	0xbd23ab56	-0.03995832
215	0xbcb374d9	-0.021906303
216	0xbe05d0c0	-0.13067913
217	0xbd76bc1d	-0.060237993
218	0x3da3bd97	0.07995146
219	0xbd9eba78	-0.0775041
220	0xbc17e1c8	-0.009270139
221	0x3be82553	0.0070845275
222	0xbd924b99	-0.07143325
223	0xbde36973	-0.11104097
224	0xbe272abb	-0.16324894
225	0x3a9fe711	0.00121996
226	0xbe1ae080	-0.15124702
227	0xbd18b290	-0.037279665
228	0xbd8e67c1	-0.06953383
229	0xbd254167	-0.040345576
230	0xbd676a97	-0.056498136
231	0x3cd66cba	0.026174892
232	0xbc77fa47	-0.015135354
233	0x3d5b8a72	0.05359883
234	0x3c39129b	0.01129594
235	0xbe45f032	-0.19329908
236	0xbd5f7157	-0.05455145
237	0xbdfd48de	-0.12367414
238	0xbcba3cb3	-0.022734022
239	0x3d1b878f	0.037971076
240	0x3d67a701	0.05655575
241	0x3df2990f	0.118456
242	0xbd05ea6e	-0.032694273
243	0xbc0e8d68	-0.008700706
244	0x3de8c22d	0.11365161
245	0xbda521ac	-0.08063063
246	0xbdaaeca6	-0.08345918
247	0xbe89b8f9	-0.26898935
248	0xbdae5235	-0.085117735
249	0xbd24378d	-0.04009204
250	0x3d001aff	0.031275745
251	0x3da97b09	0.0827542
252	0x3de30b36	0.11086123
253	0x3bcd8bca	0.0062727677
254	0xbe43dbbc	-0.19126791
255	0xbda15179	-0.07876868

bias f4 [64]
0	0xbd10fd56	-0.03539785
1	0x3cc182f5	0.023622015
2	0x3ce0a3b4	0.02742181
3	0xb9161d3a	-0.00014316002
4	0x3c113e25	0.008864914
5	0x3c678c40	0.014132559
6	0x3cf5ef35	0.03002129
7	0xbc2ddc4f	-0.010611608
8	0x3c73c73c	0.014879044
9	0x3b367c7f	0.0027845202
10	0x3c8ecbb9	0.017431127
11	0x3bdf6573	0.0068175136
12	0x3c939a17	0.018017812
13	0x3d0f823d	0.035036314
14	0x3aacf920	0.0013196804
15	0xbcebff72	-0.02880833
16	0xbce0e315	-0.027452031
17	0x3c0ac40d	0.008469594
18	0xbc83c225	-0.016083786
19	0xbcd11615	-0.025523225
20	0xbd4ddfcf	-0.05026227
21	0xbbd9f859	-0.00665192
22	0xbd2f932d	-0.042864967
23	0x3b85c773	0.004082614
24	0xbc772c8e	-0.015086306
25	0xbd08005d	-0.03320347
26	0xbcd8b3e5	-0.026452968
27	0x3c9485ad	0.018130148
28	0x3be9aa2b	0.0071308813
29	0x3c10fb72	0.008849012
30	0x3ce5d753	0.028056776
31	0xbcd88d89	-0.026434677
32	0xbc17e550	-0.009270981
33	0xbd4413bd	-0.047870386
34	0xbc97fe20	-0.018553793
35	0xbcf6c63c	-0.030123822
36	0x3ce908dc	0.028446607
37	0x3a8d5174	0.0010781721
38	0x3ceca36a	0.028886516
39	0x3ab0bbb6	0.0013483677
40	0xbc4d38e0	-0.012525767
41	0x3aa9f6b3	0.0012967199
42	0x3d84d0ce	0.06485139
43	0xb941818f	-0.00018454179
44	0xbd1d8dca	-0.0384653
45	0xbd11ee4b	-0.035627645
46	0xbd1dc617	-0.03851899
47	0x3d27f3eb	0.041004103
48	0xbce2c302	-0.027680878
49	0x3caf44d0	0.021395117
50	0x3bf6e3a4	0.007534461
51	0xbd1c6b2e	-0.038188152
52	0x3bc55ea3	0.0060232445
53	0x3bb750e7	0.005594361
54	0xbc679dc0	-0.014136732
55	0xbcc977d7	-0.024593277
56	0x3cca975f	0.024730382
57	0xbcfae8c5	-0.030628571
58	0x3ceb328b	0.028710624
59	0x3d3d4aeb	0.046214025
60	0x3c9ddbb4	0.019269802
61	0x3d5aabec	0.053386614
62	0xbc9b5e83	-0.018965965
63	0x3ac04f4a	0.0014672067

weight f4 [64, 64]
0	0xbcf3afe1	-0.029746952
1	0x3bcce771	0.006253176
2	0x3e13250b	0.143696
3	0xbdb26e97	-0.087124996
4	0xbdc63719	-0.09678478
5	0x3d303e7a	0.043028332
6	0x3d7c120e	0.061540656
7	0x3dcfb019	0.1014101
8	0x3dd155c2	0.10221435
9	0xbd7aee36	-0.061262332
10	0x3d5c5633	0.053793143
11	0x3da0e455	0.07856051
12	0xbc6b8d31	-0.014376924
13	0xbe175ab0	-0.14780688
14	0xbe261877	-0.1622027
15	0x3b86d2b2	0.0041144723
16	0xbe233784	-0.15939146
17	0x3c4a21ad	0.0123371305
18	0x3e165de0	0.14684248
19	0xbd9ac957	-0.07557934
20	0x3d6b1e02	0.057401665
21	0xbd720824	-0.059089795
22	0xbc451c42	-0.012030663
23	0x3d974b06	0.073873565
24	0x3d75aed6	0.05998119
25	0x3e093cf0	0.13402152
26	0x3e1271a5	0.14301164
27	0xbd1def3a	-0.038558222
28	0x3d03e0b5	0.03219672
29	0xbccf2f72	-0.025291178
30	0x3d03d3b9	0.032184336
31	0xbe172173	-0.14758854
32	0x3de29073	0.11062708
33	0x3e360ad5	0.1777757
34	0xbe17a3c4	-0.14808565
35	0xbdd6d6ed	-0.104902126
36	0xbe1b4899	-0.15164413
37	0x3dadf534	0.084940344
38	0xbcf7d2dc	-0.030251913
39	0x3cc919f3	0.024548506
40	0x3dff17da	0.12455721
41	0xbd8d6fc7	-0.069060855
42	0xbdec51e2	-0.115390554
43	0xbd049544	-0.032368913
44	0xbc36602b	-0.011131327
45	0xbbc90dc7	-0.0061356756
46	0x3e0546ce	0.13015291
47	0xbc299564	-0.010350559
48	0xbe0a4849	-0.13504137
49	0x3d489929	0.04897419
50	0x3defae1f	0.11703133
51	0xbd0c3731	-0.034232322
52	0x3df803ff	0.12110137
53	0x3d214d96	0.039380632
54	0xbd0d6207	-0.034517314
55	0xbdb41b8e	-0.08794318
56	0xbc9c15f0	-0.01905343
57	0x3e048987	0.12943088
58	0x3d6d9d45	0.058011312
59	0xbc453b50	-0.012038067
60	0xbbe04330	-0.006843947
61	0x3d6f10f6	0.058365785
62	0xbd75e0b7	-0.060028758
63	0xbe07b455	-0.13252385
64	0xbd7c9869	-0.061668787
65	0x3d89a708	0.06721312
66	0xbd140afd	-0.03614329
67	0x3c036023	0.008018526
68	0xbca96d57	-0.02068202
69	0xbdcb69d4	-0.099322945
70	0x3d15a9b6	0.036538802
71	0xbe102015	-0.14074738
72	0x3cfa51ac	0.030556522
73	0xbd177691	-0.036978308
74	0xbd403b47	-0.04693153
75	0xbda7dab4	-0.08196011
76	0xbdc8d2b0	-0.098058105
77	0x3e30e441	0.17274572
78	0xbd31a91a	-0.04337416
79	0x3e162b57	0.1466497
80	0xbd273c29	-0.040828858
81	0xbd6739cb	-0.0564516
82	0xbe39ebbf	-0.18156336
83	0xbe0b53bc	-0.13606161
84	0xbd37eb2f	-0.044902023
85	0xbc59bc53	-0.013289529
86	0x3d35569a	0.044272043
87	0xbe1c495e	-0.15262362
88	0xbd1fe22a	-0.039034046
89	0x3c336d2d	0.0109513225
90	0x3d6b1c7b	0.057400208
91	0x3d613ec8	0.054991513
92	0x3e0c03c3	0.1367331
93	0x3ce413a9	0.027841406
94	0xbd40bb93	-0.047053885
95	0x3e395bb6	0.18101391
96	0xbc69e126	-0.014274871
97	0xbdfc8e3b	-0.12331816
98	0x3e0bc167	0.13647996
99	0xbde33dc8	-0.11095768
100	0x3e0e583f	0.1390085
101	0x3c0650a7	0.00819794
102	0xbdee98a5	-0.116502084
103	0xbe33b19b	-0.1754822
104	0x3da43c6e	0.080193385
105	0x3e288487	0.16456805
106	0x3d7b8a70	0.06141132
107	0x3c312f48	0.010814495
108	0x3c31ef3b	0.01086026
109	0x3ca8fa90	0.02062729
110	0xbdb17d53	-0.08666482
111	0x3e1c74f6	0.15278992
112	0x3e169ea9	0.14708962
113	0x3dd23431	0.10263861
114	0x3ca99c4e	0.020704415
115	0xbe34f387	-0.17671023
116	0xbe05259c	-0.13002628
117	0x3cc5172b	0.024058899
118	0xbd08ba79	-0.03338096
119	0xbd4f3e66	-0.050596617
120	0xbd288aaf	-0.041147884
121	0xbd1e3b93	-0.038631033
122	0xbe1a3567	-0.15059434
123	0x3ddfbd57	0.109247856
124	0xbd8aea92	-0.06783022
125	0xbd11a499	-0.035557363
126	0x3da7deb4	0.08196774
127	0xb944e65c	-0.00018777832
128	0xbd911cfd	-0.07085607
129	0xbe0ce85b	-0.13760512
130	0x3dfc6ec5	0.12325815
131	0xbda8cb00	-0.08241844
132	0xbcf10e79	-0.029425846
133	0x3e005e0e	0.12535879
134	0x3d551055	0.05201753
135	0xbd093dd6	-0.033506237
136	0xbdb9edd4	-0.09078565
137	0x3cb122b1	0.021622987
138	0xbce069e3	-0.02739424
139	0x3be8a965	0.0071002715
140	0x3da38a46	0.07985358
141	0xbd8c8b18	-0.068624675
142	0x3d190941	0.03736234
143	0xbd9fe2f2	-0.07806958
144	0xbd801114	-0.062532574
145	0xbd14e50c	-0.03635125
146	0x3daa317d	0.083102204
147	0xbda752af	-0.081700675
148	0xbd0a8a5c	-0.033823356
149	0xbc44ec4e	-0.01201923
150	0x3d17e762	0.0370859
151	0xbc6e9305	-0.014561419
152	0xbc1b5894	-0.009481568
153	0x3ce1dc53	0.02757088
154	0xbd99ef9c	-0.07516405
155	0x3de4c071	0.11169518
156	0xbd943db0	-0.072383285
157	0x3bda950b	0.0066705993
158	0x3d9a1024	0.0752261
159	0x3c7413f7	0.014897338
160	0x3d1cf8bb	0.038323145
161	0x3e10510f	0.14093421
162	0xbdcd7c1b	-0.10033437
163	0xbe0972cb	-0.13422696
164	0xbd6cf9ba	-0.057855345
165	0xbd235c18	-0.03988275
166	0xbd4bd1ba	-0.049760558
167	0x3da5d6ea	0.08097632
168	0x3de1b8c5	0.1102157
169	0xbd85c8d2	-0.06532444
170	0xbcc9448f	-0.024568824
171	0xbe009770	-0.12557769
172	0x3dada299	0.08478279
173	0x3d5f25bf	0.054479357
174	0x3cbb751f	0.022882996
175	0x3d944245	0.072392024
176	0xbe1b6b32	-0.1517761
177	0xbd097d57	-0.0335668
178	0xbd177893	-0.036980223
179	0x3e0118a4	0.12607056
180	0x3e04ef0b	0.12981813
181	0x3dc63ee6	0.09679966
182	0x3e283717	0.16427265
183	0x3d96b43a	0.07358594
184	0xbd30a829	-0.04312912
185	0xbcd05dda	-0.025435377
186	0x3d4a7b17	0.049433794
187	0xbe1cfed8	-0.1533159
188	0x3de014ab	0.10941442
189	0x3d3780dd	0.044800628
190	0xbd669e3e	-0.056303255
191	0xbe110667	-0.14162599
192	0x3df5ce6c	0.120022625
193	0x3b0b00c8	0.0021210182
194	0xbd281692	-0.04103715
195	0x3d1abbc9	0.037776742
196	0x3d1c08cc	0.038094327
197	0xbcd4954d	-0.025950098
198	0x3d56d2da	0.052447177
199	0xbe0c93ad	-0.13728209
200	0x3e230ec7	0.15923606
201	0x3db10c88	0.08644968
202	0x3dc33a28	0.09532577
203	0x3cca793b	0.02471601
204	0xbdf2b06c	-0.11850056
205	0xbdbdb8d0	-0.09263766
206	0xbd8477e9	-0.064681835
207	0xbdd0315b	-0.10165664
208	0xbe159b0b	-0.14609925
209	0x3e09f4e2	0.13472322
210	0x3d7d2883	0.061806213
211	0x3dda0c80	0.106469154
212	0xbdb33407	-0.08750158
213	0x3d7f4313	0.062319826
214	0x3d22b894	0.03972681
215	0xbda2e955	-0.07954661
216	0x3dadc8be	0.08485554
217	0x3db10eda	0.08645411
218	0xbd4375ec	-0.04771988
219	0x3dff91fc	0.12479016
220	0xbbac9ebb	-0.0052679456
221	0x3d752afb	0.059855442
222	0xbd84ffa6	-0.064940736
223	0xbcce6eba	-0.025199283
224	0xbd3c7669	-0.046011362
225	0xbd969bfb	-0.0735397
226	0xbdb82944	-0.08992246
227	0x3d22ceed	0.03974812
228	0xbcd7cf50	-0.026343971
229	0xbe0820e9	-0.13293804
230	0x3d1ab84c	0.037773415
231	0x3d66d31c	0.056353673
232	0xbda452ba	-0.08023591
233	0xbc16c26d	-0.009201628
234	0x3d2fe5b9	0.04294369
235	0x3bd26d08	0.006421689
236	0x3ddb8e5a	0.10720511
237	0x3d537d0b	0.051632922
238	0x3d739ef1	0.05947775
239	0xbe06bce5	-0.13157995
240	0xbd409f7c	-0.047027096
241	0x3d5a29ee	0.053262644
242	0xbde3c0d7	-0.11120766
243	0x3dba87c7	0.09107929
244	0x3e210d72	0.15727785
245	0xbdbd402f	-0.09240758
246	0xbdde23de	-0.10846685
247	0x3e088750	0.13332868
248	0x3d09251a	0.03348265
249	0x3da3a80f	0.07991039
250	0xbd146695	-0.036230642
251	0x3cb1e81a	0.02171712
252	0xbc889461	-0.016672315
253	0x3c55c0b5	0.013046433
254	0x3d80920b	0.062778555
255	0x3d0d6735	0.034522254

bias f4 [64]
0	0xbc94cd09	-0.018164175
1	0x3d0bf20d	0.034166384
2	0xbbcf6df2	-0.006330245
3	0xbcf85bb9	-0.030317174
4	0x3c18efaf	0.009334489
5	0x3cc05074	0.023475863
6	0xbc2e1147	-0.010624236
7	0x3d02fd56	0.03197988
8	0xbd16f85d	-0.03685795
9	0x3ca6e5b7	0.020373208
10	0xbc8703f2	-0.016481373
11	0x3cf2a340	0.02961886
12	0xbc903636	-0.017603975
13	0xbc87bf92	-0.01657084
14	0x3b53e367	0.0032331587
15	0xbbce53ab	-0.006296595
16	0xbb02ed45	-0.001997785
17	0x3c8ce962	0.01720113
18	0x3cfad52b	0.030619225
19	0x3cacf6ae	0.02111372
20	0xbcb68a76	-0.02228282
21	0x3cce180c	0.02515795
22	0x3cdb6afc	0.026784413
23	0x3ce93e5d	0.02847212
24	0x3ce71ad4	0.028211035
25	0x3c3c8ff4	0.0115089305
26	0x3cc99dfa	0.024611462
27	0xbceec4a7	-0.029146506
28	0xbd12e0e5	-0.035859007
29	0xbb6c372e	-0.0036043632
30	0x3c2df8d6	0.010618409
31	0xbcca157b	-0.024668446
32	0xbcb73de6	-0.022368383
33	0x3c5c612a	0.0134509
34	0xbb3185d1	-0.0027087817
35	0xbb6c1dc2	-0.003602848
36	0x3bb03491	0.00537736
37	0x3c9949a1	0.018711867
38	0x3d25a1c0	0.04043746
39	0x3c984eb7	0.018592222
40	0x3cf234ce	0.029566195
41	0xbc8472c8	-0.016168013
42	0x3c9f6d9e	0.01946145
43	0xb9c8f00e	-0.00038325827
44	0x3c9c885e	0.019107994
45	0xbc620df2	-0.01379727
46	0xbc908d7a	-0.017645586
47	0xbc662d36	-0.014048865
48	0xbbc71c9c	-0.0060764086
49	0x3d014046	0.031555437
50	0x3c8db4a2	0.017298046
51	0xbd04b5c1	-0.032399897
52	0xbd0f1fb3	-0.03494234
53	0xbd0562c8	-0.03256491
54	0xba564064	-0.0008173047
55	0x3d1cb376	0.038257085
56	0x3aefb460	0.0018288009
57	0x3bc98616	0.0061500175
58	0x3b32d0d9	0.0027285127
59	0xba40a8ea	-0.0007349389
60	0x3c094bbc	0.008379873
61	0x3d082c31	0.03324527
62	0x3b91f26f	0.004453949
63	0xbc12428c	-0.008926999

weight f4 [2, 64]
0	0x3de982e1	0.11401916
1	0xbdbce5d8	-0.09223527
2	0x3e08646b	0.13319556
3	0xbce758d6	-0.028240602
4	0xbe25a96b	-0.16177909
5	0x3e042e71	0.12908341
6	0xbe06bca9	-0.13157906
7	0xbe3b413a	-0.182866
8	0xbd80da8a	-0.06291683
9	0x3e2b7528	0.1674391
10	0xbe007344	-0.1254397
11	0x3d4c22a9	0.049837742
12	0xbe1b2653	-0.15151338
13	0x3da72521	0.08161379
14	0x3df28013	0.118408345
15	0xbd9c028d	-0.07617674
16	0xbe236fad	-0.1596057
17	0xbe18b1e3	-0.14911608
18	0xbdfe6fe8	-0.12423688
19	0xbdd826b9	-0.10554261
20	0xbd9059d5	-0.07048384
21	0x3da44376	0.0802068
22	0x3db50b33	0.08840027
23	0xbdd44f84	-0.10366729
24	0xbd1d2e02	-0.038373955
25	0xbe05c2d5	-0.13062604
26	0x3de6b8af	0.11265694
27	0xbd757f3d	-0.059935797
28	0x3e2b8332	0.16749266
29	0x3e211cdd	0.15733667
30	0xbdffb6b7	-0.12486022
31	0x3e0a452e	0.13502952
32	0xbe28e6e4	-0.16494328
33	0xbe27d8bb	-0.1639127
34	0x3e124ae0	0.14286375
35	0xbdfa764e	-0.12229596
36	0xbe199d13	-0.15001325
37	0xbdea4883	-0.11439612
38	0xbd9abc94	-0.075555
39	0xbde0a39a	-0.109687045
40	0x3d605422	0.054767735
41	0xbe2354c8	-0.1595031
42	0xbdbc75a6	-0.09202127
43	0x3deac4fc	0.11463353
44	0xbe1ed497	-0.15510784
45	0x3e1233a1	0.14277507
46	0x3e2de092	0.16980198
47	0xbd7d4512	-0.06183345
48	0xbd8fcebd	-0.07021854
49	0xbe3527d3	-0.17690973
50	0x3e32373c	0.17403883
51	0x3e27e579	0.1639613
52	0xbc2218bc	-0.009893592
53	0x3db5e38c	0.08881292
54	0xbe2817fd	-0.16415401
55	0xbe1362ae	-0.14393112
56	0x3e308e03	0.17241673
57	0xbe2b7dbd	-0.16747184
58	0xbd920d66	-0.07131462
59	0xbe07b557	-0.1325277
60	0xbe38835b	-0.18018858
61	0x3d71a16c	0.058991835
62	0xbde59faa	-0.11212094
63	0x3daa58bb	0.08317705
64	0xbd86c646	-0.065807864
65	0x3d95a22a	0.07306321
66	0xbcd2fe96	-0.025756162
67	0xbe38c282	-0.18042949
68	0x3e070183	0.1318417
69	0x3db72831	0.08943213
70	0xbcc29178	-0.023751006
71	0x3d4ab63b	0.049490195
72	0xbdb6877c	-0.0891256
73	0x3da57157	0.080782585
74	0xbd9c42a5	-0.07629899
75	0x3e0b2de4	0.13591725
76	0xbda8f0d2	-0.08249058
77	0xbd6935db	-0.056936126
78	0xbc168660	-0.009187311
79	0x3da8264c	0.082104295
80	0xbd9d150a	-0.076700285
81	0x3dc1ab98	0.09456557
82	0x3d3744e8	0.04474345
83	0x3daacf0e	0.08340274
84	0xbd9d5833	-0.07682838
85	0x3cd53401	0.026025774
86	0x3cbce137	0.02305661
87	0x3e0ba7e7	0.13638268
88	0x3e471553	0.19441728
89	0x3dfce225	0.12347821
90	0x3e1002d6	0.14063582
91	0xbceee325	-0.029161045
92	0xbe34e49e	-0.17665336
93	0x3b2ef575	0.0026696597
94	0x3d224d36	0.039624415
95	0xbd7ed80c	-0.062217757
96	0xbd8f70ff	-0.07003974
97	0x3cab3378	0.020898566
98	0xbd07342a	-0.033008732
99	0x3df543d4	0.11975828
100	0x3dcf38a0	0.10118222
101	0x3d9349bf	0.071918
102	0x3e159d40	0.14610767
103	0x3b1dcb56	0.0024077496
104	0x3df524bb	0.119698964
105	0xbda31d33	-0.07964554
106	0x3ce7e123	0.028305596
107	0xbdab2bf6	-0.08357994
108	0x3dfbc3b8	0.1229319
109	0xbd791bd6	-0.060817562
110	0xbdeda26e	-0.11603247
111	0xbcae48cf	-0.021274952
112	0x3d33ee03	0.043928158
113	0x3dcad55b	0.099039756
114	0x3db34174	0.087527186
115	0xbe221bba	-0.1583089
116	0xbdbae071	-0.0912484
117	0xbe130c72	-0.14360216
118	0x3cd63564	0.026148506
119	0x3e0300fb	0.12793343
120	0xbd7b5697	-0.061361875
121	0x3e02bd29	0.12767471
122	0x3d8245c7	0.06360965
123	0x3daa92c8	0.083287776
124	0xbd8604ab	-0.06543859
125	0x3dc9c44c	0.09851894
126	0x3d97f0a4	0.074189454
127	0xbd0b25c7	-0.033971574

bias f4 [2]
0	0xbcf22c6a	-0.029562194
1	0x3d0ade42	0.033903368

weight f4 [64, 60]
0	0xbd069c0d	-0.032863665
1	0xbda04d97	-0.07827299
2	0xbc0bb3ef	-0.008526786
3	0xbcaaf46a	-0.020868499
4	0x3d850181	0.064944275
5	0x3e787fef	0.24267553
6	0xbdb33ed1	-0.08752216
7	0xbcc74b8d	-0.024328018
8	0xbe350147	-0.17676269
9	0xbda470f5	-0.08029357
10	0xbe4ec7f1	-0.20193459
11	0xbd09d463	-0.033649813
12	0xbc32f205	-0.01092196
13	0xbdecc2a7	-0.115605645
14	0x3e715ad8	0.2356981
15	0xbd134dfb	-0.03596304
16	0xbda8bccf	-0.082391374
17	0xbc1ea180	-0.009682059
18	0xba0c190b	-0.0005344308
19	0xbe001bbc	-0.1251058
20	0xbd929b04	-0.07158473
21	0xbd313f82	-0.043273456
22	0xbe349fa5	-0.17639025
23	0xbdd9a8bf	-0.10627889
24	0x3d3e681f	0.046486016
25	0xbce69cde	-0.028150972
26	0xbd45ae7b	-0.0482621
27	0xbd6719d5	-0.05642112
28	0x3dbe8453	0.093025826
29	0xbe653fee	-0.22387668
30	0xbeb5176d	-0.35369435
31	0xbe61e7ac	-0.22061032
32	0xbdf6308f	-0.120209806
33	0xbdcd71b2	-0.10031451
34	0xbdc22c46	-0.09481101
35	0xbdd83151	-0.10556281
36	0xbc13c44f	-0.009018972
37	0x3e0fba58	0.14035928
38	0x3ce762b2	0.028245304
39	0x3e25f85f	0.16208027
40	0xbdd737fd	-0.10508726
41	0x3d5c0a46	0.053720735
42	0xbcd27184	-0.025688894
43	0x3db97305	0.09055141
44	0xbd6f8519	-0.05847654
45	0xbcbc2ee5	-0.02297158
46	0x3e84365a	0.25822717
47	0x3eb57260	0.35438824
48	0x3de1236b	0.109930836
49	0x3daebf0c	0.08532533
50	0xbe434147	-0.1906787
51	0xbc8819eb	-0.016613921
52	0x3e6612af	0.22468065
53	0x3e4502ef	0.192394
54	0x3da572e5	0.08078555
55	0x3d09ae23	0.033613335
56	0x3d33609a	0.0437933
57	0xbe326227	-0.17420255
58	0xbdd84220	-0.10559487
59	0xbd11a911	-0.035561625
60	0x3e147fb1	0.14501835
61	0xbdae812b	-0.085207306
62	0xbdc9972c	-0.09843287
63	0xbede2436	-0.43387002
64	0xbe53c5b4	-0.20680887
65	0x3cd9e774	0.026599623
66	0x3cb27bf0	0.021787614
67	0xbe0a60da	-0.13513508
68	0xbd4d96d9	-0.050192688
69	0xbdaec5cf	-0.08533823
70	0xbe160d3f	-0.1465349
71	0x3e1a76c4	0.15084368
72	0x3ec0a487	0.37625524
73	0x3ee501c1	0.447279
74	0x3efb4ae8	0.49080586
75	0xbde50da9	-0.11184246
76	0x3daeb916	0.08531396
77	0xbde4f087	-0.111786895
78	0xbf17f20b	-0.59353703
79	0x3da79877	0.08183377
80	0xbdaa0ce4	-0.0830324
81	0xbda3591c	-0.07975981
82	0x3d31278c	0.043250605
83	0xbcd569ee	-0.026051488
84	0xbd3eb730	-0.04656142
85	0xbc2529c1	-0.010080756
86	0xbcec594f	-0.02885118
87	0x3da5fb67	0.08104592
88	0x3da3f278	0.080052316
89	0xbde8d573	-0.11368837
90	0x3bf4dc90	0.007472582
91	0xbdde1f02	-0.10845758
92	0xbe626b7d	-0.22111316
93	0xbe0983ba	-0.13429156
94	0xbd08bf0a	-0.033385314
95	0x3d1a7280	0.037706852
96	0x3e836e9f	0.25670335
97	0x3ca1c8af	0.019749014
98	0x3e3583d1	0.17726065
99	0xbcade1ab	-0.021225771
100	0x3df32d68	0.11873895
101	0x3e3eed7a	0.18645278
102	0x3ec7ed9e	0.39048475
103	0x3d1e120e	0.038591437
104	0x3e154701	0.14577867
105	0x3e827e60	0.2548704
106	0xbd841786	-0.06449799
107	0xbd83a736	-0.06428377
108	0xbdf3057a	-0.11866279
109	0x3db7166f	0.08939826
110	0xbe6eef5e	-0.23333499
111	0xbd702cf6	-0.058636628
112	0xbaf092d6	-0.0018354307
113	0xbd6d276e	-0.05789893
114	0xbe845076	-0.25842637
115	0x3ce4e0d2	0.027939234
116	0x3e106c42	0.14103797
117	0xbe1be502	-0.15224078
118	0x3c8ffcef	0.017576663
119	0x3cc94e3d	0.02457344
120	0xbe4721f2	-0.19446543
121	0x3d7a1c76	0.0610623
122	0xbd1056d1	-0.035239045
123	0xbe195a61	-0.14975883
124	0xbdae8b61	-0.08522678
125	0xbe355966	-0.17709884
126	0x3dfd8a3c	0.12379882
127	0x3df34ff1	0.11880482
128	0xbd036b72	-0.03208489
129	0xbe58a4df	-0.21156643
130	0xbe8da007	-0.27661154
131	0xbda4d4af	-0.08048379
132	0x3e7c1328	0.24616683
133	0x3e7fd9ce	0.2498543
134	0x3e975d5f	0.29563424
135	0xbd982568	-0.0742901
136	0x3d86763a	0.06565519
137	0xbe505776	-0.20345864
138	0xbe0a9c16	-0.13536105
139	0x3b97b3f4	0.0046296064
140	0x3d823700	0.06358147
141	0xbe41277b	-0.18862717
142	0x3e28d635	0.16487963
143	0x3d87f1c5	0.06637911
144	0x3dca8919	0.098894306
145	0x3e3fe920	0.18741274
146	0xbb9096a9	-0.0044124913
147	0x3c3bc87e	0.011461375
148	0xbd13b537	-0.03606149
149	0xbdd256e0	-0.10270476
150	0x3d6e9a23	0.058252465
151	0x3e478b78	0.19486797
152	0x3df42ab4	0.119222075
153	0x3dbfde3e	0.09368561
154	0x3e51d17c	0.20490068
155	0x3bd4c9bd	0.0064937756
156	0x3dec4578	0.115366876
157	0x3d5c3371	0.053759996
158	0xbd1c1661	-0.03810728
159	0xbe1018bf	-0.1407194
160	0x3ddf19c8	0.10893589
161	0xbc109e40	-0.008826792
162	0x3ca49508	0.020090595
163	0xbe3513e6	-0.17683372
164	0x3d980e51	0.07424606
165	0x3dfcf7b7	0.12351935
166	0xbe00937f	-0.12556265
167	0xbe86a541	-0.26297954
168	0xbf0a16f7	-0.5394129
169	0xbe74f093	-0.23919897
170	0xbe511aa1	-0.20420314
171	0xbd85a619	-0.06525821
172	0x3d8e540f	0.06949627
173	0x3af976da	0.0019032613
174	0xbde138ea	-0.109971836
175	0xbdaeaa19	-0.08528537
176	0xbea8fe26	-0.330064
177	0x3dafd565	0.08585624
178	0xbdabc8ff	-0.08387946
179	0xbcd10b66	-0.02551813
180	0xbd4e215c	-0.050324783
181	0x3d063aaf	0.03277081
182	0xbdcc9097	-0.09988516
183	0xbd1be53d	-0.038060416
184	0xbd9477ed	-0.072494365
185	0xbec0dae5	-0.37667003
186	0xbe7387fb	-0.23782341
187	0x3bfc45a2	0.0076987306
188	0x3e42a9cf	0.1901009
189	0x3d8e4faa	0.069487885
190	0x3e0197e2	0.12655595
191	0x3cd4a381	0.025956871
192	0xbce5650c	-0.028002284
193	0xbe625159	-0.22101344
194	0xbed7f83c	-0.42181575
195	0xbe994c4b	-0.2994102
196	0xbb899159	-0.004198235
197	0x3e91c296	0.2846877
198	0x3e0363a7	0.12830983
199	0x3dedbf56	0.1160876
200	0x3daf3495	0.08554951
201	0xbcbbd9ac	-0.022930942
202	0x3eb7afc1	0.35876277
203	0x3ea33241	0.31874278
204	0x3e5fac88	0.21843159
205	0x3e8f80b2	0.28027874
206	0xbcf83e1b	-0.030303052
207	0xbd946104	-0.07245067
208	0xbdfd1093	-0.12356677
209	0x3e9e5490	0.3092389
210	0x3e7ce5e3	0.2469707
211	0x3e69a6af	0.22817491
212	0x3e9cb7c3	0.3060895
213	0x3e9caeaa	0.30602008
214	0x3e9abd9b	0.30222782
215	0xbd86f78a	-0.06590183
216	0xbe8f9119	-0.28040388
217	0xbe177f73	-0.14794712
218	0xbe0c1ef0	-0.13683677
219	0x3ea91b01	0.33028415
220	0x3df1b76e	0.118025646
221	0xbeac80dd	-0.33692065
222	0xbdecc9ce	-0.11561929
223	0x39f2cb00	0.00046309084
224	0xbe5b35fd	-0.21407314
225	0xbe29a355	-0.16566212
226	0xbed1d70f	-0.4098439
227	0xbeca622d	-0.39528027
228	0xbd13dc04	-0.036098495
229	0xbe269f29	-0.16271652
230	0x3dbfce9e	0.09365581
231	0x3c840cbf	0.016119359
232	0xbd8443e6	-0.06458263
233	0xbe42769d	-0.1899056
234	0xbd4bd0a1	-0.04975951
235	0xbccbd68b	-0.024882575
236	0xbe0e0282	-0.13868144
237	0x3de1feca	0.11034925
238	0xbe684b9d	-0.22685094
239	0x3d609a81	0.054834846
240	0xbd0adf8f	-0.03390461
241	0x3bd39f9f	0.0064582373
242	0x3decfc9e	0.115716204
243	0x3bd871f6	0.006605382
244	0xbcdcc624	-0.02694995
245	0x3eaa3af2	0.33248097
246	0x3e5a9612	0.2134631
247	0xbe3a451e	-0.18190429
248	0xbea00f34	-0.312616
249	0xbeaad5b3	-0.33366165
250	0xbe7ff984	-0.24997526
251	0xbc6b8229	-0.014374294
252	0xbe83e757	-0.25762436
253	0x3dd58181	0.104250915
254	0x3f0d7338	0.55253935
255	0x3ec45597	0.3834655

bias f4 [64]
0	0x3d012147	0.031525876
1	0x3befac69	0.007314254
2	0xbdd3c318	-0.103399456
3	0xbcb78a49	-0.022404807
4	0xbb2e7637	-0.0026620755
5	0xbdb292d3	-0.08719411
6	0x3d25e264	0.040499106
7	0xbd8444ec	-0.06458458
8	0x3d32def2	0.04366965
9	0xbd8707af	-0.065932624
10	0x3e37d98c	0.17954081
11	0xbc2448e1	-0.010027141
12	0xbc958ec6	-0.018256556
13	0x3c86631a	0.016404677
14	0xbd71fdd9	-0.05907998
15	0xb8ae3b54	-8.308017e-05
16	0xbc37ea3d	-0.01122528
17	0xbd845a00	-0.06462479
18	0xbdf246c9	-0.118299074
19	0x3c9af7aa	0.018916924
20	0xbd976e94	-0.07394138
21	0xbd5415b1	-0.0517785
22	0xbd7dbf37	-0.061949935
23	0xbcae6b1a	-0.021291304
24	0xbe02636b	-0.12733237
25	0xbd916ea6	-0.07101183
26	0x3da2cee0	0.079496145
27	0xbd85b347	-0.06528335
28	0xbcf8cb22	-0.030370299
29	0xbe03a285	-0.12854965
30	0xbcd37d77	-0.025816662
31	0x3d3fd907	0.046837833
32	0xbd3b6231	-0.04574794
33	0x3d503117	0.050828066
34	0xbd30e65d	-0.04318844
35	0x3d540b83	0.05176879
36	0xbd0d00a0	-0.034424424
37	0xbccb9ddc	-0.024855547
38	0xbc9a220d	-0.018815065
39	0x3d9e8cbb	0.07741686
40	0xbd251965	-0.04030742
41	0xbc8173e2	-0.015802328
42	0xbe016d61	-0.12639381
43	0xbab67080	-0.0013919026
44	0x3dbf59b2	0.0934328
45	0x3dfeb525	0.12436894
46	0x3c3f8db4	0.0116914995
47	0xbd872454	-0.06598726
48	0xbdbb97f2	-0.09159841
49	0xbd2ac8ba	-0.041695334
50	0xbd57b348	-0.05266121
51	0xbcbbab85	-0.022908935
52	0x3cd128a2	0.02553207
53	0x3d299d0b	0.041409533
54	0xbdb3f212	-0.087864056
55	0xbc628768	-0.013826229
56	0xbd0ff613	-0.035146784
57	0x3d894a0d	0.06703577
58	0xbd26a427	-0.04068389
59	0x3d3d5b39	0.046229575
60	0xbd9e9158	-0.07742566
61	0x3ca69c57	0.02033822
62	0xbc76e1ef	-0.015068515
63	0xbe27a03e	-0.16369721

weight f4 [64, 64]
0	0xbdc18895	-0.09449879
1	0x3dc15a5c	0.09441063
2	0x3e443193	0.19159536
3	0xbdef8f43	-0.11697247
4	0x3d38e179	0.045136902
5	0x3e8a3070	0.2699008
6	0x3dc0ee80	0.0942049
7	0xbdb341d4	-0.0875279
8	0x3cfac03d	0.030609244
9	0xbddd622f	-0.10809743
10	0xbdbd0fcb	-0.09231528
11	0x3d92c73f	0.071669094
12	0x3cefd7a0	0.029277623
13	0x3e4eed99	0.20207824
14	0x3e0f7b25	0.1401182
15	0x3baf7acb	0.0053552142
16	0x3dc2bcba	0.09508653
17	0xbe57106c	-0.21002358
18	0xbd0925eb	-0.033483427
19	0x3e6285cc	0.22121352
20	0x3da0e3b8	0.07855934
21	0xbd5df613	-0.054189753
22	0xbe05572f	-0.13021539
23	0x3bd84766	0.006600308
24	0x3df4784b	0.119370066
25	0xbdcccbed	-0.09999833
26	0xbdc96dbd	-0.09835384
27	0xbe22fb67	-0.15916215
28	0xbd157bff	-0.036495205
29	0x3d30c609	0.04315761
30	0xbdb8322e	-0.08993946
31	0xbe27a410	-0.16371179
32	0xbb32f1a4	-0.0027304674
33	0x3df902ca	0.12158735
34	0x3d38affa	0.0450897
35	0x3e20e44e	0.15712091
36	0xbe496b06	-0.19669732
37	0x3d4ecedf	0.050490256
38	0xbe3b93cd	-0.183181
39	0xbbd4aae7	-0.0064900997
40	0x3e7265e8	0.23671687
41	0xbd1e4f0d	-0.038649607
42	0x3d780f04	0.060561195
43	0xbde902cc	-0.113774866
44	0xbe087d39	-0.13329019
45	0xbe201420	-0.15632677
46	0xbe17b0e3	-0.1481357
47	0x3d1e1974	0.038598493
48	0x3e02218d	0.12708111
49	0xbda5647f	-0.08075809
50	0x3e0a7d60	0.1352439
51	0xbe05c8ca	-0.13064876
52	0x3db29fa9	0.08721859
53	0x3d3cd88f	0.046104964
54	0xbce8ee04	-0.028433807
55	0xbe17635e	-0.14784
56	0xbe65e28c	-0.22449702
57	0x3e3fbc78	0.18724239
58	0xbccc33c7	-0.024927033
59	0x3e26afa6	0.16277942
60	0x3e0655c2	0.13118652
61	0x3d5bbc41	0.05364633
62	0xbc392599	-0.011300468
63	0x3d84a2d5	0.0647637
64	0x3b022cf5	0.0019863222
65	0x3de4c179	0.111697145
66	0xbd914756	-0.070936844
67	0x3e3e8c1b	0.18608133
68	0xbe2c9ff6	-0.16857895
69	0xbe84133b	-0.25795922
70	0xbe23a61b	-0.15981333
71	0x3e10b373	0.14130954
72	0x3d5ad2ea	0.0534238
73	0x3dfbd300	0.122961044
74	0x3da9db85	0.08293823
75	0xbe62f742	-0.22164634
76	0xbe3892b1	-0.18024708
77	0xbd68943d	-0.056781996
78	0x3d27afbc	0.040939078
79	0xbd5035ed	-0.050832678
80	0xbe7a6f1d	-0.24456449
81	0x3e705198	0.23468626
82	0xbd762da2	-0.060102113
83	0xbe41d5ec	-0.18929261
84	0xbd8007d0	-0.0625149
85	0x3e8e1874	0.2775303
86	0x3e779a55	0.24179967
87	0x3a9f3414	0.0012146258
88	0xbd40337c	-0.0469241
89	0x3cab940b	0.020944616
90	0xbbf5a45e	-0.0074964007
91	0x3e02945f	0.12751912
92	0x3da75fe1	0.08172584
93	0xbd9054f2	-0.07047452
94	0x3cfb3910	0.030666858
95	0xbad6b57e	-0.0016380993
96	0xbd16fdaa	-0.036863007
97	0xbcef7350	-0.02922979
98	0xbd3ce670	-0.0461182
99	0xbd7d2683	-0.061804306
100	0x3e0618a2	0.13095334
101	0x3e684b2d	0.22684927
102	0x3e19b759	0.15011348
103	0xbd904692	-0.0704471
104	0xbde336d6	-0.110944435
105	0x3d848378	0.06470388
106	0x3d3f8f25	0.046767373
107	0x3e85504f	0.26037833
108	0xbc111545	-0.008855169
109	0x3e5bade0	0.21453047
110	0x3cd94740	0.026523232
111	0x3c8bb391	0.017053397
112	0xbe8b6cd6	-0.27231473
113	0x3e252f70	0.16131377
114	0x3dc6cb3c	0.09706733
115	0x3e87c49c	0.2651719
116	0xbde04e71	-0.109524615
117	0xbb5ed757	-0.0034002864
118	0xbdf3e43b	-0.11908766
119	0x3e60943e	0.2193155
120	0x3e5a5e8c	0.2132513
121	0xbd932e17	-0.07186525
122	0x3e1d2770	0.15347075
123	0xbdaab7cd	-0.083358385
124	0xbddb2c11	-0.107017644
125	0x3caa2b58	0.020772621
126	0x3c2cb363	0.010540816
127	0xbd9b4dfd	-0.075832345
128	0xbc88b945	-0.016689906
129	0x3e03a375	0.12855323
130	0xbe905fca	-0.2819808
131	0x3d20629d	0.039156545
132	0x3c97c800	0.018527985
133	0xbd7b407e	-0.0613408
134	0x3ce8e7e4	0.028430887
135	0xbdd63e07	-0.104610495
136	0x3e5f7ee3	0.21825747
137	0x3c7997c5	0.015233939
138	0x3dc2c7f6	0.09510796
139	0xbd8608df	-0.06544661
140	0xbe469ca5	-0.19395693
141	0xbe1ada98	-0.1512245
142	0x3b703b8c	0.0036656586
143	0x3e47bd6d	0.19505854
144	0xbdb2c5d0	-0.08729136
145	0x3de9a4c9	0.114083834
146	0xbd1c9897	-0.03823146
147	0xbe2e0342	-0.1699343
148	0x3d114038	0.035461634
149	0x3e488c26	0.19584712
150	0x3e2f1945	0.17099483
151	0xbcdf5d9a	-0.027266312
152	0xbe3ad0ed	-0.18243761
153	0x3e353d15	0.17699082
154	0x3d41fbae	0.04735916
155	0x3dab33de	0.08359502
156	0x3d61a5cf	0.055089768
157	0xbe1d5c56	-0.15367255
158	0x3db490a2	0.08816649
159	0x3e32807d	0.17431827
160	0xbe4957cd	-0.196624
161	0xbd86c379	-0.06580252
162	0x3e15d71f	0.14632843
163	0xbb4cf815	-0.0031275798
164	0x3e66fffa	0.22558585
165	0x3d7ef777	0.06224772
166	0x3e0bd5d5	0.13655789
167	0xbd565d67	-0.05233517
168	0xbd0d5bb8	-0.034511298
169	0x3e440b65	0.19144972
170	0x3cd8664f	0.026415972
171	0x3e5f724c	0.21820945
172	0xbccff576	-0.0253856
173	0x3d8e7722	0.069563165
174	0x3df9c2e7	0.12195378
175	0x3c16cfee	0.009204848
176	0xbe29aff4	-0.16571027
177	0xbd9f7f46	-0.07787947
178	0xbadfb56a	-0.0017067615
179	0x3e2e8a04	0.17044836
180	0xbdcf0f61	-0.10110355
181	0xbdf99adc	-0.1218774
182	0xbb61404f	-0.0034370606
183	0x3df65eae	0.120297775
184	0x3e7c6ba9	0.24650444
185	0xbe9cad70	-0.30601072
186	0x3d879e3e	0.06621979
187	0xbe4fb638	-0.20284355
188	0xbce0d326	-0.027444433
189	0x3cdbc304	0.02682639
190	0x3da99449	0.08280236
191	0xbd331e1b	-0.043729883
192	0xbd950033	-0.072754286
193	0xbe59e7e5	-0.21279867
194	0xbda5b50b	-0.08091172
195	0x3e500dcd	0.20317765
196	0xbe5a92b2	-0.21345022
197	0x3e1505f1	0.14553048
198	0xbeb81513	-0.35953578
199	0x3eadb047	0.3392355
200	0xbe4c37b6	-0.19943127
201	0x3e198772	0.14993075
202	0x3e538b58	0.20658624
203	0x3de7eee4	0.11324862
204	0xbdeec293	-0.11658206
205	0xbda823fd	-0.08209989
206	0x3eab7ec0	0.3349514
207	0x3e7e0d9e	0.24809882
208	0x3d5ef690	0.05443436
209	0x3dee4a03	0.1163521
210	0x3e04856d	0.12941523
211	0xbd7f4188	-0.062318355
212	0x3e75d5c1	0.24007322
213	0xbd016051	-0.031585995
214	0x3ea4a39e	0.3215608
215	0x3e599d66	0.21251449
216	0x3db67a71	0.089100726
217	0x3caeb034	0.021324255
218	0xbe97d218	-0.29652476
219	0x3d9fb49d	0.07798121
220	0xbdd463b3	-0.103705786
221	0x3d96cce3	0.07363298
222	0x3e9ced22	0.30649668
223	0x3e125773	0.14291172
224	0x3e9179c3	0.2841321
225	0xbec595fa	-0.38590986
226	0x3cb1b5c1	0.021693112
227	0xbe5ba36c	-0.21449059
228	0xbde983f5	-0.11402122
229	0x3eb716ec	0.35759676
230	0x3e0f26e3	0.13979678
231	0xbdd7d523	-0.105386995
232	0x3ed452a7	0.4146931
233	0x3e3b778f	0.18307327
234	0x3e3acc08	0.18241894
235	0x3c3484ff	0.011018037
236	0xbe8f04c2	-0.27933317
237	0xbcc97621	-0.024592461
238	0x3dbec0a6	0.093140885
239	0x3eda020f	0.42579696
240	0xbc731f73	-0.014839041
241	0x3d4701e7	0.0485858
242	0x3ea8a8f7	0.3294141
243	0xbe52664e	-0.20546839
244	0xbe893993	-0.26801738
245	0xbe6b7828	-0.22995055
246	0x3c1c8a8e	0.009554518
247	0x3c6a6d90	0.014308348
248	0x3e0d814d	0.13818856
249	0x3c9fe2dd	0.019517357
250	0x3d4c2be4	0.049846545
251	0xbcfe7001	-0.031059267
252	0x3ea77dee	0.32713264
253	0xbe5fd337	-0.21857916
254	0x3e7cfcd6	0.24705824
255	0x3d7fca9a	0.062449075

bias f4 [64]
0	0x3e078ab3	0.13236503
1	0xbe0de040	-0.13855076
2	0xbe1fc7ba	-0.15603533
3	0xbc93f3ed	-0.018060649
4	0xbe0bd193	-0.13654165
5	0x3dfc305e	0.12313913
6	0xbcc53a82	-0.02407575
7	0xbbd3f6a0	-0.006468609
8	0x3e0f6746	0.1400424
9	0xbdfef0fc	-0.12448308
10	0x3e1381da	0.14405003
11	0x3b846793	0.0040406673
12	0x3e0424e1	0.12904693
13	0xbd0c0f33	-0.034194183
14	0xbd05a3ec	-0.03262703
15	0xbdf1474f	-0.11781179
16	0x3d1c54a9	0.038166676
17	0x3c71a2f5	0.014748325
18	0x3cd91926	0.02650125
19	0xbe1a5199	-0.1507019
20	0x3df12cc6	0.11776118
21	0x3e181a63	0.14853816
22	0x3ded32f6	0.11581986
23	0x3a9acd05	0.0011810368
24	0x3e013914	0.1261943
25	0x3e074fc8	0.13214028
26	0x3ded2db2	0.11580981
27	0xbddb1fbc	-0.10699412
28	0x3d4bec4a	0.04978589
29	0x3d5a97c6	0.0533674
30	0x3c37ef25	0.01122645
31	0x3cb8f49d	0.022577578
32	0x3e3b4571	0.18288209
33	0x3d4d215b	0.05008064
34	0xbdf55c8b	-0.11980542
35	0xbdfaebfc	-0.12252042
36	0xbe034e51	-0.12822844
37	0xbadd4fe0	-0.0016884767
38	0xbe197cf4	-0.14989072
39	0x3e165723	0.14681678
40	0xbce021ba	-0.027359832
41	0xbceb697a	-0.028736819
42	0xbcf626a7	-0.030047728
43	0x3e03b5d9	0.12862338
44	0xbb4793fd	-0.0030453198
45	0x3cc9f5d7	0.024653358
46	0x3db12250	0.08649123
47	0xbce5d6ca	-0.028056521
48	0x3cb003c5	0.021486172
49	0x3b944955	0.0045253434
50	0x3e092a1e	0.13394973
51	0x3c79cde4	0.015246842
52	0x3b644e79	0.0034836812
53	0x3d05f8dd	0.032708038
54	0x3ccc2d1d	0.024923855
55	0xbe22d965	-0.15903242
56	0x3de3d6d4	0.111249596
57	0xbddce2ed	-0.1078547
58	0x3e0f1502	0.13972858
59	0x3d5351e3	0.051591765
60	0x3e0781e1	0.13233139
61	0x3ccbcc0c	0.02487757
62	0x3cb70191	0.022339614
63	0x3de5869b	0.112073146

weight f4 [1, 64]
0	0xbf16fb2c	-0.5897701
1	0x3ee700d2	0.45117813
2	0x3effb492	0.49942452
3	0xbedcc54f	-0.43119285
4	0x3eed4741	0.46343425
5	0xbf06d93f	-0.5267524
6	0x3f0a78de	0.5409068
7	0xbf008c70	-0.5021429
8	0xbef84a41	-0.4849415
9	0x3f17e1ae	0.59328735
10	0xbef777d6	-0.48333615
11	0xbf01627b	-0.50540894
12	0xbefe14eb	-0.49625334
13	0xbef5951d	-0.47965327
14	0xbeed7eef	-0.46385905
15	0x3f0f9d2f	0.5609922
16	0x3eef600e	0.4675297
17	0x3ef78b46	0.48348445
18	0xbf201738	-0.6253543
19	0x3f03c2b1	0.5146895
20	0xbf0cf7c9	-0.5506559
21	0xbf041ab6	-0.5160326
22	0xbf1083ca	-0.56451094
23	0x3f1ef6cc	0.6209533
24	0xbf0e93a7	-0.5569405
25	0xbf01aa35	-0.5065034
26	0xbf056d84	-0.5212023
27	0x3f07d914	0.5306561
28	0x3f0746f3	0.52842635
29	0x3f033df2	0.51266396
30	0x3f1687ee	0.5880116
31	0x3ebce4e1	0.3689337
32	0xbee6d8ca	-0.45087272
33	0x3f086c59	0.53290325
34	0x3f05cf91	0.52269846
35	0x3f182dd3	0.5944492
36	0x3f0ca7de	0.54943645
37	0x3f2cd2c8	0.67509127
38	0x3f10b3d8	0.5652442
39	0xbee205b1	-0.44144967
40	0xbf03ebb3	-0.51531523
41	0xbf059ae8	-0.52189493
42	0xbeee73d5	-0.46572748
43	0xbf049a37	-0.51797813
44	0x3f17e74a	0.59337294
45	0x3f104d7a	0.5636822
46	0xbf0d5ab8	-0.5521655
47	0xbf039cbe	-0.51411045
48	0x3ee50665	0.4473144
49	0xbf2d12f8	-0.6760707
50	0xbf06dc65	-0.52680045
51	0x3ef20834	0.47271883
52	0xbf36057a	-0.71102107
53	0x3ef40e1d	0.47667018
54	0xbf1d07ec	-0.6134021
55	0x3ed9bade	0.4252538
56	0xbf0ea034	-0.557132
57	0x3f1cc4b1	0.6123763
58	0xbef37e04	-0.4755708
59	0x3f1026a3	0.56308955
60	0xbedf9034	-0.43664706
61	0x3ecdbc04	0.40182507
62	0x3ef8b039	0.48571947
63	0xbef814c5	-0.48453346
