clone_data/marigold_episodes/marigold_clone_50ep_25trn_1000_expert_runs/marigold_clone_50ep_25trn_1000_expert_runs_s0/pyt_save/model.pt (torch, 104138 bytes, 9 tensors)

log_std f4 [2]
000000 00 00 00 bf 00 00 00 bf
       -0.5 -0.5

weight f4 [128, 60]
000000 eb 68 84 3d 3f 3e b0 bd 2a 7e 80 3d 17 69 81 bd
       0.06465324 -0.086056225 0.06274064 -0.063188724
000010 be aa e9 bb 22 bc d6 3c c8 d0 27 be 16 04 1b be
       -0.0071309498 0.026212756 -0.16388237 -0.15138277
000020 b0 37 c1 bd f2 da 6c 3c 95 15 b2 3d 5a cc 22 3e
       -0.0943445 0.0144564975 0.08695523 0.15898266
000030 ae 6a 50 3d b2 26 3f 3e ec 86 ec bd 6c 25 3c be
       0.050882988 0.18667105 -0.11549172 -0.1837365
000040 c2 1b 8a bd 73 7a 81 be d7 d7 29 be 06 17 b6 3d
       -0.06743576 -0.25288734 -0.16586243 0.0889111
000050 31 16 97 b9 0e 46 a8 bd f7 ee 86 bd ba ab ec bd
       -0.00028817498 -0.08216487 -0.06588548 -0.11556192
000060 15 6e d6 bd 4b f7 93 bd e5 d5 09 bd 8d 3a d0 3d
       -0.10470215 -0.07224902 -0.03365125 0.10167418
000070 ce 24 c8 bd 74 41 6f 3d 0d 0b c3 bd 03 ed 03 3d
       -0.09772645 0.05841203 -0.09523592 0.032208454
000080 70 95 ac bd 45 cb 82 bc 3a 1b 0a 3e 83 50 4f bd
       -0.084269404 -0.015966067 0.13486949 -0.05061389
000090 b0 4d d3 bd 4f f5 57 bd 43 16 ac 3d 12 0c ec 3d
       -0.10317552 -0.05272418 0.084026836 0.1152574
0000a0 77 aa 8a bd e4 9d ed bc f9 63 79 3d 95 f2 24 3e
       -0.06770795 -0.029005952 0.060886357 0.16108163
0000b0 8c dc a4 bd fb f0 df 3d dc 9e 32 be 59 bc 30 ba
       -0.080498785 0.10934635 -0.17443413 -0.0006741933
0000c0 c4 02 dc 3b 7a 00 94 3d c7 46 78 bd f5 1f e5 3d
       0.006714197 0.072266534 -0.060614374 0.11187736
0000d0 d2 98 22 3e a9 37 bc 3b 9e 02 18 3e cb e1 c0 3d
       0.15878609 0.00574394 0.14844748 0.094180666
0000e0 83 eb 71 3c 5f 9e 91 3d 61 24 a4 3c 25 40 16 bb
       0.014765623 0.07110285 0.020036878 -0.0022926417
0000f0 90 bb b8 bd 1c 6c 28 bd 8a 85 81 3c ef 8a d5 3d
       -0.0902015 -0.041118726 0.015810747 0.1042689
000100 18 4e 82 3e b0 9a 54 3e 96 c2 71 39 25 63 c6 bc
       0.25450206 0.20762134 0.0002305604 -0.024217198
000110 2b d2 10 be 1a eb 5e be 66 73 5f be 78 6b 9d 3d
       -0.14142673 -0.21769372 -0.21821365 0.07686514
000120 0f c0 33 3e 9c 25 91 3e 65 bb 0b 3e b5 50 0f be
       0.17553733 0.28349006 0.13645704 -0.13995631
000130 81 22 83 bd b8 10 66 3d 18 41 0e bd 2b 6e 44 bd
       -0.064030655 0.056168288 -0.034730047 -0.047956627
000140 24 f3 8a bd 55 07 08 3e 0c ee 18 bc 8a 70 a7 3d
       -0.06784657 0.13284047 -0.009334099 0.08175762
000150 3a ef 2c 3e 64 67 28 3e 32 4e aa bc 0b 9d db 3c
       0.16888133 0.1644569 -0.02078924 0.026808282
000160 a1 82 19 bd ba e3 b7 3c 44 4a 8b bd ce 3c f8 bd
       -0.037478093 0.022447456 -0.068012744 -0.121209726
000170 80 04 c8 bc 3f 2c 93 3d 1f 56 0a bd f1 6c 57 bc
       -0.024416208 0.07186174 -0.033773538 -0.013148532
000180 3d b8 10 3d 6b 43 95 3d ce 9e f5 bd 39 84 a2 3c
       0.035331953 0.072882496 -0.1199318 0.01983844
000190 28 9d bb bd 5e 7e 40 3e 8e ca e6 bc cc 6c bf 3d
       -0.091608346 0.18798205 -0.028172757 0.09346923
0001a0 06 c9 51 3d 50 0b 11 be 99 b6 55 3d 50 a2 3e bd
       0.0512171 -0.14164472 0.05217609 -0.046541512
0001b0 01 e0 55 bd 6c dc 71 bc 67 99 08 bd 6c 9c e6 3d
       -0.05221558 -0.014762025 -0.03334942 0.11260304
0001c0 4d 83 eb 3d 7e be 3d be 4d 62 1b bd 6d 1c 14 3e
       0.11499653 -0.18529698 -0.037935544 0.14463969
0001d0 cb 18 92 3d 17 11 1a 3e 29 04 7b 3c 1a 28 db 3d
       0.07133635 0.15045582 0.015320816 0.10701008
0001e0 42 7f 39 be e9 37 a7 bd 48 c2 dd bd 51 60 39 3d
       -0.18114951 -0.08164961 -0.10828072 0.04525787
0001f0 c0 99 e4 3d 83 3f 5b 3c 80 ad 02 be b1 3c ea bd
       0.11162138 0.013381842 -0.12761497 -0.11437357
000200 5b cd 39 3d 0a bc 96 3d e5 27 a9 3d f6 16 80 bb
       0.045361858 0.07360084 0.082595624 -0.003908987
000210 bc c5 8e bd f7 e4 1a 3e b4 34 e5 3d 32 47 30 3e
       -0.069713086 0.15126406 0.11191693 0.17214659
000220 b3 e3 45 bd 30 a6 45 bd d5 b3 09 3d 9c b7 fb 3d
       -0.048312854 -0.048254192 0.033618767 0.1229088
000230 97 19 2c 3d d5 9a 1f be 25 61 d4 bd 65 3a ed 3d
       0.042016592 -0.15586407 -0.10370091 0.115834035
000240 27 72 82 3d c7 98 07 3d 3c db 09 be b1 ed d5 3a
       0.06369429 0.033104684 -0.13462538 0.0016321448
000250 d2 31 e3 bc c3 4a 6d 3d 84 44 82 bc 6e 14 16 3e
       -0.027733717 0.057932626 -0.015901811 0.14656231
000260 30 30 a0 bd 02 51 ea bd ee 12 e3 bd e4 e6 9e bd
       -0.07821691 -0.11441232 -0.11087595 -0.07758883
000270 d5 0f 1a 3e a6 32 b1 3d e3 13 36 bd fb 58 3e bd
       0.15045102 0.086522385 -0.04445256 -0.046471577
000280 b3 33 f3 bd f0 86 0b be 35 54 47 3d 24 44 19 3d
       -0.11875095 -0.13625693 0.04866429 0.0374185
000290 45 25 d1 3a 37 fa 85 bd 71 d0 bd bc ee c1 0d bc
       0.0015956542 -0.06541865 -0.023170682 -0.0086521935
0002a0 bb 3a 9f 3d e0 5c fc 3d 0a b7 fe 3c f2 78 d7 bd
       0.07774874 0.12322402 0.03109314 -0.10521115
0002b0 bf a8 db bd 16 38 77 3d 32 77 82 3d 58 39 73 3c
       -0.10725545 0.060356222 0.06370391 0.014845215
0002c0 b7 67 a0 bd 0f ee 02 bd fa 9b b5 bd 6e 25 33 bd
       -0.07832282 -0.03196531 -0.08867641 -0.043736868
0002d0 a9 36 00 3d b0 a6 61 bd 42 de 3e 3c ca c2 a5 bd
       0.031302128 -0.055090606 0.01164967 -0.08093794
0002e0 3c 2b 2b 3e 66 be 0a 3e cf 08 da bd 8f 57 89 be
       0.16715711 0.13549194 -0.10646211 -0.26824614
0002f0 0b 8b db bd e0 dc ca 3c f1 aa bf bd 49 e5 c8 bc
       -0.1071988 0.024763525 -0.09358776 -0.024523394
000300 1b b6 55 3e 62 93 67 3e ed 1e 6d 3d be 95 b5 be
       0.20870249 0.22614816 0.05789082 -0.35465807
000310 ad 32 84 be 2c e6 fa bd 15 b3 0f be 33 3f d9 bd
       -0.25819913 -0.12250933 -0.14033158 -0.106077574
000320 1c a3 85 3d 2c ad a8 bc e1 cf 9e 3d 86 8a 9b bd
       0.06525251 -0.020590387 0.077544935 -0.075947806
000330 23 d5 fb bc ed 66 e2 3a 39 44 5f bc 25 a9 dd 3d
       -0.03074128 0.0017273106 -0.013627105 0.108232774
000340 c0 5c 88 bc ed ab 61 3d 1c 7f 02 3d b9 aa 03 bd
       -0.01664579 0.0550956 0.031859502 -0.032145236
000350 eb 8b cd bc a0 69 8f 3c ca 67 94 bc 14 d4 f6 bd
       -0.025091132 0.01750642 -0.018115897 -0.120521694
000360 c8 ac 03 3e 6a e6 3d 3c 98 27 dd 3d 5b 79 b0 bd
       0.1285888 0.0115905795 0.107985675 -0.08616897
000370 77 b0 48 3d ce e9 82 3d fc 88 76 3d ae 5c 81 3e
       0.048996415 0.06392251 0.060189232 0.2526602
000380 f5 72 0a 3e 8b 75 e0 3d 04 3f 4f 3c 12 f9 82 3c
       0.13520415 0.109599195 0.012649301 0.015987907
000390 b0 1c 23 be 76 59 65 bd aa 49 1a be b5 1a 79 3d
       -0.15928912 -0.05599352 -0.15067163 0.060816485
0003a0 c5 1b b8 3d e9 6e 05 3e b0 4c 3d 3e 26 e3 4b bd
       0.089896716 0.1303059 0.18486285 -0.049777173
0003b0 ac 20 11 3e 40 a5 ba 3d 88 8f e4 3d 63 1e 8e bd
       0.1417262 0.0911355 0.11160189 -0.069393896
0003c0 1f dd 0e bd 06 d1 bd 3d 21 94 cb 3d 5b 5b 1e be
       -0.034878846 0.09268384 0.09940363 -0.15464537
0003d0 d4 7a 07 be d8 b3 36 be 1c 57 af bd 70 86 28 3d
       -0.13230449 -0.17842042 -0.08561537 0.041143835
0003e0 cb ff 7a bb 49 90 e5 bd 60 f0 59 bd ed f8 27 3d
       -0.0038299437 -0.11209161 -0.053207755 0.04100888
0003f0 01 2e 9a bd 60 d4 d6 3d a1 6e 94 3d 15 71 46 be
       -0.07528306 0.10489726 0.07247663 -0.19379075

bias f4 [128]
000000 16 b0 88 bd 29 63 af bd 00 83 a0 3b f1 e4 02 3e
       -0.06674211 -0.08563835 0.004898429 0.12782647
000010 14 56 50 3c a6 4a ea 3d c2 32 c7 3b 0c dc d1 3d
       0.012715835 0.11440019 0.006079049 0.10247049
000020 a2 f1 3b bd 30 65 11 bd 7c 9d f8 bd 7f 95 12 bd
       -0.045884736 -0.03549689 -0.12139413 -0.0357871
000030 2d 3a e8 3d 4c 7e c0 3b e1 d4 7a bc 66 9f df bb
       0.11339221 0.0058744308 -0.015309543 -0.0068244217
000040 ef 48 a5 bd 49 d9 5d bd c7 1e a2 3c 24 28 81 3d
       -0.080705516 -0.054162297 0.019790066 0.06306484
000050 6b 49 a7 bd 5e 95 64 3d 62 5a db bd 19 20 4c bd
       -0.081683 0.05580651 -0.107105985 -0.0498353
000060 30 c3 f7 3c 50 56 21 bd ee c2 8f bd c6 60 09 be
       0.03024444 -0.039388955 -0.07019602 -0.13415822
000070 e8 8c 74 bd d7 a2 81 bd e8 37 24 bd 94 dc 7b 3c
       -0.05970469 -0.06329887 -0.04009238 0.015372414
000080 e4 dc 6d 3b 77 36 e9 bd 24 69 b6 bd 58 62 ea 3d
       0.003629499 -0.113873415 -0.08906773 0.11444539
000090 00 8a b2 3d df 96 bf 3d 88 f0 cb bd 42 ee 83 bc
       0.08717728 0.09354948 -0.09957987 -0.016104821
0000a0 3e 2c e8 3d b1 d4 9f bd ce cb e3 3c cf 05 e9 bd
       0.113365635 -0.078042395 0.027807143 -0.11378061
0000b0 b6 5e 57 bd 59 52 ad 3d 73 9e 76 3d 10 8a ea 3d
       -0.052580558 0.08462972 0.060209703 0.114521146
0000c0 0c 07 8e 3c b2 3d 61 3c e3 73 e7 3d dd 55 f4 3b
       0.017337345 0.013747619 0.113014005 0.0074565248
0000d0 fd e8 bb bd 55 32 8e bd c9 01 bc bd 05 92 d5 3d
       -0.09175298 -0.06943194 -0.09180028 0.10428242
0000e0 59 0f d5 3d c4 f7 bb bd 51 f2 d3 3d b2 b2 af 3d
       0.10403318 -0.09178117 0.103489526 0.08579005
0000f0 f4 ff b1 3d ac 67 d8 bd ec 4e d6 3d d3 c1 87 bd
       0.08691397 -0.10566649 0.10464272 -0.06628766
000100 80 31 1d 3c 64 cc ed bd 51 c0 5f bc 1c 55 a4 3d
       0.009594321 -0.1161125 -0.013656692 0.08024046
000110 ba e2 aa 3c 2f 07 1b bc f7 b1 25 3d 34 64 bf 3d
       0.020860065 -0.009462162 0.040452924 0.09345284
000120 85 75 92 3d 5f 8c fc bd d7 fa d6 3d cf 46 f7 3d
       0.07151321 -0.12331461 0.10497063 0.120740525
000130 0d 99 ed 3d c8 c1 17 ba 66 16 ed bb 84 1d 61 bd
       0.11601458 -0.00057890685 -0.007235336 -0.05495979
000140 f4 df b4 bd 70 a9 d2 3d 8d 30 9f 3d c3 b9 73 3c
       -0.08831778 0.10286224 0.07772932 0.014875832
000150 dd e4 a2 3d ac 0c e7 3d fd 93 b2 bd 2b 2d 19 3d
       0.079538085 0.11281714 -0.08719633 0.03739659
000160 4a 59 98 bb ab d3 b0 3d 8b 47 7c 3d 1c bf ca bd
       -0.004649316 0.086341225 0.061591666 -0.098997325
000170 b2 8c 4b bd 2e 70 c5 bd 70 5c ef bd 1f ce c4 3d
       -0.049694724 -0.09640537 -0.11687553 0.09609627
000180 ed 69 e6 3d 68 07 a0 3d 19 ea 86 bd 81 9b 4d bd
       0.112506725 0.07813913 -0.06587619 -0.05019713
000190 a8 0f e2 bd 77 ba 70 bd 4d 60 9e 3d 53 d9 87 bd
       -0.110381424 -0.058771577 0.07733212 -0.06633248
0001a0 06 4a 01 3d 6a 0b 53 3d e4 e2 ed 3c 58 71 16 bc
       0.031564735 0.051524557 0.029038854 -0.009182297
0001b0 84 c3 26 bd f9 31 40 3d 31 34 3f 3d 68 d7 cd bd
       -0.040713802 0.046922658 0.046680633 -0.10050851
0001c0 17 54 06 3d 81 16 87 3d 94 7b a1 3d db a3 ad bb
       0.032795038 0.06596089 0.07884899 -0.005299074
0001d0 fd 41 c5 bd 33 cc e6 3d 59 fd fb 3d bb ac d5 bd
       -0.09631727 0.11269417 0.123041816 -0.10433336
0001e0 fe c3 d4 3d f2 6d e6 3d 56 dd 99 bd fd c6 ed bd
       0.10388945 0.11251439 -0.075129196 -0.1161022
0001f0 7f d9 d2 bd dd d2 33 3c 6e af cf 3d f4 a2 99 3c
       -0.1029539 0.010975567 0.101408824 0.01875446

weight f4 [128, 128]
000000 89 9a 96 bc 7a 69 73 3d db 07 8e 3c 27 87 68 3d
       -0.018384235 0.059426762 0.01733773 0.056769516
000010 d7 b5 0b bb 37 32 9a bd 0c ce 83 bd 17 87 bc bc
       -0.0021318102 -0.07529109 -0.06435785 -0.023013635
000020 b0 59 a9 3d bc d7 dc 3c 14 dd 91 3d 76 3a 64 3c
       0.0826906 0.026958339 0.071222454 0.013929954
000030 d0 5a 9d 3d db 1e 7e bc 13 d6 c0 3d 44 f7 d4 3d
       0.07683337 -0.015510286 0.094158314 0.10398725
000040 b9 8f 93 3d ec d7 b2 3d 10 1b 9a bd 2c 14 8a 3d
       0.07205147 0.0873259 -0.07524693 0.06742129
000050 be 41 3a 3d 0d b8 c7 bd f1 65 4d bd ad ce c5 bb
       0.045472853 -0.09751902 -0.050146047 -0.0060366006
000060 aa 23 84 3c 32 bd a6 3d 79 bf 8a bd 73 1b 01 3d
       0.016130287 0.08141555 -0.06774802 0.03152032
000070 78 40 aa bd c7 7d 57 bd 8f 07 eb bb 23 65 72 3c
       -0.08313078 -0.052610185 -0.007172532 0.014794621
000080 2e 3b 63 3d 78 16 7f bd 98 70 82 3d 38 88 cc bc
       0.05547636 -0.062277287 0.06369132 -0.024967298
000090 f1 24 29 3d f7 13 0e 3d 61 14 56 bd 8f 1e 94 3d
       0.041294996 0.03468701 -0.05226553 0.07232391
0000a0 12 f4 49 bd cb 15 dc bc 33 d7 3b 3a 5e 0d 49 bd
       -0.04930503 -0.02686586 0.0007165551 -0.049085014
0000b0 5a 37 82 3d a8 1d dd bd e6 50 ef 3d d0 d0 8e 3d
       0.06358214 -0.10796672 0.11685352 0.069734216
0000c0 14 53 84 bd 7e 97 93 3c 93 fe b0 bd b4 24 05 3e
       -0.064611584 0.018016573 -0.08642306 0.13002282
0000d0 e6 bb 26 3d c7 7e 2b bd 77 1b a1 bd cf 35 9f bd
       0.040706538 -0.04186895 -0.07866567 -0.07773935
0000e0 73 d0 86 3d 27 66 71 3b 76 b3 cb 3c 48 9e 8b bd
       0.06582727 0.003683457 0.024865847 -0.06817299
0000f0 77 39 98 3d 22 10 2c bc 4b 99 42 3d 98 96 1f 3d
       0.074328355 -0.010501893 0.047509473 0.038961977
000100 c2 3b e4 bc 7e b5 e9 bc d0 09 ad bd d8 6d fe 3c
       -0.027860526 -0.028528925 -0.08449137 0.031058237
000110 61 7f 9f 3d c7 b1 ac bd 01 34 ab 3d 16 21 92 3c
       0.077879675 -0.08432346 0.08359528 0.017838042
000120 57 e5 ad 3d 26 6a 6e 3c 42 bb b5 bc 27 d8 f4 3c
       0.08491009 0.014551675 -0.022184018 0.029888226
000130 5d 16 d2 3d b7 4a ea bd bc 8f 75 3c 3f 34 e8 bc
       0.10258172 -0.11440032 0.014987882 -0.028345225
000140 ed 21 9f bc e1 38 6f bc 2f 4c 42 3c 9d 39 d5 3d
       -0.019425357 -0.014600963 0.011858984 0.104113795
000150 6c 71 ce 3c d5 31 a5 3d 22 b1 0b bd 89 3e 86 bd
       0.025200568 0.08066145 -0.034104474 -0.065548964
000160 62 f6 56 3d 68 8c 97 bb 41 13 57 3d 3d b7 1b bd
       0.052481063 -0.004624892 0.052508596 -0.038016547
000170 75 9e 9d bd 01 53 d8 bb 3a cb 3b bd d0 95 c1 3a
       -0.07696239 -0.0066016917 -0.04584811 0.0014769379
000180 74 c1 70 bb d0 a6 ce bc 04 a2 33 3d 34 f1 28 3c
       -0.00367364 -0.025226027 0.043855682 0.010311414
000190 35 e8 ab bd 2d 3f 21 3e d9 61 5a 3d 5a 60 a2 bc
       -0.08393899 0.15746756 0.05331597 -0.019821335
0001a0 bf 56 67 bc e2 24 58 bd 0f 3c 11 be 9c 99 3e 3d
       -0.014119803 -0.05276955 -0.14183067 0.046533212
0001b0 e7 d6 89 bd b3 e9 57 bc 8c d5 3f 3d 3e 33 32 bd
       -0.067304425 -0.013178277 0.046834514 -0.0435059
0001c0 fc 59 58 bd 56 96 44 bc 35 ce 2f 3d 3d 5a 54 3d
       -0.05282019 -0.0119987335 0.042921264 0.05184387
0001d0 8c db 17 3d 8d e5 5a 3c 90 45 a2 bd 05 32 77 3c
       0.03707461 0.013360393 -0.07923424 0.015087609
0001e0 59 de c9 3d b8 31 66 3d 4a d3 9e bd 43 78 83 bc
       0.098568626 0.05619976 -0.07755144 -0.016048556
0001f0 bb e1 9e 3d 42 19 c9 3c 82 03 6e 3c 6e ca 76 3d
       0.077578984 0.024548177 0.0145272035 0.060251646
000200 9e c5 8a bd 89 57 18 3c 5c d7 83 bd a7 1e eb 3c
       -0.06775974 0.009298214 -0.06437561 0.02870114
000210 1a 50 39 3b 27 06 79 bd e0 30 a5 3c 80 eb 64 3d
       0.0028276504 -0.060796883 0.020164907 0.055888653
000220 84 f8 68 bd 8e b6 56 bd 63 f0 07 3c bb 9e 20 bd
       -0.056877628 -0.05242019 0.008297059 -0.039213877
000230 08 74 26 bc 4f b2 02 bd 0a 1e a4 3d 1e 76 00 3d
       -0.0101595 -0.03190833 0.08013542 0.031362645
000240 ea f7 97 3d 1a 93 28 3d f2 f8 aa 3d 57 3d 95 bd
       0.07420333 0.041155912 0.08348264 -0.0728709
000250 e5 86 4e 3d 30 cb a3 3d 96 d6 a8 3d 54 f6 ab bd
       0.050421614 0.07997739 0.08244054 -0.08396593
000260 cc 7c f2 3b da 4e 08 bd b2 17 6f 3d ad c8 1d bc
       0.007400131 -0.033278324 0.058372207 -0.009630364
000270 c0 69 38 3d 9f d2 68 bd 68 88 93 3c 33 c5 15 bc
       0.045022726 -0.05684149 0.01800938 -0.009141254
000280 84 de f2 bd 34 5b 6f 3c ee da 93 3c 11 41 b6 3d
       -0.11858848 0.014609147 0.01804873 0.08899129
000290 e9 f5 79 3d 3a 61 81 3d e2 db 96 3d ae 9c aa bd
       0.061025534 0.063173726 0.07366158 -0.083306655
0002a0 37 cf b5 bd 39 a0 66 bb e4 24 2c 3d 1d b9 58 3d
       -0.08877414 -0.0035190715 0.04202737 0.052910913
0002b0 66 1d 7c 3d fd d3 b6 3b 7d 03 3e bb 2f 35 bd bd
       0.061551474 0.00557947 -0.0028993778 -0.092386596
0002c0 d1 b6 be 3c 6c 2f 6e 3d fe 0a d7 bc a0 31 08 be
       0.023280533 0.058150694 -0.026250359 -0.1330018
0002d0 00 0e a1 3d 0e ea b5 3c 05 32 47 bd 4f de e4 3c
       0.078639984 0.022206333 -0.048631687 0.027938036
0002e0 b9 f6 b1 bd 95 5f a4 bd fc 21 31 bd 17 68 bd 3c
       -0.08689637 -0.08026043 -0.0432453 0.023120923
0002f0 9c 86 89 bc 5c 41 1f 3c 36 82 32 3d ac 94 3f bd
       -0.01678782 0.009720173 0.04358121 -0.046772644
000300 46 c3 6f 3d 4b 13 89 3c 24 ed 26 bc 2e 07 0b bd
       0.058535837 0.016732832 -0.010188375 -0.033942394
000310 f1 c1 a8 bb 67 5f 10 3c 4e 65 49 bd fe 50 74 bd
       -0.0051500727 0.008811808 -0.049168877 -0.059647553
000320 c9 59 f6 3b d6 af 61 bc 26 fc d5 3d b9 1b 77 bc
       0.0075180274 -0.013774833 0.10448484 -0.015082293
000330 47 ce 4f bd 0b 5a a6 3d fa 9e bf bb 05 ce 41 bc
       -0.05073383 0.08122643 -0.005847809 -0.011828904
000340 f3 10 61 3d 65 a2 8b 3d 8a 63 49 3d 45 64 14 3b
       0.054947805 0.06818084 0.049167193 0.0022642773
000350 34 0e 63 bd ed aa 05 bd a0 37 20 3d d0 ce 8b 3d
       -0.055433467 -0.03263371 0.039115548 0.06826556
000360 82 0e 6c bd 91 87 d0 bb 9f 4a a9 3d c5 ba 27 bd
       -0.057631023 -0.006363817 0.08266186 -0.0409496
000370 45 cf 79 3d b2 d4 4b bd 79 53 b9 3c 80 c2 54 3d
       0.060988683 -0.04976339 0.02262281 0.051943302
000380 85 49 7d bd bf 07 a6 3c 99 e5 26 bd 89 8a a3 3d
       -0.06183769 0.020267366 -0.040746305 0.07985408
000390 f9 58 19 ba 49 d0 38 bd bd fb 9e bd bd 49 7c 3d
       -0.0005849745 -0.04512051 -0.07762859 0.06159376
0003a0 42 cc 6e 3b ff ff d5 3a 37 83 de bc 2d c7 98 3d
       0.0036437665 0.0016326903 -0.027162177 0.07459865
0003b0 c9 f1 cc bc 8f a9 47 3d ab 27 20 bd 66 9f 9a 3c
       -0.025017636 0.048745688 -0.03910033 0.018874835
0003c0 24 da f4 3c 2a 88 78 3d 83 39 68 bd 03 6a 80 3d
       0.029889174 0.06067673 -0.056695472 0.0627022
0003d0 e2 e6 3e bd 13 65 de bd a9 51 54 3d be 1c 44 3d
       -0.046606906 -0.10859122 0.05183569 0.047878973
0003e0 b6 85 b3 bd c8 53 5a be fe 5b a6 3c a5 a6 8c 3d
       -0.08765738 -0.21321023 0.020307537 0.068677224
0003f0 57 0e 4c bd ac ce 32 bd 10 b2 c4 bd e8 fd 64 3d
       -0.049818363 -0.04365413 -0.09604275 0.055906206

bias f4 [128]
000000 c3 3b a8 3d f4 5a b2 bc 27 ab b1 3b a6 8b ae bd
       0.08214524 -0.021771885 0.0054220143 -0.085227296
000010 ae 5f a8 bc 89 d2 33 3d 31 81 c3 bb f3 ce b0 3d
       -0.020553436 0.043901954 -0.0059663286 0.086332224
000020 7c 70 0d bc 57 6d 16 bc 3a ed 7d ba dc 13 7a 3d
       -0.008632775 -0.009181342 -0.00096865336 0.061054096
000030 e0 db b1 bc f5 f1 b2 3d af 1f 4e 3d 10 88 88 bd
       -0.02171129 0.08737556 0.050323185 -0.06666577
000040 3a 6b 05 3d 63 0e 46 bd f1 f0 ab 3d d5 b4 a5 bd
       0.032572962 -0.048353564 0.08395565 -0.080911316
000050 32 6f 5d 3d e2 53 a8 bc 10 4c f9 bc f1 02 14 bd
       0.054061122 -0.020547811 -0.030431777 -0.036135618
000060 9b 26 39 3c 0a 3e 76 bd 27 04 83 bd a4 ff 98 3d
       0.011300708 -0.06011776 -0.06397276 0.074706346
000070 61 b1 ad 3d d7 60 c4 bc ac 2f 20 3c 32 d5 d8 3c
       0.08481098 -0.023971958 0.009776991 0.026468847
000080 64 df 7e 3c 6e 76 b3 3d cd 07 b9 bc be 9a 7c 3d
       0.01555619 0.08762823 -0.022586728 0.06167101
000090 de 59 84 bd 9c 40 00 3d 9c fb 02 bd a9 35 64 3d
       -0.06462453 0.031311616 -0.031978235 0.055715237
0000a0 09 28 3f 3d ce f1 a6 3d 42 d8 f5 3b 02 6e 08 3d
       0.04666904 0.08151589 0.0075025866 0.033308037
0000b0 86 ab 4d bd f8 68 a7 bd 4d 7e 8d 3b aa fb d2 bc
       -0.050212406 -0.08174318 0.0043180347 -0.025754768
0000c0 84 eb 64 3d 92 93 87 bb 29 97 72 bd 8c 7b 20 3d
       0.055888668 -0.004137465 -0.05922619 0.039180323
0000d0 31 a7 e7 bc a8 94 c4 3c 68 1d e5 bc 9c 1c 9e 3b
       -0.028277965 0.023996666 -0.027968124 0.004825188
0000e0 49 7e 9a 3d eb 1c 5c 3d 1a d5 74 3d b9 60 30 bd
       0.07543618 0.053738516 0.059773542 -0.043060992
0000f0 36 5b 50 bd 63 9a 70 bd 98 0d 84 3d 80 c0 8f 3d
       -0.050868236 -0.058740985 0.06447905 0.07019138
000100 12 07 6f bd b1 e4 3b bd c5 22 f6 3c dc c4 72 3c
       -0.058356352 -0.045872394 0.030045876 0.014817443
000110 9f da 20 bc d1 02 19 bc 46 57 a8 3d e3 a9 70 bb
       -0.009817748 -0.00933905 0.08219771 -0.0036722354
000120 fc 63 8e 3d 71 98 93 3d d8 a5 7e bd 75 45 97 bc
       0.06952664 0.0720681 -0.06216988 -0.018465737
000130 70 ad 90 3d 6b 40 1c 3d d1 dc 2e bc 97 82 3c bd
       0.070643306 0.03814737 -0.010672764 -0.046022978
000140 ad 6b 6b 3d fc b8 33 3d 97 85 64 bd 59 9e f8 3c
       0.057475735 0.043877587 -0.055791464 0.030348944
000150 d8 eb f2 bc 72 98 3f 3d 09 e1 18 bd 6d 42 9a 3d
       -0.029653475 0.046776243 -0.037323985 0.07532201
000160 c1 41 b6 bb ef ce ab bd 6b 20 54 3c af ef 93 bd
       -0.0055620377 -0.08389079 0.012947182 -0.072234504
000170 0d db 86 3c 20 87 84 3d e5 25 77 3d 8b 64 8a bd
       0.016461873 0.064710855 0.060338873 -0.06757458
000180 15 78 43 3d 72 46 84 3d 8a 23 e9 bc e3 ca f3 bc
       0.04772194 0.06458749 -0.02845933 -0.02975983
000190 89 62 d6 bc f9 a8 a7 3d 85 62 3d bd 06 2a ba 3d
       -0.026170032 0.08186526 -0.046236534 0.090900466
0001a0 b4 36 64 3c 73 9f a3 3d 8a b6 ef 3c 1c b2 15 3b
       0.013929058 0.07989397 0.029261846 0.0022841757
0001b0 a3 98 aa bd cb 13 9f 3d fe 3d bd bb b4 5f 67 3d
       -0.083298944 0.07767447 -0.0057752123 0.056487754
0001c0 90 6d 91 bc 81 b7 07 3c 71 46 04 bd 2a cb 5c 3b
       -0.017752439 0.008283497 -0.03229374 0.003369043
0001d0 b8 31 a0 3d 89 c6 4f bd 84 61 d2 3c 14 08 ac 3d
       0.07821983 -0.050726447 0.025681265 0.08399978
0001e0 7a 9b 75 3c 54 d6 a8 bd ba 09 78 bd 05 8e cb 3c
       0.014990682 -0.08244005 -0.06055615 0.024847994
0001f0 d6 75 59 bd 40 10 89 3d 59 0a 02 bd 03 6a b7 3d
       -0.053090893 0.066925526 -0.03174815 0.08955767

weight f4 [2, 128]
000000 48 e2 98 3d b3 d0 3c bd da 15 a9 bc 91 7d 18 bd
       0.07465035 -0.04609747 -0.020640302 -0.037229124
000010 32 66 9a bd a1 89 0e 3e fa c2 46 3d ea 1c ac bd
       -0.075390235 0.13919689 0.048525788 -0.084039524
000020 bf 49 2f 3d 0d 99 50 bd 6d 32 43 bd 9c da 84 3d
       0.04279494 -0.05092721 -0.04765551 0.06487009
000030 21 47 94 3d 1e ff 1a bd f2 06 3f 3d 56 02 7a 3d
       0.07240129 -0.037840955 0.046637483 0.061037384
000040 d7 d2 2e 3d 01 8d 18 be 3b 0b ab bc 2e b7 5d bd
       0.04268154 -0.14897539 -0.020879379 -0.054129772
000050 4a b5 58 bd 91 7b e8 bd 2d 2c 28 3d 15 23 b9 bd
       -0.052907266 -0.113516934 0.041057754 -0.090398945
000060 7d aa aa bc 3c cd 05 3e db 26 05 3d 65 49 e0 3d
       -0.020833248 0.13066572 0.03250776 0.10951499
000070 08 08 f8 bc 2d 99 dd bd ed 12 8e 3d 16 07 2e bd
       -0.030277267 -0.108202316 0.069372036 -0.042487226
000080 cf b3 8c bd 7e f8 7a bd 18 1c bc bd 5c e6 be bb
       -0.06870233 -0.061272137 -0.09185046 -0.005825801
000090 7c df f0 bd da 96 9d 3c d5 f7 83 bd 73 7d ab 3b
       -0.11761376 0.01923697 -0.064437546 0.0052334606
0000a0 b3 5a 6c bc 5b 94 30 3d 73 8a c2 bd a5 9e e4 3d
       -0.014425921 0.043110233 -0.09499063 0.111630715
0000b0 16 13 0e be d5 1d 8d 3d 10 17 07 be aa 0a de 3c
       -0.13874468 0.06890456 -0.13192391 0.027104694
0000c0 2c 02 91 3d da f3 bb 3d aa f3 75 3d 8d f2 ec 3c
       0.070804924 0.0917737 0.06004683 0.028924251
0000d0 a5 c5 3b be 5c 71 54 3d 79 f5 48 bc 27 bf ab 3d
       -0.18337114 0.05186592 -0.0122655565 0.08386069
0000e0 a4 21 1b be a4 27 5c bd 52 a4 27 be ac 84 f9 bd
       -0.15149552 -0.05374874 -0.16371277 -0.12183508
0000f0 c9 bc 3d bd ed 3e 13 be 2e 0c 3e 3c 0c d5 91 3d
       -0.046322618 -0.14379473 0.011599584 0.071207136
000100 d8 21 13 bd 07 84 e2 3c 6f 0b 94 bd b8 c4 97 bd
       -0.035920948 0.027650846 -0.07228743 -0.07410568
000110 90 cc 86 bc 86 af 25 bd 65 bb 12 bd 30 b2 06 bd
       -0.016454965 -0.040450595 -0.035823245 -0.032884777
000120 c3 a2 4f 3d 07 a2 90 3d ea fb 61 bd d9 f6 a4 bd
       0.05069233 0.07062154 -0.055171885 -0.08054895
000130 f5 80 21 3e 2e ee bc 3d fc e2 ab 3d 08 80 c1 bd
       0.1577185 0.09225117 0.08392903 -0.09448248
000140 8c 5d c0 bd c2 1b b8 3d 78 5c d3 bd 07 95 bc 3d
       -0.09392843 0.089896694 -0.103203714 0.09208112
000150 5c 41 fb 3d 96 13 04 bd 61 fe cf 3c aa 98 b1 3d
       0.12268326 -0.03224524 0.025389852 0.086716965
000160 03 2d dd 3d d9 4a 96 bd e9 44 a8 bc 89 52 9e bd
       0.10799601 -0.07338495 -0.020540671 -0.07730586
000170 45 fe 34 bd 26 2a 7f bd 87 89 fd 3d 52 47 aa 3d
       -0.044187803 -0.062296055 0.12379747 0.083143845
000180 ac b9 c9 bd ad c0 45 3d c1 fa e1 3a 86 88 e2 3c
       -0.09849867 0.048279453 0.0017240868 0.02765299
000190 26 8b 3e bc 37 69 5b 3c 3a 1e 68 3d 45 17 af bd
       -0.011629855 0.013391784 0.05666945 -0.0854936
0001a0 dc a6 d2 3d 30 2d 8c 3d 04 f8 42 3d 10 12 a0 3d
       0.10285732 0.06844556 0.047599807 0.07815945
0001b0 8d c2 0c bd f2 94 e2 bd 6d 71 c2 3d a6 a7 b9 3d
       -0.034365226 -0.11063565 0.094942905 0.090651795
0001c0 f2 d6 dc 3d f2 af 72 3d 0c b2 23 3d 01 d6 eb bc
       0.10783185 0.059249826 0.03996472 -0.028788568
0001d0 4b d5 d5 3d 4c 05 f7 bd 39 b1 27 3c 84 30 04 be
       0.10441073 -0.12061557 0.010235124 -0.12909132
0001e0 89 86 c5 bb 10 1b df bc 14 4d 63 bc 64 ca dc bd
       -0.0060280007 -0.027234584 -0.013873357 -0.107807904
0001f0 52 50 8e bd dd 3b 92 3d 45 e0 b4 3d ce ee ae 3d
       -0.06948914 0.07140324 0.088318385 0.08541642
000200 3c 22 86 bd 29 1c b7 3d 75 21 10 bd 47 03 09 3c
       -0.065494984 0.08940918 -0.035188157 0.008362598
000210 53 71 86 3d 20 82 ed bd 46 a3 6e bd e6 c4 4a 3e
       0.06564584 -0.11597085 -0.05826118 0.19801673
000220 c7 29 0c 3d 37 54 74 3d 1f 5d 00 be 15 10 ac bd
       0.03421953 0.059650626 -0.12535523 -0.08401505
000230 6e 7a 3e bd 58 cf 4f bd a8 17 9c 3d 9d 10 2b 3c
       -0.046503477 -0.050734848 0.076216996 0.010440973
000240 5b 6a 25 3d f8 27 e8 3d 63 72 8a bd 48 05 20 be
       0.04038463 0.113357484 -0.06760099 -0.15627015
000250 2b d0 a3 3d 6a 89 6e 3d 1c 2c 22 3c 29 64 d4 bd
       0.07998689 0.058236517 0.009898212 -0.103706665
000260 9f d0 40 3d c0 03 af bd b2 ce af 3c d8 42 7a 3d
       0.047073957 -0.08545637 0.021460865 0.061098903
000270 66 94 5c bc e3 30 a4 bc e1 bc f5 3d 9a 48 c7 bd
       -0.013463115 -0.020042842 0.119989164 -0.097306445
000280 4a b7 87 bd b3 3b 10 3d e6 8c 83 bd da be 7e 3d
       -0.066267565 0.035213184 -0.064233586 0.06219373
000290 2a 90 20 bd 39 c0 13 be 6e 40 fb 3b fc a5 e3 bd
       -0.039199986 -0.14428796 0.0076675927 -0.111156434
0002a0 4f c2 ba bd 56 f8 d7 3d a0 09 36 3d 3d 37 d5 bd
       -0.09119093 0.10545413 0.044442773 -0.104109265
0002b0 f6 f3 33 bd 3d 7f 1c 3c f7 b2 e5 bd 01 66 42 bc
       -0.04393383 0.00955182 -0.112157755 -0.01186514
0002c0 d2 ee bc bd 65 ea 91 bd 5a 90 07 bd 06 c6 4f 3c
       -0.09225239 -0.07124785 -0.03309665 0.01268149
0002d0 73 6f 18 be 09 a7 50 bd c6 20 64 3d 5b d5 00 3e
       -0.14886265 -0.050940547 0.055695318 0.12581389
0002e0 ba 34 b4 bd 8a 64 94 3d bd 4e dc 3d bf ca f9 3d
       -0.08799119 0.07245739 0.10757206 0.12196874
0002f0 17 77 14 bd 62 f6 d7 3d f9 68 d1 3d fb e9 8a 3d
       -0.036246385 0.10545041 0.102251 0.067829095
000300 5d 87 95 bd bc 9a b8 3d 10 2a ab bd 90 d1 62 bc
       -0.07301209 0.09013888 -0.08357632 -0.013843909
000310 ae 95 92 3d 0e 09 a0 3d 4c 73 8c be 3f 78 b1 3d
       0.071574554 0.07814227 -0.27431715 0.08665513
000320 80 cd cd bd 66 93 41 bd 27 1c e5 3d 24 fb 67 be
       -0.10048962 -0.04725971 0.1118701 -0.22654396
000330 bd 4b 74 bc 4b 9c fd 3d 3d f5 ac 3d 35 ff a5 3d
       -0.014910636 0.12383326 0.08445213 0.081053175
000340 cb 9e c9 3d 29 c0 b4 bd b3 8d a4 3d 29 e7 b2 bd
       0.098447405 -0.08825714 0.080348395 -0.087354966
000350 31 35 ab 3c 82 34 60 3d bb d3 2b 3c d3 8a 68 bc
       0.020899387 0.054737575 0.010487492 -0.0141932545
000360 fd 1b 68 bd bc 4e 76 bc 2f 15 90 3d 72 e9 08 3e
       -0.056667317 -0.01503342 0.070352904 0.13370302
000370 bd 65 99 3d 48 ad ef 3d 29 2b 1f bd 28 44 70 bb
       0.07490108 0.11702973 -0.03885952 -0.0036661718
000380 0a 51 ec 3c f6 c4 27 bd 62 ea 0c 3d 72 5e cb 3d
       0.028847236 -0.04095932 0.034403212 0.099301234
000390 29 9a 0a bd fb fa 3a bd 42 dd 94 3d ba e9 d2 3d
       -0.033838425 -0.04564951 0.07268764 0.10298486
0003a0 27 80 62 bd 23 f7 9e bd fe fb eb 3d 22 ee 98 bb
       -0.055297997 -0.07761981 0.11522673 -0.0046670595
0003b0 23 aa 60 3b 09 a2 84 3d 00 3a 86 bd 50 81 06 3e
       0.0034281097 0.06476218 -0.06554031 0.13135266
0003c0 9e 24 89 3d 1a 48 ab 3d 67 6f cc 3d c4 d0 fe bd
       0.06696437 0.08363362 0.09982186 -0.12442163
0003d0 73 ec c8 3d 9c 80 27 3d 7a f9 ee bd 8f a2 f0 bd
       0.09810724 0.040894136 -0.11668678 -0.117497556
0003e0 e2 91 18 be 5d c9 72 bd fe 5f a8 bd 28 86 f9 3d
       -0.148994 -0.059274066 -0.08221434 0.121837914
0003f0 3b 59 f9 3c 78 e3 e2 bd 82 46 51 3d 86 3b d0 bd
       0.030438056 -0.110785425 0.051092632 -0.10167603

bias f4 [2]
000000 fe af f3 bc 28 65 69 3d
       -0.029747006 0.056981236

weight f4 [2, 128]
000000 45 3c 06 3d 24 b2 e5 bc 52 e8 14 bd 7b 87 a0 bd
       0.03277232 -0.028039046 -0.03635437 -0.07838341
000010 6f 29 81 bd 69 09 2c 3b 24 57 4b 3c 55 0e 39 3d
       -0.06306731 0.0026250726 0.012410913 0.045179684
000020 85 95 92 3d 07 f5 8c bd 6f 67 33 bd 0c 2d 48 3d
       0.07157425 -0.06882673 -0.043799814 0.048871085
000030 64 8d 84 bd eb 83 14 3c 67 71 9d bd 15 b8 67 3d
       -0.064722806 0.009064655 -0.076876454 0.05657204
000040 5d d1 8b 3d 64 62 9c bb e1 25 81 3d bf 65 8b bd
       0.06827042 -0.0047724713 0.06306053 -0.06806516
000050 a5 e5 b5 bc 26 7c 94 3d c4 2f 5f bd 71 64 67 bd
       -0.02220423 0.07250242 -0.054488912 -0.056492273
000060 c7 63 8a 3d dd 62 7b bc 73 37 8f bd 28 b1 93 3a
       0.06757312 -0.015343395 -0.06992998 0.0011268007
000070 d6 65 73 bc ea 25 24 bc 8b 7b 4e 3c d5 42 7d bd
       -0.014855823 -0.010018805 0.012602697 -0.061831314
000080 fe 72 11 bc ec c2 7e bd ae f0 57 3d ab a9 5d bd
       -0.008877514 -0.06219761 0.052719764 -0.054116886
000090 65 b3 00 bb 26 11 92 bc 75 0d 8c bc 82 a4 9b 3d
       -0.0019638177 -0.017830443 -0.01709626 0.07599737
0000a0 fd d4 a7 bb ca 85 2f 3d 00 27 b0 3c 05 52 bc 3c
       -0.0051218257 0.0428522 0.021502972 0.022988329
0000b0 6c d0 94 38 6e da 6c bd 74 46 99 3c 78 dc 50 bd
       7.0960115e-05 -0.0578255 0.018710352 -0.050991505
0000c0 6e 05 4f 3d 47 5f 22 3d 31 05 49 3c 6a 3a d7 3c
       0.050542288 0.039641645 0.012269304 0.026272971
0000d0 91 c1 07 bd cb 11 79 bd 53 d8 8e 3d 75 97 e9 3c
       -0.033143584 -0.060807984 0.06974854 0.028514603
0000e0 37 86 19 3d d8 c6 81 3d 94 6c 27 3c 04 c2 27 bd
       0.037481513 0.063367546 0.010218758 -0.040956512
0000f0 2d b4 58 3b 7e cc ba 3c 6e 37 8a bd 7c e6 24 3d
       0.0033066378 0.022802588 -0.067488536 0.04025887
000100 53 a5 54 3d 3d 6e 3a 3d 23 8f 8e 3d a6 60 5d 3d
       0.051915478 0.045515288 0.06960895 0.05404725
000110 8c 6e 7a 3c 25 c0 02 bd a0 a1 cf 3c 63 3a 29 bd
       0.0152851455 -0.031921525 0.025345623 -0.041315448
000120 14 81 6f bd bf 89 9b bc 88 cb 81 3d 76 03 77 3c
       -0.058472708 -0.01898658 0.06337649 0.015076509
000130 82 e4 53 bd 31 bd 50 bd ce 37 85 3d 2c 69 f0 bc
       -0.051731594 -0.050961677 0.065047845 -0.029347025
000140 ad 25 3c bd 48 2b e1 3c de 26 06 bd e6 6b 4f 3d
       -0.045934368 0.027486458 -0.03275191 0.05064001
000150 2d b8 82 bc 69 c4 09 bc a2 bb 0a bd fa 69 90 ba
       -0.015956962 -0.008408644 -0.033870347 -0.0011017912
000160 0b 1b 3f bd 28 16 93 3d ef 5c 2d bd 52 c7 a1 bc
       -0.04665665 0.0718196 -0.042324957 -0.019748364
000170 da 43 82 bd 75 22 32 bd 2c cf 2f 3d 89 25 ab 3d
       -0.06360598 -0.043489892 0.042922184 0.08356769
000180 98 76 38 3d 48 ec ec bc 3a 33 88 3c 61 33 9d 3d
       0.045034975 -0.028921261 0.01662599 0.076758154
000190 45 5f 20 bc 7f 51 ad 3c d3 92 2f bd a6 f9 97 3d
       -0.009788339 0.021157024 -0.04286463 0.074206635
0001a0 46 8f 45 bb 84 db 1d bd cb 59 9b 3b a5 dd 71 bd
       -0.0030145212 -0.038539425 0.0047409288 -0.059049267
0001b0 a2 51 81 bd fc ec 27 bd c0 17 6d bd d0 bc 72 3c
       -0.06314398 -0.04099749 -0.057883978 0.014815524
0001c0 11 1d 29 bd 65 e4 1e 3c 67 3d ff 3c 6f b1 a0 bb
       -0.041287486 0.009698008 0.031157209 -0.004903964
0001d0 6f 3c 91 3c a4 42 88 bd 64 f1 70 3d 3f ba 74 bd
       0.017729012 -0.06653336 0.058823958 -0.05974793
0001e0 63 f0 db bc b4 a5 ac 3c f0 14 ee 3c 93 1d 9b 3d
       -0.026848024 0.021075107 0.029062718 0.07574
0001f0 39 63 de bc 97 e1 dd bc 27 b8 4a bd 00 b9 a0 bd
       -0.027146922 -0.027085109 -0.049492028 -0.07847786
000200 57 16 2a 3d 51 29 46 bd c8 61 a7 bc e8 08 91 3d
       0.04152521 -0.048379246 -0.020432368 0.07081777
000210 4e f9 8b 3d 89 00 46 3d 4e 7d 4d bd cc a3 43 3d
       0.068346605 0.048340354 -0.050168328 0.04776363
000220 7e a0 c2 bb ae 39 80 3d 45 d6 83 3c cb ef 93 3d
       -0.0059395423 0.062610015 0.016093383 0.07223471
000230 a9 0c 21 3d 1f a4 94 3d c9 3a c2 bc e1 9a 80 3d
       0.039318714 0.07257866 -0.023709672 0.06279541
000240 50 c6 2e bd 42 f3 7a bd 42 a4 99 bc 3b e5 87 3d
       -0.042669594 -0.061267145 -0.018755082 0.06635519
000250 31 41 73 3c 96 f3 69 3d 34 cd 4f bd 5f 2a 17 bd
       0.014847086 0.057117067 -0.050732806 -0.036905643
000260 7b 76 af bd 52 6a ed bb 2f 75 ce 3b 06 81 3c bd
       -0.0856752 -0.0072453404 0.0063005905 -0.046021484
000270 88 ed d6 ba 8a f7 ab bc 2b 50 2a bb 40 cc 79 bd
       -0.0016397694 -0.02099206 -0.0025987725 -0.060985804
000280 18 df db 3c 43 46 9b 3c 21 56 a0 3c 9c bc 1d bd
       0.026839778 0.018954402 0.01957232 -0.03850995
000290 d1 1a 50 bc d1 b8 14 3d e0 a5 47 bc 48 eb 67 3c
       -0.012701706 0.036309067 -0.012185544 0.0141552165
0002a0 96 b8 83 bb 41 84 4b 3d b7 50 90 3d e5 3e 9e 3c
       -0.004019807 0.049686674 0.07046645 0.0193171
0002b0 1c c3 86 3d ae 63 45 3d c6 34 b1 3c 67 5d 48 bd
       0.06580183 0.048190765 0.02163161 -0.0489172
0002c0 c0 ee 81 bd a1 22 da 3c ac 22 ea 3b b3 b7 39 3d
       -0.06344366 0.02662784 0.0071452465 0.045341205
0002d0 51 d5 5c bb fa 5c 93 bd 49 74 34 bd 05 63 a0 bd
       -0.0033696482 -0.07195468 -0.04405621 -0.078313865
0002e0 72 3b 10 3d 26 97 82 3d 6c ab 80 3c 43 e9 ba 3c
       0.03521294 0.063764855 0.01570674 0.022816306
0002f0 fb 64 25 3b 5c 31 dc 3c 96 da 42 bd 42 87 88 bd
       0.002523719 0.026879005 -0.04757174 -0.066664234
000300 0a 52 80 bd 0e 5f e5 3c 99 02 2f bd 4f 41 6f 3c
       -0.06265648 0.027999427 -0.042727087 0.014602973
000310 e9 7b 53 3d 0f 40 91 bc 7e 0e ed 3c 7b b1 80 3c
       0.05163184 -0.01773074 0.028937574 0.01570963
000320 9e 1c fa bc af 4a 9d bd 4a 7c fa bc 60 6b f0 bc
       -0.030531224 -0.076802604 -0.030576844 -0.029348075
000330 59 e7 3d 3c 73 1b a1 bb 88 d2 85 ba e1 ca b2 3c
       0.011590802 -0.0049166023 -0.0010209838 0.021825256
000340 2c 7a 90 bd 69 4e 03 3d 6b be db bc bf 84 54 3d
       -0.070545524 0.0320572 -0.026824197 0.05188441
000350 19 bc 39 3d 9d c2 92 bc ad 90 9d bd 14 69 5f 3c
       0.0453454 -0.017915064 -0.0769361 0.013635892
000360 cc be 01 3d 71 d9 f5 3c 62 86 66 bd 14 d3 ec 3c
       0.0316761 0.03001091 -0.0562805 0.028909244
000370 e6 81 47 3d 1b b0 0f bd 8a ad ab 3c 26 24 76 3b
       0.048707865 -0.035080057 0.020956773 0.0037558167
000380 0b 8c 35 bc 88 ba 2d 3d 1e 70 8b 3d 4c 80 91 bd
       -0.011080752 0.04241422 0.06808494 -0.07104549
000390 50 55 7c bc 82 0f 2e bd f6 d6 94 3c 94 72 41 bd
       -0.015401199 -0.04249526 0.018168908 -0.04722841
0003a0 8a a3 a3 3c 59 3a 8c bc b5 d4 85 3d a2 ca fc bc
       0.019975442 -0.017117666 0.06534711 -0.030858342
0003b0 04 d9 b7 3c 96 26 91 3d c9 e7 bb 3b 48 81 7f 3d
       0.022442348 0.07087438 0.005734418 0.06237915
0003c0 ee 72 e9 bc 86 a2 3b bd 3c 44 8e 3d 2e 5c 69 bc
       -0.028497186 -0.04580929 0.069466084 -0.014243169
0003d0 42 0e e9 3b 34 b6 26 3c 88 73 17 bd 90 d7 b2 3c
       0.0071122954 0.010175277 -0.036975414 0.021831304
0003e0 81 26 03 bd 00 87 5c bd 64 be e2 ba 59 72 f9 bc
       -0.032019142 -0.053839684 -0.0017299172 -0.030450033
0003f0 b3 bd b4 bb 35 c4 e3 3c db 7e 59 3d 5b 42 96 bc
       -0.005515778 0.02780352 0.053099494 -0.018342188

bias f4 [2]
000000 96 c8 66 3c a9 f1 6a 3c
       0.014085909 0.014339843
