clone_data/marigold_episodes/marigold_clone_100ep_50trn_1000_expert_runs/marigold_clone_100ep_50trn_1000_expert_runs_s0/pyt_save/model.pt (torch, 104147 bytes, 9 tensors)

log_std f4 [2]
-0.5 -0.5
00000000: 0000 00bf 0000 00bf

weight f4 [128, 60]
0.018160125 -0.115054615 -0.10545859 -0.16415627 -0.18017764 0.32696587 0.10859734 0.3513644
0.06347676 0.07860904 0.01925469 -0.139881 -0.23961484 -0.5518871 -0.1659996 0.24093974
-0.1107199 -0.029276896 0.030315727 -0.024076901 -0.085622326 -0.1097757 0.034821704 0.15760386
-0.016757635 -0.13184921 -0.11753882 0.08402621 0.072180964 -0.063636936 0.18364707 0.091127284
0.0106659625 0.12162901 0.12360762 -0.10023877 0.06476366 0.03119196 0.28357854 0.021888271
0.11545005 0.05698731 -0.034643207 0.1299085 0.017835744 0.00120238 0.13021946 0.11918228
-0.046976715 -0.2679923 -0.017644381 0.033822343 0.06722544 0.0202576 0.119602785 0.053995322
0.17676322 0.050564438 0.057794515 -0.012441957 -0.05753827 0.009474525 -0.04205218 0.096369006
-0.22968328 -0.13867941 0.0747024 0.12666096 -0.0078121065 0.041428868 0.079876915 0.052712984
0.02409057 -0.2817817 -0.32982486 0.12624462 0.39675045 0.28964972 0.008881279 0.032371584
-0.037568092 -0.045264915 -0.035654124 0.01986736 0.05123022 -0.10718637 -0.08870255 -0.12793969
0.07738938 -0.100549035 0.02274666 -0.076055184 0.06433631 -0.08841083 -0.07155712 0.026135368
-0.119037114 0.10000086 0.08755053 0.17733742 -0.05226571 -0.195065 -0.01671489 0.049678855
0.14813 -0.024193646 -0.17682515 -0.08284529 -0.121500924 0.019785628 0.059478037 -0.084052436
0.04375564 0.18437022 0.18498592 0.011925278 -0.14715612 -0.09930616 0.029032225 -0.048733756
0.0487897 -0.11341432 -0.038452663 0.07140188 0.31893843 0.00393182 -0.12668298 -0.12851253
-0.13682294 -0.0069332332 -0.0012946964 0.10685554 0.14897668 0.10702142 0.12801456 -0.34303412
-0.21946916 -0.13445866 -0.091443285 0.12597822 -0.07412643 -0.13839209 -0.03957288 -0.008334518
-0.10668337 -0.06395149 0.008610572 0.25642693 0.08960748 0.09519757 0.108833835 0.06630261
0.13033462 -0.067749 0.001652333 -0.055614628 -0.021145672 0.056018416 -0.024997346 0.052107546
-0.075678095 0.007834168 -0.2099746 -0.15751013 0.042214707 -0.018365856 0.12416701 0.07561403
-0.24327692 -0.24109384 -0.021790592 0.35289437 0.21890454 -0.1165039 -0.030822944 0.07140828
0.07035897 -0.18530633 -0.02115569 0.008612485 -0.12729323 -0.09260516 -0.09027575 0.07324553
-0.1423686 0.21311764 0.016198168 0.19032921 0.04290693 -0.0055640764 0.17281881 -0.15117046
-0.21894687 -0.5381992 -0.34429646 -0.2163279 0.19108455 0.10335601 0.08276568 0.06034044
0.05550543 0.030897267 0.08487789 -0.009318403 0.027798563 -0.05061905 0.16235423 0.15151976
0.098891534 0.02125305 -0.014022081 -0.12258062 -0.03973192 0.061869185 -0.11732086 -0.08069403
-0.08620666 0.03167398 0.05942827 0.22225076 -0.11515528 -0.18822077 0.111446336 0.25337473
0.22217067 -0.029612886 -0.11934651 0.18490985 -0.007955576 -0.21994051 -0.30819803 -0.03541287
0.09339731 0.04975054 0.057143502 0.13773595 0.18217248 -0.044699203 -0.0455141 0.036007732
0.024562363 -0.0051580914 0.0532739 0.07131408 -0.07342841 -0.1494578 0.02498081 0.051865075
0.10560702 -0.021314103 -0.008159878 -0.055081327 -0.11901309 -0.1742346 -0.028874913 0.18772437
00000000: 8bc4 943c c1a1 ebbd acfa d7bd 9518 28be
00000010: 7d80 38be 1268 a73e 4868 de3d 09e6 b33e
00000020: 1b00 823d c7fd a03d 03bc 9d3c f73c 0fbe
00000030: 985d 75be 7948 0dbf cdfb 29be e8b8 763e
00000040: 1dc1 e2bd 1ad6 efbc b058 f83c ec3c c5bc
00000050: c25a afbd 15d2 e0bd 34a1 0e3d e862 213e
00000060: 4f47 89bc 7b03 07be 31b8 f0bd ef15 ac3d
00000070: 9dd3 933d 1554 82bd fa0d 3c3e f1a0 ba3d
00000080: 4ac0 2e3c a118 f93d fe25 fd3d fc49 cdbd
00000090: cfa2 843d 4886 ff3c 3531 913e 084f b33c
000000a0: 1371 ec3d 876b 693d 09e6 0dbd bc06 053e
000000b0: 441c 923c 2e99 9d3a 4058 053e d715 f43d
000000c0: a86a 40bd 4936 89be f38a 90bc 4c89 0a3d
000000d0: 7ead 893d 44f3 a53c 4ef2 f43d 332a 5d3d
000000e0: 6b01 353e a81c 4f3d f1b9 6c3d 5ad9 4bbc
000000f0: 40ad 6bbd 0a3b 1b3c e83e 2cbd 1d5d c53d
00000100: 1832 6bbe fa01 0ebe 92fd 983d 69b3 013e
00000110: b3fc ffbb 51b1 293d 8296 a33d 92e9 573d
00000120: 9659 c53c b145 90be cede a8be 4546 013e
00000130: e022 cb3e f84c 943e c982 113c 1198 043d
00000140: 00e1 19bd b467 39bd 0f0a 12bd e0c0 a23c
00000150: c7d6 513d 8784 dbbd afa9 b5bd 9f02 03be
00000160: 537e 9e3d a7ec cdbd 3457 ba3c d2c2 9bbd
00000170: c1c2 833d bd10 b5bd 8a8c 92bd d719 d63c
00000180: bbc9 f3bd 40cd cc3d b14d b33d f197 353e
00000190: 9214 56bd 1fbf 47be aaed 88bc 0e7c 4b3d
000001a0: 64af 173e c131 c6bc a711 35be cbaa a9bd
000001b0: 7ad5 f8bd 7815 a23c 3e9f 733d af23 acbd
000001c0: 1d39 333d 8ccb 3c3e f36c 3d3e 3e62 433c
000001d0: 18b0 16be 0761 cbbd fdd4 ed3c 0c9d 47bd
000001e0: b5d7 473d c445 e8bd 8a80 1dbd 263b 923d
000001f0: e64b a33e 7fd6 803b 2fb9 01be ca98 03be
00000200: 501b 0cbe 2d30 e3bb cdb2 a9ba 14d7 da3d
00000210: 588d 183e 0c2e db3d 4016 033e 2ba2 afbe
00000220: 86bc 60be 88af 09be 9e46 bbbd 6f00 013e
00000230: 99cf 97bd a8b6 0dbe 2c17 22bd 818d 08bc
00000240: d07c dabd 00f9 82bd 5b13 0d3c 644a 833e
00000250: 2084 b73d f2f6 c23d 46e4 de3d aac9 873d
00000260: 7076 053e fdbf 8abd 1893 d83a 2acc 63bd
00000270: b039 adbc 9173 653d 3cc7 ccbc b96e 553d
00000280: 1efd 9abd e25a 003c 9503 57be 564a 21be
00000290: 54e9 2c3d fe73 96bc 464b fe3d 87db 9a3d
000002a0: 961d 79be 4ee1 76be 2f82 b2bc 92ae b43e
000002b0: 8328 603e 9999 eebd 6680 fcbc 813e 923d
000002c0: 5d18 903d f1c0 3dbe b34e adbc 611b 0d3c
000002d0: 2859 02be c6a7 bdbd 7ee2 b8bd c101 963d
000002e0: 13c9 11be 833b 5a3e 05b2 843c a9e5 423e
000002f0: 2dbf 2f3d db52 b6bb 6af7 303e 6ecc 1abe
00000300: 9c33 60be 6cc7 09bf a047 b0be 1085 5dbe
00000310: abab 433e 51ac d33d 0e81 a93d 8a27 773d
00000320: a959 633d 441c fd3c 76d4 ad3d 37ac 18bc
00000330: d0b9 e33c ec55 4fbd 3040 263e ff27 1b3e
00000340: a587 ca3d e01a ae3c dfbc 65bc 8c0b fbbd
00000350: f0bd 22bd 8b6a 7d3d eb45 f0bd e942 a5bd
00000360: 1e8d b0bd 93bc 013d 0f6b 733d b495 633e
00000370: 88d6 ebbd f2bc 40be fa3d e43d 55ba 813e
00000380: b580 633e b996 f2bc f16b f4bd 0259 3d3e
00000390: 1b58 02bc 1638 61be 22cc 9dbe 160d 11bd
000003a0: 1747 bf3d 39c7 4b3d 4e0f 6a3d a70a 0d3e
000003b0: 6c8b 3a3e 8316 37bd fe6c 3abd d87c 133d
000003c0: 0237 c93c 3505 a9bb bc35 5a3d 1e0d 923d
000003d0: a261 96bd 770b 19be 8ea4 cc3c 7970 543d
000003e0: 7e48 d83d ea9a aebc 02b1 05bc f59c 61bd
000003f0: 23bd f3bd 8e6a 32be 158b ecbc d13a 403e

bias f4 [128]
0.0022059828 -0.11941562 0.08550435 0.10629577 0.11680526 0.06413781 -0.06100324 0.10575419
-0.12472615 -0.01245218 -0.13731626 -0.018515823 -0.10171638 -0.03812509 0.08726914 0.14035754
0.045340464 -0.11639609 -0.043864336 -0.009479345 0.12864712 0.10004184 0.13908277 -0.028037533
-0.062009003 -0.12696265 0.015988186 0.06366727 -0.03746893 -0.11632939 -0.03444809 -0.06298049
0.1586255 -0.048733905 -0.08241927 -0.07001596 -0.016459309 0.021734845 0.06635567 0.014302711
0.11091063 0.085284114 -0.074939065 0.118226506 0.045823697 -0.045464024 0.0021639564 0.082449995
-0.04941192 -0.054506432 0.10968989 -0.024828758 -0.089661986 0.096197285 -0.044591494 -0.084566824
-0.006455127 -0.03563525 -0.115615085 -0.02586031 -0.10493508 0.083796 -0.05128407 -0.11273765
0.09811044 -0.056526493 -0.021414459 -0.073699534 0.055841938 0.028215816 -0.09074654 0.028538425
0.019654585 -0.06666662 -0.06951902 -0.01871547 0.1129584 -0.048671488 -0.0062910267 0.021748794
0.11480176 0.15205899 -0.0113856215 0.12883942 0.10307041 -0.11414947 0.049396493 -0.017038561
-0.00090462284 0.07387298 0.03731421 0.05956113 -0.105547495 -0.056808952 -0.057697766 -0.073099084
0.038650032 0.01253764 0.010344818 -0.08364844 0.0043090074 -0.03192964 -0.06585569 -0.104734026
0.0317284 -0.03962432 0.12459326 0.0932078 -0.080829166 -0.13082671 0.112525254 0.013128681
0.14622451 -0.059369143 -0.08442529 0.079460464 -0.05453418 -0.09963293 0.01719422 -0.016491614
-0.120212436 -0.03613843 0.0629223 -0.13704525 -0.09437871 -0.070539795 -0.01147935 0.0180518
00000000: 4092 103b 2d90 f4bd e81c af3d 99b1 d93d
00000010: 9937 ef3d af5a 833d 89de 79bd a795 d83d
00000020: 6c70 ffbd 3a04 4cbc a29c 0cbe 7fae 97bc
00000030: ad50 d0bd 0e29 1cbd 2aba b23d e3b9 0f3e
00000040: ecb6 393d 1361 eebd 17ab 33bd 414f 1bbc
00000050: 12bc 033e bce2 cc3d b76b 0e3e f8ae e5bc
00000060: 27fd 7dbd 7f02 02be a8f9 823c fc63 823d
00000070: 0579 19bd 1a3e eebd 7119 0dbd eafb 80bd
00000080: b96e 223e 349d 47bd 6fcb a8bd 8764 8fbd
00000090: acd5 86bc 460d b23c 7be5 873d eb55 6a3c
000000a0: 1d25 e33d 70a9 ae3d a779 99bd bd20 f23d
000000b0: a1b1 3b3d 7c38 3abd 2ad1 0d3b 8bdb a83d
000000c0: 2764 4abd 2342 5fbd 18a5 e03d ae65 cbbc
000000d0: b4a0 b7bd 1503 c53d 92a5 36bd 5f31 adbd
000000e0: 8885 d3bb 45f6 11bd 9ac7 ecbd 00d9 d3bc
000000f0: 34e8 d6bd 3d9d ab3d 3f0f 52bd ffe2 e6bd
00000100: 20ee c83d 5388 67bd 606d afbc c8ef 96bd
00000110: 84ba 643d db24 e73c 52d9 b9bd 6ac9 e93c
00000120: a702 a13c 8288 88bd fd5f 8ebd 2f51 99bc
00000130: bc56 e73d c15b 47bd f524 cebb 872a b23c
00000140: 2f1d eb3d 5ab5 1b3e c28a 3abc 7bee 033e
00000150: 9416 d33d 33c7 e9bd fa53 4a3d 7494 8bbc
00000160: 3624 6dba b84a 973d c9d6 183d 5ff6 733d
00000170: 4929 d8bd 81b0 68bd 7e54 6cbd f9b4 95bd
00000180: 7f4f 1e3d ac6a 4d3c 507d 293c e04f abbd
00000190: 9332 8d3b a7c8 02bd 59df 86bd cb7e d6bd
000001a0: a4f5 013d 1c4d 22bd c02a ff3d bbe3 be3d
000001b0: c389 a5bd 70f7 05be a473 e63d ae19 573c
000001c0: e1bb 153e 0f2d 73bd 2be7 acbd 2bbc a23d
000001d0: 3b5f 5fbd 590c ccbd e5da 8c3c 6c19 87bc
000001e0: f031 f6bd e405 14bd 68dd 803d 9755 0cbe
000001f0: a049 c1bd 2b77 90bd e213 3cbc 5ee1 933c

weight f4 [128, 128]
0.07072089 0.07195198 0.15707475 -0.08452901 0.053918477 -0.018940272 -0.009099543 -0.115367934
0.022447241 -0.020909714 -0.035866305 0.037018258 -0.06736283 0.1670881 0.058473375 -0.08678231
-0.12772295 -0.0073496867 -0.013735976 -2.6968191e-05 -0.037345 -0.051450443 -0.12860149 -0.08345103
0.013853499 0.040515944 0.028168468 0.019841904 -0.062916316 0.06601251 -0.023393542 0.05017534
0.0051378985 -0.053825743 -0.14775753 0.05946834 0.054976307 0.020268438 0.058713548 -0.0798576
0.046432685 -0.030872332 -0.10597269 0.03914904 -0.023967661 -0.11923301 -0.025365122 -0.026684884
-0.11226968 -0.073174335 0.029766683 -0.022450933 -0.010909761 -0.12203783 -0.0077257003 -0.027078902
-0.009415449 0.06765421 0.035640415 -0.12760465 -0.010694755 -0.03918389 0.07877701 0.0034219602
-0.052674275 0.041968055 0.010461334 0.03426292 0.09670924 0.012101549 0.005211384 -0.03549969
0.06816743 0.013415828 0.0063648345 0.06651984 0.006229297 0.037847225 -0.023047863 0.002556282
-0.017361242 -0.03883624 -0.11772102 0.09332755 0.17719072 -0.08638975 -0.062817484 0.0036037283
-0.046700954 0.012719829 -0.008881397 0.0038582718 0.1145992 -0.012846208 0.0645867 -0.11577693
-0.10443395 0.06502767 0.048579812 -0.076740265 -0.060521945 0.022312004 0.0068637887 -0.045101315
-0.02036338 0.056856565 -0.07024627 -0.039346363 -0.023994144 0.07108151 -0.12764676 0.0763675
0.042739403 0.013957681 -0.11547457 -0.007735537 0.06612884 0.05309957 -0.031597257 -0.034493685
-0.055370543 0.0042017507 -0.09480055 0.008379633 0.008465719 0.083273314 -0.07982662 -0.061316356
0.124259815 0.07240636 -0.0606655 0.07864077 -0.03130566 -0.062246796 -0.09435987 -0.04006913
-0.025962241 0.020840183 -0.031723823 -0.057697855 -0.0017611408 0.08928462 -0.08782927 -0.0749702
0.091669455 -0.09159164 -0.08894291 0.0071529993 -0.09725142 -0.056583043 -0.032459203 0.024593411
0.039107632 -0.07305349 0.015818313 0.047551036 -0.022748306 -0.05560044 0.04062321 -0.07427636
0.0671665 -0.03792028 0.012741462 0.020396857 0.013536194 0.061108436 0.06502235 0.072983876
0.02355003 -0.062921494 0.056092646 0.056801584 0.01097587 -0.046584602 -0.075143054 -0.07283365
-0.017080246 -0.0028545698 0.04028626 -0.035746507 0.06517995 0.07210805 0.04075185 -0.04785937
0.047177467 0.053229656 -0.026354782 0.035496328 -0.08024563 -0.014509872 -0.008070737 -0.08236445
-0.00014757062 0.032488383 -0.024002975 -0.036929235 0.05115736 0.0055443547 -0.05770343 -0.0059739295
-0.08014732 -0.016384644 -0.07101214 0.039859004 0.031089898 -0.10060826 0.010272487 -0.012101564
0.065233745 -0.03122317 -0.061548676 0.050471287 -0.025015604 0.022508282 -0.06614691 -0.0014493869
-0.09640453 -0.046641093 0.073986635 -0.07647367 0.056637768 -0.100406945 -0.06344048 -0.03243074
-0.071795546 0.0016510487 -0.059749175 -0.0065293005 0.0048604785 -0.045278076 -0.07232719 -0.06007309
0.021341557 0.02092615 0.027034106 -0.11109725 -0.050049763 -0.033656426 0.011485782 -0.05034525
0.017871935 -0.023768626 -0.045767047 -0.10240693 -0.015686832 -0.09817589 0.05302578 0.046539277
-0.05193898 -0.07499314 0.0018960327 0.070351765 -0.03522357 -0.10534947 -0.088729136 0.029385658
00000000: 1dd6 903d 8f5b 933d 34d8 203e 8c1d adbd
00000010: 9fd9 5c3d a128 9bbc 4016 15bc 0646 ecbd
00000020: 47e3 b73c d94a abbc 8ce8 12bd 75a0 173d
00000030: 86f5 89bd 2519 2b3e c781 6f3d ecba b1bd
00000040: cec9 02be a4d5 f0bb dc0c 61bc c039 e2b7
00000050: 12f7 18bd b3bd 52bd 1cb0 03be 60e8 aabd
00000060: c9f9 623c 0cf4 253d 8fc1 e63c 7d8b a23c
00000070: 45da 80bd 9131 873d d0a3 bfbc a884 4d3d
00000080: d15b a83b 6278 5cbd c04d 17be 1395 733d
00000090: d62e 613d ff09 a63c 9e7d 703d 628c a3bd
000000a0: 3330 3e3d f9e7 fcbc 3608 d9bd be5a 203d
000000b0: d457 c4bc 7030 f4bd 84ca cfbc 429a dabc
000000c0: a5ed e5bd 6ddc 95bd 42d9 f33c 05eb b7bc
000000d0: dbbe 32bc f8ee f9bd df27 fdbb 93d4 ddbc
000000e0: 4143 1abc 4a8e 8a3d affb 113d cbaa 02be
000000f0: 0e39 2fbc 497f 20bd d755 a13d f742 603b
00000100: fbc0 57bd b2e6 2b3d 0466 2b3c 4757 0c3d
00000110: 7e0f c63d 9345 463c 42c4 aa3b 1f68 11bd
00000120: 5e9b 8b3d 10ce 5b3c 1a90 d03b 8e3b 883d
00000130: 211f cc3b b105 1b3d dfce bcbc 4c87 273b
00000140: 2a39 8ebc c012 1fbd b817 f1bd 8422 bf3d
00000150: 7c71 353e 1ced b0bd 74a6 80bd 872c 6c3b
00000160: 8049 3fbd d466 503c 4783 11bc 0fdb 7c3b
00000170: fcb2 ea3d e778 52bc 0846 843d 741c edbd
00000180: 77e1 d5bd 3a2d 853d a0fb 463d 002a 9dbd
00000190: dce5 77bd aac7 b63c a2e9 e03b 28bc 38bd
000001a0: 1ad1 a6bc 6ee2 683d 47dd 8fbd a729 21bd
000001b0: 5e8f c4bc 2f93 913d d5b5 02be 9066 9c3d
000001c0: 830f 2f3d c2ae 643c ee7d ecbd 637a fdbb
000001d0: 8f6e 873d ef7e 593d 206c 01bd 4049 0dbd
000001e0: 39cc 62bd d7ae 893b ca26 c2bd ba4a 093c
000001f0: cdb3 0a3c 338b aa3d 247c a3bd dc26 7bbd
00000200: ee7b fe3d c949 943d 637c 78bd 690e a13d
00000210: 5d3a 00bd 7ff6 7ebd bf3f c1bd 871f 24bd
00000220: c4ae d4bc 08b9 aa3c d7f0 01bd 9654 6cbd
00000230: 14d6 e6ba dbda b63d d5df b3bd fa89 99bd
00000240: 32bd bb3d 6694 bbbd b327 b6bd b563 ea3b
00000250: c12b c7bd 9fc3 67bd f1f3 04bd 1f78 c93c
00000260: 532f 203d 119d 95bd 6895 813c e0c4 423d
00000270: a85a babc 49bd 63bd 8664 263d 341e 98bd
00000280: 978e 893d 4c52 1bbd 91c1 503c 4f17 a73c
00000290: eac6 5d3c d74c 7a3d 702a 853d 9278 953d
000002a0: feeb c03c fcdc 80bd 67c1 653d c7a8 683d
000002b0: 23d4 333c 7fcf 3ebd 9ae4 99bd cf29 95bd
000002c0: dfeb 8bbc bc13 3bbb 3503 253d ee6a 12bd
000002d0: 117d 853d 63ad 933d 69eb 263d 3008 44bd
000002e0: 293d 413d 5707 5a3d fce5 d7bc 9964 113d
000002f0: d257 a4bd d0ba 6dbc 203b 04bc b1ae a8bd
00000300: 30bd 1ab9 8a12 053d e3a1 c4bc 1c43 17bd
00000310: 618a 513d 6bad b53b 6f5a 6cbd f4c0 c3bb
00000320: 4724 a4bd 1739 86bc d06e 91bd 3243 233d
00000330: 3eb0 fe3c b40b cebd ef4d 283c a345 46bc
00000340: 4599 853d bcc7 ffbc 771a 7cbd fbba 4e3d
00000350: 86ed ccbc 4a63 b83c 0878 87bd 5bf9 bdba
00000360: bd6f c5bd bb0a 3fbd 4e86 973d 3a9e 9cbd
00000370: 01fd 673d 28a2 cdbd 15ed 81bd 18d6 04bd
00000380: 8b09 93bd 0068 d83a 8dbb 74bd bef3 d5bb
00000390: a644 9f3b 8175 39bd 4720 94bd 330f 76bd
000003a0: 7dd4 ae3c 516d ab3c a176 dd3c f486 e3bd
000003b0: fb00 4dbd 52db 09bd dd2e 3c3c d236 4ebd
000003c0: 2a68 923c 6cb6 c2bc 3a76 3bbd b9ba d1bd
000003d0: ac81 80bc 7110 c9bd 8f31 593d f89f 3e3d
000003e0: f8bd 54bd 0196 99bd 4d84 f83a 9614 903d
000003f0: 9746 10bd 77c1 d7bd 9fb7 b5bd 31ba f03c

bias f4 [128]
-0.08040302 0.0002487337 -0.016212706 0.043652676 -0.06501176 0.044459548 -0.030823622 -0.030654896
0.029503025 -0.05947378 -0.06158951 -0.04972788 0.05560371 -0.00988936 -0.08145684 0.037432976
0.09163297 -0.07218567 0.06514833 0.03055536 -0.030094536 -0.059300624 -0.02676612 0.057035796
-0.070912346 -0.007068667 -0.048722014 0.010455742 0.010562356 -0.054152824 0.019031573 -0.03563512
0.060197707 -0.034808278 0.06497668 -0.014699419 0.045697868 0.0749258 -0.066796675 -0.03514505
-0.05391447 0.04924636 0.0656672 -0.038861945 0.10449839 -0.026367733 0.038548887 -0.079085514
0.0930426 -0.05698033 0.0975221 -0.04081552 0.03309134 0.009658351 -0.048614513 0.012002694
0.017755255 0.0053221155 0.042061534 0.07432905 0.03926197 0.09306939 0.008288058 -0.03207651
-0.055942725 -0.027640939 -0.03875525 -0.017405074 0.039143603 -0.023055356 -0.019471454 0.04407962
-0.0053861346 0.046589613 0.044910304 -0.084047146 -0.020265779 0.053433586 0.0351898 -0.016852893
-0.0635918 0.0026985407 -0.08357732 0.04598362 -0.030477531 0.07017765 0.06836441 0.0063406094
0.057240408 0.068766624 0.008115721 0.044576667 -0.059218545 -0.0051181377 0.0050540334 0.038502503
-0.050479576 -0.061273087 -0.0732252 -0.0064322585 -0.03604791 -0.071699366 -0.024344794 0.086915456
-0.08313168 0.044476822 -0.09219609 0.048379168 -0.0043088156 -0.027842147 -0.02119402 -0.07572284
-0.061562434 -0.08625907 0.015098851 0.053996816 -0.02695343 0.07009469 0.060950775 0.050709486
0.08375535 -0.06273705 0.07074461 0.05164045 -0.0644918 -0.03129788 -0.06551513 -0.025889942
00000000: 57aa a4bd 7968 8239 82d0 84bc 26cd 323d
00000010: e324 85bd 371b 363d d281 fcbc fa1f fbbc
00000020: 54b0 f13c c79a 73bd 4845 7cbd 76af 4bbd
00000030: b7c0 633d fb06 22bc d8d2 a6bd 5253 193d
00000040: 11aa bb3d 15d6 93bd 7d6c 853d 3c4f fa3c
00000050: d188 f6bc 36e5 72bd 9f44 dbbc 5e9e 693d
00000060: 7e3a 91bd 47a0 e7bb bc90 47bd 8f4e 2b3c
00000070: bb0d 2d3c 5acf 5dbd 1ae8 9b3c 22f6 11bd
00000080: df91 763d 2093 0ebd 7e12 853d d5d5 70bc
00000090: b02d 3b3d b372 993d b2cc 88bd 42f4 0fbd
000000a0: 6bd5 5cbd 8db6 493d 867c 863d b42d 1fbd
000000b0: 4003 d63d 2501 d8bc 70e5 1d3d 96f7 a1bd
000000c0: 1e8d be3d 3564 69bd abb9 c73d 2d2e 27bd
000000d0: c98a 073d 0f3e 1e3c 0320 47bd f3a6 443c
000000e0: 7873 913c 2465 ae3b b748 2c3d d439 983d
000000f0: 29d1 203d 2a9b be3d a3ca 073c a962 03bd
00000100: 3324 65bd 406f e2bc d3bd 1ebd 1695 8ebc
00000110: 0b55 203d 96de bcbc 9982 9fbc d58c 343d
00000120: 2c7e b0bb c0d4 3e3d def3 373d e920 acbd
00000130: 6b04 a6bc 2ddd 5a3d 2e23 103d 140f 8abc
00000140: 6b3c 82bd 00da 303b 962a abbd 5259 3c3d
00000150: 04ac f9bc 4db9 8f3d a402 8c3d e3c4 cf3b
00000160: eb74 6a3d 84d5 8c3d cdf7 043c 0696 363d
00000170: 258f 72bd 0db6 a7bb 4e9c a53b cdb4 1d3d
00000180: acc3 4ebd 7df9 7abd 18f7 95bd b2c5 d2bb
00000190: f9a6 13bd 1ed7 92bd bc6e c7bc bb00 b23d
000001a0: f140 aabd 542d 363d 4ed1 bcbd 3c29 463d
000001b0: f730 8dbb 3715 e4bc 159f adbc 9414 9bbd
000001c0: e428 7cbd 98a8 b0bd 2c61 773c c42b 5d3d
000001d0: 71cd dcbc ce8d 8f3d 85a7 793d c0b4 4f3d
000001e0: ed87 ab3d 487c 80bd 8de2 903d f084 533d
000001f0: 4714 84bd 3532 00bd cc2c 86bd 2517 d4bc

weight f4 [2, 128]
-0.055471957 0.015957799 -0.082071096 0.13445601 -0.037510306 -0.103587694 0.10906903 0.056694444
-0.050080005 -0.011069787 -0.101756796 0.16164334 -0.0013598409 -0.13704689 -0.16968368 0.0658959
-0.11987478 0.08700631 -0.035073463 0.026233718 -0.05789536 -0.24262033 0.06588313 0.016008083
-0.012326266 -0.063890055 -0.015651558 0.0623076 -0.024473062 0.07333682 0.0006619669 -0.03599059
-0.073840074 -0.006106858 0.0129138855 0.12569934 -0.07002906 -0.118929684 0.032691773 -0.0235169
-0.011934658 0.06730231 -0.04415244 -0.060489863 -0.08522573 0.08980528 0.043499842 -0.017159248
-0.1829978 -0.031024627 0.14334545 -0.1495501 0.100786634 0.060897745 -0.00028751092 0.084692195
0.058249485 -0.07483345 -0.14039056 -0.043778565 0.10879637 0.0045762677 -0.10627728 -0.0999276
-0.14922684 -0.036660936 -0.11661496 0.014140827 0.020249823 0.064922266 0.18690652 -0.06089241
0.14016983 0.06874422 0.06931308 -0.008184106 0.124154 0.06996429 -0.01931146 -0.057972815
-0.117943764 0.0077930437 -0.060196325 -0.09632901 -0.03749265 0.019992648 0.140842 0.029408177
0.00023836036 -0.05892562 0.13752663 -0.00056281156 -0.0586157 -0.11783936 -0.08727956 -0.06975731
-0.0028766303 -0.03614053 -0.14970188 -0.021297779 -0.07492937 -0.033776447 0.03648197 -0.043227483
0.027731014 0.018490423 0.06634362 0.10693372 -0.053551957 0.13002773 0.09037181 -0.14053518
-0.099707365 -0.009061696 0.08921496 0.02480085 -0.007875339 0.0006110851 -0.10358597 0.00926462
-0.123559564 -0.042845484 0.013588047 0.023005558 -0.06679764 0.19361913 -0.117072135 0.026276253
0.10292877 -0.02488498 0.13307711 -0.010009677 -0.029883875 0.10183797 -0.04502493 0.030484177
0.043228723 -0.1517426 0.09205286 0.057786502 0.016771894 0.0068561053 0.15548731 -4.7428366e-05
-0.118342 0.1110884 0.10477463 0.1431909 -0.00047332828 0.12734345 -0.17065655 -0.22513238
0.010597228 -0.11401099 0.01715013 0.06759648 0.097704 0.08746964 -0.032052137 0.07021488
-0.00425059 0.06902299 0.022855919 -0.1420639 0.020907333 0.08696606 0.0701654 -0.024959944
-0.09051584 0.028511668 0.05631434 -0.024588553 -0.089116365 0.068649314 0.030641088 -0.19777146
-0.16192055 0.12185542 0.050748404 0.038272794 -0.04357001 0.0717755 0.011548282 -0.008039904
0.014051681 0.111120455 -0.037618116 0.0015918849 0.12106104 0.076119326 -0.030640895 0.044858806
0.08030542 0.11987982 -0.084882975 -0.10566442 -0.073759615 0.07004356 -0.13548914 0.026472706
-0.09098182 -0.08527141 -0.04753141 -0.053949002 0.12661697 -0.12933062 0.093846954 0.05417798
-0.009986579 -0.02518256 0.055199843 0.030104812 -0.0047760876 -0.027268233 -0.12117511 0.08834611
-0.1020194 0.0896274 0.007980228 0.08155945 0.064699344 0.14688386 -0.061881572 -0.115226954
-0.0890215 0.01869713 -0.10581699 0.10204234 0.059326872 -0.043324865 -0.02975995 -0.092358164
0.012327083 -0.10256945 -0.14402048 0.04522581 -0.08209196 0.11667824 0.09383924 -0.06520441
-0.09896707 -0.055766482 0.027168337 -0.025315832 0.0570693 0.16572875 -0.11652088 -0.07855967
0.09280482 0.116984345 -0.02376448 0.013747225 0.054013167 0.12774535 -0.17667776 -0.15459046
00000000: 9036 63bd eeb9 823c e414 a8bd d6ae 093e
00000010: 68a4 19bd c925 d4bd 955f df3d 6f38 683d
00000020: b120 4dbd 0d5e 35bc de65 d0bd d585 253e
00000030: b03c b2ba 0556 0cbe 8fc1 2dbe 6ef4 863d
00000040: e980 f5bd 5d30 b23d 31a9 0fbd 18e8 d63c
00000050: af23 6dbd 7771 78be bced 863d 6223 833c
00000060: 1bf4 49bc cad8 82bd b237 80bc 4136 7f3d
00000070: bb7b c8bc 9d31 963d d987 2d3a de6a 13bd
00000080: 7739 97bd 0a1c c8bb c394 533c 54b7 003e
00000090: 656b 8fbd 6891 f3bd cfe7 053d 84a6 c0bc
000000a0: 9589 43bc cbd5 893d 30d9 34bd 38c4 77bd
000000b0: d48a aebd d5eb b73d e42c 323d 8d91 8cbc
000000c0: c663 3bbe 5c27 febc 26c9 123e a923 19be
000000d0: 3969 ce3d ea6f 793d 10bd 96b9 1a73 ad3d
000000e0: 0397 6e3d 4842 99bd 8bc2 0fbe 2751 33bd
000000f0: a2d0 de3d 84f4 953b e7a7 d9bd d7a6 ccbd
00000100: ecce 18be c729 16bd d3d3 eebd edae 673c
00000110: f5e2 a53c f7f5 843d 6c64 3f3e 526a 79bd
00000120: ae88 0f3e c5c9 8c3d 04f4 8d3d a116 06bc
00000130: 7444 fe3d 7049 8f3d 1133 9ebc e774 6dbd
00000140: 808c f1bd ca5c ff3b 6c90 76bd 2548 c5bd
00000150: e591 19bd 9fc7 a33c e338 103e 6be9 f03c
00000160: 5ff0 7939 fe5b 71bd c8d3 0c3e a589 13ba
00000170: 0417 70bd c355 f1bd a0bf b2bd ecdc 8ebd
00000180: d985 3cbb 1808 14bd 734b 19be ae78 aebc
00000190: 9274 99bd 2c59 0abd 1e6e 153d 4d0f 31bd
000001a0: 272c e33c 3a79 973c 2adf 873d 1100 db3d
000001b0: 4c59 5bbd fd25 053e db14 b93d 74e8 0fbe
000001c0: 6033 ccbd 8277 14bc 55b6 b63d 272b cb3c
000001d0: 9107 01bc 3a31 203a e224 d4bd a2ca 173c
000001e0: cc0c fdbd bf7e 2fbd 66a0 5e3c 2776 bc3c
000001f0: 33cd 88bd 1844 463e 84c3 efbd 4c41 d73c
00000200: 52cc d23d 96db cbbc 5e45 083e a1ff 23bc
00000210: 07cf f4bc 6d90 d03d 106c 38bd f4b9 f93c
00000220: 9a10 313d 6a62 1bbe 3686 bc3d 8ab1 6c3d
00000230: 3665 893c 2ea9 e03b 1138 1f3e d2ed 46b8
00000240: 4a5d f2bd 5182 e33d 1594 d63d a3a0 123e
00000250: 0c29 f8b9 5266 023e 97c0 2ebe 1a89 66be
00000260: ff9f 2d3c 987e e9bd 6e7e 8c3c 0670 8a3d
00000270: 0919 c83d 4823 b33d 1a49 03bd d2cc 8f3d
00000280: 8948 8bbb ed5b 8d3d 563c bb3c 3379 11be
00000290: db45 ab3c 431b b23d e1b2 8f3d cc78 ccbc
000002a0: 5e60 b9bd 4d91 e93c dea9 663d ef6d c9bc
000002b0: a482 b6bd 0398 8c3d 0503 fb3c 9a84 4abe
000002c0: 80ce 25be 568f f93d 8fdd 4f3d efc3 1c3d
000002d0: 7876 32bd 09ff 923d 0135 3d3c cdb9 03bc
000002e0: 0639 663c 1f93 e33d 7415 1abd cba6 d03a
000002f0: daee f73d 73e4 9b3d 9d02 fbbc debd 373d
00000300: 2b77 a43d 8d83 f53d 20d7 adbd 9666 d8bd
00000310: 480f 97bd ff72 8f3d aabd 0abe 4add d83c
00000320: ad54 babd c7a2 aebd 4cb0 42bd a1f9 5cbd
00000330: e1a7 013e 3f6f 04be d532 c03d bbe9 5d3d
00000340: c09e 23bc a84b cebc 3b19 623d 5e9e f63c
00000350: ba80 9cbb a161 dfbc a82a f8bd ceee b43d
00000360: 8cef d0bd 928e b73d 81bf 023c a408 a73d
00000370: 1781 843d b968 163e 8877 7dbd 1cfc ebbd
00000380: e750 b6bd b92a 993c 94b6 d8bd 93fb d03d
00000390: bc00 733d 6a75 31bd 23cb f3bc 4726 bdbd
000003a0: 89f7 493c ef0f d2bd 1b7a 13be b33e 393d
000003b0: d41f a8bd 00f5 ee3d ca2e c03d e489 85bd
000003c0: 3faf cabd 656b 64bd 2290 de3c 2663 cfbc
000003d0: 80c1 693d ccb4 293e 80a2 eebd e4e3 a0bd
000003e0: 7410 be3d 7d95 ef3d baad c2bc 0a3c 613c
000003f0: e93c 5d3d adcf 023e 04eb 34be f64c 1ebe

bias f4 [2]
0.079536945 -0.038748164
00000000: 44e4 a23d 65b6 1ebd

weight f4 [2, 128]
-0.011030448 0.005301159 0.0038106528 0.0061988984 -0.045709625 -0.0014679342 -0.016528258 0.056148984
0.073990636 -0.024062447 0.0134456735 0.0075483797 0.0343259 0.008783654 0.013787814 0.023131244
-0.0046222047 0.004937837 0.00046017644 0.012463377 -0.03687353 0.00349926 -0.022838704 0.0014748614
0.012693554 -0.017122583 0.016800143 0.054821197 0.0012855178 0.006152935 0.041744173 -0.01742034
1.8416613e-06 0.027826387 -0.009445754 -0.00075737 0.035257246 -0.0012035111 -0.018603902 0.017266067
-0.006193845 0.03244585 -0.013149285 -0.021371352 0.010254734 0.020569757 0.018848749 0.0075452677
0.008256109 -0.031355 -0.035926186 -0.025285939 -0.033643275 0.0047214986 0.008734166 0.03505481
-0.00905577 0.008418358 -0.014516533 0.031003729 -0.013345656 -0.017902425 0.026891673 -0.021667078
0.0103015555 0.0029031136 -0.022304984 0.013319707 -0.052870758 -0.04891662 0.009150874 -0.05076411
-0.003476356 -0.021948038 0.045581207 0.013644863 0.02327891 0.023656813 -0.009472992 0.0070157866
-0.0020020623 0.009905444 -0.029472508 0.013139056 -0.03147134 0.0053576888 0.011062036 0.04432555
0.030620417 0.021992186 0.010501052 0.001757193 -0.02486356 -0.0007903649 0.030238524 0.03741107
-0.028460523 -0.0011038342 -0.00787879 0.019883685 0.015532951 0.055063486 -0.0067427633 -0.022351146
-0.033831287 -0.006916444 -0.003743631 -0.029878596 0.019095046 -0.004819558 0.018772958 0.010383833
0.02627736 0.012110667 0.01544384 0.0019842875 -0.023137514 -0.0038193306 -0.011952957 -0.0027554275
0.01950635 0.006055715 -0.026124204 -0.010480295 0.0027053133 0.0012613672 0.00021970399 0.019930447
-0.0065861833 0.042643994 -0.02358572 0.012038284 -0.009246934 0.004227454 -0.023033421 -0.048624028
-0.0048132273 0.006235374 0.0081115505 -0.013090199 -0.040042583 0.017295545 -0.0078968 0.027768457
-0.016819293 -0.02969209 -0.002360084 0.016465167 -0.012870281 -0.015820028 0.0064807283 0.001162854
0.036260284 -0.012439241 -0.0033821298 -0.06380216 0.030833038 0.020257603 -0.004281971 0.0019344131
0.02249187 0.06482463 0.016960908 0.0021958519 0.052025408 -0.0067604724 -0.005031079 -0.016762014
-0.0038185571 0.023924617 -0.025269462 -0.0047687944 -0.039912507 -0.019696899 -0.048961278 0.0074673602
0.0020137636 -0.03197672 -0.024198275 -0.03501312 0.02563225 0.037272237 -0.007347642 -0.0034105913
0.007630156 0.009745136 -0.013810311 -0.0018728017 -0.009629999 0.004146546 0.00026236117 -0.021547813
0.032947414 -0.017166546 -0.013357725 -0.0012298631 -0.032228973 -0.02504362 0.0024647138 -0.0060297446
0.00068574445 -0.023304604 0.048638485 0.060807902 0.031977776 0.02356854 -0.0034933514 -0.003079782
-0.011528968 0.00044554533 0.0015741447 0.004791033 -0.009851853 -0.0021329597 -0.028753305 0.03589843
0.027992971 0.02084907 -0.021603635 0.0008677245 -0.039655734 -0.0131645845 0.018008323 0.028693102
0.011404056 -0.003376375 0.008769842 0.0027242268 0.030198276 -0.03761756 -0.061664462 -0.017057095
0.018981997 -0.021278022 -0.011302537 0.010540583 0.013498318 -0.029563084 -0.026240613 -0.0075821136
0.02036249 -0.044951826 0.002060422 0.030497545 -0.015299289 -0.016895723 -0.0046343277 -0.01771249
-0.014673355 0.013977143 0.0054210555 0.052800372 -0.031608555 0.0030781312 0.027021369 0.0062786317
00000000: 0db9 34bc 58b5 ad3b 25bc 793b 2120 cb3b
00000010: 043a 3bbd b367 c0ba 4566 87bc 7afc 653d
00000020: 6788 973d 9c1e c5bc 3e4b 5c3c 6658 f73b
00000030: 5199 0c3d 51e9 0f3c 49e6 613c bc7d bd3c
00000040: dd75 97bb 94cd a13b d643 f139 3133 4c3c
00000050: b308 17bd d753 653b 3c18 bbbc 2350 c13a
00000060: a0f8 4f3c a944 8cbc 74a0 893c 318c 603d
00000070: d27e a83a 8f9e c93b f0fb 2a3d 1ab5 8ebc
00000080: 002f f735 2af4 e33c 5dc2 1abc 3e8a 46ba
00000090: e769 103d 22bf 9dba 3667 98bc 9171 8d3c
000000a0: bdf5 cabb f1e5 043d 1970 57bc f912 afbc
000000b0: 7903 283c e881 a83c b168 9a3c 4b3e f73b
000000c0: a244 073c 1a6e 00bd 5627 13bd 7524 cfbc
000000d0: 88cd 09bd cdb6 9a3b bf19 0f3c a295 0f3d
000000e0: a75e 14bc 27ed 093c c1d6 6dbc 88fb fd3c
000000f0: bda7 5abc 1ba8 92bc ed4b dc3c 287f b1bc
00000100: dbc7 283c 2a42 3e3b f1b8 b6bc e63a 5a3c
00000110: 028f 58bd cb5c 48bd 8ced 153c 07ee 4fbd
00000120: 93d3 63bb 5fcc b3bc 5cb3 3a3d b48e 5f3c
00000130: 6ab3 be3c efcb c13c 9c34 1bbc afe4 e53b
00000140: 0835 03bb 724a 223c 5470 f1bc 3245 573c
00000150: 18e8 00bd 8d8f af3b 8b3d 353c b58e 353d
00000160: abd7 fa3c f528 b43c 9b0c 2c3c 9d51 e63a
00000170: aaae cbbc 7e30 4fba c8b6 f73c 5a3c 193d
00000180: 0b26 e9bc 88ae 90ba 0a16 01bc 1ce3 a23c
00000190: eb7d 7e3c 408a 613d 66f2 dcbb c019 b7bc
000001a0: ad92 0abd 56a3 e2bb b557 75bb f5c3 f4bc
000001b0: 376d 9c3c 62ed 9dbb bfc9 993c f420 2a3c
000001c0: 9e43 d73c d26b 463c 2908 7d3c d20a 023b
000001d0: e28a bdbc bc4d 7abb 56d6 43bc 6794 34bb
000001e0: c8cb 9f3c 056f c63b 6d02 d6bc 8bb5 2bbc
000001f0: a04b 313b 7654 a53a 5760 6639 2d45 a33c
00000200: e9d0 d7bb 78ab 2e3d d736 c1bc 393c 453c
00000210: 7480 17bc 7486 8a3b 96b0 bcbc fd29 47bd
00000220: 47b8 9dbb 1c52 cc3b 4fe6 043c 4678 56bc
00000230: b103 24bd 63af 8d3c 9461 01bc ad7a e33c
00000240: 9dc8 89bc d33c f3bc a4ab 1abb f5e1 863c
00000250: dfdd 52bc 0199 81bc 4a5c d43b e86a 983a
00000260: aa85 143d f5cd 4bbc b9a6 5dbb b5aa 82bd
00000270: 9195 fc3c 46f3 a53c c74f 8cbb 228c fd3a
00000280: df40 b83c c7c2 843d 9af1 8a3c 48e8 0f3b
00000290: 9818 553d f486 ddbb c0db a4bb 7e50 89bc
000002a0: c240 7abb 8ffd c33c e701 cfbc 8c43 9cbb
000002b0: 4c7b 23bd 645b a1bc 9f8b 48bd c2b0 f43b
000002c0: 59f9 033b 05fa 02bd 763b c6bc eb69 0fbd
000002d0: b9fa d13c c6aa 183d 7dc4 f0bb 3a84 5fbb
000002e0: 6306 fa3b 10aa 1f3c a544 62bc cc78 f5ba
000002f0: 25c7 1dbc c0df 873b 858d 8939 0a85 b0bc
00000300: def3 063d dba0 8cbc 5cda 5abc 5c33 a1ba
00000310: 8702 04bd 4728 cdbc 0987 213b 2a95 c5bb
00000320: 88c3 333a 4ce9 bebc 2639 473d b511 793d
00000330: 21fb 023d d012 c13c b6f0 64bb 2bd6 49bb
00000340: ffe3 3cbc 1598 e939 8853 ce3a 19fe 9c3b
00000350: ab69 21bc 20c9 0bbb 0d8c ebbc 3b0a 133d
00000360: 8451 e53c abcb aa3c 1bfa b0bc 0178 633a
00000370: 0d6e 22bd 45b0 57bc 3186 933c cc0d eb3c
00000380: 14d8 3a3c 2c46 5dbb 62af 0f3c f188 323b
00000390: 6062 f73c df14 1abd e093 7cbd 52bb 8bbc
000003a0: 2280 9b3c 3f4f aebc 472e 39bc 69b2 2c3c
000003b0: 0d28 5d3c 482e f2bc 8ef6 d6bc 6173 f8bb
000003c0: 3dcf a63c 681f 38bd 2508 073b fdd5 f93c
000003d0: dea9 7abc e668 8abc 8fdb 97bb c919 91bc
000003e0: 8368 70bc 6300 653c 1ca3 b13b 3445 583d
000003f0: f977 01bd 79ba 493b eb5b dd3c fbbc cd3b

bias f4 [2]
0.014744614 0.02234068
00000000: 6593 713c cd03 b73c
