clone_data/marigold_episodes/marigold_clone_100ep_100trn_100_expert_runs/marigold_clone_100ep_100trn_100_expert_runs_s0/pyt_save/model.pt (torch, 104138 bytes, 9 tensors)

log_std f4 [2]
-0.5 -0.5
00000000: 0000 00bf 0000 00bf

weight f4 [128, 60]
-0.08793031 -0.07861216 -0.05815072 -0.08648993 0.26843634 -0.32692298 -0.19210579 -0.053603224
-0.047670126 0.004079858 0.06818375 0.2210532 0.2288213 0.15471074 0.004879577 0.09657439
0.04194553 -0.14068007 -0.16486001 -0.044897035 -0.006122653 -0.13530353 -0.12356338 -0.040187478
-0.05789734 0.06158421 -0.035235636 -0.010187113 -0.07852789 0.009817908 -0.07684755 0.07220222
0.054446887 0.14442128 0.13930142 0.0715275 0.050510343 -0.020319892 -0.19931279 0.05229664
0.07851092 0.2190932 0.018613983 -0.023491854 -0.049442325 0.20480831 0.088455364 -0.17025031
-0.05155739 -0.0048539983 -0.04773404 0.20938785 0.12850808 0.051746503 0.08816982 -0.017786242
-0.037452508 0.097250715 0.19014429 0.01712438 -0.24861254 0.0771445 -0.036853123 -0.17066671
-0.45790157 -0.036254406 0.096761174 -0.064084835 -0.034678254 0.021917094 0.11985069 0.0033030312
0.011480171 0.1278472 0.10897484 0.09087808 0.3405091 0.121639535 -0.07201626 0.086154416
-0.08955652 0.044108357 0.092713594 -0.07975378 -0.12750563 -0.07902454 -0.003427856 0.07648305
0.02481429 -0.083175875 0.05263028 -0.050312966 0.13189507 -0.0043146578 -0.07768393 -0.113500014
-0.058280703 0.045020755 0.057523787 0.14706907 -0.043302152 0.0979634 -0.13000153 0.027543524
-0.09039584 -0.1477001 -0.23517175 -0.117526986 -0.003760048 -0.21814904 0.007204807 0.16494286
0.097137466 0.028078578 0.107641496 0.20011836 0.17493369 0.104666024 0.20770991 0.06510691
0.013926386 0.08855315 0.0035003468 0.050632957 -0.015428186 -0.123022534 -0.11422532 -0.01199607
-0.21257842 0.055991862 0.17193858 0.1451486 0.19546899 0.21900363 0.09442636 -0.301887
-0.15066975 -0.15455113 -0.12783907 -0.057704948 0.029160433 0.043085758 0.031884294 0.023758117
-0.023401031 -0.0762191 0.052438956 0.050918534 -0.043745235 0.08206137 -0.09151573 -0.024170065
-0.12553976 0.17419347 0.048022 0.053365126 0.16253969 0.071132235 0.08291636 -0.025195895
0.12542276 -0.045063283 -0.1083188 -0.049833205 -0.046620656 0.012203258 -0.046759523 0.0072551165
-0.103507504 -0.101316296 0.028752819 0.22772391 0.09732532 -0.027995972 0.12653624 0.10098099
-0.10177451 -0.17833683 0.042279437 0.09480268 0.11474983 -0.029344393 -0.014704564 -0.089185536
-0.12099469 -0.17020641 0.082681894 0.032086343 -0.025888238 0.10459657 0.21224253 -0.02695466
0.11072499 0.03443912 -0.17758264 -0.10507211 0.016685689 -0.21475394 0.009062465 0.040696725
0.09768801 0.112606116 0.06872546 0.0063255397 -0.02773424 -0.030881593 0.0062625976 -0.077167496
0.113935135 0.120079115 -0.122439526 0.11301575 0.05342863 0.06824776 0.074574746 -0.075217314
0.11154679 -0.11617115 -0.041577358 0.26226646 0.02072199 -0.041182734 0.04268292 -0.0013617903
0.05861364 0.055391587 -0.103062935 -0.023566194 0.015018456 0.11027487 0.11889478 -0.12742148
0.05348274 0.15797605 0.013043829 0.031463817 -0.17458393 -0.07039694 -0.25104934 -0.114922896
0.083062865 0.09498778 -0.11362061 0.035426702 0.034669388 0.010063763 0.050566293 0.16443644
0.20274329 -0.095297396 -0.0057114284 0.102308095 0.00049435976 -0.23082136 -0.14514525 0.023342842
00000000: ce14 b4bd 6aff a0bd 732f 6ebd a221 b1bd
00000010: 7d70 893e 7362 a7be 61b7 44be 0e8f 5bbd
00000020: c041 43bd 54b0 853b eca3 8b3d c55b 623e
00000030: 2250 6a3e 7e6c 1e3e dce4 9f3b cbc8 c53d
00000040: 13cf 2b3d 700e 10be 10d1 28be f4e5 37bd
00000050: 89a0 c8bb 028d 0abe cc0e fdbd a09b 24bd
00000060: c325 6dbd b93f 7c3d 3e53 10bd d9e7 26bc
00000070: 3bd3 a0bd 4adb 203c 4062 9dbd c2de 933d
00000080: b303 5f3d 2ce3 133e 08a5 0e3e 037d 923d
00000090: efe3 4e3d e775 a6bc a718 4cbe 0035 563d
000000a0: 55ca a03d f859 603e 5a7c 983c fd71 c0bc
000000b0: 0984 4abd 45b9 513e 1628 b53d 1956 2ebe
000000c0: d72d 53bd 4a0e 9fbb c584 43bd c569 563e
000000d0: 9f97 033e 24f4 533d 6192 b43d 74b4 91bc
000000e0: cd67 19bd 622b c73d 2fb5 423e 6e48 8c3c
000000f0: 4994 7ebe f0fd 9d3d 4df3 16bd 41c3 2ebe
00000100: 1372 eabe 807f 14bd b92a c63d e93e 83bd
00000110: c90a 0ebd 7a8b b33c 4774 f53d ab77 583b
00000120: 5417 3c3c 60ea 023e 332e df3d 491e ba3d
00000130: 3557 ae3e 261e f93d 437d 93bd ba71 b03d
00000140: 6969 b7bd f7aa 343d a0e0 bd3d f355 a3bd
00000150: d690 02be 9ed7 a1bd e1a5 60bb 25a3 9c3d
00000160: 5747 cb3c 1d58 aabd d992 573d f814 4ebd
00000170: 800f 073e f961 8dbb c118 9fbd b272 e8bd
00000180: bfb7 6ebd af67 383d 109e 6b3d 4699 163e
00000190: 995d 31bd 09a1 c83d 1f1f 05be f5a2 e13c
000001a0: 7421 b9bd b23e 17be ddd0 70be fdb1 f0bd
000001b0: 236b 76bb 7662 5fbe 4d16 ec3b c8e6 283e
000001c0: 02f0 c63d 0c05 e63c 2573 dc3d d4eb 4c3e
000001d0: d121 333e 245b d63d e8b1 543e c656 853d
000001e0: 7f2b 643c 5b5b b53d 1366 653b 8164 4f3d
000001f0: 81c6 7cbc 3df3 fbbd f7ee e9bd 2a8b 44bc
00000200: 28ae 59be b957 653d ab10 303e d6a1 143e
00000210: 0629 483e 7d42 603e 9c62 c13d ef90 9abe
00000220: 2c49 1abe a742 1ebe 3fe8 02be 065c 6cbd
00000230: dce1 ee3c b17a 303d 1b99 023d 62a0 c23c
00000240: 85b3 bfbc c218 9cbd 3bca 563d f48f 503d
00000250: 342e 33bd cb0f a83d 996c bbbd 4d00 c6bc
00000260: 7f8d 00be c65f 323e b7b2 443d 6495 5a3d
00000270: ce70 263e c7ad 913d 0dd0 a93d 9f67 cebc
00000280: d36e 003e 4794 38bd 3fd6 ddbd e71d 4cbd
00000290: 4df5 3ebd 2df0 473c ea86 3fbd 54bc ed3b
000002a0: befb d3bd eb7e cfbd 088b eb3c 7530 693e
000002b0: 7f52 c73d cf57 e5bc b792 013e 1fcf ce3d
000002c0: 286f d0bd ee9d 36be 342d 2d3d e827 c23d
000002d0: f501 eb3d a763 f0bc 69eb 70bc e8a6 b6bd
000002e0: 10cc f7bd 974a 2ebe 2055 a93d f86c 033d
000002f0: 9213 d4bc ba36 d63d 1b56 593e 05d0 dcbc
00000300: c9c3 e23d 0910 0d3d 39d8 35be 0c30 d7bd
00000310: 6db0 883c 75e8 5bbe bc7a 143c 9cb1 263d
00000320: a710 c83d 099e e63d efbf 8c3d 7946 cf3b
00000330: eb32 e3bc 65fb fcbc 7a36 cd3b fe09 9ebd
00000340: d356 e93d 0aec f53d 93c1 fabd cd74 e73d
00000350: fbd7 5a3d 7bc5 8b3d a5ba 983d 890b 9abd
00000360: a572 e43d 24eb edbd 054d 2abd ca47 863e
00000370: 2ac1 a93c 3aaf 28bd 49d4 2e3d 1a7e b2ba
00000380: db14 703d 4ae2 623d a912 d3bd e40d c1bc
00000390: f80f 763c cbd7 e13d 1b7f f33d c77a 02be
000003a0: b810 5b3d 79c4 213e c9b5 553c 34e0 003d
000003b0: 21c6 32be 452c 90bd 8a89 80be b25c ebbd
000003c0: dd1c aa3d f488 c23d ecb1 e8bd 971b 113d
000003d0: 7d01 0e3d 7be2 243c 9a1e 4f3d 0762 283e
000003e0: f09b 4f3e 482b c3bd ef26 bbbb e886 d13d
000003f0: ec97 013a 6f5c 6cbe f5a0 14be 7d39 bf3c

bias f4 [128]
-0.007890685 0.036239233 -0.082566105 0.11370983 -0.07546052 0.1021258 -0.006267844 -0.10973773
0.07502846 0.06121837 0.110015005 0.12637836 0.11670874 0.051370427 -0.0439251 -0.029929444
-0.04758675 0.06009357 -0.007917451 0.1122271 -0.13754185 -0.09334396 0.07083975 -0.053566795
0.097530894 -0.055908963 -0.07857506 -0.051872525 0.026008602 0.029048692 0.08853397 0.120869614
0.163138 0.022798996 0.13770786 -0.09463709 -0.08476094 -0.13021797 0.0059906486 -0.037313532
-0.09005337 0.07386102 -0.09677295 0.019447109 -0.09149207 0.0076610995 0.15342204 -0.0005797296
0.11186425 -0.05748516 -0.13975686 -0.064118326 -0.07486746 -0.037199907 0.0055708303 0.049905855
-0.09521631 -0.01633557 0.12981209 0.02532632 0.105588876 -0.028849894 -0.018035425 0.07359173
-0.064958714 -0.07929451 0.068395734 -0.08747569 -0.0526221 0.020060562 -0.019179042 -0.094543286
0.12267111 -0.09215386 -0.0055210167 0.08421982 -0.0022018845 0.020771796 -0.07603236 0.09170845
-0.021710178 -0.10561297 -0.1067146 -0.020198457 -0.017337453 0.050733343 0.11899013 -0.08343173
0.008879852 -0.060916115 -0.109821096 -0.0074221413 -0.00947671 -9.336723e-05 -0.12946174 -0.10051847
-0.13549381 -0.12326123 -0.0016505178 -0.057585016 -0.064377055 -0.06451527 -0.11059853 0.10701733
0.13407743 -0.0023590263 -0.029877491 -0.082338214 -0.03708971 -0.022560153 0.07446846 0.027628861
0.023520859 0.12741984 -0.086646914 0.01859584 -0.060724746 -0.061179213 -0.079115674 0.11376861
0.065646596 0.006038375 0.067810975 -0.0015208699 -0.005525561 0.004993691 0.10237154 0.06375623
00000000: ef47 01bc 976f 143d 6b18 a9bd b3e0 e83d
00000010: 0c8b 9abd 5527 d13d 7c62 cdbb 2dbe e0bd
00000020: 85a8 993d 1dc0 7a3d 8c4f e13d 5469 013e
00000030: fe04 ef3d cc69 523d ceea 33bd 982e f5bc
00000040: 53ea 42bd ad24 763d 32b8 01bc 52d7 e53d
00000050: c5d7 0cbe 1e2b bfbd 6e14 913d db68 5bbd
00000060: 47be c73d cc00 65bd f6eb a0bd 4978 54bd
00000070: fe0f d53c 86f7 ed3c 4c51 b53d 7d8a f73d
00000080: a60d 273e f6c4 ba3c 4a03 0d3e 17d1 c1bd
00000090: 2597 adbd dc57 05be 344d c43b 13d6 18bd
000000a0: e76d b8bd 7244 973d e530 c6bd 8b4f 9f3c
000000b0: 3260 bbbd f609 fb3b ab1a 1d3e fff8 17ba
000000c0: 1519 e53d 8f75 6bbd 6c1c 0fbe 7850 83bd
000000d0: 1c54 99bd ee5e 18bd 838b b63b 156a 4c3d
000000e0: c500 c3bd 2cd2 85bc 76ed 043e 2579 cf3c
000000f0: fb3e d83d 9d56 ecbc 07bf 93bc 43b7 963d
00000100: 1309 85bd 2965 a2bd 1013 8c3d 7426 b3bd
00000110: 458a 57bd 0c56 a43c 5e1d 9dbc e99f c1bd
00000120: fe3a fb3d 2abb bcbd a5e9 b4bb 717b ac3d
00000130: 7e4d 10bb 9d29 aa3c dbb6 9bbd a4d1 bb3d
00000140: 8bd9 b1bc 9d4b d8bd 2f8d dabd 3c77 a5bc
00000150: 4607 8ebc c4cd 4f3d 19b1 f33d 41de aabd
00000160: cc7c 113c 2d83 79bd e2e9 e0bd 6f35 f3bb
00000170: 3444 1bbc 26ce c3b8 9e91 04be a1dc cdbd
00000180: e4be 0abe 6270 fcbd 3056 d8ba 44de 6bbd
00000190: 1ed8 83bd 9520 84bd 7b81 e2bd e72b db3d
000001a0: 984b 093e e599 1abb a4c1 f4bc f0a0 a8bd
000001b0: 61eb 17bd 12d0 b8bc ec82 983d ec55 e23c
000001c0: d1ae c03c 597a 023e f073 b1bd 4e56 983c
000001d0: 83ba 78bd 0e97 7abd 6607 a2bd 84ff e83d
000001e0: b971 863d 90dd c53b 7be0 8a3d ed57 c7ba
000001f0: c40f b5bb 1ea2 a33b 2ca8 d13d a092 823d

weight f4 [128, 128]
-0.033528578 -0.042843826 0.0098581435 0.009163971 -0.10712747 0.048852928 0.056474775 0.06546966
0.016091729 0.033244427 0.04722565 0.13818152 -0.050631728 -0.10887786 0.04424672 -0.09378824
-0.089371994 0.06579506 -0.014117252 -0.1301818 -0.026553104 0.0035390353 0.03714532 0.14964043
0.09148459 -0.018152304 -0.114094846 0.086420655 0.08080007 -0.041864954 0.04413687 0.027696155
0.038213983 -0.004042134 -0.0934932 -0.025764 -0.019250927 -0.06441384 -0.0714538 -0.0990184
-0.06946537 0.0050489265 0.020926444 -0.03850108 -0.027590444 0.1095937 -0.024096243 -0.014796016
-0.105331615 -0.05382725 0.04109597 0.0220985 0.051715784 -0.017239865 -0.025218654 0.092082724
-0.03584565 0.02938097 0.09344034 -0.0651701 0.0627791 -0.0007324267 -0.06522222 -0.01893456
-0.009502241 0.050799023 -0.07428251 -0.06344564 -0.05531046 0.14908785 0.0015327596 -0.043927126
-0.16592768 0.078175865 0.06756792 -0.07917447 0.089341775 9.659399e-05 -0.11879705 0.13883352
-0.031248583 0.025763558 0.06315745 0.011511458 -0.080941245 -0.06613964 0.04207055 0.07018832
0.039211188 -0.071088344 -0.047023073 0.050851583 -0.059625484 0.028450035 0.059114464 -0.03752583
0.037041012 -0.024510631 0.07170857 -0.06188092 -0.120353274 -0.054642458 -0.025697129 -0.07363008
0.0014643844 -0.03825695 0.026374014 -0.1374674 0.043953836 0.08225356 0.029142605 0.078970626
-0.023987098 -0.034223963 0.043724492 0.09720269 0.06327747 0.060684726 0.022087492 0.027508339
-0.012377675 0.030129889 -0.023729531 0.08175841 0.06762495 0.021318251 -0.016254263 0.07510232
0.056739282 -0.021620262 -0.025429804 -0.03748592 -0.069831416 0.04806868 0.039448336 -0.079749055
-0.06810074 -0.10485108 -0.07711461 -0.1227802 0.063760646 0.060924523 0.08306667 0.016647032
0.064482644 -0.012119965 0.017785696 -0.015349392 0.07268925 0.005478562 0.05759983 -0.058644652
-0.072477534 0.018883005 -0.012598618 -0.05405372 -0.08015257 0.023909593 0.03420261 -0.10735587
0.03069709 0.067079954 0.06895425 0.04449246 0.0002624792 0.12963027 -0.042135444 -0.07116903
0.048553847 0.016377011 -0.022661963 0.02422389 -0.064164035 -0.020403814 0.004792806 -0.035824563
-0.040051315 -0.0037896342 0.07793069 0.041443232 -0.010397919 0.07018674 -0.03503883 -0.044930495
0.090682045 -0.005856681 0.031874325 0.034986306 0.012956912 -0.046027888 -0.15688199 0.07336515
0.029031582 -0.027481377 0.002843459 0.055249777 0.039470486 0.017223341 -0.0423923 -0.07286975
0.0125408415 -0.039384715 -0.05865418 -0.0029218125 -0.080380745 -0.05839361 -0.063903846 -0.019508526
0.06484529 0.08209916 0.037325963 -0.05581468 0.07388653 -0.0020871074 0.04775378 -0.039406642
0.043041848 -0.09978856 0.039905652 0.04410555 0.014382568 -0.0425092 -0.00860964 0.015225027
0.07728031 -0.07038491 0.018523451 0.038052063 -0.0150227165 -0.0138625335 0.08694936 -0.029436769
-0.0644986 0.0051201233 0.0022162863 0.034492277 0.0764888 -0.004216743 -0.046592914 -0.048693627
0.057164468 -0.003420693 0.050599266 0.047247935 -0.0056478367 -0.1186393 0.11716865 0.06701951
-0.10861961 -0.039145 0.051626712 -0.06575336 -0.0032983352 0.04775023 0.01797432 0.002116699
00000000: 4355 09bd 027d 2fbd 0d84 213c 7b24 163c
00000010: a665 dbbd 021a 483d 1852 673d f514 863d
00000020: cdd2 833c 4f2b 083d af6f 413d 757f 0d3e
00000030: 3763 4fbd 5bfb debd 0c3c 353d 0c14 c0bd
00000040: aa08 b7bd 8fbf 863d 0c4c 67bc 614e 05be
00000050: e585 d9bc 29ef 673b b125 183d 573b 193e
00000060: 465c bb3d 24b4 94bc 8faa e9bd 50fd b03d
00000070: 827a a53d 967a 2bbd ddc8 343d 0ce3 e23c
00000080: 4486 1c3d e173 84bb 5d79 bfbd 060f d3bc
00000090: 1fb4 9dbc 67eb 83bd 5f56 92bd 29ca cabd
000000a0: dc43 8ebd 7771 a53b ef6d ab3c 4fb3 1dbd
000000b0: 5b05 e2bc a972 e03d 7c65 c5bc fd6a 72bc
000000c0: 1ab8 d7bd f679 5cbd 3f54 283d ea07 b53c
000000d0: eed3 533d 9e3a 8dbc 5a97 cebc de95 bc3d
000000e0: e3d2 12bd 5cb0 f03c a65d bf3d e777 85bd
000000f0: 5492 803d 5300 40ba 3a93 85bd a61c 9bbc
00000100: 4aaf 1bbc a312 503d 6e21 98bd caef 81bd
00000110: 398d 62bd 7caa 183e e1e6 c83a eeec 33bd
00000120: f2e8 29be ab1a a03d 0d61 8a3d 3926 a2bd
00000130: d2f8 b63d 8192 ca38 de4b f3bd 602a 0e3e
00000140: 07fd ffbc 190e d33c b158 813d 8e9a 3c3c
00000150: 86c4 a5bd 3874 87bd 2b52 2c3d e5be 8f3d
00000160: e99b 203d c496 91bd 449b 40bd c049 503d
00000170: da39 74bd 0c10 e93c 0222 723d afb4 19bd
00000180: 51b8 173d 85ca c8bc f1db 923d d976 7dbd
00000190: c77b f6bd c5d0 5fbd c982 d2bc 5ecb 96bd
000001a0: 96f0 bf3a 52b3 1cbd 510e d83c 41c4 0cbe
000001b0: f008 343d 8e74 a83d 79bc ee3c 5abb a13d
000001c0: 9780 c4bc 6d2e 0cbd 7418 333d 3412 c73d
000001d0: 9e97 813d 8c90 783d d4f0 b43c 2b59 e13c
000001e0: bbcb 4abc f5d2 f63c 6f64 c2bc f470 a73d
000001f0: f37e 8a3d 9da3 ae3c a927 85bc 3fcf 993d
00000200: 7367 683d fa1c b1bc 2a52 d0bc d68a 19bd
00000210: c603 8fbd aae3 443d 9494 213d 7953 a3bd
00000220: 6778 8bbd 2abc d6bd 44ee 9dbd 2f74 fbbd
00000230: f194 823d fe8b 793d dc1e aa3d 5b5f 883c
00000240: 7a0f 843d d192 46bc 4fb3 913c 047c 7bbc
00000250: 1ade 943d 8285 b33b cded 6b3d 6035 70bd
00000260: 1a6f 94bd 88b0 9a3c 6f6a 4ebc 6f67 5dbd
00000270: 0827 a4bd 0dde c33c 0918 0c3d 65dd dbbd
00000280: 7778 fb3c 3761 893d e337 8d3d ba3d 363d
00000290: 5d9d 8939 ccbd 043e 3796 2cbd 12c1 91bd
000002a0: 66e0 463d 1529 863c 95a5 b9bc 2e71 c63c
000002b0: 6f68 83bd e625 a7bc f90c 9d3b c7bc 12bd
000002c0: d90c 24bd 835b 78bb 209a 9f3d 61c0 293d
000002d0: 095c 2abc 11be 8f3d e084 0fbd 0a09 38bd
000002e0: 82b7 b93d 67e9 bfbb a78e 023d cd4d 0f3d
000002f0: 3a49 543c bd87 3cbd aca5 20be 7840 963d
00000300: a4d3 ed3c a020 e1bc 5359 3a3b 974d 623d
00000310: ceab 213d f717 8d3c 8ca3 2dbd bc3c 95bd
00000320: 1a78 4d3c de51 21bd 5e3f 70bd e17b 3fbb
00000330: a99e a4bd 232e 6fbd 05e0 82bd 58d0 9fbc
00000340: 9bcd 843d 9b23 a83d 1ce3 183d ef9d 64bd
00000350: d251 973d dac7 08bb 7899 433d dc68 21bd
00000360: a64c 303d f25d ccbd 1c74 233d 05a8 343d
00000370: dda4 6b3c 201e 2ebd 730f 0dbc 6472 793c
00000380: 2445 9e3d f725 90bd 7ebe 973c 7bdc 1b3d
00000390: d721 76bc ae1f 63bc 8212 b23d 6125 f1bc
000003a0: d817 84bd b5c6 a73b 1d3f 113b c647 0d3d
000003b0: 29a6 9c3d 9b2c 8abb 36d8 3ebd f872 47bd
000003c0: 4a25 6a3d b52d 60bb 2d41 4f3d 0d87 413d
000003d0: 7d11 b9bb 29f9 f2bd 1ef6 ef3d 8641 893d
000003e0: f573 debd 8256 20bd 8876 533d b3a9 86bd
000003f0: e228 58bb bf95 433d e23e 933c 51b8 0a3b

bias f4 [128]
-0.0022844924 0.010749872 -0.022142582 0.047297824 -0.029904589 -0.06126226 0.07155727 0.077481546
0.07301349 0.03293485 -0.054776363 -0.019063337 0.004855723 -0.036154613 0.06228057 0.002710773
-0.013287207 -0.03508636 0.07783241 -0.023490094 0.054131836 0.04040393 0.03318847 -0.054559205
0.05751558 0.03688464 -0.05167021 0.053131275 0.0030957763 0.05361237 0.09106395 -0.05418678
-0.08743592 -0.014660735 0.022007763 -0.035832588 -0.026802476 -0.04745345 0.03915187 -0.029622747
0.05081921 -0.028352696 0.017783808 0.07646057 -0.031788234 0.09255127 0.06486056 0.06537271
0.005829896 0.07028271 0.0139151905 -0.075943656 0.10302438 -0.06344225 -0.059442397 0.07193347
-0.011044944 -0.0068303877 0.006519786 -0.05256507 0.07468478 -0.006571093 0.06291623 0.034691148
-0.049397096 -0.08225534 0.03839494 0.010411423 -0.08785836 0.094250046 -0.036208604 0.054080244
0.0012242272 0.015099408 -0.0620597 -0.07592722 -0.06267696 -0.06956131 0.015536092 -0.056468092
-0.011171593 0.025852552 0.06677638 -0.03248312 -0.03995205 -0.04108128 -0.026591556 0.063282266
0.036556445 0.070418276 0.017905883 0.058418028 -0.005147527 0.010095901 0.08232693 0.062164057
0.045602396 -0.06790827 -0.050337277 0.039783668 0.056508143 -0.044717092 0.017157478 -0.08712352
0.05372402 -0.08293437 0.020531662 0.005318488 0.030246185 0.078776926 0.075431384 0.06131813
-0.04798374 0.0031139462 0.056373175 -0.0724103 0.06836245 -0.05426131 0.037606407 -0.06253682
-0.018221255 0.007933616 -0.023062002 -0.04364173 0.08365498 0.07701394 -0.025923124 0.041348305
00000000: 6cb7 15bb 3b20 303c 5c64 b5bc 5dbb 413d
00000010: 78fa f4bc 23ee 7abd 9e8c 923d a5ae 9e3d
00000020: 1988 953d b1e6 063d 2e5d 60bd b72a 9cbc
00000030: c21c 9f3b dc16 14bd e919 7f3d 39a7 313b
00000040: 96b2 59bc b7b6 0fbd 9966 9f3d 4c6e c0bc
00000050: 58b9 5d3d 977e 253d a2f0 073d 7979 5fbd
00000060: 7595 6b3d 5914 173d 24a4 53bd 2ea0 593d
00000070: 82e2 4a3b a598 5b3d bc7f ba3d f5f2 5dbd
00000080: 9b11 b3bd 9433 70bc a049 b43c 31c5 12bd
00000090: de90 dbbc 8c5e 42bd b65d 203d 67ab f2bc
000000a0: ce27 503d ea43 e8bc 59af 913c 5c97 9c3d
000000b0: 6134 02bd 858b bd3d 9dd5 843d 21e2 853d
000000c0: b608 bf3b 62f0 8f3d 8afc 633c 5988 9bbd
000000d0: 72fe d23d 03ee 81bd df79 73bd db51 933d
000000e0: daf5 34bc 72d1 dfbb eea3 d53b 794e 57bd
000000f0: 55f4 983d 5352 d7bb 39da 803d 4e18 0e3d
00000100: 9c54 4abd 7d75 a8bd 0344 1d3d ac94 2a3c
00000110: 15ef b3bd 2b06 c13d 794f 14bd 3f83 5d3d
00000120: 4076 a03a 8263 773c 5032 7ebd bb7f 9bbd
00000130: c75c 80bd 2976 8ebd 188b 7e3c 164b 67bd
00000140: 0f09 37bc bbc8 d33c 0ec2 883d 050d 05bd
00000150: c3a4 23bd d844 28bd 89d6 d9bc 229a 813d
00000160: 36bc 153d 7537 903d 5caf 923c be47 6f3d
00000170: 96ac a8bb 4769 253c 059b a83d bd9f 7e3d
00000180: 94c9 3a3d 7e13 8bbd 762e 4ebd 33f4 223d
00000190: 1575 673d 4529 37bd d78d 8c3c d16d b2bd
000001a0: b80d 5c3d 7fd9 a9bd 0432 a83c b646 ae3b
000001b0: d9c6 f73c cc55 a13d c57b 9a3d b828 7b3d
000001c0: 998a 44bd 5913 4c3b 8fe7 663d da4b 94bd
000001d0: 9d01 8c3d 1b41 5ebd 2d09 1a3d 4e13 80bd
000001e0: be44 95bc fffb 013c 86ec bcbc acc1 32bd
000001f0: 4d53 ab3d 7cb9 9d3d bb5c d4bc d75c 293d

weight f4 [2, 128]
-0.08742387 0.09020034 0.069212645 -0.15114051 -0.14662923 -0.08592866 -0.039482165 0.038935766
-0.022066701 0.018923393 -0.059154302 0.0860882 -0.003918595 0.16283257 0.074213654 -0.07081012
0.09988047 0.038290247 -0.075375155 0.07072933 -0.042191908 0.0072481646 -0.074774355 0.063285224
0.08472865 -0.102119654 -0.031809676 0.0998418 -0.104146555 -0.08077868 0.056989104 -0.006393903
0.07676928 0.080470935 -0.07533518 -0.029881302 0.02411971 0.08111029 0.02791739 0.062470797
0.084049314 -0.0838234 0.16222833 -0.061084397 0.04001864 0.10369735 -0.00054275396 0.011801271
0.07598926 0.07256795 0.11842307 -0.050061874 -0.13084415 0.074746236 0.073920056 0.03683186
-0.038819913 0.0030505236 -0.030671148 0.12696548 -0.004004624 -0.06023894 0.010492315 0.04286845
-0.055817943 0.08795765 0.042054273 0.15094821 -0.05432237 0.20191123 -0.020705795 0.06810375
-0.029346883 -0.047172055 -0.01953988 -0.13426633 -0.015038342 0.04646267 0.03766008 0.07729063
0.017217832 0.009479233 0.10760088 0.005023426 0.06975706 0.15876323 0.09283877 -0.028462982
0.12393455 0.028484564 -0.23519954 -0.13340956 0.085409634 0.06715988 0.07871671 0.014402689
-0.008618302 0.012282203 -0.11867095 -0.010332306 -0.14905748 0.07702924 -0.13930804 0.018218668
-0.08373873 -0.0515046 0.115291096 -0.08690432 0.120345384 0.015641408 -0.015811594 -0.14030385
-0.121891655 0.09756048 0.07025504 -0.005723696 0.07165415 0.10018687 0.0147140855 0.16309775
0.11035413 0.15188815 0.12748073 -0.06786834 -0.042054437 0.012057101 0.16814749 0.03828378
0.11967063 -0.02720734 -0.1178481 0.052443225 0.0077723465 0.10444557 0.05106009 0.0053814054
-0.14879294 0.11454836 -0.04752887 0.08003027 0.11605762 -0.09398578 -0.00043932092 0.06088529
-0.17258722 0.03722182 -0.040212322 0.092730716 -0.13576192 -0.12975569 0.027801674 -0.10820739
-0.051232234 -0.08265997 0.12328644 -0.08958029 -0.13309716 -0.09372935 -0.1407107 0.11675421
-0.07371668 0.060420338 -0.13910055 -0.09919302 -0.0648176 -0.10650477 0.0065342016 -0.093114085
-0.08664213 -0.013236676 0.032075807 0.025201397 -0.015867 0.09759729 0.1409477 0.051427856
0.07838468 -0.0069929874 0.10445799 0.05739687 0.07505268 -0.030252688 0.06281184 -0.1571417
-0.1475373 -0.118422404 -0.051277433 0.042753916 -0.08408681 0.09980823 0.0018718013 -0.03757222
0.08275492 -0.13449118 0.06239397 -0.103455596 0.10091041 0.25220188 0.006733571 -0.07412116
-0.13812768 0.077426255 -0.19509344 -0.07838852 0.029733138 -0.05446446 -0.17177156 0.07265972
0.018670224 0.01851652 -0.09342992 0.03567113 0.079728976 -0.025501305 0.095328234 -0.022279898
0.04796709 -0.04189605 0.022400195 -0.06569803 0.051066265 -0.040608138 0.057803053 0.1045798
0.16737124 0.060272142 -0.00558121 0.087666176 -0.025450762 -0.032629497 -0.12155236 0.083627746
0.11262044 0.06341266 0.12154138 0.05217696 -0.103117906 -0.16727316 0.08653682 0.15366733
-0.01026161 -0.17454644 0.048271064 -0.08856458 -0.015324624 -0.009099572 0.115043335 0.11287544
0.0025246763 -0.019741328 -0.100073166 0.058164753 0.15038148 0.14183676 -0.067837484 -0.058588136
00000000: 490b b3bd f5ba b83d 5cbf 8d3d 94c4 1abe
00000010: f925 16be 5efb afbd 0db8 21bd 1c7b 1f3d
00000020: 3ac5 b4bc 3b05 9b3c c84b 72bd 034f b03d
00000030: 8f67 80bb 95bd 263e 54fd 973d e504 91bd
00000040: 228e cc3d 3cd6 1c3d 4a5e 9abd 8ada 903d
00000050: 6cd1 2cbd 0382 ed3b 4c23 99bd af9b 813d
00000060: 3786 ad3d 1c24 d1bd dd4a 02bd dc79 cc3d
00000070: ca4a d5bd 4b6f a5bd 686d 693d f283 d1bb
00000080: 3639 9d3d f2cd a43d 5549 9abd a2c9 f4bc
00000090: b396 c53c 271d a63d 03b3 e43c 61e1 7f3d
000000a0: 0c22 ac3d 9aab abbd 2f1f 263e a233 7abd
000000b0: 96ea 233d 475f d43d 9a47 0eba 1e5a 413c
000000c0: 42a0 9b3d 819e 943d cb87 f23d ae0d 4dbd
000000d0: 02fc 05be 8e14 993d 6663 973d 01dd 163d
000000e0: a101 1fbd 4beb 473b 0f42 fbbc 3d03 023e
000000f0: 3939 83bb 1bbd 76bd f5e7 2b3c d496 2f3d
00000100: 5ba1 64bd 2423 b43d 1a41 2c3d 2b92 1a3e
00000110: 2281 5ebd d1c1 4e3e 339f a9bc fb79 8b3d
00000120: e068 f0bc 7c37 41bd 1912 a0bc 1d7d 09be
00000130: 6163 76bc a44f 3e3d 7541 1a3d 8d4a 9e3d
00000140: 690c 8d3c c94e 1b3c da5d dc3d 8d9b a43b
00000150: cadc 8e3d d492 223e 4122 be3d 332b e9bc
00000160: 66d1 fd3d 7658 e93c 26d8 70be 849c 08be
00000170: 3feb ae3d 1f8b 893d 3a36 a13d 42f9 6b3c
00000180: c733 0dbc 4b3b 493c c109 f3bd d548 29bc
00000190: 86a2 18be 82c1 9d3d c4a6 0ebe 513f 953c
000001a0: 367f abbd 7df6 52bd bd1d ec3d e4fa b1bd
000001b0: a477 f63d 6922 803c 5187 81bc d0ab 0fbe
000001c0: 55a2 f9bd cacd c73d e0e1 8f3d d88d bbbb
000001d0: 69bf 923d c62e cd3d 5913 713c 1903 273e
000001e0: 5901 e23d 9188 1b3e 4f8a 023e 8efe 8abd
000001f0: 4641 2cbd 268b 453c db2e 2c3e 74cf 1c3d
00000200: e015 f53d ede1 debc 585a f1bd b5ce 563d
00000210: 2baf fe3b 8fe7 d53d 6324 513d 8056 b03b
00000220: 2d5d 18be 5598 ea3d a2ad 42bd e9e6 a33d
00000230: 9eaf ed3d 9e7b c0bd a854 e6b9 db62 793d
00000240: b4ba 30be e875 183d adb5 24bd 9ae9 bd3d
00000250: 2c05 0bbe adde 04be 56c0 e33c d69b ddbd
00000260: e4d8 51bd a149 a9bd 9a7d fc3d df75 b7bd
00000270: 9f4a 08be 2cf5 bfbd 7716 10be d51c ef3d
00000280: c5f8 96bd 517b 773d 6070 0ebe b625 cbbd
00000290: 17bf 84bd 2c1f dabd db1c d63b 99b2 bebd
000002a0: 6e71 b1bd a5de 58bc ec61 033d 2973 ce3c
000002b0: 83fb 81bc 17e1 c73d 9854 103e 04a6 523d
000002c0: 2688 a03d 6e25 e5bb 12ee d53d fb18 6b3d
000002d0: 38b5 993d 7cd4 f7bc 7ea3 803d c1e9 20be
000002e0: 0514 17be 7287 f2bd 4908 52bd bb1e 2f3d
000002f0: b535 acbd 4268 cc3d 3b57 f53a 54e5 19bd
00000300: 697b a93d 0eb8 09be d290 7f3d 87e0 d3bd
00000310: 1eaa ce3d 9b20 813e 4aa5 dc3b d6cc 97bd
00000320: 5871 0dbe a891 9e3d 93c6 47be 298a a0bd
00000330: e992 f33c 2016 5fbd e2e4 2fbe 9fce 943d
00000340: 4cf2 983c f5af 973c 3058 bfbd e41b 123d
00000350: f248 a33d 1de8 d0bc 733b c33d 5584 b6bc
00000360: 2479 443d 319b 2bbd 9d80 b73c b08c 86bd
00000370: dc2a 513d b854 26bd e5c2 6c3d ef2d d63d
00000380: 5e63 2b3e ecdf 763d 95e2 b6bb 538a b33d
00000390: 1e7e d0bc 82a6 05bd 72f0 f8bd 0645 ab3d
000003a0: 8ca5 e63d 7fde 813d b0ea f83d 82b7 553d
000003b0: 7b2f d3bd a849 2bbe 373a b13d f85a 1d3e
000003c0: 5020 28bc 4dbc 32be e1b7 453d 5961 b5bd
000003d0: 2214 7bbc 5f16 15bc d79b eb3d 3d2b e73d
000003e0: 0a75 253b 91b8 a1bc 29f3 ccbd 2a3e 6e3d
000003f0: 9afd 193e a83d 113e 61ee 8abd 1dfa 6fbd

bias f4 [2]
-0.057615515 -0.038802877
00000000: 3ffe 6bbd c4ef 1ebd

weight f4 [2, 128]
-0.020324986 0.03705836 -0.03199213 -0.014560237 0.034388755 0.044783305 -0.0113296285 0.027088318
0.00049194245 0.020708693 -0.042838834 -0.03261932 0.053516395 0.004967533 -0.024789691 0.010276922
-0.0465334 0.042246126 0.025309183 0.0020397576 0.030651094 0.03558335 0.054890506 -0.023579903
0.03713226 -0.038841955 -0.0406213 -0.0052402145 -0.059035294 -0.0056925844 -0.0058226124 0.011913995
0.026006619 0.016746942 0.012074431 0.010593656 -0.0588806 -0.050192215 -0.06031548 -0.02309422
0.021741414 -0.0010926728 -0.017173681 0.03162305 0.031403117 0.008772842 0.0067326976 -0.03939361
-0.05143116 -0.026469188 -0.05441141 -0.035506975 0.01359714 0.05418934 0.04689784 0.024901498
0.050574224 0.062739275 -0.001364821 -0.028668659 -0.017357858 -0.01676018 0.01580489 -0.055947006
0.0280237 0.006572115 0.016276477 0.004845983 0.04604372 -0.00081691804 0.017829817 -0.032746933
-0.012351042 0.038200248 0.02448736 -0.035648756 0.0011830225 -0.06199818 0.015285244 0.04366447
0.068859406 -0.0042828517 0.027896486 -0.049621787 0.058955904 0.0039965333 -0.026820388 -0.06698768
0.0060308864 -0.02135887 0.013624504 -0.048147906 0.04146798 -0.0109697655 -0.026252665 -0.0129270535
0.040937517 0.0579302 -0.04444406 -0.04927481 0.054055955 -0.010485703 0.009944683 -0.049581353
-0.011334969 0.027967898 0.019529805 -0.023244657 -0.00083527446 0.0049144314 0.0009174457 -0.038448434
-0.009254439 -0.012123125 0.02789365 -0.002034158 0.010778123 0.00850914 -0.025015043 0.00012794355
0.014080362 -0.04499539 -0.0005357699 0.019523617 -0.04211975 -0.050371837 0.02209248 -0.040501785
0.012493855 0.019034198 -0.04109346 0.026476962 0.016849877 -0.017928079 0.008063293 0.021320283
0.046661265 0.018894557 -0.030843947 0.0275591 0.025863314 0.0026617297 -0.015075449 -0.059241958
-0.0030242484 -0.033869393 0.030023387 0.018221136 -0.038380407 0.0017378165 0.033463553 0.0027232696
-0.0006856987 0.039702848 0.014576449 0.045778938 -0.021927604 0.043557946 0.017454403 -0.002981459
-0.00052316126 -0.0022492358 0.011590623 -0.05617553 0.011538672 0.035484996 0.016293235 -0.024012772
-0.00850123 -0.04489946 0.030194478 -0.0072653336 -0.020078612 -0.0029881713 -0.0116339335 0.05609328
0.020132702 0.048302993 0.019371757 -0.033774387 0.06724919 -0.018244635 -0.030333355 -0.005049774
0.034019437 -0.005115714 -0.0322703 0.023086047 -0.00958205 0.016674627 -0.01320593 -0.055661295
-0.029523674 -0.013859848 -0.038741693 0.017892582 0.0071249753 -0.009803062 -0.04032307 -0.032875657
0.0231737 -0.0082152225 -0.023368517 -0.029667882 -0.041712906 0.027215118 -0.034596294 0.009995522
0.01094835 -0.0014176425 0.046646625 -0.023728576 0.03688136 0.013015915 0.008553255 -0.046673514
-0.018746613 -0.04490526 -0.028849931 0.029958416 0.015941055 0.0294171 0.015015612 -0.034867473
0.010141761 0.04198548 -0.02462214 -0.024842849 0.03592039 0.01891544 -0.0076567153 0.0016293349
0.0064636027 0.010492634 0.034516558 0.02954567 -0.02521397 0.022318078 0.042269804 -0.009699298
-0.0005433743 0.022711806 0.014067807 0.058849704 -0.04535804 -0.013233502 0.0326673 -0.01335624
-0.005511815 -0.053100854 -0.013879531 0.0022180765 -0.035317 -0.04658815 -0.014041653 0.016679034
00000000: 9680 a6bc 82ca 173d 2e0a 03bd 0f8e 6ebc
00000010: 39db 0c3d b36e 373d e89f 39bc 52e8 dd3c
00000020: b3f5 003a 47a5 a93c c677 2fbd d69b 05bd
00000030: 0234 5b3d b0c6 a23b c013 cbbc 8960 283c
00000040: ce99 3ebd 460a 2d3d 3455 cf3c 74ad 053b
00000050: 0118 fb3c d9bf 113d ded4 603d a42a c1bc
00000060: ff17 183d be18 1fbd 8562 26bd 1bb6 abbb
00000070: fece 71bd dc88 babb 9dcb bebb eb32 433c
00000080: d50b d53c e230 893c d6d3 453c 0491 2d3c
00000090: c92c 71bd 5a96 4dbd 5d0d 77bd 1730 bdbc
000000a0: 0d1b b23c 0438 8fba d2af 8cbc 2c87 013d
000000b0: 8ea0 003d f7bb 0f3c f69d dc3b 325b 21bd
000000c0: 7ba9 52bd e9d5 d8bc 80de 5ebd c36f 11bd
000000d0: 8ac6 5e3c a4f5 5d3d f317 403d 3afe cb3c
000000e0: eb26 4f3d 737d 803d cbe3 b2ba 89da eabc
000000f0: 1132 8ebc a54c 89bc 4279 813c b028 65bd
00000100: f591 e53c e55a d73b 3f56 853c 0dcb 9e3b
00000110: 5798 3c3d 7126 56ba d60f 923c a621 06bd
00000120: 065c 4abc dd77 1c3d b799 c83c 6e04 12bd
00000130: a60f 9b3a cef1 7dbd f66e 7a3c 84d9 323d
00000140: 2906 8d3d 2a57 8cbb 2c87 e43c 3740 4bbd
00000150: bf7b 713d 5af5 823b 6eb6 dbbc d630 89bd
00000160: be9e c53b ccf8 aebc 5039 5f3c bd36 45bd
00000170: 54da 293d 88ba 33bc d40f d7bc fecb 53bc
00000180: 19ae 273d 3848 6d3d fa0a 36bd 62d4 49bd
00000190: c769 5d3d 3acc 2bbc 06ef 223c d115 4bbd
000001a0: 4eb6 39bc ef1c e53c f8fc 9f3c 946b bebc
000001b0: 52f6 5aba 3d09 a13b bd80 703a 1b7c 1dbd
000001c0: ee9f 17bc 12a0 46bc 3981 e43c 824f 05bb
000001d0: b996 303c ec69 0b3c 59ec ccbc 9628 0639
000001e0: 52b1 663c 164d 38bd e972 0cba feef 9f3c
000001f0: c285 2cbd b352 4ebd 4afb b43c 33e5 25bd
00000200: 07b3 4c3c 9bed 9b3c 9e51 28bd 37e6 d83c
00000210: c108 8a3c e8dd 92bc e71b 043c e0a7 ae3c
00000220: e21f 3f3d c2c8 9a3c 72ac fcbc 9fc3 e13c
00000230: 4ddf d33c 6a70 2e3b 04ff 76bc b2a7 72bd
00000240: 7832 46bb a2ba 0abd 9bf3 f53c 7e44 953c
00000250: c634 1dbd 72c7 e33a 1411 093d e278 323b
00000260: 76c0 33ba 749f 223d 0fd2 6e3c b282 3b3d
00000270: 85a1 b3bc d169 323d 89fc 8e3c 9564 43bb
00000280: c224 09ba ea67 13bb 99e6 3d3c 5018 66bd
00000290: b30c 3d3c b758 113d 6479 853c 6fb6 c4bc
000002a0: be48 0bbc 7fe8 37bd 695a f73c 0912 eebb
000002b0: e77b a4bc 32d5 43bb 419c 3ebc 11c2 653d
000002c0: 56ed a43c 5cd9 453d 85b1 9e3c 0357 0abd
000002d0: f1b9 893d c675 95bc a87d f8bc 9378 a5bb
000002e0: f757 0b3d b8a1 a7bb dd2d 04bd f31e bd3c
000002f0: 08fe 1cbc 3a99 883c af5d 58bc 19fd 63bd
00000300: a2db f1bc 6a14 63bc 9caf 1ebd 7793 923c
00000310: a078 e93b 069d 20bc ce29 25bd a0a8 06bd
00000320: c5d6 bd3c 2499 06bc 556f bfbc 0f0a f3bc
00000330: 27db 2abd 3df2 de3c d8b4 0dbd 42c4 233c
00000340: b560 333c 30d0 b9ba 8810 3f3d 6e62 c2bc
00000350: e910 173d b440 553c f422 0c3c ba2c 3fbd
00000360: 7f92 99bc 94ee 37bd b156 ecbc 5a6b f53c
00000370: d196 823c 21fc f03c 0b04 763c 32d1 0ebd
00000380: a129 263c f7f8 2b3d 5fb4 c9bc 3b83 cbbc
00000390: 4221 133d 8ef4 9a3c 2fe5 fabb 688f d53a
000003a0: a1cc d33b 4ce9 2b3c 3c61 0d3d c309 f23c
000003b0: 878d cebc 67d4 b63c 1a23 2d3d cee9 1ebc
000003c0: 3b71 0eba 1c0e ba3c a97c 663c 630c 713d
000003d0: 5ac9 39bd 55d1 58bc 26ce 053d 21d4 5abc
000003e0: 759c b4bb 4880 59bd f966 63bc 265d 113b
000003f0: 8fa8 10bd 37d3 3ebd f60e 66bc 78a2 883c

bias f4 [2]
0.07421282 -0.020998538
00000000: e4fc 973d 2005 acbc
