data/value-valor-expts/value-valor-expts_s0/pyt_save/model.pt (torch, 236566 bytes, 11 tensors)

weight f4 [128, 60]
00000000: 7824 373d e821 f33d 0c9c d9bd 93e8 27be
00000010: e919 f1bd d9cb 923d 790c 303d d0de 1f3e
00000020: 1144 f53c 30ae 53ba a78a a5bc 5f4b 943c
00000030: 80c3 20be 53bf 17be cc02 80bc 9add 693d
00000040: 511e dd3d c305 913d c1b8 12be db44 66bd
00000050: e910 403d 9bb7 1f3e 4df5 f3ba e2cd 223e
00000060: 943c 9ebc 02ca d2bc d66e c93d ff42 35be
00000070: fc33 8cbd 839e afbd fad9 f5bd 2a5d 623d
00000080: 47e4 9cbd 48c5 b0bc 8777 1dbe 136b 3abe
00000090: b7bb d6bd 5a11 b03d 7a88 9c3c 2eb3 cd3d
000000a0: cd7a de3b a2e5 c3bd 8f1f 533d 6c72 83bd
000000b0: 6cbf e7bc e7a2 12bd 5dc9 ec3d 1e9e 5e3c
000000c0: 68c4 eebd f6ff 6ebd 5a26 5a3d d5ab c83d
000000d0: d726 e6b9 2467 ef3c 0027 b73c fa4f 0ebe
000000e0: 050b 093d 18a6 66bd d785 13be 1c95 88bd
000000f0: a143 123d ba10 d13d 8d9d 9cbd 89e6 e0bc
00000100: c6c4 6e3b 2213 673c 23e8 af3c ae56 713d
00000110: 41d4 fb3d f892 d33d 4646 2dbd c560 9bbc
00000120: 46f5 7f3c 31d9 fc3d 43e8 183e 1aa8 2a3e
00000130: 3661 aa3d 19a8 bebd d832 2bbd 4768 a5bd
00000140: 9667 f6bd c3fd 253e 0bd2 d93d f31f 8dbd
00000150: d6f8 eebb be4a bdbd 1a19 8bbd 51cd d3bd
00000160: 3e5f 363d 7837 f3bd dabf 37bc 070f 7a3c
00000170: 34b3 e43d e907 de3d 1f0e 41be d43b 10be
00000180: 1599 4c3d d646 45ba 6402 17be a897 8cbd
00000190: e3ba f83d 77cd e33d 89b6 45bc 469e bb3c
000001a0: 88b4 6dbd cc4f 213d d5be 4cbd 3e15 1dbe
000001b0: b267 96bd b1de 07bd 4ddb c6bd 9dea da3c
000001c0: 8b10 e1bd b344 293e 8969 b43c 250d 2fbe
000001d0: db95 08bd 7863 973c ecce 1dbd d6d4 fa3c
000001e0: 30ef af3d d96f 9b3b 9901 81bd 6f59 043e
000001f0: 3d81 83bd 9e51 b8bd 3caf 133c 4cb6 c7bd
00000200: 32ce 2ebd 4f78 24be 0e1b abbd e053 29bc
00000210: b1e9 bcbd ced2 7cbd 3a1d 203e 659e 333d
00000220: d575 193d 2238 a1bd 6872 043c fa1c a83d
00000230: a272 fa3d 662d f23d 2856 3f3e 6d1b 093c
00000240: 43e7 debd 6bc8 a9bb 60bf 1a3e c8a3 623d
00000250: ea15 4a3b 3174 d9bc 894c 66bd fc4f 67bd
00000260: c17d e8bb 5ac4 7e3c 7f67 ea3d 7e3f 05be
00000270: f9b5 793c 61cb 4fbd 4b6e 173d 4e3d 503c
00000280: e2b4 cbbc 8611 a9bd 4282 3dbe 123c 85bd
00000290: a24d efbb 0428 89bd f675 06be 940e d0bc
000002a0: 3a20 88bd f0b4 7e3d 336f 383e d421 8c3c
000002b0: 9d9c 8d3d c4d0 adbc f33b 8ebd aed2 133e
000002c0: 3ea1 333d 2e58 b13b 074c a53d 29a8 d5bd
000002d0: d8c1 393d d8a8 97bc ecce bc3d 5a1e a13d
000002e0: 89be d63d 64da 8c3d 8c24 98bc 3e59 95bc
000002f0: 3fc8 f9bd ae0c 263d a766 f33c 1938 613d
00000300: ed6b 99bc b7c2 553d c348 b8bd b53e 80bd
00000310: b501 e8bd 2afe cabc f4e6 86bd 8796 38bb
00000320: 4af6 b13b 5b91 8d3d 76a2 4bbd 4b85 f0bd
00000330: 42ce 42bd 7e72 113e 0561 b13c f9da 163e
00000340: 0968 723d 9dac f3bb c683 123d 3f90 1fbd
00000350: 1689 58bd 7b6c a9bd 14ae 073d c528 0e3d
00000360: a04e 03be 520f 8dbd 257c 2a3e 13e8 0abe
00000370: c8e1 17bc dffd dd3d b7af 80bc c290 56bc
00000380: 65b6 15be b8cd 5dbb f8b8 0cbe 06e8 99bb
00000390: b21d 993c 67f4 3c3d 3e0a 893d 92aa 293e
000003a0: a4ee 553c 6394 383d 5adf bf3d 1585 5fbd
000003b0: d209 973c 6e9f cbbd bf52 e6bc 8f87 1b3d
000003c0: 5bbb d33d bb55 173e f039 2abd 2c8e 87bd
000003d0: 46fb 95b9 490a cabd 9f05 0f3e 9f6c 46bd
000003e0: 1ab1 1e3d 31f1 fdbc 0af6 f3ba 5fd0 993d
000003f0: d110 cd3d 2ee2 d6bd 8896 0abe a5a5 0cbd
0.044712514 0.118717015 -0.10625467 -0.16397314 -0.1177252 0.07167787 0.042980645 0.1561234
0.029939683 -0.0008074967 -0.020207716 0.018102346 -0.15699577 -0.14819078 -0.015626334 0.0570961
0.10796798 0.07081177 -0.1432829 -0.05621801 0.046891127 0.15597384 -0.0018612534 0.1589885
-0.019315995 -0.02573109 0.098355934 -0.17701338 -0.06845853 -0.085751556 -0.12004466 0.05526463
-0.07660728 -0.021578446 -0.15377627 -0.18204908 -0.104850225 0.085970595 0.019108046 0.100439414
0.0067895413 -0.09565283 0.05154377 -0.064183086 -0.02828952 -0.035799887 0.115618445 0.013587503
-0.11658555 -0.058349572 0.05325923 0.09798399 -0.00043897956 0.029223986 0.022357464 -0.13897696
0.033457775 -0.056310743 -0.14406525 -0.06669065 0.035709027 0.102082685 -0.07647238 -0.027453678
0.0036433204 0.014103683 0.021472996 0.058920555 0.122963436 0.103307664 -0.042303346 -0.018967042
0.015622443 0.123461135 0.14932351 0.16665688 0.08319323 -0.09309406 -0.041796535 -0.0807653
-0.12031476 0.16210084 0.10635766 -0.068908595 -0.007292847 -0.092427716 -0.06791897 -0.10341895
0.044524424 -0.11875814 -0.011215175 0.015262372 0.11166993 0.108413525 -0.18853043 -0.14085323
0.049950678 -0.0007525509 -0.14747006 -0.06864864 0.12145021 0.11123174 -0.012067446 0.02290262
-0.058033496 0.03938274 -0.04998668 -0.15340135 -0.07343997 -0.03317136 -0.09709797 0.0267232
-0.109894834 0.16530113 0.02202298 -0.17094858 -0.03334604 0.018480048 -0.038527414 0.030619066
0.08590543 0.004743558 -0.06299133 0.12924741 -0.064211346 -0.08999942 0.009013947 -0.09751567
-0.042677112 -0.16061519 -0.0835477 -0.010334939 -0.092242606 -0.061724477 0.15636149 0.04385223
0.03746589 -0.078720346 0.008083917 0.08208652 0.12228896 0.11825065 0.1868521 0.008368355
-0.108839534 -0.0051813624 0.15112066 0.055331975 0.0030835816 -0.026544662 -0.056225333 -0.056472763
-0.007095069 0.015549744 0.114455216 -0.13012502 0.01524114 -0.050731067 0.036970418 0.012709929
-0.024866525 -0.082552955 -0.1850672 -0.06505598 -0.0073029557 -0.066970855 -0.13130936 -0.025397576
-0.06646772 0.062184274 0.18011169 0.017105974 0.06914637 -0.021217711 -0.06945028 0.14435837
0.043854944 0.005412123 0.08071142 -0.10432465 0.04535088 -0.018513128 0.09219155 0.07867117
0.104855604 0.06877592 -0.018572114 -0.01823103 -0.12196397 0.040539436 0.029712034 0.05498514
-0.01872822 0.052187648 -0.08998253 -0.062619604 -0.113284506 -0.024779398 -0.065870196 -0.0028165893
0.0054309713 0.0691249 -0.04971548 -0.117441736 -0.047559984 0.14203832 0.021652708 0.14731969
0.059181247 -0.0074363486 0.0357702 -0.038955923 -0.05286511 -0.08272644 0.033125 0.03470685
-0.12822962 -0.06887688 0.1664892 -0.13565092 -0.009270139 0.10839438 -0.015708787 -0.013096036
-0.14620359 -0.0033844542 -0.13742435 -0.004696849 0.018690918 0.046131518 0.06691407 0.16568974
0.013057385 0.045063388 0.09368773 -0.054570276 0.0184373 -0.09942518 -0.028115628 0.037971076
0.103384696 0.14778797 -0.04155916 -0.06618914 -0.00028606708 -0.09865243 0.13966988 -0.048443433
0.038743116 -0.030998798 -0.0018612754 0.07510447 0.10012973 -0.10492359 -0.13533986 -0.03433766

bias f4 [128]
00000000: 1062 513d 844a 2e3d 31c6 dc3d 71be 21be
00000010: ba6f a73d 310e edbd f732 043e 6b35 ebbd
00000020: 228c 35bd 6ac5 7b3d 2d23 6f3c 50ca 723d
00000030: 8690 9fbc 02f3 8a3d dc55 b4bd 60a6 eb3c
00000040: c73d 9c3c 4c20 da3d 300e f7bd 5936 37bd
00000050: ab06 a6bd 5798 c9bc cd3e b8bd e31a 11bd
00000060: 9021 333d 5821 4abd c610 163d 5393 71bd
00000070: f622 0cbe 54f9 333d e69b 45bd 922b 8cbd
00000080: 96a2 0ebe 034c 183d 6554 94bd 2bea 3d3d
00000090: 9fdd 80bd 55a4 65bd 4bae b2bd 3fe3 003e
000000a0: bcc3 0ebe 3798 7dbd 916e 60bc 6f36 72bc
000000b0: aec8 163d 6656 043e 715c b13d aedf 9bbd
000000c0: 32f5 38bd 1f54 8e3d 7382 9f3d 4e92 f8bd
000000d0: da1d 7dbd 4d83 48bd 77fa e0bc 5e5c e0bc
000000e0: 1e48 dcbd eea2 edbc 0216 44bd 494b 1c3d
000000f0: c6c4 09bd b5c3 b0bd d351 113e e07d 40bd
00000100: ffa5 9f3d 9278 98bd d5a8 5fbd 14aa 9f3d
00000110: 9f46 10bc 88f1 f2bd 2e3d 013e abeb 85bd
00000120: 36e4 023d 772a b6bb 4751 e73d 8726 723d
00000130: 6fa6 b03d 13fb 40bd efe7 143e aa20 3f3d
00000140: 9010 a23d 0911 8abb b77f 05be b450 ef3d
00000150: d7e6 12be 7aa5 ebbd 8d25 f13c f738 9d3c
00000160: bc99 ccbd bd5e f63d 8747 0d3d 6f85 aabd
00000170: 3865 dd3d d8fb 5f3d 3450 dfbd d6e7 4dbd
00000180: 93a6 d8bd 09f2 51bd aa8a 693d bece 4a3d
00000190: 208e 91bd c3f0 8abd 635b 07be fd76 c2bd
000001a0: 326e 0dbd 88d2 333d bcf0 b03d 593b ec3d
000001b0: 50f1 063e 5100 633c 583a d2bd 2c85 40bd
000001c0: e265 f0bd 46a1 2f3c 66b8 ab3d ba67 053d
000001d0: 1c69 a23d a910 023e 6527 bc3d bd5a b53c
000001e0: 7b92 013e c8dd 8d3d 0269 f0bd d525 0fbc
000001f0: cc20 ab3d ecac 7a3d 179f 083e 1863 c8bd
0.05111891 0.042551532 0.107799895 -0.15795304 0.08175607 -0.115749724 0.12910067 -0.11484798
-0.044323094 0.061467566 0.014595789 0.05927497 -0.019478094 0.06784631 -0.08805439 0.028765857
0.019072426 0.106506914 -0.12063253 -0.044729564 -0.081067406 -0.024608774 -0.08996353 -0.03542603
0.04373318 -0.049348205 0.03663709 -0.05897839 -0.13685212 0.04393895 -0.04824438 -0.06844248
-0.13929209 0.037181865 -0.072426595 0.046365898 -0.06292271 -0.056064922 -0.0872465 0.12586688
-0.13941854 -0.06191274 -0.013698236 -0.014783486 0.036812477 0.12923583 0.0866021 -0.07611023
-0.04515571 0.069496386 0.07788553 -0.121372804 -0.061796047 -0.048953343 -0.027463181 -0.027387794
-0.10755943 -0.029008355 -0.04787255 0.038157735 -0.033634923 -0.08631078 0.1419137 -0.046995044
0.07795333 -0.07444872 -0.05460437 0.07796112 -0.0088059 -0.11862475 0.12620994 -0.06539091
0.03195592 -0.0055592614 0.11294799 0.059118774 0.08625495 -0.047114443 0.145416 0.04666201
0.07913315 -0.0042134565 -0.13037 0.11685315 -0.14345871 -0.115061715 0.02943685 0.019192202
-0.0999026 0.12029789 0.034492042 -0.08326232 0.108103216 0.054683536 -0.109039694 -0.050269924
-0.105786465 -0.051256213 0.057017006 0.04951357 -0.07107186 -0.06784203 -0.13218455 -0.094953515
-0.03452892 0.04390195 0.086396664 0.11534757 0.13177991 0.013855056 -0.102650344 -0.047002003
-0.117381826 0.010719603 0.083847806 0.032569624 0.07930204 0.12701668 0.091872014 0.022137994
0.12653534 0.06927067 -0.11738779 -0.008737047 0.08355865 0.061200067 0.13341938 -0.09784526

weight f4 [128, 128]
00000000: f98d b83c 9a6d c03d 9196 50bd d082 59bd
00000010: 7310 903d d557 393d e719 9c3d 9000 cdbc
00000020: b2af 2f3d 0adb 8bbd be8b 3dbd b3ed e03b
00000030: 7a14 91bd 73d0 133c f910 23bd 71a0 bd3d
00000040: f582 9abc d0c4 1c3d d0b4 df3b e9f6 a03d
00000050: 07b5 79bb f6f0 1e3d e20f 73bd 2225 94bd
00000060: 0042 503d 374d 353d da96 15bd 167b 743d
00000070: c9b8 ad3c f1c9 1ebd 3cb6 703d 4fc1 a63d
00000080: 1b9c 01bd 44f4 883d 777a e9bc 503a 9ebd
00000090: c2f6 8ebd 6f92 1dbd 342b a03d 79bb 313d
000000a0: 9873 933d 4bd5 233d f489 f7bb 3fe5 70bd
000000b0: d6e3 8cbd e84d cabc 5781 0cbd ce4c 953d
000000c0: 529d f0bc 9929 eaba 8172 983c 6250 813d
000000d0: 0459 96bc 04c9 293d 29e2 8fbd 7389 cbbd
000000e0: ce5a c1bc 44f1 083d 0edb 3b3d 3516 243d
000000f0: 354a 6a3d 369f 5bbd f0a5 f53c 15ad 903d
00000100: 1cd9 4dbd c7ea 593d 1a1f a5bd 7a72 823d
00000110: a1a7 823d 09bc 963d 943a a7bb b57b 77bc
00000120: 8995 35bd a4a3 ab3d 3db4 793b 77f7 c7bc
00000130: 1e59 873c 6b91 2b3d 1e9f 18bd 0c05 86bd
00000140: 6703 61bc be31 b43c 9f48 e9ba 3f40 59bc
00000150: 188b ff3b e3c2 8cbc 18ea 9c3d eb38 47bd
00000160: c07f a43d 1912 843b ab05 663d 31a2 de3c
00000170: f4c3 66bd 028d 943d e713 14bd 1478 8fbd
00000180: 90f2 003d 72bc 523c 2bf2 70bd 0b55 19bd
00000190: 76b8 8b3d 1a61 c9bd 94f7 1f3b 4f82 38bb
000001a0: 3276 a2bd 24e2 2e3d 3558 8ebd 5045 053c
000001b0: 7dd2 24bc 50f6 4e3d fe59 cbbc abe3 b2bd
000001c0: 14e6 66bc 1478 983d 14e2 45bd 5d91 aa3d
000001d0: db6d 763d acf7 3fba f065 15ba 30bc 653d
000001e0: f588 af3b 8f93 9c3c cf56 45bb 54cd 903a
000001f0: 2e26 87bd 178a 33bd a6a9 b83d 5bde 333d
00000200: 748d c0bb 2102 703d eef7 7bbd c1ae 4d3d
00000210: 4ae3 18bd 534d b93d 39f7 a53d 2f81 ce3c
00000220: cbe1 c3bc 9661 853d 412b 3b3d 82db 103d
00000230: f28a 25bd 2e95 cc3c 6b96 4abd 90a9 4cbd
00000240: 9963 043d d221 ae3d 2cb8 083d e026 0ebd
00000250: 5532 b43c d10a 28bb a793 d33d 161c a1bd
00000260: dad3 cb3c 3ac2 d5bd 3e18 dc3c 5b7b 6d3d
00000270: 5757 603d 9587 5dbc 69b1 e33c fc35 7e3c
00000280: eef2 3ebd c218 cb3d 826a a43d 9406 003d
00000290: 0623 58bc c562 873d d433 c2bc 13e0 85bd
000002a0: 04a0 95bb 3bea 843c ff2b 883d 83b5 1c3d
000002b0: 80bb d83c eaea 60bd 264c 953d 7f3d a53d
000002c0: 8697 abbd 4953 be3d e7a4 f0bb a7e3 5f3c
000002d0: b97e 3d3c 6ca1 393d b359 253c bdfb c8bb
000002e0: ed1d 59bd 673b 71bd 528b 10bb 4acd 92bc
000002f0: 15ed 703d b936 1dbd a851 cc3d 7e14 cebd
00000300: 0157 d13d fa72 823c 89ca cfbd 325f 543c
00000310: 2b87 d9bc b73f 42bd 4b89 c9bc 9230 2dbd
00000320: 3d92 733c 834a 933d eca3 c0bd d9ff 8b3d
00000330: 36be b6bc a5db bbbc d68d af3d ed8a 2fbd
00000340: 29b5 85bd 0e44 bf3a b9a9 403c 0a35 a03c
00000350: 0caa c93d 2f39 ec3c 4183 febd 7a1f 48bd
00000360: e130 d2bc 59cd c5bc 28cd 903b 22e7 003d
00000370: 72cc 5e3d 1c12 50bd 3a30 843a 72ad 1e3d
00000380: 7f6f c73c ff4a 29bc a475 c53c fe5f 253c
00000390: 6aeb b6bd 0393 d6bd 5576 6abc 070b 003c
000003a0: 9b68 62bd 171d bcbd 0e06 93bd 4d73 313d
000003b0: 92f5 873d e20c af3d 230f 60bd 4c2f bc3d
000003c0: 871c 46bd ddb2 b4bd 1afc b43d fb07 a73d
000003d0: e1cc 8c3b 5261 8cbc 764c 68bc 8fb6 a13b
000003e0: c3fb 003d 25b5 c7bc 8d7e 4cbc 70f8 133d
000003f0: c40b 0d3d d206 40ba dccd f43c a6d4 713c
0.022528635 0.09395905 -0.05092484 -0.05310327 0.070343874 0.04524978 0.07622128 -0.025024682
0.042892165 -0.06828888 -0.046275847 0.0068642735 -0.07083984 0.009021866 -0.03981111 0.092591174
-0.018861273 0.038273633 0.0068269745 0.078595944 -0.0038102285 0.038804017 -0.05934132 -0.07233645
0.050844193 0.04426309 -0.036520816 0.059687696 0.021206276 -0.038766805 0.058767542 0.081423394
-0.031643014 0.06687215 -0.028500779 -0.07725966 -0.06980659 -0.038469728 0.0782074 0.04339168
0.07199782 0.039998334 -0.007554287 -0.058812376 -0.06879394 -0.024695352 -0.034303036 0.0729004
-0.029371891 -0.001786518 0.018609287 0.0631416 -0.018352993 0.04145147 -0.070255585 -0.09938326
-0.02360287 0.033433214 0.045863204 0.04006024 0.057199676 -0.053618632 0.029986352 0.07064263
-0.05025588 0.053202417 -0.08062573 0.06369491 0.06379629 0.073600836 -0.0051034186 -0.015105178
-0.04433206 0.08380821 0.0038101815 -0.024409993 0.016521987 0.04188673 -0.03726112 -0.06543931
-0.013733721 0.021996375 -0.0017798132 -0.013259946 0.0077985637 -0.017182773 0.07661837 -0.048638266
0.08032179 0.0040304777 0.05615775 0.027176948 -0.05633922 0.072534576 -0.036151793 -0.07005325
0.031481326 0.012862312 -0.0588247 -0.03743462 0.068222925 -0.09832974 0.0024409043 -0.0028153842
-0.079327 0.042696133 -0.06950418 0.008134201 -0.01005995 0.05052787 -0.024823185 -0.087348305
-0.014092941 0.07444778 -0.048311308 0.08328507 0.06016336 -0.0007322978 -0.0005699089 0.056087673
0.0053569027 0.01911333 -0.0030111556 0.0011047521 -0.06599079 -0.043832865 0.09016733 0.043913227
-0.0058762375 0.05859578 -0.06151574 0.050215486 -0.037326135 0.090479515 0.081037946 0.025208084
-0.023911377 0.06512754 0.045695547 0.03536559 -0.04041571 0.024973478 -0.049459856 -0.049966395
0.032321546 0.085025445 0.033378765 -0.034705043 0.021996656 -0.0025641213 0.10330897 -0.07866685
0.024881292 -0.104374364 0.026867028 0.05797897 0.054770794 -0.013521095 0.027794557 0.015515801
-0.046618395 0.099168316 0.08028127 0.031256273 -0.013191944 0.06610636 -0.023706354 -0.065368794
-0.0045661945 0.016224971 0.066490166 0.03825904 0.026456594 -0.05491153 0.07289915 0.0806837
-0.0837851 0.09293229 -0.0073438766 0.013665116 0.011565858 0.04531996 0.010092187 -0.006133525
-0.053007055 -0.05889454 -0.0022055698 -0.017920155 0.05881985 -0.038382266 0.09976512 -0.10062502
0.10221673 0.015923966 -0.101460524 0.012962149 -0.02655371 -0.047424044 -0.0246016 -0.04228265
0.014866409 0.07191946 -0.094062656 0.068359084 -0.022307497 -0.022931883 0.08571975 -0.0428571
-0.06528694 0.0014592425 0.011759215 0.019556541 0.09846887 0.028835861 -0.124273784 -0.048858143
-0.025658073 -0.024145769 0.004418988 0.031470425 0.054394193 -0.05079852 0.0010085173 0.03873963
0.024345158 -0.010332822 0.024103947 0.010093687 -0.089316204 -0.10477259 -0.014310439 0.007815129
-0.05527554 -0.09185236 -0.07178889 0.04332285 0.06638636 0.08547379 -0.054701935 0.09188709
-0.04836705 -0.08823178 0.08837147 0.08155819 0.0042968844 -0.01713625 -0.014178386 0.0049350928
0.0314901 -0.024378369 -0.012481344 0.0361256 0.03443505 -0.0007325235 0.029883318 0.014760172

bias f4 [128]
00000000: 7212 ffbc 14b3 b1bd 158a 413d 2a81 97bd
00000010: d7f0 233d 44f9 e53d 7b89 75bc 3b68 493d
00000020: fc4b adbb 944d 1c3d bad9 40bd 59f5 d33d
00000030: 3e08 e43d 9fa0 4b3d 2738 693d 0430 5abc
00000040: 7660 9d3d 0544 eabd 648c 453d 9690 993d
00000050: 751b 943d 3c4d 98bd c3ef 83bd 72a0 71bd
00000060: 2a7e d93d b960 aabd 302e 943d b64e 9ebd
00000070: 08c9 b5bd 19d0 923d 3a14 123c eb4c a8bd
00000080: 9562 a8bc 4c47 87bd 486e 733c 2ccb 2a3d
00000090: c1ad a6bd 78f7 ab3d aa0d 6abd 46a2 963d
000000a0: 72c0 a8bd b622 a1bb 4e14 693d 220f ccbd
000000b0: 08fd 94bd c92b bbbd f3c6 903d c0a1 5b3d
000000c0: d387 943c 9baa 1a3d 8b38 ed3c 4350 473d
000000d0: 0384 a23d 990d c8bd efea 3dbd 8472 403d
000000e0: 8f30 30bd 955e 95bd af65 e43d cfb1 663d
000000f0: 7566 273c e79e 883b 3acd cf3c 2bc8 9bbd
00000100: dbca 293d 569f 0f3d 4a16 00bd a0ad 1f3c
00000110: e14a 733c 9fb9 82bc 971c a8bd 3745 8a3d
00000120: e557 aebb bbc7 5bbd 55ec cd3d 86bb 993d
00000130: 715f 683d 6a5c e13c c7ee abbd 7c54 183d
00000140: d102 c93d a593 943d 38d3 f8bc aa00 8abc
00000150: 090c bdbd 2caa 97bd cee0 263d 3554 bdbc
00000160: 5f54 e13d e8ec 07bc 3356 7a3d 8789 8d3d
00000170: a92c 39bd 2e01 ca3b c51f afba 0699 a8bd
00000180: 1826 e6bc 92af d9bd d9aa cc3b d838 703d
00000190: 10f3 95bc acfb 913d 82ce b1bc 1473 a63c
000001a0: 269a 303a e9cb 463d 66f5 893d e241 9ebd
000001b0: 11dc a83d 6a86 813b 4a4c b2bd e305 283d
000001c0: 6e6e 083d 9408 1c3d 6ece 80ba 94bc 5ebd
000001d0: 506f c7bd 3717 8bbd 1765 983d 61a4 093d
000001e0: 8f36 adbd dc15 fe3c 1bd6 a33d e08c 0b3d
000001f0: 9d35 72bd 6675 c23a be94 36bc 4722 733d
-0.031136725 -0.086767346 0.047250826 -0.07397683 0.040024605 0.11229184 -0.014986391 0.049171668
-0.005288599 0.03815992 -0.04708264 0.10349531 0.111343846 0.049713727 0.056938317 -0.013317112
0.07684414 -0.11438755 0.04822959 0.07498281 0.072317995 -0.07436606 -0.06442215 -0.058990903
0.10619767 -0.0831923 0.07235372 -0.07729857 -0.08876234 0.07168598 0.008915955 -0.08217796
-0.02055482 -0.06605396 0.014857836 0.041697666 -0.0813861 0.0839681 -0.057141937 0.0735517
-0.08239831 -0.004917468 0.05690413 -0.09963824 -0.072748244 -0.09139211 0.070691966 0.053621054
0.018131172 0.03776036 0.028957626 0.048660528 0.079353355 -0.097682185 -0.04636663 0.04698421
-0.04301506 -0.07293431 0.11152207 0.056321915 0.010217299 0.0041693333 0.025366414 -0.076065384
0.041453224 0.035064064 -0.031271257 0.009745985 0.0148493955 -0.015957652 -0.08208578 0.06751483
-0.0053205364 -0.053657275 0.100548424 0.075064704 0.056731645 0.027509887 -0.083951525 0.037189946
0.0981499 0.072547235 -0.030374154 -0.01684602 -0.09230811 -0.074055046 0.040741734 -0.023111442
0.11002421 -0.008296229 0.061117362 0.06910997 -0.045208607 0.0061646914 -0.0013360908 -0.08232312
-0.028094336 -0.106291905 0.0062459526 0.05864796 -0.018304378 0.07128081 -0.021704916 0.020318545
0.0006736837 0.048534308 0.06736259 -0.0772741 0.08245099 0.003952791 -0.08705957 0.04102124
0.03330844 0.03809412 -0.0009827146 -0.05437906 -0.09738028 -0.06791537 0.07441156 0.03360403
-0.08457672 0.031016283 0.07999822 0.034069896 -0.05913316 0.0014836013 -0.011143861 0.05935886

weight f4 [128, 128]
00000000: cea2 92bd 9e7c 9fbd e264 443c a15f 1dbd
00000010: b05d 4c3d 8033 203d 6c7e e63c 3df8 763d
00000020: 6235 41bd 0914 993d 9d4e 1bbd 7849 953d
00000030: bcd8 98bd 36e8 193d 29d7 843d 0a7a e73d
00000040: 2a34 02bd 7acb a13d 2a86 a3bc 4ee8 083d
00000050: 563d 04bd 9284 be3d c47a 0abd 8844 03be
00000060: 3bf2 d9bc dc4e 83bd 8345 b0bd 1c15 933c
00000070: 413f c03d ee6e af3d 81c3 833d 3944 b7bd
00000080: 26af 8e3d fb80 a4bc 372e 183c aa24 a53d
00000090: 2847 f93c e83f fd3c 488f 913b 15e5 d13d
000000a0: 12b3 1d3d dfaa 08bc 4cca d9bb d4a9 3c3d
000000b0: c731 a1bd 89bc 87bd 87f5 ba3d 493e 993c
000000c0: ecfa 163c 4345 bbbc 7b33 3fbc 79bd d53d
000000d0: da85 c4bd c0d6 d4bc 750f 9dbc cfe8 79bd
000000e0: 7405 b53d 6f2e dabd 3b27 733c ab9a 963d
000000f0: 6fd2 79bd fd60 8dbd 58b7 6fbc 77b5 2fbd
00000100: a1d3 643d 30e2 22bd 3ce1 9bbd fc32 fb3d
00000110: b543 31bd 5344 7ebd 7c89 9bbd 6608 a43d
00000120: 788f b33d 800a 8abd 09cf 06bd aa12 0d3d
00000130: cbd2 a43c 28dc 90bb fe01 0a3c 54b7 8ebd
00000140: 5c84 8ebd d96e 4d3d 0a07 d0bc f694 5fbd
00000150: 68b2 753d a54a 8f3d 3025 5c3d ac09 0fbd
00000160: d464 db3b 89ad 803c 5927 573d 3ce8 193c
00000170: 2cef f63b bcef cb3d f1af 1c3c c610 d73a
00000180: 7bae 733d d109 87bd c4a7 abbc b0e4 9c3d
00000190: 0de3 fbbc 32eb 7f3a 862e 29bd ef5d bebc
000001a0: 552e d73d 52ca 163b 0058 bb3b 5ec1 07bd
000001b0: 4523 9a3d 8ad8 c7bc ad71 a6bd 0e17 813c
000001c0: cd73 2f3d 6ca4 263d e53c fc3c 40ef 533d
000001d0: a9fa 693d 130e 1abd eb8b c03d d62c e1bd
000001e0: 51cc f7bc ab3c 2b3d 31f2 163d d77c df3d
000001f0: 4449 66bd e335 983c 5461 80bd 506d b33d
00000200: 4eac e4bc 8c8a 583d 3619 21ba 0b80 ef3c
00000210: cc73 82bc d48c d13d 3fb9 6f3d 97f5 a43d
00000220: d63b e43c 349f 3dbc b08c 90bc 1150 913d
00000230: c8ad f73b b818 ef3d 4ee7 ca3d c2d4 343d
00000240: 3066 c13d b7b1 ecbd bddc b73d 1af4 b13d
00000250: e06b 2abc 7ec7 17bd 3730 c0bc 92db 91bc
00000260: 2d5a 633d cd86 b7bd 6447 3c3d 4133 6b3d
00000270: 065e 9cbd 95b6 9d3d cb1e 85bd 83cb 60bd
00000280: c0d8 b53d 565a 583d 446a 6439 9e4d 5c3d
00000290: cea5 a3bd 4010 ab3d b565 a23d 1dbd ff3c
000002a0: f643 39bc c772 b0bd b3fb bc3d f971 0fbd
000002b0: 9e3f a33d d597 bcbc 782d 89bc d7f9 973d
000002c0: 24e9 a5bb c612 833c 7185 a1bd ec7b a7bd
000002d0: e4b9 5c3d 5a44 68bd 24e8 523d 1acf 2ebd
000002e0: 898e 513b 3a2c 213d 4ceb d93d 942f 903d
000002f0: f870 75bd 3ee6 bc3c 41ad 9cbd d3ac 573d
00000300: 4824 4f3d 20df 7abb 22e0 1e3d 0d29 6e3d
00000310: 9c7c 1dbd 7f33 9ebc b67f d8bd 4e5b 73bb
00000320: e515 093d bae1 ffbc a3af 2bbd 6e03 92bd
00000330: 2f47 1f3d 1769 983d 18c1 363d 8eba a7bd
00000340: a637 a53d 54df a43d b43f 5bbd 6272 033d
00000350: 77ca 863d be99 97bd b65e 94bd 899e 4fbd
00000360: 308c 30bc 3221 963c f3d6 e0bb 88c2 823d
00000370: 6c9b 64bd 67f6 0dbd 40ca 9dbd 7f72 be3d
00000380: 19e1 68bd 4363 edbc 58dc 9d3d 547e cebc
00000390: b40f a23c 764d 27bd 86f7 5d3b 1b50 ccbb
000003a0: 3393 42bd fc6e 6ebd 1e1f 97bd 7c6f abbd
000003b0: 5278 f43c 431d 873c cd31 833d 9685 8dbc
000003c0: 3141 10bd 19ad 8f3d 1c1f a1bd 8fe8 8bbd
000003d0: ea34 bc3d 1608 50bd 8f1b 75bc 4489 2d3d
000003e0: 8045 b9ba f891 dbba 4914 aebb 2b3a 7ebd
000003f0: 9825 4fbc 8f8a c83c 49c4 393d ab39 aabd
-0.07159959 -0.07787441 0.011986943 -0.038421277 0.049894035 0.039111614 0.028136455 0.060295332
-0.04717005 0.074745245 -0.03791677 0.07289404 -0.07463214 0.03757497 0.06486351 0.11302574
-0.03178803 0.07900138 -0.019961435 0.033424668 -0.032285057 0.093026295 -0.033808485 -0.12819111
-0.026604762 -0.064115256 -0.08607008 0.017954402 0.09387065 0.0856608 0.06433774 -0.08948559
0.06967001 -0.020081034 0.009288362 0.08063634 0.030429438 0.030914262 0.0044421293 0.10248772
0.038500853 -0.00834152 -0.00664643 0.0460604 -0.078708224 -0.06627757 0.09128862 0.018706458
0.009215098 -0.022860175 -0.011669989 0.1043653 -0.09595843 -0.025981307 -0.01917241 -0.06101304
0.08838931 -0.10653388 0.014840896 0.07353719 -0.0609917 -0.06903265 -0.014631115 -0.042897668
0.055865888 -0.03976649 -0.076113194 0.12265584 -0.04327746 -0.062076878 -0.075945824 0.080094144
0.08767599 -0.06740284 -0.032912288 0.034441628 0.020120045 -0.004420776 0.008423327 -0.06968561
-0.06958839 0.05015454 -0.025393981 -0.05458542 0.059984595 0.06996659 0.053746402 -0.034921333
0.0066953693 0.015707748 0.05252776 0.009393748 0.0075358357 0.09957835 0.009563432 0.0016408197
0.05949257 -0.06593669 -0.02095402 0.07660806 -0.030747915 0.0009762525 -0.041304134 -0.02323815
0.10506884 0.0023008776 0.0057172775 -0.033143394 0.075262584 -0.024395246 -0.08127151 0.015758064
0.042835046 0.04068415 0.030790756 0.05174184 0.057123814 -0.03761108 0.09401687 -0.1099488
-0.030248793 0.041805904 0.036852065 0.10912483 -0.056222215 0.018580383 -0.06268564 0.08761084
-0.027914193 0.052866504 -0.00061454193 0.02923586 -0.015924357 0.10231939 0.058526274 0.08054655
0.027860563 -0.0115736015 -0.01764521 0.070953496 0.007558558 0.116746366 0.09907399 0.044148214
0.09443319 -0.11557334 0.08977649 0.08689137 -0.010401696 -0.037055485 -0.02346049 -0.017804895
0.05550592 -0.08961258 0.04596652 0.057421926 -0.07635121 0.077008404 -0.06500014 -0.054881584
0.088792324 0.052820526 0.00021783361 0.05378496 -0.07990609 0.08352709 0.07929555 0.031218106
-0.011307707 -0.08615642 0.09227695 -0.035020802 0.079711184 -0.023021618 -0.016745314 0.074207
-0.005063193 0.016000163 -0.0788678 -0.08177933 0.053888217 -0.05670581 0.051490918 -0.042677976
0.0031975827 0.03934882 0.106405824 0.07040325 -0.05992219 0.023059007 -0.07650233 0.052655052
0.05057171 -0.0038279966 0.03878797 0.058144618 -0.038448915 -0.019311665 -0.10571234 -0.003713328
0.033468146 -0.031235565 -0.041915547 -0.071295604 0.038886245 0.07441919 0.044617742 -0.08189879
0.08067255 0.08050409 -0.05352755 0.032091506 0.06581586 -0.07402371 -0.07244627 -0.0506883
-0.010775611 0.018326376 -0.0068615614 0.0638476 -0.055812284 -0.034658816 -0.07704592 0.09299182
-0.056855295 -0.028977996 0.07708043 -0.025206722 0.019782878 -0.040845357 0.003386946 -0.0062351353
-0.04750366 -0.05821131 -0.07378982 -0.08370873 0.02984253 0.016493445 0.06405983 -0.017275613
-0.03521842 0.07015438 -0.07867262 -0.068314664 0.0918978 -0.05078896 -0.014960184 0.042367235
-0.0014135092 -0.0016751876 -0.005312477 -0.062067192 -0.01264324 0.024480132 0.045353208 -0.083117805

bias f4 [128]
00000000: 01cf 94bc ff28 db3c 141a c63c 339d cc3c
00000010: 456c 4abc d854 81b9 a437 4bbd 3a45 9abd
00000020: 7d6a d5bc da63 b0bd 91c6 8abd 2571 2dbd
00000030: ab5f bcbb 0b0c 603d 80e6 563d f813 a5bd
00000040: 0c77 7fbc 2625 3fbc f0a2 323d 1896 26bd
00000050: 0696 b8bd 2ec7 1d3c b719 abbb ca37 c4bc
00000060: 18ad 13bd 87d3 b9bd 62fa abbd 6640 d23c
00000070: 1d10 e13c bd48 d43a c91c dbbc c96e 513c
00000080: d356 a9bd ea9c 65bc e64f 3bbd fa34 493d
00000090: 5e1a a63c 00a2 7d3d c86f 2e3b 5808 e4bc
000000a0: f67c 003d 0fe2 9cb9 8eed e9bc d195 ac3d
000000b0: 5eb9 35bd 9c0c 9dbd 7918 da3c d9ef b8bd
000000c0: c04f a33d a4c4 bd3c 0af6 b8bd 6533 e13c
000000d0: af67 173d bd5f 19bc 3c55 f7bc 3823 b0bd
000000e0: 519e 85bd a930 30bc dbca 11bd be45 a83d
000000f0: 9672 ba3c 8e1b 07bd ca7f 273a 2492 873d
00000100: 584e b23c dd28 c6bd 85e0 6fbd 098a a6bd
00000110: 69ba 903d 8a2b 94bd 2c60 563d 3a27 5d3d
00000120: 8d00 7c3d aff3 d33d ac55 9c3d 5f60 c83d
00000130: 158f 503d 0658 1fbd 01ee 71bd ec4c 9b3b
00000140: 0f22 b73d 1f7d a4bd f4ce e43d bb80 773d
00000150: 6cb7 0cbd 699d 413d 135c 1cbd 3039 113b
00000160: d735 05bd 4276 99bd 7fe9 9cbd b16b 7ebd
00000170: 8a1e b83c 9d56 77bd c76e 76bd 2c5e b13d
00000180: 5b36 3b3d 479c 1abc 8592 8abd dce4 ba3d
00000190: 6487 353d 5c57 90bd 80c9 80bd 4133 753d
000001a0: e15d c4bd a691 3fbd ff5d c5bc b0d3 a9bd
000001b0: 3a80 a73d 65e5 0abc c07c cfb9 d9a9 733d
000001c0: 16ab 90bc 9c43 513a 7afa 69bd 4bee aaba
000001d0: 5f8f d6bd cf27 093d e60f 07bd a995 08bc
000001e0: 4d8f 783d 56b6 a7bc d72d 893d 642c 87bd
000001f0: 144b 723c 27a2 733b 1525 e63d 2877 3cbd
-0.018165113 0.026752947 0.024182357 0.024977302 -0.012354915 -0.0002466801 -0.04961361 -0.07532735
-0.026051754 -0.08612795 -0.06776155 -0.04234423 -0.005748709 0.054698985 0.052465916 -0.08060449
-0.015592348 -0.011666572 0.04361242 -0.040670484 -0.0901299 0.009630008 -0.0052215713 -0.023952384
-0.036053747 -0.09073549 -0.08397366 0.025665473 0.027473504 0.0016195994 -0.026747124 0.012782761
-0.082685135 -0.014014462 -0.045730494 0.049122788 0.020276245 0.061922073 0.002661692 -0.02783601
0.031369172 -0.00029923065 -0.028555658 0.08427013 -0.044366233 -0.07668421 0.026622998 -0.09030122
0.079741955 0.023165055 -0.09031303 0.027490327 0.036964115 -0.009361205 -0.03019201 -0.086004674
-0.06524337 -0.010753789 -0.03559385 0.08216427 0.022759717 -0.032985263 0.00063895865 0.06619671
0.021765873 -0.09675763 -0.058563728 -0.08131797 0.07066805 -0.07234867 0.05233781 0.053992487
0.061523963 0.10349213 0.07633528 0.09784006 0.050917704 -0.038902305 -0.05906487 0.0047393944
0.08942043 -0.080316775 0.11172286 0.0604255 -0.034354612 0.04726926 -0.038173746 0.002215933
-0.03252205 -0.07493259 -0.07661723 -0.06211442 0.0224755 -0.060385335 -0.06016424 0.0866054
0.045706134 -0.0094366735 -0.06766228 0.09125683 0.04431857 -0.070479125 -0.06288433 0.059863333
-0.095882185 -0.04676976 -0.024092672 -0.08292329 0.08178754 -0.0084775435 -0.00039575063 0.05948815
-0.017659705 0.0007982792 -0.05712364 -0.0013040988 -0.104765646 0.03348523 -0.032974146 -0.008336463
0.060683537 -0.020472687 0.066981964 -0.06600264 0.014788408 0.0037175508 0.112375416 -0.046012074

weight f4 [128, 128]
00000000: 08f7 aab9 c852 853c 475b 6cbd 2a23 393d
00000010: 49d5 013d 34f5 6b3d d3f0 1b3d 7cac 683d
00000020: 0bb3 0e3c 77b2 89bc 3d43 c0bd 885b 913b
00000030: 8cdc dcbc a1f7 98bd e1e2 463d 3677 bf3c
00000040: a45c e03c ac15 97bd c696 51bd 2e62 b93d
00000050: c687 703d 97a8 a53c e6d1 7a3d feb2 8bbd
00000060: 520d 933d 12af b4bd fd54 833c f7ae 8ebd
00000070: ada0 23bd 7d79 59bd 5f28 57bb 930d f53b
00000080: 3f7d 7fbc 81f7 b2bd a91b 3dbd 8263 95bd
00000090: 2738 babd bba5 c23d be28 543d f633 fdbb
000000a0: e7c5 2fbd ef0d d63c f252 be3d cf9b b63c
000000b0: 5a0a 323d b398 473d 7bf5 623d e12d a4bd
000000c0: c261 b0bd f7c7 8f3d 9171 723a 9e25 3f3c
000000d0: a5c1 ad3c f1a5 ab3d 026b ff3c a8b5 a8bd
000000e0: 4bd9 33bd 1bb3 a43d b027 2cbd 4c95 293d
000000f0: 2a2f 88bd 0c4e 3a3d 979a 813c 394b 773c
00000100: 830a 4e3c ba67 74bd 510b 873d ff13 66bd
00000110: 61cb af3d e3f3 65bc 2da6 28bd a362 563d
00000120: 09d8 ad3c 6d0c b23d 2f25 113d 3c7a 97bd
00000130: 0d28 053d 86b0 4c3d d285 5fbd 47a4 a13c
00000140: 52fd 9cbd 7673 5ebd a9cf 85bd 32d3 493c
00000150: 1366 74bd 50db a1bd 0657 af3d c8fd 99bd
00000160: 1148 88bc ca1e f73c b497 d83c 1a83 9fbd
00000170: ec37 9dbd aa4e 313c c07a 2ebd bc70 74bd
00000180: 744c 493d 77d0 733b 97da 9abd 3f0a 5cbd
00000190: e92b edbc 24ae ee3c 8e47 ccbd 8df4 bb3a
000001a0: 7e72 febb 1c67 18bd 7deb 3a3d 2007 56bc
000001b0: 34b8 2dbd c1e3 94bd 00aa 92bd 3460 a13b
000001c0: 64db 95bc e34c 0a3d 7936 7e3d 6b6b 723d
000001d0: d2a3 48bc 0cf4 83bb 26f1 3ebd c2f1 1f3d
000001e0: d33d 9f3d a68d e1bc 2842 41bd 1621 9dbd
000001f0: 60aa 15bb ae42 dd3c 35cf 42bd bd2e 253c
00000200: 39d2 60bd 9db4 60bd e294 7ebd 3e60 cbbd
00000210: 0948 15bd 243d 893d 6f82 0ebd 001f 223d
00000220: 2f27 353b 5a88 4bbd ec6b 01bd 7648 64bc
00000230: d69b a53d 3027 85bd 55e2 18bd cf65 b83c
00000240: 102c af3d 9c7c 613c 6621 823d b6ad 173d
00000250: 6954 8c3d 3718 5cbc 1fbb 9a3d 1b6d 0e3d
00000260: 469a 8b3d 4f79 2fbb 6342 bd3c 1f0e ddbb
00000270: 1022 103d 6838 363b 6e74 6bbc de4e 06bd
00000280: c282 493d a9e1 b63d 9a71 483c 895f 8bbd
00000290: c8d9 c03b 6285 6fbd 1063 af3d 55a6 333d
000002a0: d91b bbbc 16e0 b03c a4a3 023d 5b7a 963d
000002b0: b8c1 5b3d 39de 703d 312d 863d 230f 883d
000002c0: ba34 873d c8c6 393d 6a6b 763d 52eb 19bd
000002d0: 1968 69bc bdf4 333d f878 363d d6d7 34bd
000002e0: a5a0 2e3d b81f 413d c889 f43c fcf4 523d
000002f0: d64d afbd c026 29bd 1394 8b3d 0508 3abd
00000300: 0685 a4bd 7233 b53c b727 b93b ccae 4bbd
00000310: 003e 8f3b 414b 9ebd b642 3dbb 4ecb 93bc
00000320: 4535 093a 5009 143c c920 8f3d 06e3 34bd
00000330: 083b 36bd d2aa d03d f426 0c3d c52f 9fbd
00000340: 30f1 b13c b0c9 a7bd b350 703d 52c5 8dbd
00000350: 1258 70bd 4b96 2b3d f206 e5bb dace 8c3c
00000360: 705d e43c 3479 84bd 25ea 7bbd 70f9 193d
00000370: 016d a7bd fe92 6b3c 5412 c2bc a301 0abd
00000380: 699a bf3c e82e 0bbd 64d1 b5bc a237 40bd
00000390: ebaa 4a3b 1b65 663d a1a2 f7bc 1e56 a33d
000003a0: 466b 9338 e281 48bd 1848 963d a750 dc3d
000003b0: 5161 c73c 54d6 b6bd e6f0 9a3b ff2c 863d
000003c0: c9b5 393d 0949 7bbd 3f9a 0dbd bb06 1ebd
000003d0: 6250 d1bc f4b1 623b 512c 91bd 6b9f 28bc
000003e0: 1b0e bfbd 3bc4 b7bc 0395 9c3d c821 973d
000003f0: ba69 6f3c 4173 6fbd fc7b 383d 31c1 693d
-0.0003260898 0.016274825 -0.057704236 0.04519955 0.031697545 0.05760689 0.038071465 0.05680512
0.008709679 -0.016808731 -0.09387825 0.00443596 -0.026960634 -0.074691065 0.048556212 0.023372274
0.027387924 -0.073771805 -0.05116918 0.090519294 0.058723234 0.020221991 0.06123533 -0.068212494
0.07180275 -0.088224545 0.016031737 -0.06966966 -0.039948154 -0.053094376 -0.003283046 0.007478425
-0.015593826 -0.08738614 -0.046168957 -0.0729437 -0.090927415 0.09504267 0.051796667 -0.0077271415
-0.042913344 0.02612969 0.09293164 0.022291092 0.043466903 0.04872961 0.05540989 -0.08016563
-0.08612396 0.07020562 0.000924849 0.0116666835 0.021210501 0.0838126 0.031178955 -0.08237773
-0.0439084 0.08041974 -0.042030036 0.041402146 -0.06649621 0.045484588 0.015820784 0.015093618
0.012575748 -0.059669234 0.06593955 -0.056171414 0.08583713 -0.014035198 -0.041174103 0.05234016
0.021221178 0.08693776 0.03543585 -0.07396361 0.0325089 0.049973033 -0.05457098 0.019731654
-0.076655045 -0.05430933 -0.06533749 0.012318419 -0.059667658 -0.07903159 0.0856152 -0.07519108
-0.016635926 0.030166049 0.026439525 -0.077886775 -0.07676682 0.010821978 -0.042597532 -0.059677824
0.049145177 0.0037203112 -0.07561224 -0.05372071 -0.028951602 0.029135771 -0.099745855 0.001433985
-0.0077651134 -0.037207708 0.045634735 -0.013063222 -0.042411998 -0.07270003 -0.07161331 0.0049247984
-0.01829309 0.03376473 0.062063668 0.059184473 -0.012246089 -0.0040268954 -0.046616696 0.039048918
0.07775464 -0.027533364 -0.047182232 -0.07672326 -0.0022837147 0.027009334 -0.04756089 0.010081944
-0.054887984 -0.054859746 -0.062153704 -0.09930466 -0.03644565 0.06701115 -0.03479236 0.039580345
0.0027641763 -0.04969058 -0.031597063 -0.013933292 0.08086364 -0.06501615 -0.037325222 0.022509484
0.08553326 0.013762619 0.063540265 0.037030898 0.068520375 -0.013433508 0.07555222 0.03477202
0.06816535 -0.0026775186 0.023102945 -0.006746068 0.035188735 0.0027804617 -0.014371021 -0.032790057
0.049196966 0.0892976 0.012234116 -0.06805331 0.0058853365 -0.058476813 0.085638165 0.0438598
-0.022840427 0.021591228 0.03189434 0.07347556 0.05365154 0.058805678 0.06551588 0.06643512
0.06601854 0.04535559 0.06016103 -0.037577935 -0.01424601 0.043934572 0.04454896 -0.04415115
0.04263367 0.04714939 0.029850855 0.051503167 -0.08559768 -0.04129672 0.06815352 -0.045417804
-0.08033185 0.022119258 0.0056504863 -0.049727246 0.0043714046 -0.07729197 -0.0028878874 -0.01804128
0.0005234073 0.009035423 0.06988675 -0.04416182 -0.04448989 0.101888314 0.034216836 -0.07772783
0.021721452 -0.08192766 0.05867071 -0.069224015 -0.05867774 0.041891377 -0.0069893533 0.017188478
0.027876586 -0.0646843 -0.061502595 0.037591398 -0.08175088 0.014378307 -0.02369038 -0.033692967
0.023389058 -0.03398028 -0.022194572 -0.046928056 0.003092463 0.056248765 -0.030228915 0.0797541
7.0294875e-05 -0.04895199 0.073379695 0.10757571 0.024338396 -0.089275986 0.0047284244 0.06551551
0.04533938 -0.06134895 -0.03457093 -0.038580637 -0.025551025 0.0034590932 -0.07088531 -0.010291914
-0.09328862 -0.022432437 0.07645609 0.0737949 0.0146126095 -0.058459524 0.045040116 0.057069007

bias f4 [128]
00000000: 6baa 9fbd 1a4c f83c c197 933d b874 883d
00000010: ff71 643d e481 78bd c88a 6f3d af28 bcbd
00000020: d957 9dbd f077 783a 3383 81bc 36cb cebc
00000030: 46b0 86bd 6560 85bc 4864 4b3d 252c 52bd
00000040: 74cd a3bc 2c8d 97bc 84e8 5abd 3146 023b
00000050: ca35 853d 3b01 b13d 1eb0 993d 72c7 95bd
00000060: ffb4 70bd 3bfd 8d3c 147a 803d a8a9 83bd
00000070: c8c2 ca3c 2112 0fbd 0f25 fbbc 24b9 203d
00000080: 0032 803d 17e0 a73c 2f46 273c 0d8b 9a3d
00000090: e2ae 18bb 4a4c 2dbd 662e 3fbd bf85 9c3c
000000a0: 9bd9 38bd 6432 51bc 7dc0 babc 9f34 823d
000000b0: e09a 83bd 2a4f d1bc df43 c43c cc2e 01bd
000000c0: 9203 643d 5686 57bd def2 bc3d 91d4 773d
000000d0: 5334 9bbd 24c3 aa3d e031 f8bc 1447 963d
000000e0: cc57 d53b 589a 423c 5b3e 94bd dfc9 d33d
000000f0: 2cdd 23bd 75ca 8dbd e5fc 123c 0331 333d
00000100: a337 943d ec7b 24bd 8335 fc3c 9e44 bd3d
00000110: 21e2 a0bd 29ab 153d 8320 813c e1c2 4d3c
00000120: 4fae 753d 2ad2 dd3c 3c1d b13d eda3 eebb
00000130: c0ff 09bc 44bd 4b3c 5c2d 1e3a 88d5 7fbd
00000140: 9996 473d acfd 94bd 0254 78bd ccce 593d
00000150: 6257 813b 4f99 3abd c1fd c33d 8421 953c
00000160: d801 1fbd dc4b 8fbd 2a00 913d 2660 213d
00000170: 85db cb3d 8b48 92bd 1914 46bd e05d 46bd
00000180: 9eb5 5bbd 5ff6 04bd 8729 cc3d 7033 723c
00000190: e963 573c 001f 89bb a6f7 c63d c6dc d43c
000001a0: 8033 b5bd 3880 b439 eeeb 603c 6a4d eb3c
000001b0: faba ae3d 6384 773b 8376 193c 0c0e 9cbd
000001c0: f81a 893d 6042 44bd cc9e b4ba 143c 3abd
000001d0: 74e4 bb3c 6d2f 14bd 2dcd 2cbd 7716 82bd
000001e0: ce19 9e3c f26b 9d3c 3f3a cb3c 2e1d 863d
000001f0: 824d 3dbd f348 10bd c783 ba3d 01ac 393d
-0.077961765 0.030309726 0.07206679 0.06662887 0.055772778 -0.06067075 0.05848196 -0.09187447
-0.07682771 0.00094783213 -0.015809631 -0.025243383 -0.0657659 -0.016281316 0.049656183 -0.05131163
-0.019995429 -0.018499933 -0.0534444 0.0019878263 0.065044 0.08642813 0.07504295 -0.07313432
-0.05876636 0.017332664 0.062732846 -0.06428844 0.024751082 -0.0349294 -0.03065732 0.039239064
0.06259537 0.020492597 0.010209604 0.07546053 -0.0023297598 -0.042309083 -0.04667511 0.019106744
-0.0451294 -0.012768362 -0.022796864 0.06357693 -0.064260244 -0.025550444 0.023958145 -0.03153877
0.055667467 -0.052618347 0.09226011 0.060505453 -0.075783394 0.08338001 -0.03029722 0.07337776
0.0065107103 0.011877619 -0.07238456 0.10341238 -0.040005848 -0.06923381 0.008971428 0.043747913
0.07237174 -0.040157244 0.030787235 0.09241603 -0.07855631 0.036540184 0.015762573 0.01255867
0.059980687 0.027077753 0.08648154 -0.007282725 -0.008422792 0.012435261 0.0006033981 -0.0624595
0.048727605 -0.072749466 -0.06062699 0.053175732 0.0039471844 -0.045556363 0.09569884 0.018204458
-0.038820118 -0.06996891 0.070801094 0.039398335 0.099539794 -0.07142743 -0.04835901 -0.04842937
-0.05364 -0.03246152 0.09968858 0.0147827715 0.013146379 -0.0041846037 0.09715204 0.02598418
-0.088477135 0.00034427806 0.013728125 0.028723437 0.08531757 0.0037768118 0.009366634 -0.07619867
0.06694597 -0.047914863 -0.0013780235 -0.04546745 0.022936083 -0.03617804 -0.04218786 -0.06351941
0.019299414 0.019216511 0.024808047 0.06548534 -0.046216495 -0.03522582 0.09107166 0.04533005

weight f4 [3, 128]
00000000: c08f f03c 3dc9 ef3b 5a11 853d 0342 a5bd
00000010: 5625 48bd 1a58 03bd 98ae cbbc 2478 78bc
00000020: 9fd7 653d da0d 0dbd a984 963d 86f9 91bb
00000030: a750 82bb 714b b43c 46ec dd3c d662 9abc
00000040: fabb 73bc 2fbf d63c d2c6 1ebc 1018 58bc
00000050: 16ea a13c 429a 953d 7181 a2bc e9c9 99bd
00000060: 0bc1 b4bc dc31 9f3d 014e a3bc 2f25 f8bc
00000070: ab32 b3bc 0de5 9cbd 09f0 34bd 4f28 873d
00000080: daed 20bd e05f 92bd 2d95 6c3d 1329 3abd
00000090: 0414 3dbd ce4f 0dbd 69b5 02bd ea3d c9bc
000000a0: 2fdc ebbc bdb5 583d f4d5 1dbc a999 0c3d
000000b0: 3eed 45bd 5227 dbbc 3387 6fbd efbb 093c
000000c0: e53e 173d b895 44bb 70e6 473d c256 7ebc
000000d0: 771d a9bd e7a7 783b 4bf5 5abb 4c54 1dbb
000000e0: d46d 533c 100b c53a f1d4 1bbd b8c8 b43c
000000f0: ed31 95bc dbd3 3f3d 9d4d fabb 9274 4a3d
00000100: da5f 6c3b 3662 ae3b aab5 09bc 10ae b13c
00000110: 5eb7 52bc 0f4c f1bb 5ac1 fe3c 7c4d 0c3c
00000120: 5c57 b23d 00a1 b5bb 2b03 06bc 9b53 dc3c
00000130: bd3c 2f3b 31da 47bd 4e74 9d3c fc61 ce3c
00000140: a0a6 1f3c 392f 98bd 5bb0 afbd f676 16bd
00000150: 9554 e73c a1f2 94bc 24d8 48bc 362c 36bd
00000160: 537b fbbc 1196 54bd 3d23 78bd f2d6 bb3c
00000170: 499a b73d b4eb b33c 866d 693d 0342 a53c
00000180: d066 a1bd bcb5 d4bd 5762 6ebb 5bc1 80bd
00000190: a531 90bd 31bb 103d 3bb3 b73d 8229 083d
000001a0: 6540 c5bd 9be8 083c 21c1 0f3c 54b2 45bd
000001b0: 9c11 b63c fc2a 8dbd 5d5c 133d e0fa b13b
000001c0: 660e bf3c 416f c5bc 99db 8abd b0b4 6d3b
000001d0: 4c4d 4ebd 300b 8fbd beb2 f93c bf0d 5abd
000001e0: fc49 53bd a67a 6abd 52b2 533d 3a94 7d3d
000001f0: 6f39 393b 5b7d 23bd 85da c8bc a031 bf3c
00000200: 404c ce3b ff6b 393d 7952 de3c 4c67 d1bd
00000210: 1ac8 623d 1734 bfbd 824a b9bd 3f65 80bd
00000220: a974 82bc ec06 89bd 0b12 ed3d f599 113d
00000230: a3fc 0e3d 45ed 543d 3f90 c2bb e079 42bd
00000240: b463 73bc a2a3 40bd fe5d 83bb b32e fc3d
00000250: f9c7 b43d a202 dd3d 7858 aa3c 34ac d4bc
00000260: 95e3 3f3c 6829 d7bc a965 023d 2d2c 76bd
00000270: 37b6 443d 1052 353c a448 12be f5e9 5f3d
00000280: 40c5 06bc 5c18 b4bd 7dcc 973d 74c3 5a3d
00000290: 5ed5 59bd bdd0 ccbc 1395 fbbd a0d9 3dbc
000002a0: 1535 a93d e9de 90bd 9e3a aebd f49e cdbd
000002b0: 084c 753d 6525 f5bd 322f 33bd 417c 9a3c
000002c0: bac6 0b3d e8cf ba3d d253 9f3d 2484 f43d
000002d0: 84d0 5b3d 8d7f d73d 58c2 f1bd aa05 bf3c
000002e0: df33 60bd 941a 5cbd a6c4 0dbd 442b b63d
000002f0: deeb ddbc 6601 593d 8d91 1d3d 28e5 df3c
00000300: d667 503b a1cd 513d dda3 953d 7b5c 073e
00000310: 7b04 c3bd 256b 993d bece 0dbc 9808 653b
00000320: 011c 933d a20c 0ebd 841a e53d a8a4 14be
00000330: 6206 65bd 4229 73bd 1a8e ad3d a940 ca3d
00000340: d25b 943d ebee 4bbd ddbe 00be 117f dc3d
00000350: 2962 b33d bc2a 92bd ca38 df3d cd6a 46bd
00000360: ee7f 6f3d bceb 4bbd c1e4 963d fa6e 4d3d
00000370: 7a82 d23d de25 523b 29bd fabd 5263 00bc
00000380: a764 9b3d 17e2 07be 31be 4a3d 370b 0fbd
00000390: f31a 253d 24c1 df3d 8a88 d13d db70 d53d
000003a0: 3c89 82bd 321c a5bd addc f5bd 3ad7 31bc
000003b0: cd4b d43d 18bf a7bd 1b8d 883c 9cc6 d3bd
000003c0: 5a41 41bc 951c 40bd 073b 05bd 0466 123d
000003d0: 157a 893d 5d30 9bbd 02c4 3ebd f38b 96bd
000003e0: 4e07 d33d 3d51 9abd c737 f13d 2528 55bd
000003f0: db78 81bd 2f50 d6bd de98 d53b 7e82 2c3d
0.02936542 0.0073176906 0.0649745 -0.08069231 -0.04886373 -0.032066442 -0.024863526 -0.0151653625
0.056113835 -0.034437038 0.07349522 -0.0044547943 -0.0039768997 0.02200863 0.027090203 -0.018845957
-0.01487636 0.02621421 -0.009690957 -0.013189331 0.019764941 0.07304813 -0.019837113 -0.075092144
-0.022064706 0.07773182 -0.019934656 -0.030291168 -0.021874746 -0.076608755 -0.044174228 0.06599485
-0.039289333 -0.07147193 0.057759453 -0.045449328 -0.046161667 -0.034499936 -0.031911287 -0.024565656
-0.028791515 0.052907694 -0.00963353 0.03432623 -0.048321955 -0.026752148 -0.058478545 0.008406623
0.036925215 -0.0029996466 0.048803747 -0.015523614 -0.08257573 0.0037941874 -0.0033410366 -0.0024006544
0.012904603 0.0015033204 -0.038044874 0.022068366 -0.018212283 0.0468329 -0.0076386468 0.049427576
0.0036067874 0.0053217662 -0.0084051285 0.021689445 -0.012861101 -0.007363803 0.031098057 0.008563396
0.08708069 -0.0055428743 -0.008179466 0.026895335 0.0026739084 -0.048792068 0.019220497 0.025193207
0.009744316 -0.07430882 -0.08578559 -0.036734544 0.028238574 -0.0181821 -0.012258563 -0.044475757
-0.030698454 -0.051900927 -0.06058048 0.022929642 0.089649744 0.021962978 0.056989215 0.020173078
-0.07880938 -0.103862256 -0.0036374533 -0.0628688 -0.07040719 0.03533477 0.089697324 0.03324271
-0.09631423 0.008356239 0.008774073 -0.04826577 0.022225194 -0.06892964 0.035976756 0.005431518
0.023322295 -0.024100902 -0.06780166 0.0036271028 -0.050366685 -0.06984556 0.030480739 -0.053235766
-0.05158423 -0.057245873 0.05168373 0.061908938 0.0028262993 -0.03991447 -0.02451826 0.023339093
0.006295711 0.04526901 0.027138935 -0.102247804 0.055366613 -0.09336107 -0.09047414 -0.06269311
-0.015924769 -0.06690773 0.11575707 0.035547215 0.034908902 0.05198409 -0.0059376056 -0.04747951
-0.014855314 -0.047031052 -0.0040090075 0.12313595 0.08827204 0.10791518 0.020794138 -0.02596102
0.011711975 -0.026264861 0.031835232 -0.060100723 0.048025336 0.0110669285 -0.14285523 0.05466648
-0.008225739 -0.08793709 0.0741205 0.053409055 -0.053182 -0.025001878 -0.12284293 -0.01158753
0.08262078 -0.07073767 -0.08507274 -0.100400835 0.059886962 -0.11970023 -0.04374618 0.018858077
0.034125067 0.09121686 0.07779659 0.11939266 0.053665653 0.10522375 -0.11804646 0.02331813
-0.054736968 -0.053736284 -0.034611367 0.08894971 -0.02709001 0.05297985 0.038468886 0.02733095
0.0031800172 0.051221494 0.07306645 0.13218872 -0.09522339 0.07491139 -0.008655248 0.003494775
0.07183076 -0.034680016 0.11186698 -0.14515936 -0.05591429 -0.05936552 0.08474369 0.09875614
0.07244076 -0.049788397 -0.12572809 0.107664235 0.08758957 -0.07137057 0.108995035 -0.048441697
0.058471613 -0.04978536 0.0736785 0.050154664 0.10278793 0.0032066028 -0.12243111 -0.00783618
0.07587557 -0.1326984 0.049497787 -0.034922805 0.040308904 0.109255105 0.10231121 0.10421916
-0.06373832 -0.080620185 -0.12004981 -0.010854537 0.1036602 -0.08190745 0.016668847 -0.10340616
-0.011795366 -0.046902258 -0.032526996 0.03574182 0.067127384 -0.07577584 -0.046573646 -0.07350912
0.10304128 -0.07535026 0.11778217 -0.052040238 -0.063218795 -0.104645126 0.0065184673 0.042116635

bias f4 [3]
00000000: aa94 2a3d 5a07 56bd ff99 153d
0.041645683 -0.052253105 0.036523815

logits f4 [1, 3]
00000000: 075c 3cbf 06b9 7ec0 ba42 4340
-0.7357792 -3.980043 3.0509477
