clone_data/marigold_episodes/marigold_clone_25ep_50trn_1000_expert_runs/marigold_clone_25ep_50trn_1000_expert_runs_s0/pyt_save/model.pt (torch, 104138 bytes, 9 tensors)

log_std f4 [2]
000000 00 00 00 bf 00 00 00 bf
       -0.5 -0.5

weight f4 [128, 60]
000000 c2 99 8c bb 1d 96 71 3d e6 0a 5b 3d bb f5 47 3d
       -0.0042907903 0.05898105 0.05347719 0.04881833
000010 c1 b1 47 3d d7 a0 30 3c ee 92 31 3e d8 cc a0 3e
       0.048753504 0.010780535 0.17341205 0.31406283
000020 69 8b 08 3e ea 2e 34 3e 35 23 14 3e 45 4a ac bd
       0.13334431 0.17596021 0.14466555 -0.08412603
000030 de ce 61 be ef f5 00 be 0e 8d fc 3c 65 21 88 3e
       -0.2205157 -0.12593816 0.030828979 0.26587978
000040 df 30 48 3e cd 10 4c 3e 75 93 3a 3e 10 cd bd bd
       0.19549893 0.19928284 0.18220313 -0.09267628
000050 39 e8 cb 3d 30 ad d1 bd 57 25 dd 3d 53 60 8b 3d
       0.09956402 -0.10238111 0.10798138 0.06805482
000060 ab ee 1f bd 7a 1f b6 3d 19 56 7e bd 0d c5 42 3c
       -0.03904597 0.088927224 -0.062093828 0.011887801
000070 5a e3 0e 3e d3 bd 97 3c e7 7d f6 3d 04 ed 1e 3e
       0.13953915 0.018523132 0.12035733 0.15520102
000080 51 4c ad 3d 47 33 78 bc 23 5e 0d be 05 f8 28 b9
       0.08461822 -0.015148944 -0.13805442 -0.00016114123
000090 5b de ae bd 6c 59 e2 3c 48 3e 9c bd d3 24 68 bc
       -0.08538505 0.02763053 -0.07629067 -0.014168936
0000a0 bd d7 0e bc e3 97 6f 3a 0c f3 47 bd 5e b5 c0 3d
       -0.008718428 0.00091397593 -0.048815772 0.09409593
0000b0 ad 84 24 bb 21 8c 80 bd eb 90 b6 bd f1 13 9a 3c
       -0.0025103495 -0.062767275 -0.0891436 0.018808337
0000c0 60 fe be 3a 0a d5 98 bd cc 3b 7f 3d 2d 9f 87 3d
       0.0014571659 -0.07462509 0.062312886 0.06622157
0000d0 95 e9 99 bd cc d8 e9 3d ab 9b d4 bd 43 02 dc 3d
       -0.07515255 0.11418304 -0.10381254 0.10742619
0000e0 33 61 d9 bc b8 ce 01 be 5c 11 03 3b cb 32 98 3d
       -0.026535606 -0.12676513 0.001999936 0.07431563
0000f0 fc a7 d8 bd 1a 43 4c bb 6c b3 99 3d 91 69 bc bd
       -0.105789155 -0.0031167925 0.07504925 -0.09199823
000100 9a 3a 84 3d b1 23 a9 bd 94 70 00 bc f7 fe dd bd
       0.0645649 -0.08258761 -0.007839341 -0.10839646
000110 79 01 1a be 23 57 4c be 0c 78 f2 3c 69 bb de 3d
       -0.15039624 -0.19955115 0.029598258 0.108755894
000120 26 e5 17 3e cf 02 96 3d da 4a cb 3d d4 e9 38 be
       0.14833507 0.073247544 0.09926386 -0.18057948
000130 fd fd ff bd c9 a3 c4 bd 45 9c a3 3c 36 24 fd bd
       -0.12499616 -0.09601552 0.019971976 -0.12360422
000140 0a 6d 6a bd 48 3d 12 3d ad e5 92 3c ba 02 ef bd
       -0.057232894 0.035702974 0.017931784 -0.11670442
000150 b4 1e eb 3d 9e 7c 8f 3d 85 3d f5 bb d4 35 b6 bd
       0.114804655 0.07006191 -0.0074841403 -0.08896986
000160 6e 78 8d bd c7 b3 a4 bd 70 04 21 3d e3 ac 18 bd
       -0.06907736 -0.08042102 0.039310873 -0.037274253
000170 98 4a f8 bc 60 1f 66 bd a8 c2 cb 3d c7 84 f6 bd
       -0.030309007 -0.056182265 0.09949237 -0.12037044
000180 93 09 bf bd aa 0a a5 bd 7e a4 04 3d cb 28 04 bd
       -0.09327998 -0.08058675 0.032383434 -0.032265466
000190 d2 79 d9 bd 21 11 40 3d 71 4e 05 be ac e7 00 be
       -0.106189385 0.046891335 -0.13018204 -0.12588376
0001a0 62 e6 dc bd e1 11 0f be be 2f 01 3e 8a f0 d6 3d
       -0.107861295 -0.13971664 0.12615868 0.10495098
0001b0 a4 21 e7 3d e3 39 11 3e ef 15 c9 3d 89 93 09 3d
       0.11285713 0.14182238 0.098186366 0.033587966
0001c0 b6 71 f2 3c 0b 30 13 be db be ce 3c ea 04 15 be
       0.029595237 -0.14373796 0.025237491 -0.14552656
0001d0 9e 26 57 bd 8e b1 0c 3d 92 0e 45 3c 38 b9 b3 bd
       -0.052527063 0.034349017 0.0120274 -0.08775562
0001e0 a1 c2 8e bd 6d 76 65 3d 03 ed 88 3d d0 9d 10 bd
       -0.06970716 0.056021143 0.066858314 -0.03530675
0001f0 ab 8f 7a be 3e be 16 be e1 84 d2 bd 8f 88 cb bd
       -0.24468867 -0.14721009 -0.10279251 -0.09938156
000200 b5 c9 67 3d 82 6f 36 3e 7d 5b 29 3d f5 dd 54 3e
       0.056588847 0.17815974 0.041347016 0.20787795
000210 b7 e0 d0 bb 81 2c 20 3d c8 ff 3c be 60 3e 14 be
       -0.0063744443 0.039104942 -0.18456948 -0.14476919
000220 08 7e ff 3d e7 6c 34 be 6b ac 6a bc 19 3e 6b bd
       0.124752104 -0.17619668 -0.014323334 -0.057432268
000230 2b 03 ec bd 40 d2 4e 3d c7 60 5e bd bf ae 2a 3c
       -0.11524042 0.05049348 -0.054291513 0.010417639
000240 9b cf 73 bd 66 50 64 bd 6e 68 e0 3b a1 76 39 bd
       -0.05952416 -0.055740736 0.0068483865 -0.04527915
000250 37 3b fa bd 42 15 00 bd 14 e2 e0 bd 0d 3b 55 bd
       -0.122183256 -0.031270273 -0.10980621 -0.05205827
000260 4d d2 22 bd 2d eb 26 3e 7a b6 01 3e bf 3f 8d 3d
       -0.03975134 0.1630065 0.12667266 0.06896924
000270 0b 6f f8 3d 5d af 12 be 16 1a e5 bc 9b 00 08 be
       0.12130555 -0.14324708 -0.02796654 -0.13281481
000280 6a fc f4 3d 1f 98 93 3d a8 0d 09 be 8c ad dd bd
       0.11962207 0.07206749 -0.13384116 -0.10824117
000290 08 91 03 be 55 0e aa 3d 43 4e dd bd ea 20 01 bc
       -0.12848294 0.08303515 -0.10805943 -0.0078813825
0002a0 4b 28 1c 3e 01 25 2c bd 82 12 8d bd bb 61 d8 3c
       0.15249746 -0.042027477 -0.06888296 0.026413789
0002b0 63 9f 5b 3d d3 e4 0a 3e 33 86 74 bc 87 fd 8d 3c
       0.0536188 0.13563852 -0.014924574 0.017332805
0002c0 a3 42 43 3d 8a 5c 46 bd fa 21 00 3e 5d 98 81 3c
       0.04767097 -0.048428096 0.12512961 0.015819723
0002d0 e3 96 6a 3d d5 fd b0 3d 1c 11 cf bd 13 d2 6e bd
       0.057272803 0.086421646 -0.10110685 -0.05830581
0002e0 71 8d e6 3d e0 69 6e bc 63 61 f6 bb de 0d 58 be
       0.112574466 -0.01455161 -0.0075189336 -0.2109904
0002f0 5f 34 f7 bd c3 db 81 3d 2a fb 11 3d da 32 9b 3d
       -0.12070536 0.06340744 0.03563992 0.075780585
000300 e9 96 83 3d c9 ca 5a be df f5 3e bd 86 72 80 bd
       0.06425268 -0.21366419 -0.0466212 -0.062718436
000310 21 f0 f3 3d e4 df 8d 3e da 48 84 3d 9b da 96 bd
       0.11911035 0.27709877 0.06459208 -0.073659144
000320 51 0c f5 bd cc 6b b1 bc 6f 3c fa 3d 21 b7 55 3d
       -0.1196524 -0.021657847 0.12218558 0.0521766
000330 2c 49 dd bc 6d 40 f7 bd c6 5b ce bd d6 c3 23 bc
       -0.02701243 -0.12072835 -0.10076098 -0.009995421
000340 e9 a8 2f 3c af 7e cd bb a0 00 34 be d9 96 2c bd
       0.010721424 -0.0062712054 -0.17578363 -0.042136047
000350 61 7c 9a bd 1f c7 0f be 2e df 2f 3d 71 1a 23 3e
       -0.07543255 -0.14040802 0.04293745 0.15928055
000360 2f d1 32 bc e1 9a fd 3d 51 5d d5 3d 1c 4a a0 bc
       -0.010914131 0.123830564 0.10418189 -0.019566588
000370 c1 b3 db bd 45 47 3f bc 4c 9e e7 3d 75 1d f3 3b
       -0.10727645 -0.011674707 0.113094896 0.007419283
000380 75 57 d0 3d bb ae e1 bd b6 7e a0 bc e8 e9 d1 bd
       0.10172931 -0.11019655 -0.01959167 -0.10249692
000390 05 80 8a bd f2 4e 97 3d 69 83 72 3d b5 d2 10 ba
       -0.06762699 0.073881045 0.059207354 -0.0005524562
0003a0 1b 6c 82 bd ce 63 b7 3a 11 e8 af 3d 88 94 14 be
       -0.06368276 0.0013991536 0.08589185 -0.14509785
0003b0 3c c1 44 be 18 b7 0b be 4d a0 92 3d c2 aa fc 3d
       -0.19214338 -0.13644063 0.07159481 0.12337257
0003c0 1d 74 f3 bc 74 50 bc bd 3e ec ee 3d c1 e2 30 be
       -0.029718453 -0.09195033 0.11666153 -0.17274
0003d0 b5 b1 54 bd 4f 8a 53 be b5 ed 60 bc b9 00 76 3e
       -0.051927287 -0.2065823 -0.013728549 0.24023713
0003e0 96 a0 cb 3d 43 48 5a 3d 69 e8 c2 3d 1a a1 2c 3c
       0.09942739 0.05329157 0.09516985 0.0105364565
0003f0 3a 16 da bd 99 8a 5f be 6f 19 8b be e4 60 d4 ba
       -0.10648771 -0.21830215 -0.27167842 -0.0016203192

bias f4 [128]
000000 a8 d9 f8 3d 5b 2e f9 3d 52 05 22 bd eb c8 9a bd
       0.1215089 0.12167045 -0.039555855 -0.07557853
000010 a8 8f 26 bd 15 8c 2c 3a 67 e5 24 3e 67 55 13 3d
       -0.040664345 0.0006582153 0.16103135 0.035970118
000020 6c 11 b1 bd 45 2a 29 3d 99 0a b7 3d 8b c7 c2 3d
       -0.08645901 0.041300077 0.08937568 0.09510716
000030 fd 32 5b bd 89 29 6e bd f0 0e 95 3d 32 a3 b2 bc
       -0.053515423 -0.05814508 0.0727824 -0.021806333
000040 51 ea ca 3c 72 dc 97 3c 91 93 99 3d b5 da 17 be
       0.024769934 0.018537734 0.07498849 -0.14829524
000050 f5 0b ab 3d d7 00 99 3d a1 43 8d 3c 54 af 38 3d
       0.0835189 0.07470863 0.017244162 0.04508908
000060 7a ca ab bd 65 d2 c2 bd c5 21 b4 3d a4 03 fb 3d
       -0.08388229 -0.09512786 0.087955035 0.12256554
000070 1b 13 a4 bb 75 8c e0 3d 99 46 00 3d 2d b1 de bd
       -0.0050071604 0.1096429 0.031317327 -0.10873637
000080 77 b1 b2 bc cd 48 95 bd 23 60 e4 bd 67 ed 08 be
       -0.021813137 -0.07289276 -0.11151149 -0.13371812
000090 26 dd 06 3c 1e 5e a4 3d ee 0f 43 bd 82 84 93 3c
       0.008231437 0.08025764 -0.047622614 0.01800752
0000a0 7e 67 f4 3d 57 c3 dc bc 9b 1b 6f 3d 92 3e 12 b9
       0.11933802 -0.026948614 0.058375936 -0.00013946954
0000b0 b6 db 01 bd e1 b6 22 bd 26 de 23 3d de dc be b9
       -0.031703673 -0.03972519 0.04000678 -0.00036404183
0000c0 62 c1 f4 bc 6e 8c 7b bd d8 2b c9 bd 6e 7d 7c b9
       -0.029877368 -0.06141322 -0.09822816 -0.00024079319
0000d0 e2 64 e7 3d b2 20 e3 bc f8 94 26 bd 71 b1 b2 bd
       0.11298539 -0.027725551 -0.04066941 -0.087252505
0000e0 e4 1b 54 bd 8f ae cd bd a7 7b c9 3d bc fc 5e 3d
       -0.05178441 -0.1004306 0.09838038 0.054440245
0000f0 8e 65 66 3c a2 4a 7d 3d 31 ae 71 bd 05 e5 9c 3d
       0.014062298 0.061838754 -0.059004012 0.076608695
000100 80 23 8a bc 03 95 02 3e 56 71 7f 3d be a4 96 bd
       -0.01686263 0.12752156 0.062363945 -0.07355641
000110 57 8c 30 bd ed 02 e8 bd 16 f1 01 3e b0 5f 84 3d
       -0.04310259 -0.11328683 0.12689623 0.064635634
000120 8d 02 96 bd 42 8d 19 3e e9 b8 b0 bd ef ff 9b 3d
       -0.07324705 0.14995292 -0.08629019 0.07617175
000130 c0 02 04 3d 9d 43 a5 3d ff 31 65 bc ed d8 d4 bd
       0.032229185 0.08069537 -0.013988971 -0.10392938
000140 af c8 d8 bc b4 33 00 3e 63 e6 8d bd 56 e2 0a 3e
       -0.02646288 0.12519723 -0.069287084 0.13562903
000150 04 26 55 3d 2c f2 f2 3d f7 a1 7d bd 34 c1 34 bc
       0.052038208 0.11862597 -0.06192204 -0.011032391
000160 63 f8 e3 bd 87 bc 18 3c ff 82 f5 3d 98 50 f4 bd
       -0.111313604 0.009322292 0.11987876 -0.119294345
000170 f1 91 72 bd b4 ee e3 bd 9a 8b 20 bd 73 8e 4d 3d
       -0.05922121 -0.111295134 -0.039195634 0.05018468
000180 a9 47 f4 3d a7 06 9e 3d f4 11 c9 bd fb c8 76 3d
       0.119277306 0.077161126 -0.098178774 0.060250264
000190 e7 e3 e9 3d 75 5b e9 3d 73 7d 21 bd ab 5e e2 3c
       0.11420422 0.11394397 -0.03942628 0.027633032
0001a0 f6 96 28 3c 48 63 a1 bd c5 f3 fc 3d 5a bf 85 bd
       0.010289898 -0.078802645 0.12351183 -0.06530638
0001b0 78 2d 53 bd ac 5d cc 3c 21 da b5 bd 73 88 d5 3c
       -0.051557034 0.02494701 -0.088794954 0.02606604
0001c0 6e 22 34 bd df 20 b1 3d 49 a3 5d 3d 76 33 c1 bd
       -0.043978147 0.08648848 0.0541108 -0.094336435
0001d0 fe fb c3 3d 17 f0 1f 3d 50 56 cb 3c 30 ec ce bd
       0.09569548 0.039047327 0.02482143 -0.10103643
0001e0 61 f0 b3 3d be 4e 0e 3d 74 a7 53 bd 1d 26 81 3d
       0.08786083 0.034743063 -0.051673368 0.06306098
0001f0 91 49 f9 bd 4a 12 eb 3d ff 08 65 bd 56 e0 0e 3c
       -0.12172235 0.11478098 -0.055916782 0.008720478

weight f4 [128, 128]
000000 68 88 a4 bd 6f e5 9b bd 7a d1 75 bd 2c c3 88 bd
       -0.0803383 -0.0761212 -0.060014226 -0.06677851
000010 81 1b 7f bd 69 1e 5b bd c1 00 a1 3d 1a 94 ea bc
       -0.06228209 -0.0534958 0.07861472 -0.028635073
000020 e3 ab 92 bc c9 fa a9 bd e0 df 5e bc ae 1f 40 bc
       -0.017904228 -0.082997866 -0.013603181 -0.011726303
000030 5b ef ba bd e4 bc 71 bc 5f 8a 99 ba e1 73 f1 bb
       -0.09127685 -0.014754508 -0.0011714211 -0.00736855
000040 70 62 9f bd 52 59 80 bb eb 8c 07 3d 01 1e 3b 3d
       -0.07782447 -0.003916898 0.033093374 0.04568291
000050 ce c5 28 3d f0 9b 01 bc 3c 5f 9a bd b1 52 07 bc
       0.041204266 -0.007910714 -0.07537696 -0.008259461
000060 54 18 f0 b9 b9 84 7d 3d e2 ed 63 bc 6d 99 1b bd
       -0.00045794493 0.061894152 -0.013911696 -0.037988115
000070 7b d5 d1 bc 39 26 9e 3c b6 af 65 bb 5b 9a ab 3c
       -0.02561449 0.019305335 -0.0035047359 0.020947626
000080 38 bc 06 bc be 7b de 3c 28 e2 f6 3c 31 b7 a5 bc
       -0.008223586 0.027158614 0.030137137 -0.020228954
000090 9e ea 24 b9 eb 19 65 bc 1d 2a 47 3d 78 ed 21 bd
       -0.0001572766 -0.01398323 0.048624147 -0.03953311
0000a0 ea 9d 97 bb 29 c4 68 3d 68 01 24 bc 06 30 51 bd
       -0.004626979 0.056827698 -0.010010101 -0.05107119
0000b0 70 6e 97 bd 3c 9c b6 bc d3 58 b8 bc 39 35 e4 3c
       -0.07394111 -0.022291295 -0.022503292 0.02785741
0000c0 f5 cb ab 3b 36 02 8c bd f6 f9 79 bc f7 5f 5b bd
       0.0052428194 -0.06836359 -0.015257349 -0.053558316
0000d0 9f 90 67 bd ba e2 98 3c 72 a2 82 3c a1 a5 0b bd
       -0.056534406 0.0186628 0.0159466 -0.034093503
0000e0 b2 0b 7c 3d e0 db 44 bd 5a 68 91 bc bb f9 8b bc
       0.06153459 -0.04806125 -0.017749954 -0.017086854
0000f0 9d f0 67 bd e5 8e 90 bd bc 01 4c bd 1a a7 4f 3d
       -0.05662595 -0.07058505 -0.04980634 0.05069647
000100 f7 ba d5 bc fc 8b 19 bd be 36 e5 3c 9c 63 2d 3d
       -0.026090128 -0.037487015 0.027980205 0.042331323
000110 b5 23 be bd 56 db c6 3b 97 43 99 bd a2 db 3c 3c
       -0.09284154 0.0060686274 -0.07483595 0.011526974
000120 25 49 67 bd d1 5f 37 3c b7 52 29 bd 6b cf 6e bd
       -0.05646624 0.011192278 -0.04133865 -0.058303278
000130 9d 5a 9a 3d 6d 6d 1a bc fe c3 c5 bc 5e 37 bd 3d
       0.07536814 -0.009425503 -0.024141308 0.09239076
000140 6b 67 ac bd 58 97 bb 3c 28 2f 9e bd 9c 8b 7a 3d
       -0.08418163 0.022899315 -0.07723838 0.061168298
000150 3f bb 1f 3c c7 18 96 3d af 33 15 3c 3b e4 a9 3d
       0.009749233 0.07328945 0.009106561 0.08295485
000160 d9 0c 3c bd e1 5c e2 3c 95 70 a9 bd f4 0d 3f 3c
       -0.04591069 0.027632179 -0.082734264 0.0116610415
000170 9e c3 5e 3d b5 64 2f bc 7e 85 a8 3c 01 f5 ac bd
       0.054385774 -0.010705163 0.020571467 -0.08445168
000180 df 3f 47 3c 45 c0 1b 3b 9b 71 9b bd 3a d5 86 3d
       0.012161224 0.0023765725 -0.07590028 0.065836385
000190 89 59 a0 3d f2 4c c2 3c 09 bc 66 3c 49 e1 5a 3d
       0.078295775 0.023718331 0.014082917 0.053437505
0001a0 e3 18 53 3d 3d d3 06 3d 4c cf 6e bd 2b bb 7a bd
       0.051537406 0.032916296 -0.058303162 -0.061213654
0001b0 69 f5 8b 3d f7 6e 8a bd af 63 2a bc c4 6a 9a bd
       0.06833918 -0.06759446 -0.010399743 -0.07539895
0001c0 6f 84 d4 3c 2b c3 43 3d 0a db ea 3c 92 32 75 bd
       0.025942056 0.04779355 0.0286689 -0.05986268
0001d0 c7 30 67 3d 15 29 42 bd 09 31 81 bc 8d cb b3 bd
       0.056443002 -0.04740246 -0.015770452 -0.087790586
0001e0 82 86 34 bd ee 7d 9b 3d 91 21 53 bd ec 19 3e bd
       -0.04407359 0.075923786 -0.051545683 -0.04641144
0001f0 0a 21 3a 3d 4e 3a 90 bd e8 9c a5 3d 19 5b 16 3d
       0.045441665 -0.07042371 0.08086568 0.03670797
000200 b3 f2 9f bc c8 5d 09 3d 04 55 62 bc 7c fc d7 3d
       -0.019524908 0.033536702 -0.013814215 0.105462044
000210 66 55 f4 3b 8f df 90 3d 05 d2 12 3e 22 03 45 3e
       0.0074564693 0.070738904 0.14337929 0.19239476
000220 3d 51 80 bd c9 bd 6e bd b9 df 4a bd 5c 14 ce bd
       -0.06265495 -0.058286462 -0.049529765 -0.10062477
000230 db 64 9e 3c 60 67 2a bc 88 f2 c2 ba 8b 0e 98 bd
       0.019335201 -0.010400623 -0.0014873305 -0.07424649
000240 ed d9 30 bc 2c ca 6d 3c cc e2 83 3d 1c 5f 35 bd
       -0.010794145 0.014513534 0.064397424 -0.044280156
000250 f0 ca bf 3d 18 04 8a 3d 99 6f d6 bd ff be 50 3d
       0.09364879 0.06739062 -0.10470504 0.050963398
000260 42 af 86 3d da 74 18 bd 01 43 09 3d 9f 3d d6 3c
       0.065763965 -0.037220813 0.033511166 0.02615243
000270 78 c3 93 3d 7b 49 42 bd b4 b6 a3 bd 9d c5 b4 3d
       0.07215017 -0.047433358 -0.07993832 0.08826754
000280 e8 4a 96 3d 2d d9 2b bd 98 2b 8e bd d8 63 15 bb
       0.07338506 -0.04195516 -0.069419086 -0.0022795107
000290 1e 02 0f bd ff b6 38 3e 45 78 08 3b 45 19 bc 3c
       -0.03491413 0.18038557 0.002082364 0.022961268
0002a0 a1 30 61 bd 46 d2 45 3b b8 71 b2 ba 91 8d b5 3c
       -0.054978017 0.0030185147 -0.0013614213 0.02216223
0002b0 b6 f6 05 bb 6e 4a 1b 3d a1 f8 af bd 9c 4f b5 3c
       -0.002044124 0.03791278 -0.08592344 0.022132687
0002c0 8d dd b2 3d 87 02 f1 bd ef d3 6d 3d 4b 8e 93 3d
       0.08733664 -0.1176806 0.058063444 0.072048746
0002d0 a7 1a 5a 3d f2 a1 86 bd 5a e8 62 3d a1 89 3d bd
       0.053248074 -0.06573857 0.05539737 -0.04627383
0002e0 d0 67 a8 3d d8 80 ba 3c 20 f4 9f 3d 78 38 27 3d
       0.08222926 0.022766516 0.07810235 0.040825337
0002f0 f8 cb b7 3c c6 c4 74 3d 31 34 ab 3c 65 d9 bb 3c
       0.022436127 0.05975797 0.02089891 0.02293081
000300 40 a5 76 bd 77 2f 0c 3d 01 6c 49 3d a8 55 69 3d
       -0.06021619 0.034224954 0.049175266 0.056966454
000310 52 83 0a bd 5a 6f 48 be 95 32 22 3d f2 60 f3 bc
       -0.033816643 -0.19573727 0.03959902 -0.029709313
000320 28 33 6d bd 4a 96 ae bd 7b 84 5b bd ac 14 42 3a
       -0.057910115 -0.08524759 -0.05359314 0.0007403593
000330 84 14 4b bd d6 cf 3b bd 22 4b 5a bd 3b c0 91 bd
       -0.049580112 -0.045852505 -0.05329431 -0.07116743
000340 0d bb dc 3c 92 e7 8c 3d cc a3 1f bd a6 d3 2a bd
       0.026944662 0.06880106 -0.03897457 -0.04170575
000350 94 b1 98 bd ab 7d 6d 3d d8 6f 1d bd b2 83 84 bd
       -0.07455745 0.057981174 -0.03843674 -0.064704314
000360 bb 2a 14 3d 4d 0c 79 3d fd 15 88 3d 0d 33 57 bd
       0.036173563 0.060802747 0.06644819 -0.05253892
000370 ec 6b 53 3d 7c 09 67 bc 33 0d 95 3d f4 e2 99 3c
       0.051616594 -0.014101382 0.07277908 0.018784977
000380 ef fd 85 bd a7 80 80 3d 4b 10 af ba cb 12 86 bd
       -0.065425746 0.062745385 -0.0013356296 -0.06546553
000390 25 39 2c bd 7a 6b d9 3a 30 cb a6 3d 01 f5 79 bc
       -0.042046685 0.0016587817 0.08144224 -0.015256167
0003a0 a8 cb 64 3c c7 81 03 bd ab 38 07 bd f7 bb 9b bd
       0.013964571 -0.032106187 -0.033013027 -0.07604211
0003b0 7e 72 21 bd 41 65 5d bd 39 d2 34 3b ff 8b 91 bd
       -0.03941583 -0.05405164 0.0027591123 -0.0710678
0003c0 44 5e 7c bd c6 a5 50 3e 38 74 a0 bd bf c5 ea bc
       -0.061613336 0.20375738 -0.07834667 -0.028658746
0003d0 5c b0 5a bd a9 0a e3 bb c9 c3 6a 3d 99 d8 29 bd
       -0.053390846 -0.006928761 0.05731562 -0.04146633
0003e0 2c 0d 3a 3c af 2e 8c bd b6 42 a5 bc 42 fb e1 3b
       0.0113556795 -0.06844842 -0.020173412 0.0068964073
0003f0 a6 05 06 bd 8b 45 1d bd 80 56 1a 3d c4 57 09 bd
       -0.03272023 -0.0383964 0.03768015 -0.033530965

bias f4 [128]
000000 1a 97 ec bc 0a 17 7a 3d 10 c2 a5 3d e2 95 9c 3d
       -0.028880645 0.061057128 0.08093655 0.076457754
000010 e9 58 48 bc f6 58 12 bd 3c b7 88 bb eb fa 97 3d
       -0.012228229 -0.03572937 -0.004172234 0.07420906
000020 3f 23 17 3c d0 40 5d 3d c2 da 8c bd ec 1d 00 bd
       0.009224712 0.05401689 -0.06877662 -0.031278536
000030 f4 e1 09 bd a9 3b e0 3b d1 9b 8b 3d d0 de 22 bd
       -0.03366275 0.0068430495 0.06816829 -0.03976327
000040 d4 3e 32 3d 01 6f 33 bc f5 cd 8e bc fb bf 87 bd
       0.04351695 -0.010951758 -0.017432192 -0.06628414
000050 82 28 ab 3c df 16 58 3d eb c4 c8 3a 66 67 88 bd
       0.020893339 0.052756187 0.0015317475 -0.06660347
000060 f7 10 de bb 9b ea 99 3d 9d f4 98 3d 1c f0 92 bd
       -0.0067769247 0.075154506 0.07468531 -0.071747035
000070 89 11 56 bd 1c dc c5 b9 f8 20 3a bc 2e 5b 5c bd
       -0.052262817 -0.00037738762 -0.011360399 -0.053797893
000080 30 e4 19 3c 1b 83 39 bc 54 7f 81 bd 34 de a6 3c
       0.009392783 -0.011322762 -0.06323114 0.020369627
000090 58 a4 7a 3c fa 9a a1 3d 51 2a 37 3d 0e 11 87 bc
       0.015297972 0.078908876 0.04471809 -0.016487624
0000a0 62 d3 a6 3d 5c 69 a1 bc 95 a6 5d 3d 6a 05 6f 3c
       0.08145787 -0.01970356 0.054113943 0.014588693
0000b0 45 15 bb ba 6a 26 c1 3d 06 63 a1 bd 3c b6 a8 3b
       -0.0014273307 0.09431155 -0.07880215 0.005148677
0000c0 50 0a 9b bd 18 56 88 3d 4e f7 73 3d 2b 5f 10 bc
       -0.07570326 0.06657046 0.05956202 -0.008811752
0000d0 d8 c8 5f 3d 1c 57 59 3d 1f 57 b2 3d 7b 96 91 bd
       0.0546349 0.05306159 0.08708023 -0.0710878
0000e0 50 fd f7 bc 46 0e 4a 3c ed 3f d2 bc 51 45 ae bd
       -0.030272156 0.012332505 -0.025665248 -0.08509315
0000f0 01 98 77 bd ae d4 46 bb f8 e6 b1 bc 26 d4 4b bd
       -0.060447697 -0.003033917 -0.02171658 -0.049762867
000100 8a a9 89 3d 41 4c 2a bc 7f 9e a8 bd e2 42 3b b9
       0.0672179 -0.010394157 -0.08233356 -0.00017858626
000110 c0 7c bd bc 4f b7 63 3d 93 71 a3 3d 13 b3 6d bd
       -0.023130774 0.05559474 0.07980647 -0.058032107
000120 90 a8 57 3d 92 e5 87 3d 0f 80 62 38 ce 16 7d bc
       0.052650988 0.06635584 5.4001863e-05 -0.015447332
000130 3d b6 22 bc 9d 8c 8c 3c 46 b1 7a bd 08 a1 93 3d
       -0.009931144 0.017156893 -0.061204217 0.07208449
000140 d0 95 5f bd d3 5c 2f 3d 58 b8 a2 3d 3e 07 4d 3d
       -0.05458623 0.042813133 0.07945317 0.050055735
000150 82 93 4f bd 28 e9 9b 3d ad fd 6f bd 9c 95 97 bd
       -0.050677784 0.076128304 -0.058591533 -0.074015826
000160 94 74 c6 3c f4 e9 f1 ba 32 ed 5a 3d 52 a3 4e 3d
       0.02422551 -0.0018456564 0.053448863 0.050448723
000170 d4 e1 eb bb 8c 89 9e bd 6d 4c a3 3d 04 9f 29 bc
       -0.0071985517 -0.07741079 0.079735614 -0.010352854
000180 b5 73 2f 3d ce b1 80 bd a0 0a 35 3d 89 08 a7 bb
       0.042834956 -0.062839136 0.044199586 -0.005097453
000190 f3 13 5d 3d 19 d3 24 3d c4 be 04 3d e4 d6 98 3d
       0.053974103 0.04024038 0.03240849 0.07462862
0001a0 08 2b 6c bc e9 98 3b 3d ec 86 8d bc e2 31 9c 3d
       -0.014414556 0.045800123 -0.01727625 0.07626702
0001b0 5f 6b 9a 3d 38 10 c4 bc fb d7 a9 3d 58 ce 4d 3d
       0.07540011 -0.023933515 0.08293148 0.050245613
0001c0 50 21 4c 3d 90 81 1f 3d 47 d9 78 3d 71 2d 74 3c
       0.049836457 0.03894192 0.060754087 0.014903412
0001d0 28 1c ab bd 9a 45 84 bd d4 07 9c bd 86 b7 91 bc
       -0.0835498 -0.06458588 -0.076186806 -0.017787706
0001e0 25 e2 92 bd f7 16 81 3d 12 9c 59 bd 8b 2a c2 3d
       -0.0717204 0.06303208 -0.053127356 0.09480771
0001f0 b9 f8 68 3d bf 6e f9 3b e1 6d 2b 3d 3f 6e 4d bd
       0.056877825 0.007612079 0.041852836 -0.050153967

weight f4 [2, 128]
000000 bd e9 3e ba 1c 82 02 3a af 60 1a 3d a8 17 9f 3c
       -0.00072827545 0.0004978494 0.03768986 0.01942046
000010 05 5d bf bd 4b a3 52 bc 3f b4 a3 bd 4e 6e 63 bc
       -0.09343914 -0.012856315 -0.079933636 -0.013881279
000020 e9 d7 24 be ed e4 81 bd 4a 77 f4 bd f8 27 32 be
       -0.16097988 -0.06342492 -0.11936815 -0.1739806
000030 33 bd f0 bb 48 b2 cd 3c e2 04 ef bc 8c fd b3 bd
       -0.007346773 0.025109425 -0.029177133 -0.087885946
000040 58 6b 0a bd 01 35 9b bc 0b c0 ea 3d 9e b0 4d 3e
       -0.033793777 -0.018946173 0.114624105 0.20086905
000050 c0 32 0c 3e 6f 8d 03 3d e8 16 ef 3b 63 80 f0 bd
       0.13691235 0.032117303 0.007296432 -0.11743238
000060 6e db 12 3e 98 33 32 bd 03 43 b7 bd f4 0d 04 bd
       0.14341518 -0.043506235 -0.08948328 -0.03223987
000070 1c 46 28 3d 39 45 df bd a2 dd 4e bd 04 af 05 3e
       0.041082487 -0.10901875 -0.050504334 0.13055044
000080 29 c3 b8 bb 81 e5 d9 3d 61 00 b6 3d 8d 55 98 bd
       -0.0056384993 0.106394775 0.08886791 -0.074381925
000090 5a d8 2e 3e ba 14 bc 3d cb 76 a2 3d ae 49 6c bd
       0.17074719 0.09183641 0.07932814 -0.057687454
0000a0 8a dd d3 3c 3d 82 ca bb 3f ea 0c bc b2 20 b7 bd
       0.025862474 -0.0061800764 -0.0086007705 -0.08941783
0000b0 e4 d5 31 bd 0d f2 f1 bc 53 38 2b 3d 9b 86 ed 3d
       -0.043416873 -0.029534364 0.04180176 0.115979396
0000c0 ad 7c 65 3d be fb 8d bd 0c fd b7 3d b0 65 d7 39
       0.056027103 -0.06932782 0.08983812 0.0004108376
0000d0 cf 69 bc bd b9 fe b3 bb 92 0c 18 be 01 9c b4 bd
       -0.09199869 -0.005493012 -0.14848545 -0.08818818
0000e0 0f 2a 91 3d 77 6f 8c bd 17 5e 8b bd b1 e4 de bd
       0.070881 -0.06857198 -0.068050556 -0.10883463
0000f0 10 ea 0d bd 70 6a 9b 3d 76 f6 74 3d 93 05 d4 3d
       -0.034647048 0.07588661 0.059805356 0.10352626
000100 7a 1b d8 3d 93 6d 10 3d 35 a3 18 3d 1c df 32 bd
       0.10552116 0.035260748 0.03726502 -0.043669805
000110 14 9b fb 3c 00 82 e2 3d c7 a7 ec bc 75 20 c7 bd
       0.030713595 0.11059952 -0.028888596 -0.097229876
000120 f1 2e a3 3c 11 8b eb 3d 9c 53 9e bd f5 93 6f bd
       0.019919844 0.11501134 -0.07730791 -0.058490712
000130 bd 3d 4d bd d1 a7 41 bd 06 59 cf bc bf 6c ac 3c
       -0.050107706 -0.047279183 -0.025311004 0.021047948
000140 b1 0d bf 3c 48 9e b4 3d 52 ed 73 bd 43 f4 bb 3d
       0.023321958 0.08819252 -0.0595525 0.091774486
000150 e8 7f 10 3d b2 64 52 bb 58 bb 10 be 41 89 7d bd
       0.03527823 -0.0032103476 -0.14133966 -0.061898474
000160 82 3c d4 bd fa 2d 05 bd 6e 7f 82 3d d6 a2 a9 3c
       -0.103631034 -0.03251455 0.063719615 0.020707529
000170 48 8f 8d 3d dd ee 01 be 51 a6 de 3d 4c fc 69 3d
       0.06912094 -0.12688775 0.10871566 0.057125375
000180 63 dc 2e 3d 05 1a a6 bd c8 52 5a bd c1 2b e6 3c
       0.042690646 -0.081104316 -0.053301603 0.028097035
000190 ec 6a d2 bd 4e 61 7f 3d 41 9e cd bd 6a 9c a7 bc
       -0.102743 0.062348656 -0.1003995 -0.020460326
0001a0 0c d4 33 be c6 ea 5c 3d c7 54 99 3d f7 53 84 3d
       -0.17561358 0.053934835 0.07486873 0.064613275
0001b0 e8 00 71 bd b6 4d b3 3d 8e 44 e3 3d dc d7 05 be
       -0.058838755 0.087550566 0.1109706 -0.13070625
0001c0 ac e8 8e bd 74 3a bb 3c 64 b0 e4 bc 7e 37 a6 3d
       -0.069779724 0.022855021 -0.02791614 0.08116053
0001d0 0a 8c 36 bd 12 2f 68 3d 1b 13 88 bd f1 69 d9 bc
       -0.044567145 0.056685515 -0.06644269 -0.026539775
0001e0 16 4d b0 3d 72 e2 84 3d 33 04 5f bd db 30 f6 bd
       0.08608453 0.064885035 -0.054447364 -0.12021037
0001f0 ec b0 91 3d f0 f1 5d bd 32 e3 10 3d 4d 57 b2 bb
       0.07113823 -0.054185808 0.03537292 -0.005442536
000200 71 b3 b5 bc 40 ef 8c bd 24 6e d6 3d 4d 4b 4f bd
       -0.02218029 -0.06881571 0.104702264 -0.05060892
000210 c0 9b 0c 3d 7a 11 9b 3d a1 68 8b bd 6b bd b9 3d
       0.034328222 0.07571693 -0.06807066 0.09069332
000220 b4 87 49 3b b7 d7 8b bc 2e df ba 3d fe 51 d0 3d
       0.0030751051 -0.017070634 0.091245994 0.10171889
000230 af a9 1a be 7a e2 6a 3d fa e2 8a 3c 4a f4 15 be
       -0.15103792 0.05734489 0.016953934 -0.1464397
000240 43 4c 3b be 39 97 af 3d 61 07 d3 bd c8 ba 6f be
       -0.1829081 0.08573765 -0.10304142 -0.23411095
000250 2e c9 ca 3c ed 42 44 bc 3f 38 c9 bd fd 6b 9e bd
       0.024754133 -0.011978847 -0.09825181 -0.07735441
000260 5b b0 12 3e b0 51 12 3d 94 13 d2 bd ef c6 b2 ba
       0.14325087 0.035722435 -0.102576405 -0.0013639609
000270 dd 16 4c 3d 5e 19 91 bc f0 d8 c3 3d 49 42 2d bd
       0.04982649 -0.017712291 0.09562862 -0.042299543
000280 33 1d f5 bd 18 b0 a1 3d b3 9f 0a be 2f 9c 7c bd
       -0.1196846 0.07894915 -0.13537483 -0.061672386
000290 ef 6e 03 3e d4 86 a6 3c ec 25 e3 3d ce 0d b3 3d
       0.12835287 0.020327963 0.110912174 0.087428674
0002a0 44 c6 9e 3d ae a7 db bd 67 ab b1 3d 78 39 d5 3c
       0.0775266 -0.10725342 0.086752705 0.02602838
0002b0 19 37 95 3d 8d 0f 01 be 79 69 14 3d 77 7a 2c bd
       0.072859 -0.12603588 0.0362334 -0.04210898
0002c0 63 35 4c bd d9 5e f3 3d 38 17 a1 bc 74 3e 29 3d
       -0.0498556 0.11883325 -0.019664392 0.041319326
0002d0 2b a5 ef 39 7f ed ae 3d 87 36 47 be d6 bd 4d 3e
       0.00045708692 0.085413925 -0.19454394 0.20091948
0002e0 5f 98 64 3b f9 5c 51 bd 0f b1 c5 3d 20 51 2a 3c
       0.003488086 -0.051114056 0.09652912 0.010395318
0002f0 a4 99 83 3d 10 85 28 bd 2f 0c b1 bd 6e 18 bd 3c
       0.06425789 -0.041142523 -0.08644902 0.023082938
000300 34 b2 7f 3d da 70 ad 3d 91 e4 b2 3d 54 f2 d2 bc
       0.062425807 0.0846879 0.08735002 -0.025750317
000310 10 4a be bd d8 b5 81 bd 1a 28 23 bd 3a 35 7c bc
       -0.0929147 -0.06333512 -0.039833166 -0.01539355
000320 5b 24 05 bd f3 ab e2 39 e2 6c cc bd 71 5e c7 bd
       -0.032505374 0.0004323419 -0.09981705 -0.0973481
000330 00 c9 8a bd fd d7 57 3b 83 f1 aa 3d 8a 42 ff bd
       -0.06776619 0.0032935136 0.08346846 -0.12463863
000340 7e 25 97 bd a8 ff 12 be 52 66 71 bd 07 6c ed bd
       -0.07380198 -0.14355338 -0.05893547 -0.1159287
000350 b9 71 68 3d 4d d0 ad 3c b5 93 7e 3e e0 d6 c7 bd
       0.05674908 0.02121749 0.24861033 -0.09757781
000360 4d 48 12 be 83 e8 40 be c9 e9 5e 3d 8c 4d 21 3e
       -0.14285393 -0.18838696 0.054422174 0.15752238
000370 d5 e2 df bd e8 1e 1f bd c1 2f 05 be c6 91 c6 3d
       -0.10931937 -0.038847834 -0.13006498 0.09695773
000380 dd 1d 46 3d 84 b4 9d 3d 0c 01 97 bd be c5 84 bd
       0.048368324 0.07700446 -0.073732466 -0.06483029
000390 0a 08 80 3d 43 9c bb bd 7f fe 20 be 22 45 60 bc
       0.06251533 -0.09160664 -0.15722083 -0.013688358
0003a0 04 39 32 3c c7 68 98 3d 21 f5 10 be f9 20 8f 3d
       0.010877851 0.0744186 -0.1415601 0.06988711
0003b0 b8 0c 20 bd 49 c2 a7 bc 09 4f ef bd 02 47 8e bd
       -0.03907463 -0.020478385 -0.11684997 -0.069471374
0003c0 c3 63 d4 3b a4 d9 82 bd d7 b0 b9 3d a0 78 1d 3e
       0.006481619 -0.06389168 0.09066933 0.15378046
0003d0 97 46 08 bc a4 35 90 3b b5 ca bd 3d 6c c2 a4 3d
       -0.008317611 0.0044009257 0.09267179 0.080448955
0003e0 3c a8 4a bc 21 0a 22 bd ba d5 05 bd 84 6e 3c 3c
       -0.012369212 -0.03956044 -0.03267453 0.011500958
0003f0 f3 97 d1 bd 97 e8 a7 bd ba 44 dc 3d 0b b9 6d 3d
       -0.1023406 -0.0819866 0.10755296 0.0580378

bias f4 [2]
000000 ec 8d a2 bd 41 c2 83 3d
       -0.07937226 0.06433535

weight f4 [2, 128]
000000 c4 b7 f5 bc ef c9 08 3d eb 56 7d bd 8d 86 84 bd
       -0.029994853 0.033395704 -0.06185047 -0.06470976
000010 e5 4e 64 3d d7 86 01 bd 63 8d 08 bd 8f 03 4e bc
       0.055739302 -0.031622734 -0.033337962 -0.012574091
000020 e1 cb 27 3d ef a6 af 3c 54 1d dc bc cf 40 99 3d
       0.04096592 0.021441905 -0.026869453 0.074830644
000030 30 37 69 bd b5 c4 ec ba 89 8a 79 3d 9b 2f 77 bd
       -0.056937397 -0.0018063994 0.060923133 -0.060348134
000040 40 a3 29 bd d3 56 87 bd 83 87 95 3d 7c 51 87 3c
       -0.041415453 -0.06608357 0.073012374 0.016518347
000050 c2 be d8 3c 5a d9 95 bd ac 2c 8c bc 4e 89 26 bb
       0.026458148 -0.07316847 -0.017111145 -0.002541143
000060 a6 c7 00 bd c9 53 a0 3c 81 cc c3 3c 32 fb e7 3c
       -0.0314404 0.019571202 0.023901226 0.028318021
000070 ba 9d 09 3d e9 d0 a4 bd a9 7d 5e bd 98 85 95 3c
       0.033597685 -0.08047659 -0.054319058 0.018252179
000080 42 9b fe bc f3 67 69 bd cd 8c e3 3c c5 75 99 3d
       -0.031079892 -0.0569839 0.0277771 0.07493166
000090 3a 59 3d bc bd 85 a1 3d bd 92 41 bc e4 09 cd ba
       -0.011556918 0.07886837 -0.01181477 -0.0015643206
0000a0 ad d7 5a 3c c6 e0 ac 3c f9 70 ad 3b 02 7f cb bb
       0.013357085 0.021103274 0.0052930084 -0.006210209
0000b0 73 15 81 bd 26 eb 02 bd aa 97 a6 bc 6c 9e dc bc
       -0.06302919 -0.031962536 -0.020335991 -0.02693101
0000c0 64 8d 42 bd e9 aa a7 3d 33 4a 5d bc c1 00 01 3d
       -0.04749812 0.081868954 -0.01350646 0.03149486
0000d0 4a 41 ca bc 46 d1 5f 3d b8 78 25 bd af 5e fc bc
       -0.024689335 0.054642938 -0.04039833 -0.030806867
0000e0 08 aa 7c bd 7d 15 1c 3c ee 9c 6b 3d 63 e7 00 bd
       -0.061685592 0.009526608 0.057522707 -0.031470668
0000f0 ba fd 58 3d 3b b8 fb bc 8d 8f b4 bb 98 75 70 3d
       0.052976348 -0.030727496 -0.0055102766 0.058705896
000100 e6 02 6b bc 9d 1d 75 3d b0 bf 8d bb 66 f2 27 bd
       -0.014343953 0.059842695 -0.0043258294 -0.041002654
000110 5c 30 4d 3d 6c 83 4d bc f9 7c 2f 3d 42 97 d0 bc
       0.050094947 -0.01254354 0.042843793 -0.02546275
000120 f0 7b 1c 3c ef f9 9b bd f7 19 03 3d bf 40 9e 3b
       0.009551033 -0.076160304 0.032007184 0.0048294957
000130 cc 03 5d bd 47 f3 2b bd fb 1b 2b bc 3d 87 2f 3d
       -0.0539587 -0.041980054 -0.010443683 0.042853583
000140 c1 68 d4 3b cd b2 f8 bc 06 3b 7e bb 4b 4d 4a 3d
       0.006482214 -0.030358696 -0.0038792505 0.04939012
000150 e8 99 7f 3d c6 02 b5 bb 5e b6 e0 3c 87 29 90 bd
       0.062402636 -0.0055240123 0.02743071 -0.07039171
000160 54 4e 12 ba 84 74 55 bc 0f a8 e8 3b 3f df af bd
       -0.000558113 -0.013028268 0.0071001123 -0.08587503
000170 2a c7 82 3a 55 f2 4f 3c 33 11 80 3d 65 ff 0d 3d
       0.0009977568 0.012692054 0.062532805 0.03466739
000180 62 3e 4f 3d f5 c9 b4 bc e6 da ed bb 21 a8 d8 bc
       0.050596602 -0.022068957 -0.0072587607 -0.026447358
000190 60 b3 32 bc bf e8 54 3d e0 da 6d bc 81 db 48 bd
       -0.010907024 0.051979776 -0.014517516 -0.04903746
0001a0 58 6e a9 bc 82 50 26 3d 97 9f 4e bc 88 cd 8f 3d
       -0.020682499 0.040604122 -0.012611291 0.07021624
0001b0 4a df aa bc 99 93 9a 3d 6d 3b 63 3b 6f 0a 49 3d
       -0.020858426 0.07547683 0.0034672872 0.049082216
0001c0 2b 67 cc 3c 13 f0 1c bd 73 ba 58 bd 76 c8 f0 3b
       0.024951538 -0.03831489 -0.052912187 0.0073481156
0001d0 d6 e6 00 bc 0a 94 10 3c 56 19 22 3d 5c 15 38 bd
       -0.007867536 0.008824358 0.039574943 -0.044942245
0001e0 ec 44 9a bd f1 0f 65 3d 3e 4c 4a 3c 94 a6 15 3d
       -0.07532677 0.055923406 0.012347279 0.036535814
0001f0 76 e2 3f bc 40 32 9f 3d 37 b9 37 3d a6 56 67 bd
       -0.011711707 0.07773256 0.04485437 -0.05647912
000200 72 69 9d bd 48 57 3f bc db 6d a6 3d 44 c2 97 bd
       -0.07686128 -0.011678524 0.08126422 -0.074101
000210 39 3c 84 3c 22 2d 53 bb f8 13 11 3d 90 a7 6c 3d
       0.016141998 -0.0032222946 0.035419434 0.057776988
000220 d7 af 6e 3d 8b bf 64 3d a7 5c 9e bc 55 77 84 bd
       0.058273163 0.055846732 -0.01933129 -0.06468073
000230 bd 25 54 3d 38 77 cf b9 5f b1 d6 bb 44 2d 31 3d
       0.051793803 -0.00039570942 -0.006551906 0.04325606
000240 5d 2d 3d 3c 23 28 a8 3d c1 17 2c bd 05 b9 d8 3a
       0.01154646 0.082107805 -0.04201484 0.0016534632
000250 2b d0 05 bc 3c 4f 8d 3c f6 ab c4 3a ab d8 98 3c
       -0.008167307 0.017249696 0.0015004862 0.018658003
000260 83 ac 0a bd 94 7e b8 bc 80 90 be bc 8d e1 41 3d
       -0.033855926 -0.022521295 -0.023262262 0.047334243
000270 9e 21 f2 bc eb 46 26 3d c3 85 2b bd 58 07 3f bd
       -0.029557046 0.040594976 -0.041875612 -0.046637863
000280 15 24 96 bd 85 ac 58 bd 49 8f 82 bc ce 29 24 bd
       -0.07331101 -0.052898902 -0.015937464 -0.04007893
000290 97 f5 0d 3d 28 97 9a 3d 5e 8f 7a bd 32 3a 2e 3c
       0.03465804 0.07548362 -0.06117188 0.010633992
0002a0 ac c1 80 3b dd 21 75 3d 8e 95 00 3d 0a e9 74 3d
       0.0039293375 0.059846748 0.031392626 0.059792556
0002b0 15 fa 80 bd 45 2f 76 bd 94 83 63 bd 7c 99 f9 3c
       -0.06297699 -0.060103673 -0.055545405 0.030468695
0002c0 e9 cd 10 3d 5a da 31 3a 67 7b 58 3c 07 7f a9 bb
       0.03535262 0.0006784551 0.013213015 -0.0051726135
0002d0 d6 e8 f2 bc 71 b2 38 bd 61 59 87 3d 81 7b 99 bd
       -0.02965204 -0.04509205 0.066088445 -0.074942596
0002e0 a5 40 6f bd 29 ab 19 bd 78 74 3d bd 42 8f bd 3c
       -0.05841126 -0.037516747 -0.04625365 0.0231396
0002f0 8a e5 39 3d 93 5a 43 3c dd 1a 89 3c dc be 2c bd
       0.04538492 0.01192345 0.016736442 -0.042174205
000300 d7 78 75 bd 13 f9 22 bd 5e 19 0c 3d 69 e0 81 bd
       -0.059929695 -0.039788317 0.03420388 -0.06341631
000310 3f a6 be bc cc 64 65 bd 34 86 83 3d fe 9c f5 bc
       -0.023272632 -0.05600433 0.064220816 -0.029982086
000320 86 d8 6a bd 25 da 83 bd 7f 68 11 3d c0 f1 f0 3c
       -0.0573354 -0.06438092 0.035500046 0.02941215
000330 a9 67 6f bc 4d 65 34 bd 40 0b 9d 3d 30 68 98 bc
       -0.014612117 -0.04404192 0.076681614 -0.018604368
000340 72 e8 01 3d ba f6 9a 3c 51 da 98 3d e1 73 5a 3d
       0.031715818 0.018916477 0.074635155 0.053333167
000350 ea 15 97 bc 2a 0d f5 bb cf ef e3 3c 14 53 11 bd
       -0.018443067 -0.007478376 0.02782431 -0.03547962
000360 d5 73 15 bd f8 48 35 3d 39 36 07 bc f5 5a 36 3d
       -0.03648742 0.04425904 -0.008252674 0.044520337
000370 d0 2a 37 bd 63 fa 7f bd 72 db c2 b8 a4 0d 1d 3d
       -0.044718564 -0.062494647 -9.291516e-05 0.038343087
000380 62 71 37 3d af 82 61 3c 2b 02 ec bc 79 02 a8 bc
       0.044785865 0.013764068 -0.028809628 -0.020508992
000390 16 32 23 3d be 89 8f bd 0a ad 84 bd 35 c0 20 3d
       0.039842688 -0.07008694 -0.06478317 0.039245803
0003a0 a3 50 91 3d 17 75 84 3d fc 3a 45 3d f9 b2 87 bd
       0.07095458 0.064676456 0.048151955 -0.06625933
0003b0 36 cc 34 3d 22 31 2c 3c 2e e4 69 3d 7a 58 67 bd
       0.044140063 0.010509761 0.057102375 -0.056480862
0003c0 e3 47 86 bd de 01 f7 3c cf f0 24 3c 83 47 74 3d
       -0.0655668 0.030152258 0.010067179 0.05963851
0003d0 f5 5b b5 bc c3 3a 13 ba 6f 12 c8 3a 3b ab 82 3d
       -0.022138575 -0.0005616361 0.0015264283 0.06380316
0003e0 7d c2 99 3d 4e 0f a6 bd 2b 03 42 3d e6 28 a6 3b
       0.07507799 -0.08108388 0.047366302 0.0050707934
0003f0 0f c8 88 3d e8 25 99 3d fb 7e 73 bd db 26 87 3d
       0.06678783 0.07477933 -0.05944727 0.06599208

bias f4 [2]
000000 e3 3e f4 3c 1e d8 72 3c
       0.029815143 0.014822034
