data/ppo_penalized_petrichor_20ks_1Ke_128x4/ppo_penalized_peony_20Ks_1Ke_128x4_s0/pyt_save/model.pt (torch, 705862 bytes, 29 tensors)

log_std f4 [2]
-3.0216439 -3.258117
00000000: 9d62 41c0 fd84 50c0

weight f4 [128, 60]
-0.091096714 0.09445639 -0.08440067 -0.14378065 0.2187228 0.2566782 0.01092428 -0.061094876
-0.19638804 -0.10170102 0.08463346 0.1909594 0.112270385 0.02914235 -0.01588732 0.09523046
-0.04876812 -0.00483522 -0.16156033 -0.05621801 0.046891127 0.20976025 -0.06922906 0.14021182
0.09965192 -0.06551585 0.050847758 -0.10119422 0.009475678 0.11621489 0.0562601 0.27470988
-0.049141675 -0.17249613 -0.19443198 -0.104236856 -0.07294763 0.09009247 -0.1707895 -0.19907609
0.0067895413 -0.09115015 0.15062319 0.10765631 0.055050664 -0.1059926 -0.19969442 0.00993025
0.18817893 0.10804368 0.27725723 0.24260478 0.15524933 0.12704639 0.19803293 0.05874858
-0.2319802 -0.01745684 -0.3157656 -0.06669065 0.12984735 0.043259554 -0.045683168 -0.07110972
-0.06015099 -0.033789482 -0.038670354 0.056268085 0.12486264 -0.0114114955 -0.16070239 -0.021080013
0.1719965 0.37835872 0.16575694 0.12656574 0.08401631 -0.25113997 -0.12471429 -0.0807653
-0.12031476 0.18028736 0.2417009 -0.10635739 -0.02965401 -0.044449296 -0.021570794 -0.04619757
0.047991276 -0.13609621 0.019335482 0.08163906 0.057151154 -0.021674618 -0.09407287 -0.08218104
0.11684429 0.10550183 -0.19110061 -0.17648607 0.12145021 0.052685294 -0.13278273 0.0892602
0.06641928 0.1264956 -0.20976754 -0.17658147 0.008524547 -0.019637888 -0.1047235 0.044796117
-0.0502205 0.11310627 -0.075029686 -0.32824966 -0.085221566 0.115150556 -0.37258834 0.030619066
0.055854816 -0.0028425844 -0.031243559 0.108137146 -0.11876339 -0.15154941 -0.02323358 -0.03575333
0.009605724 -0.030817645 0.1629231 0.11500796 0.018159771 0.11354576 0.18839814 0.07248048
0.015267567 -0.17136191 -0.023060402 0.08208652 0.12228896 0.10618653 0.18377714 -0.06764124
-0.17026094 0.0142208105 0.13983554 0.05115116 -0.017541056 -0.044368144 -0.071710065 0.009888843
0.022946265 0.07964019 0.148949 -0.09621906 0.07085887 0.00704614 -0.20761599 -0.12959148
-0.024866525 -0.08957717 -0.14829202 -0.14990513 -0.047287297 0.058768332 0.0025400212 0.14716887
-0.12247182 -0.07508262 0.07771411 0.04601304 0.10845297 -0.075324826 -0.047913574 0.16270384
0.13175721 -0.0011559809 0.09794776 -0.10432465 0.13234074 -0.017292375 0.068621404 -0.063752085
0.040443167 0.1462026 0.14550768 -0.07479512 -0.04377877 0.26931515 0.17022112 0.11125025
-0.20659764 0.009800408 -0.11432251 -0.18834844 -0.09387019 0.074157275 -0.16393867 -0.0028165893
0.0054309713 -0.037753128 -0.16519977 -0.15252097 -0.11667357 0.08911729 -0.08348848 0.09283988
-0.035710085 0.006064245 -0.062148623 -0.06753159 -0.024424568 -0.09348487 -0.09254678 0.013579131
-0.07627369 -0.042102203 0.05687483 -0.04622206 -0.009270139 0.1412562 0.0771722 0.0070186784
-0.101558395 0.11224795 -0.1740748 -0.03340072 0.2038618 -0.11306817 -0.07740761 0.12871552
0.02942002 0.13494907 0.12369244 -0.0677302 0.09661264 -0.15235507 0.020136092 0.037971076
-0.0009819794 0.20947948 -0.023458617 -0.11229682 0.106478155 -0.11593402 0.18964145 0.11887986
0.24900182 0.067382544 -0.14287053 0.16133721 0.019107366 -0.010481754 -0.042815022 -0.12873513
00000000: ea90 babd 5a72 c13d 42da acbd 3c3b 13be
00000010: dff8 5f3e 536b 833e c0fb 323c 9f3e 7abd
00000020: f219 49be a048 d0bd 4f54 ad3d dc8a 433e
00000030: 04ee e53d f0bb ee3c 2026 82bc 3008 c33d
00000040: 15c1 47bd c470 9ebb 1270 25be db44 66bd
00000050: e910 403d 64cb 563e f7c7 8dbd b093 0f3e
00000060: 4e16 cc3d 2d2d 86bd bd45 503d ea3e cfbd
00000070: e03f 1b3c 1202 ee3d fe70 663d c6a6 8c3e
00000080: c848 49bd d3a2 30be 2d19 47be 227a d5bd
00000090: 9165 95bd 6782 b83d 71e3 2ebe 9ada 4bbe
000000a0: cd7a de3b eeac babd f73c 1a3e e97a dc3d
000000b0: ce7c 613d a612 d9bd b27c 4cbe 7db2 223c
000000c0: fab1 403e 0146 dd3d a9f4 8d3e 636d 783e
000000d0: aef9 1e3e 7318 023e 25c9 4a3e 5aa2 703d
000000e0: 388c 6dbe a601 8fbc 07ac a1be 1c95 88bd
000000f0: b4f6 043e ee30 313d 461e 3bbd f9a1 91bd
00000100: e260 76bd d766 0abd ce64 1ebd 5d79 663d
00000110: fcb7 ff3d 48f7 3abc 2b8f 24be feaf acbc
00000120: da1f 303e 3cb8 c13e 30bc 293e 739a 013e
00000130: be10 ac3d 6b95 80be 356a ffbd 4768 a5bd
00000140: 9667 f6bd 409d 383e 7180 773e e7d1 d9bd
00000150: f7ec f2bc 7710 36bd 3cb5 b0bc aa39 3dbd
00000160: 8092 443d ce5c 0bbe 7265 9e3c 6132 a73d
00000170: 5417 6a3d f88e b1bc 47a9 c0bd 884e a8bd
00000180: 0f4c ef3d 5811 d83d e1af 43be c4b8 34be
00000190: e3ba f83d 89cc 573d 32f8 07be 0dce b63d
000001a0: d506 883d 1088 013e 4dcd 56be c6d1 34be
000001b0: 8baa 0b3c a3df a0bc 4679 d6bd 227c 373d
000001c0: 03b4 4dbd 43a4 e73d 2aa9 99bd 5710 a8be
000001d0: a588 aebd 0ed4 eb3d e6c3 bebe d6d4 fa3c
000001e0: 05c8 643d a74a 3abb 7ef2 ffbc 0277 dd3d
000001f0: 383a f3bd c52f 1bbe 5954 bebc 1572 12bd
00000200: 5461 1d3c 4975 fcbc 50d5 263e 4b89 eb3d
00000210: cdc3 943c ae8a e83d 71eb 403e a570 943d
00000220: d124 7a3c 7f79 2fbe 2be9 bcbc fa1c a83d
00000230: a272 fa3d 5378 d93d 1330 3c3e 7e87 8abd
00000240: e258 2ebe 67fe 683c 0c31 0f3e e183 513d
00000250: 43b2 8fbc 5fbb 35bd badc 92bd d004 223c
00000260: cef9 bb3c 651a a33d 1686 183e 800e c5bd
00000270: 751e 913d 4ee3 e63b 4999 54be a1b3 04be
00000280: e2b4 cbbc 3c74 b7bd ddd9 17be bb80 19be
00000290: 53b0 41bd 10b7 703d 7c76 263b 70b3 163e
000002a0: 81d2 fabd ebc4 99bd 9328 9f3d 2b78 3c3d
000002b0: 971c de3d e743 9abd 0641 44bd d69b 263e
000002c0: 5deb 063e 4884 97ba d698 c83d 29a8 d5bd
000002d0: 5584 073e bda8 8dbc 6189 8c3d 7490 82bd
000002e0: bca7 253d 22b6 153e f7ff 143e 2f2e 99bd
000002f0: 5e51 33bd ade3 893e 724e 2e3e 2cd7 e33d
00000300: 558e 53be e491 203c ec21 eabd 6ade 40be
00000310: 043f c0bd c5df 973d 8adf 27be 8796 38bb
00000320: 4af6 b13b 06a3 1abd 212a 29be 752e 1cbe
00000330: 8df2 eebd 2083 b63d 02fc aabd d622 be3d
00000340: bd44 12bd 93b6 c63b 8e8f 7ebd 014e 8abd
00000350: 0816 c8bc ff74 bfbd 2b89 bdbd 017b 5e3c
00000360: 6135 9cbd 5c73 2cbd 95f5 683d 5853 3dbd
00000370: c8e1 17bc 77a5 103e 750c 9e3d f1fc e53b
00000380: d9fd cfbd 41e2 e53d aa40 32be 32cf 08bd
00000390: 26c1 503e 4990 e7bd e287 9ebd 00ce 033e
000003a0: 4102 f13c 1730 0a3e 7652 fd3d 22b6 8abd
000003b0: d9dc c53d f802 1cbe 72f4 a43c 8f87 1b3d
000003c0: c3b5 80ba ca81 563e 492c c0bc e0fb e5bd
000003d0: 3811 da3d d16e edbd 5e31 423e 4977 f33d
000003e0: 55fa 7e3e dcff 893d a74c 12be 9535 253e
000003f0: 0d87 9c3c aabb 2bbc ce5e 2fbd 24d3 03be

bias f4 [128]
0.049694404 0.035673432 0.118424706 -0.15045315 0.08336434 -0.08208192 0.14444546 -0.10089389
-0.025507962 0.04195043 0.04968872 0.024407325 -0.025566101 0.041984078 -0.09485675 -0.008630291
0.026881322 0.115740724 -0.09587899 -0.029953422 -0.079973504 -0.11595412 -0.06914268 -0.016717887
0.0643972 -0.05326342 0.049661618 -0.019966826 -0.11115526 0.010537451 0.030677509 -0.077340886
-0.11802138 0.019094741 -0.055939496 0.030641988 -0.003731579 -0.02565523 -0.036457114 0.13822351
-0.113288514 -0.055674635 -0.018226603 -0.046200715 0.05337345 0.105871364 0.1128451 -0.047228273
-0.0688923 0.039712705 0.09122835 -0.11980966 -0.05664472 -0.04901966 -0.009897437 -0.043597557
-0.0898868 -0.03386173 -0.038674556 -0.010113104 -0.04371925 -0.04164665 0.11950699 -0.015750447
0.063764766 -0.13729557 -0.059734143 0.040315144 0.039852217 -0.12587543 0.10099309 -0.01556705
-0.015928373 -0.04175676 0.07089126 -0.0034897462 0.0790349 -0.0053424626 0.120662965 0.03611936
0.06551282 -0.023578154 -0.10954052 0.11519808 -0.13828287 -0.1435432 -0.003794983 -0.015378696
-0.08959242 0.085955925 0.02446167 -0.049998373 0.08319995 0.021467531 -0.08305202 -0.019963827
-0.10744885 -0.07675965 0.05428578 0.0051724277 -0.035080098 -0.05475003 -0.099353395 -0.09828611
-0.037733242 -0.0024752002 0.054244798 0.086949244 0.096494354 0.03464995 -0.08195637 -0.037786562
-0.12285819 -0.008640691 0.0853888 -0.0047538127 0.07041932 0.09345722 0.08736767 -0.04731734
0.118808046 0.056466848 -0.09093258 0.034735598 0.07717485 0.039480124 0.11866165 -0.06562844
00000000: 5c8c 4b3d 4e1e 123d a788 f23d 6410 1abe
00000010: ecba aa3d 911a a8bd 83e9 133e 75a1 cebd
00000020: 13f6 d0bc 37d4 2b3d 6686 4b3d dff1 c73c
00000030: 0070 d1bc 7ff7 2b3d 4144 c2bd 1066 0dbc
00000040: 3836 dc3c 7909 ed3d 345c c4bd e160 f5bc
00000050: 26c9 a3bd 5b79 edbd ad9a 8dbd f3f3 88bc
00000060: aee2 833d be2a 5abd fb69 4b3d 7891 a3bc
00000070: 5ea5 e3bd 46a5 2c3c 664f fb3c e664 9ebd
00000080: 31b5 f1bd 936c 9c3c d020 65bd e804 fb3c
00000090: 828d 74bb eb2a d2bc 0e54 15bd 778a 0d3e
000000a0: cf03 e8bd 160b 64bd f54f 95bc f63c 3dbd
000000b0: 1e9e 5a3d 16d3 d83d 551b e73d 6f72 41bd
000000c0: 6817 8dbd caa9 223d eed5 ba3d c45e f5bd
000000d0: 4b04 68bd d7c8 48bd dc28 22bc 5a93 32bd
000000e0: 9216 b8bd 99b2 0abd 3669 1ebd 6fb1 25bc
000000f0: f512 33bd ad95 2abd 15c0 f43d 1507 81bc
00000100: 1a97 823d 3697 0cbe caab 74bd 7e21 253d
00000110: 143c 233d 7de5 00be 77d5 ce3d f10c 7fbc
00000120: 387c 82bc 2309 2bbd 702f 913d 3ab4 64bb
00000130: 0ddd a13d d30f afbb 251e f73d e5f1 133d
00000140: 962b 863d f926 c1bc c856 e0bd f9ec eb3d
00000150: 069a 0dbe fdfc 12be 40b5 78bb edf6 7bbc
00000160: 3b7c b7bd a909 b03d d763 c83c 18cb 4cbd
00000170: bc64 aa3d addc af3c 2d17 aabd 2e8b a3bc
00000180: 250e dcbd 2a34 9dbd c45a 5e3d 787d a93b
00000190: 26b0 0fbd 9141 60bd cb79 cbbd 3a4a c9bd
000001a0: 2c8e 1abd f836 22bb cb2f 5e3d 7212 b23d
000001b0: d59e c53d 1bed 0d3d bed8 a7bd 15c6 1abd
000001c0: 139d fbbd af91 0dbc 53e0 ae3d dfc5 9bbb
000001d0: 0138 903d 8066 bf3d d2ed b23d d4cf 41bd
000001e0: a251 f33d c849 673d dc3a babd ea46 0e3d
000001f0: d90d 9e3d e9b5 213d e104 f33d 3468 86bd

weight f4 [128, 128]
-0.028723389 0.093939304 -0.017053667 -0.060014978 0.09527974 0.043622825 0.062051944 -0.07430117
0.048736487 -0.09717783 -0.06462952 0.0334978 -0.02200394 0.016768666 -0.07346173 0.06381004
-0.047067743 0.055988375 0.06681541 0.07526699 0.036492474 0.030459315 -0.072155036 -0.035687733
0.044381294 0.059613623 0.027741738 0.11476219 -0.0033056955 -0.08651165 0.03446892 0.09267234
-0.0143292 0.07705146 -0.015141761 -0.09015321 -0.106742546 -0.043130793 0.07501787 -0.032310776
0.06597684 0.048546385 -0.021630943 -0.118670754 -0.16527452 -0.048874475 -0.015543564 0.018097913
0.019491373 -0.006239716 -0.069559984 0.08738538 -0.09180342 0.019782005 -0.0609712 -0.08208422
-0.021274129 0.056878243 0.02557509 0.057549518 0.068380915 -0.081770346 0.0022689071 0.09705089
-0.09995742 0.08126053 -0.06390736 0.07697835 0.030999612 0.108798966 -0.03715111 0.020321
-0.050531756 0.083598465 0.052705854 -0.02632974 0.031729475 0.0429082 -0.06321027 -0.043150842
-0.037866887 0.04728147 0.08758971 -0.018027464 0.02184174 -0.012589431 0.10828795 -0.051582593
0.108744584 0.034869317 0.06589791 0.026215313 -0.08496375 0.04455061 -0.026048722 -0.04803754
0.03905991 -0.027647251 0.047597714 -0.011092167 0.043790016 -0.095414534 0.019048123 -0.014596181
-0.096504055 0.050338455 -0.055451926 0.022104675 0.03223649 0.039477244 -0.03268839 -0.047737293
0.032764196 0.0802427 -0.067541204 0.094476804 0.050522447 -0.043980226 -0.033853427 0.094124846
-0.0010549751 -0.031683493 -0.031133635 0.04520489 -0.052318957 0.02249247 0.107408725 0.07602962
0.040969446 0.1102393 -0.070175365 0.04699192 -0.007334077 0.04155723 0.044747137 0.115520604
-0.012179437 0.044816297 0.045540918 0.033885345 -0.051225603 0.007364846 0.026185708 -0.04137887
0.04584799 0.07005084 0.038879383 -0.036137547 0.034175627 -0.027021179 0.012104376 -0.10507551
-0.023559617 -0.0932893 -0.10181858 0.03202847 0.08923707 -0.012346307 0.007287521 0.010569098
-0.05006357 0.075256936 0.06411058 0.02792812 0.006713724 0.0869595 -0.089155465 0.14280963
-0.01841221 0.014332663 0.061619595 0.06689418 0.14259781 0.0063013723 0.067690775 0.14115505
-0.09439155 0.11297438 0.26471913 -0.0029177216 0.089262836 0.07376556 0.01324768 -0.041629504
-0.0754455 -0.021714639 0.067540124 -0.11606018 -0.0013121965 -0.041896563 0.06985183 -0.116882145
0.10884103 0.014638538 -0.089473605 0.01748563 -0.07515201 -0.2322926 -0.011901227 -0.031338573
0.021089137 0.097785234 -0.15627456 0.10206703 -0.041886855 0.01611111 0.057276532 -0.018930433
-0.010162938 -0.016768327 -0.025896993 -0.027531559 0.09291462 0.03428327 -0.10231004 -0.06673472
-0.036820993 0.016538711 -0.075551145 0.06408445 0.026787262 -0.019511292 -0.06972619 -0.025878897
0.054722723 0.0014335734 -0.13314089 0.05301429 -0.08202933 -0.057117097 0.004686713 0.035410576
-0.04036553 -0.08034871 -0.12241624 -0.02145644 -0.0144559825 0.06892956 -0.07440728 0.06680901
-0.02158908 -0.052601546 0.050824206 -0.05559021 0.02408368 -0.025231387 0.017563049 0.058448568
0.0066379844 -0.04063766 -0.03840418 0.032519054 0.07308712 -0.025339479 -0.0143779 0.010459085
00000000: 504d ebbc 4063 c03d 22b4 8bbc 44d2 75bd
00000010: 0622 c33d d9ad 323d 2e2a 7e3d 362b 98bd
00000020: e99f 473d 2c05 c7bd 7b5c 84bd fd34 093d
00000030: 9b41 b4bc 715e 893c 1a73 96bd d7ae 823d
00000040: 1bca 40bd 1154 653d 85d6 883d 9425 9a3d
00000050: 2279 153d d085 f93c 05c6 93bd 4d2d 12bd
00000060: 29c9 353d 6a2d 743d a442 e33c 7008 eb3d
00000070: 5ea4 58bb 052d b1bd 482f 0d3d ffca bd3d
00000080: 05c5 6abc 28cd 9d3d 2615 78bc 3fa2 b8bd
00000090: d69b dabd eaa9 30bd f8a2 993d 4e58 04bd
000000a0: de1e 873d 93d8 463d 6033 b1bc a709 f3bd
000000b0: b93d 29be 9a30 48bd 6faa 7ebc 1342 943c
000000c0: 5fac 9f3c 8876 ccbb 7775 8ebd 1bf7 b23d
000000d0: 6e03 bcbd df0d a23c f0bc 79bd c61b a8bd
000000e0: 1547 aebc 29f9 683d da82 d13c 0bb9 6b3d
000000f0: 4b0b 8c3d 3677 a7bd f2b1 143b 9ec2 c63d
00000100: 7ab6 ccbd ec6b a63d dde1 82bd d3a6 9d3d
00000110: e6f2 fd3c fed1 de3d c32b 18bd 3a78 a63c
00000120: 63fa 4ebd ac35 ab3d 18e2 573d 78b1 d7bc
00000130: c4f6 013d 82c0 2f3d 6374 81bd f0be 30bd
00000140: 4f1a 1bbd 37aa 413d 3c62 b33d 55ae 93bc
00000150: 73ed b23c e743 4ebc 13c6 dd3d 4548 53bd
00000160: 7bb5 de3d 21d3 0e3d 7cf5 863d 7fc1 d63c
00000170: 7901 aebd b37a 363d 2164 d5bc 03c3 44bd
00000180: 49fd 1f3d 7d7c e2bc d2f5 423d ecbb 35bc
00000190: 295d 333d b268 c3bd cf0a 9c3c d224 6fbc
000001a0: eba3 c5bd b22f 4e3d 8f21 63bd dd14 b53c
000001b0: 690a 043d e4b2 213d 43e4 05bd 2e88 43bd
000001c0: c033 063d 4956 a43d 0b53 8abd 0e7d c13d
000001d0: a0f0 4e3d 9c24 34bd e4a9 0abd 87c4 c03d
000001e0: 1747 8aba 8dc6 01bd f70b ffbc c328 393d
000001f0: 674c 56bd 2142 b83c 1bf9 db3d 6bb5 9b3d
00000200: 94cf 273d 24c5 e13d 1ab8 8fbd 997a 403d
00000210: b252 f0bb ea37 2a3d c648 373d 1196 ec3d
00000220: 438c 47bc 4b91 373d 1d89 3a3d 5ccb 0a3d
00000230: f0d1 51bd ce54 f13b 6983 d63c e47c 29bd
00000240: 1acb 3b3d d176 8f3d fd3f 1f3d f704 14bd
00000250: befb 0b3d 855b ddbc 6f51 463c d431 d7bd
00000260: 1900 c1bc 760e bfbd 4286 d0bd 4930 033d
00000270: edc1 b63d 2a48 4abc 28cc ee3b 032a 2d3c
00000280: 750f 4dbd 4f20 9a3d 684c 833d 83c9 e43c
00000290: cdfe db3b d317 b23d 2497 b6bd b03c 123e
000002a0: 34d5 96bc 8cd3 6a3c d464 7c3d d1ff 883d
000002b0: 2905 123e be7b ce3b 76a1 8a3d f38a 103e
000002c0: 5b50 c1bd 1d5f e73d 4489 873e 3f37 3fbb
000002d0: 6fcf b63d 6612 973d cc0c 593c b383 2abd
000002e0: 2c83 9abd e6e2 b1bc 7a52 8a3d f6b0 edbd
000002f0: 02fe abba bb9b 2bbd 7a0e 8f3d e85f efbd
00000300: 0ce8 de3d 7ad6 6f3c f03d b7bd 063e 8f3c
00000310: 4ce9 99bd 1dde 6dbe 5dfd 42bc e05c 00bd
00000320: 20c3 ac3c a043 c83d 7006 20be 8508 d13d
00000330: 8d91 2bbd 72fb 833c cc9a 6a3d ff13 9bbc
00000340: 7482 26bc bb5d 89bc ee25 d4bc dd89 e1bc
00000350: 054a be3d 9d6c 0c3d ed87 d1bd 36ac 88bd
00000360: 9cd1 16bd 317c 873c 8fba 9abd b53e 833d
00000370: f670 db3c 25d6 9fbc 9bcc 8ebd fbff d3bc
00000380: ef24 603d bee6 bb3a 1656 08be 8325 593d
00000390: fefe a7bd 9ef3 69bd 0093 993b ae0a 113d
000003a0: 5356 25bd dd8d a4bd 5eb5 fabd 6bc5 afbc
000003b0: c9d8 6cbc f12a 8d3d d862 98bd 2ad3 883d
000003c0: 95db b0bc b874 57bd 0b2d 503d 8fb2 63bd
000003d0: 234b c53c 0eb2 cebc 62e0 8f3c c467 6f3d
000003e0: 7383 d93b ad73 26bd b44d 1dbd b332 053d
000003f0: b3ae 953d bd94 cfbc 4991 6bbc 955c 2b3c

bias f4 [128]
-0.0292462 -0.056481928 0.027661089 -0.063859776 0.045956872 0.08323737 -0.0125773745 0.009861526
-0.03028948 0.057748787 -0.013195396 0.06783918 0.079487994 0.026490444 0.035275653 -0.035756543
0.0508194 -0.08306639 0.026054068 0.05513922 0.048744686 -0.042441737 -0.038534872 -0.043907225
0.081382826 -0.06163993 0.0617733 -0.056900024 -0.060635936 0.05532799 0.011696093 -0.052180734
-0.005489154 -0.08273718 0.008858148 0.021418896 -0.05214387 0.050716612 -0.03641913 0.06172961
-0.07754547 -0.03961149 0.032133304 -0.097810656 -0.069204025 -0.0585196 0.03560792 0.074312076
0.026160337 0.040841863 0.010239645 0.03783504 0.03593305 -0.06624287 -0.039180644 0.048923466
-0.030281106 -0.06535698 0.083977945 0.060432103 0.019773025 0.020176867 0.03184958 -0.039214384
0.040210262 0.022271968 -0.0017582905 -0.026864126 -0.0010832229 -0.009699942 -0.06007463 0.057780124
-0.013313691 -0.04454487 0.07708428 0.05093659 0.029384147 0.027042769 -0.062273122 0.032043695
0.073705055 0.042768214 -0.026967503 0.011815158 -0.07662238 -0.076037146 0.039370306 -0.020096753
0.085405745 -0.016397027 0.044443686 0.054675277 -0.05196601 -0.008050088 -0.021285053 -0.06998239
0.0051866863 -0.07501576 0.0105508715 0.0621692 -0.02307726 0.086265795 -0.027042257 0.025961466
-0.0009912078 0.034446906 0.07910289 -0.06784682 0.0448153 0.021348402 -0.05598778 0.045046408
0.045449898 0.017200185 0.005892996 -0.053691365 -0.09111068 -0.07175981 0.07657329 0.04552868
-0.049947686 0.03502047 0.0793087 0.024881288 -0.030416826 -0.007585138 0.01484988 0.029001603
00000000: ba95 efbc 9859 67bd 8299 e23c eac8 82bd
00000010: 463d 3c3d 5b78 aa3d 5511 4ebc 3d92 213c
00000020: a521 f8bc fe89 6c3d 8131 58bc 45ef 8a3d
00000030: 9aca a23d 7d02 d93c 347d 103d 7475 12bd
00000040: 0128 503d b61e aabd 576f d53c aad9 613d
00000050: 82a8 473d 63d7 2dbd bed6 1dbd 10d8 33bd
00000060: 0aac a63d 277a 7cbd 0006 7d3d 0010 69bd
00000070: 635d 78bd 9a9f 623d f8a0 3f3c 77bb 55bd
00000080: 5cde b3bb 1c72 a9bd c421 113c ae76 af3c
00000090: d094 55bd 39bc 4f3d 3a2c 15bd 30d8 7c3d
000000a0: 29d0 9ebd a83f 22bd 369e 033d f450 c8bd
000000b0: d7ba 8dbd 40b2 6fbd 9cd9 113d ee30 983d
000000c0: 344e d63c cc49 273d 2fc4 273c eaf8 1a3d
000000d0: 892e 133d 58aa 87bd e27b 20bd f963 483d
000000e0: 1510 f8bc e1d9 85bd a1fc ab3d a787 773d
000000f0: 0afb a13c f549 a53c b574 023d 439f 20bd
00000100: 84b3 243d b473 b63c 7076 e6ba 2812 dcbc
00000110: eefa 8dba 81ec 1ebc d110 76bd daaa 6c3d
00000120: ab21 5abc ae74 36bd 5dde 9d3d e3a2 503d
00000130: 06b7 f03c cc88 dd3c 1a12 7fbd 4040 033d
00000140: adf2 963d b92d 2f3d f4ea dcbc 5d94 413c
00000150: 32ec 9cbd 5db9 9bbd c242 213d f2a1 a4bc
00000160: 35e9 ae3d 0f53 86bc 950a 363d 2ff3 5f3d
00000170: 50da 54bd 84e4 03bc fe5d aebc ed52 8fbd
00000180: 14f5 a93b dda1 99bd 90dd 2c3c 22a5 7e3d
00000190: 860c bdbc 1fac b03d b987 ddbc 24ad d43c
000001a0: 6aeb 81ba 3318 0d3d b200 a23d 46f3 8abd
000001b0: 3f90 373d d8e2 ae3c 7153 65bd 9582 383d
000001c0: ac29 3a3d 67e7 8c3c 091a c13b 7aeb 5bbd
000001d0: 3c98 babd cff6 92bd 75d2 9c3d 487c 3a3d
000001e0: f295 4cbd a071 0f3d 9a6c a23d d8d3 cb3c
000001f0: b52c f9bc c08c f8bb e94c 733c c594 ed3c

weight f4 [128, 128]
-0.09094554 -0.09559555 0.049119532 -0.037483394 0.012832986 0.057114314 -0.021336924 0.12923923
-0.038548905 0.057289157 -0.06597893 0.1169203 -0.09755201 0.04249895 0.022374438 0.08288609
-0.03831187 0.0848946 -0.024401305 0.01762934 -0.07766454 0.042988755 -0.018290346 -0.020257235
-0.013337935 0.087747164 -0.078263596 -0.019684955 0.070303604 0.052556667 -0.022186661 -0.11858163
0.15435612 -0.033540893 0.036485314 0.024241675 0.009325385 -0.009519188 0.104752734 0.13904329
0.029725073 0.0804504 0.021121167 0.04402271 -0.053032547 -0.15158774 0.10411889 0.021065798
0.04650814 -0.02789634 -0.08101548 0.13046971 -0.09121662 -0.10455959 -0.078573205 -0.00019501912
0.01203376 -0.13519743 0.06049121 0.08337886 -0.014775893 -0.043948848 0.018819433 -0.061252546
-0.049559183 -0.1274297 -0.036967453 0.10836402 0.00614012 -0.12088239 -0.046788946 0.06823674
0.1645566 -0.12146947 -0.050671514 0.106453374 0.06921565 0.0739258 0.06859356 -0.0455177
-0.08187485 0.08986931 0.092133775 0.092008345 0.14358121 0.052470133 0.013460865 0.107235365
-0.06148768 -0.055993825 0.06699344 -0.020138187 0.018433344 0.12678052 0.026739007 -0.06886965
0.053205162 -0.04413636 -0.0016921423 0.067216754 -0.024253739 0.028040146 -0.005186858 -0.019584524
0.07088952 -0.0069779935 -0.038845737 -0.012759755 -0.0011961472 -0.054939937 0.053115804 0.047173582
0.029087571 0.05416487 -0.14352158 0.0015302285 0.14826824 0.03515993 0.1339296 0.016877448
-0.03144545 0.12707406 0.019360688 0.115757786 -0.03914987 0.050301544 -0.09466775 0.0109126065
-0.04913251 0.05014278 0.020812986 0.04924873 -0.022647658 0.07179248 0.024645397 0.05336372
0.07645818 0.04167685 -0.07935665 0.074267864 -0.08073487 0.05659621 0.045491237 0.075700656
0.027442995 -0.08563842 0.059033345 0.08836097 -0.04041513 -0.056959484 -0.02282944 -0.10534358
-0.047908068 -0.13143107 0.05570567 0.008046839 -0.0479693 0.03112571 -0.089723185 0.016967393
0.020244949 0.056893907 -0.0047085313 0.05410965 0.008573412 0.059551902 0.048820216 0.044066697
0.08106025 -0.07116068 0.017153783 -0.10507858 0.114059344 -0.04036948 -0.036177035 0.074870706
-0.11917699 -0.005026567 -0.10106185 -0.061630897 0.015744146 -0.043060016 0.0418405 -0.05085782
-0.013482685 0.044238508 0.10083705 0.06659597 -0.050077543 -0.017949319 -0.099689 0.041248254
0.039132155 0.010391959 0.027009688 0.11310043 0.029956993 0.014558741 -0.08931986 -0.047407337
0.0400381 -0.06262385 -0.06708697 -0.088823214 -0.034163106 0.12116213 0.034513924 -0.066649586
0.017673368 0.023838615 -0.088143714 0.023469398 0.08254194 -0.022515886 -0.078766614 -0.057236757
0.040258754 -0.011100117 -0.0046274248 0.018591246 -0.10470798 0.023672028 -0.042956028 0.041009128
-0.05076686 -0.055809766 0.11219144 -0.046384618 -0.015147215 -0.07046764 -0.012600274 0.013904115
-0.069713995 -0.12934762 -0.13515104 -0.06749875 0.09966943 0.26830125 0.0268445 0.0016554977
-0.0003480674 0.05407863 -0.11206169 -0.04003806 0.04794136 -0.0670429 0.0052236053 0.052677397
0.052629095 0.006965889 -0.0031780407 -0.08493363 0.009014778 0.05365238 0.026885292 -0.0819768
00000000: a841 babd 9ac7 c3bd 9031 493d 3088 19bd
00000010: 7241 523c b3f0 693d c6ca aebc 4a57 043e
00000020: 75e5 1dbd 09a8 6a3d f61f 87bd e973 ef3d
00000030: 59c9 c7bd 6113 2e3d 994a b73c 2fc0 a93d
00000040: e8ec 1cbd 38dd ad3d 3fe5 c7bc 686b 903c
00000050: 960e 9fbd fa14 303d a3d5 95bc 80f2 a5bc
00000060: 5b87 5abc c9b4 b33d aa48 a0bd 5842 a1bc
00000070: 56fb 8f3d a945 573d cdc0 b5bc edda f2bd
00000080: 880f 1e3e 2d62 09bd a071 153d 7a96 c63c
00000090: 80c9 183c 5ef6 1bbc 9a88 d63d 5d61 0e3e
000000a0: ff81 f33c 2ec3 a43d 4c06 ad3c 2851 343d
000000b0: a838 59bd d139 1bbe 493c d53d 2e92 ac3c
000000c0: 527f 3e3d dd86 e4bc 72eb a5bd da99 053e
000000d0: c7cf babd 5723 d6bd fdea a0bd 0c7e 4cb9
000000e0: 3f29 453c 3271 0abe a2c5 773d 89c2 aa3d
000000f0: 9616 72bc b503 34bd 362b 9a3c f3e3 7abd
00000100: 92fe 4abd ee7c 02be 2f6b 17bd f5ed dd3d
00000110: 0f33 c93b 3091 f7bd c4a5 3fbd b4bf 8b3d
00000120: 8681 283e fcc4 f8bd ef8c 4fbd 3a04 da3d
00000130: efc0 8d3d 6966 973d c87a 8c3d c570 3abd
00000140: 00ae a7bd 670d b83d a2b0 bc3d df6e bc3d
00000150: f406 133e ecea 563d f68a 5c3c 379e db3d
00000160: 81da 7bbd c859 65bd db33 893d d7f8 a4bc
00000170: 8601 973c c1d2 013e c30b db3c 880b 8dbd
00000180: a8ed 593d 54c8 34bd e0ca ddba f0a8 893d
00000190: c7af c6bc 73b4 e53c 85f6 a9bb b96f a0bc
000001a0: 862e 913d a7a7 e4bb b51c 1fbd 4b0e 51bc
000001b0: 0ac8 9cba b308 61bd f58f 593d 1639 413d
000001c0: 0f49 ee3c fcdb 5d3d 52f7 12be f391 c83a
000001d0: a1d3 173e dc03 103d d724 093e 9342 8a3c
000001e0: f2cc 00bd b41f 023e 4e9a 9e3c 6b12 ed3d
000001f0: 9d5b 20bd fe08 4e3d 2ae1 c1bd caca 323c
00000200: 2c3f 49bd 8462 4d3d ff7f aa3c 09b9 493d
00000210: 9587 b9bc f007 933d 25e5 c93c eb93 5a3d
00000220: 1b96 9c3d 58b5 2a3d bd85 a2bd c019 983d
00000230: 5358 a5bd 6dd1 673d 0555 3a3d f208 9b3d
00000240: 22d0 e03c 3263 afbd f3cc 713d 99f6 b43d
00000250: 568a 25bd 594e 69bd ce04 bbbc 60be d7bd
00000260: 403b 44bd de95 06be a12b 643d e4d6 033c
00000270: 757b 44bd 58fb fe3c cac0 b7bd 34ff 8a3c
00000280: bcd8 a53c 9609 693d 064a 9abb 15a2 5d3d
00000290: 7f77 0c3c b2ec 733d b5f7 473d 487f 343d
000002a0: eb02 a63d b1bc 91bd 1786 8c3c 7033 d7bd
000002b0: f297 e93d 785a 25bd 5f2e 14bd d055 993d
000002c0: 1113 f4bd e6b5 a4bb 84f9 cebd ae70 7cbd
000002d0: def9 803c b35f 30bd f260 2b3d 4a50 50bd
000002e0: 7be6 5cbc 7033 353d a883 ce3d 7863 883d
000002f0: 1c1e 4dbd 730a 93bc bf29 ccbd eef3 283d
00000300: 0a49 203d 0943 2a3c 6c43 dd3c 33a1 e73d
00000310: 5e68 f53c c987 6e3c 55ed b6bd 322e 42bd
00000320: fefe 233d ef40 80bd e564 89bd f2e8 b5bd
00000330: 9dee 0bbd da23 f83d 795e 0d3d 947f 88bd
00000340: bdc7 903c 3349 c33c b184 b4bd e542 c03c
00000350: c00b a93d 3c73 b8bc 6450 a1bd 1771 6abd
00000360: 5de6 243d 44dd 35bc a7a1 97bb ab4c 983c
00000370: 2371 d6bd d7eb c13c a9f2 2fbd 30f9 273d
00000380: e9f0 4fbd c898 64bd a0c4 e53d ccfd 3dbd
00000390: 062c 78bc 5751 90bd 6171 4ebc 16ce 633c
000003a0: 36c6 8ebd b473 04be 0965 0abe c93c 8abd
000003b0: 7c1f cc3d c85e 893e ffe8 db3c 49fd d83a
000003c0: d17c b6b9 8e81 5d3d 9980 e5bd f3fe 23bd
000003d0: 295e 443d ca4d 89bd c72a ab3b 41c4 573d
000003e0: 9b91 573d 1d42 e43b ad46 50bb aff1 adbd
000003f0: b8b2 133c 99c2 5b3d 8b3e dc3c 74e3 a7bd

bias f4 [128]
-0.0063508637 0.010667062 0.025317375 -0.0030337453 -0.0043167113 0.015556194 -0.018519344 -0.06711606
-0.011116264 -0.057356514 -0.052488778 -0.009546559 -0.009433032 0.058654588 0.01621604 -0.04088048
-0.0032821554 -0.02148608 0.0048841084 -0.03013541 -0.05282427 0.018754885 0.010244706 -0.021421129
-0.009210811 -0.05431583 -0.0527106 0.0060470137 0.056834202 -0.012042365 0.0029061858 -4.7278223e-05
-0.05041473 -0.02892199 -0.053805985 0.05072953 0.04007392 0.021547565 0.028559916 0.002416107
0.016285613 -0.0045748693 -0.038496178 0.058005508 -0.006547667 -0.038076207 0.0014639699 -0.057489764
0.061482925 0.008489659 -0.053954124 0.027074033 0.008045952 0.0066542947 -0.03753285 -0.05092405
-0.028974995 -0.009834422 -0.014294689 0.056645703 0.008487688 -0.005505495 -0.02243793 0.050612327
0.027740933 -0.05920337 -0.058527116 -0.067939855 0.062122446 -0.057367045 0.035551615 0.035833593
0.043830674 0.06693742 0.046370607 0.05898451 0.04466007 -0.013661682 -0.024470022 0.024669046
0.04847945 -0.069144696 0.07619713 0.027936753 -0.0020562045 0.01254002 -0.04427169 0.00052322424
-0.030215485 -0.064086735 -0.019630915 -0.02610473 0.010776899 -0.017096717 -0.04961976 0.05723896
0.024141975 -0.03556059 -0.049581464 0.06048889 0.023043502 -0.039323106 -0.057681587 0.03603659
-0.04399891 -0.007864971 -0.009509932 -0.03368258 0.06642501 -0.023891043 -0.023007073 0.06391601
-0.0033753566 0.0076891794 -0.049454935 0.0055202367 -0.03938259 -0.0052662226 -0.009635984 0.009642154
0.03369037 0.0020814762 0.063986294 -0.053130843 -0.0025418587 -0.008339545 0.07088683 -0.04448914
00000000: e81a d0bb e7c4 2e3c 6266 cf3c cdd1 46bb
00000010: 3373 8dbb 68df 7e3c e1b5 97bc 2574 89bd
00000020: fe20 36bc aaee 6abd 79fe 56bd 2c69 1cbc
00000030: 018d 1abc cb3f 703d 80d7 843c 4a72 27bd
00000040: 6e19 57bb 9303 b0bc df0a a03b 89de f6bc
00000050: 435e 58bd d8a3 993c 69d9 273c 5d7b afbc
00000060: f1e8 16bc 477a 5ebd 12e7 57bd 0726 c63b
00000070: fbca 683d 574d 45bc b575 3e3b 9b4c 46b8
00000080: ad7f 4ebd cfed ecbc aa63 5cbd c5c9 4f3d
00000090: 8d24 243d 8584 b03c 7cf6 e93c 8d57 1e3b
000000a0: 6869 853c c9e8 95bb 2bae 1dbd 2f97 6d3d
000000b0: d08d d6bb ccf5 1bbd aee2 bf3a 637a 6bbd
000000c0: 85d5 7b3d 3618 0b3c 00ff 5cbd 5dca dd3c
000000d0: 2bd3 033c 450c da3b 0cbc 19bd bd95 50bd
000000e0: f85c edbc 8e20 21bc 4534 6abc 5305 683d
000000f0: f20f 0b3c 7067 b4bb c0cf b7bc df4e 4f3d
00000100: f440 e33c 3c7f 72bd 21ba 6fbd 0d24 8bbd
00000110: 1b74 7e3d b5f9 6abd 929e 113d 3fc6 123d
00000120: cb87 333d 7c16 893d 1bef 3d3d be99 713d
00000130: 7aed 363d 3fd5 5fbc 5b75 c8bc bd16 ca3c
00000140: 6392 463d bc9b 8dbd 3e0d 9c3d 9edb e43c
00000150: 63c1 06bb a874 4d3c 3b56 35bd fc28 093a
00000160: 7786 f7bc e83f 83bd 03d1 a0bc 96d9 d5bc
00000170: 9791 303c 6a0e 8cbc 173e 4bbd 6673 6a3d
00000180: 64c5 c53c fba7 11bd ef15 4bbd 33c3 773d
00000190: bac5 bc3c 4411 21bd 8743 6cbd 1a9b 133d
000001a0: 3338 34bd 14dc 00bc 8ccf 1bbc bff6 09bd
000001b0: d609 883d 26b7 c3bc 5479 bcbc 66e6 823d
000001c0: 1635 5dbb 83f5 fb3b 4291 4abd 1ae3 b43b
000001d0: a44f 21bd 4790 acbb 3fe0 1dbc 20fa 1d3c
000001e0: eafe 093d 6069 083b 3f0b 833d ba9f 59bd
000001f0: 5095 26bb 96a2 08bc 1d2d 913d 3f3a 36bd

weight f4 [128, 128]
-0.018159268 0.030336678 -0.06653433 0.06725873 0.06034346 0.047282815 0.027021574 0.03316292
0.01429322 -0.020667352 -0.09059537 0.018421808 -0.02289393 -0.071815655 0.07512812 0.0032067616
0.009749299 -0.054844394 -0.07428352 0.082139604 0.054678816 0.017648473 0.08805893 -0.052043878
0.058316536 -0.07230399 0.021435844 -0.03288646 -0.01207794 -0.05686644 -0.044926614 0.029598312
-0.01738631 -0.08476715 -0.0553416 -0.07377122 -0.055514883 0.110199 0.06789556 -0.0033771475
-0.029636152 0.060189605 0.020150984 0.004917255 0.040467635 0.036001906 0.03719272 -0.085734196
-0.080785386 0.06298705 -0.0070146862 0.0144573925 -0.051407646 0.07446522 0.019076632 -0.076764256
-0.04462482 0.04157532 -0.052324448 0.043712173 -0.08913767 0.03271356 0.019101717 0.012331908
0.008012044 -0.060754776 0.06995939 -0.051530667 0.06278059 -0.04494647 -0.041178416 0.07471493
0.050070893 0.12943938 0.046816796 -0.098631546 0.027621578 0.055981625 -0.052232042 0.012395917
-0.062096838 -0.065941036 -0.0147303 0.1009222 -0.06388112 -0.07581543 0.072027884 -0.11221978
-0.05153566 0.047501616 0.026033973 -0.08940205 -0.111095846 0.042368162 -0.03482479 -0.07206552
0.041702785 -0.030755999 -0.0981723 -0.04877435 -0.036834795 0.022597266 -0.0899581 0.038588267
0.0018336658 -0.0044877543 0.026453953 -0.012738241 -0.0738919 -0.11496934 -0.07884137 -0.007942493
-0.030160721 0.033533487 0.058550533 0.08771488 -0.014426586 -0.0009781013 -0.053801548 0.058654293
0.08640122 -0.039686467 -0.07814026 -0.09384255 -0.0019715577 0.02254929 -0.059555255 -0.007810431
-0.043105576 -0.037332963 -0.091564946 -0.071302295 -0.021244429 0.07306281 -0.056276012 0.047738142
-0.0017873755 -0.05949784 -0.03800451 -0.00032055384 0.07425338 -0.063463755 -0.00083677116 0.017493438
0.06414981 -0.017278766 0.054990992 0.029580887 0.057807818 -0.032405443 0.091129445 0.039715577
0.043596353 -0.033592563 0.034012232 0.04230947 0.030403474 0.031094814 -0.077987865 -0.008405093
0.051828496 0.08318929 -0.016724931 -0.10171299 0.007566689 -0.039848782 0.0461744 0.0050513814
-0.06296009 0.03163303 0.046299536 0.06277777 0.03094961 0.05279287 0.06284157 0.07425462
0.061232936 0.064467825 0.033695474 -0.043742616 -0.046225335 0.05986352 0.07056691 -0.065115236
0.03850864 0.0055232444 0.01912688 0.05977769 -0.093144014 -0.054240685 0.09288864 -0.053559657
-0.07416879 0.00705404 0.04570786 -0.050183836 -0.001609508 -0.103887945 -0.012422099 0.0084547205
0.018355612 0.049004722 0.083886124 -0.05027577 -0.02958002 0.111261986 0.0321238 -0.07814296
0.026502354 -0.082338 0.1030041 0.036546513 -0.07717096 0.036272474 0.0006401056 -0.038076658
-0.00315678 -0.042811297 -0.08688943 0.003562199 -0.123070434 0.010811005 -0.020676712 -0.014363936
0.033563066 -0.048097864 -0.019689009 -0.045861665 -0.005484528 0.055412043 -0.024442207 0.11530687
-0.0149174575 -0.03197625 0.020411469 0.07450501 0.0043498045 -0.08778705 0.023831997 0.084181845
0.0401057 -0.101980135 -0.047358975 -0.051972423 -0.037564866 0.013447225 -0.089758836 -0.023913858
-0.08108905 -0.052725084 0.031590812 0.0747391 -0.0073336656 -0.04715744 0.06589838 0.057056222
00000000: bfc2 94bc a084 f83c 2743 88bd f2be 893d
00000010: b42a 773d a0ab 413d 595c dd3c d8d5 073d
00000020: 1c2e 6a3c 944e a9bc 118a b9bd 55e9 963c
00000030: 0d8c bbbc 1614 93bd c6dc 993d 8828 523b
00000040: 86bb 1f3c 84a4 60bd f521 98bd cf38 a83d
00000050: e5f6 5f3d 8893 903c 3e58 b43d f62b 55bd
00000060: 52dd 6e3d 1d14 94bd 399a af3c f4b3 06bd
00000070: 8de2 45bc c9ec 68bd f804 38bd 2978 f23c
00000080: bc6d 8ebc 669a adbd e0ad 62bd 5e15 97bd
00000090: 9363 63bd 03b0 e13d d40c 8b3d 2253 5dbb
000000a0: 84c7 f2bc 6089 763d ad13 a53c ed20 a13b
000000b0: 64c1 253d bc76 133d 6557 183d 6995 afbd
000000c0: cf72 a5bd 5bff 803d 74db e5bb b3de 6c3c
000000d0: d390 52bd 3981 983d 9946 9c3c 9436 9dbd
000000e0: 84c8 36bd e24a 2a3d 2952 56bd 890b 333d
000000f0: d08d b6bd a7fe 053d 347b 9c3c c50b 4a3c
00000100: f344 033c 00da 78bd de46 8f3d d211 53bd
00000110: 1c93 803d ca19 38bd b3aa 28bd 2404 993d
00000120: 2317 4d3d c28b 043e f8c2 3f3d 56ff c9bd
00000130: a646 e23c fd4c 653d 44f1 55bd 3f18 4b3c
00000140: 4159 7ebd 180c 87bd 5b57 71bc 4cb0 ce3d
00000150: 1bd4 82bd 1f45 9bbd 5b83 933d 7cd3 e5bd
00000160: 0e17 53bd 0e91 423d 3345 d53c 6c18 b7bd
00000170: 3886 e3bd 3d8a 2d3d 70a4 0ebd 1697 93bd
00000180: 8ad0 2a3d 01f4 fbbc 8f0e c9bd 9dc7 47bd
00000190: 15e0 16bd e71d b93c f43b b8bd bb0e 1e3d
000001a0: 9d57 f03a 030e 93bb f6b5 d83c 0eb4 50bc
000001b0: a354 97bd 0c75 ebbd 9677 a1bd 3b21 02bc
000001c0: 9e13 f7bc 695a 093d afd2 6f3d dca3 b33d
000001d0: 7d5d 6cbc a233 80ba 035f 5cbd 7c3f 703d
000001e0: 1ff3 b03d 478e 22bd 0008 a0bd 8630 c0bd
000001f0: 4035 01bb 4ab9 b83c 36f0 73bd a5ee ffbb
00000200: 798f 30bd 73ea 18bd 6786 bbbd f006 92bd
00000210: cc08 aebc f4a1 953d ad81 66bd 1289 433d
00000220: 5f46 eaba 02b4 73bd 9eaa 1bbd 0210 a8b9
00000230: 2812 983d 49f9 81bd c35a 5bba 664e 8f3c
00000240: fa60 833d 338c 8dbc 3c3e 613d 9e53 f23c
00000250: e4c7 6c3d 92bb 04bd 13a2 ba3d cdac 223d
00000260: 1792 323d 5b98 09bd 6950 0b3d b24c 2d3d
00000270: b510 f93c 8dba fe3c 1ab8 9fbd 84b5 09bc
00000280: 1e4a 543d 255f aa3d b902 89bc e64e d0bd
00000290: fdf1 f73b 7a38 23bd 5e21 3d3d 0f86 a53b
000002a0: 38f1 80bd a391 013d 95a4 3d3d a291 803d
000002b0: 098a fd3c 563d 583d 15b3 803d ce12 983d
000002c0: 63cf 7a3d b507 843d 4404 0a3d 752b 33bd
000002d0: c756 3dbd 7333 753d 6285 903d 235b 85bd
000002e0: 3cbb 1d3d 55fc b43b faaf 9c3c 73d9 743d
000002f0: 4ac2 bebd 7b2b 5ebd 663c be3d 5f61 5bbd
00000300: cee5 97bd 9425 e73b 2a38 3b3d 918d 4dbd
00000310: 20f6 d2ba 34c3 d4bd 0f86 4bbc ab85 0a3c
00000320: 825e 963c 2db9 483d 7dcc ab3d f7ed 4dbd
00000330: cc51 f2bc 53dd e33d 3f94 033d 6b09 a0bd
00000340: 771b d93c d3a0 a8bd d0f3 d23d ccb1 153d
00000350: cf0b 9ebd 7292 143d c2cc 273a 45f6 1bbd
00000360: fbe1 4ebb e65a 2fbd 16f3 b1bd c873 693b
00000370: 5a0c fcbd a420 313c 3562 a9bc b756 6bbc
00000380: 6d79 093d 4402 45bd d84a a1bc 71d9 3bbd
00000390: 8eb7 b3bb bdf7 623d 063b c8bc 0226 ec3d
000003a0: 5a68 74bc 87f9 02bd f435 a73c 1596 983d
000003b0: ce88 8e3b b2c9 b3bd 523b c33c 8867 ac3d
000003c0: e045 243d f6da d0bd 7cfb 41bd 09e1 54bd
000003d0: 9edd 19bd c051 5c3c 7bd3 b7bd ffe6 c3bc
000003e0: 0412 a6bd 42f6 57bd 5e65 013d d010 993d
000003f0: 3f4f f0bb 2928 41bd bbf5 863d c9b3 693d

bias f4 [128]
-0.07723536 0.036503274 0.060884245 0.0771736 0.021607617 -0.04341988 0.067034274 -0.067967296
-0.08196167 0.013351343 -0.022163056 -0.011014096 -0.03904606 -0.010974886 0.02158717 -0.015704041
-0.020421915 -0.024763003 -0.04748806 -0.0071783 0.054679245 0.07280165 0.053578287 -0.059279382
-0.04158471 0.008827097 0.0616092 -0.038008887 0.006681076 -0.025571601 -0.016938208 0.02439653
0.06943971 0.039346244 -0.0050253924 0.059306387 0.009966501 -0.027591754 -0.03002974 0.024771428
-0.039705377 -0.019832319 -0.012474237 0.073549874 -0.049340792 -0.0185049 0.03204332 -0.038765725
0.021742651 -0.057212964 0.06857362 0.045294665 -0.072831616 0.06610979 -0.018581089 0.032474175
0.014900547 0.026654402 -0.03528159 0.07707594 -0.025769195 -0.056790687 -0.0042958087 0.029571258
0.035792537 -0.02999853 0.025944464 0.08014583 -0.06104089 0.01888776 0.034853812 -0.003977262
0.041415036 0.012516811 0.07313207 -0.00019448489 -0.016061805 0.04046451 -0.00832505 -0.071094625
0.037150856 -0.064593576 -0.042243354 0.05474499 -0.021306645 -0.04110624 0.08363802 0.03128077
-0.03269656 -0.039005373 0.07598705 0.01910711 0.082591005 -0.072580695 -0.04910568 -0.030197555
-0.04854422 -0.012247429 0.0795403 0.020170942 0.021831807 -0.014377789 0.080837004 0.008728369
-0.073962815 -0.0011177025 0.020560322 0.0040845475 0.06590737 0.015109299 -0.002922115 -0.061705083
0.03987991 -0.034965023 0.01159057 -0.043447193 0.0027643351 -0.02202447 -0.023030318 -0.04307442
0.016696647 0.027148206 0.0110403765 0.053973842 -0.01489718 -0.023581177 0.07172127 0.049547516
00000000: 932d 9ebd 7584 153d c261 793d 310d 9e3d
00000010: 7502 b13c 0bd9 31bd 4449 893d 7032 8bbd
00000020: 85db a7bd 97bf 5a3c 4c8f b5bc 7874 34bc
00000030: c3ee 1fbd 02d0 33bc 94d7 b03c c3a5 80bc
00000040: dc4b a7bc c8db cabc d782 42bd f237 ebbb
00000050: 58f7 5f3d 0819 953d e874 5b3d f0ce 72bd
00000060: bb54 2abd 879f 103c ee59 7c3d 35af 1bbd
00000070: edec da3b 897b d1bc ffc1 8abc 3bdb c73c
00000080: 6836 8e3d 8729 213d 0cac a4bb 41eb 723d
00000090: 894a 233c 1a08 e2bc ee00 f6bc 73ed ca3c
000000a0: 1ba2 22bd 6377 a2bc be60 4cbc 51a1 963d
000000b0: 9219 4abd 9797 97bc db3f 033d cfc8 1ebd
000000c0: a51d b23c 2458 6abd 5370 8c3d e686 393d
000000d0: be28 95bd 9264 873d 5e37 98bc a403 053d
000000e0: 6d21 743c 555a da3c 6e83 10bd fed9 9d3d
000000f0: eb19 d3bc 5a9d 68bd dbc3 8cbb 6c3f f23c
00000100: 329b 123d 7abf f5bc 7c89 d43c 7f23 a43d
00000110: 0306 7abd 81ba 9a3c dfc2 0e3d b153 82bb
00000120: d0a2 293d 4f13 4d3c 44c6 953d a4ee 4bb9
00000130: 0c94 83bc 1dbe 253d ca65 08bc 0f9a 91bd
00000140: 7f2b 183d a349 84bd 5e07 2dbd 483c 603d
00000150: 468b aebc 045f 28bd 694a ab3d 4420 003d
00000160: d4ec 05bd 19c4 1fbd 199f 9b3d 8486 9c3c
00000170: 7925 a93d 30a5 94bd 0a23 49bd dd60 f7bc
00000180: 4ed6 46bd 71a9 48bc 06e6 a23d 883d a53c
00000190: 9ed8 b23c d190 6bbc df8d a53d 6f01 0f3c
000001a0: d179 97bd df7f 92ba 1f6e a83c abd7 853b
000001b0: 71fa 863d fe8c 773c f480 3fbb 78be 7cbd
000001c0: 1e59 233d 7c37 0fbd 60e6 3d3c aff5 31bd
000001d0: d929 353b a96c b4bc 14aa bcbc ce6e 30bd
000001e0: 68c7 883c ea65 de3c b2e2 343c ad13 5d3d
000001f0: 4d13 74bc 502d c1bc 9ae2 923d 56f2 4a3d

weight f4 [2, 128]
0.03649424 -0.01166471 0.08601864 -0.07761114 -0.23966575 -0.009594405 -0.029631749 -0.0009595035
0.067650445 -0.022753987 0.09193487 -0.024893742 0.0020162065 -0.0017742657 -0.0034739943 -0.002514306
-0.06670355 0.13088775 -0.027310824 -0.0531688 0.004756602 0.05301263 -0.06504018 -0.07500019
-0.0308035 0.11277519 -0.032146204 0.00035732996 -0.062497243 -0.092695504 0.0003255745 0.069755256
-0.06689956 -0.037078626 0.022943368 -0.07533826 -0.03207568 -0.09546649 -0.02328545 -0.092299625
-0.08326619 0.081070065 -0.013745571 0.06466922 -0.02879576 0.005628367 -0.060523875 0.034566253
-0.0020537802 0.022223584 0.035399437 -0.08575676 -0.10989966 -0.057778407 -0.0037519147 -0.004910574
0.084092155 0.086144894 -0.00020089261 0.010133677 0.042817842 0.06775617 -0.07260316 0.11945226
0.0023037964 0.01642158 -0.0408187 -0.06437968 -0.010375157 -0.0491213 0.06698576 -0.035268668
0.119754255 -0.026013205 -0.03715432 0.046215374 0.033873573 -0.05821562 0.03007764 0.032828875
-0.0075006345 -0.12995167 -0.13034572 -0.083674215 -0.04080569 0.028363328 -0.06004994 -0.05171493
-0.053302847 -0.006026725 -0.09347909 0.037099883 0.08965345 0.061288983 0.1301999 0.097526215
-0.1303422 -0.10350105 -0.016442923 -0.02372337 -0.03874635 0.028545143 0.09241735 0.025698913
-0.0980975 0.032746475 0.006113401 -0.032418236 0.0030053006 -0.050920133 0.058420155 0.031186331
-0.0131279975 -0.04108179 -0.05992453 0.01492811 -0.14008904 -0.0917563 0.07318753 -0.07049842
-0.092734426 -0.05844475 0.044218298 0.062484127 0.013943508 -0.010504404 -0.10411933 0.019520022
0.04804322 0.03431074 0.0030285213 -0.07139132 -0.00025408238 -0.05880291 -0.067704305 -0.029299194
-0.019194495 -0.011397327 0.093071185 0.01269531 0.0018884118 0.0003369066 -0.019594537 -0.0001117686
0.02871182 -0.097760916 0.006756438 0.0959306 0.041978735 0.09084273 -0.016852567 0.0019026049
0.017747387 -0.0494067 0.026414271 -0.003527931 0.018434945 0.030772634 -0.08843358 0.01788774
-0.02021505 -0.024778556 0.01802092 -0.0023911824 -0.016488554 -0.0016995952 -0.051240116 0.017676482
0.06989039 -0.059476316 -0.032486647 -0.12860683 0.047184587 -0.043648798 -0.027804099 -0.003792034
-0.0050960537 0.051218837 0.042430222 0.14865787 0.06557991 0.07878256 -0.068147585 -0.000366659
-0.011892111 -0.034424275 -0.0009700607 0.0379041 0.037917502 0.06153334 -0.0069474503 0.04894926
-0.0007568401 0.014858987 0.03846626 0.10314605 -0.054941334 -0.0034982252 0.03317009 -0.028904933
0.031195277 -0.017489756 0.07536125 -0.0722968 -0.06293429 -0.059895966 0.027510734 0.078619
0.057232358 -0.036875583 -0.13632005 0.094872124 0.049681805 -0.04072686 0.1023832 -0.04659199
0.06171789 -0.0042738155 0.08442292 0.004804833 0.08020494 -0.0045229583 -0.13427876 0.06290289
0.09476191 -0.10860097 0.01688841 -0.014630352 0.097473875 0.048234206 0.066193365 0.041699976
-0.044917554 -0.07951558 -0.0528293 -0.021842295 0.060919754 -0.047277573 -0.006267366 -0.06576311
-0.015686683 -0.0021484746 -0.0010071741 0.02486556 0.041184466 -0.052724626 0.0057965694 -0.0794901
0.089825675 -0.023310883 0.06621529 -0.10639151 0.0003432025 -0.061358437 -0.024641776 0.047057595
00000000: fc7a 153d 571d 3fbc 8a2a b03d 97f2 9ebd
00000010: f06a 75be da31 1dbc 48be f2bc 3187 7bba
00000020: 518c 8a3d 9266 babc 5948 bc3d f6ed cbbc
00000030: 5522 043b 7a8e e8ba f4ab 63bb 0ec7 24bb
00000040: df9b 88bd 7007 063e f3ba dfbc 87c7 59bd
00000050: 45dd 9b3b c623 593d c933 85bd b399 99bd
00000060: 9f57 fcbc aef6 e63d bdab 03bd 0458 bb39
00000070: 1cfd 7fbd 24d7 bdbd dfb1 aa39 d8db 8e3d
00000080: a302 89bd c2df 17bd bbf3 bb3c f24a 9abd
00000090: ca61 03bd ef83 c3bd 21c1 bebc 9607 bdbd
000000a0: 7787 aabd 1008 a63d 1a35 61bc 4c71 843d
000000b0: 16e5 ebbc 2a6e b83b e2e7 77bd 5895 0d3d
000000c0: b798 06bb 3c0e b63c 00ff 103d 3da1 afbd
000000d0: 1313 e1bd 0da9 6cbd afe2 75bb e1e8 a0bb
000000e0: 8238 ac3d bc6c b03d b3a6 52b9 b907 263c
000000f0: c361 2f3d bfc3 8a3d f7b0 94bd 63a3 f43d
00000100: 4afb 163b 8d86 863c 8231 27bd 7ed9 83bd
00000110: 90fc 29bc 6b33 49bd d52f 893d e175 10bd
00000120: b841 f53d a519 d5bc 212f 18bd 554c 3d3d
00000130: 04bf 0a3d 8173 6ebd 6265 f63c 9277 063d
00000140: e2c7 f5bb 0d12 05be 5979 05be 635d abbd
00000150: de23 27bd 365a e83c edf6 75bd 09d3 53bd
00000160: 1654 5abd d57b c5bb f771 bfbd 0cf6 173d
00000170: 3a9c b73d 280a 7b3d 1f53 053e d3bb c73d
00000180: 6d78 05be 5cf8 d3bd 4fb3 86bc 8357 c2bc
00000190: 7eb4 1ebd 81d7 e93c 4f45 bd3d 8786 d23c
000001a0: 58e7 c8bd 2b21 063d ed52 c83b fcc8 04bd
000001b0: 94f4 443b a191 50bd f949 6f3d 7a7a ff3c
000001c0: d016 57bc 6145 28bd 6d73 75bd 0895 743c
000001d0: 8073 0fbe baea bbbd 58e3 953d 7a61 90bd
000001e0: 8ceb bdbd c363 6fbd 3f1e 353d 5bef 7f3d
000001f0: 5073 643c aa1a 2cbc 843c d5bd 74e8 9f3c
00000200: f8c8 443d 6b89 0c3d 287a 463b 9d35 92bd
00000210: 5c36 85b9 52db 70bd 8ea8 8abd dd04 f0bc
00000220: c63d 9dbc dbbb 3abc 1b9c be3d fdff 4f3c
00000230: 9684 f73a d7a2 b039 b984 a0bc 4f65 eab8
00000240: 0d35 eb3c e036 c8bd 1c65 dd3b 4377 c43d
00000250: e5f1 2b3d c10b ba3d 650e 8abc d460 f93a
00000260: f862 913c ae5e 4abd be62 d83c dc34 67bb
00000270: e204 973c e416 fc3c aa1c b5bd 4f89 923c
00000280: 089a a5bc 66fc cabc 9ca0 933c 62b5 1cbb
00000290: 0113 87bc f4c4 deba 28e1 51bd 45ce 903c
000002a0: b122 8f3d 709d 73bd b810 05bd 82b1 03be
000002b0: a044 413d 15c9 32bd 6cc5 e3bc c683 78bb
000002c0: ccfc a6bb d8ca 513d 50cb 2d3d c539 183e
000002d0: c34e 863d c058 a13d f690 8bbd 233c c0b9
000002e0: 21d7 42bc 7800 0dbd ac4b 7eba 5441 1b3d
000002f0: 624f 1b3d 620a 7c3d 70a7 e3bb 057f 483d
00000300: ae66 46ba 1c73 733c cc8e 1d3d 3c3e d33d
00000310: 2a0a 61bd 7b42 65bb 5cdd 073d 0aca ecbc
00000320: 3d8d ff3c ad46 8fbc 0057 9a3d 5810 94bd
00000330: b1e3 80bd 7955 75bd 315e e13c 0003 a13d
00000340: 7a6c 6a3d da0a 17bd 7c97 0bbe 514c c23d
00000350: 267f 4b3d 35d1 26bd 48ae d13d 3ed7 3ebd
00000360: e6cb 7c3d 5d0b 8cbb ede5 ac3d dc71 9d3b
00000370: 7d42 a43d 5335 94bb 5f80 09be 3bd3 803d
00000380: 8812 c23d 2f6a debd 9059 8a3c 25b4 6fbc
00000390: 62a0 c73d 3b91 453d 6390 873d 98cd 2a3d
000003a0: 78fb 37bd 10d9 a2bd 8963 58bd 9dee b2bc
000003b0: fe86 793d 21a6 41bd 7a5e cdbb cfae 86bd
000003c0: 5c81 80bc 6ccd 0cbb 2803 84ba dcb2 cb3c
000003d0: 0bb1 283d c7f5 57bd 26f1 bd3b b5cb a2bd
000003e0: 86f6 b73d 77f6 bebc e29b 873d cbe3 d9bd
000003f0: dcef b339 fc52 7bbd 8ddd c9bc 77bf 403d

bias f4 [2]
0.009800707 0.05860428
00000000: 2593 203c 0b0b 703d
