data/ppo_test/ppo_test_s0/pyt_save/model.pt (torch, 72227 bytes, 12 tensors)

log_std f4 [2]
00000000: b9a1 98bf f1c2 8fbf
-1.1924354 -1.1231366

weight f4 [64, 60]
00000000: 8da1 8d3d 652f 7a3d 29fd b5bd 6772 1abe
00000010: 9c1c 8bbe a677 fbbc cfae b1bd c4f3 f23d
00000020: fd8c abbd e6f7 38be 35de ebbd 1dc0 2fbd
00000030: 9862 adbe 4d3c 34be e1e5 02be 772a 3dbc
00000040: 4b37 103e d237 b13d de22 f8bc db44 66bd
00000050: e910 403d ee7f 913d c584 1f3e 563c 523e
00000060: edde 7cbd c4d2 6cbd 7ce9 8f3d 9aae 17be
00000070: 6af3 9d3b a4dc 43bd 869d 09be 3dae bd3d
00000080: 3db6 e5bd aad6 6dbd 1a17 0abe 3417 0fbe
00000090: 7f87 e33b 5821 973d d404 a13e 01d5 8e3d
000000a0: cd7a de3b ba85 13be 8686 92bd 7708 05be
000000b0: bb45 17bd c432 4abe ff45 c73c 982d 2e3e
000000c0: 0256 863d c03e 0dbb 8ce6 163e 9fdc 853e
000000d0: ec70 a63c 50e3 4b3c 474e 2f3e 0e72 7fbd
000000e0: e1fd c4bc 1970 3fbe 1fed 5bbe 1c95 88bd
000000f0: f3a6 bfbc c926 403d 554d c7bd 04e6 173e
00000100: f90f 7e3e 0a6b 903d 491c 8abd 135d b9bb
00000110: 586d 083e 7e43 063e 0fc7 50be 6644 98be
00000120: 4f99 b7bc cf98 003e 5d6e 083e 2bdc 213e
00000130: 5d40 383d de21 12be e427 2a3b 4768 a5bd
00000140: 9667 f6bd dee5 0b3d 43cd 603e 1228 4abd
00000150: 4927 ee3d e47d fb3c c564 10bd b4f7 0ebe
00000160: e0e2 183c 8648 a9bd 745c 6cbc 190b 3c3d
00000170: 024f 053d 4ee5 ae3c 610b 14be 4384 24be
00000180: 6682 e23d 71bf 223e b5f8 863d 7eb6 a0bd
00000190: e3ba f83d 2464 063d 12b3 7fbd bffb a13d
000001a0: 5ed5 0cbe e5b4 dfbd c96b 40be ccad 37be
000001b0: 68b8 8b3c b287 e7bd aa2f 5cbe 7bed 463a
000001c0: 6cda b73d a279 c03e 3c20 f03d 644d ddbd
000001d0: 4a82 993d 54df e13c 464e 903e d6d4 fa3c
000001e0: 3240 043e 9b6f b7bc c7eb 6dbd 0f53 483e
000001f0: 734a 613e 822c 683e b9f4 14bd 5283 5fbe
00000200: af3f 74bd 2457 d5bd ebff bebd b91b 8fbe
00000210: a0e8 aebe 9bec 72bd 3043 08bc 6b49 cabd
00000220: ced3 8f3d 9900 8cbd f254 1dbc fa1c a83d
00000230: a272 fa3d 93f2 573d 9a06 5b3e b4bb 413c
00000240: a0e6 02be b52d b6ba 7e70 293e 1d3d 3ebc
00000250: e4f9 6fbd b552 58bd 3ca7 a4bd 6240 03be
00000260: f79d 6ebd d105 6e3d 3796 163e af45 e7bd
00000270: 695b e23d 4899 b3bc 7545 003e b09e 37bd
00000280: e2b4 cbbc e201 62bd 17d8 39be 2d3b abbd
00000290: 22e3 8e3d 0fa7 153d b50a 80bc 19c0 0a3e
000002a0: e796 26be e27e d2bd 8e68 ab3d 2879 f1bd
000002b0: d67f 453e 4000 893e cb44 09bd e0e6 9e3d
000002c0: 3ee0 e03d bd26 60bc ee71 683e 29a8 d5bd
000002d0: 3d2e dc3c 13ce b4bc b4b4 9f3d feb1 9b3b
000002e0: c4da af3d 4aab e43d 795f ff3d 9841 23be
000002f0: c004 01bd 83dd 943e 289f 103e ebf5 b13e
00000300: 2265 223e 0453 9dbb 0f08 883d 6fdd af3c
00000310: 7d96 2dbe 9c56 643d da37 cfbd 8796 38bb
00000320: 4af6 b13b 93c4 113e ec1d 3bbe c7c4 6cbd
00000330: e5bd 8bbd ed51 473d 6945 aabd c3e7 713e
00000340: fda3 583d 4c94 233d e581 9a3d be08 793d
00000350: 84f4 b03d 6359 813c 92b5 1c3b 6da2 e3bc
00000360: f90d 5dbe d425 fbbd e4d7 cb3d 0a47 ffbd
00000370: c8e1 17bc 87ce a93d a1d9 b53d 6526 b5bd
00000380: 0dac 90be 10d3 313c 143e d2bc 4115 573d
00000390: 140f c6bd 36a1 573c 1308 003e c973 313e
000003a0: f518 9d3d 554b c3bb 64b6 69bd 3fd9 42be
000003b0: 751c 2ebd 8442 b3bd f172 eebd 8f87 1b3d
000003c0: 403c a23d 175b e73d 485d 39bd 338e 1ebe
000003d0: 9ecb bbbd d87f 53be 74f6 ff3d da76 fabd
000003e0: d5f9 d4bd e539 4dbe 39f2 d3bd 3d68 cb3c
000003f0: 5a93 a4bd 9cf3 d1bd 6349 79bd f28d 82bd
0.06915579 0.061080355 -0.08886177 -0.15082704 -0.27170265 -0.030696701 -0.0867592 0.11862901
-0.08376501 -0.18063316 -0.11516992 -0.042907823 -0.33864284 -0.17601128 -0.12783004 -0.011545769
0.14083593 0.08653225 -0.030290063 -0.05621801 0.046891127 0.07104479 0.15577991 0.20530829
-0.061736036 -0.05781819 0.070269555 -0.14812699 0.004820277 -0.04781784 -0.13438997 0.09261749
-0.112164 -0.058066048 -0.13485375 -0.13973695 0.0069436426 0.07379407 0.31448996 0.06974221
0.0067895413 -0.14406481 -0.071545646 -0.1299151 -0.036931735 -0.19745928 0.024325369 0.1700958
0.065593734 -0.0021552294 0.14736384 0.26144883 0.020317517 0.012444332 0.17119704 -0.06236463
-0.02404684 -0.18695106 -0.21477173 -0.06669065 -0.023395037 0.04691199 -0.09731547 0.14833838
0.2481078 0.07051666 -0.06743676 -0.0056568473 0.13322961 0.13111684 -0.20388435 -0.29739684
-0.02241197 0.12558292 0.1332335 0.15806644 0.044983257 -0.14270732 0.0025963718 -0.0807653
-0.12031476 0.034154765 0.21953301 -0.04935462 0.11628587 0.030699678 -0.03525235 -0.13961679
0.009331435 -0.08265786 -0.014426339 0.04590902 0.03254605 0.021349575 -0.14457466 -0.16066079
0.11060028 0.15893342 0.06590406 -0.078473076 0.12145021 0.032810345 -0.062426634 0.07909345
-0.13753268 -0.10923175 -0.18791117 -0.17937392 0.017055705 -0.11305179 -0.21502557 0.0007588488
0.089772075 0.37592798 0.11724898 -0.10805777 0.07495554 0.027572311 0.28184718 0.030619066
0.12915114 -0.022392085 -0.058086183 0.19562934 0.22001056 0.22673228 -0.0363662 -0.21827438
-0.059631046 -0.104170114 -0.09326156 -0.27950838 -0.34161854 -0.059307676 -0.0083168 -0.098772846
0.070228204 -0.068360515 -0.009602772 0.08208652 0.12228896 0.05272157 0.21389237 0.011824537
-0.12783289 -0.001389912 0.16546819 -0.01161125 -0.058587924 -0.05281325 -0.0803971 -0.12817529
-0.058256116 0.058111016 0.1470574 -0.11292588 0.11052591 -0.021923676 0.12526496 -0.04482907
-0.024866525 -0.055177577 -0.18148838 -0.08360896 0.06976916 0.036536273 -0.015630106 0.13549842
-0.16268502 -0.10278107 0.083695516 -0.11790687 0.19287047 0.26758003 -0.03351287 0.0775888
0.10980271 -0.013681111 0.2269971 -0.10432465 0.026877517 -0.02207092 0.07798138 0.004751443
0.08586648 0.11165483 0.12469382 -0.15942991 -0.03149867 0.2907525 0.14123213 0.34757933
0.15858892 -0.004801156 0.06642162 0.021467892 -0.16951938 0.05574666 -0.10118075 -0.0028165893
0.0054309713 0.14235143 -0.18273133 -0.05780485 -0.06823329 0.048662115 -0.0831402 0.23623566
0.052890766 0.03993635 0.07544307 0.060799353 0.08640388 0.015789693 0.0023911935 -0.027787412
-0.21587361 -0.122630745 0.09953287 -0.124647215 -0.009270139 0.08291345 0.088794 -0.08845214
-0.28256264 0.010853544 -0.025664367 0.052510504 -0.09670845 0.013160994 0.1250308 0.17329325
0.07670776 -0.005959908 -0.057058707 -0.19028185 -0.042507607 -0.08752921 -0.11643017 0.037971076
0.07921648 0.11296671 -0.045254976 -0.15483932 -0.09169696 -0.20654237 0.12498179 -0.122297004
-0.10399214 -0.20041616 -0.10348935 0.024829978 -0.080359176 -0.10251543 -0.060861003 -0.0637473

bias f4 [64]
00000000: d7ac c7bd ea64 08be f4b7 babc b697 ac3d
00000010: 3fc8 0e3d d94f 923c c20e 0dbd e69e 263d
00000020: c4c2 953b ce9a 5b3d 16e1 473b eca5 36bc
00000030: c6ac 9f3d 89d0 c83d 0829 933d a057 a13c
00000040: 35f2 f63a a64e 07bc 82c1 df3d 321b 363d
00000050: 212e 003e c641 f8bc ff33 c2bd 8682 06bc
00000060: 2a0d 723d fb28 dc3d 97d5 d23d 8950 553d
00000070: 639f c13d 533b 3fbb 95db 1f3e 0411 773d
00000080: 91ae 873d c3e9 c83d a2ff 0ebe fc8b 6f3d
00000090: cf1b 0b3e 4a77 eabd de2d 7fbc 5086 aebd
000000a0: 3143 24bd 6fa5 df3b 868b b33d 6df3 a9bd
000000b0: a4c3 00be c983 a43d 0f86 9a3d fefd 77bc
000000c0: 6012 c23d b831 7d3d 76f7 f6bb 9091 b73a
000000d0: f43f 3f3d 9269 36bc 1328 21bd 7608 50bd
000000e0: ae68 8ebd 2245 953d e377 86bd 4451 61bd
000000f0: ff96 f83d 5ac4 d33c bbfd 073e 39b6 023e
-0.097497635 -0.13319746 -0.022792794 0.08427374 0.03485894 0.01786034 -0.034437902 0.04067888
0.004570337 0.05361443 0.0030499152 -0.011147957 0.07796626 0.098054 0.071855605 0.019695103
0.0018840494 -0.008258497 0.109255806 0.04445953 0.12517597 -0.0303048 -0.09482574 -0.00820983
0.059094585 0.10750004 0.10294645 0.052078757 0.09454229 -0.0029179647 0.15611108 0.06031896
0.06625093 0.098102115 -0.13964704 0.05848311 0.13584827 -0.11448534 -0.0155749 -0.08521712
-0.04010314 0.006825141 0.08766846 -0.08298383 -0.12574631 0.080329485 0.07545101 -0.01513624
0.09476161 0.061814994 -0.007536824 0.0014005173 0.04669185 -0.011133568 -0.03934486 -0.05078932
-0.0695356 0.07288577 -0.06565835 -0.05500914 0.12138175 0.025850464 0.13280384 0.12764825

weight f4 [64, 64]
00000000: 3b9b a33b d282 953b 7ae7 183e fe64 febd
00000010: 8ed8 a43a f9ff d43c 672f d7bc f958 733c
00000020: 42d8 923d b4e5 4abd 0c4e 21bc 722a ae3d
00000030: 41d6 f0bd 9768 74bd ce87 a0bd 76e9 ee3d
00000040: 57c3 d7bd 5f3d d6bd ed77 e33d 1e04 4bbd
00000050: 5392 8c3d 4ef2 1fbc d95b 1f3d 2ee0 b53c
00000060: bb19 95bd aa82 633d 3874 173e 248c 02bd
00000070: 7b3b 9c3d fcd0 cd3c 12a1 64bc 54bb 85bd
00000080: ed60 7a3d 2a46 ca3d b7b4 14be e13e d9bd
00000090: 96f9 f4bd 62e0 9c3d 2ec8 03bb 7f14 0cbd
000000a0: 8a56 133e 09a7 20bd 6748 e9bd 5b57 5f3d
000000b0: 3cbe 7dbd dc76 ad3c abed 8d3d 5eb6 243d
000000c0: 44c7 f3bd 09ba 203e 7caa f73d d88c d8bd
000000d0: 2510 5c3d fed4 c83c e7e1 d9bd e562 e9bd
000000e0: 472c a9bd c373 5a3d 95a2 b4bc ef22 773d
000000f0: 5d4d 10bd d3db af3d c4a9 333d 7b8f f8bd
00000100: a52b 29bd 4ace b13d 7e7e 1c3b ae7f ce3b
00000110: e543 e3bd 472d b5bd d531 ea3d e8eb 7dbd
00000120: b7c1 bd3d 5d1a 36bd 197b a73c 37fa e4bd
00000130: 1d99 66bb f048 ad3d 4c60 11be 29c9 023d
00000140: 633f f1bd 67ea 713d 2913 1ebe 4879 e9bd
00000150: a93c a4bd b97d babd 277a bb3c 08c8 c4bd
00000160: c5d2 c23d b265 aa3d a480 ab3d 936b 883d
00000170: 7aba b23d 4c3e d0bc d902 273c 1d50 ba3d
00000180: f8d6 e43c 6df6 68bd 8e36 f13d 1434 01be
00000190: 6ccd fd3d 99cb 013d da18 e4bd 7726 edbd
000001a0: 1a65 a43d 3506 003e 6305 6e3d 7f56 9abd
000001b0: 90ca 963c 6dc1 c4bc fd98 0cbd 29d8 c33d
000001c0: 8182 d13d 1ed7 883b c1dd f43c 3f3a cfbd
000001d0: 9b92 53bd dd8a 683d affc 1c3d 0c04 893c
000001e0: 1b06 113d e13c 563c d24a abbd ea2a 413d
000001f0: 1f7d e6bc c6b4 94bd 10b6 d9bc dfb1 59bc
00000200: c1bf 79bd f78f e2bd 1417 053e 2146 b3bd
00000210: 2133 c03c e840 ec3d b4a5 b43c ec1e 62bd
00000220: 01ed 01be 9da5 573d dc24 77bd 4a2a 5a3c
00000230: 0682 d63c 5064 c6ba dee0 063e eb59 71bb
00000240: 719f c4bd 2f0b 04be 308c 8a3d dd32 88bd
00000250: a452 9d3c d56b 203c 12c9 433d 97bc 88bd
00000260: bb84 bbbd dfb4 473c 88ed 98bd 9e92 ae3d
00000270: 9ee0 99bd 3fd6 9d3c 6a6f 653d f3f1 a43d
00000280: 80d6 2cbd 31be b23d 7cc2 63bd f87f 81bd
00000290: 026b 0ebd e6bb 66bd 50eb cebc b366 ab3d
000002a0: b2e6 033e 9759 6bbd 97f1 04bd 7a51 ccbd
000002b0: 345b a93d 1d61 903d 4115 33bc 3bfd df3d
000002c0: b8fa 0cbe dc0a a4ba 0698 71bd 145d 9b3d
000002d0: b4f8 8b3d a4f2 d03d de0b e13d cdfb 573b
000002e0: fde3 edbd f886 96bd d827 50bc c639 06be
000002f0: c048 bb3d 0981 a53d 35c0 8a3d c548 fbbd
00000300: d75a bb3d 2bc6 19bd 4854 8fbd b801 8e3d
00000310: 6d24 273d be71 acbd bb8a 51bd 4cfe 0abe
00000320: 17ba eb3d fd99 3f3d 3a4b 113d b1b6 1c3d
00000330: 4baf 0fbe df4a c1bd b9db 1ebe aa46 17bd
00000340: 6608 24bd e187 d83d 5e9d 6e3d 4fec 913d
00000350: cebd 8bbd 827e e93d 8c4c 2a3d 1aa7 8ebc
00000360: 7757 103d c48f 0b3d 6f31 91bd 43ac e23d
00000370: d6c8 a43c f731 9a3d a50d 07be ccbd f73c
00000380: 3e4a 55bc 9c74 a7bd e9f3 a3bd 01d5 a2bd
00000390: 9c4f adbc 0c30 94bd acdb 293d b1d9 65bc
000003a0: 1743 08be 3e29 303d 1b45 e53c f982 563d
000003b0: 0980 dab9 9a47 ae3c 7c95 693d abad cbbd
000003c0: 0e8a 1bbd 3d0a d83d 9df3 70bd 9118 c03d
000003d0: 8ec9 213e a848 03be 8b1c 63bd aeeb f03d
000003e0: 3787 8f3c 0fbb c33c f567 143d fa21 983d
000003f0: 7632 4bbd 19b1 10bd 3566 9d3d 38e9 68bb
0.00499287 0.004562714 0.14932051 -0.124216065 0.0012576745 0.026000964 -0.02626772 0.014852756
0.07170154 -0.04953547 -0.009845268 0.085041896 -0.11759616 -0.059670057 -0.07838403 0.11665623
-0.10535305 -0.10460924 0.111068584 -0.049564473 0.06863847 -0.00976236 0.038905952 0.022201624
-0.07280298 0.055544533 0.14790428 -0.03187193 0.076285325 0.025124066 -0.013954418 -0.06529871
0.061127592 0.09876664 -0.14522062 -0.10607696 -0.11961667 0.07659985 -0.002010833 -0.034199234
0.14388481 -0.039221797 -0.11390763 0.054526668 -0.061949 0.02117484 0.06930097 0.04021298
-0.11903241 0.15695967 0.12093064 -0.10573739 0.053726334 0.024515625 -0.106387906 -0.11395816
-0.08260398 0.053333055 -0.022050181 0.06033605 -0.03523003 0.0858685 0.043863073 -0.12136742
-0.04130139 0.08681925 0.0023879106 0.0063018417 -0.11096934 -0.088465266 0.11435286 -0.061992556
0.09265464 -0.044458736 0.02044444 -0.11180537 -0.0035186477 0.08461177 -0.1419689 0.031930123
-0.11779668 0.059061434 -0.15436997 -0.11400086 -0.080193825 -0.09106011 0.022885395 -0.096084654
0.09512857 0.08320178 0.083741456 0.06661143 0.08726974 -0.02542033 0.01019355 0.09097312
0.027934536 -0.056875635 0.117779836 -0.12617522 0.12392697 0.031688306 -0.111375526 -0.11579602
0.08027096 0.12502368 0.058110606 -0.07536029 0.018407136 -0.024018014 -0.03432559 0.09562714
0.1022997 0.0041760346 0.029890897 -0.101185314 -0.051653486 0.056773055 0.038326915 0.016725563
0.035406213 0.013076038 -0.0836388 0.047160067 -0.028135834 -0.07261042 -0.026576072 -0.013287037
-0.060973886 -0.11062615 0.12997085 -0.087536104 0.02346188 0.115358174 0.02205167 -0.05520527
-0.12688066 0.052648176 -0.060337886 0.013315747 0.026185047 -0.0015136097 0.13171718 -0.0036827277
-0.096007235 -0.12894891 0.0676502 -0.066503264 0.019204445 0.009791334 0.047799177 -0.06676596
-0.09156176 0.012189119 -0.074671805 0.08524059 -0.075135455 0.0192672 0.056014456 0.08053961
-0.04219675 0.087276824 -0.055605397 -0.06323236 -0.03477002 -0.056331538 -0.02525869 0.08369198
0.12880972 -0.057458486 -0.03245696 -0.09976478 0.08269349 0.07049773 -0.01093036 0.10936972
-0.13767517 -0.0012515443 -0.05898287 0.075861126 0.06834546 0.1020253 0.109885916 0.0032956481
-0.11615751 -0.07349962 -0.012704812 -0.13107976 0.09144735 0.08081252 0.06774942 -0.12269739
0.09148186 -0.037542503 -0.06998497 0.069339216 0.040806223 -0.08420132 -0.051157694 -0.13573569
0.11510103 0.046777714 0.035472132 0.038260166 -0.14031713 -0.09438109 -0.15513505 -0.036932625
-0.040047072 0.10572792 0.058255546 0.071251504 -0.06823312 0.114010826 0.041576907 -0.017413665
0.035239663 0.034072652 -0.07089507 0.110680126 0.020115297 0.07529061 -0.13188799 0.03024187
-0.013018189 -0.08176538 -0.080055065 -0.079507835 -0.021156125 -0.07235727 0.04146926 -0.014028952
-0.13306843 0.04300808 0.027987054 0.052371 -0.00041675594 0.021274377 0.057027325 -0.09945234
-0.037973456 0.10548828 -0.058826078 0.09379686 0.15799543 -0.12820685 -0.055447143 0.11763702
0.01752053 0.023892907 0.036231954 0.074283555 -0.04960867 -0.035325143 0.0768551 -0.00355394

bias f4 [64]
00000000: b1b3 d33d d81e bb3b 98f2 edbd 2e16 413d
00000010: 7b9e a5bd c3ee d9bd 981e 813c d243 e1bc
00000020: 1f3d 213d bba7 d53d 4590 dabd b092 e83d
00000030: bbce 7cbd 4f8d a0bc 74f0 8f3d 7abe 9bbd
00000040: da05 66bd dc1b 08bd e292 513d 11f0 e2bb
00000050: 658e 033e b234 423d 55c3 fcbd 36ac c0bd
00000060: 6dbc 823b 68f3 f8bb 6629 2fbd 0d12 6b3d
00000070: 667e 5e3d 253a 9fbd d712 cabc 3caa 533d
00000080: ba30 4d3d a005 fc3b b19d 853d 2737 0f3d
00000090: 4dbc febd 858f eebd 08c9 913a 8186 3c3d
000000a0: ae7c adbd 134f 80bd 6c3d e2bd 9ed0 c23c
000000b0: 096b 9e3d b4e2 ef3d 18cd cebd ff7f c73d
000000c0: 2134 8dbd fdbb dfbd 4f83 903d 29cc ec3d
000000d0: 58b7 e33b 0bb5 1bbd 42d0 593c 9fe3 6e3d
000000e0: b0ec 6c3d 045d 7ebd 1dc0 22bb 1119 c33c
000000f0: d99f ac3c 7cb2 893c 5305 a43c 058c c73c
0.10337008 0.005710464 -0.11618537 0.047140293 -0.080868684 -0.10641243 0.015761659 -0.02749816
0.03936493 0.10432383 -0.106720485 0.113561034 -0.06172059 -0.019598631 0.07028285 -0.0760469
-0.056157924 -0.033229694 0.05116547 -0.006925591 0.12847288 0.047413535 -0.12341944 -0.09407847
0.0039897473 -0.0075973757 -0.04276409 0.05739026 0.05431976 -0.07774762 -0.024667187 0.05167602
0.050095297 0.0076911002 0.06524218 0.034964707 -0.12438259 -0.11648468 0.0011122534 0.04602671
-0.084710464 -0.06265082 -0.110468715 0.023781117 0.07735259 0.11713162 -0.10097712 0.0974121
-0.068947084 -0.10924528 0.07056295 0.11562378 0.0069493465 -0.038014453 0.013294281 0.058322545
0.05784291 -0.062100425 -0.0024833747 0.023815664 0.021072315 0.01680874 0.02002207 0.024358759

weight f4 [2, 64]
00000000: a11f 2c3e 4f20 9fbd 92d2 2b3e a87a 5bbd
00000010: dcaa 0bbe 5b85 493e 05d2 96bd b26a 50be
00000020: f4f8 ca3c 2d1e 0e3e 57e0 ecbd f8f6 93bc
00000030: 35ac fabd adc6 973d 86c8 0d3e 7a97 5ebd
00000040: c23b 0ebe c627 09be bc3c c0bd 0a50 3ebe
00000050: fe93 21be f86f 8d3d 2aab 2c3d 9bb3 c9bd
00000060: 2eaf 343d bb4c 3ebe 36f8 e33d be5f dbbb
00000070: 6f66 a23d 6411 163e 79db 9dbd 947c 173e
00000080: a0bf 29be 2802 6abe 0f5b 593e 969d d7bd
00000090: c98e 5bbe 4b10 24be 2ce5 57bd 9471 bebd
000000a0: fc1b ba3c 18f0 00be ec9b e9bc e8a5 f03d
000000b0: d647 2cbe c796 153e fba4 733e e548 a6bd
000000c0: 1b64 343d bbf3 eebd bf2d 263e 7fbf 6a3e
000000d0: 1048 a33d 88ae ab3d 1786 efbd 5e73 e5bd
000000e0: c8c3 3f3e 6bf5 19be b169 eebc 9e30 16bc
000000f0: bfe3 13be 90fe 1c3e 6e50 1ebe ab39 953d
00000100: fa02 83bd 7a38 353d bf3a 823d 7b41 31be
00000110: 70bc 143d 5ef5 3e3e 327b f5bd bb02 9b3d
00000120: d36d 1fbe e61e c33d 569e 9ebd 0554 343e
00000130: 97fc 2dbe 73ee 11be 9266 913d 6d6d ad3d
00000140: d2f3 8bbd dc07 993d 4f86 723d 0a80 6d3d
00000150: a66d 52be 0868 e83c a2c9 623e f821 d53d
00000160: a53f 8b3e 62d7 1a3e 0953 5b3e 4b4f 9fbd
00000170: 0ea2 63be 5855 4d3e 4697 193c 4bb8 1dbd
00000180: 27d5 1dbe 2167 0dbd d017 9cbd 8756 cc3d
00000190: a3f0 ed3d 570e 8c3c 2e90 7c3e ec4a b83a
000001a0: 03b9 273e d600 00be 2baa 6e3b 2a64 0ebe
000001b0: 6aca 483e f6a0 41bd f340 35be f705 e6bd
000001c0: 6064 d53d 9496 0f3e 6087 3b3e c45f a4be
000001d0: c684 3ebd ebb1 cfbd f22e fb3b 0018 c93d
000001e0: 6d6e 40bd 1d09 4a3e 887e 2b3e e504 8b3e
000001f0: b4c2 39bd 5314 413e efe7 573d b70e 003e
0.1680894 -0.07769834 0.16779545 -0.05358377 -0.13639396 0.19679777 -0.07364277 -0.20353201
0.024776913 0.13878699 -0.11566227 -0.0180621 -0.12239877 0.07410941 0.13846025 -0.054343678
-0.13889983 -0.13394079 -0.09386584 -0.1858522 -0.15779111 0.06906122 0.042155422 -0.0984871
0.044112377 -0.18583958 0.11131327 -0.006694763 0.07929694 0.14655071 -0.07707877 0.14793617
-0.16577005 -0.22852385 0.21226142 -0.10528104 -0.21441187 -0.1602184 -0.05270879 -0.09299007
0.022718422 -0.12591588 -0.028516732 0.11750394 -0.16824278 0.14608298 0.23793404 -0.08119372
0.04404078 -0.11667582 0.16228388 0.22924612 0.07972729 0.083828986 -0.116954975 -0.11203645
0.18727028 -0.15035026 -0.029103132 -0.009166865 -0.14442347 0.15331483 -0.15460369 0.0728639
-0.06397052 0.044243313 0.06358861 -0.17310135 0.03631252 0.18648288 -0.11986388 0.0756888
-0.15569238 0.09527378 -0.07745044 0.17610176 -0.16990887 -0.14251117 0.07099642 0.08468137
-0.068336144 0.07472202 0.059210118 0.057983436 -0.2054964 0.028369918 0.2214723 0.1040687
0.27196994 0.15121225 0.21418394 -0.07778796 -0.22229788 0.20052087 0.009374445 -0.038505834
-0.15413342 -0.03452218 -0.076217294 0.09977441 0.116181634 0.017096682 0.24664375 0.0014060414
0.1637917 -0.12500319 0.0036417346 -0.13905397 0.19608465 -0.047272645 -0.17700557 -0.112316065
0.10419536 0.14022285 0.1831336 -0.32104313 -0.04651334 -0.10141357 0.0076655084 0.09819031
-0.04698031 0.19730039 0.16747487 0.27152172 -0.0453517 0.1885541 0.052711423 0.12505613

bias f4 [2]
00000000: 5509 dcbb 2ece 393d
-0.0067149797 0.045362644

weight f4 [64, 60]
00000000: 549e f1bc d178 9e3c 66b9 5fbb 6761 a23e
00000010: ef45 1f3f 6722 6e3e ad8a 69bf 8d71 02bf
00000020: 3d14 82bf ad35 c3be 6688 d6bd bafd ac3d
00000030: 8066 373e 0ff1 36bc dbd9 5b3d c1d7 4dbe
00000040: caea e73d fd9f 793e ca6a 453e bc1b 00be
00000050: 049b 92bd d7c7 bfbc 945d c4bc a6d8 663d
00000060: fe10 d93c 05c8 ce3d 4daa fcbd a447 ecbd
00000070: 68e5 fe3d 349a acbb 569e 2bbe 8ed8 1cbd
00000080: 9707 3c3d 4ce3 b73d 801b 283e 3cdf 1e3e
00000090: e683 5b3e 2bfa 323e 7921 013e 40d7 00be
000000a0: fd37 d7bd 980c 153e 54f6 86bd d723 a6bc
000000b0: f635 6bbe 1f5b 0ebe 5404 ec3c f1ae b13e
000000c0: 00d7 ff3d 7e1b c23d 2c77 943e 7e9e 4a3e
000000d0: ce23 413e ab54 363e a155 233e e76d 4b3e
000000e0: 8034 1f3e 61a7 abbe 122e 453e 11a9 11bd
000000f0: 2366 023e 905e e6bb 5f9e 53be 99d8 e03e
00000100: 47c3 eb3e 72a7 463e 9f54 12bf e574 61bf
00000110: 705e 56bf f293 72be 28f8 063f 87d5 883f
00000120: 5ea9 413f 3697 ef3e 2afe ba3e 89c8 343e
00000130: ffc8 063f e1ed c23e ccf2 7e3e 7798 a73d
00000140: e40c aabd 8e07 a03d 7830 563e 0971 353e
00000150: 7d58 173d 6a3d 043d fa8a 913c 157c 163a
00000160: 5a36 03be c93e dfbd 1a22 4dbe aa9b 7bbe
00000170: 3ce3 5bbe 05e6 5ebd 24cf 7bbd 3809 87bb
00000180: 6ebb 783e bf49 f53b 6ca7 22bd b816 ca3d
00000190: 682d f33d 4711 b03d 5141 ba3d a500 f13d
000001a0: 1363 ff3d cdae aa3c 4b8b 8dbd a712 55bd
000001b0: d5a8 143e c2b4 543e 303c db3d 5116 2e3e
000001c0: fc42 803c 2bde bdbd e51f 0a3d 802b 9c3e
000001d0: d68a bc3e 3d05 2ebf 1dad 0fbf 3d4e c93c
000001e0: c822 08bd 2fa3 cabb 2b27 353e fe8f a03f
000001f0: e34f 9f3e 1ad8 b6bd 18d3 6abe f5cf 2f3d
00000200: 98b7 9ebd e76d c7be 9102 b0be a2bb 93bd
00000210: 7e2c e53d facc c33c 790c a43d f145 a7be
00000220: 5f8d 90be 2240 6abe de02 b73e f4b3 973b
00000230: 0037 823d 9ec2 3cbd 7dda 29be 0ac8 52bd
00000240: b7d6 d3bd ef91 9dbd 233e cc3d 2ee2 5cbb
00000250: 775a 623d 31de bf3d 457f b23d 5dd5 473e
00000260: 3602 d43e fd0d 833e f5b6 d73d 3fee f3bd
00000270: 2b0a b0be e9e4 8ebe 228e ddbe 2aa4 4abe
00000280: c819 df3d ca01 76bc 6508 1dbd 940b 12be
00000290: ccd1 e1bb 87f2 103e 6f90 c63e 24a6 7b3e
000002a0: 4a49 293e 90e1 053f 4481 d73e a8eb 9c3e
000002b0: 7f55 f23c 4745 02be bba8 9abd 8e4e 923c
000002c0: 5eaf 02be 3fe2 60be 81bf 2bbf 660b d1bc
000002d0: 637f 04bd eb21 af3b 2981 15be 9ff1 17bf
000002e0: b431 1ebe b069 f13c 5971 a43e b440 673e
000002f0: f7ff 7c3e 83eb 4e3d df6f 4b3e a245 26bd
00000300: 9872 77be 63a3 4ebe 6823 57bd f4df 1bbe
00000310: e0ef 41be 9658 06be c553 dcbe 56bf ed3d
00000320: 9534 af3d b706 67bc 2e7c 2d3d 91b9 403d
00000330: 9301 733d 1d00 b33d dd7e b8bd 83ce a0bd
00000340: 7ea1 15be 2255 aabd 2273 8ebd 4b7b 95bd
00000350: d945 f6bc 0a1a 3b3b 6da8 c0bb 4384 32be
00000360: 61b1 14be 8e7c 8ebd 3ee2 f73d 4160 0d3e
00000370: 6eb7 f13d cdc6 78bd 3e20 923e 56cb 8e3e
00000380: a662 51bb 1e95 493b 2981 87bd cb1b c3bc
00000390: 46e2 03bd fa9b 92bd 5d03 16be 4cb1 6dbd
000003a0: 73dd 2fbe bf6f a8be 8855 abbd 12a8 e33d
000003b0: f115 943d 9c2b 7cbd 2a52 fdbd 819a 603d
000003c0: 9d8a 03be 894d 11bd b257 3b3e c60c d63e
000003d0: a26c 93bd f816 5cbd 5988 8dbd 6a9f b3bd
000003e0: 79be f2bd dcfa dbbc a728 033c 252d 433e
000003f0: eff7 f6bd 6dc2 d1bc 5385 803c 6859 473e
-0.029494442 0.01934472 -0.0034137606 0.31714937 0.62216085 0.23255311 -0.9122723 -0.50954515
-1.0162426 -0.3812689 -0.10475235 0.08446832 0.17910194 -0.011165871 0.05367456 -0.20101835
0.11324079 0.24377437 0.19279018 -0.1251058 -0.07158473 -0.02341072 -0.023970403 0.056358956
0.02649736 0.100967444 -0.1233717 -0.11537102 0.124460995 -0.005267406 -0.16759619 -0.03829246
0.045905676 0.089789 0.1641674 0.15514845 0.21437034 0.17478244 0.12610425 -0.12582111
-0.10508726 0.14555585 -0.06589952 -0.020280762 -0.22969803 -0.13901947 0.028810658 0.34703782
0.1249218 0.094779 0.2899717 0.19787022 0.18861315 0.17805736 0.15950634 0.19866143
0.15547371 -0.33526137 0.19255856 -0.035561625 0.12734275 -0.0070303157 -0.20665883 0.4391525
0.46047422 0.19399813 -0.5716037 -0.8806899 -0.8373785 -0.23689249 0.52722406 1.0690163
0.7564906 0.46795052 0.36522037 0.17654623 0.52650446 0.38072112 0.24897307 0.08183377
-0.0830324 0.07813941 0.20916927 0.177189 0.036949623 0.03228513 0.017766465 0.00057405356
-0.12813702 -0.10900647 -0.2003254 -0.245711 -0.21473402 -0.054418582 -0.06147684 -0.004120972
0.24290249 0.007485598 -0.039710447 0.098676145 0.11873895 0.085970454 0.09094489 0.11767701
0.12470069 0.020835305 -0.06911334 -0.05201974 0.1451753 0.20772079 0.10704839 0.170007
0.01565694 -0.09270891 0.033721823 0.30501938 0.36824673 -0.67976743 -0.56123525 0.02457344
-0.033236295 -0.006184004 0.17690723 1.2543943 0.31115636 -0.08927937 -0.22932088 0.042922933
-0.077498615 -0.38951036 -0.34376958 -0.072135225 0.11190127 0.023901451 0.080101915 -0.3267055
-0.28232858 -0.22876027 0.35744375 0.0046296064 0.06358147 -0.04608404 -0.16587253 -0.051460303
-0.10343688 -0.0769385 0.09972789 -0.003370415 0.055262055 0.093685515 0.08715681 0.19514985
0.41407937 0.2559661 0.10532943 -0.11910676 -0.34382758 -0.2790902 -0.432725 -0.19789186
0.10893589 -0.015015075 -0.038338084 -0.14262229 -0.006891465 0.14155017 0.3878207 0.24575096
0.16531864 0.52297306 0.4209081 0.3064854 0.029581783 -0.1272174 -0.07551714 0.017859723
-0.1276221 -0.21961306 -0.67089087 -0.02551813 -0.032348048 0.0053446195 -0.14600052 -0.5935306
-0.15448648 0.029469341 0.32117727 0.22583276 0.24707018 0.05051757 0.19866894 -0.04059375
-0.24164808 -0.20179515 -0.052524 -0.1522215 -0.18939161 -0.1311973 -0.4303266 0.1160876
0.08554951 -0.014100722 0.042354755 0.04705197 0.059327673 0.08740256 -0.09008572 -0.07851889
-0.14612386 -0.08317019 -0.069555536 -0.07298907 -0.030062603 0.0028549456 -0.005879453 -0.17433266
-0.1452079 -0.06957351 0.12103699 0.13806249 0.118025646 -0.060736466 0.28540224 0.27889508
-0.0031949668 0.0030759047 -0.06616432 -0.023816964 -0.032198213 -0.071586564 -0.1464972 -0.05803041
-0.1717432 -0.32897756 -0.08365923 0.11116041 0.072307475 -0.061565027 -0.12369187 0.054834846
-0.12845846 -0.035474334 0.18295172 0.4180662 -0.071984544 -0.053732842 -0.06910772 -0.0877064
-0.11852736 -0.026853018 0.008005298 0.1906019 -0.12059008 -0.025605405 0.015688574 0.194677

bias f4 [64]
00000000: 31f1 453d debd edba 7082 f43d 07eb 6b3c
00000010: bc83 50bd 5c8c 763d 9a05 373d 987e d8bd
00000020: 42d7 f6bd 4ac9 d03d f5b9 873d 0774 c03c
00000030: 1b5e be3d 8954 a1bd 5096 21be 4856 673c
00000040: f57f 1dbd e18e a83d 2ee4 b73d 8e59 9bbc
00000050: 64c9 c3bd 7d7c a13d 6b92 60bd 4a7e 093d
00000060: f5cb dfba 632b 2a3e 6dbf 923d ebaa bebd
00000070: b130 1d3d 5dc7 a8bd 2a6e 5fbd 441a fd3d
00000080: 748b a1bc e081 843c abd2 df3d 1532 e93d
00000090: fb5a 5a3c eceb 8b3b d02b 393c 0e26 da3d
000000a0: 818d 18bd e6d3 3bbe ba9b b9bc 77d9 dbbd
000000b0: c10a 573c e9a8 773d 8d17 1f3b d422 50bd
000000c0: bfc7 463e a103 4bbd 9b80 a03c 4f0e c7bc
000000d0: f3bd cf3c 6d1b 3b3e d23a f438 33b8 14be
000000e0: e84f edbd 865b 183e 5683 883d 447f 1cbe
000000f0: 3cc0 febd 314a 9e3d 5eec 393c 4ae1 f33d
0.04832572 -0.001813825 0.119389415 0.014399297 -0.05090688 0.06019245 0.044683076 -0.10571021
-0.12052776 0.10194643 0.06627265 0.023492826 0.09295293 -0.07877452 -0.15779996 0.014119692
-0.038452107 0.08230377 0.08979069 -0.018963601 -0.095598966 0.078850724 -0.054827135 0.033567704
-0.0017074334 0.16618113 0.07165418 -0.09309944 0.038376514 -0.082411505 -0.05454842 0.123585254
-0.019719817 0.01617521 0.109288536 0.113865055 0.0133273555 0.0042700674 0.01130195 0.106517896
-0.037244324 -0.18342552 -0.022657264 -0.107348375 0.0131251225 0.06046382 0.0024275512 -0.050814465
0.19412135 -0.049564008 0.019592574 -0.024298815 0.02535913 0.18272181 0.00011645783 -0.14523391
-0.115875065 0.14878663 0.06665675 -0.15282923 -0.124390095 0.07728995 0.011347858 0.11908205

weight f4 [64, 64]
00000000: 23a0 d2bd 1527 f83d 1938 b03d 2996 52bd
00000010: d470 62bc 4b30 be3d 5067 e33c e5f0 1fbd
00000020: 1418 0c3d 1c6e bebd fb20 b0bd 9fb2 25bd
00000030: 9890 f2bd c690 083e cba0 b73d 6265 aa3d
00000040: 08f3 b5bc cb07 32bd b1dc a7bc 1fe8 9b3d
00000050: 5c46 a23d b0e3 ec3d 89e9 8ebb 87f5 433d
00000060: 4cea 88bc 12c2 ec3d 130a bebc 4c5c 02be
00000070: 3856 403d 12b7 d1bc 9ccf 37bd 9a2f d2bd
00000080: 8429 b43c e612 bd3d 2425 ab3d 231d e63d
00000090: e623 0dbe af4c f73d 43d6 52be d0a6 cfbc
000000a0: eae5 8f3d 40ad 53bb 334b 923d 6bf6 0abc
000000b0: 56bf 3cbe 3eb1 a6bd eab1 89bd 9dc1 c1bc
000000c0: 71f4 8c3c f616 4b3d d4da c53d 337e afbc
000000d0: ccef 763d 4c24 f73c cd7c b6bd 8859 1ebc
000000e0: da87 11be cff0 ae3d c149 863d dd9a 5a3b
000000f0: ea51 a63d 3b1d 753d 104e 34bd e683 d33c
00000100: 2e62 b53d 3999 c33d 46ae ab3c 4b1f 313e
00000110: 42df f0bd d162 8fbd 8b0a c4bd 6cd8 3a3d
00000120: 7e47 f4bc 6cfa 093e c3b2 633d 412e a1bd
00000130: 544a 6ebc 6900 a7bc 7f43 d73d 08d1 9ebd
00000140: 0569 35be e93c 3e3d 8f5b 68bd ed7f 81bd
00000150: 3b7f afbd f60d b13d 68b3 3f3d dae0 d7bb
00000160: ca15 c33d fdf4 86be 3837 103d dc08 233e
00000170: 439a 4cbd 00b0 453d 44b8 af3b b0ba aebd
00000180: 86ce abbb 531f a63d bc01 18bc a036 0cbd
00000190: 24a3 4b3c a62f 053c c5bb 163e 2940 ea3c
000001a0: 5b57 25bd 1d9a d43c 4be6 b03c 63b1 183e
000001b0: a09e 3abc 89a6 b93d 3919 bdbd 0c9b 2b3d
000001c0: bc70 13be 623b bbbc 237b c43d 0505 a63d
000001d0: c9e3 a8bd 2f5c b23c bd65 5abd 0c46 6e3d
000001e0: 0cc6 0c3e 8657 ab3d 0759 953d f909 073e
000001f0: d51f 72bd 2001 933c cabc 603c 6b00 0ebd
00000200: 1ff5 053d c899 a63d ff69 b9bd e129 aabd
00000210: 46a3 fd3d ac31 ed3d d8e8 6b3d bc5e 93bd
00000220: 86ec 4c3d 3568 923d 130b 02bc ce20 6a3d
00000230: 1df5 13bc dbe2 1abe a323 e53c 5f1a 9f3d
00000240: 9351 7f3e 41d9 25be af73 0e3d 5e0b 4cbc
00000250: 97b8 16bb f58f c0bd c273 b8bb e902 d5bd
00000260: a203 2ebc aa24 143d f426 fdbd 8dea 073d
00000270: 83e5 f9bd c988 80bb 19a8 66bd 30a9 c73d
00000280: 162f 19bd cd2c f03d 882c e33d 6743 aa3d
00000290: c988 e93c b199 c63c a760 47bd 448c 823d
000002a0: e55a 9c3d 4f0c c13d ca2a fd3d 760e d83b
000002b0: 4510 86bd f82e bcbd a378 153d aad8 1d3b
000002c0: 40a1 ac3c 1d62 2ebc a074 373b 81d9 7d3d
000002d0: 101e 143c f5ed 50bd d63a f43d 7c02 bbbd
000002e0: cd62 d93d ad53 dabd 3a2d 0ebe e97d dcbc
000002f0: f0d3 4bbd 2f3c 7b3d 3c86 d73c 02a9 093c
00000300: da4e 28bd 1dd3 d2be 4c6f 17bd 3869 be3b
00000310: 45b8 f2bc 901f 4b3e aa59 44bc 3791 35bd
00000320: 77f6 9dbd df79 f7bd 7d8f d23d d449 653e
00000330: af09 b2bd 68bd d83d 61ad 54bd 705a 21bd
00000340: 73c0 29be 26fc 983d 6333 f13d 3847 32bd
00000350: f160 abbd 7186 79be 3d9c 353e b288 4bbc
00000360: caaf d63d ea52 e1be 7455 b2bb 0790 02be
00000370: a7cd 2fbb c92e 0a3e e5af 0a3e f538 b33d
00000380: f3c9 063c 12d0 96be b330 0abe cd95 4e3d
00000390: d50b bcbe dae7 5d3e e058 4c3d 7911 7abd
000003a0: 7589 50bd 418e d3bb 25da 363e d974 823c
000003b0: f246 133d 987f 1abe 3443 e63e 5efa e33e
000003c0: 104a 01be 0bb3 e0bd 0fea b7bd 11bc f33d
000003d0: da28 61bd 6739 003d d69d 98bd 63bd b8bb
000003e0: 0cd0 ee3c 0456 9c3d 02e0 f83c 84ef 813b
000003f0: 243e a5bd 1393 8a3e d6b9 173e 4d8b ff3c
-0.1028445 0.12116829 0.0860445 -0.051412735 -0.013820846 0.09286555 0.027759224 -0.039048094
0.03420265 -0.092983454 -0.086000405 -0.04045355 -0.11843985 0.13336477 0.08966216 0.083201185
-0.022210613 -0.043464463 -0.020490976 0.07612633 0.07923576 0.115668654 -0.0043613357 0.047841575
-0.016713284 0.115604535 -0.023198163 -0.12730521 0.046957225 -0.02559999 -0.044875726 -0.102629855
0.021992452 0.0923212 0.083566934 0.11236026 -0.13783225 0.12075173 -0.20589547 -0.025348097
0.070262745 -0.003229931 0.07143249 -0.008481602 -0.18432364 -0.08139275 -0.067233875 -0.023651892
0.017206402 0.049582444 0.09660879 -0.021422481 0.060287282 0.030168675 -0.089105226 -0.009664901
-0.1421198 0.08542024 0.06557036 0.0033356466 0.081210926 0.05984233 -0.04401976 0.02581973
0.08856617 0.09550709 0.020957123 0.17297094 -0.11761333 -0.070012696 -0.095723234 0.045616552
-0.029819246 0.13474435 0.055590402 -0.0787015 -0.014544088 -0.020385938 0.10510921 -0.07754713
-0.17715843 0.046444807 -0.056727942 -0.06323228 -0.08569189 0.08645241 0.046801955 -0.0065880837
0.0952564 -0.26358786 0.03520891 0.15921348 -0.049951803 0.04826355 0.0053625423 -0.085317016
-0.0052431254 0.08111443 -0.009277757 -0.034231782 0.0124290325 0.008129036 0.14720066 0.028595047
-0.04036651 0.025952393 0.021594187 0.14911418 -0.011390358 0.09064967 -0.092333265 0.04189591
-0.14398474 -0.022855464 0.09593799 0.08106426 -0.082465716 0.021772472 -0.05331968 0.05817227
0.13747424 0.08366303 0.07292371 0.13187398 -0.05911239 0.017944872 0.013716886 -0.034668367
0.03270447 0.081348 -0.0905342 -0.08308769 0.123846576 0.1158174 0.057595104 -0.071958035
0.050030254 0.07148782 -0.007937211 0.05716019 -0.0090306075 -0.15125601 0.027971094 0.07768702
0.24933462 -0.16196157 0.034778293 -0.012453882 -0.0022998208 -0.094024576 -0.005629034 -0.10400946
-0.010620983 0.036167778 -0.12360945 0.03318267 -0.12201979 -0.003922556 -0.056312654 0.09749067
-0.03739842 0.11727295 0.11092478 0.08313637 0.028507607 0.024243208 -0.04867616 0.0637441
0.07634524 0.09426176 0.12361677 0.0065935208 -0.06546072 -0.09188646 0.036492 0.002408544
0.021072984 -0.010643509 0.0027993098 0.061975006 0.009040371 -0.051008184 0.119252846 -0.09131333
0.10614548 -0.10660491 -0.1388444 -0.026915507 -0.049762666 0.061336692 0.026309125 0.008402111
-0.041090824 -0.41176692 -0.036971375 0.005810883 -0.029628882 0.19836259 -0.011984268 -0.04432794
-0.07713025 -0.12083792 0.102812745 0.22391444 -0.08693253 0.105830014 -0.05192316 -0.03939289
-0.1657732 0.074699685 0.11777379 -0.04352495 -0.083680995 -0.24367692 0.17735381 -0.012422727
0.10482748 -0.4400857 -0.0054423157 -0.12750255 -0.002682546 0.1349441 0.13543661 0.08751098
0.008226859 -0.2945562 -0.1349514 0.05043583 -0.36727777 0.21670476 0.049889445 -0.06105182
-0.05091234 -0.006456167 0.17856653 0.015924858 0.03595633 -0.15087736 0.44973147 0.44526953
-0.12625909 -0.1097165 -0.0898019 0.11901105 -0.0549706 0.031304743 -0.0745198 -0.005637811
0.029151939 0.07633594 0.030380253 0.00396532 -0.08068493 0.27065334 0.14816985 0.031194353

bias f4 [64]
00000000: 2675 ff3d ee33 ddbd e0e2 33bd 6fc5 7ebd
00000010: 7db9 31bd 450c ecbc 62a7 b33c ca5a f13c
00000020: ca4b 22b7 335b 86bd 4459 be3d 18d9 53bd
00000030: 3cce dbbc be68 0fbe e5f9 aebc fed0 4d3d
00000040: fd1e f6bd 8d65 a2bd f4b3 483d 3471 af3d
00000050: d4fc 32bd 04af 8f3a cd2f dcbb 1dd8 123d
00000060: 88a6 063c b994 f2bb 60c7 bb3c bcd3 f53c
00000070: 3248 b13d 26a6 da3a 88f3 2a3e 46af d83c
00000080: 5b7f 23bd 26c6 4a3d dfe7 dfbd ab9c ae3a
00000090: 4535 d9bb b208 c93d aed5 333e 4cce 5ebd
000000a0: ab7c cb3d c8f1 1a3d c485 f5bd 5dfa 9bbd
000000b0: 95d5 033d 71a7 513d e938 babd 3c1a 8a3c
000000c0: b27b 383e e7d6 ae3c e20a d83d b8da 813d
000000d0: 4ea9 67bd a12b e73d adf4 113e b390 d3bd
000000e0: 8ab7 b7bd 1008 be3d 0dc9 6a3d 1f02 213e
000000f0: 2b9b cc3d eaaa 8d3d d051 1e3d 6e62 eabb
0.12473516 -0.108009204 -0.043917537 -0.062200006 -0.043389786 -0.028814444 0.0219304 0.029462237
-9.6735985e-06 -0.065603636 0.0929437 -0.05172071 -0.026831739 -0.140048 -0.021359393 0.05024814
-0.12017629 -0.079295255 0.04899974 0.08566514 -0.043698147 0.0010962193 -0.0067195655 0.035850633
0.008218415 -0.007402983 0.022922218 0.03000819 0.08656348 0.0016681596 0.16694462 0.026450764
-0.039916378 0.049505375 -0.10932898 0.0013321837 -0.0066286647 0.098161116 0.17561981 -0.05439596
0.09935888 0.037828237 -0.119884044 -0.076161124 0.03218611 0.051185075 -0.09092886 0.016858213
0.18015936 0.021342708 0.10548951 0.063405454 -0.056557946 0.112876184 0.14253493 -0.103303336
-0.08970554 0.092788815 0.057320643 0.15723465 0.099905334 0.06917365 0.03865224 -0.007152847

weight f4 [1, 64]
00000000: dd13 453d 2688 b5bc 9817 a8bc 61fd 20be
00000010: 5963 bdbc 7a15 62be 7462 823d 913c 1bbe
00000020: 52cc 71bc f62e 443e 67ce 423b c1e2 afbd
00000030: a978 47bd 0767 ddbd 6f24 cdbd c935 6c3c
00000040: ca47 72bb 2a34 883c fee9 b0bc 25fc 9a3d
00000050: d1de 60bd 1cda 813d c34b 8e3d ca75 063e
00000060: fef7 e33b 508f 35bd 9a12 84be ee5f 343e
00000070: b5fc df3d 53aa 8f3d b390 f13d d6c8 723d
00000080: 1af4 c7bc 3a64 153e 1b33 1d3e 2ab9 163e
00000090: 039b 583d ec28 f93d af8a a03d fab1 e5bb
000000a0: 3c4e d13c 47b8 9a3c 5a2c 46bd 2210 febc
000000b0: d909 a83d 8e9d 1c3e 4a42 06be f4a4 fdbd
000000c0: 4fea c73d b749 ffbc e077 14be 3450 423d
000000d0: 4e55 22be 1b25 173d 5086 0e3d 1ad0 52bd
000000e0: f6f3 37be dba8 cf3d 5407 eabc be81 183e
000000f0: 9c24 453d ddc0 8ebd 8513 be3d 7976 89bb
0.048114646 -0.022159647 -0.020519063 -0.15721656 -0.023118662 -0.22078505 0.06366435 -0.15159823
-0.014758186 0.19158539 0.0029725076 -0.08588172 -0.048699055 -0.108106665 -0.10016715 0.01441712
-0.003696906 0.016626436 -0.021595951 0.07567624 -0.054899994 0.06340429 0.06948044 0.1313087
0.006957053 -0.044326127 -0.25795442 0.1761472 0.10936872 0.07014909 0.11795177 0.059273563
-0.024408389 0.14589015 0.15351526 0.14719072 0.052882206 0.12166008 0.07838952 -0.007009742
0.02555 0.018886698 -0.04838214 -0.031013552 0.08205003 0.15294477 -0.13111225 -0.12384978
0.09761488 -0.03116308 -0.14498854 0.04743977 -0.15852854 0.03690062 0.03479606 -0.051467992
-0.17964157 0.101396285 -0.028567947 0.14893243 0.048130617 -0.069703795 0.09281067 -0.0041950312
