data/STANDARDTEST/STANDARDTEST_s0/pyt_save/model.pt (torch, 705484 bytes, 29 tensors)

log_std f4 [2]
-0.16724522 -0.12095807
00000000: 5542 2bbe ddb8 f7bd

weight f4 [128, 60]
-0.00796028 0.054951098 -0.11614254 -0.043710977 0.007798084 0.010371202 0.031565137 0.1313012
-0.09616475 -0.09291643 0.012498191 0.027829368 -0.122685626 -0.11729205 0.076249324 0.12240245
-0.069757916 0.07603564 -0.044034917 -0.05621801 0.046891127 0.15381373 -0.08775292 0.06752902
-0.037175 -0.011288596 0.14873904 -0.102181174 -0.08377595 -0.028892301 -0.09161394 0.10775482
-0.008971963 -0.009230014 -0.07234186 -0.17038512 -0.07203875 0.01496305 0.026815444 0.14378789
0.0067895413 -0.039483987 0.0040019816 -0.14963141 -0.17949039 -0.008333501 0.087479554 0.015515628
-0.027664723 0.048338015 0.091365546 0.16603453 0.09953172 0.036442526 0.03916227 -0.14732713
-0.035570614 -0.27420673 -0.15185583 -0.06669065 0.015756626 0.062092725 -0.068161905 0.044315774
0.07464885 -0.065563835 -0.050018683 -0.044885457 0.16310559 0.28272545 -0.1631375 -0.061846923
0.07200585 0.14933383 0.052419744 0.07670935 0.12675826 -0.13253382 -0.083805956 -0.0807653
-0.12031476 0.16727854 0.1114017 -0.1480873 0.026471738 0.038058113 -0.032234084 -0.06570568
0.04092112 -0.08121631 0.057515737 0.059327256 0.032702576 0.0035884916 -0.16655117 -0.07967561
0.08661443 0.06362965 -0.114123404 -0.11541717 0.12145021 0.026255088 -0.0659556 -0.100131564
-0.10521128 -0.03310348 0.029681345 -0.04209489 -0.03707805 0.057971053 -0.024877595 0.06870536
-0.10903985 0.116368085 0.11466166 -0.0520298 -0.032229297 0.047434926 -0.001864098 0.030619066
0.044219512 0.024753526 -0.05496893 -0.022104204 -0.14430109 -0.08588888 -0.0152539 0.023179248
-0.033347912 -0.24943617 0.007775352 0.05294321 -0.08527678 0.023001185 0.15508771 0.007678653
-0.0348067 0.029554084 0.039472535 0.08208652 0.12228896 0.17532876 0.09728525 0.010398352
-0.107036255 -0.101964414 0.10820089 0.019019382 -0.032477252 -0.07181893 -0.13266364 -0.08279859
0.058762792 0.09648435 0.09033281 -0.12106957 0.11199005 -0.12559584 -0.046465054 -0.106290966
-0.024866525 0.03586106 -0.079724014 -0.11037814 -0.02591236 0.00092051795 -0.10770107 0.0238877
-0.09929505 -0.014966195 0.16418938 -0.052908514 0.19238336 0.050981224 -0.20457272 0.01491883
-0.0158269 -0.21590059 0.04013401 -0.10432465 -0.031476356 -0.037836865 0.09384415 -0.044821203
0.09613374 -0.012685008 -0.06096999 -0.01891694 -0.09666871 0.12076 0.1994842 0.14851134
-0.028498676 0.016398903 -0.10454815 -0.10333553 -0.14617012 0.06607878 -0.12592535 -0.0028165893
0.0054309713 0.09447113 -0.067644 -0.1159889 -0.107864745 0.078099765 -0.018603323 0.14728245
0.09906435 0.005438478 -0.014342192 -0.048007548 0.01594371 -0.055524413 -0.03294278 -0.014131118
-0.15525596 -0.05640647 0.101334915 -0.06926072 -0.009270139 0.13937451 0.05398314 -0.011743076
-0.19919214 0.023369832 -0.13580815 -0.0659224 -0.034761224 0.034928117 0.021386174 0.119085036
0.053146593 0.15791781 0.06512422 -0.10492541 0.03742376 -0.030274337 -0.1273882 0.037971076
0.056755345 0.08985862 -0.029309224 0.04110934 0.046265773 -0.18333277 0.07219572 -0.17418742
-0.02932261 0.024620498 0.017058136 0.094930135 0.16470821 -0.0253988 -0.14298199 -0.025632007
00000000: d66b 02bc 6714 613d 24dc edbd 480a 33bd
00000010: 1287 ff3b f9eb 293c 724a 013d d273 063e
00000020: 06f2 c4bd f84a bebd 36c5 4c3c 6afa e33c
00000030: 9a42 fbbd d036 f0bd 9b28 9c3d 23ae fa3d
00000040: 3ddd 8ebd 93b8 9b3d f55d 34bd db44 66bd
00000050: e910 403d 5981 1d3e ceb7 b3bd a84c 8a3d
00000060: d044 18bd cef3 38bc 0c4f 183e 5d44 d1bd
00000070: ba92 abbd 8caf ecbc 17a0 bbbd 8fae dc3d
00000080: 24ff 12bc 7c39 17bc f827 94bd 7079 2ebe
00000090: 0d89 93bd 9527 753c 10ac db3c 223d 133e
000000a0: cd7a de3b f6b9 21bd 0e23 833b fa38 19be
000000b0: 54cc 37be 3d89 08bc 7b28 b33d 4335 7e3c
000000c0: 21a1 e2bc 15fe 453d dc1d bb3d f504 2a3e
000000d0: 49d7 cb3d c244 153d 9e68 203d ecdc 16be
000000e0: 7eb2 11bd d364 8cbe 1880 1bbe 1c95 88bd
000000f0: 0a14 813c f154 7e3d 7898 8bbd 7584 353d
00000100: 7fe1 983d 5546 86bd 64e0 4cbd d0d9 37bd
00000110: 2705 273e 64c1 903e 840d 27be 3353 7dbd
00000120: ce77 933d f8ea 183e 16b6 563d cb19 9d3d
00000130: ebcc 013e f2b6 07be 75a2 abbd 4768 a5bd
00000140: 9667 f6bd 114b 2b3e 9326 e43d 32a4 17be
00000150: 42db d83c d3e2 1b3d e307 04bd b390 86bd
00000160: e89c 273d bd54 a6bd 9f95 6b3d 2301 733d
00000170: 23f3 053d e62c 6b3b 648c 2abe f72c a3bd
00000180: e862 b13d 4350 823d 88b9 e9bd d65f ecbd
00000190: e3ba f83d e914 d73c bb13 87bd c711 cdbd
000001a0: 0379 d7bd 8497 07bd 4b26 f33c b16b 2cbd
000001b0: 27df 17bd 0e73 6d3d 19cc cbbc 65b5 8c3d
000001c0: 4950 dfbd 6452 ee3d bbd3 ea3d 331d 55bd
000001d0: de02 04bd 204b 423d c054 f4ba d6d4 fa3c
000001e0: 851f 353d e8c7 ca3c 1a27 61bd e013 b5bc
000001f0: aac3 13be 82e6 afbd 7eeb 79bc 68e2 bd3c
00000200: d297 08bd 326c 7fbe 61c8 fe3b fbda 583d
00000210: 98a5 aebd fb6c bc3c 50cf 1e3e 369d fb3b
00000220: 7891 0ebd 681b f23c f4ad 213d fa1c a83d
00000230: a272 fa3d 6289 333e 7d3d c73d d95d 2a3c
00000240: d335 dbbd b8d2 d0bd 6e98 dd3d 89ce 9b3c
00000250: de06 05bd ce15 93bd fad8 07be 4f92 a9bd
00000260: 41b1 703d 9699 c53d 6900 b93d 53f3 f7bd
00000270: 0a5b e53d 329c 00be 2452 3ebd 14af d9bd
00000280: e2b4 cbbc 0ce3 123d 5846 a3bd ef0d e2bd
00000290: 2846 d4bc ea4e 713a 6192 dcbd 23b0 c33c
000002a0: 345b cbbd c634 75bc 4321 283e 99b6 58bd
000002b0: 2500 453e b0d1 503d 837b 51be 1c6e 743c
000002c0: 6aa7 81bc 0b15 5dbe 8f63 243d 29a8 d5bd
000002d0: 5aed 00bd d4fa 1abd 5d31 c03d 7096 37bd
000002e0: c4e1 c43d c8d4 4fbc abbb 79bd b3f7 9abc
000002f0: 3ffa c5bd 0551 f73d 9645 4c3e 5b13 183e
00000300: 0e76 e9bc fe56 863c 571d d6bd 94a1 d3bd
00000310: 9fad 15be 5054 873d 93f2 00be 8796 38bb
00000320: 4af6 b13b 147a c13d f088 8abd 978b edbd
00000330: 31e8 dcbd c5f2 9f3d ff65 98bc 36d1 163e
00000340: 40e2 ca3d 4335 b23b 83fb 6abc 90a3 44bd
00000350: 629c 823c 916d 63bd 02ef 06bd 3486 67bc
00000360: 6bfb 1ebe 780a 67bd ae88 cf3d 90d8 8dbd
00000370: c8e1 17bc 31b8 0e3e 6d1d 5d3d 0866 40bc
00000380: 06f9 4bbe 1772 bf3c 4b11 0bbe 5302 87bd
00000390: c961 0ebd c910 0f3d 0f32 af3c dbe2 f33d
000003a0: 3eb0 593d 35b5 213e d95f 853d 22e3 d6bd
000003b0: a849 193d e301 f8bc 0d72 02be 8f87 1b3d
000003c0: 4b78 683d cc07 b83d e619 f0bc 4462 283d
000003d0: 2e81 3d3d 96bb 3bbe 5adb 933d 305e 32be
000003e0: f835 f0bc edb0 c93c 81bd 8b3c bb6a c23d
000003f0: 45a9 283e 2511 d0bc df69 12be 37fa d1bc

bias f4 [128]
0.017951146 0.013194663 0.09469819 -0.12523383 0.07751377 -0.08052178 0.11348521 -0.1001777
-0.02433928 0.048285324 0.06443199 0.034705598 0.017331656 0.015325242 -0.06660418 -0.006687506
0.027914254 0.09266939 -0.09686429 -0.05007637 -0.10006753 -0.07199102 -0.07020471 -0.032841254
0.055284824 -0.03446199 0.028022781 -0.04341698 -0.12022942 0.008827498 0.013852894 -0.08118822
-0.12383196 0.028726157 -0.049683366 0.016722703 -0.022994094 -0.031364482 -0.046389386 0.124466635
-0.11335853 -0.04250012 -0.02645036 -0.040409733 0.06268919 0.11137213 0.08987485 -0.05864072
-0.060429443 0.05802725 0.08048343 -0.11747633 -0.05304814 -0.06891332 -0.007467061 -0.03546521
-0.07697825 -0.02865843 -0.037373003 0.010420346 -0.024842864 -0.054206416 0.11261969 -0.04229226
0.07046699 -0.09236956 -0.07285333 0.04550545 0.029073846 -0.099667266 0.10508453 -0.031399768
-0.0064837816 -0.024334949 0.09952183 0.027894141 0.072708584 -0.017419511 0.12642694 0.048999727
0.044411413 -0.035730466 -0.068415515 0.10954083 -0.11816909 -0.11903008 0.011087236 -0.006904384
-0.103385344 0.0924199 -0.011095159 -0.055210903 0.073936656 0.05744891 -0.08905026 -0.010092816
-0.1051215 -0.074371785 0.040358216 0.033208113 -0.047105998 -0.04103477 -0.118544236 -0.06352604
0.002862389 -0.009681619 0.050551653 0.09255955 0.116379045 0.021793367 -0.0908592 -0.03775061
-0.105048485 -0.010609382 0.08804408 0.008460508 0.063165896 0.10912823 0.07595769 -0.032817665
0.12128127 0.06834281 -0.079632975 0.022135776 0.061327524 0.022030208 0.12665337 -0.061621238
00000000: 480e 933c 6e2e 583c 20f1 c13d 4c3d 00be
00000010: 8abf 9e3d 9ae8 a4bd ef6a e83d f729 cdbd
00000020: 2b63 c7bc d5c6 453d ebf4 833d 7527 0e3d
00000030: 1efb 8d3c b916 7b3c c667 88bd de22 dbbb
00000040: 6fac e43c 73c9 bd3d c960 c6bd e11c 4dbd
00000050: 35f0 ccbd 0770 93bd 7dc7 8fbd 8d84 06bd
00000060: 5772 623d 0428 0dbd 0890 e53c 01d6 31bd
00000070: d83a f6bd 36a1 103c 40f7 623c 0246 a6bd
00000080: 9c9b fdbd 1e53 eb3c c980 4bbd 0dfe 883c
00000090: 1c5e bcbc 0b78 00bd cc02 3ebd 5de8 fe3d
000000a0: 8428 e8bd 9b14 2ebd 6dae d8bc ad84 25bd
000000b0: 3163 803d 1217 e43d 4e10 b83d 4031 70bd
000000c0: dd84 77bd fbad 6d3d 7fd4 a43d 6e97 f0bd
000000d0: 0249 59bd 6d22 8dbd 3fae f4bb f843 11bd
000000e0: c6a6 9dbd 15c5 eabc 6f14 19bd 19ba 2a3c
000000f0: 4383 cbbc 8c07 5ebd 27a5 e63d a63a 2dbd
00000100: ff50 903d 402c bdbd 2034 95bd ec63 3a3d
00000110: 462c ee3c 5a1e ccbd 8f36 d73d 0b9d 00bd
00000120: e775 d4bb 165a c7bc 1ad2 cb3d 4182 e43c
00000130: 3de8 943d 5db3 8ebc 1076 013e f0b3 483d
00000140: bee8 353d 1c5a 12bd 6f1d 8cbd f156 e03d
00000150: a302 f2bd 0bc6 f3bd 3da7 353c 2c3e e2bb
00000160: b2bb d3bd a546 bd3d 78c8 35bc d424 62bd
00000170: 1a6c 973d 8c4f 6b3d fc5f b6bd 575c 25bc
00000180: f149 d7bd 3c50 98bd a84e 253d 3b05 083d
00000190: 38f2 40bd 1314 28bd 52c7 f2bd f119 82bd
000001a0: eb96 3b3b a79f 1ebc 400f 4f3d dd8f bd3d
000001b0: 2358 ee3d 0188 b23c 6314 babd 62a0 1abd
000001c0: a923 d7bd f9d2 2dbc 7450 b43d f19d 0a3c
000001d0: 1f5d 813d 9f7e df3d b58f 9b3d d16b 06bd
000001e0: 5162 f83d 51f7 8b3d 9d16 a3bd 1656 b53c
000001f0: 9232 7b3d b278 b43c 6cb1 013e 8d66 7cbd

weight f4 [128, 128]
0.015886849 0.07865285 -0.049185757 -0.04281239 0.06950747 0.04598084 0.075506 -0.01964893
0.04966637 -0.08075961 -0.05109414 0.024846394 -0.054224208 0.007901837 -0.020896392 0.09834095
-0.022356665 0.03377392 0.02274369 0.08184915 -0.00733186 0.048822317 -0.069456294 -0.08601127
0.04087528 0.06610781 -0.048655808 0.08040034 0.029337848 -0.037084788 0.039311662 0.094159685
-0.028415974 0.05951376 -0.032112222 -0.08221787 -0.068576545 -0.035526548 0.08699342 0.034478683
0.08432128 0.047213927 -0.005239027 -0.05822108 -0.06509715 -0.028791392 -0.031656787 0.068537325
-0.01411371 -0.016286198 0.014312452 0.052736502 -0.022379154 0.043535378 -0.057255656 -0.08049364
-0.016807077 0.028114773 0.06140404 0.026132233 0.06895105 -0.055778455 0.007619083 0.062371794
-0.06823188 0.066334985 -0.090286404 0.06288554 0.03958953 0.08395169 0.0036328393 -0.018423174
-0.050499935 0.08707121 -0.0060567264 -0.01824413 0.0076210992 0.030316135 -0.035577416 -0.063438766
-0.0032607545 0.028038856 0.01985639 -0.014275047 0.020494677 0.016000772 0.07783621 -0.0377464
0.079301216 -0.010510731 0.06473987 0.030963501 -0.08404308 0.06666073 -0.022982996 -0.059537295
0.047150135 0.02264854 -0.04912151 -0.039315462 0.06368999 -0.076428264 0.0077727293 0.0055562267
-0.075116396 0.04224606 -0.060584966 0.0032731874 -0.01834957 0.04609242 -0.015977848 -0.108637206
-0.010440999 0.080295615 -0.055210248 0.0739497 0.041777577 -0.0072496007 -0.0006532478 0.0776088
0.0037786742 0.026168596 -0.0009800007 0.0177971 -0.08770343 -0.05494047 0.0827514 0.059177246
0.0025359604 0.08712711 -0.037991624 0.0395469 -0.05371503 0.059597485 0.04517551 0.042957794
-0.01828554 0.06345224 0.04214277 0.042118642 -0.02576354 -0.001436846 -0.039463427 -0.04720356
0.024252173 0.06490003 0.055690516 -0.030219037 0.067445114 0.0035111848 0.114228025 -0.08408146
0.03172454 -0.08582525 0.039489284 0.05936422 0.06446264 -0.04354266 -0.00071455137 0.031404484
-0.02500357 0.0852195 0.07112741 0.026865581 -0.0445192 0.058256995 -0.039610013 -0.0905551
-0.03214138 -0.00395361 0.0619857 0.018808827 0.018882668 -0.018197935 0.07402568 0.077633895
-0.063991405 0.072383665 0.012450318 0.0671988 0.044477995 0.05268556 -0.002404277 -0.035733163
-0.034435913 -0.05256746 -0.00036202365 -0.05358606 0.038115136 -0.076483704 0.09910024 -0.0859072
0.07185439 0.0135029545 -0.060800135 0.027488817 -0.053513132 -0.069506824 -0.006037219 -0.013003493
0.038572885 0.0726475 -0.07244535 0.08700967 -0.045757607 -0.012851578 0.0679173 -0.035726786
-0.017156655 -0.021505205 0.03772247 -0.0065960805 0.06930223 0.03520294 -0.06524594 -0.0599854
-0.0005174949 -0.0011561826 -0.02912571 0.020588879 0.03526377 -0.034847036 -0.025082724 0.037118614
0.034012415 0.010518135 0.040338993 0.031298004 -0.08498771 -0.090547614 0.009345138 0.034289952
-0.05601564 -0.035012167 -0.08696733 0.013269841 0.0660773 0.07074022 -0.07450749 0.09919285
-0.029535035 -0.0932935 0.061098304 0.07995263 0.0015832315 -0.01992469 0.0014427173 0.049535766
0.051309284 -0.05469004 0.01760367 0.030144995 0.010479842 0.034709208 0.03545307 0.014776714
00000000: 2325 823c bf14 a13d 0177 49bd 0b5c 2fbd
00000010: ef59 8e3d 6856 3c3d e4a2 9a3d cbf6 a0bc
00000020: f76e 4b3d 4b65 a5bd 1748 51bd aa8a cb3c
00000030: 341a 5ebd b576 013c e92e abbc fb66 c93d
00000040: 5325 b7bc 8656 0a3d fa50 ba3c 87a0 a73d
00000050: 1940 f0bb e9f9 473d 1a3f 8ebd ad26 b0bd
00000060: d66c 273d 8863 873d 504b 47bd efa8 a43d
00000070: ed55 f03c 38e6 17bd 4405 213d cbd6 c03d
00000080: 9ec8 e8bc b3c4 733d 1b88 03bd d861 a8bd
00000090: dc71 8cbd 4984 11bd 9b29 b23d 8539 0d3d
000000a0: a3b0 ac3d 6463 413d 25ac abbb 3a79 6ebd
000000b0: a851 85bd eddb ebbc 8caa 01bd 4c5d 8c3d
000000c0: 313d 67bc a26a 85bc c67e 6a3c 3b02 583d
000000d0: 7d54 b7bc 2752 323d e884 6abd d9d9 a4bd
000000e0: ffae 89bc f450 e63c cd82 7b3d 4413 d63c
000000f0: 3536 8d3d f377 64bd 80a9 f93b 9179 7f3d
00000100: 28bd 8bbd a3da 873d 14e8 b8bd 22ca 803d
00000110: a228 223d ddee ab3d ee14 6e3b 32ec 96bc
00000120: 05d9 4ebd 6452 b23d 8177 c6bb b774 95bc
00000130: 6aba f93b 8b59 f83c a0b9 11bd 2fec 81bd
00000140: 62b2 55bb beb1 e53c dea9 a23c e3e1 69bc
00000150: 74e4 a73c 0d14 833c 9768 9f3d f89b 1abd
00000160: ad68 a23d 3335 2cbc 5696 843d 2ba7 fd3c
00000170: c71e acbd 6c85 883d d646 bcbc 61dd 73bd
00000180: 8020 413d 6e89 b93c a333 49bd 4009 21bd
00000190: e66f 823d 6c86 9cbd 61b2 fe3b 0211 b63b
000001a0: a0d6 99bd 340a 2d3d f127 78bd f982 563b
000001b0: d651 96bc 68cb 3c3d fae3 82bc 2f7d debd
000001c0: b910 2bbc 0772 a43d 2424 62bd f172 973d
000001d0: f71e 2b3d 0f8e edbb b83e 2bba 5df1 9e3d
000001e0: a2a3 773b 865f d63c 5e73 80ba 39cb 913c
000001f0: db9d b3bd 4209 61bd 9179 a93d d763 723d
00000200: 5b32 263b b36f b23d 1b9d 1bbd eefb 213d
00000210: 4b04 5cbd 7e1c 743d f509 393d 83f4 2f3d
00000220: 8fcb 95bc 3ff3 813d e69d 2c3d 9984 2c3d
00000230: 0f0e d3bc 8d54 bcba 67a4 21bd 8558 41bd
00000240: 7eac c63c 4fea 843d bd1b 643d ea8d f7bc
00000250: aa20 8a3d e81b 663b 62f0 e93d e732 acbd
00000260: 97f1 013d 26c5 afbd 84bf 213d e527 733d
00000270: fd04 843d ca59 32bd bb50 3bba fda1 003d
00000280: 49d4 ccbc 9087 ae3d 3fab 913d 3515 dc3c
00000290: c459 36bd e39e 6e3d 1c3e 22bd f474 b9bd
000002a0: aea6 03bd 498d 81bb b8e4 7d3d f814 9a3c
000002b0: d3af 9a3c d613 95bc c79a 973d 85fe 9e3d
000002c0: ed0d 83bd e33d 943d 6bfc 4b3c 869f 893d
000002d0: 8f2e 363d d0cc 573d 1391 1dbb f05c 12bd
000002e0: ac0c 0dbd fa50 57bd fecd bdb9 0e7d 5bbd
000002f0: 9e1e 1c3d 7da3 9cbd 11f5 ca3d 1df0 afbd
00000300: 6528 933d 7f3b 5d3c 9009 79bd 3a30 e13c
00000310: 9630 5bbd 9859 8ebd ddd3 c5bb 9a0c 55bc
00000320: 9afe 1d3d 36c8 943d 3a5e 94bd 2032 b23d
00000330: 546c 3bbd 6d8f 52bc 3a18 8b3d 4056 12bd
00000340: 1d8c 8cbc af2b b0bc e082 1a3d ef23 d8bb
00000350: 54ee 8d3d f530 103d aa9f 85bd 40b3 75bd
00000360: 7fa8 07ba 0d8b 97ba 0a99 eebc 02aa a83c
00000370: be70 103d c4bb 0ebd 497a cdbc b009 183d
00000380: 9a50 0b3d 4154 2c3c 803a 253d 5632 003d
00000390: 090e aebd 0771 b9bd 5a1c 193c 9f73 0c3d
000003a0: a870 65bd eb68 0fbd ed1b b2bd bf69 593c
000003b0: 8953 873d 40e0 903d 6297 98bd 9f25 cb3d
000003c0: 75f3 f1bc aa10 bfbd 3742 7a3d 34be a33d
000003d0: 6f84 cf3a 1a39 a3bc 8f19 bd3a 04e6 4a3d
000003e0: af29 523d aa02 60bd 9235 903c a3f2 f63c
000003f0: a5b3 2b3c 3e2b 0e3d 3d37 113d 081a 723c

bias f4 [128]
-0.032513283 -0.058376737 0.037442215 -0.05864349 0.047457922 0.083935335 -0.015657015 0.0152995335
-0.036089685 0.05358694 -0.026669065 0.07419053 0.08120492 0.021122297 0.030450862 -0.02633811
0.04753737 -0.079719126 0.015731089 0.06554522 0.07110827 -0.04636813 -0.034983117 -0.04654699
0.079565555 -0.060258247 0.06555104 -0.07117739 -0.06079384 0.06614859 0.0122838095 -0.054422807
-0.009711747 -0.08359445 0.011239902 0.008362747 -0.05543735 0.04714614 -0.025378462 0.06593405
-0.077796645 -0.03572526 0.029208919 -0.09020366 -0.063660234 -0.06895817 0.04802729 0.05798179
0.025687968 0.041697677 0.022961104 0.040553275 0.031309534 -0.06758546 -0.044955954 0.05334942
-0.048234038 -0.062973745 0.08039223 0.05146486 0.027864113 0.004976572 0.021992914 -0.04476578
0.045126546 0.02592102 -0.00075566035 -0.02179091 0.0011466931 -0.009428506 -0.05714501 0.068306744
-0.016253352 -0.05454024 0.07506382 0.071546644 0.049123928 0.028077964 -0.052707348 0.027351884
0.073882535 0.0446983 -0.028561445 0.0042006713 -0.08446515 -0.07832406 0.049504768 -0.022140319
0.09039878 -0.0057540326 0.06144249 0.052452814 -0.041389495 -0.003011961 -0.01251826 -0.07636601
-0.0014106833 -0.077737235 0.008427253 0.06444719 -0.026480753 0.0787977 -0.027446931 0.03769912
0.0023665605 0.035533283 0.0721497 -0.067022674 0.05868416 0.019554839 -0.068119444 0.048836946
0.04627856 0.013629034 0.003607943 -0.046913803 -0.08808779 -0.075513564 0.07388951 0.03826195
-0.052952603 0.04160033 0.07789068 0.022333547 -0.030905422 -0.009116073 0.008288647 0.026490586
00000000: a62c 05bd 721c 6fbd 025d 193d 2834 70bd
00000010: 3d63 423d 4ae6 ab3d 2443 80bc e5aa 7a3c
00000020: c7d2 13bd fb7d 5b3d 1579 dabc 34f1 973d
00000030: c44e a63d ab08 ad3c 1674 f93c 05c3 d7bc
00000040: 8cb6 423d c843 a3bd 7cde 803c 933c 863d
00000050: 36a1 913d 82ec 3dbd 754a 0fbd 0ea8 3ebd
00000060: 44f3 a23d 5ad1 76bd a03f 863d 74c5 91bd
00000070: f602 79bd e978 873d 0842 493c 73ea 5ebd
00000080: 051e 1fbc 9133 abbd 9127 383c e703 093c
00000090: 4612 63bd 501c 413d 7ee6 cfbc 6e08 873d
000000a0: d953 9fbd a654 12bd 8b47 ef3c b2bc b8bd
000000b0: 4c60 82bd f139 8dbd 43b8 443d 507e 6d3d
000000c0: 936f d23c 2fcb 2a3d ed18 bc3c 311b 263d
000000d0: 6d3e 003d 3f6a 8abd bc23 38bd ec84 5a3d
000000e0: 0e91 45bd 61f8 80bd aea4 a43d d1cc 523d
000000f0: 4843 e43c 8312 a33b 7c2a b43c 535c 37bd
00000100: 9dd6 383d 5258 d43c 8217 46ba da82 b2bc
00000110: a34c 963a 057a 1abc e310 6abd 68e4 8b3d
00000120: c025 85bc 9665 5fbd 0fbb 993d 0c87 923d
00000130: 2c36 493d c203 e63c a9e3 57bd 0f11 e03c
00000140: ba4f 973d 9115 373d b1f9 e9bc c9a5 893b
00000150: 11fc acbd 5d68 a0bd 83c5 4a3d 9d5f b5bc
00000160: ff22 b93d 538c bcbb 1fab 7b3d c3d8 563d
00000170: 0888 29bd 5264 45bb 6319 4dbc c865 9cbd
00000180: ade6 b8ba b334 9fbd 7612 0a3c e3fc 833d
00000190: 2aee d8bc b060 a13d 63d8 e0bc 646a 1a3d
000001a0: 4c18 1b3b 598b 113d 39c3 933d 2f43 89bd
000001b0: cd5e 703d 7831 a03c 3582 8bbd 4009 483d
000001c0: 968e 3d3d 504c 5f3c 3d73 6c3b b028 40bd
000001d0: 5f67 b4bd dba6 9abd 6253 973d 90b8 1c3d
000001e0: d4e4 58bd 1c65 2a3d 2685 9f3d d8f4 b63c
000001f0: 5e2d fdbc 955b 15bc 1bcd 073c c902 d93c

weight f4 [128, 128]
-0.06902535 -0.09277315 0.028306816 -0.05089709 0.044557042 0.049833607 0.010587884 0.08598123
-0.09133117 0.06777452 -0.041803144 0.065418184 -0.07787597 0.027436897 0.069153525 0.08087772
-0.043229647 0.065438226 -0.0033424639 0.013622311 -0.03088719 0.01811599 -0.019749759 -0.0812315
-0.005155685 -0.047735516 -0.086292736 0.034117166 0.10267582 0.053952362 0.08539947 -0.045130607
0.083077416 -0.022290464 0.018253757 0.072604775 -0.023338435 0.060810156 0.029842254 0.1103084
0.058278434 -0.015284998 0.0317763 0.047954265 -0.10690329 -0.04469301 0.07675814 0.015593897
0.052629974 -0.055960312 -0.05683002 0.08050291 -0.08513136 -0.08297747 -0.046864346 -0.08646989
0.05958654 -0.08066728 0.024012903 0.063824244 -0.026870057 -0.04969645 0.033960607 -0.0046651936
0.049544133 -0.08049788 -0.06822013 0.068831965 -0.0383388 -0.0920269 -0.11022551 0.07174216
0.10780173 -0.051001042 -0.04715681 0.026774872 0.04538465 -0.051619742 0.028871996 -0.06393699
-0.0638694 0.06287782 0.021414312 -0.027285216 0.06524497 0.065012336 0.03826606 -0.052535746
-0.04963873 -0.051977407 0.06254438 0.0020445525 -0.0055364138 0.08475289 0.03631446 0.013390144
0.0713045 -0.08921355 -0.003666522 0.04158239 -0.07098166 -0.004504636 -0.050546635 -0.028207341
0.062400047 0.041725688 0.010346262 -0.042442992 0.051578145 -0.024820691 -0.060767174 0.03330785
0.01571873 0.039932154 -0.016909743 0.028906075 0.05670534 -0.022355689 0.06913688 -0.048103
-0.035199206 0.04026181 0.026962494 0.07179447 -0.044282235 -0.0011417511 -0.019778708 0.06602593
-0.028215889 0.068379514 -0.011800738 0.043802436 -0.015762104 0.068284966 0.046359558 0.036837902
-0.019293167 -0.023187837 -0.0052158227 0.03757256 -0.01137497 0.08169272 0.033434056 0.064145416
0.01942026 -0.08898223 0.042496875 0.08070193 0.00014059759 -0.075467736 0.007791452 -0.046162073
0.001456604 -0.053208653 0.04630235 0.044013187 -0.009526588 0.04915968 -0.05537403 0.001930631
0.07067458 0.0657766 -0.030014955 0.027017845 -0.03976951 0.034688275 0.040050995 0.07153237
0.06194912 -0.050207227 0.046087593 -0.048970245 0.10566777 -0.05291009 -0.021776106 0.0820242
-0.007869732 0.0122251725 -0.07286531 -0.0712414 0.015404862 -0.04639405 0.023500994 -0.0760331
0.00020296 0.034022633 0.08952477 0.05294689 -0.0575761 0.004564372 -0.057381637 0.025160372
0.07314666 0.022550257 0.05247429 0.08659757 -0.05458572 -0.026381698 -0.09100366 -0.012168525
0.04565965 -0.021551274 -0.07555699 -0.06148901 0.0070774104 0.065247566 0.024068251 -0.086052045
0.008246613 0.030669041 -0.089702375 -0.0047959443 0.0357525 -0.06323686 -0.08194797 -0.042459752
0.01449523 -0.0059679667 0.03109829 0.008343362 -0.10747927 -0.01818422 -0.06882989 0.08303697
-0.03318797 -0.02307027 0.091414206 -0.027782578 0.0054429267 -0.05386204 0.016798746 -0.032045133
-0.058097135 -0.047025304 -0.06303052 -0.08421391 0.06700645 0.0024981918 0.031341095 0.01451479
-0.021433316 0.056958593 -0.06374055 -0.035364415 0.05818508 -0.048094183 -0.0011036565 0.006191381
0.043857627 -0.016697044 -0.0048197717 -0.05941064 0.01297808 0.061523993 0.018601364 -0.055535868
00000000: 2a5d 8dbd d9ff bdbd b2e3 e73c 7879 50bd
00000010: 7281 363d 531e 4c3d ce78 2d3c ed16 b03d
00000020: d60b bbbd 5ecd 8a3d c639 2bbd f8f9 853d
00000030: 707d 9fbd 58c3 e03c 5da0 8d3d 38a3 a53d
00000040: 9211 31bd 7a04 863d 3d0d 5bbb 1d30 5f3c
00000050: 2207 fdbc fc67 943c 3fca a1bc b35c a6bd
00000060: 05f1 a8bb 5186 43bd 3fba b0bd 71be 0b3d
00000070: b347 d23d 27fd 5c3d ebe5 ae3d dfda 38bd
00000080: 7e24 aa3d 7e9a b6bc e788 953c d0b1 943d
00000090: 3f30 bfbc 1214 793d be77 f43c 5fe9 e13d
000000a0: 5eb5 6e3d ee6d 7abc de27 023d b16b 443d
000000b0: 1df0 dabd 0510 37bd 5f33 9d3d 8b7d 7f3c
000000c0: 8792 573d a436 65bd 98c6 68bd b6de a43d
000000d0: 5a59 aebd 17f0 a9bd d4f4 3fbd 2017 b1bd
000000e0: 0411 743d e334 a5bd b5b6 c43c 49b6 823d
000000f0: 981e dcbc 818e 4bbd 471a 0b3d 7bde 98bb
00000100: caee 4a3d 13dc a4bd ffb6 8bbd c6f7 8c3d
00000110: 2509 1dbd 9978 bcbd eabd e1bd 8eed 923d
00000120: 27c7 dc3d 78e6 50bd 8027 41bd fa56 db3c
00000130: 41e5 393d 396f 53bd f784 ec3c 66f1 82bd
00000140: f6cd 82bd 16c6 803d 116d af3c 3f85 dfbc
00000150: 289f 853d 3025 853d dfbc 1c3d b92f 57bd
00000160: fb51 4bbd 43e6 54bd 4517 803d e6fd 053b
00000170: ce6a b5bb ec92 ad3d 79be 143d 5662 5b3c
00000180: 1808 923d 98b5 b6bd 084a 70bb 4c52 2a3d
00000190: d55e 91bd a09b 93bb fd09 4fbd 1513 e7bc
000001a0: 3197 7f3d 8ee8 2a3d 5e83 293c b4d8 2dbd
000001b0: 9b43 533d c354 cbbc 00e7 78bd d06d 083d
000001c0: 91c4 803c e68f 233d 4d86 8abc 6fcc ec3c
000001d0: dc43 683d 4723 b7bc a397 8d3d a707 45bd
000001e0: 0b2d 10bd 91e9 243d 73e0 dc3c fb08 933d
000001f0: 4a61 35bd cfa6 95ba f506 a2bc 9a38 873d
00000200: 0225 e7bc 8f0a 8c3d e257 41bc 2f6a 333d
00000210: 871f 81bc fdd8 8b3d 85e3 3d3d 57e3 163d
00000220: b40c 9ebc 6bf4 bdbc 7ee9 aabb afe5 193d
00000230: 155e 3abc 834e a73d 26f2 083d ac5e 833d
00000240: 3d17 9f3c 513c b6bd 3411 2e3d 0e47 a53d
00000250: 616d 1339 d48e 9abd 704f ff3b 7114 3dbd
00000260: 85eb be3a 51f1 59bd 88a7 3d3d 2c47 343d
00000270: 6815 1cbc a95b 493d e1cf 62bd 3a0d fd3a
00000280: d6bd 903d e2b5 863d ece1 f5bc 8754 dd3c
00000290: 5be5 22bd 4b15 0e3d 830c 243d 907f 923d
000002a0: 5cbe 7d3d 18a6 4dbd 58c6 3c3d 0695 48bd
000002b0: 5868 d83d 40b8 58bd ce63 b2bc 4efc a73d
000002c0: 0cf0 00bc 174c 483c 683a 95bd 03e7 91bd
000002d0: ad64 7c3c b007 3ebd 2885 c03c 3eb7 9bbd
000002e0: a9d1 5439 515b 0b3d c358 b73d d7de 583d
000002f0: ebd4 6bbd ba90 953b 0209 6bbd 201d ce3c
00000300: ebcd 953d 51bb b83c 48ef 563d 115a b13d
00000310: 4795 5fbd 6e1e d8bc 2060 babd 7e5e 47bc
00000320: 9d05 3b3d 4c8c b0bc a0bd 9abd e6db 7bbd
00000330: 9fe9 e73b 84a0 853d c82a c53c 0e3c b0bd
00000340: cd1c 073c a43d fb3c e1b5 b7bd 4c27 9dbb
00000350: 3771 123d 5482 81bd 56d4 a7bd 47ea 2dbd
00000360: 677d 6d3c ef8e c3bb d7c1 fe3c 99b2 083c
00000370: 171e dcbd 13f7 94bc aff6 8cbd 490f aa3d
00000380: 1cf0 07bd ddfd bcbc 5f37 bb3d 4a98 e3bc
00000390: 945a b23b 719e 5cbd 869d 893c c241 03bd
000003a0: 43f7 6dbd 9b9d 40bd 2516 81bd 5878 acbd
000003b0: ad3a 893d b4b8 233b 855f 003d 71cf 6d3c
000003c0: ec94 afbc 6a4d 693d 688a 82bd 47da 10bd
000003d0: 7a53 6e3d 68fe 44bd 91a8 90ba 11e1 ca3b
000003e0: 0ea4 333d 3dc8 88bc 2def 9dbb 9258 73bd
000003f0: 03a2 543c 9500 7c3d e361 983c 9479 63bd

bias f4 [128]
-0.023258938 0.01484677 0.034533817 0.010328846 -0.014955274 0.020913208 -0.020864319 -0.069844455
-0.019006427 -0.06721435 -0.07850966 -0.017519753 -0.0050750906 0.06061953 0.021738922 -0.08104435
0.006712815 -0.02778952 0.025417985 -0.062204093 -0.06492677 0.024254357 0.011761273 -0.019312553
-0.015094385 -0.06048197 -0.07760283 0.00813779 0.05324866 -0.018865744 0.0040428843 -0.012545161
-0.07511742 -0.0062181675 -0.052246094 0.06134354 0.039349757 0.049879506 0.033686224 -0.0031380013
0.0127881095 -0.0042912075 -0.036964443 0.08526859 -0.022228206 -0.07701866 0.015719868 -0.08237073
0.07194414 0.0022537895 -0.06663891 0.040453214 0.0107821515 0.0017739824 -0.040641084 -0.060275055
-0.07305176 -0.010872352 -0.043544047 0.06362841 0.03045223 -0.0056780647 -0.01492 0.071741655
0.030762004 -0.07992329 -0.05887233 -0.08619987 0.075137496 -0.060710516 0.05946493 0.04029863
0.04631251 0.0743094 0.057319634 0.07852808 0.0575329 -0.017895257 -0.045761157 0.0060589924
0.0705881 -0.07734476 0.07964081 0.026069937 -0.015606793 0.019478833 -0.04676141 0.003356648
-0.003173867 -0.075819105 -0.046952546 -0.045449667 0.021375012 -0.016816592 -0.065854155 0.06205682
0.0433424 -0.041649643 -0.06123604 0.07229819 0.02709135 -0.06998793 -0.06996155 0.04542219
-0.08189638 -0.025296433 -0.0070366464 -0.05324108 0.07596519 -0.028947048 -0.023892509 0.057181437
-0.01584062 0.0063674967 -0.06626985 0.0033745386 -0.08257873 0.0085249655 -0.018065175 0.009372697
0.03543397 -0.008191353 0.072064735 -0.065919615 0.01681652 -0.0049819625 0.08949613 -0.046545196
00000000: 8789 bebc de3f 733c 5573 0d3d 523a 293c
00000010: f706 75bc 2d52 ab3c a6eb aabc 9c0a 8fbd
00000020: 5eb3 9bbc ada7 89bd acc9 a0bd 9685 8fbc
00000030: f24c a6bb 2f4c 783d d315 b23c 95fa a5bd
00000040: 2cf7 db3b d9a6 e3bc 6139 d03c b8c9 7ebd
00000050: 54f8 84bd 13b1 c63c 5bb2 403c 5c35 9ebc
00000060: 704e 77bc f1bb 77bd 3cee 9ebd 5d54 053c
00000070: 441b 5a3d 558c 9abc 2c7a 843b 388a 4dbc
00000080: 29d7 99bd c5c1 cbbb 0000 56bd 5d43 7b3d
00000090: 362d 213d 744e 4c3d 91fa 093d eda6 4dbb
000000a0: 3885 513c 429d 8cbb 0768 17bd 4ca1 ae3d
000000b0: ed17 b6bc f6bb 9dbd f4c6 803c fcb1 a8bd
000000c0: 7357 933d 50b4 133b fb79 88bd 45b2 253d
000000d0: 9fa7 303c f984 e83a 4477 26bd fae2 76bd
000000e0: 299c 95bd f321 32bc 3e5b 32bd 9d4f 823d
000000f0: f476 f93c 0f0f babb 0473 74bc 4aed 923d
00000100: 9900 fc3c d2ae a3bd 1d24 71bd 8f89 b0bd
00000110: b0e1 993d 97ab 78bd 8091 733d 2d10 253d
00000120: 30b2 3d3d 872f 983d fec7 6a3d 54d3 a03d
00000130: 9ea7 6b3d 1399 92bc 0d70 3bbd 838a c63b
00000140: 7e90 903d ee66 9ebd b91a a33d 9f90 d53c
00000150: a2b3 7fbc 1392 9f3c e488 3fbd 35fb 5b3b
00000160: a700 50bb 0c47 9bbd 5051 40bd 6e29 3abd
00000170: a61a af3c f3c2 89bc 8bde 86bd 4b2f 7e3d
00000180: cd87 313d d198 2abd a4d2 7abd 1311 943d
00000190: aeee dd3c d555 8fbd 0048 8fbd 9e0c 3a3d
000001a0: 4ab9 a7bd 773a cfbc ab93 e6bb 5213 5abd
000001b0: a393 9b3d 5c22 edbc 39ba c3bc 1537 6a3d
000001c0: 30c4 81bc 6fa6 d03b 7db8 87bd 5d27 5d3b
000001d0: 0a1f a9bd 4cac 0b3c 6bfd 93bc f18f 193c
000001e0: 3623 113d 0635 06bc ad96 933d dd00 87bd
000001f0: ccc2 893c bb3f a3bb bf49 b73d 2da6 3ebd

weight f4 [128, 128]
-0.032091383 0.014997475 -0.06988133 0.01969608 0.09498895 0.045443006 0.022028422 0.03737208
0.024709536 -0.038435027 -0.06906268 0.014346194 0.0076926453 -0.06024952 0.006648837 0.04485773
0.0074658445 -0.04983122 -0.058085784 0.09731242 0.033128653 -0.07874132 0.06307426 -0.082867585
0.06820104 -0.12415882 0.015218329 -0.12807827 -0.053664178 -0.06348146 -0.03265996 0.024728375
0.008146498 -0.02519067 -0.0788866 -0.054149702 -0.07140115 0.042012423 0.08854702 0.017375508
0.010098737 0.08135238 0.023692988 -0.0024322565 0.107105605 0.039875112 0.038978077 -0.13514483
-0.06752752 0.12654787 -0.005444555 -0.00706748 0.048392173 0.06468576 0.02967478 -0.077194616
-0.015361455 0.08350137 0.013378485 0.02815395 -0.060617525 -0.02460154 0.014234874 0.0014353977
0.024253288 -0.053929966 0.01966778 -0.05048574 0.073340654 -0.04192913 -0.023717714 0.0669012
0.07147268 0.096965246 0.001992938 -0.08757764 0.015880343 0.04629754 -0.032657288 0.000652634
-0.06436707 -0.052691944 -0.03386859 0.08209805 -0.09316126 -0.12329055 0.06481468 -0.08037352
-0.027934296 0.03952404 0.029442739 -0.05877349 -0.119960174 -0.043569557 -0.056675803 -0.05697324
0.0015820654 -0.014966747 -0.09171857 -0.059954606 -0.0546938 0.058293797 -0.10005059 -0.006644401
0.024190875 -0.041452833 -0.010828796 -0.015038587 -0.105431005 -0.098128945 -0.1229361 0.0035971126
0.00626675 -0.011799531 0.117989354 0.062658116 -0.013659689 0.008766841 -0.026540037 0.08267339
0.09099128 -0.046969485 -0.04995123 -0.102935076 0.017061085 0.08484261 -0.08287535 -0.015932903
-0.06443019 -0.039636057 -0.03351303 -0.06569947 0.017667346 0.045239374 -0.05581534 0.059397664
0.030759817 -0.059011023 -0.030657275 0.0036855505 0.0838345 -0.0928619 -0.08555674 0.025652714
0.09913147 -0.03820643 0.13281015 0.056568373 0.042071246 -0.013680574 0.09452302 0.07560003
0.092222616 -0.045551986 0.0034652937 -0.032567155 0.025436556 0.027509626 -0.04390393 -0.020123018
0.055726685 0.14619698 0.027392091 -0.018301036 0.0039429227 -0.090394095 0.041163906 -0.010794844
-0.02644156 -0.0022334186 0.012332431 0.091743335 0.041876264 0.06476745 0.059546456 0.05193501
0.06030186 0.06602352 0.010815908 -0.08139314 0.0067540216 0.028157055 0.045668494 -0.10105047
0.03214193 0.03913478 -0.013661011 0.046986993 -0.03679052 0.019736372 0.10025775 -0.047663324
-0.06342223 0.0025959983 0.02272392 -0.057092264 0.019076386 -0.06326725 0.017675372 -0.00042358987
0.036398143 0.048336152 0.10260578 -0.026021577 -0.04580705 0.085282005 0.013245673 -0.06242676
-0.0012067208 -0.0715134 0.12414749 -0.032025706 -0.0723893 0.06877101 0.0040652864 -0.00046597805
-0.011715979 -0.10286703 -0.07890773 0.020612096 -0.08188196 -0.07850357 0.018503359 -0.027117154
0.018235963 -0.02211874 -0.02122641 -0.01640491 -0.018313017 0.036864888 -0.010221308 0.054736324
-0.0032333266 -0.08746515 0.046115797 0.12139325 -0.011783807 -0.021628046 -0.011934429 0.07478015
0.0612379 -0.085900284 -0.050013725 -0.028932614 -0.053194713 0.024964059 -0.0808158 0.0095933415
-0.083321705 -0.047483195 0.06322777 0.08040611 0.028945494 -0.025345782 0.06916341 0.059037615
00000000: 4172 03bd f8b7 753c f11d 8fbd ac59 a13c
00000010: 9189 c23d 7222 3a3d f374 b43c 7713 193d
00000020: a76b ca3c 0c6e 1dbd bc70 8dbd 4d0c 6b3c
00000030: 9612 fc3b 33c8 76bd 7dde d93b bdbc 373d
00000040: 0ba4 f43b d21b 4cbd 5ceb 6dbd bc4b c73d
00000050: e9b1 073d 2143 a1bd 142d 813d 7bb6 a9bd
00000060: fdac 8b3d fb46 febd 4c56 793c f326 03be
00000070: f8ce 5bbd 9102 82bd 73c6 05bd 2993 ca3c
00000080: e478 053c aa5c cebc 4c8f a1bd 14cc 5dbd
00000090: c43a 92bd 3815 2c3d 2458 b53d 1557 8e3c
000000a0: 2c75 253c 149c a63d cc17 c23c 7e66 1fbb
000000b0: 2f5a db3d 1654 233d 7aa7 1f3d 6863 0abe
000000c0: de4b 8abd c495 013e 3d68 b2bb 5296 e7bb
000000d0: df36 463d f879 843d 8618 f33c 3618 9ebd
000000e0: 9dae 7bbc c402 ab3d 6f31 5b3c 1da3 e63c
000000f0: 154a 78bd 2b89 c9bc 6439 693c f423 bc3a
00000100: d5ae c63c abe5 5cbd 531e a13c 23ca 4ebd
00000110: a033 963d e1bd 2bbd a74b c2bc 7f03 893d
00000120: 4560 923d b795 c63d f49b 023b e85b b3bd
00000130: 7e17 823c 7da2 3d3d a6c3 05bd 8715 2b3a
00000140: e2d2 83bd 82d3 57bd cab9 0abd 0623 a83d
00000150: 55cb bebd c27f fcbd 8fbd 843d df9a a4bd
00000160: 77d6 e4bc f6e3 213d e631 f13c 79bc 70bd
00000170: aead f5bd fe75 32bd e324 68bd c65c 69bd
00000180: 4e5d cf3a 1637 75bc f2d6 bbbd f692 75bd
00000190: 9b06 60bd 7ac5 6e3d 53e7 ccbd 46b9 d9bb
000001a0: f12b c63c 72ca 29bd 436b 31bc 6864 76bc
000001b0: 36ec d7bd d4f7 c8bd ecc5 fbbd 89bd 6b3b
000001c0: 4f59 cd3b d252 41bc 67a4 f13d e652 803d
000001d0: e3cc 5fbc cca2 0f3c 7e6a d9bc ab50 a93d
000001e0: a359 ba3d 1363 40bd a999 4cbd a0cf d2bd
000001f0: b0c3 8b3c f6c1 ad3d 8dba a9bd b885 82bc
00000200: faf3 83bd 6b59 22bd f544 09bd 728d 86bd
00000210: 1cbb 903c ec4c 393d a09e 64bd f74a 733d
00000220: 03fc fb3c 8bb5 71bd f724 fbbc 4789 713b
00000230: 6cb1 ab3d 612e bebd 5f38 afbd a425 d23c
00000240: 7105 cb3d 587e 1cbd 62ff 073e 3db4 673d
00000250: e652 2c3d 7c24 60bc 4995 c13d 30d4 9a3d
00000260: 36df bc3d b894 3abd fb19 633b 2365 05bd
00000270: 5360 d03c de5b e13c 9bd4 33bd 07d9 a4bc
00000280: aa41 643d a9b4 153e 6165 e03c 0eec 95bc
00000290: a233 813b 8a20 b9bd 7c9b 283d dbdc 30bc
000002a0: f89b d8bc 8c5e 12bb f70d 4a3c eee3 bb3d
000002b0: 7286 2b3d cca4 843d fce6 733d ceb9 543d
000002c0: 15ff 763d 5737 873d 3535 313c 72b1 a6bd
000002d0: d750 dd3b a0a9 e63c e30e 3b3d 8cf3 cebd
000002e0: 42a7 033d cb4b 203d 6fd2 5fbc 6f75 403d
000002f0: a8b1 16bd 2cae a13c ef53 cd3d 9e3a 43bd
00000300: 84e3 81bd a021 2a3b 8427 ba3c 94d9 69bd
00000310: 1546 9c3c 4392 81bd f1cb 903c 4515 deb9
00000320: 3816 153d 21fc 453d fb22 d23d 342b d5bc
00000330: 2ca0 3bbd 55a8 ae3d 6104 593c 34b3 7fbd
00000340: d52a 9eba 9e75 92bd 0a41 fe3d 632d 03bd
00000350: d740 94bd d1d7 8c3d 1836 853b 844e f4b9
00000360: 61f4 3fbc f3ab d2bd 609a a1bd b3da a83c
00000370: bbb1 a7bd 7bc6 a0bd 5b94 973c cb24 debc
00000380: 9663 953c 5c32 b5bc 02e3 adbc 9763 86bc
00000390: 2e05 96bc a3ff 163d 4677 27bc 3233 603d
000003a0: 38e6 53bb ee20 b3bd ebe3 3c3d 069d f83d
000003b0: de10 41bc 4d2d b1bc a088 43bc 5626 993d
000003c0: 98d4 7a3d 7dec afbd 31db 4cbd 1704 edbc
000003d0: b3e2 59bd 6d81 cc3c c182 a5bd 642d 1d3c
000003e0: 92a4 aabd bd7d 42bd 907d 813d f5ab a43d
000003f0: 1a1f ed3c f5a1 cfbc 8ca5 8d3d 6dd1 713d

bias f4 [128]
-0.08618996 0.03868564 0.05964422 0.07926764 0.040107787 -0.04560954 0.07159692 -0.07618428
-0.08681428 0.013981885 -0.021312723 -0.022761552 -0.074234 -0.028772494 0.03479396 -0.03850451
-0.01405013 -0.025984105 -0.056900274 -0.009266839 0.05806044 0.07222215 0.056040768 -0.0607982
-0.04854658 0.0075256466 0.067161806 -0.05404713 0.012774804 -0.023385864 -0.017010037 0.026201272
0.07350092 0.04519668 -0.0045574727 0.06396337 0.009757092 -0.027938655 -0.03258037 0.027075754
-0.04093393 -0.021788491 -0.010943959 0.07003804 -0.053374067 -0.01582431 0.035977513 -0.042979427
0.03960564 -0.06498659 0.0754073 0.043288436 -0.06686313 0.06969998 -0.019017726 0.0583469
0.011466258 0.024208652 -0.059147242 0.08516246 -0.029921787 -0.058439746 -0.0035435376 0.032461163
0.056697607 -0.041665472 0.023443364 0.08139408 -0.06460424 0.023399843 0.033941507 -0.0016359324
0.0463132 0.017832404 0.07443728 0.0048012156 -0.018063294 0.0417133 -0.01081928 -0.07630278
0.035181575 -0.06676807 -0.03362855 0.057124745 -0.018239653 -0.040808026 0.0863078 0.03010601
-0.036105298 -0.055315066 0.07754489 0.029373981 0.08270376 -0.07600006 -0.05008443 -0.030724017
-0.046221986 -0.01842623 0.08782317 0.029007867 0.023285063 -0.019123182 0.081624694 0.008688763
-0.075662345 -0.002453948 0.02522677 0.0059299027 0.07183394 0.016782155 -0.0035631964 -0.06201345
0.0558504 -0.035047337 0.013369215 -0.056071773 0.009933654 -0.022904944 -0.025806045 -0.04896747
0.019588301 0.032251507 0.010359395 0.056881223 -0.03397362 -0.021368122 0.07390798 0.05451576
00000000: 5d84 b0bd d574 1e3d 7f4d 743d 1357 a23d
00000010: 1048 243d 12d1 3abd 68a1 923d 8106 9cbd
00000020: afcb b1bd 4714 653c 0598 aebc 6f76 babc
00000030: ff07 98bd 4bb4 ebbc 1d84 0e3d e8b6 1dbd
00000040: 8432 66bc 9edc d4bc 4310 69bd f1d3 17bc
00000050: c9d0 6d3d 35e9 933d 018b 653d 8907 79bd
00000060: c7d8 46bd b399 f63b 218c 893d 8660 5dbd
00000070: 694d 513c b693 bfbc a258 8bbc 0da4 d63c
00000080: a687 963d 2720 393d da56 95bb 3aff 823d
00000090: 36dc 1f3c 9bdf e4bc fe72 05bd f9cd dd3c
000000a0: 56aa 27bd c77d b2bc 4a4e 33bc 1b70 8f3d
000000b0: c49e 5abd fca1 81bc 285d 133d 320b 30bd
000000c0: 8639 223d b017 85bd 246f 9a3d 374f 313d
000000d0: 89ef 88bd ddbe 8e3d 10cb 9bbc 29fd 6e3d
000000e0: f9dc 3b3c 3951 c63c 6144 72bd a869 ae3d
000000f0: 891e f5bc 845e 6fbd b23a 68bb fff5 043d
00000100: c03b 683d 6aa9 2abd 4c0c c03c f0b1 a63d
00000110: 3a4f 84bd 07b1 bf3c 4006 0b3d c86c d6ba
00000120: e9b2 3d3d 4315 923c 9372 983d 8453 9d3b
00000130: 79f9 93bc 91db 2a3d 5943 31bc a244 9cbd
00000140: 8e1a 103d b3bd 88bd 17be 09bd a3fb 693d
00000150: 536b 95bc 5126 27bd 25c2 b03d e1a0 f63c
00000160: 26e3 13bd 0d92 62bd dbcf 9e3d b4a1 f03c
00000170: 9760 a93d eba5 9bbd 5525 4dbd efb0 fbbc
00000180: 4453 3dbd 9bf2 96bc a2dc b33d e8a1 ed3c
00000190: 51c0 be3c 38a8 9cbc d92a a73d 505b 0e3c
000001a0: dcf4 9abd 6ad2 20bb 5fa8 ce3c a14f c23b
000001b0: ac1d 933d bb7a 893c 8484 69bb d101 7ebd
000001c0: 64c3 643d cc8d 0fbd 8d0a 5b3c 84ab 65bd
000001d0: c4c0 223c 26a3 bbbc 3367 d3bc 1d92 48bd
000001e0: a577 a03c 281a 043d 74ba 293c 49fc 683d
000001f0: ec27 0bbd 330c afbc 115d 973d eb4b 5f3d

weight f4 [2, 128]
0.14042664 0.0005729728 0.104129575 -0.09239339 -0.119433545 0.017997153 -0.035408176 0.0022146539
0.088530324 -0.019337306 0.118469454 -0.018849552 -0.019859962 0.05339795 0.030981082 -0.03987673
-0.064831324 0.10445764 -0.0253868 -0.034084532 0.011820529 0.07634022 -0.09552384 -0.10468636
-0.021737782 0.15193039 -0.037944447 0.037471946 -0.08721771 -0.12634167 0.027982544 0.06781469
-0.060156934 -0.079675294 0.11084847 -0.111909285 -0.05321866 -0.09142978 -0.0162639 -0.05513435
-0.062113207 0.12295949 -0.00603917 0.06697656 -0.05197041 -0.02109645 -0.06569647 0.050114438
0.050485548 -0.0002798078 0.060629662 -0.10970271 -0.10437357 -0.06547141 0.068277545 -0.021322671
0.08768261 0.04125238 0.0008114299 0.016111266 0.111714125 0.083954126 -0.09097168 0.07946978
0.0016582715 0.009269718 -0.041568033 -0.043840166 0.01616931 -0.075066805 0.08949845 -0.034864668
0.14533374 -0.0144992 -0.030293407 0.06856641 0.061823316 -0.10760266 0.018841915 0.040142752
-0.030101655 -0.123422965 -0.11520871 -0.06559621 -0.021616906 -0.017325692 -0.048813462 -0.08074344
-0.06076912 -0.047134686 -0.09004744 0.034431435 0.09558677 0.10139097 0.120067105 0.13144617
-0.119535185 -0.13250056 -0.017387813 -0.12580225 -0.15206999 0.033167053 0.1094207 0.0462581
-0.103660874 0.085083984 0.031969197 -0.062765226 0.0058478815 -0.077518895 0.10028772 0.027303036
-0.046037614 -0.041630957 -0.089230455 0.018408492 -0.117720164 -0.116813846 0.09094731 -0.05923879
-0.13653809 -0.06560645 0.07339514 0.08040742 0.04080663 -0.01847244 -0.14182386 0.008406807
0.01857436 0.08346146 -0.013914419 -0.09712579 0.04954552 -0.09194 -0.09868746 -0.037847303
-0.023995226 -0.07905771 0.11943796 0.023830367 0.020732809 0.04291692 -0.053054694 -0.08406928
0.05272842 -0.082190216 0.022656152 0.16675466 0.09257369 0.090427354 -0.025148703 -0.030994209
0.053023737 -0.11468385 0.04540099 -0.07539255 0.032876518 0.06021039 -0.13781619 0.04294665
-0.040353984 -0.057194095 0.054764096 0.018590376 -0.061009355 -0.05235754 -0.11081329 0.09755133
0.09725193 -0.13858794 -0.08823126 -0.12001989 0.06793008 -0.093524985 -0.04086033 0.02403477
-0.005448522 0.07821182 0.045197304 0.118092604 0.08968455 0.1501598 -0.11842358 -0.024488134
-0.037572555 -0.047651403 -0.098485306 0.06934465 0.0037176555 0.09424856 -0.005590968 0.056276836
-0.044560112 0.063085385 0.11766598 0.13213694 -0.085894175 0.08139926 0.019871542 -0.02377349
-0.01091665 -0.10351677 0.11545131 -0.100946985 -0.100366294 -0.08234467 0.11021344 0.10109367
0.057654478 -0.029664049 -0.13600941 0.13486303 0.06841969 -0.07716183 0.09158089 -0.054476656
0.09877487 -0.0236613 0.11326682 0.044720158 0.06483651 -0.003704583 -0.14830907 0.08574956
0.1029774 -0.15497829 0.028442651 0.008363518 0.11353624 0.107738756 0.09012696 0.14450993
-0.051278878 -0.124098204 -0.11848798 -0.052402962 0.10292269 -0.07876631 -0.10358988 -0.08649347
-0.051509008 -0.01419068 0.00021161714 0.047237974 0.023826208 -0.076310925 0.007878216 -0.07219507
0.10367138 -0.061938286 0.1223191 -0.15559457 -0.045811057 -0.0883611 -0.024249613 0.13160394
00000000: 00cc 0f3e 8e33 163a e341 d53d bf38 bdbd
00000010: 9399 f4bd c46e 933c 2a08 11bd ba23 113b
00000020: 634f b53d 4569 9ebc 1da0 f23d 606a 9abc
00000030: 5cb1 a2bc cfb7 5a3d 0acc fd3c c855 23bd
00000040: 49c6 84bd e3ed d53d faf7 cfbc 399c 0bbd
00000050: e4aa 413c 4358 9c3d 01a2 c3bd cd65 d6bd
00000060: 6f13 b2bc a493 1b3e a36b 1bbd 2f7c 193d
00000070: 339f b2bd b65f 01be a63b e53c 6ee2 8a3d
00000080: 1e67 76bd cd2c a3bd 8604 e33d b230 e5bd
00000090: cffb 59bd 893f bbbd df3b 85bc 8ed4 61bd
000000a0: 6b6a 7ebd 2fd2 fb3d 3be4 c5bb 022b 893d
000000b0: edde 54bd 76d2 acbc df8b 86bd cc44 4d3d
000000c0: efc9 4e3d 2bb3 92b9 cf56 783d d0ab e0bd
000000d0: cfc1 d5bd e015 86bd 19d5 8b3d e2ac aebc
000000e0: f192 b33d 41f8 283d 24b6 543a c6fb 833c
000000f0: 60ca e43d 24f0 ab3d 5c4f babd 0dc1 a23d
00000100: 5c5a d93a 04e0 173c 3e43 2abd bf91 33bd
00000110: 8075 843c a0bc 99bd f74a b73d 41ce 0ebd
00000120: 5ed2 143e 0d8e 6dbc e129 f8bc 8c6c 8c3d
00000130: 723a 7d3d c95e dcbd 5c5a 9a3c ba6c 243d
00000140: bf97 f6bc 2ec5 fcbd 8bf2 ebbd 4e57 86bd
00000150: f015 b1bc 9cee 8dbc a0f0 47bd d15c a5bd
00000160: 0ae9 78bd 4d10 41bd cb6a b8bd fa07 0d3d
00000170: ffc2 c33d 12a6 cf3d bee5 f53d d399 063e
00000180: ddce f4bd 3aae 07be e370 8ebc 4ed2 00be
00000190: 3cb8 1bbe 2dda 073d f617 e03d 2279 3d3d
000001a0: 274c d4bd 8340 ae3d 22f2 023d 0e8b 80bd
000001b0: 969f bf3b 3ac2 9ebd a663 cd3d 9eaa df3c
000001c0: f091 3cbd 3985 2abd 75be b6bd 68cd 963c
000001d0: 4517 f1bd 193c efbd 9542 ba3d 60a4 72bd
000001e0: a4d0 0bbe ad5c 86bd 3150 963d a5ac a43d
000001f0: da24 273d 8453 97bc 463a 11be b4bc 093c
00000200: 4229 983c d8ed aa3d 4ef9 63bc e3e9 c6bd
00000210: 3ef0 4a3d 0a4b bcbd a71c cabd c605 1bbd
00000220: a391 c4bc 02e9 a1bd e49b f43d e737 c33c
00000230: dad7 a93c a7c9 2f3d e14f 59bd 842c acbd
00000240: c1f9 573d 5853 a8bd 6599 b93c bcc1 2a3e
00000250: 4697 bd3d fa31 b93d a704 cebc 91e7 fdbc
00000260: 6b2f 593d 5edf eabd 63f6 393d 6967 9abd
00000270: 87a9 063d 2b9f 763d b01f 0dbe d4e8 2f3d
00000280: 384a 25bd 5b44 6abd 5150 603d d84a 983c
00000290: f2e4 79bd dc74 56bd 14f2 e2bd fec8 c73d
000002a0: 052c c73d ffe9 0dbe 97b2 b4bd fdcc f5bd
000002b0: ed1e 8b3d 078a bfbd 295d 27bd 91e4 c43c
000002c0: 8489 b2bb 852d a03d cf20 393d 89da f13d
000002d0: 89ac b73d 7ec3 193e 1088 f2bd 579b c8bc
000002e0: aee5 19bd 1e2e 43bd aab2 c9bd 9104 8e3d
000002f0: e9a3 733b 6405 c13d 7034 b7bb 8a82 663d
00000300: aa84 36bd e932 813d dcfa f03d e84e 073e
00000310: 49e9 afbd a8b4 a63d a5c9 a23c 9fc0 c2bc
00000320: c0db 32bc 9a00 d4bd bd71 ec3d 4bbd cebd
00000330: d88c cdbd 53a4 a8bd 96b7 e13d 330a cf3d
00000340: 1a27 6c3d 0502 f3bc 0d46 0bbe 8919 0a3e
00000350: 9f1f 8c3d 0607 9ebd c38e bb3d ea22 5fbd
00000360: 7b4a ca3d 58d5 c1bc 6ff8 e73d 7c2c 373d
00000370: 01c9 843d 97c8 72bb 55de 17be 779d af3d
00000380: d1e5 d23d a1b2 1ebe 9000 e93c 2307 093c
00000390: b085 e83d 23a6 dc3d 7c94 b83d 69fa 133e
000003a0: cd09 52bd 3327 febd d3a9 f2bd 7da4 56bd
000003b0: 22c9 d23d 3b50 a1bd ee26 d4bd 7d23 b1bd
000003c0: 1cfb 52bd 0780 68bc 8be5 5d39 9b7c 413d
000003d0: 2e2f c33c e748 9cbd a213 013c 02db 93bd
000003e0: a951 d43d 00b3 7dbd 7082 fa3d 2f54 1fbe
000003f0: 60a4 3bbd aaf6 b4bd 20a7 c6bc 2fc3 063e

bias f4 [2]
0.014196468 0.05551273
00000000: 4d98 683c 5161 633d
