clone_data/marigold_episodes/marigold_clone_200ep_100trn_1000_expert_runs/marigold_clone_200ep_100trn_1000_expert_runs_s0/pyt_save/model.pt (torch, 104138 bytes, 9 tensors)

log_std f4 [2]
-0.5 -0.5
00000000: 0000 00bf 0000 00bf

weight f4 [128, 60]
0.010294045 -0.0045458027 0.06988459 -0.07460442 0.2717164 -0.00480914 0.13926376 -0.25922167
-0.1647487 -0.31627494 -0.09341789 0.020992983 0.32634574 0.36376122 0.35193306 -0.3898375
-0.82690096 -0.041655667 -0.20419067 0.10139977 0.07661301 0.057286114 -0.114239044 0.09091497
0.0644571 0.013696617 -0.036337063 -0.10648577 0.0014999493 -0.1433313 -0.03606067 -0.120844066
-0.22960025 -0.021369552 0.122845545 -0.19954959 -0.039888237 -0.039631613 -0.1657835 -0.04839277
-0.012182223 -0.025964113 -0.005218809 0.1227533 -0.057429943 -0.1898723 -0.15925999 -0.030098561
0.17383742 0.22592872 0.07881817 -0.07244035 0.1137326 -0.0069892886 0.040877197 -0.05994523
-0.168155 0.093543 0.07766127 0.0027830857 0.015875943 -0.08252708 -0.017421238 0.039393056
-0.08679032 0.022387635 0.3178649 -0.12910967 0.29913947 -0.13074519 -0.11555224 0.21684146
0.41511777 -0.027687898 -0.19161016 -0.37918067 -0.4844029 -0.16601251 0.07908465 -0.068543315
0.1054068 0.04762963 0.03496319 -0.12986158 0.25406748 -0.011279662 -0.017328076 0.009592421
0.13139598 0.16336428 0.12562156 -0.005375931 -0.01006592 -0.050950468 -0.13927858 -0.09304477
-0.06206142 -0.05760764 -0.07980358 -0.01945966 -0.07312705 0.059784666 -0.0070644347 -0.16221943
-0.31955758 0.056680907 0.03610669 -0.2853673 -0.07881464 -0.27515256 0.026028598 -0.24298097
-0.14589863 0.17013323 0.053912237 -0.06007592 0.07374375 -0.09047792 -0.14881212 -0.0081488965
-0.21886058 -0.06862048 -0.04660676 -0.153449 0.07526856 -0.7805594 0.04624869 -0.018578025
-0.050316703 -0.053065717 -0.012532165 0.14457032 0.27973205 0.5228914 0.2558213 -0.23662098
-0.012595375 -0.3077021 -0.47994125 0.12656395 0.006122422 0.059757598 -0.08686972 -0.01081339
0.09557201 -0.08384165 -0.012555666 0.05408734 0.022352323 -0.01868607 0.23950267 0.112044886
-0.10085994 0.026919317 -0.07208277 0.0063939374 0.10267666 -0.06381814 -0.108944274 -0.17361355
0.059726898 0.40086773 -0.2579144 -0.12562174 -0.019631403 0.11508151 0.3859603 -0.101892985
-0.028073667 0.025402986 -0.07065899 0.12615627 0.20720428 0.07714404 -0.25481892 0.014169935
-0.005888816 0.13375165 0.06884034 0.016538674 0.22424224 -0.06554746 -0.04091365 -0.1263938
-0.11717301 -0.055296972 -0.008076656 0.5183833 0.04052316 0.106464066 -0.020359429 -0.15585032
-0.1403526 -0.3490184 -0.02844812 0.7358146 0.42051548 -0.013787893 0.12271269 -0.12155607
0.115243636 0.047395237 0.09571083 -0.050986405 0.036267575 0.02170483 0.008227163 0.030254073
0.08653988 -0.01896669 -0.032365512 0.13850419 0.1376635 0.043495793 0.03140554 -0.04028734
0.07878678 0.025378982 -0.07677622 0.21040848 -0.09008858 -0.15877499 0.21475144 0.042850405
0.10333279 -0.01666771 -0.113458164 0.21946819 0.16740394 -0.006354115 -0.006552508 -0.1590926
0.16885026 0.03119221 -0.008299082 0.13734867 -0.20782399 -0.3499649 0.12501688 -0.07591422
-0.15389594 -0.07382607 0.030547298 -0.344172 -0.5434804 0.13001795 0.097570054 0.35442802
0.22405359 -0.03959322 0.2268418 -0.028482147 -0.24536556 -0.03921591 0.0053071845 0.31470916
00000000: 5ba8 283c f5f4 94bb a71f 8f3d 34ca 98bd
00000010: 691e 8b3e fe95 9dbb 299b 0e3e b4b8 84be
00000020: e2b3 28be caee a1be e151 bfbd 7af9 ab3c
00000030: ca16 a73e e93e ba3e 9230 b43e c898 c7be
00000040: c8af 53bf 229f 2abd 5c17 51be afaa cf3d
00000050: 48e7 9c3d d8a4 6a3d 29f6 e9bd a131 ba3d
00000060: 1602 843d c767 603c 2cd6 14bd 3615 dabd
00000070: f299 c43a 71c5 12be 5ab4 13bd 187d f7bd
00000080: 541c 6bbe 330f afbc 7296 fb3d ba56 4cbe
00000090: d961 23bd c254 22bd 26c3 29be 7f37 46bd
000000a0: f297 47bc b1b2 d4bc 8b02 abbb 1566 fb3d
000000b0: a93b 6bbd e26d 42be 0d15 23be 4291 f6bc
000000c0: 7002 323e dc59 673e 6c6b a13d 9b5b 94bd
000000d0: a3ec e83d 6706 e5bb d96e 273d 2189 75bd
000000e0: d330 2cbe 7993 bf3d df0c 9f3d 6e64 363b
000000f0: 440e 823c f503 a9bd fcb6 8ebc 9d5a 213d
00000100: 20bf b1bd 4666 b73c 30bf a23e 5335 04be
00000110: cf28 993e 11e2 05be a7a6 ecbd b00b 5e3e
00000120: 518a d43e bbd1 e2bc 7435 44be f823 c2be
00000130: a803 f8be 2fff 29be 22f7 a13d 7060 8cbd
00000140: 85df d73d 4917 433d 9035 0f3d 6ffa 04be
00000150: 2215 823e 55ce 38bc 9cf3 8dbc 8829 1d3c
00000160: ab8c 063e f748 273e f0a2 003e 9428 b0bb
00000170: 87eb 24bc 70b1 50bd 0b9f 0ebe 428e bebd
00000180: 1e34 7ebd fdf5 6bbd 0f70 a3bd dd69 9fbc
00000190: a3c3 95bd c4e0 743d c67c e7bb da1c 26be
000001a0: 0d9d a3be 3d2a 683d 9ce4 133d aa1b 92be
000001b0: 9269 a1bd cce0 8cbe ed39 d53c 01d0 78be
000001c0: 7366 15be 6837 2e3e 14d3 5c3d 2b12 76bd
000001d0: f706 973d 7d4c b9bd 3462 18be f382 05bc
000001e0: fd1c 60be e588 8cbd bbe6 3ebd bc21 1dbe
000001f0: 6726 9a3d bed2 47bf 446f 3d3d f130 98bc
00000200: e318 4ebd 705b 59bd b653 4dbc 3e0a 143e
00000210: 0a39 8f3e 36dc 053f 02fb 823e c54c 72be
00000220: d55c 4ebc 218b 9dbe dcba f5be fb99 013e
00000230: 999e c83b 62c4 743d c0e8 b1bd a52a 31bc
00000240: 42bb c33d 2cb5 abbd 48b6 4dbc b08a 5d3d
00000250: 381c b73c 8713 99bc 3040 753e ca77 e53d
00000260: a88f cebd e685 dc3c 22a0 93bd 3c84 d13b
00000270: 2448 d23d 16b3 82bd 2d1e dfbd c0c7 31be
00000280: 31a4 743d 893e cd3e 5b0d 84be fca2 00be
00000290: 09d2 a0bc dbaf eb3d 979c c53e 45ad d0bd
000002a0: bffa e5bc ec19 d03c a9b5 90bd 1c2f 013e
000002b0: 5c2d 543e b2fd 9d3d a077 82be 0429 683c
000002c0: f8f6 c0bb 31f6 083e 2afc 8c3d 1d7c 873c
000002d0: c29f 653e bf3d 86bd 1295 27bd 606d 01be
000002e0: 67f8 efbd 147f 62bd f353 04bc c5b4 043f
000002f0: 9dfb 253d d509 da3d d1c8 a6bc 3a97 1fbe
00000300: 98b8 0fbe 8ab2 b2be 080c e9bc 585e 3c3f
00000310: ce4d d73e 9de6 61bc ca50 fb3d 64f2 f8bd
00000320: db04 ec3d 8221 423d 0a04 c43d 1fd7 50bd
00000330: 4f8d 143d 54ce b13c 39cb 063c 64d7 f73c
00000340: d23b b13d 0860 9bbc b391 04bd 0bd4 0d3e
00000350: a9f7 0c3e a528 323d 18a3 003d 5604 25bd
00000360: f75a a13d 95e7 cf3c da3c 9dbd 5275 573e
00000370: 5d80 b8bd e995 22be cde7 5b3e e883 2f3d
00000380: 24a0 d33d b98a 88bc c15c e8bd 45bc 603e
00000390: f06b 2b3e 2e36 d0bb 6cb6 d6bb 2ce9 22be
000003a0: 15e7 2c3e ce86 ff3c dff8 07bc 21a5 0c3e
000003b0: d0cf 54be 992e b3be 6d04 003e ea78 9bbd
000003c0: e696 1dbe 1f32 97bd 543e fa3c 5037 b0be
000003d0: 8821 0bbf 6d23 053e cfd2 c73d 9777 b53e
000003e0: 4e6e 653e 802c 22bd 3849 683e 6453 e9bc
000003f0: 1c41 7bbe dda0 20bd e4e7 ad3b 8f21 a13e

bias f4 [128]
-0.041495364 -0.06441209 -0.045452345 0.0413717 -0.034399506 0.08189488 0.03187971 0.057530228
0.05660796 -0.052405115 -0.09382974 0.103584155 -0.10184578 0.1029289 -0.033482544 0.0719013
0.013729905 -0.01601018 0.12592472 -0.046467192 -0.002154381 0.07480317 0.025015768 -0.08294868
-0.041213777 0.054155968 0.085926756 -0.075035304 0.041843086 0.013172681 0.051039938 -0.04862521
0.060178895 -0.12408367 -0.0029886665 -0.09302931 0.010278026 -0.02863265 -0.038825016 0.08419725
0.034895852 0.1475464 -0.17267524 -0.036129825 0.07024784 -0.024520542 0.06379604 -0.11678564
0.11375228 0.06516227 0.090344064 0.14505734 0.033211827 0.09858687 -0.08326042 0.032744862
0.15814388 -0.10706629 0.04023798 0.0066707423 0.0066932216 0.11621388 -0.0020724314 0.0135732535
-0.060620196 -0.07703424 -0.05008698 -0.08573991 -0.074825644 0.008521904 0.06843029 0.03732059
0.087182336 -0.037332002 0.08751153 -0.15606259 0.056392718 -0.08906596 0.16269606 -0.07230593
-0.02833054 0.05380899 -0.02062504 -0.122670755 0.10216374 -0.011553754 -0.12269584 -0.04955405
-0.054827645 0.03711143 -0.10504066 0.048297536 0.11405373 -0.11189801 0.060383808 -0.10203509
0.0008162477 0.059987415 -0.032929398 -0.057481576 0.07465404 -0.12614791 -0.04802719 0.0062915413
-0.016492493 -0.09027347 0.06590354 0.038787145 -0.07100324 -0.08437074 -0.08374196 0.038717546
-0.0702842 -0.028651215 -0.0424499 0.05181754 -0.15813415 -0.0681437 -0.14160313 -0.05538171
-0.12624194 0.026877005 0.029569125 -0.06383806 0.0086628385 -0.0036704885 -0.05066851 0.13417885
00000000: 0bf7 29bd 7cea 83bd 3d2c 3abd 5f75 293d
00000010: 7fe6 0cbd 81b8 a73d 4c94 023d d1a4 6b3d
00000020: c0dd 673d bfa6 56bd cf29 c0bd ee23 d43d
00000030: 8594 d0bd 63cc d23d fe24 09bd fd40 933d
00000040: 65f3 603c c827 83bc 69f2 003e 6254 3ebd
00000050: 8430 0dbb 6832 993d deed cc3c ffe0 a9bd
00000060: c7cf 28bd a6d2 5d3d 5efa af3d 1cac 99bd
00000070: a863 2b3d 3bd2 573c 410f 513d 3a2b 47bd
00000080: 257e 763d 941f febd 81dd 43bb 2786 bebd
00000090: 2a65 283c 058f eabc fb06 1fbd 9c6f ac3d
000000a0: f4ee 0e3d 6716 173e c7d1 30be defc 13bd
000000b0: 19de 8f3d 4edf c8bc 80a7 823d 4f2d efbd
000000c0: f5f6 e83d cc73 853d 4f06 b93d e989 143e
000000d0: 2009 083d eae7 c93d 7084 aabd 7a1f 063d
000000e0: 78f0 213e 9245 dbbd 95d0 243d 3e96 da3b
000000f0: d052 db3b 8b01 ee3d a1d1 07bb 5a62 5e3c
00000100: e24c 78bd 21c4 9dbd 0128 4dbd 6898 afbd
00000110: 303e 99bd 759f 0b3c 2e25 8c3d 7add 183d
00000120: a78c b23d 71e9 18bd 3f39 b33d dfce 1fbe
00000130: 0dfc 663d 3768 b6bd cc99 263e 2215 94bd
00000140: 7315 e8bc d166 5c3d d8f5 a8bc ce3a fbbd
00000150: 393b d13d f54b 3dbc f547 fbbd 30f9 4abd
00000160: f492 60bd 2802 183d 8f1f d7bd a3d3 453d
00000170: 0195 e93d c92a e5bd 0355 773d c6f7 d0bd
00000180: 75f9 553a 5db5 753d fae0 06bd cd71 6bbd
00000190: 38e4 983d eb2c 01be 29b8 44bd 4629 ce3b
000001a0: 441b 87bc 4ce1 b8bd 6ff8 863d 45df 1e3d
000001b0: 266a 91bd 91ca acbd e880 abbd 4a96 1e3d
000001c0: 2af1 8fbd f4b5 eabc f2df 2dbd a13e 543d
000001d0: ebed 21be ed8e 8bbd 6900 11be efd7 62bd
000001e0: 9145 01be 2a2d dc3c f33a f23c 87bd 82bd
000001f0: 94ee 0d3c 948c 70bb c989 4fbd 2e66 093e

weight f4 [128, 128]
-0.08466531 0.0075927638 -0.34364957 0.05218863 0.031288758 0.071366504 -0.06276359 0.034514852
-0.003536048 0.07593566 0.061446648 0.0034587628 0.1448704 -0.01274652 -0.074604906 0.039379265
-0.1511889 -0.30870402 -0.13206919 0.029843047 -0.004553722 0.038360234 -0.004441755 -0.1733531
0.023044497 -0.054129895 0.08347117 -0.1879727 -0.052748077 -0.033276808 -0.10123982 -0.10723669
-0.024331255 -0.100250475 0.02705954 -0.03811504 0.1174278 0.008422379 0.00676145 -0.048601322
-0.06608067 -0.07552548 -0.14226125 -0.04935749 -0.05378743 -0.0023035754 -0.009821114 0.013378923
-0.09672832 -0.043911494 0.028117709 0.048409894 0.016315887 -0.02131132 0.036627207 -0.03854842
-0.10181282 0.02014665 0.21622594 0.13538165 -0.033688024 0.040785313 0.059785802 0.15801369
-0.16519889 -0.025106529 0.025780225 -0.04346686 -0.026831074 0.010974031 0.003471138 0.010405731
-0.0050830008 0.19105528 0.17739631 -0.01587791 0.05478039 0.08995305 -0.003574092 -0.03197228
0.056138292 -0.25657564 -0.048337057 0.09322178 0.059923496 -0.05425255 -0.06355374 -0.22448467
0.052980017 0.110769086 -0.022088766 -0.09609068 -0.14021476 0.080831185 -0.019477202 -0.058488883
0.015393022 -0.17933223 0.07420599 -0.19695303 -0.03934709 0.06551997 0.048051752 -0.017927565
0.00062871445 0.13716242 -0.052598465 0.08245826 -0.017071731 0.0040588034 0.03459125 0.059431933
-0.12673916 -0.058299102 0.047487024 0.1706727 -0.017088212 -0.09804029 0.0115111265 0.120354444
-0.03848101 0.06435831 -0.21605946 -0.017533086 0.0093367575 0.060541037 -0.049583063 0.033459008
-0.06437653 -0.09674695 -0.34416178 0.05941564 -0.017580878 0.044807736 0.03229327 -0.044946976
0.035349414 -0.015302816 -0.14802678 0.12728801 -0.07099738 -0.2055971 -0.002983584 -0.038750667
0.111153714 -0.23240858 -0.07489722 -0.11683482 -0.050747573 -0.10432897 0.13931888 0.026412666
0.055763293 -0.1438605 0.13023593 0.06478747 -0.05880581 0.011273174 -0.0977716 0.11151841
-0.005769817 0.033676673 -0.00068718934 -0.195658 0.039336022 0.08326346 -0.06901024 -0.11852013
0.1321804 0.062164124 0.032413498 0.0010410278 0.10870719 0.02451824 0.13829559 -0.29586586
0.08519077 -0.052327495 -0.026298111 -0.10906195 -0.053901743 -0.11231573 0.13551345 0.099467196
-0.0316978 -0.033927914 0.010464204 0.15232076 0.087519765 -0.13964972 -0.033816807 -0.06473363
-0.2804443 -0.091519795 -0.03107459 -0.085514784 -0.060217448 -0.1096447 -0.012774573 0.10565701
-0.09025392 0.045562595 0.019271757 -0.1275655 -0.12351725 0.04296727 0.024781303 -0.03227637
0.00952886 -0.16704686 0.054763835 0.04542144 0.11681665 0.0072759814 0.08148217 0.07564033
0.1374025 0.12670873 0.062470324 -0.010937857 -0.045409605 -0.16399914 0.03825667 -0.04372212
0.07866064 -0.010161579 0.0074051134 -0.21982954 0.08534537 0.07483523 -0.06872403 -0.077551164
0.0117265815 0.065859094 0.044613995 0.0014705068 -0.02732376 0.031247212 -0.1439761 -0.05075201
-0.076372795 -0.055880632 -0.10085526 0.05761855 -0.13387144 0.07888296 -0.0030458744 0.15681317
0.053848535 0.034158334 -0.059681766 0.11407022 0.06701995 -0.22527881 0.061270755 -0.16593356
00000000: 0265 adbd b8cc f83b d6f2 afbe bfc3 553d
00000010: a428 003d 9a28 923d 328a 80bd 725f 0d3d
00000020: 0bbd 67bb 2884 9b3d 7baf 7b3d 69ac 623b
00000030: e858 143e c8d6 50bc 75ca 98bd 274c 213d
00000040: 43d1 1abe 740e 9ebe 253d 07be 6879 f43c
00000050: 6437 95bb 9f1f 1d3d 248c 91bb 7a83 31be
00000060: d0c7 bc3c 4fb7 5dbd eff2 aa3d ea7b 40be
00000070: 5e0e 58bd 434d 08bd d356 cfbd e99e dbbd
00000080: 5752 c7bc 1f50 cdbd f8ab dd3c 841e 1cbd
00000090: fd7d f03d 05fe 093c 278f dd3b 2e12 47bd
000000a0: 4d55 87bd 1aad 9abd efac 11be 142b 4abd
000000b0: 3550 5cbd 95f7 16bb bde8 20bc 4533 5b3c
000000c0: 7f19 c6bd 8adc 33bd 1c57 e63c 7449 463d
000000d0: e5a8 853c 1495 aebc 6906 163d f3e4 1dbd
000000e0: 3d83 d0bd 960a a53c 556a 5d3e 7da1 0a3e
000000f0: 74fc 09bd 800e 273d f5e1 743d 57ce 213e
00000100: e629 29be 35ac cdbc 0d31 d33c 4e0a 32bd
00000110: d7cc dbbc 6ccc 333c 087c 633b cd7c 2a3c
00000120: 4d8f a6bb ffa3 433e 61a7 353e 6412 82bc
00000130: 6761 603d 4e39 b83d 503b 6abb 5ef5 02bd
00000140: 44f1 653d e25d 83be 14fd 45bd 10eb be3d
00000150: 5772 753d ec37 5ebd 7728 82bd 4fdf 65be
00000160: 9301 593d e7da e23d 80f3 b4bc 31cb c4bd
00000170: 7594 0fbe d28a a53d a78e 9fbc 0a92 6fbd
00000180: 0433 7c3c dea2 37be 4ff9 973d 0eae 49be
00000190: 6a2a 21bd 562f 863d ead1 443d d4dc 92bc
000001a0: 50d0 243a 4e74 0c3e 7d71 57bd e0df a83d
000001b0: 04da 8bbc b6ff 843b 8eaf 0d3d e66e 733d
000001c0: e9c7 01be 0acb 6ebd c181 423d d3c4 2e3e
000001d0: 94fc 8bbc 59c9 c8bd 2a99 3c3c 647c f63d
000001e0: 439e 1dbd 4ace 833d b13e 5dbe 8ca1 8fbc
000001f0: 33f9 183c e1f9 773d 9c17 4bbd 500c 093d
00000200: d8d7 83bd 4423 c6bd f935 b0be d05d 733d
00000210: c605 90bc 5188 373d f345 043d 521a 38bd
00000220: 8cca 103d aab8 7abc 5594 17be ca57 023e
00000230: 1367 91bd 0c88 52be 3c88 43bb 05b9 1ebd
00000240: 8fa4 e33d 84fc 6dbe b763 99bd 1847 efbd
00000250: b0dc 4fbd 6daa d5bd 9ca9 0e3e 605f d83c
00000260: 0d68 643d 2b50 13be 915c 053e 4baf 843d
00000270: 5cde 70bd 1eb3 383c 7a3c c8bd c463 e43d
00000280: bc10 bdbb 8df0 093d 7f24 34ba 925a 48be
00000290: cf1e 213d 0886 aa3d 3e55 8dbd afba f2bd
000002a0: 4c5a 073e cf9f 7e3d 04c4 043d 1973 883a
000002b0: e0a1 de3d 7ada c83c 5c9d 0d3e bb7b 97be
000002c0: 8078 ae3d 5b55 56bd 236f d7bc df5b dfbd
000002d0: 13c8 5cbd ca05 e6bd 0ac4 0a3e 75b5 cb3d
000002e0: 8dd5 01bd fff7 0abd 0d72 2b3c f9f9 1b3e
000002f0: 903d b33d 5600 0fbe 7e83 0abd 1193 84bd
00000300: 6596 8fbe bb6e bbbd 2390 febc 6022 afbd
00000310: 92a6 76bd 678d e0bd 714c 51bc b462 d83d
00000320: 0cd7 b8bd d89f 3a3d cedf 9d3c 88a0 02be
00000330: 9df6 fcbd 73fe 2f3d 2902 cb3c 3a34 04bd
00000340: f01e 1c3c 550e 2bbe 0b50 603d d50b 3a3d
00000350: 913d ef3d 5b6b ee3b 20e0 a63d 51e9 9a3d
00000360: 3eb3 0c3e efbf 013e e2e0 7f3d b334 33bc
00000370: 6cff 39bd 64ef 27be 07b3 1c3d f715 33bd
00000380: d418 a13d c07c 26bc 98a6 f23b ff1a 61be
00000390: 8ec9 ae3d 3743 993d 2fbf 8cbd 25d3 9ebd
000003a0: d920 403c 22e1 863d 2abd 363d 05be c03a
000003b0: 14d6 dfbc 27fa ff3c 796e 13be 57e1 4fbd
000003c0: 5769 9cbd 17e3 64bd 348d cebd 6e01 6c3d
000003d0: 9815 09be 648d a13d 4b9d 47bb a293 203e
000003e0: 4890 5c3d 9ce9 0b3d de74 74bd a69d e93d
000003f0: c141 893d 7daf 66be 0bf7 7a3d 7dea 29be

bias f4 [128]
0.090545006 0.0009044034 0.06251916 -0.010246208 -0.1024824 -0.07092816 0.042804223 0.048883352
0.07108762 0.105922565 -0.11585169 -0.0016676158 -0.027755657 0.06764739 0.055218704 -0.05974074
0.073003 0.008019244 -0.041346595 0.057647 0.08314783 -0.019694677 -0.0187053 0.0006022941
0.08146333 -0.02318229 0.019319784 0.08568637 -0.020552125 0.04449592 -0.074256144 0.06251392
-0.03136681 -0.07765235 0.058956392 0.014588447 -0.105532706 -0.041983627 0.036412694 0.052507468
0.08258236 0.02805565 -0.036657512 -0.016833011 0.037055403 0.071427405 0.073340036 0.00086111965
-0.0066109104 -0.014341832 -0.03483687 -0.02422311 0.067810796 -0.03653548 -0.05094132 0.07875715
-0.010564994 0.0130643835 -0.03984267 0.09868592 -0.019798622 -0.030552546 0.03754181 0.059796195
0.034065906 0.033802036 0.08286273 -0.049706068 0.022212498 -0.019476099 0.04250031 0.0040126634
-0.059064694 -0.06034897 0.05901294 -0.003146049 0.08541693 -0.06796602 -0.080702424 0.03166288
0.03639038 -0.013860859 0.00947739 0.03699798 0.064676054 0.034785073 0.02901611 0.043712642
-0.04361135 0.12284023 -0.015041538 0.036188714 -0.01788931 0.00914046 -0.06511117 -0.03216771
0.07120009 0.037690844 -0.06355607 -0.01051323 0.082224116 0.10755914 0.0025309976 0.065733105
0.034893714 0.024914883 0.003279976 0.009725717 -0.05056211 -0.046015516 0.02658797 -0.058536306
0.09981082 0.08808694 -0.06263362 0.008546805 -0.024448555 0.08621031 -0.026908146 0.039682176
-0.042800024 0.050537437 0.03228672 0.0017512769 -0.0864122 -0.012447727 -0.052626025 -0.0071288203
00000000: a96f b93d 7c15 6d3a 0c0a 803d b6df 27bc
00000010: 4be2 d1bd c842 91bd 7b53 2f3d e939 483d
00000020: 6396 913d eeed d83d a743 edbd e793 daba
00000030: d55f e3bc b78a 8a3d 022d 623d b5b2 74bd
00000040: 9982 953d 2663 033c 0c5b 29bd 431f 6c3d
00000050: 6949 aa3d bb56 a1bc db3b 99bc 46e3 1d3a
00000060: 3fd6 a63d c9e8 bdbc 8644 9e3c 567c af3d
00000070: ee5c a8bc 5b41 363d 9b13 98bd 4c07 803d
00000080: 7c7a 00bd 3208 9fbd 427c 713d 6204 6f3c
00000090: 8821 d8bd 06f7 2bbd 7a25 153d 1212 573d
000000a0: f120 a93d f6d4 e53c 3026 16bd 62e5 89bc
000000b0: 68c7 173d 8848 923d 4d33 963d c3bc 613a
000000c0: 56a0 d8bb 01fa 6abc 1bb1 0ebd 8b6f c6bc
000000d0: 63e0 8a3d 3aa6 15bd d8a7 50bd 6e4b a13d
000000e0: cc18 2dbc ff0b 563c 1132 23bd d81b ca3d
000000f0: b830 a2bc 5549 fabc 71c5 193d dbec 743d
00000100: b188 0b3d 0174 0a3d efb3 a93d 9798 4bbd
00000110: fcf6 b53c 578c 9fbc ce14 2e3d a97c 833b
00000120: d2ed 71bd 7b30 77bd 8db7 713d f22d 4ebb
00000130: 12ef ae3d c531 8bbd 5047 a5bd f0b0 013d
00000140: 140e 153d a818 63bc 0e47 1b3c 328b 173d
00000150: e174 843d cb7a 0e3d 31b3 ed3c 070c 333d
00000160: d1a1 32bd a993 fb3d c870 76bc 9e3a 143d
00000170: 9a8c 92bc dec1 153c 0159 85bd 4ac2 03bd
00000180: 5ad1 913d b761 1a3d af29 82bd af3f 2cbc
00000190: 1e65 a83d f747 dc3d 18df 253b 149f 863d
000001a0: b6ec 0e3d 4c1a cc3c def4 563b 9d58 1f3c
000001b0: 371a 4fbd c47a 3cbd 04cf d93c c4c3 6fbd
000001c0: 9d69 cc3d ed66 b43d 0e46 80bd e607 0c3c
000001d0: 5648 c8bc 088f b03d 796e dcbc c789 223d
000001e0: 144f 2fbd 5800 4f3d 143f 043d 1a8b e53a
000001f0: e1f8 b0bd 8df1 4bbc 638e 57bd e198 e9bb

weight f4 [2, 128]
0.045929283 0.024474038 0.07847926 0.0053697247 -0.0010556314 -0.022923583 0.08282499 -0.027144108
-0.065056495 -0.11185085 -0.004385875 -0.09011709 -0.0064353817 -0.052982032 -0.045765694 -0.17195971
-0.062759005 0.10322725 0.045210004 0.045742538 -0.0121866 -0.07349854 0.0960646 -0.059221562
-0.020411795 0.060261674 -0.16437353 0.06773007 0.089063406 -0.00039898118 -0.099987745 0.046816695
0.06184483 0.01027893 0.079089746 -0.22189677 0.24760248 0.015465132 0.020497302 0.1100503
-0.07579882 -0.011547529 -0.01915408 0.19412072 -0.036008783 -0.09378455 0.10551132 0.02369148
-0.054012097 -0.007363451 0.09878967 -0.08676011 -0.07808737 0.058291994 -0.012238814 -0.090123616
-0.06610037 0.08367341 -0.042225707 0.07844744 -0.0107037425 0.008175558 -0.028648127 0.0056283013
0.12975651 -9.562395e-05 0.04570753 0.0004588427 -0.020353554 -0.0011467676 0.06807085 0.019464519
0.008514467 -0.008623061 0.09052986 -0.007896752 0.08188883 0.021189358 0.010460279 -0.09673027
-0.06448238 -0.060914792 -0.013370612 -0.025933057 0.1407008 -0.1305981 0.08532311 -0.025420846
-7.1906885e-05 0.16897146 -0.14895916 -0.07127168 0.059602827 -0.08899218 -0.09169957 0.0908616
0.05783198 0.08690623 0.06762616 0.066583 0.17327942 -0.09457125 0.023680711 0.07341371
0.04406815 -0.006966134 0.048512705 0.03214641 -0.014075232 -0.038867436 -0.05717926 0.029242042
0.1067582 0.14085586 0.031922568 0.045901068 -0.11222773 0.003358629 -0.054529067 -0.062818296
0.00088015624 0.025100034 -0.054616105 0.067296185 0.019457277 0.07764748 0.0012727631 0.0047190487
-0.07663379 -0.18706112 -0.084120624 -0.0052726935 -0.1134242 -0.007019734 -0.019085368 -0.034024246
-0.07430688 -0.034654904 0.0032216893 -0.08989327 0.005164982 0.078523465 -0.003448599 0.02648962
-0.11079118 0.14337517 0.037551902 0.0020128242 -0.051237434 -0.06587891 0.05046383 -0.009864414
0.13753732 -0.13861114 0.1136458 -0.1057861 0.028980069 -0.17794113 -0.06930427 -0.013370655
-0.03797962 -0.00030311497 0.15674852 0.013835127 -0.1622733 -0.011802525 -0.016221449 -0.009598952
-0.103409424 0.12861116 0.021758595 -0.09812715 -0.04302112 0.022062218 -0.29465038 -0.1319287
0.040020082 0.011277739 -0.053047977 0.0745653 -0.0033532686 0.05119766 -0.09276377 -0.020509498
-0.098225124 -0.013686162 0.08304677 -0.16298173 -0.0059030848 -0.16151506 0.12124048 -0.1050808
0.140068 0.0020364472 -0.07432106 -0.00081886316 0.05636121 0.0026114932 0.0019585197 0.041672878
-0.007144164 0.06938733 -0.14248034 -0.0127747515 0.03623104 0.01055249 -0.01274409 0.07782777
0.08754573 0.12026238 -0.12302752 -0.091223516 -0.008629115 -0.0046746796 -0.015131147 0.022206068
-0.00071412337 -0.080650955 0.06596504 0.042725965 -0.0021451057 0.07240308 0.022052785 0.1779741
0.06316152 -0.16850486 -0.014988684 0.14941251 -0.040981315 -0.094334275 -0.028453376 -0.044173382
0.11505947 -0.0054169167 0.08930412 -0.013517355 -0.04611788 0.06776329 -0.039126363 -0.08152262
0.05504483 0.009138133 0.070353545 0.040933568 -0.1128827 0.059298247 -0.028439272 -0.027780537
0.0038883218 0.03300448 -0.054307953 -0.13864297 -0.056641463 -0.06432448 -0.0010857439 0.08237062
00000000: 5820 3c3d c77d c83c bcb9 a03d 84f4 af3b
00000010: 1d5d 8aba 3dca bbbc 26a0 a93d 525d debc
00000020: 573c 85bd 0f12 e5bd 63b7 8fbb 4f8f b8bd
00000030: e5df d2bb b003 59bd cf74 3bbd 3516 30be
00000040: cb87 80bd cf68 d33d 202e 393d 875c 3b3d
00000050: 4eaa 47bc 6786 96bd 84bd c43d 4f92 72bd
00000060: a336 a7bc f2d4 763d 8951 28be 10b6 8a3d
00000070: e066 b63d 592e d1b9 60c6 ccbd ddc2 3f3d
00000080: 0151 7d3d f568 283c cef9 a13d e838 63be
00000090: 818b 7d3e 7761 7d3c f5e9 a73c 0d62 e13d
000000a0: 693c 9bbd d931 3dbc 04e9 9cbc 95c7 463e
000000b0: f27d 13bd 1d12 c0bd 5216 d83d a214 c23c
000000c0: ca3b 5dbd 1b49 f1bb 3d52 ca3d 49af b1bd
000000d0: 45ec 9fbd 96c3 6e3d 4e85 48bc bb92 b8bd
000000e0: a15f 87bd f75c ab3d ddf4 2cbd 0da9 a03d
000000f0: c05e 2fbc c7f2 053c 7aaf eabc 9d6d b83b
00000100: e4de 043e b889 c8b8 d237 3b3d d390 f039
00000110: 7fbc a6bc 234f 96ba bb68 8b3d 0e74 9f3c
00000120: 4380 0b3c bd47 0dbc b867 b93d 6161 01bc
00000130: 55b5 a73d 4e95 ad3c 9761 2b3c 851a c6bd
00000140: 570f 84bd ca81 79bd 6910 5bbc 9071 d4bc
00000150: df13 103e 82bb 05be e2bd ae3d 613f d0bc
00000160: b7cc 96b8 db06 2d3e c088 18be e3f6 91bd
00000170: 1822 743d 8841 b6bd fccc bbbd a615 ba3d
00000180: 3ae1 6c3d e5fb b13d 967f 8a3d ab5c 883d
00000190: 2970 313e 92ae c1bd 0dfe c13c ed59 963d
000001a0: ce80 343d 2b44 e4bb 42b5 463d f4ab 033d
000001b0: cd9b 66bc 7633 1fbd cd34 6abd 028d ef3c
000001c0: 0ba4 da3d 853c 103e 3dc1 023d c202 3c3d
000001d0: a7d7 e5bd 721c 5c3b df59 5fbd e1a6 80bd
000001e0: 49ba 663a 969e cd3c 23b5 5fbd 95d2 893d
000001f0: de64 9f3c a405 9f3d d8d2 a63a 40a2 9a3b
00000200: 2df2 9cbd f38c 3fbe 6f47 acbd 8fc6 acbb
00000210: f24a e8bd cc05 e6bb eb58 9cbc 025d 0bbd
00000220: 352e 98bd 4df2 0dbd fa22 533b f619 b8bd
00000230: 023f a93b e9d0 a03d e401 62bb c200 d93c
00000240: 7ce6 e2bd f1d0 123e 06d0 193d 96e9 033b
00000250: 58de 51bd 86eb 86bd 29b3 4e3d 5a9e 21bc
00000260: 95d6 0c3e 14f0 0dbe 21bf e83d 62a6 d8bd
00000270: 9c67 ed3c 3336 36be 66ef 8dbd 9710 5bbc
00000280: 8590 1bbd 67eb 9eb9 af82 203e bbac 623c
00000290: f92a 26be 615f 41bc d8e2 84bc ec44 1dbc
000002a0: 52c8 d3bd a5b2 033e 153f b23c e3f6 c8bd
000002b0: ea36 30bd d3bb b43c 6adc 96be 5118 07be
000002c0: 19ec 233d 44c6 383c d648 59bd b1b5 983d
000002d0: 83c2 5bbb a3b4 513d eefa bdbd 8903 a8bc
000002e0: 412a c9bd ed3b 60bc 6d14 aa3d afe4 26be
000002f0: aa6e c1bb 3464 25be ee4c f83d 9a34 d7bd
00000300: fc6d 0f3e ea75 053b a435 98bd faa8 56ba
00000310: 03db 663d 9625 2b3b 825a 003b 2eb1 2a3d
00000320: 9719 eabb f21a 8e3d 5ee6 11be 314d 51bc
00000330: 0067 143d 5ae4 2c3c 96cc 50bc 2a64 9f3d
00000340: 2d4b b33d 1f4c f63d daf5 fbbd 65d3 babd
00000350: 2261 0dbc 0e2e 99bb a1e8 77bc 80e9 b53c
00000360: 0234 3bba 542c a5bd ae18 873d 6c01 2f3d
00000370: e794 0cbb 1148 943d 0ba8 b43c d83e 363e
00000380: d45a 813d 8a8c 2cbe 1993 75bc 98ff 183e
00000390: 06dc 27bd 5432 c1bd 0e17 e9bc 26ef 34bd
000003a0: 4da4 eb3d 6480 b1bb 14e5 b63d e577 5dbc
000003b0: 1ae6 3cbd 7bc7 8a3d f742 20bd 55f5 a6bd
000003c0: b076 613d 1cb8 153c 8515 903d f5a9 273d
000003d0: 0c2f e7bd b8e2 723d 7af9 e8bc 0294 e3bc
000003e0: 37d3 7e3b b52f 073d 0472 5ebd 6cf8 0dbe
000003f0: e100 68bd 8ebc 83bd 854f 8eba edb1 a83d

bias f4 [2]
0.07297459 -0.002607039
00000000: b473 953d dbda 2abb

weight f4 [2, 128]
0.0011516018 -0.0013992998 -0.0016798098 -0.0039949734 0.0005097246 0.0025872537 0.001724807 0.0017122102
-0.0009331007 0.0013448759 -0.00479844 -0.000100948615 0.00187521 -0.00046152412 -0.0010065654 0.0006808723
-0.001490714 -0.0025916891 0.00093105016 0.020372901 0.0023291225 0.0029756362 -0.0036246926 0.0024097166
-0.002156596 0.005121801 0.0019653526 -0.0011557512 0.0008934327 -0.0013959415 -0.00017074496 -0.0017099218
0.00024166646 0.026240375 0.003314519 -0.0055364035 0.011995969 0.010055199 -0.0018162057 0.0012739423
0.0008163574 0.002965034 0.001177487 0.002947874 -0.00020102801 0.001895742 -0.00017717518 -0.009385839
-0.0044263257 0.01864889 0.0030946757 -0.00010078345 -0.00015844512 0.005487205 -0.0025004242 0.0012545591
-0.0027885125 0.0026044962 0.0008151685 -0.0029409293 0.017337944 -0.00809578 -0.0005406631 -6.141621e-05
-0.00023501873 0.0103167165 -0.00019162115 0.0018983192 -0.0032084116 -0.01677339 0.0005519263 -0.0005987895
0.007364476 0.0020105003 -0.0003559477 0.0021223058 0.00025229424 -0.0006613673 -0.0013405348 0.00085075974
0.002013422 0.0012162969 0.001448056 1.1108539e-05 -0.00035196866 -0.0019021877 -0.0025470946 -0.0027701647
0.0013109986 -0.002227252 0.0024301573 0.0019041193 0.00029745017 -0.0030599607 -0.0015838811 0.0015910522
0.00022985862 0.0061862567 0.002107108 -0.0010557076 0.00073839165 0.0009771022 0.01160736 -0.004189469
-0.001559255 -0.0044930745 0.0015047188 0.0034083945 0.007151002 0.0015670423 -0.0010972482 -0.00053403655
-0.0034159205 -0.002087866 -7.691045e-05 0.0015929088 0.00081361935 -0.00082174875 -0.0021877924 -0.0006800437
-0.011235402 0.0012329759 -0.0028570837 0.0018796758 -0.0073823007 0.0027638131 -0.00047929067 0.0005061895
0.0046719485 0.0018679822 -0.00084222294 0.002361444 -0.004634378 0.004091453 0.004307584 -0.0008870342
0.0014362794 -0.0010071298 0.020841671 -0.0040099774 -0.023689272 0.00017326896 0.0018341441 -0.004335298
-0.0013467253 -0.00045938676 0.0002504334 0.0015560573 -0.00074714585 -0.001798732 -0.0019904536 0.00028135636
-0.0023879802 -0.002248259 0.0026396653 0.0020495825 -0.0005775024 0.00029654487 0.00080852676 -0.00038191144
-0.0031053426 0.02317138 -0.0028578085 -0.0060249087 -0.009078595 0.002712695 -0.0008628112 -0.00037623075
0.0004865809 -0.0043229987 -0.002192366 0.0040959357 0.0021537025 0.0003189035 -0.0011471083 -0.007905349
0.0011506721 -0.0074149333 0.0027754647 -0.000894816 -1.5688543e-05 -0.00090568746 -0.00016745264 -0.0017391101
0.00043491664 -0.0013800721 0.0034915893 -0.0010135253 0.005023787 0.0014795463 -0.0030780165 -0.0013139435
0.0015653527 -0.009661811 0.0018458343 0.0031226533 -0.0035055657 -0.0023118563 -0.003057531 0.0036404645
-0.003104628 0.0018458847 -0.0031011645 0.017456997 -0.0013797932 -0.0011977972 0.00048724955 -0.002967541
0.00066946645 0.003125383 0.00025338997 0.00029681862 -0.0005320265 0.0008103208 0.00079579116 0.0011334902
0.0063368096 0.0016966899 -0.00012610844 0.0035200363 -0.0031479956 -0.0014093082 -0.0005276522 -0.0027076718
0.0008257754 -0.005982822 0.0014971044 -0.00090097735 0.0023947782 0.0031197907 0.0005162449 0.0007266742
0.0014195933 0.0027496442 0.0013016306 -0.0019213281 -0.008505021 -0.0015766032 -0.0029180036 0.0026602114
0.0007275996 0.0032494334 0.0014638085 0.00065104605 0.0016274058 0.0012476776 -0.0007538242 0.0005653374
-0.0029131714 0.00064936175 0.0014130259 -0.00040678435 -0.0041553793 -0.0016036917 0.0021845624 -0.00027448652
00000000: 58f1 963a b668 b7ba 102d dcba 44e8 82bb
00000010: 0a9f 053a ea8e 293b eb12 e23a 3e6c e03a
00000020: 549b 74ba 8c46 b03a 3b3c 9dbb 60b4 d3b8
00000030: 9bc9 f53a b8f8 f1b9 bbee 83ba 917c 323a
00000040: 1064 c3ba 54d9 29bb b811 743a 12e5 a63c
00000050: 31a4 183b e402 433b 408c 6dbb 56ec 1d3b
00000060: ad55 0dbb c8d4 a73b 25cd 003b 937c 97ba
00000070: 4135 6a3a 06f8 b6ba 000a 33b9 741f e0ba
00000080: d967 7d39 0ef6 d63c 6738 593b b86a b5bb
00000090: be8a 443c 90be 243c c00d eeba 69fa a63a
000000a0: d100 563a 0451 423b e855 9a3a 1e31 413b
000000b0: 0ccb 52b9 8c7a f83a 1ac8 39b9 10c7 19bc
000000c0: b60a 91bb 8fc5 983c 0bd0 4a3b b45b d3b8
000000d0: 4a24 26b9 03ce b33b 28de 23bb 0570 a43a
000000e0: 7abf 36bb 32b0 2a3b 08b1 553a 9bbc 40bb
000000f0: 4e08 8e3c 2aa4 04bc 49bb 0dba 94cc 80b8
00000100: 5c6f 76b9 7207 293c e9ed 48b9 06d1 f83a
00000110: 3744 52bb 5968 89bc 26af 103a 15f8 1cba
00000120: b451 f13b 99c2 033b 7e9e bab9 6216 0b3b
00000130: 5c46 8439 9c5f 2dba e2b4 afba 8505 5f3a
00000140: 9ef3 033b 276c 9f3a b2cc bd3a d05e 3a37
00000150: 6f88 b8b9 d452 f9ba 28ed 26bb a78b 35bb
00000160: d0d5 ab3a 16f7 11bb 4643 1f3b a493 f93a
00000170: 16f3 9b39 9f89 48bb 3b9a cfba da8a d03a
00000180: 3406 7139 15b6 ca3b 6817 0a3b ab5f 8aba
00000190: a090 413a 1c12 803a cc2c 3e3c d047 89bb
000001a0: ea5f ccba a43a 93bb fc39 c53a 5f5f 5f3b
000001b0: f452 ea3b 3765 cd3a 8ad1 8fba 96fe 0bba
000001c0: a3dd 5fbb 94d4 08bb fc4a a1b8 26c9 d03a
000001d0: 1249 553a a06a 57ba 1161 0fbb f644 32ba
000001e0: b114 38bc ce9b a13a e93d 3bbb 745f f63a
000001f0: 3ae7 f1bb 1721 353b 4e49 fbb9 cdb1 043a
00000200: 2517 993b 15d7 f43a a0c8 5cba 75c2 1a3b
00000210: fbdb 97bb 9811 863b a226 8d3b dc87 68ba
00000220: 8a41 bc3a ab01 84ba 27bc aa3c 2166 83bb
00000230: 0110 c2bc 88af 3539 aa67 f03a 1e0f 8ebb
00000240: 9a84 b0ba d9d9 f0b9 9a4c 8339 9ef4 cb3a
00000250: 1cdc 43ba 6ec3 ebba 4572 02bb 0383 9339
00000260: a97f 1cbb 8757 13bb 3cfe 2c3b 4a52 063b
00000270: 8863 17ba 9479 9b39 50f3 533a 493b c8b9
00000280: 0183 4bbb e8d1 bd3c 124a 3bbb 996c c5bb
00000290: 63be 14bc 78c7 313b 482e 62ba d640 c5b9
000002a0: c81b ff39 f1a7 8dbb ccad 0fbb 3337 863b
000002b0: 2225 0d3b 8132 a739 915a 96ba 7085 01bc
000002c0: 26d2 963a f8f8 f2bb 92e4 353b 1692 6aba
000002d0: e49a 83b7 a86b 6dba 3a96 2fb9 daf2 e3ba
000002e0: 8605 e439 89e3 b4ba 26d3 643b 44d8 84ba
000002f0: 949e a43b 56ed c13a 8cb8 49bb a138 acba
00000300: 852c cd3a 934c 1ebc ecef f13a 6ea5 4c3b
00000310: a2bd 65bb 8382 17bb dc60 48bb dc94 6e3b
00000320: 0477 4bbb 9df1 f13a e83c 4bbb fa01 8f3c
00000330: 2dda b4ba 68ff 9cba 8775 ff39 147b 42bb
00000340: 227f 2f3a 3ad3 4c3b 6dd9 8439 529e 9b39
00000350: b277 0bba b56b 543a a49c 503a 9f91 943a
00000360: 03a5 cf3b 7763 de3a fa3b 04b9 69b0 663b
00000370: 9a4e 4ebb 89b8 b8ba 2452 0aba 3273 31bb
00000380: d978 583a 8c0b c4bb 7d3a c43a 912f 6cba
00000390: b6f1 1c3b 6775 4c3b 9c54 073a 487e 3e3a
000003a0: a611 ba3a 6033 343b 7a9b aa3a 13d5 fbba
000003b0: a558 0bbc 06a6 ceba fa3b 3fbb f156 2e3b
000003c0: 62bc 3e3a 72f4 543b 43dd bf3a f6aa 2a3a
000003d0: ad4e d53a 1d89 a33a 499c 45ba 2733 143a
000003e0: e8ea 3ebb ee39 2a3a 4835 b93a ac45 d5b9
000003f0: d929 88bb f732 d2ba e02a 0f3b f5e8 8fb9

bias f4 [2]
0.0019890065 -0.00017017827
00000000: fe59 023b e271 32b9
