data/valor-anonymous-expert/valor-anonymous-expert_s0/pyt_save/model.pt (torch, 180152 bytes, 23 tensors)

log_std f4 [2]
00000000: b399 03bf 2797 03bf
-0.514064 -0.51402515

weight f4 [64, 70]
00000000: 2711 113a 8e68 753d 8daf cfbd db51 c5bd
00000010: b849 5cbd a525 d93c e333 bbbb a56b c63d
00000020: 4489 1cbb 53d2 233d b0d7 dabc 22a2 4bbc
00000030: 9bc3 dbbd 8c0f 9cbd c7e9 54bd bab8 38bb
00000040: 5772 143d 5b3d 763d c366 b9bd 0930 55bd
00000050: 91d1 313d f2a5 ca3d 2066 fbbc b9ef ac3d
00000060: 88ba c5bc 41b8 103c 80c9 da3d 8096 dfbd
00000070: 8fb4 90bd 5e3f cabc e384 2dbd 52db d83d
00000080: a582 9cbd 95cc 6fbd f404 b8bd 039f f3bd
00000090: 5a83 9dbd 2aeb c43d c51f 693d 29ad 7a3d
000000a0: e7f9 cd3b 56fc 87bd 6153 703c 8d6a eebd
000000b0: 84cd b6bd 9d7e 84bd 8307 973d a6a3 953d
000000c0: 316d 48bd 520b b1bb 5845 9e3d 49fc f53d
000000d0: 0077 3e3d 323f 6c3c 82bf 9e3d ee97 98bd
000000e0: 257f 843c e125 b7bd 8afd a9bd cde6 7cbd
000000f0: f56d 613d 1e93 403d 53eb 8fbd 3572 0b3d
00000100: d33b 803d b477 75bc 382f a93a c412 c03c
00000110: cb4c 8b3d f340 eb3d 3cee c1bd 340d 30bd
00000120: e63b 3e3d 45e2 e33d 7cbf ea3d 16fb e63d
00000130: a3df db3c d004 e3bd 2e90 e8b9 eda2 b1bd
00000140: 2510 00be 561e bd3d ca7d 9f3d cb76 06be
00000150: 6e74 8e3c a4f1 7dbc 8589 12bc b1d1 2cbd
00000160: c232 6f3d 59fc 90bd 7478 333d 5150 7a3d
00000170: 385b bc3d 155f 493d 942e eabd 329a 9cbd
00000180: 7d1b 673d d3ef 943c f670 d0bd 12af a1bd
00000190: 98f9 d13d 8280 933d 88b3 72bd 1a9a 08bd
000001a0: 4517 e7bd 8c7d 873a 3be1 adbd 0331 b0bd
000001b0: ccae 2abc 5b88 713c f17d 48bd 15cd 9e3d
000001c0: 345c 8bbd 5334 e53d 2b7d ac3d 7c0c ccbd
000001d0: 9d00 fcbc 02ff 6b39 650c 303c 6850 b03c
000001e0: b286 243d d4b6 133b f7d0 7cbd 9841 613d
000001f0: dffe e6bd 8e10 88bd 3019 b8bc 08c4 7fbd
00000200: 2039 31bd 1aa1 c8bd 392f d0bc e079 c83c
00000210: 585c a6bd 39d6 4dbb 4307 ae3d ad92 64bc
00000220: 25d7 d93b 8067 08bc 7b1d d43c 11f1 973d
00000230: 9e8c f23d 7ef6 943d 78c2 e63d e7b1 98bc
00000240: 5519 e9bd 1d37 7fbd 845f 9e3d 2b45 ba3a
00000250: f802 58bd 4647 a9bd 9d44 d0bd 1f02 bbbd
00000260: d5d4 80bc 73cb 983d 1250 8a3d 7521 f3bd
00000270: f006 853d f06e d7bd be22 13bd 6781 46bd
00000280: 7c98 bcbc c5e6 bfbc d41d e6bd 5cd2 dfbd
00000290: e078 bbbc 8898 0b3a 3945 58bd 5943 4b3d
000002a0: ec50 d1bd 5ac0 55ba 4cf6 e83d 8495 2abd
000002b0: 7594 e73d 8c6e 373d 5432 e2bd a86d 8f3d
000002c0: 1bd7 9dbc 2348 6cbd 0c26 cf3d 954c c2bd
000002d0: 9821 523c 02ef f1bc c1a9 a83d 7400 f13c
000002e0: 67e0 653d d912 2e3d addb debc e4e3 afbc
000002f0: 77bd bfbd 4fce 8c3d 4a50 cc3d ca2d ae3d
00000300: c200 a9bd 6ce9 9b3b 04bb b4bd 3187 90bd
00000310: 1c43 9ebd 565a 363d 1b34 93bd 31e5 2abb
00000320: c939 bc3b 0b0e 9d3d b570 b4bd f467 b0bd
00000330: 065e 91bd 8cc1 ae3d f0b1 3bbd 61da ca3d
00000340: 968f 233d e55f 893c 17bf d13a e9d6 bcbc
00000350: f404 883c 4b0b 25bd 05de 44bc 33f2 013c
00000360: 5705 c1bd a2a6 59bd 5900 e03d 1c5e abbd
00000370: 3ce3 b43b 964f 073e d305 6e3d 9554 733c
00000380: 7fec c7bd fe69 6f3d 8bdd c0bd 8154 3cbd
00000390: 04ad 56bd 3bff 90bc 3d5c ab3a bcc8 c33d
000003a0: ae2d 153c 114c d43d 8905 913d 7fb5 99bd
000003b0: 2086 703d 9d86 9cbd 8d64 28bd 8531 3d3d
000003c0: f19b 4c3d a9c2 ca3d 3ffe f9bc ae52 9f3b
000003d0: 8766 813d e81c f0bd faec a93d a94e d5bd
000003e0: bf4e b53b 8f5f 90bc a5eb 80bd fc85 183c
000003f0: 9c6b c23d 8896 1bbd 265a 96bd e268 32bd
0.0005533867 0.059914164 -0.101409055 -0.09634753 -0.05378124 0.026507208 -0.0057129725 0.096885
-0.0023885528 0.039995503 -0.026714176 -0.012428792 -0.10730668 -0.07620153 -0.05198076 -0.0028186277
0.036241855 0.060117107 -0.09052803 -0.052047763 0.04341275 0.09894933 -0.030688345 0.08444161
-0.024136797 0.008832992 0.10682964 -0.109173775 -0.07065689 -0.024688419 -0.04236306 0.10588707
-0.07642106 -0.058544714 -0.0898532 -0.118955635 -0.07691069 0.096151665 0.056915063 0.061200295
0.006285894 -0.06639926 0.014668317 -0.11641417 -0.08925918 -0.06469462 0.073744796 0.07306604
-0.048932258 -0.005402961 0.0772807 0.1201101 0.046500206 0.014419364 0.07751371 -0.07450853
0.016173908 -0.08942772 -0.08300312 -0.061743546 0.055036504 0.047015302 -0.070273064 0.034044463
0.062614106 -0.014982153 0.0012907749 0.023446448 0.068017565 0.114869975 -0.09469268 -0.04298134
0.046443842 0.11127142 0.11462304 0.112783596 0.026840037 -0.11084902 -0.0004435791 -0.08673654
-0.12506159 0.09234302 0.07787664 -0.13131253 0.017389502 -0.015499506 -0.00894392 -0.042192165
0.058398016 -0.070793815 0.043816045 0.061111752 0.09197086 0.049162943 -0.11434665 -0.07646598
0.0564227 0.018180763 -0.101777956 -0.0789472 0.10252684 0.07202245 -0.059253246 -0.033350088
-0.11283735 0.0010337099 -0.08490225 -0.08603098 -0.010417651 0.014741982 -0.048948232 0.0775396
-0.06804696 0.11191621 0.084223114 -0.09963319 -0.030762011 0.00022506344 0.010745143 0.021522716
0.040167518 0.0022539394 -0.061722722 0.054994196 -0.112790816 -0.066437826 -0.022472948 -0.06244281
-0.04326737 -0.09796353 -0.025413143 0.024472177 -0.08123082 -0.0031408204 0.08497479 -0.013950986
0.0066479617 -0.008325458 0.025892964 0.07419027 0.11843227 0.07273577 0.11267561 -0.018639518
-0.11381785 -0.06230842 0.07733062 0.0014211287 -0.052737206 -0.082655475 -0.10169337 -0.09131264
-0.015726486 0.0746068 0.067535535 -0.11871616 0.06495464 -0.105192065 -0.035921805 -0.04846325
-0.023021929 -0.02342547 -0.11236158 -0.10928795 -0.022884786 0.0005325158 -0.05280039 0.049624775
-0.10220513 -0.0008153968 0.113751024 -0.041646495 0.11307613 0.04478316 -0.110447556 0.07003337
-0.01926761 -0.057685982 0.10114679 -0.09487263 0.012825392 -0.029532913 0.08235503 0.029419161
0.05612221 0.042498443 -0.027204359 -0.021470971 -0.093623094 0.06875288 0.099762514 0.08504827
-0.08252098 0.0047580507 -0.08824733 -0.07057036 -0.07727644 0.044519745 -0.07187673 -0.002607655
0.005744193 0.07668694 -0.0881056 -0.086135775 -0.07098012 0.0853301 -0.04582399 0.09904934
0.039931856 0.016769359 0.0016002384 -0.023051696 0.016603924 -0.040293973 -0.012015824 0.00793128
-0.094248466 -0.05313743 0.10937566 -0.08367559 0.0055202525 0.13213953 0.058111023 0.014851709
-0.09761905 0.05845069 -0.09417256 -0.045979027 -0.052411094 -0.017699828 0.0013073754 0.095597714
0.009105129 0.10366071 0.07081134 -0.07505321 0.05872166 -0.07642863 -0.041111518 0.046189804
0.049953405 0.0990041 -0.030516742 0.004862151 0.06318384 -0.117242634 0.08297153 -0.10415394
0.005533069 -0.01762369 -0.062949456 0.009309288 0.09493181 -0.037985355 -0.07341413 -0.043557055

bias f4 [64]
00000000: cffc 46bb c8e1 0aba 232c 52ba a4ba d23a
00000010: ff7e 24ba 093c 30ba c8a2 2a38 b548 8539
00000020: f5e1 90bb a0c4 f4ba 8390 453b b019 19bc
00000030: 7460 fa3a f795 2e3b 1366 2abb 3143 83bb
00000040: db50 b139 d965 88b9 6ab5 c53a 4fa7 6d3a
00000050: fca3 cd3b ff01 68bb 5134 a63a 375b 313b
00000060: 519f 9eba 82ae 4e3b 793f 4c3b 9718 07bb
00000070: bd29 21bb 41dd b33b f455 c73b d1cc 813a
00000080: 9652 e93a e588 bf3b 52ce 853a d944 42bb
00000090: c410 c13b a01f 11bb 5fc6 0a3b a544 1e3b
000000a0: 7343 12bc 2cb3 8c3b f0d3 943b 9f6d 533a
000000b0: 7ca8 f6ba 3249 a6ba b581 823b 6044 443b
000000c0: c289 edb9 4a42 feba 8401 95bb b81a c0ba
000000d0: d50b 0fbb e953 70bb f6dd 123c f2f6 b6bb
000000e0: cf0b 223b 7504 be3b 6da9 2f3b 7f5f d03b
000000f0: d2aa dfba e392 0c3c eb44 3d3a acfc 0ebb
-0.0030363088 -0.0005297926 -0.0008017441 0.0016077352 -0.00062750274 -0.0006722813 4.068276e-05 0.00025421908
-0.0044214674 -0.0018674321 0.003014595 -0.009344503 0.0019102232 0.002663968 -0.0026000782 -0.0040058126
0.00033820313 -0.00026015824 0.0015083973 0.00090657634 0.006275652 -0.003540158 0.0012680386 0.0027062425
-0.0012101923 0.003153712 0.0031165762 -0.0020614022 -0.0024591528 0.005489022 0.0060832445 0.0009902959
0.0017801102 0.0058451765 0.0010208583 -0.0029643087 0.005891891 -0.0022144094 0.0021175367 0.0024149802
-0.008927214 0.00429382 0.0045418665 0.0008065346 -0.0018818523 -0.0012686609 0.0039827474 0.0029947981
-0.000453068 -0.0019398418 -0.0045473 -0.00146564 -0.002182712 -0.0036671108 0.008964052 -0.0055836374
0.0024726277 0.005798871 0.0026803866 0.0063590403 -0.0017064458 0.008579942 0.00072200474 -0.0021818085

weight f4 [64, 64]
00000000: 0557 cabd d454 773d 962c c7bd 0af6 5ebd
00000010: 501f eb3c dd7a 9a3c 5961 cc3d e82e 97bb
00000020: fbfc 3abd 7a3e 60bd 2bf2 fb3b bfd5 c1bd
00000030: 5565 c6bd 13c4 65bd 1a57 ad3a 04c9 b3bd
00000040: 4109 8abd 1832 ad3d 81a3 e33d edc6 2cbd
00000050: abcf d4bd 3378 55bd 90cc 473d 9802 393d
00000060: ba05 1dbd d575 eabd 904c 26bd 0f88 03bd
00000070: b398 9d3d c49b 7fbd 4dc7 9a3d ab7b 5b3c
00000080: 1e86 94bc 6011 dfbd 6d52 023e 2a41 a2bc
00000090: 1d8b a73d 7e04 7abd f7fb 00be f8bc d1bd
000000a0: d611 7fbd a092 15bd eb6f c1bc a014 e03d
000000b0: 2bc8 f2bd 317b 883d d28e ce3d 0013 ab3a
000000c0: 2e99 97bd 3966 ba3b 1138 0e3d d044 783d
000000d0: 784c 09bd 498d 40bd 06d2 77bd 7d05 fcbd
000000e0: 75b0 263d 23d7 c2bd ee05 82bd 4d90 7b3b
000000f0: e087 ce3d ac36 e93d 2aea c2bd b8cb e63d
00000100: ccc7 e33d 26cc cd3d c917 3c3c ee75 d23d
00000110: ea93 773d c133 b6bd 62ac 81bd e64f 4d3b
00000120: a691 b2bd 2490 2bbd c343 cd3d 5ca0 6d3d
00000130: 82b0 d63d c2aa 7438 4773 7bbd 8c93 aa3d
00000140: 061e 1a3c 4142 b53c 5b97 57bd fcae 513d
00000150: a25e bcbd c15c cd3d 01c5 e33d 56a5 323d
00000160: ebc8 c63d 1bc7 9b3d 43f1 4bbd 9fe0 ddbd
00000170: 04f8 7b3c 8437 a23d 8b8f 50bc fa64 2e3c
00000180: 619e bf3d 0c18 533d 3aff be3d 281a 973c
00000190: 9181 683c eaf6 f1bc 9496 acbc c3d1 88bd
000001a0: e006 ab3d 4571 ea3d a2d7 3f3d 3d6d 363b
000001b0: ac04 2abd c7d1 fdbd 5c5b bebc 1fa3 bcbd
000001c0: 3c53 bdbd 0927 d3bc 877d cdbc 4de5 af3c
000001d0: a073 babd ac52 b93d 03ba e6bd 0b32 77bd
000001e0: 9b7c 41bd f20b ee3b 4ce8 4f3d 97c0 0cbd
000001f0: 3282 9d3c ddef fcbc fc91 48bd c2aa 90bc
00000200: 2f11 f53c 1093 febd b578 bcbd 9579 c13d
00000210: 9856 7d3d 16c4 3bbb aab8 89b9 bae0 413c
00000220: 8c0b f63c 207f b6bd 4ab6 efbc 0437 f0bd
00000230: 7a3c c2bd a9e8 c4bc 83f8 a5bc c155 bf3d
00000240: 5d3b d83c 4a55 d4bc 832d 14bc a4da 863d
00000250: 9750 0abd bebb e9bc a7b4 e3bc f915 c4bd
00000260: 1998 7bbc 3914 f8bd 01d0 92bd e696 adbd
00000270: f0e7 ca3d f380 e7bd 5c73 f63d ac17 2e3d
00000280: d72e a6bd d59b db3d 428b b9bc 129f d1bd
00000290: 0a77 57bc d173 883d a013 02be 7fca 58bc
000002a0: 3025 4a3d 81c0 36bd 9e64 743b 6501 2fbd
000002b0: 439d b2bd be02 d33d 78b4 c1bd 9ba8 1f3b
000002c0: 2393 3d3d 4d16 89bd a250 893d 6324 cabd
000002d0: 94db ff3d 624f 533d 8a4d 89bc 4fef dabd
000002e0: 607d f9b9 0483 293d b78b 94bd 45a3 20bc
000002f0: 1922 f3bd 5348 f8bd 3224 9bbc 4361 e13d
00000300: 49a5 10bc 34dc 203d 642e 41bd 7e8e 1abd
00000310: 3cc5 85bc e621 7abd b3ef a23d 41cc a53d
00000320: 48f1 c7bd e1b1 223d bbde 5dbd 76e8 91bd
00000330: a70f 93bc c677 1abd 067d 8cbd 1679 a63c
00000340: 32a0 8d3d e507 83bc be8c c9bb 43b6 353c
00000350: e501 63bd 490b 8d3d 1662 f03d aee1 72bc
00000360: 3a1c 023c 6eb8 d33d c6e6 d23d 4969 b9bd
00000370: 7bdf 7abd df43 fabd b0d2 9b3d 8e7f cc3d
00000380: c5dc 3ebd 3773 1f3d 2e9d e43c 3087 debd
00000390: 2c99 453d 3dc4 733d 07e7 a93b b74d 6a3c
000003a0: 10dc e63c a626 b53d a57e ea3d 1d96 6e3c
000003b0: 0276 613d bcd0 10bd 5696 9d3d ce76 51bd
000003c0: b5e1 d7bd 262c 693d a695 303d 5f3b bb3c
000003d0: 7a74 4e3d 0002 913c 84a9 333d 8117 533d
000003e0: 01ab 86bd 43bf d0bb 5b53 a63c fb34 b9bc
000003f0: d5b3 dcbd c132 1b3c 3a9c a13d fb10 8ebd
-0.09879879 0.060383633 -0.09725301 -0.05443386 0.028701454 0.018857414 0.09979505 -0.004613746
-0.045651417 -0.054747082 0.007688781 -0.09464597 -0.09687296 -0.056095194 0.0013224811 -0.08778575
-0.06740046 0.0845682 0.1111517 -0.042181898 -0.10391172 -0.052116584 0.04877907 0.04516849
-0.03833554 -0.11448256 -0.04060036 -0.032112177 0.07695141 -0.06240441 0.07557545 0.013396184
-0.018130358 -0.10891986 0.12726755 -0.019806463 0.08180831 -0.06103944 -0.12596117 -0.10241121
-0.06227287 -0.036516786 -0.023612937 0.10941434 -0.11854585 0.06664122 0.100858346 0.0013051927
-0.074022636 0.0056884554 0.034721438 0.0606125 -0.033520192 -0.04700974 -0.06050303 -0.12305734
0.040695626 -0.0951369 -0.06348787 0.003838557 0.1008451 0.11387381 -0.095173195 0.11269325
0.111220926 0.10048704 0.01148028 0.102763996 0.060443796 -0.0889659 -0.063317075 0.003132814
-0.087191865 -0.04188551 0.1002269 0.05801426 0.10482885 5.8333164e-05 -0.061389234 0.083289236
0.009406572 0.022126319 -0.05263458 0.05119227 -0.09197737 0.10027457 0.1112156 0.043614708
0.09706291 0.07606336 -0.049790632 -0.10833859 0.015378956 0.07920745 -0.012729536 0.010644192
0.0935638 0.051536605 0.09326024 0.01844509 0.014191047 -0.029536683 -0.021067895 -0.06680634
0.08350921 0.11447386 0.046836503 0.0027836107 -0.04150836 -0.123935275 -0.023236923 -0.092108004
-0.09244391 -0.02577545 -0.02508427 0.021471644 -0.09104085 0.090489715 -0.11265948 -0.06035046
-0.047237974 0.0072646076 0.050758645 -0.034363355 0.019227121 -0.030876094 -0.048967347 -0.017659549
0.02991542 -0.12430394 -0.092027105 0.09447018 0.06185016 -0.0028650812 -0.00026268262 0.011833364
0.030034803 -0.08910966 -0.029261727 -0.117292434 -0.09484191 -0.024036722 -0.020260101 0.09342528
0.026395494 -0.025919575 -0.009044054 0.06584671 -0.033768263 -0.028531905 -0.027796103 -0.095745035
-0.015356087 -0.12113232 -0.0716858 -0.08476047 0.0990752 -0.11303892 0.12033722 0.042503044
-0.08114403 0.10723082 -0.022649411 -0.102354184 -0.01315094 0.06662715 -0.12702799 -0.013231873
0.04935187 -0.04461718 0.0037291418 -0.04272594 -0.087214015 0.103032574 -0.0945825 0.0024361971
0.0462829 -0.06693707 0.067048326 -0.098702215 0.12493053 0.051589377 -0.016760606 -0.10690176
-0.00047586393 0.04138471 -0.07253211 -0.0098045515 -0.11871738 -0.1212317 -0.018938158 0.11004879
-0.00882847 0.039272502 -0.047163382 -0.037733547 -0.0163294 -0.061067484 0.07955875 0.08095599
-0.097628176 0.03972042 -0.05416749 -0.071244165 -0.0179518 -0.03771188 -0.06859784 0.02032141
0.069153205 -0.015994975 -0.006150811 0.011090818 -0.05542173 0.06886918 0.117374584 -0.014824314
0.0079413 0.103379115 0.10297923 -0.09053285 -0.061248284 -0.12219977 0.07608545 0.099852666
-0.04659726 0.038928237 0.02790698 -0.10865629 0.04824178 0.05951332 0.0051850113 0.014300755
0.028181106 0.08845262 0.11449937 0.014562157 0.05504418 -0.035355315 0.0769469 -0.05113869
-0.10541097 0.05692687 0.043111466 0.022855459 0.05040405 0.017701149 0.043862835 0.051536087
-0.06575585 -0.0063704564 0.020303419 -0.02260827 -0.10776488 0.00947255 0.07891126 -0.069368325

bias f4 [64]
00000000: ce47 8abb 3611 be39 345d abbb 16d0 273b
00000010: 26ca bc3b f4ec c53b d43c 09bb b6d9 fe3b
00000020: 812c cebb e31d 503b 5172 3dbb 9914 b73a
00000030: e074 5bbb 2106 923b 8e61 653b c6a2 aa39
00000040: 842c 8b3a da87 66bb ae84 05ba 032c ec3b
00000050: 99d6 d53a 29c8 af3b 9ab1 693a 4fee 793b
00000060: 027b dcba 1f54 1b3a bd56 51b9 ed72 6fbb
00000070: f3a9 823b 1431 f53b 4746 d03b c392 09bb
00000080: fa71 4abb dab6 953b a385 52ba 7ad4 51bb
00000090: 0471 f5bb fff6 4abb 4a46 9239 6fda 74bb
000000a0: d83b b7bb 41b5 6bbb f26c a8ba 6940 3cbb
000000b0: 14c7 6b3b 74ea 0ebc 286f 513b 89fe 673b
000000c0: a661 363b 9d2f a439 2669 fd3a 0217 2c3b
000000d0: 2e70 0f3b dfbd f338 76a7 febb af63 abbb
000000e0: 8e9a 86bb ae1d 3c3b 99fa 82bb 6c23 a9bb
000000f0: 3b3b 03bb f40c 0d3b 405e 5c3b 08d1 3e3b
-0.0042199856 0.00036252447 -0.0052296165 0.0025606207 0.0057614027 0.00604021 -0.0020940797 0.007777418
-0.0062919264 0.0031756095 -0.002890725 0.001396793 -0.003348641 0.004456297 0.0035000774 0.00032546202
0.0010618125 -0.0035176189 -0.0005093318 0.007207395 0.0016314565 0.005364437 0.00089147093 0.0038136428
-0.0016821327 0.0005925316 -0.00019964106 -0.0036537007 0.0039875447 0.007482657 0.006356034 -0.0020992018
-0.003089069 0.0045689167 -0.00080307777 -0.0032017515 -0.007490279 -0.0030969975 0.0002789966 -0.0037361642
-0.0055918507 -0.003596619 -0.0012849851 -0.0028724915 0.0035976814 -0.00872289 0.0031957123 0.0035399518
0.00278292 0.00031315992 0.0019333705 0.002625883 0.0021886933 0.00011622509 -0.0077714277 -0.005230389
-0.00410778 0.0028704214 -0.0039971587 -0.0051616933 -0.0020024318 0.0021522613 0.0033625513 0.0029116292

weight f4 [2, 64]
00000000: d5da cc3c 9df6 adbc a4a5 513d d58d 00be
00000010: 0be5 64bc 835d e5bc 9838 c7bd 51be afbb
00000020: dfbe d93c d6c5 f7bd 382e cc3d fc45 8e3d
00000030: 3e62 f83d 3dc6 56bd fbe2 b3bd 25b1 913d
00000040: 1992 ee3d 35e4 96bd 5262 97bd f6ae 0bbc
00000050: d4dc d43d 434f 9cbc fb3a f6bd 60ce 61bd
00000060: f284 94bd f29e c23d d8ee b6bd 7e22 be3d
00000070: 6bb5 393d 8670 40bc 6441 ffbc b45f 833d
00000080: 23c8 89bd e86d 49bd c031 e53d d56b 47bd
00000090: 68b0 423c 2084 d13d d823 c9bd 0c5c b33c
000000a0: 7667 553b b799 82bd 74aa d13d 0f57 ae3d
000000b0: 1e2a debb 2656 69bc 18ce 9f3d 4061 2ebd
000000c0: 9b06 8f3d 19fa a8bd 3af7 ccbd 0063 a83d
000000d0: 4983 ad3d c3b1 c6bd bf1f c4bc 05ca 593d
000000e0: aa96 863d a429 953d c726 b03d 11fa 5fbd
000000f0: 311e e23c 4ad1 e13d 6a2c d3bd 17c8 a93d
00000100: fa49 243d ce6b 193c 5dad 063e 3add 77bd
00000110: a826 2fbd de65 ccbd 130e c63d 238f aabd
00000120: 52c1 ed3d 8367 aabd 5ac3 893d b723 91bd
00000130: 41ac d13d b09e acbd 4720 aebd a737 28bd
00000140: 84df debd e9f3 e63d d122 203d 42b3 95bd
00000150: f62a cabd c1c4 0ebd 862a c93c 02a6 5ebd
00000160: 57cb 853d 76f9 5cbd fad2 3c3d 90c7 c13d
00000170: 12c8 c4bd bb5e ccbd 5b04 f7bd 68f6 9f3c
00000180: 0c2e d43d 63ad aebd effc b1bc be40 903d
00000190: b9ce b63d 49f0 9b3d 8da0 073d 067a f03c
000001a0: 80bd 943a 75e1 db3d ae1a 093c 4c65 653d
000001b0: 7228 e3ba 9357 db3d e2d4 efbd 7097 3fbd
000001c0: 4028 03be 0e9a c53c c0dd a5bc b1b6 debd
000001d0: 0513 cabd eec5 043d d3bf c93d fa77 cd3d
000001e0: fbb8 9e3d 81b5 debd 8fb0 ce3d f231 013e
000001f0: 3f83 363c 1ed0 01be 48e3 bbbd 8621 d3bd
0.025006691 -0.021235758 0.051183358 -0.12554105 -0.013970624 -0.027998691 -0.09727591 -0.0053632637
0.026580272 -0.12098281 0.09969753 0.06946942 0.12128113 -0.05243515 -0.087835275 0.07113866
0.1164896 -0.07367746 -0.073918 -0.008525601 0.10393682 -0.019080764 -0.120229684 -0.055128455
-0.0725192 0.09502973 -0.089322746 0.092839226 0.04533903 -0.011745578 -0.03115911 0.06414738
-0.06727626 -0.04917708 0.1119113 -0.04868682 0.011882879 0.10230279 -0.0982129 0.021894477
0.0032562888 -0.06376975 0.102375895 0.08512699 -0.006779923 -0.014241731 0.07802981 -0.042573214
0.06983682 -0.08250827 -0.10008092 0.08222008 0.08472306 -0.09701874 -0.023940919 0.053171176
0.06571706 0.07283333 0.08601146 -0.05468184 0.027602287 0.11026247 -0.10311206 0.08290117
0.040109612 0.009364082 0.1315207 -0.060513712 -0.042761475 -0.09980367 0.09670653 -0.083280824
0.116091385 -0.083205245 0.067267135 -0.0708689 0.10237933 -0.08428705 -0.0850225 -0.0410687
-0.10882476 0.11276991 0.039095704 -0.07309581 -0.098714754 -0.034855608 0.02455641 -0.054357536
0.065329246 -0.053948842 0.04609964 0.09461892 -0.09608473 -0.09979006 -0.120613776 0.019526675
0.10360345 -0.08529165 -0.021727053 0.070435986 0.08926148 0.0761419 0.033112098 0.02935506
0.0011347979 0.10736362 0.008368177 0.056004807 -0.0017330779 0.10710063 -0.11710526 -0.04677528
-0.12808323 0.02412131 -0.02024734 -0.10874689 -0.09866909 0.032415323 0.09851041 0.10032649
0.07750126 -0.10874463 0.1009227 0.12616709 0.01113969 -0.12677047 -0.0917421 -0.103091285

bias f4 [2]
00000000: 3ccc abba a67a 08bc
-0.0013107131 -0.008330023

weight f4 [64, 70]
00000000: 8f0a 7e3d e543 303c e09b 8abb 9e4d 643e
00000010: 2fcf 203d f9c1 093c 54c2 14be a2a9 82be
00000020: 15c1 3fbe 9512 a2be 8735 96be a04c c5be
00000030: ae31 babd 5bcf b4bd 1b6c debd cc50 9f3e
00000040: 2d6d 963e f57a 853e 402e bc3e f587 83bd
00000050: a638 8bbd 7d89 aabd 9d2d 443e 938b 6a3b
00000060: 2441 1bbd 3c0d 193e f0a3 f83d 3eb9 5d3d
00000070: afd6 093e 29cc 65bd a282 c0bc cdd3 a23d
00000080: 5c5c 523e 1c0f ac3d 4827 30bd 128d b23c
00000090: 45d6 ea3d a3fc b8bb d7bc 84bd 3cf2 29bd
000000a0: 063b 1c3d 770c 3b3e 6101 3f3e fc18 453e
000000b0: 135a 693e 100d ca3d 6492 b33d 882d 683e
000000c0: 8f45 443e 80d5 033e de48 9b3d aed1 b63d
000000d0: ee56 a63d 42d4 bdbc 2d13 d6bd 64c5 b4bd
000000e0: c382 5e3d bf60 e3bd 6369 293e 746b 81bd
000000f0: 3647 503e e9c4 a13d 7f7d 1e3e e062 403c
00000100: a247 9dbe 9149 f9bd f1c2 aebd 93f7 c0bd
00000110: 5678 0c3e 86b2 0ebd 4378 9e3d a0e3 153b
00000120: b4f7 1e3e becd a0be 9b83 17bf cf1c b1be
00000130: cc1e 63be 1b31 efbc 00c6 35be 797f d5bd
00000140: 888c 353e 85bd 653e 0bd9 963e 2e01 913e
00000150: b063 403f 6c45 173f a5ca 1f3e 2208 2fbe
00000160: d6e8 c8be 2292 68bd 542e 05bd f7cf 773c
00000170: d6fc 6f3e f5b6 ce3e 8f49 bc3e 2e04 6e3e
00000180: 1229 1e3e 0c88 6bbc 53bb c6bc c863 05bc
00000190: 0c2c 0a3e b4a4 7b3d 0b23 aa3d 20a8 373b
000001a0: ed92 8dbe 687d babe aea7 a7bd 699e 03be
000001b0: 300b c33c 4846 923d dfbd 7abc ebf7 5dbd
000001c0: c441 6dbe 21ce 5dbe 33a3 90be 1d18 92be
000001d0: f673 7bbc a2d5 3b3e 3274 d43e 2375 d73e
000001e0: b09c cd3d 42c6 d6be 8054 b0be 15b7 86be
000001f0: 9f7a 653e 5aea 843c 499f 8abd d069 2fbf
00000200: c54d 9c3d 15e7 a3bd 1aca 0b3e d6b9 5f3e
00000210: e8dd f03c 112c bdbc 8f0b eebd daa9 0cbd
00000220: d916 d0bd 2e4d 923e 82f7 ebbc 8baa cbbd
00000230: d194 a53d 11e8 8d3d 80a2 73bc be61 873e
00000240: dc03 263e 4d23 30bc 1bd4 2bbc fa20 cabd
00000250: a8e0 723d b9f0 3fbe 0101 03be b19e 2fbe
00000260: 6a2e debe b07e 3cbe 0f72 93be 4746 273e
00000270: 70b8 793e a96f bf3d cc09 893e 5f3f 70bd
00000280: e4f8 983c 1106 32be a13a 90bd 543f 38be
00000290: a478 343d 6143 18be b6fb c2bd 94c2 d5bd
000002a0: 3644 fcbd 8eea a8bd 163a 613d ffa3 71bd
000002b0: 1c0e 423d 84be 0d3e d957 2fbd 1c4a 83bd
000002c0: c79c 17bd f88c febd 7198 a73c 2a80 3e3e
000002d0: c899 40bd edd3 35be 6cae 17be b610 98bd
000002e0: 48a8 863b c1b6 fe3c 5aa1 bd3d d8e1 7ebd
000002f0: a422 00be a38f 673d fc52 543d ea33 a1bd
00000300: e471 d73a 26e6 9dbd 8ebb 41be 9ee7 513d
00000310: 2c9d 123e b853 173e 6b6c 3c3d 332f f23c
00000320: 86bf 23be 2f8b b2bd 5a6c f93d d4e0 26be
00000330: 1b46 d5bc afcb a23d c2bc b33c ae52 7abe
00000340: 776b b9bc b701 5a3d 0519 c03c 7e9b 653b
00000350: d194 993a 5883 c1bd 03d6 9a3d a4bb c93d
00000360: 0fac afbc 8cea d3bc 35ff 363d 3440 853d
00000370: 279d 533e 900a 073f c933 d33e 307c e4bb
00000380: 3895 2c3c b20a 13be ee6f ddbd a9cd 80bd
00000390: 1083 cfbd 8b75 473d 7a91 cd3d 9275 3bbd
000003a0: 01df 03bd 2ca2 6ebd 33a0 04be 5d71 bebd
000003b0: 70f9 ddbd 9c6c 54bd 4cd9 9b3b 5eab 38be
000003c0: 2a09 4ebd fdf3 013a f779 68bc 94c6 763d
000003d0: 141b fcbc 826f 433c 14d4 61bc 8c3a a73d
000003e0: d29c b5be 997b 53bd 3f80 7b3d 20a1 2fbc
000003f0: d418 163e ac94 63be 4f91 8cbd 0b83 8d3d
0.06202179 0.010758375 -0.0042300075 0.22295234 0.039260086 0.008408063 -0.14527255 -0.25520045
-0.18725999 -0.31654802 -0.29337713 -0.38535023 -0.09091507 -0.088286124 -0.10860463 0.3111633
0.2938017 0.2607037 0.36754036 -0.06422416 -0.06797914 -0.08327005 0.19158025 0.003578876
-0.03790392 0.14946455 0.121406436 0.05413174 0.13460802 -0.056102905 -0.02349979 0.07950554
0.20543045 0.084013194 -0.04300621 0.021795783 0.1146665 -0.005645351 -0.06481331 -0.04149078
0.038142227 0.18266474 0.1865287 0.19247812 0.22788267 0.09865773 0.08768156 0.22673619
0.1916716 0.12874413 0.07582258 0.08926712 0.08122049 -0.023172501 -0.10452876 -0.08826712
0.054323923 -0.11102437 0.16544108 -0.06319323 0.20339665 0.07898886 0.1547756 0.011742324
-0.30718714 -0.12172235 -0.08533276 -0.09422221 0.1371778 -0.034838222 0.07737782 0.002287127
0.15524179 -0.3140697 -0.5918519 -0.34592292 -0.22179717 -0.02919822 -0.17751312 -0.10424704
0.1772939 0.22435577 0.29462466 0.28321213 0.7515211 0.59090304 0.15604647 -0.17092946
-0.3924014 -0.056779988 -0.032514885 0.015125266 0.23436293 0.4037396 0.3677487 0.23243782
0.15445355 -0.014375698 -0.024259245 -0.0081414655 0.13493365 0.06143637 0.08307465 0.0028023794
-0.27651158 -0.36423802 -0.08186279 -0.12853397 0.023809046 0.07142311 -0.015304058 -0.05419151
-0.23169619 -0.21660663 -0.2824951 -0.28534022 -0.015347471 0.18343213 0.414949 0.42081556
0.100396514 -0.41948134 -0.34439468 -0.26311556 0.22410057 0.016225029 -0.067686625 -0.6852083
0.07632021 -0.0800306 0.13651314 0.21848235 0.029402688 -0.023092302 -0.116232984 -0.03434167
-0.10160608 0.28574508 -0.028804544 -0.09944638 0.08085025 0.06929029 -0.014870286 0.2644176
0.1621241 -0.010750604 -0.010487582 -0.09869571 0.05929628 -0.18744172 -0.12793352 -0.1715038
-0.43394786 -0.18407702 -0.28797957 0.16335402 0.24386764 0.09347469 0.26765287 -0.058654185
0.018673368 -0.17385127 -0.070424326 -0.17992908 0.044060364 -0.14869453 -0.09520666 -0.104375035
-0.12317698 -0.08247863 0.054987036 -0.05899429 0.047376737 0.13842207 -0.042808387 -0.064106196
-0.03701475 -0.124292314 0.020458432 0.18603578 -0.047021657 -0.17756625 -0.1481263 -0.07425062
0.004109416 0.031093003 0.09259291 -0.0622271 -0.12513214 0.056533467 0.051836953 -0.0787123
0.001643714 -0.07709913 -0.18919203 0.051246278 0.14317769 0.1477803 0.046001833 0.029563522
-0.15991029 -0.087179534 0.121788695 -0.16296703 -0.026034405 0.07949006 0.021940593 -0.24445602
-0.022634251 0.05322429 0.02344943 0.0035035308 0.0011717324 -0.0944888 0.07560351 0.09850243
-0.021444349 -0.025868677 0.04467698 0.065063864 0.20665418 0.5275049 0.41250446 -0.006972812
0.010533623 -0.14359549 -0.108123645 -0.062892266 -0.1013242 0.048696082 0.10037513 -0.04576642
-0.032195095 -0.058260128 -0.12951736 -0.09298966 -0.10838592 -0.05186139 0.0047561284 -0.18034121
-0.05030171 0.00049573166 -0.014189235 0.060247973 -0.03077463 0.011928441 -0.0137834735 0.08165464
-0.35471207 -0.051631544 0.061401602 -0.010719568 0.14657909 -0.22224683 -0.06863653 0.0690976

bias f4 [64]
00000000: f9c7 433d 7e24 233d 54ce afbc e36a 4d3b
00000010: 3dac edbc fe6b bdbb 508d be38 1aa3 ab3c
00000020: 5764 41bc 6330 083d cccb 5bbd e447 993b
00000030: 28f8 693d 941c febc bc1c c3bc d38d 5abd
00000040: 4ff4 b6bc 4c50 b9bd 65ae d43c 8d03 633d
00000050: 2cff 4e3d f63e 163d 53a9 a53b aa2b 103d
00000060: 27d2 b13d c531 943c a658 4c3d fd24 fb3b
00000070: 626f 72bd 392f 7dbc f517 c8bb d03c 77bc
00000080: 550d 31bd 19d0 efbb cc5a b53c 4463 833b
00000090: e77e d83c 6afe 87bd 9318 9f3d 03f2 663d
000000a0: 6902 f6bc 837c 2b3d 29fa eebc 9896 f53c
000000b0: 690b c53d a4aa 3ebd 75e0 a53c 26c4 ad3b
000000c0: 77d7 8cba 0159 8dbb 67bb 3abd 750f 373d
000000d0: 0aec 893d 518c 74bd 29fe 33bd f778 98bc
000000e0: 815f 62bd f6d2 4cbd dfbb 7cbd 4c45 43bb
000000f0: 70c7 3dbd 4565 02bd 7597 ec3b f998 42bb
0.04779813 0.039829724 -0.02146069 0.0031344227 -0.029012794 -0.005780696 9.0862275e-05 0.020951796
-0.011803708 0.03324927 -0.053661153 0.0046777595 0.057121426 -0.031019486 -0.023817413 -0.05335791
-0.022333292 -0.090485185 0.025962064 0.05542331 0.05053632 0.036681138 0.0050555854 0.03519789
0.086826615 0.018090138 0.04988923 0.0076643215 -0.059188254 -0.015453153 -0.0061063715 -0.015090182
-0.043225605 -0.0073185083 0.022138022 0.004009636 0.0264277 -0.066403225 0.07768359 0.056383144
-0.030030446 0.04186679 -0.02917202 0.029979035 0.09621317 -0.046549454 0.020248631 0.0053029237
-0.0010745366 -0.0043135886 -0.045588877 0.044692475 0.06734474 -0.05970413 -0.043943558 -0.018612368
-0.05526686 -0.050005876 -0.061702605 -0.0029795943 -0.046332777 -0.03183486 0.0072202035 -0.002969323

weight f4 [64, 64]
00000000: 5431 d53d d997 443d 4cfa 543d 3a3f 473d
00000010: ff53 05be fff3 a4bd e12d 6bbd 10ed cfbd
00000020: dabf edbd bcea 98bc e34d cf3d dc98 0d3e
00000030: c556 e53d 9ef1 55bd 785f d1bd 60a2 f03d
00000040: c7ba 963d 2d0c 373d b0de f6bd 763a 47bd
00000050: 3442 643d b6d7 06bc 9d27 5cbd f15d 5dbd
00000060: 1f37 bbbc f754 ddbd dd39 c1bd 3556 203e
00000070: e303 c83c efe9 863d a28a 983d 845a 6b3d
00000080: 3253 363b b1d2 cd3d 0f65 323c 4841 c2bd
00000090: 6b42 f83d ed4d 673c 4c00 1fbe 4a40 17b9
000000a0: 5658 ed3b 3956 053e ad0b 65bd 14f6 87bd
000000b0: 0fa6 fbbd cd43 27bd e979 163e aa97 6a3c
000000c0: 1331 bb3d b4c3 513d 0460 a53d 2410 03be
000000d0: 1cbe bd3d 46df d3bc 5668 07bc f705 d2bd
000000e0: 508a 65bd c149 b63d ac66 2bbd 80ce dbbd
000000f0: 44d1 08be 8248 41bd 33dc a33d 536c 7cbc
00000100: ae2c ae3d 7c77 453d 1332 96bd b911 3bbd
00000110: 51cf e73d 82aa 663d d91b 2dbd bed6 c0bd
00000120: e9a0 5a3d d44a 343d 9bae 7ebc 5040 cbbd
00000130: b78e fa3d db5b 543d d6cd c8bd eaf7 db3c
00000140: b3d2 edbc 95cf c63d 6a11 a13d 8f27 4a3d
00000150: 67ae 12bd c3af c6bd 806c c13c 1784 513d
00000160: 6fe7 88bc ba3c 033e 9cd3 9c3d 1792 f9bd
00000170: d6b4 de3b 5875 eebc 5bab bdbc d473 11bc
00000180: cd0f 453c fa0a 7d3d 8785 9f3d be7b 1a3d
00000190: d99c 09bd 37f3 0cbe 4dbf 663d e1a0 f43c
000001a0: c912 bf3d a2e5 0bbe b6e9 fcbd 3293 b8bd
000001b0: 470d c23d 2e9d 8b3d 25c4 3bbd f3f7 d4bd
000001c0: 14bc 8abb be65 e3bd 0d88 a83d 053d 85bd
000001d0: 5bc9 c43c 98c0 153d a9ea c93d ac70 bebd
000001e0: d178 713d bbd5 cdbc aff5 883c 53f1 8ebd
000001f0: 7c4e 2c3d f767 d63b c9bf acbd caef 51bd
00000200: 2cdf 9fbd cd1b 4c3e 49e6 9b3d cd9b 11bd
00000210: a802 0b3e 1f03 40bd 49a5 ddbc 4b8f edbb
00000220: 1306 b83b cfd4 56bd cfd5 ed3d a30c a2bc
00000230: 2af2 153d bbfa a23c 17d6 ad3d 1990 1c3c
00000240: 9089 7d3d 4fa6 e1bc 49f9 9e3d bf8a f8bd
00000250: 1573 5bbd 7814 9c3d 42e1 cd3c 41a1 363e
00000260: 67b3 04be f94a be3c eda7 cabd aa25 f83d
00000270: bcc5 70bd f8c2 493d 8586 a23d 3c5f f8bc
00000280: 67e7 a93d d6a2 563e cd07 8f3d 3579 98bb
00000290: 71bf 143e d32e 45bd 9ef8 5cbe a626 f43d
000002a0: 854b 0c3e 005c 9fbc 71b9 f73c 15ae 46bd
000002b0: f1fd 4e3d fc52 de3d a51a 1ebd 3269 723d
000002c0: d079 de3c cdf4 ac3d edb8 89bd 2bf6 14bd
000002d0: 9990 1bb9 36de b43c d8c9 9abd d5dd c2bd
000002e0: 5055 803b 2d0f df3c dfb1 b2bd 8e1c 4abd
000002f0: 1bfb 483d 9836 c8bd 9210 7dbe 04f2 ae3d
00000300: 2755 e63d 15e0 9f3c 66f8 6abb 0208 e43d
00000310: e864 e33d 615b 03bc fdf5 f8bc f639 dfbd
00000320: 638f 56bd f77f 97bc 759c 15bd 8ca9 c83d
00000330: bd80 71bd 90d5 06be b881 d03d be40 cfbc
00000340: efce c3bd 5f48 5abc 906f 9ebb cfad 403d
00000350: 771c e53d ddbf 22bd d29a 33bd 0963 25bd
00000360: 93bd 093e 16a6 0b3e 90d8 96bd 3a6d 10bd
00000370: ff84 83bc 3687 7dbe e63c 063d 54be e33d
00000380: 5bab 183e da7f 123e 6f36 bebb 5898 6abd
00000390: 6132 953d debb b2bc 4a77 a43b 07ad 133e
000003a0: 57b0 833c 799e 1c3e 6f91 c0bd 847d 39bc
000003b0: 9b55 673e a6f2 98bc e8af b2bd 6d62 183d
000003c0: 47e8 b0bd 6ee2 cd3d 94dc b43d 96f4 1d3a
000003d0: 75ce b23d f20e 8e3d f964 873d 8498 6a3d
000003e0: 5148 16be 4528 eabd c405 cc3d 0273 7c3c
000003f0: 70eb 99bd ef3d 703d 61bb 5cbd a4ed b2bd
0.10409799 0.047996376 0.051996514 0.048644282 -0.13020323 -0.08054351 -0.0574168 -0.10152638
-0.116088584 -0.018666618 0.101222776 0.13827842 0.111981906 -0.052232377 -0.10223287 0.117497206
0.07359844 0.044689346 -0.12054193 -0.048639737 0.0557272 -0.00823014 -0.053748716 -0.054044668
-0.022853432 -0.108072214 -0.09434865 0.15657885 0.024415916 0.06587588 0.07448317 0.05745937
0.0027820584 0.10049952 0.010888352 -0.09485108 0.12122043 0.0141177 -0.15527457 -0.00014424432
0.0072431965 0.13021173 -0.055919338 -0.066387326 -0.122875325 -0.040836144 0.14694943 0.014318386
0.091402195 0.051212028 0.08074954 -0.12799126 0.09264776 -0.025863301 -0.008264622 -0.10255044
-0.05604011 0.08900786 -0.041845962 -0.10732746 -0.13361079 -0.04718829 0.08000984 -0.015406686
0.08504616 0.048209652 -0.0733377 -0.0456712 0.11318839 0.056314953 -0.042262886 -0.09415959
0.053376112 0.044016674 -0.015544559 -0.09924376 0.12234252 0.051845413 -0.09804885 0.026851613
-0.029031133 0.09707562 0.078646496 0.049354132 -0.035810854 -0.09701493 0.023611307 0.05115136
-0.016711919 0.12816134 0.07657549 -0.121860676 0.0067964597 -0.029108688 -0.023152998 -0.008877713
0.012027693 0.061778046 0.0778914 0.037715666 -0.033596847 -0.13764654 0.056334782 0.02986187
0.09329755 -0.13661817 -0.12349264 -0.0901245 0.09475189 0.06817089 -0.045841355 -0.10398855
-0.0042338464 -0.1110339 0.082290746 -0.06505779 0.024021795 0.036560625 0.09859211 -0.09298834
0.05895311 -0.025126329 0.016718714 -0.06979623 0.042067036 0.0065431553 -0.084350176 -0.05125407
-0.078062385 0.1993248 0.07612283 -0.035548974 0.13575232 -0.046877977 -0.027056353 -0.007249748
0.0056159585 -0.052449044 0.116130464 -0.019781416 0.0366079 0.019894948 0.084881 0.00955584
0.061898768 -0.027545122 0.07762391 -0.12135839 -0.053576548 0.076210916 0.025131825 0.17834951
-0.12959062 0.02322911 -0.098953106 0.12116559 -0.058782324 0.049258202 0.07935814 -0.030318849
0.082960896 0.20960554 0.0698391 -0.004653121 0.14526154 -0.04814036 -0.21579215 0.11921434
0.13700683 -0.019453049 0.030239793 -0.04850586 0.050535146 0.10855672 -0.03859963 0.059182353
0.027157694 0.084451295 -0.06724725 -0.036367577 -0.00014835819 0.022078615 -0.0755803 -0.09514967
0.00391642 0.027228916 -0.087253325 -0.049343638 0.049067598 -0.09776038 -0.24713352 0.085422546
0.1124671 0.01951603 -0.0035853623 0.1113434 0.11103231 -0.008017392 -0.030390734 -0.10899727
-0.052382838 -0.018493636 -0.036526162 0.097979635 -0.058960665 -0.13167405 0.10180992 -0.025299426
-0.09560954 -0.013322919 -0.0048350766 0.047040757 0.1118707 -0.039733756 -0.04384882 -0.04037765
0.13451223 0.13637576 -0.07365525 -0.035260417 -0.016054628 -0.2475861 0.03277292 0.111202866
0.14909117 0.14306584 -0.005804829 -0.057274193 0.07285 -0.021818098 0.005019103 0.14421473
0.016075296 0.15294828 -0.09402739 -0.011321429 0.2259125 -0.018670391 -0.08724958 0.03720324
-0.086380534 0.10052954 0.088311344 0.0006025521 0.08730785 0.06936444 0.06611056 0.057274356
-0.14676024 -0.11433462 0.09962037 0.015408279 -0.07515609 0.058652814 -0.053889636 -0.087367326

bias f4 [64]
00000000: 6a55 ae3b 4ac4 34bb 3a3e fc3c d771 163c
00000010: b90e a3bc 46e6 1fbc 7dcc 4abc 8751 24bc
00000020: 8ce8 a83b 5e53 c5bb 0c2c 443c 60bc 46bc
00000030: 50b7 c43b 1b26 bebb 00e0 4f3c 1bd5 8bbc
00000040: d4d8 7bbc 4a11 f9bb f6ed 19bc 937f babb
00000050: 03b7 b9bb 8ebb 32bd 7029 b6bc c4ed 58bd
00000060: 921b 83bd 4f55 f7bc 267a 883d 6ba1 6fbc
00000070: 88ee 74bc 72fa 303c d6a5 3cbd b8b9 393d
00000080: 66e1 cc3b ff03 13bd 824e 1fbb a519 943c
00000090: cccb bf3c 3fda fabc feb6 b4ba 21f9 183d
000000a0: ad1e 493b 4afe 07bc 9ef7 ffbb 4b46 40bc
000000b0: 9674 84ba b2f4 ee3b 6a54 cfbc 9944 1d3c
000000c0: dcb9 ba3b fb81 7dbc cc2d dbbb c9db 293a
000000d0: 7652 323c 9af7 0cbb eb00 6abc 99b4 203c
000000e0: 3d33 0a3c 7dd9 98bb 5dff 293b 561e ecbb
000000f0: db8b 673b b542 0a3b f93b 46bc f9e9 f7bb
0.0053202407 -0.0027582818 0.03079139 0.009182415 -0.019904481 -0.009759491 -0.012377855 -0.010029203
0.005154675 -0.006021901 0.011973392 -0.012129873 0.006003298 -0.0058028824 0.012687683 -0.01706939
-0.01537152 -0.007600938 -0.009395113 -0.0056914776 -0.0056675687 -0.043635897 -0.022236556 -0.052961126
-0.06401743 -0.030192045 0.06663923 -0.014625887 -0.014949448 0.010801898 -0.04605659 0.04534313
0.0062524555 -0.035892483 -0.002430827 0.018078635 0.023412608 -0.030621646 -0.0013787446 0.037346963
0.003068845 -0.008300373 -0.0078115007 -0.011735509 -0.0010105546 0.0072923535 -0.025308806 0.0095988745
0.0056984257 -0.015472884 -0.006688809 0.0006479589 0.010883918 -0.0021509887 -0.014282445 0.009808683
0.008435068 -0.0046645985 0.0025939562 -0.0072057648 0.0035331163 0.002109689 -0.0120992595 -0.0075657335

weight f4 [1, 64]
00000000: b73d 243d eae4 babb ff20 abbc 1003 cebc
00000010: a4de 1fbd da39 b6ba 5d7d 863d 856a e2bc
00000020: de76 1abd 150c a6bc a730 653c 2c91 afbd
00000030: 0222 61bd 52ba 36bc a562 163c 0d63 983d
00000040: 15fd 3e3d 0b41 303d fc6c 14bc 0877 d33c
00000050: 6bef 9ebc 5e34 8b3d 06d4 27be 909e a93d
00000060: dac5 e13d bfd1 eebc b63c ec3d be98 bebd
00000070: 5009 f9bc e4b4 74bd 7a00 97bc 9a53 ce3d
00000080: d8db 20bd 8d95 26bd a66d 90ba 4195 bc3d
00000090: c608 5f3d a4be c4bd 66d3 d0bc 6200 7c3d
000000a0: fbad 063b 6fb0 02bd f8ca a5bd bd33 f63c
000000b0: ed82 37bd 7687 353d c550 e2bb a0a6 9e3d
000000c0: 5c37 f2bb e950 b6bb 9656 ca3d 6721 423d
000000d0: 04d7 413d 6b82 e73c 95e5 123c 773f 4f39
000000e0: bb0c adbb e880 1dbd c0b2 743c 7565 c1bc
000000f0: bd51 cebc aec9 88bd 6c93 08bd 3ba4 583c
0.04009792 -0.005703558 -0.020889757 -0.025147945 -0.039030686 -0.0013902739 0.0656688 -0.027638683
-0.037711017 -0.020269433 0.01398865 -0.08572611 -0.054964073 -0.011152821 0.009178792 0.074407674
0.046628077 0.04303078 -0.009059187 0.025813594 -0.019401273 0.067970976 -0.16389474 0.082821965
0.11024065 -0.02915275 0.11535017 -0.09306477 -0.030399948 -0.059742823 -0.018432844 0.100745395
-0.03927216 -0.040669966 -0.0011019006 0.092081554 0.054451726 -0.09606674 -0.025491428 0.061523803
0.0020550478 -0.03190654 -0.08095354 0.030053968 -0.044802595 0.04431864 -0.006906601 0.07746625
-0.0073918533 -0.0055638445 0.09879796 0.047395136 0.047324196 0.02826043 0.008965869 0.00019764701
-0.0052810586 -0.038453013 0.014935195 -0.023607949 -0.02518546 -0.06679092 -0.033343717 0.013222749

weight_ih_l0 f4 [128, 60]
00000000: ac8e f3bd 59c4 7fbd 752a 2a3e 0435 8d3d
00000010: 1840 1f3d bbce 9cbc 1ff1 7abd 52c7 483d
00000020: 8bc6 1a3e 01d2 03be 3b6c f43d 4ec5 2dbe
00000030: 4cdb 21be 4b7a 30be 1e7f 293d 9453 b0bb
00000040: a3e3 393d ed76 16be aa13 f5bd e8a8 983d
00000050: bf21 013e 5a28 15be 563d 263b e523 4e3b
00000060: 8355 3fbd 26d1 883d d169 fbbd 8e12 a53d
00000070: e0b9 95bd 5deb fe3d 89ef 16bd b614 193e
00000080: becd eebd 46c2 28be e1fe 353e f1b8 85bd
00000090: 0e67 e13b aa82 df3d 4c14 303e 7c59 b73c
000000a0: bce7 28be a2da 01be 307e c73d 8126 873d
000000b0: 7a03 d83d 5ee7 60bd 6925 17be 6ca5 00bd
000000c0: 36b2 8a3d 5f76 e13d fd61 e6bd 5156 acbd
000000d0: cf51 083e dd55 0c3e 41cf 393e fdd8 f93d
000000e0: 038a 403d 09ff 41bc 6771 07be 2829 82bd
000000f0: d206 28be c02b f73d a64d df3d 5eb0 923d
00000100: 6c98 2ebd 0835 0fbe 66f2 353e 7d3c 323d
00000110: 3b36 b43c 59f8 82bd 5ff6 15be bafe c43c
00000120: ba32 cfbc 6294 233e 5ffb 773d 56db a63d
00000130: 2993 183e 08d9 b9bd 9b2e da3d f575 863a
00000140: 0060 26be 8009 eb3d 1739 05be 46e9 053e
00000150: 3d2f 1f3e 2dd5 d3bb 08fe 47bd 692d 073d
00000160: 89ed f63d 565d db3d 92ed 0e3e c89b 7bbc
00000170: ab43 0cbe d9bf b73d 62fb 5f3c e87e d73c
00000180: b708 263e 0ffe 5cbd 8f70 183e e08c e8bd
00000190: dd48 eabd 7ebf 0a3e db02 1d3e fd38 8fbd
000001a0: 24bb d53c 99e5 773c f298 763d 86e5 b1bc
000001b0: b70e 37be 1565 8b3d 3d9f 1ebe b0e7 09be
000001c0: 785a 24be 4c79 773d 4eb8 d83d ae24 d2bd
000001d0: f092 1b3e 9e24 04be 6dac 023e d764 9e3d
000001e0: d57c e1bc 319c 173e e840 053e 7d03 0f3e
000001f0: 2b6c 11be 6a49 28bd 5a0d ecbd c1b7 103e
00000200: b97f 333d 0a12 b0bd 1e26 06bd 9427 e73d
00000210: 4cea 1e3e e570 afbc 9967 27be bea5 91bd
00000220: ae7e 033e bb61 ae3c 4aac fb3d d32d 153e
00000230: dd08 78bd 16e8 de3d 4cc9 13bd 5aea 81bd
00000240: e56f cfbd a27c 333d f4a8 7f3d 6be3 f43d
00000250: c9a8 243e cfd3 05be 9c67 97bc f454 21bd
00000260: 5529 b63d 444c b63d ad56 133e 66c5 e33d
00000270: 0075 eb3d 353a 12be 72ef d6bd c5cd 13be
00000280: b87e b2bd 8549 b2bd 7669 053e fd35 82bd
00000290: 6c61 2f3e 22ec 1d3e b0ce ee3d 3df5 e53d
000002a0: 51ea 043e 2d67 b13c 3fa2 0ebe 18d7 e23d
000002b0: dd76 d93d 940b f53d 640d e3bd 8052 c2bc
000002c0: a1a5 dc3d 4951 84bc 2c40 7dbc be76 c1bd
000002d0: 2492 ca3d 0aad bf3d 050a 1ebd a8f1 093e
000002e0: b150 c5bd e872 c63d 0803 c1bb f88c 9abd
000002f0: be2c 9e3c 90dd 1fbe 6b31 163e 6d3f 85bc
00000300: 9a66 b3bd 8f57 a83c 8b6c ed3d 2669 0e3e
00000310: 29d2 d13d b863 33bd 92c2 403d b628 263e
00000320: e27d c23d 2b89 3f3e 1ff3 3b3b bf26 2bbe
00000330: e354 153d f251 89bd f4dd 153d a149 993d
00000340: de2e d93d ecc3 b9bd 4d06 10be b43c 373e
00000350: ba45 513d e0c0 c13d 7c31 503d 8927 e8bc
00000360: e244 20be a80a 213e 42aa 363e 7cc6 bc3c
00000370: 246d 3dbd 1ade 973d 9647 25be 84f1 593d
00000380: 48d6 1e3e 2747 0ebd c98a 653b 4181 ba3d
00000390: 3f2b 42bb c911 d5bb 6b46 1c3d 7566 fdbc
000003a0: 3634 8b3b a6c9 0a3c b4a6 e13d 3d94 153e
000003b0: 67a6 6dba 67fb 8b3c a619 0bbe c2ae c93d
000003c0: c468 b33d ed60 09be 3e59 d43d 4f43 483d
000003d0: 22ba e2bd 089e 0dbc 34c4 21be fb66 503c
000003e0: 2be7 9c3d 83bb f4bd 1bd5 22bd 6a7b e83d
000003f0: 146a 043e 6dd9 013e f76f a4bd 7075 dfbb
-0.11892447 -0.06244311 0.16617759 0.068948776 0.038879484 -0.019141546 -0.061265107 0.04901821
0.151148 -0.12873079 0.11934706 -0.16969797 -0.15806311 -0.17234151 0.041380994 -0.005381057
0.045383107 -0.14693804 -0.11966641 0.07454091 0.1261053 -0.14566174 0.002536615 0.00314545
-0.04671241 0.06680517 -0.12276042 0.0806018 -0.073108435 0.12447236 -0.036849532 0.14949307
-0.11660336 -0.1648036 0.1777301 -0.065294154 0.00687874 0.10913594 0.17195243 0.022381537
-0.1649465 -0.12681058 0.09740865 0.06599141 0.10547538 -0.05490815 -0.14760365 -0.03140776
0.06772272 0.110089056 -0.112491585 -0.08414901 0.13312458 0.13704629 0.18145467 0.1219959
0.04700662 -0.01184059 -0.13226853 -0.06355506 -0.16408852 0.120688915 0.10903482 0.071625456
-0.04262583 -0.13985074 0.17768249 0.043514717 0.021998515 -0.06395025 -0.14644764 0.024047244
-0.025292743 0.15974572 0.06054246 0.08147304 0.14899887 -0.090745986 0.106534205 0.0010258543
-0.16247559 0.11476421 -0.1301006 0.13077268 0.15545364 -0.0064646215 -0.048826247 0.03300229
0.12057025 0.10711162 0.13957813 -0.015356965 -0.13697688 0.08972139 0.013670774 0.02630563
0.16214262 -0.053953227 0.14886688 -0.11354995 -0.11439679 0.13549611 0.1533312 -0.069932915
0.026090212 0.015130424 0.060204454 -0.02171589 -0.17876707 0.06806389 -0.15490432 -0.13467288
-0.16050136 0.060418412 0.10582028 -0.10260902 0.15192771 -0.12904593 0.12761088 0.077340774
-0.027525345 0.14805676 0.13013041 0.13966174 -0.14201419 -0.041085638 -0.11525984 0.14132597
0.043822978 -0.08597191 -0.032751195 0.11286846 0.15519065 -0.021416137 -0.16348113 -0.07111691
0.12841293 0.021286836 0.12288721 0.14568262 -0.060555328 0.10884111 -0.036080644 -0.06343527
-0.10128764 0.04382003 0.062416986 0.11957439 0.16080011 -0.1306908 -0.018482022 -0.03938766
0.08894602 0.08901265 0.14388533 0.11121635 0.11496925 -0.14280017 -0.10494889 -0.14433964
-0.08715576 -0.08705429 0.13028511 -0.06357954 0.17127007 0.15422109 0.11660516 0.11228416
0.1298001 0.021655643 -0.1392908 0.11076182 0.106183745 0.11965099 -0.110865384 -0.02372098
0.10773779 -0.016152041 -0.015457194 -0.094464764 0.09891155 0.093591765 -0.038583774 0.13471091
-0.09634531 0.096898854 -0.005890254 -0.07546419 0.019308444 -0.15611863 0.14667289 -0.016265595
-0.08759804 0.020549564 0.115929686 0.13907298 0.10245163 -0.04379627 0.047060557 0.16226467
0.094966665 0.18704669 0.0028678847 -0.16713999 0.036457907 -0.06705083 0.036588624 0.07484747
0.10604642 -0.09070572 -0.14064904 0.1789425 0.051091887 0.09460616 0.050828442 -0.028339164
-0.15651277 0.15726721 0.17838386 0.023043863 -0.046246663 0.074154094 -0.16140589 0.053208843
0.1551143 -0.034735825 0.003502535 0.091066845 -0.0029627827 -0.0065023643 0.038153093 -0.030932644
0.0042481674 0.008470928 0.11018124 0.1460733 -0.00090656284 0.017087651 -0.13584003 0.098477855
0.08760217 -0.1341588 0.10368584 0.048892315 -0.11070658 -0.008643635 -0.15797502 0.012719865
0.07661279 -0.119498275 -0.039754014 0.11351664 0.1293109 0.12680598 -0.08029168 -0.0068194196

weight_hh_l0 f4 [128, 32]
00000000: a437 8ebd caca d53c 31bd 1d3c 4bd3 8e3d
00000010: 69b7 933d 54fd b63c fa72 cdbc 8a77 b7bc
00000020: d7dc e93d 2c92 163e 66ef 45be 2ad9 97bd
00000030: 6cb9 00bd 6a77 4b3d 0758 bdbc f171 073e
00000040: 46d6 25bd 83f8 013e 443b c2bd 8e6e 153e
00000050: 0307 a33c b62b 193e 6423 163d 75d6 47be
00000060: 954d a53d ceb0 67bd 4584 fdbc 9636 34be
00000070: 0e0b 7b3d de4a 8fbd 45ba ad3b 62fe 28be
00000080: cc5e e83d 4014 e63d 0175 c8bd 07a3 e1bc
00000090: 4bb8 15be f20b 09bd 9186 c23d 8c42 0d3e
000000a0: c602 0d3d fad7 c5bd 454d 843d c550 98bd
000000b0: a4ba 1ebd f63f 7b3c 9f54 02be bca2 16bd
000000c0: b245 e0bd a328 e9bd 6190 8e3d 0518 07bd
000000d0: 055a 193d 7699 a83d 5fc7 34be 4aa4 95bc
000000e0: e891 2b3e 0426 a2bd 7de7 dc3d 916a 3abe
000000f0: a13a 933d a111 11be ff69 293e 975b 2dbe
00000100: 40a8 9e3c 2817 313e 02ae a53d bd07 9ebc
00000110: e852 a43d c00e 083d 9474 2bbd 605c 36bd
00000120: be35 3dbd d48b 2ebe 901e d6bd 5ec3 6fbc
00000130: 0443 cd3d 32ff 0abe 0f91 013e d992 2a3e
00000140: ab29 d6bd beec ac3d c339 f53d 34af c5bd
00000150: dbda be3d a708 1a3e 810d 103e 9f27 1cbe
00000160: 5095 aabc fa02 a7bc 6506 963d 54df 613c
00000170: 3b9b e5bd bc43 1fbe c711 82bd d1af 253b
00000180: 11f2 15be bfac 1b3d 1941 a3bd 7c7d acbd
00000190: 11e8 b0bd f333 b6bd 6e36 ae3d 63a8 2a3e
000001a0: e942 3abd 385a 77bd ca77 ffbc 0b68 70bd
000001b0: 7b68 6b3d 4ab7 7dbd 4432 8dbd 10ef ac3d
000001c0: 2f62 a8bd 33a8 d03d 1a54 203d 1fab 053e
000001d0: 08ff 23bd 9fb4 59bc 6b3c c8bc af1b 5bbd
000001e0: 4f6b 333d 3399 4e3d 72df de3d 005f a5bc
000001f0: 4a79 7f3a 0d56 97bc 1029 5a3d d9fd 083e
00000200: afe6 653d 619c 263e 3f32 a43d ba9b 043e
00000210: 67e1 04be ce78 ed3d c026 b1bd 062c 3a3c
00000220: 6751 263e d0d1 0f3b d8f2 c43d 3c83 6abb
00000230: 110d f5bd d337 1c3e 5ba4 debd a59d 2f3e
00000240: 31aa a0bc edbb 9abd 4b4d 23be 7561 cc3d
00000250: 45bc 0dbe 3728 f2bc 2be5 bfbc 4eea 783d
00000260: 7144 8cbd 6ddc 0e3d 8014 09be 2efb 973d
00000270: 938d 48bd 6d8d ba3d 9c33 183e b633 2c3e
00000280: 603b 1ebe ed7f 3dbe 3677 1d3d 0ce3 11be
00000290: d837 b6bc bc44 df3d 548a 8a3d 895c 2e3a
000002a0: 78b6 a93d 5d7e 45bd 0652 75bd 98a8 993d
000002b0: e9e9 213c 324e 0a3e fa2b f83d 2c24 d83d
000002c0: c302 903c 138f 02bd 62bb 19bc b0ea 283e
000002d0: de1f d1bc 5b18 253d c595 12be 3c2e 10bd
000002e0: 3f7c 233d 56d6 9a3d c2f0 f13d 0e9a 5d3d
000002f0: 6999 15be 1dce 2fbe 05b5 193e 38d4 4cbe
00000300: 7a8c 7a3d 8dd8 d0bc 1ebf 0f3d 36dc 25be
00000310: c627 6d3d c275 6ebd 6bf9 133e 3910 20bd
00000320: c257 84bd 505a 0e3d 0e25 913c 9274 cbbd
00000330: a5bc 073e 08c4 02be 8cce 433c 5bb2 df3c
00000340: 3cee 4fbe 0ffc 32be 86eb 0e3e 8d07 503e
00000350: 40b7 653d 8c2a 8fbd 05d6 6b3c 5680 4cbe
00000360: 3336 273d cafc c2bd 198c bdbc f294 c73d
00000370: 8f3e 3b3e 0d25 b8bd 8bf2 193e 950e 45be
00000380: dcad 4cbc 6511 293d 21e7 05be 7341 953d
00000390: 9cdc 0b3e 4f64 7a3d be6f 8e3d d83b 2b3e
000003a0: 8805 273c 892f f13d c3b4 4dbd bbbc cfbc
000003b0: 2245 f53c f073 0f3e 29b0 ecbd c742 d63d
000003c0: b973 7a3c 302b 07be 98c9 d93d c72c 283d
000003d0: b3cc aebd c03e 433e 35e1 9e3c efce 2dbe
000003e0: 991e 353e 7f9d 3abd 34cf 103e fc3d a53d
000003f0: 9152 87bc 0752 083e 1f35 cd3c 1a7a bd3d
-0.06944206 0.026097674 0.009627626 0.06973895 0.07212717 0.022337593 -0.02507924 -0.022395868
0.11419075 0.14704198 -0.19329605 -0.07414468 -0.031426832 0.04967443 -0.023113264 0.13227059
-0.04048755 0.12692456 -0.0948396 0.14592955 0.019900804 0.1495808 0.036654845 -0.19515403
0.08071438 -0.0565651 -0.03094686 -0.17598948 0.06128984 -0.06996702 0.005301746 -0.1650329
0.11346206 0.11234331 -0.09787942 -0.027543558 -0.14621083 -0.033458658 0.09498323 0.13794917
0.034426473 -0.09660335 0.064600505 -0.074372806 -0.038752213 0.015335074 -0.12727593 -0.03677629
-0.10950793 -0.11384704 0.06961132 -0.03298189 0.037439365 0.08232395 -0.17654179 -0.018266816
0.16754878 -0.07917407 0.107863404 -0.18204714 0.07188917 -0.14166881 0.1654434 -0.1692947
0.019367337 0.1729399 0.0808983 -0.0192908 0.080236256 0.03321719 -0.041859224 -0.04452169
-0.04619383 -0.17045528 -0.10455048 -0.0146339815 0.10022548 -0.13573912 0.12652992 0.1665758
-0.10457166 0.084435925 0.11973908 -0.09652558 0.09319087 0.15042363 0.14067651 -0.15249489
-0.02082315 -0.020387162 0.073254384 0.013786156 -0.112112485 -0.15553182 -0.06351047 0.0025281797
-0.14643122 0.03800654 -0.07971401 -0.08422372 -0.08638013 -0.08896627 0.085064754 0.16665797
-0.045473967 -0.060388774 -0.03118505 -0.058692973 0.057472687 -0.061942376 -0.06894353 0.08444035
-0.08221852 0.101883315 0.039142706 0.13053559 -0.04003814 -0.013287692 -0.024442872 -0.053493198
0.04380351 0.05043907 0.108824626 -0.020186901 0.00097455515 -0.01847365 0.053261817 0.13378085
0.0561282 0.16270591 0.08017396 0.1295003 -0.12976609 0.11595307 -0.08649969 0.011363035
0.1624199 0.0021945126 0.09616631 -0.0035783788 -0.11965383 0.1525567 -0.10871192 0.1714998
-0.019612404 -0.07555375 -0.15947454 0.09979526 -0.1384135 -0.029560192 -0.023424705 0.060770325
-0.06848992 0.034878183 -0.13386726 0.074209556 -0.04896314 0.09109006 0.14863437 0.16816601
-0.15452337 -0.18505831 0.038443767 -0.14246768 -0.022243425 0.10901782 0.06764665 0.0006651362
0.08286756 -0.048216213 -0.059892677 0.0750286 0.009882429 0.13506392 0.12117763 0.10553774
0.017579442 -0.031874727 -0.009383054 0.16495776 -0.02552789 0.04030643 -0.14314945 -0.035200343
0.039913412 0.075604126 0.11813499 0.054101996 -0.14609303 -0.1716847 0.1501046 -0.2000283
0.061169125 -0.025493884 0.035094373 -0.16197285 0.05789926 -0.05821777 0.14450614 -0.03907797
-0.06462051 0.034754097 0.017717864 -0.099343434 0.13255556 -0.12770092 0.0119511 0.027306726
-0.20305723 -0.17478965 0.13957033 0.2031538 0.056082964 -0.06990537 0.014394288 -0.19970831
0.040823173 -0.09520872 -0.023138093 0.09745206 0.18285583 -0.08991442 0.15033929 -0.19243844
-0.012492623 0.041276354 -0.1307645 0.07287874 0.13658375 0.061130818 0.06954907 0.16722047
0.01019419 0.11776645 -0.050221216 -0.025358548 0.029940192 0.1400907 -0.115570374 0.104619555
0.0152863795 -0.13200068 0.10634154 0.041058328 -0.08535137 0.19066906 0.019394496 -0.1697347
0.17687453 -0.045560356 0.14141542 0.08068463 -0.016518863 0.13312541 0.025049744 0.09251805
