data/valor-anonymous-expert/valor-anonymous-expert_s0/pyt_save/model.pt (torch, 318572 bytes, 19 tensors)

log_std f4 [2]
-0.49727482 -0.49729097
00000000: ce9a febe ec9c febe

weight f4 [128, 70]
-0.0031321202 0.06444105 -0.09944541 -0.08946148 -0.047757845 0.031261057 -0.0041883406 0.09475426
-0.011954829 0.031162774 -0.038461868 -0.022692382 -0.1149801 -0.07753382 -0.047057625 0.0035617028
0.047990873 0.07258598 -0.07759662 -0.052047763 0.04341275 0.09849668 -0.02319731 0.09076066
-0.019251313 0.010484791 0.106353074 -0.11074416 -0.077012256 -0.028742373 -0.044444658 0.1018691
-0.07756409 -0.05623088 -0.08407888 -0.11277933 -0.07145307 0.102940686 0.053675734 0.054752532
0.006285894 -0.0613719 0.02273407 -0.10782506 -0.0890632 -0.061021358 0.07784496 0.069717884
-0.0518947 -0.003865421 0.074683644 0.11802915 0.04558963 0.016971 0.079324834 -0.068469636
0.024139721 -0.09203533 -0.085193954 -0.061743546 0.05435473 0.04780803 -0.06762499 0.0357374
0.06713163 -0.013778837 0.0034277807 0.030280529 0.073600076 0.10995206 -0.09180126 -0.04406746
0.04804267 0.099092595 0.1034815 0.106476896 0.02614055 -0.10433451 0.007819471 -0.07393057
-0.108067214 0.10539905 0.09265995 -0.120042175 0.02400087 -0.019669732 -0.02021911 -0.053590775
0.044433206 -0.070793815 0.043816045 0.061065335 0.08621022 0.046511985 -0.11727534 -0.07514508
0.060153686 0.024382778 -0.09177348 -0.06971537 0.111407824 0.07935833 -0.050813045 -0.02892208
-0.11209147 -0.001448136 -0.08945525 -0.09083756 -0.00790321 0.019034728 -0.048948232 0.07281106
-0.07538232 0.105063185 0.084620275 -0.100201786 -0.032257617 0.0055486956 0.016411731 0.02758889
0.0475138 0.008646466 -0.05646191 0.055240855 -0.11351929 -0.0682176 -0.028779713 -0.05929498
-0.04213924 -0.09796353 -0.023274286 0.027376283 -0.07893117 -0.005761453 0.084299624 -0.0135948565
0.0037510723 -0.011658207 0.023163756 0.07984102 0.11483346 0.07545 0.11407641 -0.008199708
-0.10439031 -0.05787605 0.08157835 -0.0031603929 -0.061220467 -0.09546469 -0.114461705 -0.101915024
-0.02682348 0.06251423 0.061607983 -0.117377065 0.07750629 -0.09246385 -0.025413238 -0.04846325
-0.023021929 -0.02470929 -0.107977174 -0.10452716 -0.018740728 -0.0011132497 -0.05460211 0.04462669
-0.10770027 -0.009526306 0.10401769 -0.048728984 0.10790424 0.043776713 -0.10793523 0.07611136
-0.012381785 -0.051548593 0.09413696 -0.09643565 0.012825392 -0.025446834 0.08349152 0.032885518
0.056154657 0.041579463 -0.0289356 -0.025851099 -0.10075025 0.06452178 0.09648342 0.08308932
-0.08524257 0.0042372877 -0.08742243 -0.06929191 -0.07348682 0.04073728 -0.07029797 -0.002607655
0.0054318965 0.0760244 -0.09299724 -0.083499834 -0.069460444 0.07960857 -0.04511794 0.09674238
0.0438476 0.01227885 -0.0017990699 -0.025910703 0.01512105 -0.024853524 -0.0014489735 0.01691921
-0.09189822 -0.062970415 0.09505244 -0.094702 -0.00541204 0.117447846 0.04493441 0.0022082336
-0.10096088 0.05968674 -0.085804395 -0.03288521 -0.039231215 -0.017699828 0.0013073754 0.09914833
0.017262543 0.109396935 0.074363776 -0.07303877 0.05414215 -0.08506136 -0.050397232 0.032349262
0.038820032 0.08877227 -0.03792401 0.0033042629 0.062674806 -0.114432625 0.0881703 -0.09706775
-0.0011458823 -0.019752303 -0.062949456 0.017502103 0.095883824 -0.037757903 -0.06902505 -0.04370034
00000000: 4244 4dbb abf9 833d 09aa cbbd 9537 b7bd
00000010: bb9d 43bd 980b 003d 593e 89bb 850e c23d
00000020: 30de 43bc 1349 ff3c 318a 1dbd 60e5 b9bc
00000030: b07a ebbd 0dca 9ebd 7fbf 40bd 756b 693b
00000040: 1492 443d f5a7 943d faea 9ebd 0930 55bd
00000050: 91d1 313d a1b8 c93d 4908 bebc bae0 b93d
00000060: eeb4 9dbc 67c8 2b3c a4cf d93d d6cd e2bd
00000070: 9ab8 9dbd 2075 ebbc 9a0b 36bd bfa0 d03d
00000080: ecd9 9ebd 5a52 66bd 8c31 acbd d9f8 e6bd
00000090: fd55 92bd 91d2 d23d 16db 5b3d 3144 603d
000000a0: e7f9 cd3b 1a61 7bbd cd3c ba3c 63d3 dcbd
000000b0: c466 b6bd 88f1 79bd 2e6d 9f3d 40c8 8e3d
000000c0: 898f 54bd 0153 7dbb bdf3 983d 44b9 f13d
000000d0: 31bc 3a3d c406 8b3c 0f75 a23d cf39 8cbd
000000e0: aac0 c53c 057d bcbd 2b7a aebd cde6 7cbd
000000f0: 11a3 5e3d 5ad2 433d f97e 8abd 6161 123d
00000100: 4f7c 893d a2c0 61bc 9ea4 603b df0e f83c
00000110: a3bb 963d 8c2e e13d 4d02 bcbd 1580 34bd
00000120: 64c8 443d 0ff1 ca3d 1cee d33d 8f10 da3d
00000130: b524 d63c 55ad d5bd 3d1d 003c e968 97bd
00000140: 5852 ddbd 75db d73d 80c4 bd3d acd8 f5bd
00000150: 799d c43c 6b22 a1bc 8ca2 a5bc 0082 5bbd
00000160: 98ff 353d 59fc 90bd 7478 333d a51f 7a3d
00000170: fc8e b03d 5a83 3e3d 0e2e f0bd aae5 99bd
00000180: b663 763d 64be c73c bcf3 bbbd efc6 8ebd
00000190: c929 e43d 9f86 a23d 5721 50bd ffed ecbc
000001a0: 3690 e5bd 62cf bdba 5034 b7bd 0b09 babd
000001b0: 777c 01bc b8ee 9b3c f17d 48bd f71d 953d
000001c0: 0c62 9abd 5e2b d73d 654d ad3d 9836 cdbd
000001d0: 9020 04bd d5d1 b53b e571 863c 1902 e23c
000001e0: d59d 423d e8a9 0d3c 9b44 67bd 3c44 623d
000001f0: cd7c e8bd abb5 8bbd 6fc3 ebbc 4bdf 72bd
00000200: 329a 2cbd 1aa1 c8bd b7a9 bebc 3a44 e03c
00000210: aaa6 a1bd 92ca bcbb 48a5 ac3d f6bc 5ebc
00000220: 8dd4 753b 1002 3fbc ebc1 bd3c b083 a33d
00000230: ce2d eb3d 8885 9a3d e5a0 e93d 1158 06bc
00000240: 96ca d5bd 700f 6dbd 8d12 a73d 981e 4fbb
00000250: 50c2 7abd fe82 c3bd e66a eabd d3b8 d0bd
00000260: eabc dbbc 7607 803d a758 7c3d 6363 f0bd
00000270: 9ebb 9e3d b05d bdbd 6c2f d0bc 6781 46bd
00000280: 7c98 bcbc 236b cabc 2323 ddbd 5612 d6bd
00000290: 2886 99bc 76ea 91ba 76a6 5fbd 7aca 363d
000002a0: f691 dcbd 3914 1cbc 3a07 d53d 0b98 47bd
000002b0: e6fc dc3d 364f 333d 250d ddbd 46e0 9b3d
000002c0: f8dc 4abc 9e24 53bd e1ca c03d 0e80 c5bd
000002d0: 9821 523c e175 d0bc 9afd aa3d f7b2 063d
000002e0: 6d02 663d 3a4f 2a3d 5a0a edbc afc5 d3bc
000002f0: 2656 cebd ff23 843d 1999 c53d bc2a aa3d
00000300: a893 aebd f2d8 8a3b 880a b3bd ebe8 8dbd
00000310: 4280 96bd 22dc 263d 62f8 8fbd 31e5 2abb
00000320: 0dfe b13b aeb2 9b3d 5675 bebd f601 abbd
00000330: 4741 8ebd d109 a33d 97cd 38bd de20 c63d
00000340: 8b99 333d 3b2d 493c c5ce ebba af42 d4bc
00000350: 48be 773c 9e99 cbbc 7ceb bdba 289a 8a3c
00000360: 2235 bcbd a2f6 80bd dbaa c23d 1ff3 c1bd
00000370: 7b57 b1bb 7f88 f03d 250d 383d 03b8 103b
00000380: 94c4 cebd 157a 743d 37ba afbd a4b2 06bd
00000390: e9b0 20bd 3bff 90bc 3d5c ab3a 480e cb3d
000003a0: 2d6a 8d3c 800b e03d 094c 983d 5a95 95bd
000003b0: 29c4 5d3d a634 aebd 546d 4ebd a980 043d
000003c0: c101 1f3d 3cce b53d 3556 1bbd 558c 583b
000003d0: a65b 803d a75b eabd a192 b43d 75cb c6bd
000003e0: 6e31 96ba 95cf a1bc a5eb 80bd 9260 8f3c
000003f0: bd5e c43d 08a8 1abd 015d 8dbd 21ff 32bd

bias f4 [128]
-0.0010726867 0.0010689958 0.00059979316 0.00012495414 -0.002640104 0.0016329972 -0.0008608348 -0.0007442555
0.0017081421 0.0020884695 0.0010806164 0.0012256231 0.0006841498 8.032573e-05 0.0008012182 -0.00015538247
0.0016175444 -0.0005392725 0.00094061764 -0.00019092977 -0.0026638252 0.0006084911 0.00095379056 -0.0011993478
-0.0017745952 -0.00017993065 0.0012118833 0.00025861512 -0.0012452238 0.000892791 -0.00036604173 -0.00023439764
0.0023743547 -0.00061550736 0.0010934398 0.0014225157 0.00063850405 0.00020568182 0.0021900828 -0.0011814847
0.0010472514 0.0018615376 0.001695378 -0.0011512284 -0.0013188135 0.0011750651 0.002036517 -0.0010455418
4.9479568e-05 0.0013222103 -0.0012938061 -0.001651529 0.0014351885 -0.0006725047 0.00091701536 -0.0016166895
-0.00029713265 -0.0009134937 -0.0015319318 -0.0014646659 0.00011365491 0.00011652148 0.0016560438 -0.0017966777
0.00038979502 0.0010488208 -0.00010078348 -0.00085851515 0.00012026592 -0.0011509379 0.0011833373 0.0016731377
-0.00070873945 0.000155408 0.0016100615 0.0015497154 -0.00021708528 0.0011517225 -0.0012765293 0.0007613143
-0.0010431368 0.001174364 0.00017131194 0.0010565389 -0.002038831 0.0010162529 -0.0009318061 0.0010145735
-0.0011181601 -0.0020799958 0.0012311749 -0.0010471431 0.00096638897 7.2041206e-05 -0.0009780802 0.001194102
0.00013836668 -0.0017208776 -0.0012972368 0.00013631787 -0.0015312909 0.00058124383 -0.00017717296 0.0023471303
-0.0019183593 8.5222186e-05 -0.000119359 -0.00096125284 -0.0015053179 0.002008242 -0.0001977502 0.0010342181
-0.0020105403 0.0015758313 0.0009729977 0.0011635094 0.0017256703 -0.0010716848 0.0008334159 0.00027742906
0.001636927 0.0011415547 -0.0024307629 -0.0011395843 -0.0010880504 2.0473657e-05 -0.001430207 0.0028789686
00000000: 6599 8cba 8c1d 8c3a 703b 1d3a 1f06 0339
00000010: 9805 2dbb 4b0a d63a a5a9 61ba 241a 43ba
00000020: bde3 df3a b4de 083b 78a3 8d3a 16a5 a03a
00000030: 8458 333a 8c74 a838 d808 523a 2aee 22b9
00000040: c903 d43a f75d 0dba c893 763a 5234 48b9
00000050: 9293 2ebb 2583 1f3a cd07 7a3a 6f33 9dba
00000060: 8999 e8ba c4ab 3cb9 0ed8 9e3a bc96 8739
00000070: c736 a3ba 310a 6a3a 4ae9 bfb9 a3c8 75b9
00000080: 109b 1b3b 005a 21ba c051 8f3a b573 ba3a
00000090: 4861 273a 4bac 5739 7e87 0f3b 0cdc 9aba
000000a0: ed43 893a d6fe f33a 7237 de3a d1e4 96ba
000000b0: 0adc acba a404 9a3a 1677 053b 900a 89ba
000000c0: 4888 4f38 044e ad3a ee94 a9ba 1e78 d8ba
000000d0: ef1c bc3a 074b 30ba dc63 703a 19e7 d3ba
000000e0: 78c8 9bb9 8677 6fba 1acb c8ba 08fa bfba
000000f0: 045a ee38 fe5c f438 9c0f d93a 807e ebba
00000100: 675d cc39 9678 893a b85b d3b8 fa0d 61ba
00000110: 4637 fc38 11db 96ba 361a 9b3a 2f4d db3a
00000120: b3ca 39ba 04f5 2239 b308 d33a d21f cb3a
00000130: 63a1 63b9 65f5 963a 3751 a7ba f092 473a
00000140: ddb9 88ba 1eed 993a 33a2 3339 907b 8a3a
00000150: e89d 05bb ca33 853a 7344 74ba 70fb 843a
00000160: 3a8f 92ba 8a50 08bb 605f a13a 4b40 89ba
00000170: 4455 7d3a d414 9738 ed32 80ba 6a83 9c3a
00000180: 8616 1139 128f e1ba 0b08 aaba 8df0 0e39
00000190: 99b5 c8ba 9d5e 183a 81c7 39b9 50d2 193b
000001a0: 7571 fbba 50b9 b238 6050 fab8 96fc 7bba
000001b0: 164e c5ba b69c 033b 2a5b 4fb9 9a8e 873a
000001c0: 45c3 03bb 208c ce3a c510 7f3a e680 983a
000001d0: e32f e23a c677 8cba 9879 5a3a e673 9139
000001e0: 288e d63a 38a0 953a 6f4d 1fbb 1b5e 95ba
000001f0: ea9c 8eba d8be ab37 c975 bbba 14ad 3c3b

weight f4 [128, 128]
-0.052197404 0.05863078 0.07522374 0.04045416 0.047953386 -0.063692115 0.017811526 -0.0074582365
-0.039646123 0.01992768 0.034856267 -0.059672266 -0.012005797 0.023284333 0.086588465 -0.070172064
0.07895642 -0.009429996 0.020823652 -0.07476897 -0.07880537 -0.044165142 -0.0054785726 0.015773948
0.07663834 -0.016451798 0.06177645 -0.07506916 0.048494916 -0.07760463 -0.086164355 0.054175
-0.056606464 -0.05008419 -0.052070055 -0.025544655 0.04218603 0.043134768 -0.06731279 0.0087043345
-0.071995094 -0.07621901 -0.023363588 -0.0086504975 0.04318548 0.03731863 0.02119282 0.06640646
-0.0092384415 -0.009545869 0.0853084 0.0045701386 0.05896289 -0.045108408 0.055611547 0.053618312
0.06949859 -0.05131806 -0.084057994 0.01427524 -0.011505413 0.08256067 -0.029294189 -0.038976308
0.014784288 -0.07060789 -0.07252966 0.05583614 0.019263722 0.01605262 -0.01206302 0.051815744
-0.032298952 0.027887395 0.030439982 0.021411791 -0.06131602 -0.080945514 -0.043363735 -0.076971315
-0.07564856 -0.029481214 -0.010420259 0.011691131 -0.04686027 -0.055451073 -0.022303283 0.04989353
0.046167143 0.080426455 0.03978279 0.064437985 0.0012998459 -0.057012584 0.028221816 0.07567969
-0.030071083 -0.0039115315 -0.07963251 0.068260856 -0.073080234 -0.04093742 0.0017308942 -0.04321768
0.001505427 -0.047079466 0.08656899 -0.049494445 0.014244867 -0.08596519 0.011371177 0.060313858
-0.05639845 -0.018554652 -0.0018299962 -0.0038187483 0.01821303 0.07049563 -0.025325263 0.028341923
-0.07384481 -0.053244207 -0.06276053 0.021468118 0.017154189 0.08781206 0.032559097 -0.008314381
-0.037983377 0.009909991 -0.040301308 0.015265052 -0.021078978 -0.058191452 0.0061891745 0.03519068
-0.017185604 0.0013024956 -0.0892084 -0.027846724 -0.08906431 0.08663918 0.07666695 -0.073899694
-0.067046486 -0.0737539 0.052139033 0.019932693 -0.08280925 -0.02593735 0.0685158 -0.0024198485
-0.08211036 0.029764337 0.08826799 0.081788816 0.00657498 -0.02667291 0.010147248 0.06671532
0.037050314 -0.07498604 0.0451697 0.056104984 -0.07666697 -0.06370966 0.06166496 0.048344575
-0.07492525 0.023328422 0.05265597 0.016660653 0.04601914 0.02698288 0.026620448 0.0502554
-0.029120622 -0.0018098901 -0.021515073 -0.018221257 0.03309528 -0.035208408 -0.0059208428 0.07630139
0.03041574 0.08909677 -0.0029100608 -0.032321267 0.075936735 -0.05783283 0.042347353 0.07399262
-0.049014315 -0.018651338 0.078402914 -0.009516047 -0.076383 -0.049654383 -0.08261514 -0.014817983
0.05012939 -0.009522749 -0.015394337 0.006317358 -0.005957928 -0.014537471 -0.02923518 0.0092116855
-0.00426367 -0.011179748 -0.024281763 0.021674272 -0.03465868 -0.003818717 -0.0121439975 0.059896063
0.036340784 0.03434227 0.00011969854 -0.05496019 0.0074626263 -0.07196937 0.0044015907 0.08427529
-0.011635522 0.08553572 -0.05616959 0.07083358 0.033014398 -0.039993603 -0.08614683 -0.040752318
0.043911677 0.08774913 -0.07003244 -0.037385974 0.029344339 -0.023587875 -0.0763836 -0.027960587
0.02570748 -0.08748187 -0.03113337 0.049593132 0.04315644 -0.03867092 0.084579915 0.01534121
0.04135572 -0.008292263 -0.034787986 0.079061665 -0.080296904 0.03212707 -0.0375794 -0.026822643
00000000: f2cc 55bd d426 703d e70e 9a3d 43b3 253d
00000010: c56a 443d 0371 82bd 7ae9 913c 3964 f4bb
00000020: f963 22bd 603f a33c 72c5 0e3d e86a 74bd
00000030: f6b3 44bc c9be be3c 4b55 b13d 5fb6 8fbd
00000040: e7b3 a13d 4580 1abc 5d96 aa3c 7920 99bd
00000050: b664 a1bd 82e6 34bd 9985 b3bb 5e38 813c
00000060: 90f4 9c3d ecc5 86bc 4e09 7d3d dcbd 99bd
00000070: 9ba2 463d 2def 9ebd f076 b0bd 9be6 5d3d
00000080: 2edc 67bd 1425 4dbd 6947 55bd 0643 d1bc
00000090: 42cb 2c3d 15ae 303d 4adb 89bd a09c 0e3c
000000a0: 2a72 93bd b618 9cbd ff64 bfbc d1ba 0dbc
000000b0: 42e3 303d 6bdb 183d 919c ad3c 1c00 883d
000000c0: d55c 17bc 4766 1cbc 2cb6 ae3d 1ac1 953b
000000d0: 1283 713d 98c3 38bd efc8 633d e09e 5b3d
000000e0: 4755 8e3d e332 52bd 9926 acbd b2e2 693c
000000f0: 3381 3cbc 9215 a93d 5efa efbc 9fa5 1fbd
00000100: cc39 723c df9a 90bd 6e8a 94bd 70b4 643d
00000110: f4ce 9d3c c980 833c f9a3 45bc bf3c 543d
00000120: e84b 04bd 1b74 e43c 455d f93c c867 af3c
00000130: 8226 7bbd c3c6 a5bd 2c9e 31bd 23a3 9dbd
00000140: a2ed 9abd 9682 f1bc bcb9 2abc 288c 3f3c
00000150: 8ef0 3fbd aa20 63bd 60b5 b6bc 285d 4c3d
00000160: c219 3d3d a0b6 a43d 47f3 223d 10f8 833d
00000170: 975f aa3a 0786 69bd 7031 e73c f4fd 9a3d
00000180: a257 f6bc 4e2c 80bb 5f16 a3bd 59cc 8b3d
00000190: 17ab 95bd ffad 27bd 2cdf e23a 0605 31bd
000001a0: bf51 c53a 66d6 40bd 154b b13d b0ba 4abd
000001b0: 4d63 693c 840e b0bd 2c4e 3a3c aa0b 773d
000001c0: 1002 67bd edff 97bc 7cdc efba f743 7abb
000001d0: 7e33 953c 0360 903d ed76 cfbc 522d e83c
000001e0: f33b 97bd 9916 5abd 9888 80bd e8dd af3c
000001f0: f186 8c3c cfd6 b33d b05c 053d 0b39 08bc
00000200: 7594 1bbd 845d 223c fc12 25bd 451a 7a3c
00000210: d2ad acbc 295a 6ebd 8fce ca3b 1a24 103d
00000220: d3c8 8cbc 80b8 aa3a e5b2 b6bd d01e e4bc
00000230: 5967 b6bd e26f b13d 9003 9d3d b958 97bd
00000240: ab4f 89bd 490c 97bd bd8f 553d e349 a33c
00000250: e597 a9bd 917a d4bc 0352 8c3d 5296 1ebb
00000260: 7a29 a8bd 57d4 f33c d9c5 b43d e580 a73d
00000270: ee72 d73b 2681 dabc a540 263c 0ba2 883d
00000280: 12c2 173d 4892 99bd dd03 393d 57ce 653d
00000290: 9303 9dbd 367a 82bd 6694 7c3d f604 463d
000002a0: 6972 99bd 3f1b bf3c c9ad 573d ec7b 883c
000002b0: 917e 3c3d 330b dd3c 2013 da3c 9bd8 4d3d
000002c0: 5f8e eebc d639 edba 6140 b0bc bf44 95bc
000002d0: eb8e 073d b136 10bd a103 c2bb e743 9c3d
000002e0: 6e2a f93c 5e78 b63d b8b6 3ebb 4e63 04bd
000002f0: b884 9b3d 1ee2 6cbd 6b74 2d3d 7189 973d
00000300: 3cc3 48bd b1ca 98bc b591 a03d 32e9 1bbc
00000310: b16e 9cbd 6562 4bbd 2032 a9bd 20c7 72bc
00000320: 7a54 4d3d 4e05 1cbc 8738 7cbc d701 cf3b
00000330: b93a c3bb 932e 6ebc 9e7e efbc 9cec 163c
00000340: 42b6 8bbb 432b 37bc 8cea c6bc 3e8e b13c
00000350: 43f6 0dbd 7143 7abb 9ef7 46bc 9355 753d
00000360: 13da 143d 7baa 0c3d aa06 fb38 f01d 61bd
00000370: 0c89 f43b ad64 93bd 383b 903b 8698 ac3d
00000380: eba2 3ebc 5a2d af3d 1612 66bd 3211 913d
00000390: 1b3a 073d 55d0 23bd c06d b0bd e7eb 26bd
000003a0: bbdc 333d d1b5 b33d 2b6d 8fbd 0922 19bd
000003b0: 8a63 f03c 5c3b c1bc 016f 9cbd 9a0d e5bc
000003c0: 7e98 d23c b229 b3bd 690b ffbc 2b22 4b3d
000003d0: cfc4 303d 6665 1ebd 3c38 ad3d b359 7b3c
000003e0: 9e64 293d 46dc 07bc d97d 0ebd 15eb a13d
000003f0: b472 a4bd ad97 033d dbec 19bd 29bb dbbc

bias f4 [128]
0.0011868479 0.0014589267 0.00077408087 0.001448127 -0.0011192423 0.001507494 -0.0010678731 -0.001334668
-0.0011609496 0.0010754983 -0.00078839454 0.0009656057 0.0010068964 0.0013116196 -0.0016240441 -3.18105e-05
0.0029034715 0.0012174428 -0.0012531821 -0.001469541 9.234728e-05 0.0010873859 0.0015119446 -4.4872388e-05
0.0011879741 -0.0009696045 0.0012623395 -0.0014323286 0.0012736394 -8.8564935e-05 -0.0013204816 -0.0010453127
-0.0020623766 0.0007700525 0.0013231789 0.0011636484 -0.0011112738 5.2743533e-05 0.0011908318 -0.0014747216
-0.0013167829 0.00010170293 0.0013460187 -0.0012508722 -0.0011906156 0.001022564 0.00086925225 7.928227e-05
0.0015074314 -0.0010139329 0.0010463856 0.0009677903 -0.0010874197 0.0013101276 -0.0021018889 -0.0019888857
-0.0012472554 -0.0013037084 0.0012216608 -0.0013479706 -0.001521075 -0.0010645927 -0.002103951 0.0013758139
-0.0011795616 -0.0020645442 0.0011657509 -0.001266518 0.0011976853 -0.0014263414 0.0020251006 0.0010807912
-0.0020557602 -0.0014008243 0.0020491097 -0.0014365363 -0.000105205996 0.0014251663 0.0010625614 -0.0013402688
0.0014770746 0.0012326774 -0.0015507773 0.0009546381 -0.0013499443 -0.0013541989 -0.00024886752 -0.0014264168
-0.0010507221 0.0020501788 0.0014171295 0.0012410219 0.0010376407 -0.0012455385 0.0013932099 -0.0012954138
0.0012911377 -0.0013049027 0.001241673 2.4911016e-05 -0.0012761238 0.0014541646 0.0013592571 0.002061036
-0.0020446272 0.001496276 -0.0012642104 -0.0010094 -0.0012822485 0.0011981052 0.0014990217 -0.0010159683
0.0010716803 0.0013735883 -0.0010259324 -0.0010715589 0.0015814643 -0.0014437427 0.0009661423 0.0013288299
-0.0013621886 0.0010958763 0.0010565879 -0.0005573818 -0.0002662186 -0.0011953487 -0.0012157497 -0.0012767825
00000000: 0290 9b3a 7539 bf3a b0eb 4a3a 14cf bd3a
00000010: 8ab3 92ba 1b97 c53a e0f7 8bba 07f0 aeba
00000020: 012b 98ba bcf7 8c3a 43ac 4eba b420 7d3a
00000030: d6f9 833a a7ea ab3a e1dd d4ba 446c 05b8
00000040: 2b48 3e3b 9a92 9f3a d041 a4ba 9d9d c0ba
00000050: 92aa c138 9e86 8e3a 712c c63a 5c35 3cb8
00000060: ccb5 9b3a 0e2d 7eba 1675 a53a f9bc bbba
00000070: 3ff0 a63a f0bb b9b8 0314 adba e002 89ba
00000080: f028 07bb 59dd 493a 846e ad3a 9085 983a
00000090: 29a8 91ba f038 5d38 af15 9c3a 724b c1ba
000000a0: e797 acba 5849 d538 e56c b03a 4ef4 a3ba
000000b0: 6e0e 9cba 8e07 863a 88de 633a 5844 a638
000000c0: 0195 c53a f1e5 84ba e026 893a 4fb3 7d3a
000000d0: c087 8eba 96b8 ab3a d8bf 09bb f757 02bb
000000e0: f27a a3ba 32e1 aaba 2220 a03a 63ae b0ba
000000f0: cf5e c7ba ce89 8bba 71e2 09bb a754 b43a
00000100: 859b 9aba 4e4d 07bb 1ccc 983a 4b01 a6ba
00000110: a6fb 9c3a 13f4 baba 8db7 043b 56a9 8d3a
00000120: efb9 06bb dd9b b7ba 5b4a 063b 294a bcba
00000130: 0aa2 dcb8 a5cc ba3a a545 8b3a f5ab afba
00000140: 669a c13a ca91 a13a 7443 cbba ae40 7a3a
00000150: 9df0 b0ba 607f b1ba 6f7a 82b9 9bf6 baba
00000160: 62b8 89ba 4b5c 063b fabe b93a c9a9 a23a
00000170: 7201 883a 5641 a3ba 5e9c b63a e0ca a9ba
00000180: 643b a93a 4509 abba a2bf a23a 00f8 d037
00000190: 9c43 a7ba ab99 be3a 1a29 b23a 7212 073b
000001a0: 27ff 05bb b11e c43a ddb3 a5ba d84d 84ba
000001b0: 1f11 a8ba bd09 9d3a d27a c43a 3d2a 85ba
000001c0: a077 8c3a fa09 b43a 9478 86ba 8d73 8cba
000001d0: 2349 cf3a f73b bdba b644 7d3a 222c ae3a
000001e0: 778b b2ba 82a3 8f3a 357d 8a3a 421d 12ba
000001f0: 4193 8bb9 3fad 9cba ca59 9fba b659 a7ba

weight f4 [2, 128]
0.016823612 -0.023407442 0.015341835 -0.037789732 -0.080859065 -0.016532132 -0.07530847 0.054346528
-0.07177596 0.08094901 -0.059453458 0.03515597 0.050240614 -0.061477043 0.0037180642 0.08422898
0.087167524 -0.07861088 0.017354663 0.060075972 -0.036393046 0.043510966 -0.037153643 0.06724673
0.054287195 -0.037688702 0.07974487 0.018530462 -0.010601686 0.050990026 0.024921896 -0.01795588
-0.032533307 0.07097067 -0.046489783 -0.066624105 -0.023298087 -0.048992462 0.026789494 0.0055897348
0.019123944 -0.06523252 0.043435942 0.07168825 -0.011022546 0.08330494 0.048573334 -0.06644813
-0.01079336 -0.03448854 0.014898937 0.052459817 -0.07419044 0.08542696 -0.05106903 -0.07671889
-0.004831713 0.03326794 0.08159274 0.022728471 0.017016873 -0.07496493 -0.07263046 0.04518183
-0.06054645 -0.039207395 0.026675906 -0.07227508 0.03611591 0.025664147 0.06009775 0.04329296
-0.06716026 0.032987867 0.076213926 0.027299343 0.052514974 -0.07421344 0.022817355 0.08334265
-0.024906825 0.038061835 0.033075936 0.015003989 0.04958674 0.026903821 -0.08318254 -0.010639156
-0.041182227 0.05114982 -0.043999646 -0.041782077 0.028344506 0.004498975 -0.025780704 -0.051202863
0.0032962072 0.046846863 0.001198889 -0.036067296 -0.07619208 -0.04472626 -0.041744746 0.07931977
-0.047809314 -0.009613055 -0.022175554 -0.041839138 0.077488005 -0.0047022193 -0.060714215 -0.015099969
0.068600304 -0.018971244 -0.080853485 -0.05342545 -0.008058437 0.03392827 0.008738807 0.036328953
-0.062392436 0.02657198 0.028667886 -0.058665972 0.0057431203 0.059334118 0.018063823 -0.010951539
0.051363505 0.078428835 -0.006800227 0.0700747 -0.032657072 0.06939793 -0.07151962 -0.07764973
-0.052616205 0.050986808 0.01660542 0.08124905 0.069901414 0.07352147 -0.061673775 -0.024344984
-0.013251056 0.06116146 -0.022542758 -0.080715 0.044862073 0.036180586 0.07822051 -0.03244931
0.027636096 -0.08574408 0.019675324 -0.038652446 0.019125128 -0.059679538 -0.047381926 -0.025169373
0.0011460283 -0.017801173 0.05742365 0.03588566 -0.022515213 0.024321355 0.08390097 -0.046711426
-0.019716244 0.040849276 0.0062321033 -0.077147216 -0.045142967 0.07719716 -0.0074330876 0.08827104
0.05124305 -0.034890078 0.01634583 0.06280468 -0.06322521 0.02517677 0.006167131 -0.003446409
-0.07097018 -0.056864083 0.03736924 -0.06406444 -0.050223727 -0.039450973 0.0078123827 0.005141034
-0.031014303 0.005806029 0.08295567 -0.026184173 0.012278579 -0.057440493 0.0015065749 0.0700017
0.015974604 -0.08595267 0.00035654692 -0.017698726 -0.025576854 0.08076622 0.06600045 -0.06392925
0.05903263 0.019984953 -0.07709732 0.04495958 -0.061518043 -0.028963882 0.0123228915 0.0010058059
-0.055149883 -0.0022928703 0.088960245 0.021930821 0.05236021 -0.06942426 0.074890964 -0.007996133
0.028866438 -0.089519136 0.064488135 0.009998765 -0.021105781 0.0823655 0.060442995 0.007346273
0.009802775 0.033953786 -0.068698026 -0.036211785 -0.07944987 0.08360426 0.03306735 -0.0348819
0.07704472 0.04355099 -0.07863038 -0.040475704 0.074524835 -0.04641143 0.025578229 0.0065714717
-0.011522412 0.02678048 0.022988882 0.019909495 -0.0041028657 -0.058261197 -0.011952854 -0.04872545
00000000: acd1 893c f7c0 bfbc 525c 7b3c 68c9 1abd
00000010: 7099 a5bd 656e 87bc 543b 9abd 779a 5e3d
00000020: 46ff 92bd 98c8 a53d 7885 73bd b5ff 0f3d
00000030: 1ac9 4d3d 5acf 7bbd c4aa 733b 3e80 ac3d
00000040: e384 b23d befe a0bd 5e2b 8e3c 3912 763d
00000050: e010 15bd 8e38 323d 6b2e 18bd a7b8 893d
00000060: 405c 5e3d 785f 1abd 4751 a33d 32cd 973c
00000070: b2b2 2dbc ebda 503d 0129 cc3c 3618 93bc
00000080: a541 05bd 1259 913d 126c 3ebd 3872 88bd
00000090: a1db bebc 52ac 48bd a475 db3c 182a b73b
000000a0: d1a9 9c3c a198 85bd e3e9 313d 4ad1 923d
000000b0: e997 34bc c89b aa3d d5f4 463d f515 88bd
000000c0: a2d6 30bc db43 0dbd ac1a 743c 1be0 563d
000000d0: 28f1 97bd 54f4 ae3d c22d 51bd cb1e 9dbd
000000e0: 5953 9ebb f743 083d 181a a73d 0f31 ba3c
000000f0: f866 8b3c 3787 99bd 47bf 94bd 9510 393d
00000100: 8eff 77bd ef97 20bd 6e87 da3c f504 94bd
00000110: 47ee 133d 9e3d d23c 0f29 763d f553 313d
00000120: 528b 89bd 491e 073d 0c16 9c3d dfa2 df3c
00000130: f119 573d 37fd 97bd 76eb ba3c 8daf aa3d
00000140: 6609 ccbc bae6 1b3d a27a 073d 4bd3 753c
00000150: 771b 4b3d 6765 dc3c 9c5b aabd db4f 2ebc
00000160: b2ae 28bd 7982 513d f938 34bd af23 2bbd
00000170: bd32 e83c 236c 933b 0e32 d3bc 18ba 51bd
00000180: 2e05 583b 7fe2 3f3d 0a24 9d3a 4dbb 13bd
00000190: 980a 9cbd e232 37bd 8afc 2abd 6772 a23d
000001a0: b3d3 43bd 1380 1dbc 82a9 b5bc 845f 2bbd
000001b0: 08b2 9e3d 1315 9abb 78af 78bd dc65 77bc
000001c0: 517e 8c3d 9569 9bbc 8396 a5bd a5d4 5abd
000001d0: 8907 04bc 5ff8 0a3d 372d 0f3c abcd 143d
000001e0: 368f 7fbd 7bad d93c ead8 ea3c bb4b 70bd
000001f0: c930 bc3b 5508 733d 95fa 933c 156e 33bc
00000200: 8a62 523d 4c9f a03d 70d4 debb 5383 8f3d
00000210: 6cc3 05bd 8020 8e3d e178 92bd d206 9fbd
00000220: 1784 57bd 8bd7 503d 1708 883c e765 a63d
00000230: 7928 8f3d 6d92 963d a49d 7cbd 226f c7bc
00000240: f51a 59bc 7084 7a3d 97ab b8bc e84d a5bd
00000250: 4bc1 373d 1832 143d 1332 a03d 91e9 04bd
00000260: 1865 e23c 989a afbd 252e a13c 0752 1ebd
00000270: 4dac 9c3c 8872 74bd 8d13 42bd 0030 cebc
00000280: 5436 963a c4d3 91bc 1035 6b3d d8fc 123d
00000290: d371 b8bc 943d c73c 46d4 ab3d 7b54 3fbd
000002a0: f683 a1bc 9251 273d ac36 cc3b 5cff 9dbd
000002b0: d5e7 38bd 8b19 9e3d 4291 f3bb 72c7 b43d
000002c0: 3be4 513d e6e8 0ebd b1e7 853c bd9f 803d
000002d0: 387c 81bd 833f ce3c a515 ca3b 26dd 61bb
000002e0: d058 91bd 50ea 68bd 7d10 193d 3834 83bd
000002f0: 65b7 4dbd 5897 21bd 04ff ff3b 1e76 a83b
00000300: b511 febc 8040 be3b aae4 a93d 3180 d6bc
00000310: 182c 493c b946 6bbd 4478 c53a 0d5d 8f3d
00000320: 2cdd 823c f407 b0bd ebee ba39 ebfc 90bc
00000330: 8d86 d1bc c368 a53d 3e2b 873d 57ed 82bd
00000340: 33cc 713d 7cb7 a33c 33e5 9dbd 8927 383d
00000350: 58fa 7bbd aa45 edbc f4e5 493c 3fd5 833a
00000360: d8e4 61bd fb43 16bb ca30 b63d 44a8 b33c
00000370: a977 563d 4e2e 8ebd 6f60 993d 3602 03bc
00000380: 4f79 ec3c cf55 b7bd 5b12 843d dcd1 233c
00000390: 08e6 acbc 3eaf a83d 1393 773d 01b9 f03b
000003a0: d29b 203c 2013 0b3d 8db1 8cbd cf52 14bd
000003b0: 9db6 a2bd b638 ab3d a171 073d 53e0 0ebd
000003c0: 9fc9 9d3d 8662 323d f708 a1bd dac9 25bd
000003d0: 7aa0 983d e919 3ebd 6f89 d13c 8055 d73b
000003e0: 80c8 3cbc bd62 db3c 2e53 bc3c 3d19 a33c
000003f0: 5571 86bb 4ba3 6ebd e7d5 43bc 5694 47bd

bias f4 [2]
0.0020863784 0.0012371622
00000000: 9fbb 083b 4628 a23a

weight f4 [128, 70]
-0.030756244 -0.007892774 -0.15531464 -0.24507101 -0.32066584 -0.1242823 -0.23937233 -0.22416696
0.2856812 0.047867566 -0.14699239 -0.043571107 -0.19737758 -0.18778318 -0.255553 -0.2661786
-0.49457052 -0.44536886 -0.2962904 0.07866222 0.09617707 -0.06672304 -0.3702183 -0.36030152
-0.3819209 -0.2660824 -0.17633078 -0.26178846 -0.19434506 0.10441554 0.53216124 0.448751
0.0037941032 -0.037931688 -0.047563523 -0.25575107 -0.14799729 -0.16170587 0.3105261 -0.22701225
0.070388004 0.04664525 0.341232 0.14381804 0.26312202 0.36350054 0.32440618 0.3340441
0.10493993 0.08122732 0.26100186 0.21214248 -0.06895412 0.22739293 0.34964207 0.305539
0.15399578 -0.14884493 0.13396229 0.095538326 -0.19875959 -0.13954258 -0.8158748 -0.10893306
0.06407738 -0.07785001 -0.0120447045 -0.04670567 0.09401598 0.25465393 0.023432724 0.016462844
0.11806133 0.087936275 -0.030464347 -0.2732843 -0.1579734 -0.1840555 -0.018290764 0.2268997
0.38394174 0.45678797 0.31102616 0.35772756 0.33614725 0.16985182 0.29007658 0.15405734
0.044818837 0.023505485 -0.02916417 0.03378787 0.0139023205 -0.0797561 -0.08943795 -0.38408655
-0.30904654 -0.33886138 -0.23988597 -0.18799555 -0.19195025 -0.12766698 -0.08082025 -0.13772051
-0.40817147 -0.12669328 -0.060392614 0.17899935 0.09589281 -0.27638006 -0.006552892 -0.024942089
0.024163637 0.2820279 0.5333944 0.8124236 0.7768543 0.90904385 0.59993607 0.44701985
0.12992097 0.21193634 0.2058892 0.09091122 -0.14740661 -0.28571844 -0.25641134 0.1272453
-0.15093245 0.052987907 -0.14259902 0.44362628 0.71168935 0.038989317 -0.19181441 0.8622228
-0.24265574 0.1678738 0.37664473 -0.059244096 0.0030722818 0.011768588 0.12499675 0.35207152
0.18795939 0.6035766 0.36432916 0.2439298 0.32741213 0.3670503 0.33734012 0.33483794
0.5675005 0.47140884 0.562289 0.48064795 0.2972306 0.29374456 0.5468771 0.025973892
0.104372956 0.0738227 -0.13302028 -0.12735435 -0.092630275 -0.15738317 -0.068637334 -0.24400105
-0.09849971 -0.27678418 -0.30717537 -0.29986596 -0.28546005 -0.20369072 -0.25445992 -0.29546475
-0.3043141 -0.36870426 0.42772865 -0.11884265 -0.060168646 -0.043460745 -0.06436101 -0.061024997
-0.1743854 0.010269508 0.061046097 0.09570261 0.12251657 -0.0423142 -0.249427 -0.35765877
-0.47413123 -0.25516328 -0.29491568 -0.11345863 -0.13531075 -0.29552212 -0.043718178 -0.09019934
0.08256304 0.35835773 0.52294844 -0.15316606 0.1388175 0.31158924 0.38337803 -0.20855434
-0.2292173 -0.17357136 -0.063610576 0.050957788 -0.13022971 0.15339662 -0.13662757 0.17004347
0.09812213 0.28555468 0.033307403 0.05737313 -0.2767584 -0.044714022 0.05726814 0.09021104
0.2769441 0.15559156 0.06902907 0.044615917 0.108640224 -0.09461092 0.04536289 -0.09248239
0.055705477 -0.18291432 -0.03133198 0.0041988264 -0.07678883 0.052711356 0.027432052 -0.08990857
-0.29390833 -0.16733341 0.09577118 0.040537648 0.06692442 0.25434443 0.008854163 0.024801662
-0.16496968 0.4208726 -0.057197146 -0.33470005 -0.19755171 -0.14736798 -0.17433141 -0.31307122
00000000: 85f4 fbbc b250 01bc cd0a 1fbe e5f3 7abe
00000010: 502e a4be b887 febd 051e 75be 068c 65be
00000020: ce44 923e c810 443d 2c85 16be 9e77 32bd
00000030: 591d 4abe 3c4a 40be d8d7 82be 9048 88be
00000040: 5938 fdbe 6307 e4be 60b3 97be a819 a13d
00000050: 7cf8 c43d 17a6 88bd 418d bdbe 7179 b8be
00000060: 238b c3be f43b 88be 0e90 34be 2309 86be
00000070: 6402 47be d1d7 d53d b83b 083f b1c2 e53e
00000080: 7da6 783b 425e 1bbd f8d1 42bd cef1 82be
00000090: 9a8c 17be 3996 25be 47fd 9e3e e675 68be
000000a0: 9627 903d 170f 3f3d f6b5 ae3e 0945 133e
000000b0: eeb7 863e be1c ba3e 9118 a63e d407 ab3e
000000c0: bfea d63d 825a a63d 09a2 853e e13b 593e
000000d0: d137 8dbd b1d9 683e 4904 b33e 9c6f 9c3e
000000e0: 12b1 1d3e ce6a 18be 692d 093e 99a9 c33d
000000f0: a287 4bbe 40e4 0ebe 2cdd 50bf 4c18 dfbd
00000100: 003b 833d d36f 9fbd 2757 45bc 724e 3fbd
00000110: 738b c03d 0062 823e fcf5 bf3c 16dd 863c
00000120: 23ca f13d ef17 b43d 5e90 f9bc ebeb 8bbe
00000130: c7c3 21be 0c79 3cbe 83d6 95bc 6558 683e
00000140: 0394 c43e 1de0 e93e d23e 9f3e 1128 b73e
00000150: 7e1b ac3e a3ed 2d3e eb84 943e 35c1 1d3e
00000160: f593 373d 938e c03c b3e9 eebc 2665 0a3d
00000170: 8fc6 633c 2b57 a3bd 3e2b b7bd fea6 c4be
00000180: 593b 9ebe 3d7f adbe aba4 75be e881 40be
00000190: 9b8e 44be 22bb 02be 1685 a5bd 9b06 0dbe
000001a0: dafb d0be e2bb 01be 3f5e 77bd 9b4b 373e
000001b0: 7363 c43d b081 8dbe a4b9 d6bb 5a53 ccbc
000001c0: d2f2 c53c f665 903e 898c 083f fefa 4f3f
000001d0: ecdf 463f 19b7 683f 6995 193f c9df e43e
000001e0: 010a 053e d705 593e 9ed4 523e a92f ba3d
000001f0: c2f1 16be b049 92be 5948 83be 984c 023e
00000200: 098e 1abe d909 593d 7a05 12be fc22 e33e
00000210: 4631 363f 43b3 1f3d ff6a 44be a2ba 5c3f
00000220: bf7a 78be 1ce7 2b3e 94d7 c03e f0a9 72bd
00000230: 5658 493b 09d1 403c 4cfe ff3d b842 b43e
00000240: 6d78 403e ff83 1a3f 5a89 ba3e bcc8 793e
00000250: 90a2 a73e 04ee bb3e d8b7 ac3e e16f ab3e
00000260: b647 113f 805c f13e 2cf2 0f3f 7d17 f63e
00000270: 9c2e 983e b065 963e 2300 0c3f 33c7 d43c
00000280: 7dc1 d53d 5b30 973d 7836 08be 2e69 02be
00000290: f1b4 bdbd 0e29 21be bb91 8cbd 69db 79be
000002a0: 37ba c9bd a8b6 8dbe 1746 9dbe 0888 99be
000002b0: d227 92be 4d94 50be 9248 82be 2847 97be
000002c0: 0fcf 9bbe cec6 bcbe 40ff da3e c663 f3bd
000002d0: 6673 76bd e503 32bd b5cf 83bd 59f5 79bd
000002e0: 1692 32be 7041 283c 790b 7a3d bbff c33d
000002f0: f8e9 fa3d a851 2dbd cb69 7fbe 0d1f b7be
00000300: 54c1 f2be c3a4 82be 30ff 96be 005d e8bd
00000310: e78e 0abe ad4e 97be d511 33bd 6eba b8bd
00000320: d016 a93d aa7a b73e f3df 053f 90d7 1cbe
00000330: 2d26 0e3e a088 9f3e 204a c43e 458f 55be
00000340: f1b7 6abe b1bc 31be 4346 82bd 1db9 503d
00000350: f05a 05be 0114 1d3e 19e8 0bbe e01f 2e3e
00000360: 41f4 c83d 3934 923e 586d 083d 1600 6b3d
00000370: 47b3 8dbe 0d26 37bd ff91 6a3d 91c0 b83d
00000380: 9ecb 8d3e 6553 1f3e 1d5f 8d3d 2ebf 363d
00000390: c47e de3d 5fc3 c1bd 70ce 393d 6867 bdbd
000003a0: 6d2b 643d e44d 3bbe f655 00bd 4f96 893b
000003b0: 7643 9dbd dde7 573d 2fb9 e03c fc21 b8bd
000003c0: 277b 96be 7359 2bbe ae23 c43d ce0a 263d
000003d0: ac0f 893d 6f39 823e 0d11 113c db2c cb3c
000003e0: d0ed 28be 9d7c d73e 8e47 6abd ce5d abbe
000003f0: ff4a 4abe a2e7 16be ef83 32be df4a a0be

bias f4 [128]
-0.095916025 0.2027642 0.15418527 -0.12856203 0.04804806 -0.07094603 -0.017351639 -0.10882368
0.30677387 -0.11457142 -0.024318455 0.19044238 0.17028064 -0.28626564 -0.024352113 -0.035316646
0.19975577 0.09336811 -0.15352444 -0.20310561 -0.07053904 0.08249242 0.04224082 0.13516238
-0.23384924 0.07409584 -0.030707294 0.097941704 -0.2166627 -0.18426582 -0.14371207 0.03831088
-0.22753425 -0.10592 0.0026304452 0.0037319874 0.05666459 -0.038985476 -0.25376046 -0.18935099
-0.21171632 -0.11774191 0.19175284 -0.18556488 -0.086861 -0.19467463 -0.09263822 0.11172266
-0.038661975 -0.14505577 0.068487346 0.02266176 0.03508825 -0.18547575 -0.16324721 -0.022911971
-0.16081409 -0.17785026 0.26414308 -0.10319742 -0.08050046 0.04923614 -0.07911897 0.1722227
0.17535932 -0.022758463 0.26196125 -0.12239077 -0.0030862119 -0.0475387 0.13471931 0.07394741
-0.16695265 -0.21313176 0.14706503 0.17922637 -0.07274227 -0.0038395047 -0.16077723 0.12321799
-0.27019104 0.082890905 0.034487013 0.28896502 -0.059895657 0.2604736 0.1456995 0.03622624
0.012902567 -0.056180615 0.052059807 0.053833093 -0.07111609 0.032249514 0.13542005 0.15891464
-0.098878734 0.061741315 0.1130156 -0.09875257 -0.06152927 -0.11976572 0.13239281 -0.15373681
-0.22233695 0.110618375 -0.12012331 -0.20874207 0.108162254 -0.118341364 -0.024230685 0.12408813
-0.1448446 0.20078173 -0.033167128 -0.14827977 0.12017774 0.18378323 -0.12029696 -0.05042437
-0.11191908 0.14185151 0.2232065 -0.18078297 0.16428196 0.3179948 -0.15702523 0.25547245
00000000: 9f6f c4bd 6ba1 4f3e bee2 1d3e c4a5 03be
00000010: 0bce 443d 274c 91bd 0625 8ebc f3de debd
00000020: 7711 9d3e 6ca4 eabd 7f37 c7bc 5403 433e
00000030: 0c5e 2e3e 6991 92be 157e c7bc 30a8 10bd
00000040: c78c 4c3e c837 bf3d 8335 1dbe ebfa 4fbe
00000050: c676 90bd c9f1 a83d b604 2d3d 0268 0a3e
00000060: 2d76 6fbe 8fbf 973d dd8d fbbc a995 c83d
00000070: d4dc 5dbe 2eb0 3cbe 4229 13be dfeb 1c3d
00000080: bdfe 68be 96ec d8bd 8c63 2c3b 5c94 743b
00000090: 2119 683d 3caf 1fbd e4ec 81be 3ae5 41be
000000a0: 2acc 58be ac22 f1bd db5a 443e b804 3ebe
000000b0: 2ee4 b1bd c958 47be 1bb9 bdbd dace e43d
000000c0: 055c 1ebd 8089 14be 1843 8c3d 28a5 b93c
000000d0: b2b8 0f3d 5bed 3dbe 472a 27be e3b1 bbbc
000000e0: 73ac 24be 611e 36be c33d 873e 2b59 d3bd
000000f0: 6ddd a4bd d6ab 493d 2009 a2bd 265b 303e
00000100: 6591 333e f56f babc c91f 863e 03a8 fabd
00000110: 0b42 4abb f1b7 42bd dcf3 093e bd71 973d
00000120: a3f5 2abe 363f 5abe 3798 163e 1e87 373e
00000130: e6f9 94bd 33a0 7bbb c9a2 24be b759 fc3d
00000140: 7b56 8abe b5c2 a93d 4142 0d3d 39f3 933e
00000150: 2655 75bd cc5c 853e 4032 153e f761 143d
00000160: 4a65 533c a51d 66bd aa3c 553d 1780 5c3d
00000170: 50a5 91bd 1118 043d 8eab 0a3e 85ba 223e
00000180: ef80 cabd 76e4 7c3d b974 e73d ca3e cabd
00000190: 1e06 7cbd bb47 f5bd fb91 073e 2f6d 1dbe
000001a0: 4cac 63be e38b e23d 3603 f6bd 7bc0 55be
000001b0: 2c84 dd3d f55c f2bd 6e7f c6bc eb21 fe3d
000001c0: 2552 14be ba99 4d3e 41da 07bd a7d6 17be
000001d0: bf1f f63d ac31 3c3e 415e f6bd c989 4ebd
000001e0: d535 e5bd 8641 113e 3f90 643e 2c1f 39be
000001f0: 8839 283e 37d0 a23e 39cb 20be 49cd 823e

weight f4 [128, 128]
-0.07756845 -0.20533878 0.09815543 0.23286234 -0.13175716 0.34410048 -0.35495368 -0.0054687248
0.7504849 -0.0463123 0.2119703 0.07064135 0.18315607 -0.62332344 0.048673622 -0.0020735709
0.030000405 -0.060750723 0.16680954 -0.29068825 -0.049988605 -0.56604236 0.111785665 -0.111843996
-0.3315583 -0.38500315 0.109176636 -0.49964723 -0.34518397 -0.1371742 -0.6147735 0.057980735
-0.7527504 -0.038922764 0.26362216 0.18056244 -0.028238805 -0.020804418 -0.14617315 0.019142304
-0.2690642 -0.035574317 -0.07502772 -0.2928092 -0.14709672 -0.19873603 -0.12532428 -0.36358884
-0.1398668 -0.2504489 -0.598841 0.05055149 -0.18454951 -0.44711807 -0.21045983 -0.1555048
-0.18427767 -0.1794336 0.0778402 -0.028637389 0.18340024 0.53719 0.06131982 0.016405748
0.1641459 0.16255806 0.29562792 -0.03428 0.16351095 -0.49012974 0.11408832 0.264415
0.083994746 -0.16504812 0.031432584 -0.1252749 0.08081724 0.14032649 -0.7640849 -0.075030565
0.33699945 -0.078918 0.10547038 0.19300187 0.14456473 0.1590016 0.21024816 0.103757635
0.055163354 0.09763752 0.06842356 0.87665623 0.016210832 -0.008698932 0.003048313 0.0663123
-0.2680946 0.09265419 -0.14869738 0.21272127 0.3192618 0.10160818 0.0026583313 -0.1488736
-0.27717766 -0.3933046 -0.041185647 -0.29474387 0.35609692 -0.038379487 0.18995214 -0.061509524
-0.16464153 -0.0034493832 0.04710532 0.16857523 -0.26265654 -0.07361065 -0.29626694 0.10185831
-0.18652236 0.62446225 0.263131 0.12794611 0.45906937 0.6055002 -0.15485814 0.56915534
-0.25547153 0.22949947 0.21922842 0.1670194 0.030947836 0.32607317 -0.15703776 -0.10429838
0.017431913 -0.1521166 0.04842697 0.32262465 0.015901178 -0.06904942 -0.34733725 -0.07945087
0.07415993 0.073937595 -0.38493174 -0.23759738 -0.38475832 0.35136184 0.15281494 -0.21911125
-0.3302172 -0.34440842 0.12935428 -0.3503151 -0.011173586 0.1738301 -0.12479304 0.2775629
-0.31468096 -0.39446485 0.34027952 -0.10695668 0.029486533 -0.2121241 -0.16064484 0.2179372
0.12277234 -0.26596728 0.35357556 -0.043739665 -0.029970234 0.04693762 -0.5363328 0.24492979
-0.34143627 -0.079204276 -0.17832232 0.33947793 -0.16066775 0.041814964 -0.1062274 -0.41829407
0.16358148 0.4972297 0.140603 0.17115529 -0.11628905 -0.08834922 0.12994447 -0.12796377
0.35980627 0.038470406 0.052057024 -0.004935964 -0.22731474 -0.15194982 0.14600576 0.10505545
-0.13854815 -0.1205169 0.19404031 -0.17593272 0.19637638 -0.11046689 -0.085569665 0.59249496
0.028356519 0.14206584 0.20639636 0.15032934 -0.6469332 0.058190513 0.4312827 -0.013825547
-0.7377808 -0.086137086 -0.261541 0.056872644 0.14298971 0.24520116 0.25502637 -0.08126618
0.026269138 -0.5167482 -0.00867374 -0.20343176 -0.09143412 -0.03548276 0.34895957 -0.13297069
-0.092157535 0.2056471 -0.0133310435 -0.14998066 -0.31887043 0.1840035 0.10199554 0.3970753
-0.10721556 0.25013578 0.108007714 -0.06867725 0.048898205 0.19239815 -0.06011391 -0.39188188
-0.5030827 0.043933883 0.066973835 -0.10656887 0.13978885 0.025176784 -0.015251087 0.15369716
00000000: 35dc 9ebd 5444 52be b705 c93d 7773 6e3e
00000010: 59eb 06be f02d b03e 7dbc b5be fd32 b3bb
00000020: c71f 403f f7b1 3dbd be0e 593e 69ac 903d
00000030: 448d 3b3e 2092 1fbf fe5d 473d bfe4 07bb
00000040: 69c3 f53c c0d5 78bd 1fd0 2a3e 17d5 94be
00000050: dac0 4cbd 27e8 10bf e2ef e43d 770e e5bd
00000060: 02c2 a9be 221f c5be 0098 df3d c3d1 ffbe
00000070: f4bb b0be 6577 0cbe cc61 1dbf 357d 6d3d
00000080: 40b4 40bf 7a6d 1fbd 7cf9 863e 5ce5 383e
00000090: 1155 e7bc 076e aabc 6aae 15be 52d0 9c3c
000000a0: c8c2 89be 60b6 11bd 22a8 99bd 16eb 95be
000000b0: 86a0 16be 7581 4bbe 0255 00be 5128 babe
000000c0: 3e39 0fbe d73a 80be a54d 19bf 140f 4f3d
000000d0: 8cfa 3cbe a9ec e4be c882 57be a63c 1fbe
000000e0: 49b3 3cbe 71bd 37be af6a 9f3d f598 eabc
000000f0: 46cd 3b3e 4985 093f 7e2a 7b3d 5965 863c
00000100: dd15 283e 9f75 263e 8b5c 973e 2f69 0cbd
00000110: 6a6f 273e 49f2 fabe 23a7 e93d 6761 873e
00000120: 7005 ac3d 6002 29be 74bf 003d 1048 00be
00000130: 8283 a53d bfb1 0f3e 119b 43bf a0a9 99bd
00000140: 318b ac3e c39f a1bd db00 d83d 48a2 453e
00000150: c708 143e 51d1 223e 4b4b 573e e27e d43d
00000160: f8f2 613d 2ef6 c73d a721 8c3d 8b6c 603f
00000170: 94cc 843c f785 0ebc 35c6 473b bece 873d
00000180: b243 89be 7bc1 bd3d 2044 18be 9bd3 593e
00000190: 4876 a33e f317 d03d 6637 2e3b 5272 18be
000001a0: 3bea 8dbe 385f c9be 48b2 28bd abe8 96be
000001b0: 5652 b63e cf33 1dbd d082 423e 69f1 7bbd
000001c0: ca97 28be 0c0f 62bb 82f1 403d fc9e 2c3e
000001d0: eb7a 86be 2ec1 96bd 4db0 97be 179b d03d
000001e0: b8ff 3ebe c2dc 1f3f 1bb9 863e 4e04 033e
000001f0: 240b eb3e 1002 1b3f 2293 1ebe 2ab4 113f
00000200: 2acd 82be e901 6b3e 6a7d 603e 2207 2b3e
00000210: 5186 fd3c 10f3 a63e 82ce 20be 649a d5bd
00000220: 5fcd 8e3c 74c4 1bbe 5c5b 463d 0f2f a53e
00000230: 3043 823c c869 8dbd 30d6 b1be 23b7 a2bd
00000240: 29e1 973d 986c 973d c615 c5be ba4c 73be
00000250: 0bff c4be b3e5 b33e 857b 1c3e b35e 60be
00000260: 3b12 a9be 4d56 b0be 7375 043e 805c b3be
00000270: 6b11 37bc 8500 323e 7e93 ffbd b91c 8e3e
00000280: dd1d a1be 4cf7 c9be 1e39 ae3e 1b0c dbbd
00000290: be8d f13c 0f37 59be 1580 24be ee2a 5f3e
000002a0: 1170 fb3d dd2c 88be db07 b53e 5d28 33bd
000002b0: 2384 f5bc a941 403d 1b4d 09bf e0ce 7a3e
000002c0: bcd0 aebe da35 a2bd 209a 36be 0dd0 ad3e
000002d0: 1686 24be 2b46 2b3d c08d d9bd a42a d6be
000002e0: e781 273e e494 fe3e 3cfa 0f3e 5543 2f3e
000002f0: f428 eebd 70f0 b4bd 2a10 053e ef08 03be
00000300: 8738 b83e 2593 1d3d bf39 553d debd a1bb
00000310: 32c5 68be bc98 1bbe 8982 153e 5027 d73d
00000320: 91df 0dbe 91d1 f6bd 81b2 463e b527 34be
00000330: e416 493e 773c e2bd 263f afbd c0ad 173f
00000340: ee4b e83c b579 113e 9159 533e efef 193e
00000350: 6a9d 25bf 2d59 6e3d 16d1 dc3e 8c84 62bc
00000360: 34df 3cbf a468 b0bd b4e8 85be 4af3 683d
00000370: e56b 123e 0316 7b3e d192 823e e26e a6bd
00000380: 6032 d73c 9c49 04bf 4d1c 0ebc 6a50 50be
00000390: d041 bbbd 5f56 11bd d4aa b23e 7829 08be
000003a0: 17bd bcbd 2795 523e 736a 5abc 8894 19be
000003b0: fc42 a3be 6a6b 3c3e 0ae3 d03d 744d cb3e
000003c0: d593 dbbd cc11 803e 2633 dd3d a8a6 8cbd
000003d0: 7c49 483d 0504 453e 013a 76bd bea4 c8be
000003e0: 07ca 00bf 04f4 333d 9429 893d c840 dabd
000003f0: cf24 0f3e 8b3f ce3c b2df 79bc ca62 1d3e

bias f4 [128]
-0.053549424 0.08083578 -0.13615637 -0.25139815 -0.034074288 0.09855999 -0.29740378 0.07817179
-0.29253715 0.32301125 -0.027293276 0.16288145 -0.07095236 -0.117875 -0.10173767 0.31141457
0.1548183 0.103641935 -0.13127583 0.13499816 -0.106523044 -0.18282221 0.073367305 0.08323381
0.1231867 0.35011813 -0.092657186 -0.07241785 -0.08648681 -0.14071004 0.093789436 -0.12724945
-0.06722887 0.06638328 0.151923 0.1830161 0.06554891 0.012513987 0.09137606 0.013323638
0.09612666 -0.025559844 0.17098607 -0.11600539 0.18193908 -0.10914094 0.094631344 -0.09372967
0.14726748 -0.086276695 0.13864784 -0.16266425 0.10359977 0.14399026 -0.17369556 -0.0639594
-0.09628938 0.1096354 0.19868445 0.12383878 -0.11398277 -0.121081546 -0.37096912 0.1862833
0.05055703 -0.026589515 -0.067606024 0.015095535 0.0063856537 0.10770125 -0.32391763 -0.08215333
-0.08277216 0.08022504 -0.13593428 -0.10142003 -0.22611046 -0.027233174 -0.029486863 0.022535345
-0.100409955 0.12969436 0.2009016 0.06306594 0.06199604 0.0120081585 -0.27994 0.10627653
-0.10594838 0.059480675 -0.012514228 -0.056481913 0.056072004 -0.13277063 0.016679725 -0.16042231
0.009500905 -0.07141162 0.13996434 0.082946695 -0.085641086 0.001717202 0.036563657 0.021646762
0.09425952 0.29411343 0.16798109 0.17665175 -0.1714004 -0.14771675 -0.15603255 -0.11411116
0.063478254 0.10835835 0.18295018 -0.07526103 -0.19610102 0.045636546 -0.10582383 -0.03846163
0.20745514 0.07047362 0.3071353 -0.17282283 -0.30717105 -0.12767132 -0.0811775 -0.2400098
00000000: a456 5bbd 3b8d a53d 936c 0bbe 42b7 80be
00000010: 7b91 0bbd d2d9 c93d 4f45 98be 8818 a03d
00000020: 6ec7 95be bb61 a53e 2696 dfbc 65ca 263e
00000030: 794f 91bd 7368 f1bd d75b d0bd bb71 9f3e
00000040: b088 1e3e 3942 d43d 2c6d 06be f53c 0a3e
00000050: c128 dabd bf35 3bbe 9941 963d 7d76 aa3d
00000060: 4f49 fc3d af42 b33e 0dc3 bdbd cf4f 94bd
00000070: ff1f b1bd 4b16 10be ad14 c03d ae4d 02be
00000080: 4aaf 89bd f5f3 873d b491 1b3e 9368 3b3e
00000090: 823e 863d 7707 4d3c 5f23 bb3d 634b 5a3c
000000a0: 0ede c43d e162 d1bc f916 2f3e 3c94 edbd
000000b0: 3d4e 3a3e 4985 dfbd 14ce c13d 57f5 bfbd
000000c0: 49cd 163e d6b1 b0bd b3f9 0d3e 7591 26be
000000d0: 1e2c d43d 2f72 133e 40dd 31be 25fd 82bd
000000e0: 5e33 c5bd 8688 e03d f073 4b3e 309f fd3d
000000f0: cc6f e9bd 9af9 f7bd aaef bdbe 0dc1 3e3e
00000100: e314 4f3d 41d2 d9bc 0775 8abd 4353 773c
00000110: bf3e d13b 7992 dc3d 88d8 a5be 0140 a8bd
00000120: 7384 a9bd 074d a43d 5b32 0bbe 4eb5 cfbd
00000130: 8089 67be 1b18 dfbc 6f8e f1bc 0b9c b83c
00000140: bca3 cdbd 99ce 043e 26b9 4d3e b728 813d
00000150: 8fef 7d3d debd 443c 4c54 8fbe 82a7 d93d
00000160: 77fb d8bd 02a2 733d 7a08 4dbc 9459 67bd
00000170: c2ab 653d 06f5 07be eba3 883c bf45 24be
00000180: afa9 1b3c 4140 92bd d052 0f3e f5df a93d
00000190: 9864 afbd bd13 e13a c6c3 153d 8d54 b13c
000001a0: 230b c13d 0996 963e 3c03 2c3e 32e4 343e
000001b0: 9683 2fbe 0f43 17be ffc6 1fbe 1db3 e9bd
000001c0: e300 823d fcea dd3d 4b57 3b3e 7422 9abd
000001d0: b5ce 48be 63ed 3a3d 2aba d8bd f189 1dbd
000001e0: 1f6f 543e 7954 903d d740 9d3e 78f8 30be
000001f0: 8645 9dbe 45bc 02be 6440 a6bd 21c5 75be

weight f4 [1, 128]
0.9362443 -0.42392707 -0.97406524 0.8221572 0.3325585 -0.40836766 1.0567874 -0.29664218
0.8291482 -0.8921063 0.8825895 -0.8703086 -0.39490384 0.6395446 0.31169719 -0.8822009
-0.4534267 -0.73485386 0.37170225 0.35466728 0.3445941 -0.38861376 -0.7929895 -0.7516724
-0.3450979 -0.84452015 0.33156076 0.2839746 0.37736705 0.42728013 -0.42537987 0.99997985
-0.2139678 -1.0136318 -0.9125337 -0.8993033 0.58187705 -0.46988282 -0.37334046 -0.43414065
-0.28360194 0.9557944 -0.93439305 0.7818181 -0.85424954 0.4226832 -0.3583734 0.30763608
0.09653599 0.42316458 -0.39387712 -0.39619026 -0.4220298 -0.38800728 0.37662992 0.31213394
0.33405936 -0.9546726 -0.37414917 0.51474917 0.39280888 0.38002688 0.9053952 -0.8516579
-0.34285188 0.40688553 0.61196077 -0.46007326 0.45878705 -0.31555948 0.9100942 0.3265119
0.6341146 -0.38017717 0.8588478 0.34000948 0.85748595 -0.22877572 -0.88187283 -0.31635347
0.30716503 -0.059570327 -0.89459115 -0.64249796 -0.054772343 0.2974427 0.8365806 -1.2580962
0.3014663 -0.93309957 0.74695647 0.89922214 0.066501014 -0.20282865 -0.7540859 -0.35713816
0.5072837 0.93055505 0.36544695 -0.31598336 0.62453467 -0.41683853 0.41863102 -0.41946355
-0.2995135 -0.9337068 -0.4113222 -0.392086 0.78834224 0.82848674 0.39117134 -0.68947506
-0.3372745 -0.33997136 -0.81338406 0.35231984 -0.7270459 -0.3953495 -0.34239388 -0.81072384
-0.4090171 -0.39974055 -0.9043327 0.42020988 1.0127854 0.3700005 -0.6286896 -0.3644011
00000000: b5ad 6f3f f80c d9be 575c 79bf e578 523f
00000010: 1c45 aa3e 9115 d1be cf44 873f 7ce1 97be
00000020: 0e43 543f 1461 64bf 63f1 613f 8bcc 5ebf
00000030: d630 cabe 32b9 233f c696 9f3e ebd7 61bf
00000040: 8b27 e8be 621f 3cbf c24f be3e f396 b53e
00000050: a36e b03e 62f8 c6be 5c01 4bbf 9a6d 40bf
00000060: acb0 b0be 7932 58bf 55c2 a93e 1e65 913e
00000070: 4136 c13e 76c4 da3e 64cb d9be aefe 7f3f
00000080: 601a 5bbe b0be 81bf cf9b 69bf be38 66bf
00000090: e5f5 143f 7b94 f0be 7b26 bfbe af47 debe
000000a0: 4634 91be f1ae 743f 6234 6fbf 3b25 483f
000000b0: 19b0 5abf ef69 d83e b87c b7be 7a82 9d3e
000000c0: a9b4 c53d 07a9 d83e 43aa c9be 73d9 cabe
000000d0: 4a14 d8be e4a8 c6be a3d5 c03e 05d0 9f3e
000000e0: d409 ab3e 6c65 74bf 7b90 bfbe 9ac6 033f
000000f0: 3f1e c93e e292 c23e fbc7 673f 4106 5abf
00000100: 488a afbe 4d53 d03e 76a9 1c3f b98e ebbe
00000110: 23e6 ea3e 0391 a1be effb 683f 912c a73e
00000120: 5655 223f 95a6 c2be 73dd 5b3f b915 ae3e
00000130: 3384 5b3f 2f44 6abe 6bc2 61bf 15f9 a1be
00000140: bc44 9d3e 0400 74bd ed03 65bf bf7a 24bf
00000150: f758 60bd 694a 983e 252a 563f 4c09 a1bf
00000160: ca59 9a3e 9ddf 6ebf 8a38 3f3f 6c33 663f
00000170: af31 883d 50b2 4fbe c60b 41bf d0da b6be
00000180: 58dd 013f db38 6e3f dd1b bb3e 92c8 a1be
00000190: 81e1 1f3f dc6b d5be ce56 d63e edc3 d6be
000001a0: d559 99be 6907 6fbf d398 d2be 7fbf c8be
000001b0: ccd0 493f b517 543f 9c47 c83e 7081 30bf
000001c0: 3eaf acbe ba10 aebe f039 50bf 4463 b43e
000001d0: ae1f 3abf 406b cabe 404e afbe 998b 4fbf
000001e0: b06a d1be cbaa ccbe 5982 67bf c025 d73e
000001f0: f4a2 813f b570 bd3e cdf1 20bf c892 babe
