data/ppo_penalized_cyan_128x4/ppo_penalized_cyan_128x4_s0/pyt_save/model.pt (torch, 705862 bytes, 29 tensors)

log_std f4 [2]
00000000: 05d1 10c0 0601 13c0
-2.2627575 -2.2969375

weight f4 [128, 60]
00000000: 2771 52be 0785 603d df59 44bd 1cbb 373d
00000010: 599d bd3d 611a 7ebd b76a 493c 0408 7dbd
00000020: 3d3c 68bd fdaf 623d 32d7 eebd c91b bebd
00000030: f729 443d 4067 96bd e832 17be e5ff d33d
00000040: 4dfe 713e 8b2c 8b3e 48d0 aa3c db44 66bd
00000050: e910 403d 638a 453e a70d 11bc 31ac 703e
00000060: 342f a8bc cea9 703d a812 283e 4480 78bd
00000070: a898 c6bd d878 ee3d bb98 393e e096 423e
00000080: cbf1 64bd 0c88 a53d c4c3 b7bd df2f 2abe
00000090: 2433 50bd b509 c83d 4361 f6bd f395 b73d
000000a0: cd7a de3b d089 8bbd 64b2 283e fb9b 09be
000000b0: 6c1e 85be 9d7a b5bd bd29 3b3e bc33 e33e
000000c0: 5223 c8bc 9d78 613d 190a 253e a668 9d3e
000000d0: 3e92 313e eaef 34bd 9fe9 c53d b7f7 04be
000000e0: 8161 fb3b 83af 4abe f95e 403d 1c95 88bd
000000f0: 3a82 7e3d be81 993d 0869 88bd 5553 0d3d
00000100: dd5c 86bd 98e8 49bd e054 9cbd d7d4 e93d
00000110: 5c03 5a3e 3d2c aa3e 2985 013e 349e b0bb
00000120: ab98 19bc 7acf a33d bf03 4a3d d5d5 8f3d
00000130: 8fe3 6b3e d83f b9bd 9ba2 dabd 4768 a5bd
00000140: 9667 f6bd ea63 2e3e 6b9b 423e c7c9 19be
00000150: efa3 53bb 4ef3 a8bc 9d22 73bd 7795 2abe
00000160: 32f2 f23c d3b0 50be a6c9 8abd fe81 433e
00000170: 89de f13d 2d83 223d 612a 7ebd 57fc 733a
00000180: e5c3 073d 4385 b33b 04df a5bd 8ef5 bcbd
00000190: e3ba f83d c8f2 7f3e ffbd bbbd 5f7f 573d
000001a0: 37c3 253d 43c9 843e 9fba 6bbe da00 d3be
000001b0: 4169 1c3d 5cc1 92bd 2726 18be 28c1 663d
000001c0: 3c03 1abd bc7e eb39 f035 01be ccf9 89be
000001d0: 6b38 143e 5051 69bb daed 75bd d6d4 fa3c
000001e0: d869 2a3e 8cdc ae3c e88b 48bd 3cb6 8c3d
000001f0: 0747 9ebd ad4e 7dbe 83b5 933d ecb1 c8bc
00000200: 69cd 273d eeac 02be ef88 06be 5b29 01bc
00000210: 1e51 f4bc 8b32 093b 51e9 083e 51fe 2f3d
00000220: 60ac b13a 4a66 96ba 82d1 28bd fa1c a83d
00000230: a272 fa3d 3867 023e 8e5d 293e 0279 3d3d
00000240: 4c85 06be 7160 0bbd 0c52 f43d a441 2f3d
00000250: 8dac d9bd 6110 efbd b093 41be 81c5 d2bc
00000260: 5c46 aebd 545c db3d 598e 083e 2353 b4bd
00000270: 1b3a 933d c03f 19be 0f95 f7bb ca9f bebd
00000280: e2b4 cbbc 251d 97bd 3080 20bd 9ad9 b53c
00000290: bca1 c7bc f5f4 39bc b183 03be e851 993d
000002a0: d028 54be f431 3cbe 594f 083e ae2c b83c
000002b0: fc3b 973e 5e4e 103e 0875 4fbe 1d2a 82bd
000002c0: 2fba 50bd d4d9 b6bd 2751 b3ba 29a8 d5bd
000002d0: d6d4 6fbd 6f10 82bc 967c a03d 4c11 30bd
000002e0: 6adf 0b3e bddb 42bd 0060 df3b 5a1a 38be
000002f0: 014c ecbb b636 a13e 7390 3e3e 5634 593d
00000300: 3375 d7bd b1c6 13be 8104 91be f701 a8bd
00000310: 8bb9 82bb 00c1 d43d ee61 d8bd 8796 38bb
00000320: 4af6 b13b 872a 343e 2d52 4ebe a382 febd
00000330: df01 9fbd 307a 7b3d 5e4d bbbd 3971 613d
00000340: 74b4 9cbd e8fa 6f3c c3b6 45bd 7bbf 283c
00000350: 1181 43bb 93ed 4a3a 2390 983c 0b90 6bbc
00000360: f9ef 31be 71eb 35be f290 57bc a971 16bd
00000370: c8e1 17bc 6303 d33c c748 93bc 7541 8339
00000380: 5521 d7bc c74f 2bbd 0cff 33be d31a fcba
00000390: 0028 cabd dcad d5bc d4dc 87bd 5463 133e
000003a0: 9025 433e 99ca b33e b6a6 763e f8d8 03be
000003b0: d589 30bd dddd 42be e784 863d 8f87 1b3d
000003c0: 29bc 2b3d 0f3d 0c3e 1ca4 e3bc c22b 4cbe
000003d0: e520 cf3d 1e35 343c 6300 ce3d 9cb4 80bd
000003e0: c421 edbd 576f ac3d d397 5f3e 628f 90bc
000003f0: 676b 85bc 7c1d 96bd f89c 14be 7d44 edbb
-0.20550977 0.054814365 -0.04793727 0.044856176 0.09258527 -0.062036876 0.012293509 -0.061775222
-0.056698073 0.055343617 -0.11662139 -0.09282643 0.047891583 -0.07343912 -0.14765513 0.103515424
0.23632164 0.2718242 0.02085127 -0.05621801 0.046891127 0.19291072 -0.008853353 0.23503186
-0.02053032 0.05875569 0.16413367 -0.0606692 -0.096970856 0.11644143 0.18124668 0.19002867
-0.055894654 0.080825895 -0.08972886 -0.16619824 -0.05083002 0.097674765 -0.1203027 0.089641474
0.0067895413 -0.06813395 0.164743 -0.13438408 -0.25999773 -0.08861277 0.1827764 0.44375408
-0.024430905 0.055046666 0.16117133 0.30743903 0.17340943 -0.044174112 0.096637 -0.1298512
0.0076715355 -0.19793515 0.046965573 -0.06669065 0.062135912 0.074954495 -0.06660658 0.0345033
-0.06560681 -0.049294084 -0.07633376 0.11417549 0.21290344 0.33236876 0.12648453 -0.005389953
-0.009374778 0.079985574 0.04931998 0.07023207 0.23036025 -0.0904538 -0.10675546 -0.0807653
-0.12031476 0.17030302 0.190046 -0.15018378 -0.0032293757 -0.02062383 -0.05935918 -0.16658579
0.029656503 -0.20379953 -0.06776743 0.19092557 0.11810023 0.03967588 -0.062052134 0.0009307316
0.033145804 0.0054785325 -0.080991775 -0.09226523 0.12145021 0.24994957 -0.09167098 0.052611705
0.040469375 0.259348 -0.23020409 -0.41211587 0.038186315 -0.071657866 -0.14858304 0.056336552
-0.03760074 0.00044917117 -0.12618232 -0.26948392 0.14474647 -0.0035601445 -0.060041286 0.030619066
0.16641939 0.0213454 -0.04896155 0.06870696 -0.07728391 -0.24737044 0.07212355 -0.024498902
0.04096738 -0.1276128 -0.13138174 -0.007883395 -0.029823836 0.0020934667 0.13370253 0.042967144
0.00135554 -0.0011474576 -0.041215427 0.08208652 0.12228896 0.12734687 0.16539595 0.04625798
-0.13136786 -0.03402752 0.11929712 0.04278721 -0.106286146 -0.11673046 -0.18903995 -0.025728943
-0.08509514 0.107109696 0.13335551 -0.088049196 0.07188817 -0.14965725 -0.007555611 -0.09307821
-0.024866525 -0.07378606 -0.03918475 0.022198487 -0.024369113 -0.011349906 -0.12843205 0.074863255
-0.20718694 -0.1837843 0.13311519 0.022482242 0.29537952 0.14092395 -0.20259488 -0.06355689
-0.05095881 -0.08928266 -0.0013680801 -0.10432465 -0.058552586 -0.015876977 0.07836263 -0.042985246
0.13659444 -0.04757284 0.006816864 -0.17978802 -0.007211209 0.31487054 0.1860979 0.053028427
-0.10520401 -0.14431264 -0.2832375 -0.082035 -0.0039894036 0.10388374 -0.105655536 -0.0028165893
0.0054309713 0.17594348 -0.20148535 -0.12427261 -0.07764029 0.061395824 -0.09145616 0.05503962
-0.07651606 0.014647223 -0.04827 0.010299559 -0.0029831568 0.000774109 0.018623417 -0.014377604
-0.17376699 -0.17765595 -0.013157116 -0.03672949 -0.009270139 0.02575845 -0.017979039 0.00025035036
-0.026261011 -0.04182413 -0.17577761 -0.0019234068 -0.09870911 -0.02608388 -0.066339165 0.1439336
0.19057298 0.35115507 0.24087033 -0.12875736 -0.043100197 -0.19029947 0.06568318 0.037971076
0.04192749 0.13695167 -0.027788214 -0.19938567 0.10113696 0.010998992 0.100586675 -0.062844485
-0.11578706 0.08419674 0.2183526 -0.017646495 -0.016286565 -0.073298424 -0.14513004 -0.0072408305

bias f4 [128]
00000000: e372 b03d ebab 713c 413f ce3d c416 10be
00000010: c3dd a13d 6d0e 5ebd 7429 fe3d 7823 cebd
00000020: 66c6 84bc a7d1 853d 8ae3 103d bbec e03b
00000030: 9780 c33b e4ca 073d 2b85 d7bd fb5a 13bd
00000040: 26a3 b5bc 51ed 023e 6a12 d6bd 6351 3dbd
00000050: 4a4f 9dbd d5bf d6bd d75d 8ebd c513 fcbc
00000060: 8c4a 843d a989 3bbd a350 643d 40b7 babc
00000070: 1d97 e6bd d4fc b83c e278 253d 4753 c9bd
00000080: e905 f5bd ef97 e23c fd42 80bd efb0 dd3c
00000090: c0e8 39bb 72f3 26bd 3931 29bd c9f7 013e
000000a0: 6c8d e5bd aefc 6bbd eb16 85bc 976d 78bd
000000b0: 8668 6b3d efcf dc3d 2cc9 f43d 4734 44bd
000000c0: 1c1b a0bd 14aa 4a3d 3c4c c43d 40e6 ddbd
000000d0: 0282 bebc c74d 4ebd 33d5 afbc ed88 aabc
000000e0: bab0 b1bd b675 bdbc 9f21 32bd bf83 8c3b
000000f0: 34d9 363b afd6 24bd 4f18 fe3d 1f61 bcbc
00000100: 6593 903d febe febd 702f 52bd b6f9 e03c
00000110: 6dcf 5b3d 382b 00be 2332 ac3d 0360 fdbc
00000120: abf8 82bc f12b d5bc a980 9a3d 415a 453c
00000130: fc23 753d f8b1 43bc 29df 003e f11e 093d
00000140: 5235 3d3d a765 53bd db33 0cbe 3029 b43d
00000150: 9557 19be 0f12 0dbe db22 04bc 29c0 2abd
00000160: e735 b3bd 3257 a13d 461d 083b 08f0 40bd
00000170: 0e92 b53d a6f9 113d edec c4bd 4926 bcbc
00000180: 799d debd b245 afbd 5cd0 6e3d f860 1d3b
00000190: f302 a1bc 1d74 60bd 4460 f6bd 5931 49bd
000001a0: 18e8 20bc 8edc d53b 538c 7f3d 1fd7 7d3d
000001b0: 7e30 bc3d 27d8 283d 6f9d 45bd 71f2 0ebd
000001c0: fa84 04be 8e2c 143c b227 bf3d 6b82 21bc
000001d0: 22cc 2e3d 1ff9 c63d 3f96 b33d ab11 1fbd
000001e0: 6230 ec3d f69d 833d 0184 a6bd dfed 8c3c
000001f0: d1f7 c33d c1ee 293d 4b99 053e 3a45 48bd
0.08615663 0.014750461 0.100706585 -0.14071184 0.07903626 -0.054212976 0.1241025 -0.10065359
-0.016207885 0.06534129 0.03537325 0.006864158 0.005966257 0.033152476 -0.10523447 -0.035975438
-0.022172522 0.12785842 -0.10452731 -0.046220195 -0.07681139 -0.10485808 -0.06951492 -0.030771146
0.06459531 -0.04578558 0.055740964 -0.022792459 -0.11259291 0.022581495 0.040398486 -0.09830337
-0.11964018 0.027660338 -0.06262777 0.027061908 -0.002836749 -0.04075951 -0.041306708 0.12692179
-0.11208615 -0.05761402 -0.01624628 -0.060651388 0.05747273 0.10781848 0.11952433 -0.047901418
-0.07817671 0.049478605 0.09584853 -0.10834932 -0.023255352 -0.050367143 -0.021463966 -0.020817244
-0.08676286 -0.023127418 -0.043489095 0.0042881663 0.002790046 -0.0402438 0.1240698 -0.02299553
0.07059363 -0.124387726 -0.05131477 0.027462821 0.053664614 -0.12516487 0.08408 -0.030929571
-0.015987715 -0.02602193 0.07544071 0.012045444 0.05984877 -0.0119442865 0.12585129 0.033476774
0.04619343 -0.051610615 -0.13691656 0.087969184 -0.14974816 -0.1377642 -0.008064951 -0.041687164
-0.087505154 0.07877959 0.0020769401 -0.04710391 0.08865748 0.035638474 -0.096155025 -0.022967475
-0.10869879 -0.08558215 0.058304176 0.0024014097 -0.019654727 -0.054798234 -0.1203008 -0.049119327
-0.00982096 0.0065265363 0.062389683 0.061972734 0.09188937 0.041221764 -0.048245843 -0.03489918
-0.12941352 0.009043826 0.09333743 -0.009857754 0.042675145 0.09715485 0.087688915 -0.03883521
0.11532666 0.06426613 -0.081306465 0.01720327 0.095687516 0.04148746 0.13046758 -0.048894145

weight f4 [128, 128]
00000000: 03ed 9dbc 25ce c03d a3cb 88bd a314 55bd
00000010: c385 7b3d 9cd6 103d 947c 173d 1258 ffbc
00000020: e9e4 923d 223c 1fbe f9d1 a7bd 8df6 f73c
00000030: 6ebc 17bd 6b03 80bc 0f6d 89bd 5a68 8d3d
00000040: 6c0d bcbc ec83 3a3d 44ce 7a3d 0162 8f3d
00000050: 3bd1 b83c 88ec 833d 6c7d c4bd ca76 09be
00000060: dee1 593d 8171 d03d 46f7 43bd 7741 a83d
00000070: 42cf 76bc 942b edbc 5e88 1b3d 7ff5 9b3d
00000080: c2ad fcbc 9ade 6d3d 7947 8dbc 6a25 8abd
00000090: be14 a2bd b91f 88bc ff46 793d b41c 2c3c
000000a0: abdc 943d 8ae1 963d f413 b4bc c55b 94bd
000000b0: 7674 90bd e09e 9d3c f875 2cbc fd85 7a3d
000000c0: aa12 0fbb 3628 61bc 78f5 2abc 3a53 6c3d
000000d0: c55e 06bd 53d5 9f3c e151 3abd b13e d4bd
000000e0: 4e90 38bd 36f5 123d af92 1a3d b746 553d
000000f0: 3cb4 8a3d f456 75bd 6407 efbb 93e9 6d3d
00000100: 723f 773b 4147 a23d 2ab3 ccbd 18a0 d83d
00000110: 649b 7d3d 3add 093e 74f7 93bd aec0 cc3c
00000120: c620 23bd 4f81 af3d 9e97 11bb 9468 90bc
00000130: 3fad c3bb 0135 983d 781d cfbd d569 2fbd
00000140: dd92 10bd fb4d 353d 3ccb 223c 4114 b8bc
00000150: ba7e fe3c b533 f43b 01c8 853d ff5b 7cbd
00000160: 8936 cb3d 5fb0 c33c cbf9 7b3d 896b 573d
00000170: ee67 9cbd b189 0abb a3a2 bdbc ba65 82bd
00000180: 3664 3a3d 1d23 5bbc dc21 3fbd ebac 96bc
00000190: 6d7f 933d 1d6d c1bd ffd9 febc f644 42bc
000001a0: 3136 dbbd 2974 b33c 6420 92bd a243 49bd
000001b0: b516 3dbc 49cd 573d a5aa bebc 11ce dbbd
000001c0: b1bc ab3c 6b21 8a3d ca83 e03b 530f ad3d
000001d0: eddd 953d 69bc 163b 289f c9bc 4ca8 cd3d
000001e0: c9b1 1dbd 6981 fdbc b77b 453c 2c93 3a3d
000001f0: 228a 13bd 893f 40bc 7f78 803d 61a1 9d3d
00000200: 611b b7bc 792f e83d edc6 0ebd 1757 763c
00000210: 33d1 d5bd bbff 6f3d ba58 b93c e40b 713d
00000220: 0f6b 00bc 6ecc c73c 99f1 023d 82d1 3b3d
00000230: 40cf 95bd 0860 e1bb 628a b3bd 4888 c9bc
00000240: 1b1e 233d 3578 9d3d ca3b b23d 8dff d6bc
00000250: d230 a93d 4035 debc d1ae 333e a944 0ebe
00000260: 6f70 bd39 7767 fdbd 9ad9 193e 9282 5e3d
00000270: e0cc 123d b320 00ba 0b61 4e3c f1ae 9e3c
00000280: acc1 a8bc 5c53 a93d 1b41 5c3d 1a93 d63d
00000290: d823 90bc 8e2f ce3c e866 cbbd 4a75 a53d
000002a0: 7da1 43bd 6e8d 81bd a3ad 303c 140e e13c
000002b0: 3a9a 193e b54d 1a3d eb4b 873d 20d2 a73d
000002c0: aed5 47be 4166 ab3d 6c48 ad3d 29d0 cabd
000002d0: 46d1 473d 38e5 a93c 6d57 f8bc 01f6 6cbc
000002e0: d4ab ebbc c36b bcbd d4c1 5dbc 6d64 9ebd
000002f0: 2943 463d 6b72 a2bd 82cc 023e b604 19be
00000300: 68bf 483d 94d9 5f3c c615 8dbd c76b 83bc
00000310: 6c4b 0abd 8195 583d b6f5 27bd 2177 4cbd
00000320: ebc2 9abd 3e59 ab3d b1c4 bebd 575a 073e
00000330: b3c7 60bd e829 95bc 4571 2e3d c643 34bd
00000340: 3304 09bd b476 c23b b1bd 0abc 6da4 163d
00000350: 7f22 7d3d 68da 183c 9d4d 0cbd 89ac bbbd
00000360: d10e d0bb b467 74bc 1d16 16bd 64e4 6a3d
00000370: 6be4 1f3d e33f 39bd 2b04 f6bb 86dc ef3c
00000380: cd86 0b3d 7112 253e 116c f03d ce20 393c
00000390: 7ab2 eebd 51a0 02be 1dd2 043d d30e 363d
000003a0: b50d e4bd 7a00 da3c 5855 97bd 68e3 93bd
000003b0: 7ae9 b4b9 b51a b73d b056 5e3c 223c c53d
000003c0: 8a68 c7bc a096 90bd 9df0 973d e408 6a3d
000003d0: 2063 ed3c 85b4 e93b 5fe3 0f3d 62d6 5d3d
000003e0: a62d 1c3d ed5a a1bd db2c 4bbd cb8d 523d
000003f0: cc98 a23d 8206 a1bc 939d 533a 4605 883d
-0.019278055 0.09414319 -0.066794656 -0.052021634 0.061406862 0.035360917 0.03698404 -0.031169925
0.071725674 -0.15550283 -0.08194346 0.030268932 -0.037044935 -0.01562663 -0.067102544 0.06904669
-0.022955619 0.045535967 0.061231866 0.07001115 0.022560706 0.06441599 -0.09594235 -0.1342422
0.05319392 0.10177899 -0.04784324 0.082156114 -0.015064063 -0.028951444 0.037971847 0.07615184
-0.030844573 0.058073618 -0.017245995 -0.067454174 -0.079141125 -0.016616689 0.060858723 0.01050489
0.072686516 0.07367237 -0.02198217 -0.07244066 -0.07053463 0.019240797 -0.010526173 0.061162937
-0.0021831193 -0.013742497 -0.010434501 0.05769656 -0.032805223 0.0195109 -0.045488242 -0.1036352
-0.045059495 0.035878383 0.037737545 0.052069392 0.06772658 -0.059897378 -0.007294582 0.05808408
0.0037727025 0.07923747 -0.0999511 0.105774105 0.06191577 0.13463297 -0.07224932 0.02499422
-0.039826177 0.085695855 -0.0022215615 -0.017627992 -0.0059715803 0.07431985 -0.101130426 -0.04282554
-0.03529631 0.04426382 0.00993615 -0.022470595 0.031066287 0.007452453 0.06532288 -0.06161117
0.09922511 0.023887811 0.061517518 0.052592788 -0.076370105 -0.00211392 -0.02314884 -0.06367059
0.045505725 -0.013375071 -0.04666315 -0.018393 0.07202039 -0.0944464 -0.031109808 -0.011857262
-0.107036956 0.021905975 -0.07135084 -0.049136765 -0.011541058 0.05268601 -0.023274729 -0.107326634
0.020963999 0.06744655 0.006851648 0.084501885 0.073177196 0.0023000485 -0.024612024 0.10041866
-0.038499627 -0.030945497 0.012053422 0.04555051 -0.036020406 -0.011733898 0.06272983 0.07696796
-0.022351922 0.1133718 -0.03485768 0.015035412 -0.10440292 0.058593493 0.022625316 0.05884923
-0.007838025 0.024389472 0.031968687 0.0458541 -0.073149204 -0.006877903 -0.08766629 -0.024601117
0.039823633 0.07688943 0.0870281 -0.026244903 0.08261265 -0.027125001 0.17547156 -0.1389338
0.0003613266 -0.1237325 0.15024415 0.05432374 0.035839915 -0.0004887685 0.012596379 0.019370528
-0.020600162 0.08267853 0.053773027 0.10477276 -0.017595217 0.02516916 -0.09931737 0.08079012
-0.04776143 -0.06325804 0.010783586 0.027472533 0.15000239 0.037671763 0.06606277 0.08194375
-0.19515106 0.08369113 0.08461079 -0.09902985 0.048783563 0.020739183 -0.030315125 -0.014462949
-0.028768457 -0.092002414 -0.013534982 -0.077339984 0.048403893 -0.0793198 0.12773326 -0.14943203
0.049010664 0.0136627145 -0.068889186 -0.016042603 -0.033763334 0.052876953 -0.041005813 -0.049918298
-0.07556709 0.08366631 -0.0931486 0.13218056 -0.054877948 -0.018208459 0.04258849 -0.044009946
-0.03345127 0.0059345607 -0.0084680775 0.036777902 0.061800476 0.009329416 -0.034253705 -0.09163768
-0.0063494225 -0.014917303 -0.036642183 0.057346717 0.039036196 -0.045226943 -0.007507821 0.029279958
0.034064103 0.16120316 0.11739362 0.011299325 -0.116551355 -0.12756468 0.032426942 0.04444773
-0.11135427 0.026611555 -0.07389325 -0.07221109 -0.0003450623 0.08940641 0.013570473 0.0963061
-0.02434184 -0.070599794 0.0741894 0.057137385 0.02897793 0.0071321153 0.035128947 0.05415953
0.03812947 -0.07878671 -0.049603324 0.051404756 0.079393 -0.019656423 0.00080724916 0.06641631

bias f4 [128]
00000000: e467 d3bc 88a0 4dbd 24da f33c 397c 57bd
00000010: 6f12 423d 74a7 b73d 9afb 68bc 12e9 bb3c
00000020: 2b3e 10bd 19c3 4c3d 51fd b6bc a22d 993d
00000030: 688b 983d a4f5 ae3c 7a15 ca3c e2e1 25bd
00000040: 2ae3 403d 33f2 9ebd 30b3 ab3c 7f48 803d
00000050: e632 783d 3cad 49bd 56a8 06bd df21 43bd
00000060: fcae a13d a365 65bd 37a4 8a3d 437a 43bd
00000070: 7b06 7cbd fc90 893d 0482 3e3c 2a7b 6ebd
00000080: fdbf ffbb f72a b0bd 64b7 853c 6d44 373c
00000090: b9fe 55bd f514 4d3d 6a47 dfbc 8d6b 763d
000000a0: ea4e 95bd 6297 11bd 0751 123d 176c c3bd
000000b0: d7b7 83bd daa5 33bd 7882 3a3d 6abf 773d
000000c0: 15cd 363d 173c 3c3d 92f8 973c c43b 113d
000000d0: 7b4f 0a3d 3b30 85bd 904c 36bd dffd 5d3d
000000e0: 4bc9 28bd 0f90 87bd c691 a23d d38d 5b3d
000000f0: f439 973c 9790 51bb ba42 353d 8432 2cbd
00000100: 30f1 f83c 3793 d93c 0584 a3bc 33fe f9bc
00000110: dbaf 1bbb 915a a1bc 6727 61bd abfe ae3d
00000120: 1db1 7ebc 15be 64bd ef0f 9a3d bb4e 4c3d
00000130: e0ed 193d f370 e73c 710e 34bd 701b f93c
00000140: a968 943d 91d1 193d 7d39 e1bc 63eb 093a
00000150: 73e2 87bd ed06 adbd 22d5 5b3d 9efc b4bc
00000160: dd0f a33d 2352 04bc 50f2 7c3d 6af9 583d
00000170: 4968 2fbd c987 66bc d7cb 2abc 43c5 9dbd
00000180: e7df 1db9 ab73 cdbd 598d 863c 0cb8 6f3d
00000190: 799a ffbc abfd a53d edb0 73bc ad33 293d
000001a0: b99a a9bb 0b61 123d 3884 9a3d d63f a5bd
000001b0: 536d 423d 2146 a03c f757 79bd d4f6 463d
000001c0: 20f0 783d 5374 783c cd83 f23b 227d 51bd
000001d0: cad5 aebd 6f33 a2bd a5a8 893d b8a9 493d
000001e0: 5e86 4dbd 4af1 1e3d d8ed a13d 5398 d53c
000001f0: 024d debc 5c0b 08bc 22ac 9c3b 169b cd3c
-0.025806375 -0.050201923 0.029767103 -0.052608702 0.04738086 0.08967486 -0.014220143 0.022938285
-0.035215538 0.049990747 -0.022337588 0.07479407 0.07448465 0.021357365 0.024668444 -0.04049862
0.04709164 -0.077610396 0.020959467 0.062638275 0.060595416 -0.049237475 -0.03287538 -0.047639724
0.07894704 -0.05600513 0.06769603 -0.04772402 -0.061529618 0.06717107 0.011627678 -0.058222927
-0.007804869 -0.08601945 0.016322799 0.011185748 -0.052244876 0.050068814 -0.027255733 0.060161162
-0.07290442 -0.03554476 0.035721805 -0.09542101 -0.06431549 -0.04385934 0.04553458 0.06048528
0.044629175 0.045955744 0.018551145 0.035457388 0.033767205 -0.0650334 -0.04450661 0.05419719
-0.041207593 -0.06619274 0.0793796 0.05360205 0.018460251 -0.0031977051 0.04425309 -0.042040363
0.030388445 0.026559455 -0.019960413 -0.03051672 -0.002375594 -0.019696506 -0.054969218 0.08544668
-0.015545157 -0.05584534 0.0752257 0.04987977 0.03758037 0.0282521 -0.043959085 0.030408591
0.07246525 0.037553374 -0.027493233 0.00052612106 -0.06634989 -0.084485866 0.053670056 -0.022093114
0.0796201 -0.008076224 0.061754525 0.052972235 -0.042824063 -0.01407046 -0.010424576 -0.0770364
-0.00015056097 -0.100318275 0.016424822 0.05852513 -0.031201588 0.08105024 -0.014873725 0.041309047
-0.005175915 0.03573708 0.0754475 -0.08068816 0.04746754 0.01956469 -0.060874905 0.048575237
0.060775876 0.015164453 0.007400966 -0.051144727 -0.08536871 -0.079199664 0.067216195 0.049234122
-0.05017697 0.03880433 0.07906693 0.02607361 -0.02713633 -0.00830349 0.004781262 0.025098365

weight f4 [128, 128]
00000000: ac70 c3bd b615 afbd 1246 e83c 8e21 2cbd
00000010: e1aa 203d d00f 7d3d 7105 4ebc abc8 903d
00000020: e3fb 6abd a502 613d 813c 4cbc 6cbb 963d
00000030: e084 96bd a7c2 783d b4b4 af3d 4263 833d
00000040: 1be2 09bd a966 b13d 80f8 fabb 3806 713c
00000050: 013a 42bd 46bf 993d 77f3 04bd dcd4 bebd
00000060: 52d3 1a3d 1e14 87bd becf adbd 56df 423d
00000070: aca9 823d 13d4 bf3d 1859 1d3d c507 f8bd
00000080: ae73 8b3d fb3d 07bd 9a47 a43d d399 30bd
00000090: a892 7bbc aae8 203e d973 9e3c cbdb 083e
000000a0: a8a3 023e 8b60 73bc a1b0 7c3d ff4a 683d
000000b0: 8518 3cbd d9c3 06bc e5e7 a63d 8d64 01bc
000000c0: c61d a53d 86b3 04bd 464f 10bd 8d8d d33d
000000d0: be37 b7bd c0f4 44ba 7177 54bd fa77 7bbd
000000e0: d492 773d cc6b c6bd 5f88 17bc c313 b13d
000000f0: 9c09 1dbd 7e2e 5fbd a2fe e73c 0c54 a4bc
00000100: 8594 7c3b c6da b9bd b9c1 a1bd 236c a93d
00000110: 6baa a6bd bbc5 c9bd 2e76 99bd 3741 903d
00000120: 6390 6d3d 362f 86bd cb02 18bd bdb4 f53c
00000130: b64e 4e3c 3421 f3ba d517 96bb 6b11 b3bd
00000140: 3aa4 95bd 6a11 933d f48a 3e3d 8c67 023c
00000150: e675 be3d 444e a93d cf9d 813c a43c 84bd
00000160: 05cc 6dbd 6bdd 013c 8530 d83c cb8c 85bc
00000170: d036 ca3c 80fc b03d dfac 0e3d 86aa 063b
00000180: 3c61 3e3d 92ca d9bd d6d0 efbb 60a8 d43c
00000190: 2ed9 bdbd 8f26 30bd c036 06bc 40bc 41bb
000001a0: 8670 a73d 71f1 8e3d 8204 a7bb b4bb 68bd
000001b0: f329 5f3d 3bd8 823d 0ab9 7cbd 8197 ab3d
000001c0: a3fd 863c 9faf 383d 889c 23bc c4cf 8d3c
000001d0: 37f9 9b3d 8ea3 33be 259e 873d db8d 37bd
000001e0: d3aa 87bd cd26 503d b472 1a3d f61d f63d
000001f0: e666 dabd f3fc 16bd ff57 7ebb 1494 b3bc
00000200: dbc3 8cbd 228a c63d fe74 23bd 12d5 47bd
00000210: bddd a03d fa90 e43c 1897 123e 117b 10bd
00000220: 6aab 80bb 8555 b6bd e125 ea3c 66b8 ed3d
00000230: 3688 0fbd 0539 003e 414c a93d 9c75 b43d
00000240: 3173 9f3c 50ef f9bd d3e0 373e 057a 8d3d
00000250: 4645 1bbd 6a16 c33d 8bdd 4e3e 614f 2abd
00000260: 2e14 0e3d 729b 11be 7e41 36bc dccf d83d
00000270: dda5 2abe ecf8 15bd d066 253c 1790 6d3d
00000280: d407 163e 44ba 0d3e 53a9 363d 12b1 50bd
00000290: 7323 6bbd cca3 073e f14b f838 2f78 963d
000002a0: ea0e 1d3e 155f 693c 00b6 b83d 1e65 f6bd
000002b0: 5602 27bd 3a84 d0bb 1c26 05bd ae49 35bd
000002c0: d2a4 11be c440 b6bd ec3c 47be 4192 bb3c
000002d0: 7b7b 893d 730f a6bc 927c 2fbd 53e8 3b3b
000002e0: 23d1 c73c 4423 ad3d d0dc eb3d 8d57 213e
000002f0: 7980 13be f192 573d 2fcb 32be 5529 3abc
00000300: 020f f23d efe5 c9bc ac7e 053e cc5c b63d
00000310: 4479 61bc 45dd 7a3d 77a9 a3bd d482 a6bd
00000320: 8a69 3b3d 4413 45bd fec0 bfbd 93a7 adbd
00000330: 8155 70bc e6a1 f53d 9458 873b fc03 b2bd
00000340: 6222 24bc 2166 90bd de39 febd 2749 3e3d
00000350: 4793 b63d d970 1abe 463c 26be b48a 88bd
00000360: c789 863d 3c82 3b3c aa93 ab3d 2e8e 96bd
00000370: c616 2dbe 71eb 06bd a6b6 62bd abf8 033e
00000380: fce4 85bd c211 0f3d 9c63 1f3e d66a 1a3d
00000390: d62a 433d 07d2 17be 459d 5f3c 95da 353d
000003a0: 7d8f 17bc dec9 c9bd 5e14 e0bd 40f6 81bd
000003b0: b820 183d e636 5b3d 989c d53d 680b d7bb
000003c0: 0f87 97bc 29ec 46bd 6ae5 68be e064 98bd
000003d0: 2b88 143e b8d5 f3bd 23e4 503d d499 403e
000003e0: 046c 9b3d 4f91 8b3c 0678 e63c bd60 17bd
000003f0: f118 a53d dd92 fc3d 122b d2bd 8977 1fbe
-0.09542975 -0.08549063 0.028353725 -0.042024188 0.039225463 0.061782658 -0.0125745395 0.070695244
-0.057369124 0.054934163 -0.012465597 0.07359967 -0.07349563 0.06073251 0.08579388 0.06415416
-0.033662897 0.08662159 -0.007659018 0.014710955 -0.047418598 0.07507186 -0.03245875 -0.093179435
0.037799187 -0.06595634 -0.08486889 0.04757627 0.063800186 0.09366622 0.038415045 -0.12110857
0.068091735 -0.033018094 0.080214694 -0.04311545 -0.01535479 0.15713754 0.01934235 0.13365094
0.12757742 -0.014854561 0.061691884 0.056712147 -0.04592182 -0.008225405 0.08149699 -0.007897508
0.080623195 -0.03239777 -0.03523185 0.10329733 -0.08946179 -0.0007513277 -0.05187172 -0.061393715
0.06044276 -0.09688529 -0.009248822 0.086463474 -0.038339242 -0.054487698 0.02831966 -0.020059608
0.0038540673 -0.09074931 -0.07898278 0.082725786 -0.081379734 -0.09852167 -0.07493244 0.07043689
0.057999026 -0.065519735 -0.03711204 0.02999341 0.012592008 -0.0018549324 -0.0045804777 -0.087435566
-0.07306714 0.07181056 0.046519235 0.007959258 0.09299831 0.08266881 0.01582232 -0.06456879
-0.058055896 0.007926325 0.026390323 -0.016302487 0.02468434 0.086419106 0.03483283 0.0020548417
0.04647945 -0.1063434 -0.0073185964 0.025959194 -0.09269939 -0.043005522 -0.008191764 -0.0029561669
0.08175759 0.06979645 -0.005096973 -0.056819633 0.054483365 0.06388899 -0.061699905 0.083785065
0.016478365 0.04508936 -0.00998605 0.017310984 0.07615893 -0.1754286 0.066219606 -0.04481302
-0.06624379 0.050818253 0.037707046 0.12017433 -0.106641576 -0.036862325 -0.0038809774 -0.021921195
-0.06873294 0.096943155 -0.039906494 -0.048787184 0.07854793 0.027901161 0.1431545 -0.035273615
-0.003926684 -0.0890303 0.028582515 0.11607437 -0.03504201 0.12521751 0.082664974 0.08811495
0.019464107 -0.12203848 0.17956857 0.06908039 -0.03790786 0.095257595 0.202017 -0.041579608
0.034687214 -0.14219454 -0.011124013 0.10586521 -0.16664834 -0.036614344 0.010095313 0.057998743
0.14651424 0.13840586 0.044595074 -0.050950117 -0.057406854 0.13246077 0.00011839707 0.07347142
0.1533772 0.014243861 0.09019089 -0.12031005 -0.040773712 -0.006363419 -0.032507047 -0.04425972
-0.1422303 -0.08899072 -0.19456834 0.022896888 0.06713005 -0.020271039 -0.04284341 0.0028672412
0.024391716 0.08453992 0.11516726 0.15756054 -0.14404477 0.05263037 -0.17460321 -0.011362393
0.11819269 -0.024645774 0.13036603 0.08904418 -0.013761822 0.061246175 -0.07991307 -0.08130422
0.045754947 -0.048114076 -0.09362982 -0.08479228 -0.014668823 0.1199377 0.0041304324 -0.08692166
-0.010017963 -0.070507295 -0.12413381 0.046456482 0.0891481 -0.1508211 -0.1623393 -0.066670805
0.06569248 0.0114446245 0.08377774 -0.073513374 -0.16903219 -0.03293938 -0.05534997 0.12887828
-0.06537816 0.034929045 0.15565342 0.037699543 0.047648273 -0.14826213 0.013648336 0.04439791
-0.009250519 -0.09852956 -0.10941385 -0.063457966 0.037140578 0.053519152 0.104302585 -0.006562639
-0.018497018 -0.048565064 -0.22743765 -0.074411154 0.14505069 -0.11905998 0.050998818 0.18808681
0.07588962 0.017037062 0.028133404 -0.03695749 0.08061398 0.123326994 -0.10262121 -0.15572943

bias f4 [128]
00000000: aff7 6ebc 0b29 633c 40f4 063d db26 2b3c
00000010: be90 08bc 9cdf 0a3d ac5c c8bc 1371 94bd
00000020: 34a1 9abc 9944 71bd af4d 9ebd ffba a0bc
00000030: b457 e4ba 72d6 743d 16a7 963c a70d 8abd
00000040: 9007 623c b3cc d7bc e87a da3c e021 7bbd
00000050: 2d87 7abd ed88 e73c e42b e83b 7ace 87bc
00000060: 851f 55bc c845 6bbd ae71 78bd 4d66 d3bb
00000070: 4a01 4d3d 9a6b e9bb 3c3e 453c df7a 8cbc
00000080: b6ea 97bd c19b 15bc 764f 3fbd 5fae 703d
00000090: 3a62 193d abdd 403d f364 0e3d 3599 9c3b
000000a0: d0db 843c f8a2 4e3b 6757 1bbd 368a 733d
000000b0: ad1d 83bc 2c10 84bd 4928 6e3c 76fd 93bd
000000c0: f090 9e3d 38a1 883b 9817 67bd 4d87 db3c
000000d0: 87e0 343c 3c84 d239 6004 2abd b228 57bd
000000e0: 8bf9 67bd 4b65 70ba f01e 0abd 69c3 053d
000000f0: 455b fb3c 1fa3 04bc f266 aebc f6fe 8d3d
00000100: 9984 fe3c 4dcf 5abd 6f02 81bd e087 92bd
00000110: 493f 923d 60bf 4bbd 2ac9 453d 36eb 7b3c
00000120: 6caa 183d 1490 9a3d 7cf2 343d 26e9 963d
00000130: 61b2 3a3d 48ca 3cbc 6f66 16bd a7d1 2b3c
00000140: e0df 8b3d c1fe 8dbd aed2 a43d 87b6 b73c
00000150: 16bf 65bc d69b 5f3c 7514 42bd 2393 423b
00000160: 3f83 3fbb 8325 79bc 8b8f 42bd a820 29bd
00000170: 0685 9d3c 6534 54bc ce32 77bd 840f 793d
00000180: 0a86 0a3d 0c4a 02bd 6ca9 6abd b76c 8b3d
00000190: 525c df3c 9579 3fbd 0904 81bd 7f00 303d
000001a0: 989b 6fbd cdaf afbc 4ff1 f439 6f26 4bbd
000001b0: f781 3a3d 727f f9bc 7a03 a4bc a7b0 b83c
000001c0: df40 52bc 9bbd bc3b 776f 7abd dda7 50bb
000001d0: 3409 2bbd 6311 b1ba b21d 4dbc 9b31 463c
000001e0: 5ba9 cb3c e9da 0cbc 2ef3 853d f516 77bd
000001f0: 6af4 493c f192 20bb aafb a03d d901 24bd
-0.01458542 0.013864766 0.03294778 0.010446276 -0.0083352905 0.033904657 -0.024458252 -0.0724813
-0.018875696 -0.05890331 -0.07729661 -0.019620417 -0.0017421157 0.059774823 0.01839022 -0.06740885
0.013795748 -0.026342725 0.026669934 -0.061311603 -0.06116407 0.028263533 0.0070853103 -0.016577948
-0.013008003 -0.057439595 -0.06065529 -0.006451404 0.050050057 -0.007123423 0.012038764 -0.017148433
-0.074178144 -0.009131373 -0.04670664 0.058760043 0.03744719 0.0470864 0.03476424 0.004779006
0.016218096 0.0031530242 -0.03792515 0.05945798 -0.016005361 -0.06448397 0.014535972 -0.07226078
0.077424884 0.0041696094 -0.056418985 0.026797915 0.01103986 0.00040152844 -0.04150808 -0.052529044
-0.056634467 -0.0009170367 -0.03372091 0.03265706 0.03068317 -0.008095532 -0.021289323 0.069333956
0.031069087 -0.053420354 -0.06299292 -0.07154822 0.07140977 -0.049743056 0.048287548 0.015375903
0.037271902 0.07547012 0.044176564 0.07368688 0.04558027 -0.011522837 -0.036718782 0.010486997
0.0682981 -0.06933356 0.080479965 0.022425903 -0.014022609 0.013647994 -0.04738279 0.002968975
-0.0029222516 -0.015206697 -0.047500174 -0.04129091 0.01922847 -0.012951945 -0.060351186 0.060805812
0.033819236 -0.031808898 -0.05729048 0.06807845 0.027265701 -0.04674681 -0.06299598 0.042969223
-0.058497995 -0.021446133 0.00046719096 -0.0495972 0.0455341 -0.030456278 -0.020021189 0.022545172
-0.012832849 0.0057599074 -0.061141457 -0.0031838336 -0.041756824 -0.001350921 -0.012519287 0.012096788
0.024861028 -0.008597114 0.065405235 -0.060324628 0.012326339 -0.0024501646 0.07860501 -0.040040825

weight f4 [128, 128]
00000000: 0432 76bd 5139 46bc bb1b 01bd 2552 f5bb
00000010: f076 863c 2ee8 453d baae 943d 5c1a 673c
00000020: 861d e33c 02d6 cbbb 4486 8abd a837 7abb
00000030: c983 10bd a842 e2bd 37f0 d83c aecf 483c
00000040: d244 d1bc 405a f83c 393a dbbc 548f 293e
00000050: c60b 7f3d 9a6b ac3c b849 873d ac84 47bd
00000060: 12ea e33c ddda aabd c8e8 4e3d 96ad 89bd
00000070: 5b07 29bc 5211 5ebd fa32 99bd e82b 163d
00000080: b5e9 c73c 82f8 61bd 9375 89bd 07ae 18bd
00000090: 9509 9cbb 52ce a63d bf6e a93d c6a2 d7bc
000000a0: 706b a43c d15a 123d b30c a73b f137 9fbb
000000b0: fe1e 753d 4a4a 8a3d 1db2 61bd ac76 cabd
000000c0: 0901 cdbd 9c05 c93d b0d7 5e3c 5c95 7d3c
000000d0: bcd7 e73c 9372 ad3d 6534 433c 886e 68bd
000000e0: 4c06 29bd f272 d73d c558 5dbd 03ef 893d
000000f0: 1d2b ffbd 47fd 243c 72df 8bbc 62b3 b33c
00000100: b904 593d 657c 74bd 4eee dd3d 6662 49bd
00000110: c9fd ae3c 24e1 bbbc a226 54bd f876 723d
00000120: c585 403d 32d0 203e cf3b 353d 4532 b4bd
00000130: 9564 193d 4702 8f3d 882b 1ebc 18ce 44bc
00000140: 7231 5bbd 65a0 72bd 0ee2 a73a 9c5e e53b
00000150: 5ed9 87bd cf66 39bd cbaa 233d 295c 97bd
00000160: 11af b5bb 213b 5a3d ea53 273d bffe acbb
00000170: c0b8 0dbe 015a b438 a257 01bd c6ad 93bd
00000180: b877 153d 5c38 f8bb d906 c9bd 511f 45bd
00000190: d2c0 41bd c8a2 0c3d 63c7 92bd aa24 0dbc
000001a0: 733b 8bbc 0017 9abd cded b5bc 0ba1 053d
000001b0: 9cf4 6bbd b426 f7bd 3321 1fbe 02cc 29bb
000001c0: 64ce 31bc 1aea 423d cece f23d 64b6 d53d
000001d0: 9f05 a8bb 7bd3 293d 17cb 1fbd 6440 783c
000001e0: 3ee1 703d 9215 79bd 2569 d9bd e2db f3bd
000001f0: b3d4 8e3d 5bed f23d a388 9bbd 97cd 3fbd
00000200: 0893 afbd 77e0 7ebd 24b1 d1bd 2b20 11be
00000210: 8514 7bbd a954 613d f32e 8fbd fcce 4f3d
00000220: 3e0b 5e3b 4c4c 61bd 237f 19bd a5a9 16bb
00000230: db15 9f3d e2fa c6bd 095b 3fbd d9b4 913c
00000240: db7c ac3d 4321 93bc 4634 133e cd95 be3c
00000250: 875c d33c 03fc 80bc 483e 9c3d aeb5 96bc
00000260: 1f01 473d b076 78bd dfe0 7a3b 189a 3ebd
00000270: 5308 e33c 95d4 b03c adff acbd 6d62 bdbb
00000280: fd6d 0e3d c96e c63d d219 9c3b dbe3 c9bd
00000290: 704d 69bc 38f0 9bbd 1d61 693d f1b6 623c
000002a0: 5861 33bd fbf5 8fbb a744 763d 26df 8f3d
000002b0: 9b22 b5bc f85a 913d bb17 ae3c 3bd7 163d
000002c0: e362 bc3d e178 da3d 3645 e93c 3f6a 933c
000002d0: bb7c 1c3d 69d2 523d b3e4 483d c485 aebd
000002e0: 064b e23c 52c9 6a3d a861 683a 47e1 8a3d
000002f0: 7acc afbd f2ed 23bd eaab 9d3d 161e 6ebd
00000300: dc53 5dbd 13c6 7c3c aac4 433d 9964 40bd
00000310: c4bc 093c e3c5 bdbd 85d3 1d3d 870a 03bb
00000320: cd36 033d 1f7a 383d bb52 a73d 5745 d5bc
00000330: 7bd3 92bc 635d b83d 01bb e93c 0348 44bd
00000340: 844d ab3c 857d b9bd ff32 1c3e 357c dc3b
00000350: 10f1 a8bd 2906 633d be33 dfbc c5c8 79bc
00000360: 381f cd3c 3ac9 4cbd 854d dabd 55f1 6b3d
00000370: d6b6 13be 242b d4bc b53d 10bd 348f eb3c
00000380: ce8a 253d 573e 9dbc 117d 9dbc 5082 eabc
00000390: eb37 513c 258c 6a3d 3e65 60bc 3fc7 683d
000003a0: 686a 04bd 7be7 9cbd 1bde 9d3c 4ff4 c43d
000003b0: 2175 5b3d eac2 cabc 5c90 1fbc 6d54 a03d
000003c0: 4254 163d 3452 99bd 0c9c 13bd f19f dabc
000003d0: cfaf eabc eb23 c73c b5f5 f2bd c67a 5cbd
000003e0: 97a6 dfbd 92c1 37bc ee9d 683d 95a3 803d
000003f0: d73b 0d3d 44df 75bb 3516 b73d 2db6 8f3d
-0.060106292 -0.012098626 -0.031520586 -0.007486599 0.016414136 0.048317127 0.07259889 0.014105406
0.027724039 -0.00622058 -0.067638904 -0.0038180146 -0.03528193 -0.1104787 0.02648173 0.012256546
-0.025545511 0.030316472 -0.026761161 0.16558582 0.062267087 0.021047402 0.066058576 -0.04871051
0.027821574 -0.08342526 0.050514966 -0.06722562 -0.010316695 -0.054215737 -0.07480426 0.036662966
0.024403432 -0.055168636 -0.06711879 -0.03727534 -0.0047618845 0.08144821 0.08273076 -0.026322734
0.020070761 0.03573114 0.0050979494 -0.0048589637 0.05984401 0.06752451 -0.055101503 -0.09885916
-0.10009963 0.09815523 0.013601229 0.015477505 0.028301112 0.08469119 0.011914347 -0.056746036
-0.04126577 0.10519971 -0.054039735 0.06735041 -0.12459395 0.010070152 -0.01707432 0.021936122
0.05298302 -0.059688944 0.10836469 -0.049166106 0.021361249 -0.022934504 -0.051794656 0.05919549
0.047002573 0.1570442 0.04424649 -0.08798651 0.037449438 0.06982856 -0.009653933 -0.012012027
-0.05351395 -0.059234995 0.0012808458 0.0069998037 -0.066332564 -0.04526406 0.039957803 -0.07390625
-0.005544551 0.053279046 0.04085151 -0.0052793915 -0.13840008 8.5998334e-05 -0.031577714 -0.07210879
0.036491126 -0.007575078 -0.09815759 -0.04812557 -0.04730303 0.034334928 -0.07166936 -0.008614698
-0.016996121 -0.07523918 -0.022208119 0.032624286 -0.057606325 -0.12067929 -0.15540008 -0.0025908952
-0.01085243 0.047586538 0.11855851 0.10435179 -0.005127623 0.04146145 -0.03901204 0.015152071
0.058808558 -0.060811587 -0.10615758 -0.11907174 0.06974163 0.11861678 -0.07594421 -0.046826925
-0.08572966 -0.062225785 -0.10238865 -0.14172427 -0.061298866 0.05501238 -0.06991377 0.050734505
0.0033881213 -0.055004403 -0.037474763 -0.00229893 0.077678405 -0.09715821 -0.046717677 0.01778643
0.08422252 -0.017960196 0.1437541 0.02326479 0.025800956 -0.015745169 0.07629067 -0.018397179
0.048585054 -0.060660064 0.0038281006 -0.046533674 0.02771393 0.021585742 -0.08447204 -0.0057795555
0.03477286 0.09689099 0.00476382 -0.09857913 -0.014239654 -0.076141775 0.05697738 0.013837562
-0.043794006 -0.004393337 0.060124066 0.07024984 -0.022111228 0.07097429 0.02125155 0.036826354
0.09198549 0.10667587 0.028475385 0.017994998 0.03820489 0.051470194 0.04904623 -0.085216075
0.027623665 0.0573209 0.00088646496 0.067812495 -0.08583923 -0.040021844 0.07698806 -0.05813416
-0.054035053 0.015428084 0.047794975 -0.046970937 0.008406822 -0.092662595 0.0385318 -0.0019995288
0.032034684 0.04503834 0.081700765 -0.02603404 -0.017923107 0.09002187 0.028531553 -0.04792024
0.020910986 -0.09057144 0.15253828 0.006728674 -0.08249104 0.055425797 -0.027246352 -0.015245621
0.0250393 -0.049996592 -0.10659317 0.0576032 -0.14425215 -0.025899477 -0.0352151 0.028754808
0.040415578 -0.019194765 -0.019224675 -0.028626591 0.01276968 0.05726256 -0.013696013 0.05683064
-0.03232804 -0.07661339 0.019270947 0.09616911 0.0535785 -0.024751145 -0.009739008 0.07828603
0.03670145 -0.07486382 -0.03603749 -0.026687594 -0.028648285 0.02430912 -0.11863271 -0.053828023
-0.10920446 -0.011215584 0.05679124 0.06281201 0.034480896 -0.003751711 0.089397825 0.07017169

bias f4 [128]
00000000: b252 adbd 9533 2a3d 83a1 b63d 7bb3 a53d
00000010: f786 2f3d 8285 31bd 1244 a33d a09f 95bd
00000020: 5346 98bd acdd 9b3c 5b4d d8bc 7ce9 c2bc
00000030: 693f 90bd 4af1 f2bc 41bb 1b3d 1233 49bd
00000040: 899a 82bc 1812 fabc 238d 75bd ca48 bdbb
00000050: 5df2 6c3d 1117 993d a450 0a3d 297c 9ebd
00000060: 6b57 48bd ffdf 283c 994e 723d 0a0b 3dbd
00000070: 4c59 133c 7683 22bd b4b4 9bbc bfa1 c23c
00000080: 12f6 8c3d 3334 2e3d c700 8fba 74ef 583d
00000090: 1a04 8c3c d8b6 26bd 31fe 01bd de65 e93c
000000a0: 3ca5 3cbd 7f1b d4bc 48af 2abc b9c7 963d
000000b0: 2a45 69bd 0651 b1bc d822 053d 071a 41bd
000000c0: f3c3 4b3d ca82 88bd 6b24 933d 2dde 493d
000000d0: 473a 85bd ca0a a23d b57e 75bc fab2 7d3d
000000e0: 2de0 173d 917c df3c fe24 5ebd 83dc b53d
000000f0: 5a06 45bc 2720 83bd f8d0 c9bc caf4 0f3d
00000100: 253f 523d 7f72 3abd 0e4a de3c 191b af3d
00000110: d5a4 6bbd 358b 953c 816f 363d 6712 d33b
00000120: 8ef6 6b3d 71f1 ab3c fbbf 993d 3a99 5a3c
00000130: 05c3 a9bc ee35 473d 80e3 5ebc 90c1 9abd
00000140: 62d0 333d 9af6 a0bd 1968 34bd 5177 883d
00000150: 208d b2bc db5f 4bbd 1adb a33d 05b7 e63c
00000160: 8dfb 20bd af0b 81bd 16b9 ad3d e705 dc3c
00000170: a705 aa3d 58c3 66bd d734 01bd b151 2ebd
00000180: e212 43bd 63f4 d7bc 4109 a13d f762 093d
00000190: bece 993c 05fb 59bc 9a1b a83d d81d 163b
000001a0: b287 afbd 4b79 fdba e89c c43c 69aa 2c3c
000001b0: 2702 8c3d 3e55 7d3c 733b 2139 5d11 83bd
000001c0: ddaa 6a3d d28d 0ebd e64a 2e38 2dd3 4ebd
000001d0: 96c8 11bc 6d8f a6bc b898 cbbb b51e 56bd
000001e0: 6419 883c 6b9c 133d 9757 253c d1b7 713d
000001f0: 1586 c6bc 8237 a5bc 91cb 813d 277c 603d
-0.084630385 0.0415531 0.08917525 0.08090874 0.042853322 -0.043340214 0.07971968 -0.07305837
-0.07435288 0.0190266 -0.026404073 -0.023792975 -0.070433445 -0.029656071 0.038020376 -0.04912097
-0.015942829 -0.030526206 -0.05994905 -0.0057764994 0.057848323 0.07475103 0.03376831 -0.077385254
-0.048911493 0.010307311 0.059156988 -0.046153106 0.008993458 -0.039676152 -0.019007064 0.023758767
0.06882872 0.04253025 -0.0010910266 0.052962735 0.0170918 -0.040701717 -0.031736556 0.028490957
-0.046056017 -0.025892017 -0.010417767 0.07362313 -0.056950726 -0.02164508 0.032503933 -0.047143962
0.04974742 -0.06665571 0.071846806 0.04928415 -0.06505256 0.07912214 -0.014983823 0.061938263
0.037079025 0.027281078 -0.054234497 0.0887995 -0.01202544 -0.06402617 -0.024635777 0.03514556
0.05132975 -0.04551935 0.027134921 0.0855009 -0.057530243 0.018254856 0.044539932 0.0064414027
0.05760818 0.020989152 0.075073205 0.013342196 -0.020722875 0.048635416 -0.013604045 -0.0755645
0.0438999 -0.078595355 -0.044044588 0.06663383 -0.02179581 -0.04965196 0.08000775 0.028163442
-0.039302398 -0.063010566 0.08482568 0.026858283 0.08301859 -0.056338638 -0.031544533 -0.042558376
-0.04762543 -0.02636165 0.07863093 0.033541646 0.01877534 -0.013304477 0.082083896 0.0022905972
-0.08570804 -0.0019338516 0.0240006 0.010538676 0.06836348 0.015462218 0.00015376303 -0.06399796
0.057291854 -0.03480322 4.1554587e-05 -0.05049436 -0.008897921 -0.020332063 -0.006213274 -0.05227538
0.01661367 0.036037844 0.010091684 0.05901319 -0.024233857 -0.02016807 0.06337655 0.0548059

weight f4 [2, 128]
00000000: 6f7f 143d 709a 513c d956 3a3e d7f2 afbd
00000010: 2721 8fbe 6d7b f6ba 54b6 82bd 4a74 d6bb
00000020: 8193 a93d 562e 7dbd 1e29 af3d f86c 05bd
00000030: 73da b9bc 8e97 893d f5de 41ba 7175 7abd
00000040: 5180 bdbd ab26 363e 3483 2cbd 7b01 b9bd
00000050: 7a7d b43c 8a22 ab3d d3ac 7abd 58ca 07be
00000060: f278 5cbd baca 0d3e fc7a 12bc 7288 71bd
00000070: 9220 b4bd d67c e6bd 6655 e73c a6c3 d93d
00000080: c42b d7bc ee0f a4bd 95e4 bf3d 7194 9dbd
00000090: 96d9 44bd 32d4 0abe 3b14 78bd c9f6 10be
000000a0: 838b ddbd 643c 633d 5a44 9dbb 2637 4e3d
000000b0: 9130 64bd 8dcf 88bc c405 79bd 28f7 2bbc
000000c0: f6bc 143d 8b25 263c 41e3 4a3d 61cf 49be
000000d0: ba05 c3bd 31de 21bd 1df7 0cbd b0f8 b6bc
000000e0: 9b9c 2e3e 67c5 173d 5341 b6bc 99de 133d
000000f0: 38dd 883d ccc1 c13d 8f1d 1ebe c4b2 0c3e
00000100: bf46 63b9 0b01 613d 962a 97bd c2ce c3bd
00000110: 5c2a 33bc c45c aabd 32f2 d43d f500 cbbd
00000120: 3254 273e e8df 28bd 34cd cdbc e3f2 b13d
00000130: 247c 913d 63a1 01be 5189 863d 5aaa 043d
00000140: 7793 babd f77f 33be de5d 09be 5860 0bbe
00000150: dae0 48bd ca7f fb3b 0d9f e8bc 0eb7 57bd
00000160: 77d6 b0bd 29e7 72bd 73fe 0dbe 04ea 073d
00000170: 2f0b b93d 3ad5 9d3d 8edf 8c3e b6f1 203e
00000180: 9bd5 03be 1323 2cbe 6775 c6bd b080 51bd
00000190: e653 dbbd a9bc 8a3d c733 e23d 38c1 bf3d
000001a0: 5b13 d7bd 8860 333d 7fe8 f73c 329c 05bd
000001b0: b402 3bbb 7fd7 d0bd faff 633d 3b6f 183d
000001c0: 08e4 ffbc 4b1e 8fbd cdc7 b4bd b41d 893d
000001d0: 3fab 24be df32 00be 008a e03d 308b 94bd
000001e0: c729 2cbe a915 87bd 1c56 c73d b0c5 b93d
000001f0: be47 173d d4ec ea3b a777 dfbd b027 dc3c
00000200: 1800 b03c 6d84 c83d 64b9 a4bc c794 92bd
00000210: 3375 753d 677b 75bd 6c2b 0bbe f8e6 55bd
00000220: 67d2 7739 fe1c b3bd d41a 4c3e 6125 1b3c
00000230: 1470 1a3c ae62 1d3e a01e c0bb aea4 96bb
00000240: 0916 3a3d 8c96 cfbd 1f4c ac3c 6e0f 1b3e
00000250: 6714 933d 6f82 b93d b3d7 e0bc 8a81 9bbc
00000260: 3e8c 303d c709 a3bd 84d3 c83c 532e ebbd
00000270: 3200 b63c c629 5b3d acc6 16be 7bab 9e3d
00000280: e82f 59bd d53c 8ebd 2969 943d 45ef a2bb
00000290: 5ae7 b0bd 9494 a6b9 76a3 f5bd f1f8 8b3d
000002a0: fd1f c63d 0af1 43be aec8 b4bc 16b5 e8bd
000002b0: 1259 cf3c b97f 9bbd 3bb5 70bd 053a b23a
000002c0: cfbb 4a3b eb2d 943d d3a7 303d 4284 4c3e
000002d0: d05a 9a3d 3b5c 4f3e 5806 dabd 0e44 e0bb
000002e0: 2526 8cbd 7202 33bc 4996 78bd 25f8 413d
000002f0: 721f d03c d9f9 863d c4ee 103d 5407 9f3d
00000300: 0e8a d039 88d9 693d 449e 883d e30e 2d3e
00000310: edb2 1dbd e9c5 0b3c d765 7f3d 4cf1 88bd
00000320: a7eb 3b3d 1995 7bbd 9090 a63d bb5c 2cbd
00000330: 14b1 0cbe 0365 cebd 4602 463d 30af fc3d
00000340: 2232 2a3d b900 88bd d644 12be 691a 253e
00000350: d0ba 953d 0d52 d6bd ec98 873d 0dc7 06bd
00000360: 3367 bc3d d4e4 24bd 3b42 ec3d 7009 8a3d
00000370: 2b60 b33d 6025 763d e8b5 88be 8257 3b3e
00000380: 1085 ae3d 250d 3dbe f37c 9c3c e7a5 bcbd
00000390: be46 c23d 1cfd 993d 9ac0 833d 25d8 e03d
000003a0: 43a2 3dbd 9ee2 1ebe a0e1 b6bd e621 05bd
000003b0: aa17 a83d 7f96 8bbd 221d cbbc 7023 a5bd
000003c0: 7241 a7bd 6ce4 1dbd f74e 2fbd 6b20 7d3c
000003d0: 2870 523d 750b f4bd 8a2f b43c 7790 9bbd
000003e0: 397a fd3d 57c2 2cbd 4489 f93d 0af9 eabd
000003f0: c458 e0bc 140c 59bd 80ab 98bd b4dc c53d
0.036254343 0.012793168 0.18197192 -0.0859124 -0.2795498 -0.0018805094 -0.063824326 -0.0065446245
0.08280087 -0.061811768 0.08552764 -0.032574624 -0.022687173 0.0671836 -0.0007395589 -0.061147157
-0.0925299 0.17788188 -0.042117313 -0.090334855 0.022032488 0.08356197 -0.061199974 -0.13260782
-0.05382628 0.13846865 -0.008940455 -0.058968015 -0.08795275 -0.11254279 0.028238963 0.1063302
-0.026265986 -0.08010851 0.093697704 -0.076943286 -0.04805907 -0.13557509 -0.06056617 -0.14156641
-0.108176254 0.055477515 -0.004799408 0.050345562 -0.05571038 -0.01670053 -0.060796514 -0.010495938
0.03631302 0.010140787 0.049533132 -0.19708015 -0.09522577 -0.03951854 -0.034415353 -0.02233538
0.17051928 0.037053492 -0.022247946 0.036100958 0.06682819 0.09460792 -0.15440963 0.13740069
-0.00021674762 0.054932635 -0.073811695 -0.0956092 -0.010935392 -0.08318475 0.103977576 -0.09912292
0.16340712 -0.04122916 -0.025122263 0.08688905 0.07103756 -0.1265922 0.0656916 0.032389022
-0.09110158 -0.17529283 -0.13414714 -0.13610971 -0.04904256 0.0076751458 -0.028396154 -0.05266481
-0.08634656 -0.059302483 -0.13866596 0.03318216 0.09035336 0.07706685 0.2751431 0.15717205
-0.12874453 -0.16810255 -0.096903615 -0.051148117 -0.10709362 0.06774265 0.11045032 0.093630254
-0.10501739 0.04379323 0.03026223 -0.032619663 -0.0028535547 -0.101973526 0.05566404 0.037215453
-0.031236663 -0.069882 -0.088271715 0.066951185 -0.1608095 -0.12519406 0.109638214 -0.072531104
-0.16812812 -0.06595928 0.09733221 0.09070909 0.036933653 0.0071693454 -0.10911494 0.026874393
0.02148442 0.09790883 -0.020107932 -0.07157283 0.059926223 -0.05993214 -0.13590783 -0.052222222
0.00023634137 -0.08745764 0.19932109 0.009469361 0.009426136 0.15369675 -0.005863026 -0.004597268
0.04543117 -0.101361364 0.021032391 0.15142605 0.07181626 0.09058081 -0.027446603 -0.018982667
0.043102495 -0.07960849 0.024514921 -0.11483445 0.02221689 0.053506635 -0.14724225 0.07747551
-0.053024203 -0.069451965 0.0724662 -0.004972371 -0.08637877 -0.00031772687 -0.11994068 0.06834591
0.0967407 -0.19134918 -0.022068348 -0.113626644 0.025311027 -0.075927205 -0.058766585 0.0013597613
0.0030934697 0.07235321 0.0431288 0.19972327 0.07536852 0.20250027 -0.10645741 -0.0068440503
-0.06843213 -0.010925876 -0.060690198 0.04735579 0.02540562 0.065906234 0.035383955 0.077650696
0.0003977571 0.05709222 0.06670812 0.1690021 -0.038500715 0.008531072 0.06235298 -0.06686649
0.045879032 -0.061421487 0.08133042 -0.042080622 -0.13739425 -0.1007786 0.048342012 0.12338102
0.041551717 -0.06640763 -0.14284071 0.16123356 0.07311022 -0.10464869 0.066209644 -0.032904673
0.09199371 -0.04025729 0.1153607 0.06740081 0.08758577 0.060094237 -0.26701283 0.182951
0.085214734 -0.18462045 0.01910255 -0.09211331 0.09486149 0.0751898 0.0643322 0.10978726
-0.046297323 -0.15516135 -0.08929753 -0.03250303 0.082076386 -0.06815814 -0.024794165 -0.080634
-0.081667796 -0.03854792 -0.042799916 0.015449624 0.05137649 -0.11916248 0.021995325 -0.07595914
0.12376828 -0.042177524 0.121843845 -0.11473282 -0.027386077 -0.052990034 -0.07454586 0.096612364

bias f4 [2]
00000000: bb6c bd3c d025 7e3d
0.023123136 0.06204778
