data/old/exp0/exp0_s0/pyt_save/model.pt (torch, 705893 bytes, 29 tensors)

log_std f4 [2]
-0.39470407 -0.36468932
00000000: a716 cabe 8fb8 babe

weight f4 [128, 60]
-0.047420144 0.053507574 -0.1176581 -0.061050937 -0.045183953 -0.0065470496 -0.060662083 0.08463383
0.0237321 0.002835191 -0.13233699 -0.049642872 -0.20765407 -0.06871979 0.0060503935 -0.031893935
-0.031755183 0.098183446 -0.007093867 -0.05621801 0.046891127 0.08087273 -0.035362743 0.028074047
-0.09979854 0.02536558 0.10278604 -0.11465865 -0.11969123 -0.01458839 -0.039172187 0.072292395
-0.0987985 -0.026400132 -0.13139613 -0.29016677 -0.16855872 0.06667899 0.022624016 0.14026585
0.0067895413 -0.06440939 0.041206013 -0.13196522 -0.20861214 -0.12856735 0.02899754 0.09161801
0.0816332 0.014146643 0.044581007 0.14131996 -0.014002806 -0.09176046 0.22772513 0.09142664
0.14458893 -0.07931477 -0.15433152 -0.06669065 0.076126166 0.04745425 -0.079458214 0.21332783
-0.024690567 -0.06720633 -0.009502722 0.052055147 0.107780665 0.047909856 -0.22625531 -0.045336574
0.017633727 0.06432522 0.011666285 0.008334185 -0.07699606 -0.16150674 0.14523263 -0.0807653
-0.12031476 0.05711591 0.13400652 -0.14535989 -0.0105368765 -0.008818345 -0.09391859 -0.11734442
0.0046539623 -0.06573117 0.085008234 0.04797383 0.06095442 0.018304909 -0.18476158 -0.17091045
-0.031558838 -0.046835225 -0.14918596 -0.088371396 0.12145021 0.077214554 -0.07305228 -0.10675031
-0.17762002 -0.030367844 -0.15470435 -0.18063207 -0.026660912 0.116451636 -0.03910707 0.08929107
-0.0873664 0.10670446 0.08168918 -0.05573701 -0.011672413 0.007887929 -0.09168819 0.030619066
0.105890915 0.029753257 -0.043092046 -0.059023242 -0.11209548 -0.14244726 -0.15048233 -0.09617427
-0.029603 0.0128775695 0.071420506 0.02004719 -0.10246512 0.05211121 0.110017434 -0.025433943
-0.025635615 0.0639105 0.078856535 0.08208652 0.12228896 0.14241017 0.16691642 -0.043678053
-0.08100387 -0.060867295 0.16407155 0.015828878 0.0026373423 -0.1133784 -0.10876449 -0.102095105
-0.02932623 0.035493404 0.11641283 -0.08571345 0.06913163 -0.024428058 -0.016473576 0.029312221
-0.024866525 -0.05591016 -0.08561176 -0.06613344 -0.034268044 -0.015712224 0.00766026 0.076211385
-0.05324616 0.12690829 0.08858801 0.017293353 0.25271615 0.024052568 -0.09528149 0.069650576
-0.0369378 -0.2412373 -0.10012158 -0.10432465 0.041801512 -0.034542613 0.08722414 -0.12062352
-0.029145246 0.10874053 0.01639415 0.01603208 -0.07841295 0.07768254 0.14503023 0.16703518
-0.05669109 0.09396872 0.031208871 -0.08581009 -0.15428734 -0.014995928 -0.09190192 -0.0028165893
0.0054309713 0.14091913 -0.11117219 -0.1478917 -0.1037469 0.08987963 -0.023473471 0.1524145
0.051415384 0.032325733 -0.011232003 -0.046895195 0.005282424 -0.04015999 -0.013291218 -0.06482897
-0.18108398 -0.09672626 0.09660448 -0.14196412 -0.009270139 0.07066202 0.047745377 0.053325776
-0.1477912 0.122660175 -0.05857012 -0.05768945 0.030501802 -0.055270694 -0.029949676 0.16772033
0.048523992 0.05584197 0.22569008 0.012497776 0.10613631 0.020103592 -0.085215405 0.037971076
0.014388776 0.115609646 -0.017735375 -0.030006051 0.17079014 -0.17392 0.013404599 -0.09147116
0.04731662 0.05075944 0.04373984 0.08302645 0.12028952 -0.045327555 -0.058775567 0.033006
00000000: a03b 42bd c22a 5b3d bbf6 f0bd 8c10 7abd
00000010: cf12 39bd a288 d6bb ce78 78bd 8054 ad3d
00000020: d269 c23c 9dce 393b 5983 07be 5356 4bbd
00000030: 45a3 54be f6bc 8cbd 6142 c63b 37a3 02bd
00000040: b911 02bd 6714 c93d ab73 e8bb db44 66bd
00000050: e910 403d 9aa0 a53d 86d8 10bd 8bfb e53c
00000060: 2d63 ccbd 7acb cf3c 7d81 d23d 27d2 eabd
00000070: ad20 f5bd 2404 6fbc 0473 20bd 090e 943d
00000080: de56 cabd 1745 d8bc b58c 06be bd90 94be
00000090: a89a 2cbe ff8e 883d 0056 b93c daa1 0f3e
000000a0: cd7a de3b 12e9 83bd a3c7 283d e421 07be
000000b0: 6c9e 55be 29a7 03be 408c ed3c 39a2 bb3d
000000c0: 4f2f a73d 52c7 673c 939a 363d 2eb6 103e
000000d0: 066c 65bc e8ec bbbd c730 693e e43d bb3d
000000e0: 1f0f 143e c86f a2bd 1509 1ebe 1c95 88bd
000000f0: 09e8 9b3d 635f 423d fdba a2bd 9c72 5a3e
00000100: df43 cabc 79a3 89bd 4eb1 1bbc c737 553d
00000110: 1cbc dc3d 203d 443d 79af 67be d8b2 39bd
00000120: 9b74 903c f1bc 833d f223 3f3c 1b8c 083c
00000130: 1cb0 9dbd 0662 25be ddb7 143e 4768 a5bd
00000140: 9667 f6bd 5ff2 693d 0139 093e 39d9 14be
00000150: dda2 2cbc d27a 10bc 6458 c0bd 4552 f0bd
00000160: 4480 983b 109e 86bd cc18 ae3d 3580 443d
00000170: 58ab 793d 2df4 953c 2432 3dbe 2603 2fbe
00000180: d743 01bd 4bd6 3fbd 34c4 18be 10fc b4bd
00000190: e3ba f83d aa22 9e3d 6f9c 95bd e89f dabd
000001a0: 06e2 35be fcc5 f8bc d16a 1ebe 9df7 38be
000001b0: fc67 dabc 327e ee3d bc2e 20bd 3dde b63d
000001c0: 28ed b2bd de87 da3d a84c a73d 7e4c 64bd
000001d0: a63d 3fbc 5f3c 013c 05c7 bbbd d6d4 fa3c
000001e0: 56dd d83d 1abd f33c 4981 30bd 5bc2 71bd
000001f0: 5192 e5bd b2dd 11be 0a18 1abe 04f7 c4bd
00000200: fe81 f2bc 71fc 523c ea44 923d 013a a43c
00000210: 3cd9 d1bd 9072 553d d250 e13d d85a d0bc
00000220: c801 d2bc 82e3 823d 897f a13d fa1c a83d
00000230: a272 fa3d f9d3 113e 23ec 2a3e c2e7 32bd
00000240: 5be5 a5bd fc4f 79bd 5f02 283e 90ab 813c
00000250: 43d7 2c3b ef32 e8bd ebbf debd 3d17 d1bd
00000260: 903d f0bc 8861 113d da69 ee3d 898a afbd
00000270: e294 8d3d 5a1d c8bc 98f3 86bc 2f20 f03c
00000280: e2b4 cbbc 0d02 65bd 3855 afbd f870 87bd
00000290: a65c 0cbd ecb6 80bc eb02 fb3b b714 9c3d
000002a0: a518 5abd 3ff4 013e a16d b53d caaa 8d3c
000002b0: 0364 813e e409 c53c f122 c3bd f6a4 8e3d
000002c0: 174c 17bd e906 77be 8b0c cdbd 29a8 d5bd
000002d0: 1038 2b3d 8e7c 0dbd 92a2 b23d 7709 f7bd
000002e0: 03c2 eebc 5bb3 de3d 064d 863c b555 833c
000002f0: f896 a0bd 0618 9f3d ce82 143e 450b 2b3e
00000300: eb34 68bd ac72 c03d bfa9 ff3c 33bd afbd
00000310: 80fd 1dbe 7bb1 75bc 1337 bcbd 8796 38bb
00000320: 4af6 b13b 1b4d 103e 3fae e3bd ec70 17be
00000330: 4179 d4bd d012 b83d 704b c0bc 8c12 1c3e
00000340: f098 523d fd67 043d 6f06 38bc 2d15 40bd
00000350: 2f18 ad3b cd7e 24bd 69c3 59bc 0dc5 84bd
00000360: 146e 39be 6b18 c6bd 92d8 c53d 0b5f 11be
00000370: c8e1 17bc 40b7 903d a890 433d 216c 5a3d
00000380: 9456 17be 4235 fb3d 39e7 6fbd c64b 6cbd
00000390: eade f93c 8663 62bd 0659 f5bc e1be 2b3e
000003a0: 18c1 463d 8dba 643d 4d1b 673e 79c3 4c3c
000003b0: fe5d d93d 4ab0 a43c 6a85 aebd 8f87 1b3d
000003c0: e7be 6b3c c0c4 ec3d c749 91bc 40cf f5bc
000003d0: 9ce3 2e3e 1618 32be f79e 5b3c 3b55 bbbd
000003e0: 12cf 413d 21e9 4f3d 8c28 333d c509 aa3d
000003f0: 5a5a f63d 63a9 39bd a6be 70bd 4d31 073d

bias f4 [128]
0.016436115 0.0018989738 0.10657389 -0.13185275 0.08908842 -0.08294655 0.11361187 -0.10793891
-0.01485295 0.03702691 0.04662121 0.03880472 0.0038581374 0.022746567 -0.09063961 -0.008296338
0.03316553 0.11857433 -0.10674401 -0.043736823 -0.06870449 -0.065973125 -0.06637227 -0.013327222
0.044315927 -0.034145895 0.03286251 -0.031594828 -0.1353287 0.022209587 0.011094993 -0.09990995
-0.121407725 0.028962996 -0.0513773 0.044070277 -0.019183835 -0.022476137 -0.05485913 0.12724416
-0.10541115 -0.034059055 -0.022085205 -0.042307027 0.059757918 0.13195664 0.12347144 -0.0651246
-0.059017714 0.04878185 0.070471354 -0.105040185 -0.051402707 -0.06396301 -0.01684388 -0.033280168
-0.11086911 -0.010431794 -0.027734958 0.039459184 -0.038500007 -0.050980862 0.10378799 -0.031188253
0.063326016 -0.0933693 -0.062364776 0.04769119 0.0355142 -0.09907736 0.09629424 -0.043081973
0.0030405542 -0.016298437 0.09801233 0.016077649 0.062162984 -0.019761909 0.119316 0.05941379
0.058354355 -0.040240053 -0.116485536 0.09082763 -0.12346405 -0.14481612 0.012462462 -0.011166512
-0.061295465 0.09382081 0.02990183 -0.043520525 0.09876393 0.053926855 -0.09689164 -0.016229931
-0.122187875 -0.08362317 0.027313057 0.015231643 -0.035760235 -0.03942238 -0.10515029 -0.076378584
-0.0031442898 0.0005499715 0.07362658 0.068777785 0.121783264 0.025147632 -0.077374555 -0.04162204
-0.121415585 -0.01307457 0.075839646 0.012624173 0.07365046 0.0995105 0.070435196 -0.031015564
0.11701593 0.0772923 -0.09200528 -0.023169791 0.067434296 0.035875503 0.12023022 -0.05870539
00000000: 08a5 863c fde6 f83a 6943 da3d 6804 07be
00000010: fd73 b63d e1df a9bd 57ad e83d 130f ddbd
00000020: ca59 73bc 87a9 173d e2f5 3e3d b3f1 1e3d
00000030: ced8 7c3b 0257 ba3c 43a1 b9bd 5ded 07bc
00000040: 94d8 073d 19d7 f23d 9a9c dabd 6225 33bd
00000050: f1b4 8cbd eb1c 87bd 2fee 87bd 6c5a 5abc
00000060: 9e84 353d 91dc 0bbd d79a 063d 9469 01bd
00000070: 9b93 0abe e1f0 b53c c6c7 353c 969d ccbd
00000080: 9da4 f8bd ce43 ed3c 0171 52bd 0983 343d
00000090: 6b27 9dbc e01f b8bc f8b3 60bd 4b4c 023e
000000a0: cde1 d7bd 8281 0bbd 08ec b4bc 224a 2dbd
000000b0: b8c4 743d a41f 073e 98de fc3d 0c60 85bd
000000c0: 8fbc 71bd 7acf 473d 4953 903d 4f1f d7bd
000000d0: a58b 52bd 0aff 82bd 2dfc 89bc c950 08bd
000000e0: 580f e3bd 1eea 2abc 6c34 e3bc f49f 213d
000000f0: 2fb2 1dbd 4fd1 50bd cc8e d43d 827e ffbc
00000100: 12b1 813d 6738 bfbd 3572 7fbd d657 433d
00000110: 5677 113d 12e9 cabd ea35 c53d b976 30bd
00000120: 0944 473b 4d84 85bc b0ba c83d 46b5 833c
00000130: 9d9e 7e3d bae3 a1bc f25b f43d e05b 733d
00000140: fa04 6f3d c1d2 24bd f88f eebd d603 ba3d
00000150: b8da fcbd ad4a 14be 5b2f 4c3c bff3 36bc
00000160: f410 7bbd 2025 c03d aff4 f43c 9442 32bd
00000170: be44 ca3d 68e2 5c3d 206f c6bd a2f4 84bc
00000180: a33d fabd a042 abbd a2bf df3c 248e 793c
00000190: 5379 12bd 5d79 21bd 0959 d7bd 606c 9cbd
000001a0: 6e10 4ebb f62b 103a 88c9 963d 5edb 8c3d
000001b0: 8169 f93d 6802 ce3c 8d76 9ebd df7b 2abd
000001c0: bca8 f8bd b936 56bc d151 9b3d 9fd5 4e3c
000001d0: 0dd6 963d 29cc cb3d 5440 903d 5a14 febc
000001e0: 0ca6 ef3d 6d4b 9e3d 446d bcbd 93ce bdbc
000001f0: fe1a 8a3d 31f2 123d 433b f63d 1075 70bd

weight f4 [128, 128]
0.00046229892 0.06952373 -0.061064146 -0.055430073 0.06579598 0.04522667 0.07784861 -0.02232518
0.05699003 -0.07853476 -0.054317366 0.019427733 -0.054194726 -0.0031499905 -0.027109029 0.08052071
-0.014286204 0.035346586 0.02247142 0.087497115 0.005871009 0.053263284 -0.064303294 -0.06843511
0.03755265 0.06549846 -0.048840277 0.07230607 0.035256732 -0.05470016 0.032234456 0.07867802
-0.0128728235 0.06940072 -0.021509683 -0.11582244 -0.082174584 -0.024839954 0.07619697 0.028521707
0.08070532 0.057001136 -0.0037215466 -0.060132522 -0.08077448 -0.041644014 -0.032125924 0.08647701
-0.014221435 -0.0047661467 0.010971985 0.08104602 0.0022736955 0.037447326 -0.056021314 -0.08872672
-0.0051566963 0.045391537 0.05791712 0.03254727 0.0715044 -0.063791536 0.006737636 0.047847107
-0.052817676 0.06319844 -0.08789852 0.05666373 0.033431143 0.091002785 -0.011029551 -0.0106879845
-0.057620596 0.09190755 0.0030301407 -0.022210784 0.016964998 0.033798244 -0.042433713 -0.06611587
-0.026098158 0.03367928 0.018917533 -0.024664221 0.007743128 -0.0080282455 0.060727395 -0.046258744
0.09631887 0.002696484 0.054811653 0.033949517 -0.06620154 0.05873076 -0.043174643 -0.08123201
0.046331197 0.026641581 -0.05333414 -0.044693477 0.06994365 -0.08150397 0.0007007246 -0.0015331937
-0.06377119 0.04183512 -0.08292965 -0.011766147 -0.008121253 0.05080745 -0.01415423 -0.078508824
-0.014236738 0.07858913 -0.050832774 0.078715436 0.052624747 -0.008495195 -0.009575275 0.07980523
-0.00405471 0.012814906 -0.005519328 0.0049332078 -0.086848006 -0.07330014 0.08551406 0.050310407
-0.0018254236 0.080922544 -0.031716753 0.018740973 -0.053790007 0.075294055 0.06674212 0.035503466
-0.0013017536 0.06753046 0.04439833 0.05098868 -0.033606257 0.008611195 -0.017730037 -0.04816664
0.026732525 0.08201858 0.050223634 -0.011349375 0.06440609 -0.0122776255 0.09637166 -0.09294942
0.012284166 -0.08097582 0.049170475 0.049223963 0.08774996 -0.039310623 0.0010034328 0.009375263
-0.021345524 0.08550489 0.07298845 0.04773258 -0.048778344 0.06303454 -0.053851154 -0.082672425
-0.029845664 -0.0034219234 0.047942214 0.05280468 0.024520101 -0.066180386 0.08046737 0.09314817
-0.07641659 0.08383511 0.0155760795 0.032060638 0.045724776 0.055902462 0.0036669655 -0.033511404
-0.023076622 -0.07170873 -0.008434984 -0.032844346 0.054090332 -0.0701905 0.086919546 -0.08305714
0.07678696 0.006894724 -0.088330545 0.03853129 -0.06319415 -0.065375954 -0.0020844508 -0.034851454
0.015554017 0.07165813 -0.08378476 0.09119553 -0.049811393 -0.02850371 0.04551031 -0.04967134
-0.04094404 -0.01032572 0.033569336 -0.0050157225 0.07735352 0.05419643 -0.10041211 -0.057815522
0.016967699 -0.002253802 -0.0233782 0.016603747 0.03592866 -0.0609018 -0.010816865 0.010657449
0.03819059 0.004275696 0.03169634 0.028115693 -0.09629509 -0.08138447 0.002929005 0.022292135
-0.06803688 -0.054423846 -0.08384757 0.008862887 0.08176338 0.08442971 -0.06883267 0.05290652
-0.035276566 -0.06363707 0.0515046 0.08248857 0.0044021867 -0.014224 0.0069205435 0.04414174
0.022077082 -0.032281153 -0.01572848 0.005646116 0.01319239 0.01545486 0.030984458 0.029736087
00000000: b660 f239 7562 8e3d 661e 7abd a50a 63bd
00000010: 0bc0 863d 9a3f 393d 186f 9f3d 4ce3 b6bc
00000020: 616e 693d d5d6 a0bd e37b 5ebd e926 9f3c
00000030: 4afb 5dbd 1270 4ebb c113 debc 0be8 a43d
00000040: af10 6abc 95c7 103d fc15 b83c b031 b33d
00000050: 9861 c03b 9a2a 5a3d 72b1 83bd b527 8cbd
00000060: cfd0 193d 0e24 863d be0c 48bd 3415 943d
00000070: 5d69 103d 460d 60bd 4708 043d f121 a13d
00000080: 89e8 52bc f721 8e3d 1335 b0bc 5134 edbd
00000090: 264b a8bd 297d cbbc 280d 9c3d 5ba6 e93c
000000a0: d548 a53d 067a 693d 31e5 73bb 854d 76bd
000000b0: 176d a5bd ea92 2abd 7996 03bd dc1a b13d
000000c0: 0601 69bc 562d 9cbb d7c3 333c 75fb a53d
000000d0: 4802 153b 5e62 193d 9b76 65bd 5bb6 b5bd
000000e0: 81f9 a8bb 7aec 393d 813a 6d3d 4950 053d
000000f0: e670 923d 23a5 82bd 63c7 dc3b 54fb 433d
00000100: 5957 58bd 2f6e 813d 2404 b4bd 3a18 683d
00000110: 18ef 083d ab5f ba3d 4ab5 34bc a81c 2fbc
00000120: 9303 6cbd 073a bc3d 5395 463b 64f3 b5bc
00000130: 2efa 8a3c 0770 0a3d f9ce 2dbd c267 87bd
00000140: cecb d5bc 49f3 093d f1f8 9a3c 9f0c cabc
00000150: 11ba fd3b e788 03bc 4abd 783d cf79 3dbd
00000160: d442 c53d 7fb7 303b 2f82 603d a60e 0b3d
00000170: ac94 87bd aa8f 703d e5d7 30bd f85c a6bd
00000180: c8c5 3d3d 723f da3c e674 5abd 8210 37bd
00000190: 9e3e 8f3d 8eeb a6bd d5b0 373a 72f5 c8ba
000001a0: 789a 82bd 4e5b 2b3d 05d7 a9bd ccc6 40bc
000001b0: 010f 05bc 791b 503d 25e7 67bc 3cc9 a0bd
000001c0: 3541 69bc 56f3 a03d 0736 50bd 8f35 a13d
000001d0: 0c8d 573d 6e2f 0bbc 9de1 1cbc ed70 a33d
000001e0: 5fdd 84bb 9df5 513c 7bdb b4bb bfa6 a13b
000001f0: 5edd b1bd 621e 96bd ff21 af3d 4912 4e3d
00000200: 0d43 efba b8ba a53d 6de9 01bd ab86 993c
00000210: e952 5cbd c533 9a3d 18b0 883d 156c 113d
00000220: 9a9f aaba 694d 8a3d 06db 353d 82d9 503d
00000230: b7a6 09bd f815 0d3c 953e 91bc 624a 45bd
00000240: 2bfe da3c 5bf9 a73d 4cb7 4d3d bbf2 39bc
00000250: 57e7 833d 1828 49bc 815e c53d 445c bebd
00000260: 8743 493c a7d6 a5bd fb66 493d 119f 493d
00000270: 40b6 b33d 2d04 21bd 9e85 833a b49a 193c
00000280: cfdc aebc 301d af3d f87a 953d 3d83 433d
00000290: cdcb 47bd 4118 813d 0793 5cbd 2950 a9bd
000002a0: e57e f4bc 5942 60bb 0e5f 443d b849 583d
000002b0: 61de c83c 9589 87bd 14cc a43d 78c4 be3d
000002c0: 4d80 9cbd beb1 ab3d d032 7f3c 0452 033d
000002d0: e749 3b3d fbf9 643d 7951 703b 4143 09bd
000002e0: 2f0b bdbc 07dc 92bd e332 0abc cb87 06bd
000002f0: d38d 5d3d 09c0 8fbd e002 b23d dd19 aabd
00000300: 7b42 9d3d 23ed e13b a5e6 b4bd fcd2 1d3d
00000310: ef6b 81bd d4e3 85bd 489b 08bb 66c0 0ebd
00000320: 47d6 7e3c 7fc1 923d 5897 abbd b9c4 ba3d
00000330: 0807 4cbd 9d80 e9bc 0569 3a3d 2d74 4bbd
00000340: f0b4 27bd 352d 29bc 0080 093d ee5a a4bb
00000350: 866b 9e3d 13fd 5d3d dda4 cdbd f8cf 6cbd
00000360: d8ff 8a3c 86b4 13bb a483 bfbc 9504 883c
00000370: ee29 133d 2a74 79bd 3839 31bc 959c 2e3c
00000380: bc6d 1c3d 231b 8c3b 05d4 013d e252 e63c
00000390: 5c36 c5bd e7ac a6bd 8df4 3f3b ff9d b63c
000003a0: eb56 8bbd 8aeb 5ebd 46b8 abbd a435 113c
000003b0: 8f73 a73d 7ce9 ac3d 25f8 8cbd 82b4 583d
000003c0: 297e 10bd 2754 82bd 7df6 523d c4ef a83d
000003d0: 3840 903b c80b 69bc bac5 e23b f8cd 343d
000003e0: ffda b43c 3e39 04bd 03d9 80bc 0e03 b93b
000003f0: e524 583c 6236 7d3c 1ed3 fd3c 1899 f33c

bias f4 [128]
-0.027845599 -0.06066467 0.035121042 -0.05296413 0.051901646 0.080948815 -0.011223485 0.016214127
-0.037267976 0.048256166 -0.022480337 0.07046107 0.07681583 0.020121722 0.02330447 -0.02104687
0.04716826 -0.08544472 0.014538633 0.061323766 0.0739866 -0.04063966 -0.03032792 -0.045545768
0.07589845 -0.060759675 0.06372825 -0.07310673 -0.057927534 0.060238857 0.00886887 -0.055618193
-0.011730341 -0.081636466 0.015105079 0.01322156 -0.058073312 0.04536316 -0.02551832 0.06361022
-0.07227382 -0.03457126 0.028668296 -0.08762398 -0.063411735 -0.064187504 0.04513303 0.059042502
0.02155778 0.03753446 0.021802522 0.034464456 0.039820768 -0.07082389 -0.041626137 0.05534838
-0.050710622 -0.06588141 0.080533415 0.057248972 0.0284196 0.006237947 0.022987986 -0.04108061
0.040622585 0.02201487 -0.001296651 -0.026315106 0.0030842565 -0.008732474 -0.061851326 0.06986765
-0.015250292 -0.05508326 0.0754595 0.06905091 0.04471517 0.026193762 -0.061673637 0.025558414
0.06971248 0.04477713 -0.026433948 -0.0007823905 -0.08583358 -0.08033845 0.052468617 -0.023160966
0.09149257 -0.012953857 0.06244277 0.05397752 -0.046221863 -0.0037631781 -0.0074374126 -0.0764495
0.005868302 -0.08536957 0.010632066 0.060428023 -0.027335566 0.08213198 -0.029473396 0.036475524
-0.0038948583 0.03876687 0.06808001 -0.0670995 0.054708757 0.020216577 -0.06358085 0.047487836
0.049130235 0.021208854 0.0080859205 -0.045093372 -0.08809287 -0.0753891 0.075592116 0.03823961
-0.04992824 0.042464018 0.07683476 0.019909432 -0.03485062 -0.008565921 0.00490308 0.032147653
00000000: 741c e4bc 847b 78bd 15db 0f3d eaf0 58bd
00000010: d296 543d 7ec8 a53d b5e2 37bc 7dd3 843c
00000020: 4ea6 18bd 42a8 453d af28 b8bc e54d 903d
00000030: 9e51 9d3d 4fd6 a43c 04e9 be3c 7c6a acbc
00000040: 8133 413d a4fd aebd 7233 6e3c a12e 7b3d
00000050: 4986 973d c675 26bd 4272 f8bc 338e 3abd
00000060: a670 9b3d 23df 78bd f583 823d fbb8 95bd
00000070: 6c45 6dbd 05bd 763d bd4e 113c e7cf 63bd
00000080: 9e30 40bc 0531 a7bd 4b7b 773c 3e9f 583c
00000090: 48de 6dbd b9ce 393d cc0b d1bc 1346 823d
000000a0: 4c04 94bd 989a 0dbd c6d9 ea3c 3474 b3bd
000000b0: 03de 81bd bd74 83bd 69dd 383d 8dd6 713d
000000c0: f199 b03c bcbd 193d 349b b23c 9a2a 0d3d
000000d0: 1a1b 233d 1e0c 91bd 2b80 2abd fcb4 623d
000000e0: f1b5 4fbd d5ec 86bd b4ee a43d e67d 6a3d
000000f0: 39d0 e83c b167 cc3b 4d51 bc3c 2444 28bd
00000100: de63 263d 8758 b43c 63f4 a9ba c792 d7bc
00000110: 3d21 4a3b a712 0fbc d157 7dbd c516 8f3d
00000120: 5cdc 79bc fc9e 61bd 838a 9a3d 906a 8d3d
00000130: 4127 373d 4d94 d63c 7f9d 7cbd e15f d13c
00000140: 6bc5 8e3d 3968 373d 028c d8bc 5619 4dba
00000150: 84c9 afbd 7c88 a4bd 55e9 563d 11bc bdbc
00000160: 7560 bb3d 6a3c 54bc fdc3 7f3d 8817 5d3d
00000170: 2353 3dbd a79f 76bb 8ab5 f3bb 8e91 9cbd
00000180: e34a c03b 3ed6 aebd 1e32 2e3c 6083 773d
00000190: d6ee dfbc d034 a83d 3172 f1bc 5c67 153d
000001a0: e140 7fbb 02ca 1e3d 886d 8b3d 766b 89bd
000001b0: 4a16 603d 3c9d a53c ad36 82bd 9b82 423d
000001c0: c93c 493d 31be ad3c cf7a 043c d4b3 38bd
000001d0: 096a b4bd 9a65 9abd 0ad0 9a3d 23a1 1c3d
000001e0: 8e81 4cbd c0ee 2d3d 8b5b 9d3d 1b19 a33c
000001f0: 86bf 0ebd 1458 0cbc 04aa a03b 42ad 033d

weight f4 [128, 128]
-0.049167547 -0.076072976 -0.0038550752 -0.048679538 0.07760346 0.03672483 0.036972523 0.095857
-0.07385684 0.06928269 -0.03886989 0.062544 -0.058761876 0.03714049 0.047909852 0.08535357
-0.011022921 0.032139618 -0.01234271 -0.036714286 -0.043628663 0.07748519 -0.025440473 -0.074460946
0.0059287124 -0.08155405 -0.097336486 0.041148696 0.087547064 0.0628442 0.07861663 -0.097714335
0.079724886 -0.02357842 0.018737106 0.10532467 -0.021169102 0.05381076 0.03539036 0.08878773
0.024088738 -0.014738651 0.022585174 0.04996765 -0.058570273 -0.036053155 0.08012258 0.0042353817
0.055347823 -0.04992887 -0.04779334 0.08535006 -0.07021032 -0.03353429 -0.014768666 -0.058438167
0.061230008 -0.07692186 0.0487724 0.06884426 -0.050693586 -0.056373462 0.048425492 -0.0054949066
0.022378774 -0.07040902 -0.08229824 0.08087222 -0.029940976 -0.09338358 -0.083736554 0.07878817
0.065591395 -0.079974346 -0.040099848 0.022723299 0.068904206 -0.041317243 0.022244727 -0.07111837
-0.055498455 0.07333633 0.024721744 -0.022437723 0.06502638 0.07316138 0.07168775 -0.055020332
-0.04596192 -0.048258286 0.054823134 0.0016988689 -0.0044455165 0.07495368 0.05800723 0.007829588
0.07794097 -0.08150076 -0.010120863 0.0727587 -0.084342 0.024693469 -0.040948868 -0.035031363
0.051069476 0.029577736 -0.016905753 -0.019155381 0.034029245 -0.0061541614 -0.027071282 0.014162248
0.026835846 0.047595464 -0.005466396 0.025773207 0.047852512 -0.017360348 0.073856294 -0.07045116
-0.043930393 0.042700276 0.021535927 0.077680536 -0.066774815 -0.003837503 -0.017862007 0.051868197
-0.04236936 0.093487106 0.009648212 0.058868516 -0.022828503 0.04354497 0.04749007 -0.01133059
0.02961719 -0.029298784 0.0067010126 0.044945724 -0.07875561 0.07227675 0.00068104314 0.073288955
0.044673964 -0.032490637 0.04140483 0.13801748 -0.006876058 0.018724624 -0.0132625215 -0.025390722
0.010544388 -0.03412893 0.038789727 0.043850306 -0.008943017 0.036250547 -0.06762876 0.033927336
0.077895574 0.062459785 -0.023206767 0.05275928 -0.022484073 0.04038786 0.0625508 0.03783115
0.043250438 -0.07901715 0.04915612 -0.048623048 0.081237964 -0.04951181 -0.03661189 0.06047657
-0.054456297 0.016149145 -0.05710574 -0.094654895 -0.00068467105 -0.040595777 0.05379061 -0.050208222
-0.015572022 0.014124741 0.057942566 0.06701568 -0.05992498 -0.02207843 -0.10833971 0.024080534
0.04201422 0.009384028 0.046495993 0.08745561 -0.07366784 0.0007532061 -0.07942971 -0.0065221735
0.074443646 -0.033614617 -0.053070955 -0.064708605 0.004650467 0.06267855 0.054122683 -0.07774563
0.022444757 0.020126194 -0.106423095 -0.011141698 0.057018027 -0.03961469 -0.09099133 -0.037667163
0.036534928 0.04731458 -0.0214649 0.047747485 -0.048756614 -0.009584848 -0.07492994 0.0745931
-0.057715848 0.0058955206 0.08784812 -0.058404222 0.021174233 -0.06820471 0.021791609 0.040594667
-0.056960676 -0.12766565 -0.10181335 -0.1338285 0.057524543 0.022034252 0.04091469 -0.03882788
-0.026339518 0.07025329 -0.06157791 -0.04386514 0.07482436 -0.031460088 0.007000761 0.020109767
0.03843306 0.011415265 -0.008283615 -0.045441117 0.029798595 0.021414826 0.024347037 -0.05667283
00000000: e963 49bd 26cc 9bbd 6ea5 7cbb 3264 47bd
00000010: 90ee 9e3d c66c 163d 8070 173d ad50 c43d
00000020: 4142 97bd 15e4 8d3d 0936 1fbd 1217 803d
00000030: 4bb0 70bd a020 183d 1f3d 443d dacd ae3d
00000040: 7b99 34bc d5a4 033d 1439 4abc b861 16bd
00000050: f8b3 32bd 8eb0 9e3d 8a68 d0bc fb7e 98bd
00000060: a545 c23b cf05 a7bd 5a58 c7bd 898b 283d
00000070: e04b b33d 76b4 803d c101 a13d 741e c8bd
00000080: cd46 a33d 8827 c1bc 8f7e 993c 76b4 d73d
00000090: d36a adbc ac68 5c3d 7bf5 103d 57d6 b53d
000000a0: bf55 c53c 627a 71bc 8b04 b93c e1aa 4c3d
000000b0: 62e7 6fbd 79ac 13bd 4f17 a43d f5c8 8a3b
000000c0: 66b4 623d 3782 4cbd f3c2 43bd 03cc ae3d
000000d0: 6eca 8fbd 405b 09bd 46f8 71bc dc5c 6fbd
000000e0: 51cc 7a3d 3589 9dbd 91c5 473d 38fe 8c3d
000000f0: 14a4 4fbd dce7 66bd cf59 463d 9e0e b4bb
00000100: b153 b73c 9b32 90bd fb8b a8bd 56a0 a53d
00000110: c746 f5bc e43f bfbd 127e abbd b15b a13d
00000120: c854 863d 97c9 a3bd bd3f 24bd 3626 ba3c
00000130: a61d 8d3d 453c 29bd 933a b63c 82a6 91bd
00000140: 5952 63bd 5c31 963d 4185 ca3c 51cf b7bc
00000150: 8d2c 853d a2d5 953d 07d1 923d 005d 61bd
00000160: 9142 3cbd 7baa 45bd 398e 603d 95ac de3a
00000170: b2ab 91bb 5181 993d fd98 6d3d ac47 003c
00000180: 849f 9f3d dfe9 a6bd fad1 25bc 8302 953d
00000190: 80bb acbd f549 ca3c 00ba 27bd 0c7d 0fbd
000001a0: 3a2e 513d 024d f23c ef7d 8abc bfeb 9cbc
000001b0: 4062 0b3d d9a8 c9bb 98c4 ddbc c608 683c
000001c0: d9d6 db3c 76f3 423d 741f b3bb 5522 d33c
000001d0: ff00 443d 4a37 8ebc f841 973d b348 90bd
000001e0: 5bf0 33bd 7ce6 2e3d 1d6c b03c f916 9f3d
000001f0: 3cc1 88bd 9e7e 7bbb 5853 92bc bf73 543d
00000200: 7e8b 2dbd 2b76 bf3d 8913 1e3c 1d20 713d
00000210: d702 bbbc 365c 323d f384 423d f0a3 39bc
00000220: c09f f23c 0104 f0bc 2b94 db3b 0219 383d
00000230: 9f4a a1bd d505 943d 0888 323a 8518 963d
00000240: 0cfc 363d e714 05bd 1c98 293d 7454 0d3e
00000250: 8e50 e1bb 6264 993c 0c4b 59bc 3400 d0bc
00000260: 5ec2 2c3c c7ca 0bbd fae1 1e3d 619c 333d
00000270: bb85 12bc 747b 143d f380 8abd 64f7 0a3d
00000280: b787 9f3d d5d5 7f3d 1e1c bebc 1d1a 583d
00000290: 8530 b8bc be6d 253d a21a 803d d6f4 1a3d
000002a0: 5f27 313d bed3 a1bd ed57 493d f628 47bd
000002b0: 1760 a63d e5cc 4abd 59f6 15bd 48b6 773d
000002c0: 910d 5fbd 364b 843c b5e7 69bd 6dda c1bd
000002d0: 7f7b 33ba c247 26bd 8b53 5c3d 23a7 4dbd
000002e0: cb21 7fbc 756b 673c 2f55 6d3d 843f 893d
000002f0: e573 75bd d3dd b4bc 36e1 ddbd 8a44 c53c
00000300: 1a17 2c3d 77bf 193c 9572 3e3d ed1b b33d
00000310: 2adf 96bd ce72 453a 0bac a2bd f5b7 d5bb
00000320: e975 983d 7baf 09bd ee60 59bd f285 84bd
00000330: f262 983b 9d5d 803d bfaf 5d3d 1a39 9fbd
00000340: 11de b73c b0df a43c 5af4 d9bd ab8b 36bc
00000350: bc8b 693d 0343 22bd aa59 babd e248 1abd
00000360: a6a5 153d efcc 413d 28d7 afbc de92 433d
00000370: 04b5 47bd c409 1dbc de74 99bd 44c4 983d
00000380: 7467 6cbd 362f c13b b7e9 b33d 4439 6fbd
00000390: 9675 ad3c e9ae 8bbd 5184 b23c 9846 263d
000003a0: 994f 69bd c9ba 02be 8583 d0bd 570a 09be
000003b0: db9e 6b3d 2d81 b43c 2996 273d fc09 1fbd
000003c0: f9c5 d7bc f5e0 8f3d 1e39 7cbd efab 33bd
000003d0: 843d 993d 4bdc 00bd a466 e53b 3dbd a43c
000003e0: fc6b 1d3d 1707 3b3c 00b8 07bc 7720 3abd
000003f0: 2f1c f43c 256e af3c 7073 c73c c521 68bd

bias f4 [128]
-0.019586341 0.014326685 0.029898958 0.010566429 -0.017807467 0.024763217 -0.025050258 -0.07075289
-0.019264523 -0.06985806 -0.08156453 -0.018286485 -0.009561669 0.06489519 0.023332516 -0.08328467
0.00525874 -0.02052484 0.021400651 -0.06614628 -0.06458352 0.02576118 0.008827133 -0.025087124
-0.01039676 -0.05927648 -0.07927781 0.011912243 0.050735656 -0.01852519 0.008839821 -0.013956504
-0.08005075 -0.012192896 -0.0550238 0.058765654 0.03655888 0.052169036 0.032278966 -0.0057863225
0.012146377 -0.0025297317 -0.03577911 0.07950721 -0.020198908 -0.07912948 0.018457718 -0.08081313
0.07609338 0.0012964219 -0.066278964 0.04517002 0.009618606 0.0018111536 -0.04605199 -0.05752268
-0.075259626 -0.0025187945 -0.038066622 0.07129325 0.029691711 -0.010315359 -0.022774244 0.07439246
0.029779192 -0.0791795 -0.05985571 -0.08430604 0.07131143 -0.06071917 0.0547339 0.042260807
0.045676433 0.07079156 0.053441137 0.0792442 0.06574475 -0.014837226 -0.04152656 0.009021325
0.06958187 -0.08199822 0.083219245 0.030051868 -0.015159659 0.013477723 -0.04975697 -0.0013857252
-0.004171987 -0.07254912 -0.05028575 -0.041280642 0.021281816 -0.012765824 -0.06913026 0.06714203
0.043521557 -0.038464647 -0.06777964 0.07340515 0.030219756 -0.06546872 -0.07359425 0.05120263
-0.08189739 -0.020768274 -0.0039623873 -0.057358395 0.07834699 -0.034693375 -0.022839246 0.055306137
-0.01796651 0.01112269 -0.06717325 0.00291308 -0.07911811 0.00573487 -0.016488971 0.008261992
0.03693881 -0.003352009 0.07373218 -0.07164745 0.01584237 -0.008972636 0.08337289 -0.044551186
00000000: 8973 a0bc 79ba 6a3c a9ee f43c d11e 2d3c
00000010: f7e0 91bc 3bdc ca3c 3336 cdbc e4e6 90bd
00000020: a2d0 9dbc be11 8fbd 4e0b a7bd 8acd 95bc
00000030: 8ca8 1cbc c5e7 843d d523 bf3c 2791 aabd
00000040: 8251 ac3b b623 a8bc 6b50 af3c b377 87bd
00000050: 5d44 84bd 1c09 d33c ae9f 103c 8383 cdbc
00000060: 2c57 2abc e5cb 72bd 685c a2bd 922b 433c
00000070: 31d0 4f3d 24c2 97bc e6d4 103c d2a9 64bc
00000080: a6f1 a3bd b6c4 47bc a360 61bd 41b4 703d
00000090: c4be 153d 33af 553d f336 043d 319b bdbb
000000a0: 9901 473c dbc9 25bb 1e8d 12bd add4 a23d
000000b0: 2e78 a5bc a30e a2bd a434 973c 5b81 a5bd
000000c0: d9d6 9b3d b3ec a93a 44bd 87bd 3304 393d
000000d0: 5c97 1d3c 3b64 ed3a 03a1 3cbd e79c 6bbd
000000e0: b821 9abd 5c12 25bb bfeb 1bbd 3202 923d
000000f0: 083c f33c c001 29bc 0d91 babc 135b 983d
00000100: 7ef3 f33c dd28 a2bd 432b 75bd a5a8 acbd
00000110: ba0b 923d aab4 78bd a730 603d ab19 2d3d
00000120: 3617 3b3d 2afb 903d 18e5 5a3d c84a a23d
00000130: 2fa5 863d d617 73bc c117 2abd 2ece 133c
00000140: f180 8e3d afee a7bd da6e aa3d 562f f63c
00000150: 3860 78bc abd1 5c3c f7cd 4bbd 39a1 b5ba
00000160: 2ab5 88bb a294 94bd 6ef8 4dbd e415 29bd
00000170: 3457 ae3c bf27 51bc 2a94 8dbd c381 893d
00000180: a943 323d 1b8d 1dbd 0dd0 8abd 7055 963d
00000190: 6c8f f73c 7714 86bd 95b8 96bd d9b9 513d
000001a0: d2b9 a7bd 3a22 aabc ead6 81bb a3f0 6abd
000001b0: 6374 a03d a41a 0ebd 5f19 bbbc b088 623d
000001c0: 812e 93bc f13b 363c 2192 89bd 5fe9 3e3b
000001d0: ad08 a2bd 94eb bb3b e113 87bc 4e5d 073c
000001e0: 264d 173d 61ad 5bbb e600 973d e6bb 92bd
000001f0: dcc7 813c f701 13bc 68bf aa3d 4e7b 36bd

weight f4 [128, 128]
-0.039029077 0.02970437 -0.05763644 0.011618182 0.06334327 0.031635784 0.06428441 0.029694173
0.007345232 -0.037223384 -0.060632426 0.0042561 -0.01147748 -0.08645732 0.03388331 0.019759381
0.024925984 -0.06866218 -0.046862125 0.10055816 0.037921347 -0.029904319 0.063338675 -0.062364012
0.06968386 -0.082708456 0.025971876 -0.10982405 0.017308177 -0.06487275 -0.044787943 0.025443679
0.0073772576 -0.037699196 -0.017501235 -0.06869774 -0.0681793 0.06291857 0.092530705 0.0062923273
-0.016967533 0.05852113 0.057016928 0.009009031 0.038893282 0.03593695 0.022682562 -0.09717629
-0.090468556 0.108507015 0.008399911 -0.008700662 0.032935224 0.07425615 0.014090382 -0.0658396
-0.014440014 0.06258825 -0.011538669 0.02053563 -0.089281045 0.022285668 0.015620716 0.001448242
0.0071669724 -0.054064453 0.0621877 -0.04613779 0.07090287 -0.039384484 -0.023880785 0.03632307
0.061650477 0.0957131 0.028978335 -0.107147805 0.00935285 0.046642017 -0.05020974 0.0008285524
-0.02790612 -0.047170833 -0.062255036 0.032215424 -0.07361121 -0.06217771 0.07867905 -0.033598974
-0.0042847437 0.03877267 0.0392892 -0.09005628 -0.09402841 -0.044719644 -0.024557225 -0.07770483
0.018572904 -0.002631035 -0.061189692 -0.05996139 -0.04312255 0.017310714 -0.087154575 -0.008100929
0.027118418 -0.06182029 -0.014624938 -0.012794937 -0.07290054 -0.0563394 -0.0971907 0.020396238
-0.0066034505 -0.0041078595 0.075787924 0.06577874 -0.013916946 0.012508402 -0.03936734 0.07133542
0.09669708 -0.051491953 -0.055109803 -0.08172893 0.02619886 0.053777654 -0.05240834 0.0017407642
-0.049716346 -0.044754986 -0.045658708 -0.09147086 0.02376087 0.037703224 -0.010259134 0.047600165
-0.00814642 -0.05419646 -0.018460263 -0.003949867 0.085446194 -0.080060355 -0.024215458 0.021137275
0.099968605 -0.044000424 0.100731395 0.07462885 0.043799765 -0.045425262 0.089817956 0.049513433
0.05181376 -0.030187784 0.01710185 -0.045616213 0.04665902 0.02214653 -0.05723242 -0.019666879
0.05600885 0.122022666 0.018054275 -0.047101356 0.004772472 -0.06696967 0.061780296 0.019058455
-0.017246567 0.01675529 0.027417311 0.08268433 0.01335309 0.051748175 0.030387787 0.061250232
0.056263648 0.08245224 0.036266018 -0.08136677 0.010750547 0.038098253 0.061796665 -0.08901531
0.04583046 0.019700926 0.0032862902 0.054634888 -0.06787036 -0.033174872 0.10812455 -0.04758234
-0.084370025 0.015584247 -0.01050157 -0.0577866 0.055598702 -0.10018246 0.026427919 0.0025625066
0.025680842 0.032193843 0.081546105 -0.027198276 -0.072492145 0.0940453 0.009984193 -0.07319442
0.06527103 -0.07680787 0.048842162 -0.042555004 -0.06216531 0.04287422 0.010696373 0.003354404
-0.004052757 -0.076906934 -0.077506416 0.030017737 -0.08537334 -0.062190298 0.0044366685 -0.04078622
0.023770899 -0.047326323 -0.010554691 -0.055611767 -0.0080331005 0.052977003 -0.015611914 0.07280674
-0.01710778 -0.0719491 0.02435172 0.0971218 0.009682395 -0.010526406 0.022779878 0.0701391
0.04324194 -0.08808928 -0.015487316 -0.020177571 -0.06273668 0.041641552 -0.09930684 -0.023211418
-0.07892561 -0.059128538 0.052392807 0.08585598 0.030743204 -0.034131814 0.07008658 0.04931833
00000000: f4dc 1fbd 9456 f33c 3014 6cbd 305a 3e3c
00000010: 1eba 813d 8694 013d 8ba7 833d 3241 f33c
00000020: 46b0 f03b 8c77 18bd b559 78bd c176 8b3b
00000030: 0a0c 3cbc 8910 b1bd 3ac9 0a3d 6dde a13c
00000040: 9431 cc3c c29e 8cbd 80f2 3fbd 70f1 cd3d
00000050: 6a53 1b3d e7f9 f4bc b5b7 813d 6871 7fbd
00000060: 69b6 8e3d 0d63 a9bd f9c2 d43c 6eeb e0bd
00000070: e1c9 8d3c 01dc 84bd 9073 37bd 436f d03c
00000080: ecbc f13b 796a 1abd c05e 8fbc 67b1 8cbd
00000090: 97a1 8bbd 74db 803d bd80 bd3d de2f ce3b
000000a0: 7fff 8abc dab3 6f3d 958a 693d 9d9a 133c
000000b0: 904e 1f3d a032 133d c8d0 b93c 5d04 c7bd
000000c0: 9447 b9bd ed38 de3d c89f 093c 398d 0ebc
000000d0: 16e7 063d 9c13 983d 58db 663c ead6 86bd
000000e0: cf95 6cbc 452e 803d af0c 3dbc 563a a83c
000000f0: fbd8 b6bd 6f90 b63c 08ee 7f3c f0d2 bd3a
00000100: ecd8 ea3b b072 5dbd 88b8 7e3d fbfa 3cbd
00000110: 8635 913d a051 21bd a3a1 c3bc 80c7 143d
00000120: 3685 7c3d 3b05 c43d f963 ed3c 4f70 dbbd
00000130: b23c 193c b30b 3f3d baa8 4dbd 3633 593a
00000140: 609b e4bc 3436 41bd 23ff 7ebd 52f4 033d
00000150: 79c1 96bd 0eae 7ebd 7b22 a13d 149f 09bd
00000160: 0967 8cbb 17d0 1e3d b6ed 203d 6d6f b8bd
00000170: f891 c0bd f22b 37bd 3c2c c9bc b623 9fbd
00000180: 3426 983c 716d 2cbb 0ba2 7abd 139a 75bd
00000190: 45a1 30bd 33cf 8d3c 197e b2bd c2b9 04bc
000001a0: 7227 de3c 4637 7dbd 709d 6fbc dba1 51bc
000001b0: e14c 95bd 25c4 66bd eb0b c7bd 0316 a73c
000001c0: c261 d8bb 399b 86bb b336 9b3d 01b7 863d
000001d0: e703 64bc 0af0 4c3c a63f 21bd 4e18 923d
000001e0: 1e09 c63d 3ae9 52bd d1ba 61bd 7f61 a7bd
000001f0: fe9e d63c f545 5c3d 21aa 56bd 5b2a e43a
00000200: 5ea3 4bbd 0151 37bd a004 3bbd 1355 bbbd
00000210: 28a6 c23c b26e 1a3d ed15 28bc 64f8 423d
00000220: 9078 05bc 1bfd 5dbd fa39 97bc e36d 81bb
00000230: 6afe ae3d aff6 a3bd 7f5f c6bc 1428 ad3c
00000240: 57bc cc3d ca39 34bd 434c ce3d 03d7 983d
00000250: 6267 333d d70f 3abd 7af2 b73d 99ce 4a3d
00000260: aa3a 543d 5f4c f7bc 2e19 8c3c 11d8 3abd
00000270: 871d 3f3d a46c b53c 8b6c 6abd 6f1c a1bc
00000280: 8969 653d 05e7 f93d 8fe6 933c 5aed 40bd
00000290: 6662 9c3b 6527 89bd 560d 7d3d 7a20 9c3c
000002a0: ac48 8dbc 6442 893c 459a e03c 6756 a93d
000002b0: ebc6 5a3c e5f5 533d cfef f83c 86e1 7a3d
000002c0: b674 663d b8dc a83d ad8b 143d 9fa3 a6bd
000002d0: 1023 303c ea0c 1c3d 801e 7d3d a94d b6bd
000002e0: b8b8 3b3d d663 a13c cd5e 573b d5c8 5f3d
000002f0: 9eff 8abd 60e2 07bd 6770 dd3d b3e5 42bd
00000300: 31ca acbd 1255 7f3c c70e 2cbc a4b1 6cbd
00000310: 77bb 633d 762c cdbd 5d7f d83c baef 273b
00000320: a160 d23c b1dd 033d a501 a73d ebce debc
00000330: c376 94bd d29a c03d be94 233c f5e6 95bd
00000340: d1ac 853d 724d 9dbd b80e 483d 284e 2ebd
00000350: 0da1 7ebd e19c 2f3d d73f 2f3c 8fd5 5b3b
00000360: fdcc 84bb 6281 9dbd afbb 9ebd c2e7 f53c
00000370: 38d8 aebd 41bb 7ebd 7961 913b 740f 27bd
00000380: 30bb c23c 3fd9 41bd 95ed 2cbc 2ac9 63bd
00000390: 449d 03bc 6afe 583d 1dc9 7fbc b31b 953d
000003a0: 9d25 8cbc 0d5a 93bd 427d c73c cbe7 c63d
000003b0: e8a2 1e3c f276 2cbc de9c ba3c 17a5 8f3d
000003c0: 761e 313d 2768 b4bd 83be 7dbc 6f4b a5bc
000003d0: 177c 80bd 5590 2a3d 6261 cbbd df25 bebc
000003e0: c0a3 a1bd c430 72bd d799 563d 43d5 af3d
000003f0: 2cd9 fb3c cdcd 0bbd 8e89 8f3d 0402 4a3d

bias f4 [128]
-0.08646455 0.035224166 0.05841649 0.08203316 0.039105557 -0.04089583 0.07610674 -0.07281282
-0.08557528 0.017411642 -0.024522336 -0.027180195 -0.08003571 -0.030937968 0.03885161 -0.0355337
-0.014634679 -0.022164771 -0.0596356 -0.014164919 0.055401295 0.06950002 0.05830411 -0.058887497
-0.0531634 0.011509149 0.06386573 -0.04832593 0.012052699 -0.02444989 -0.0128174145 0.024035258
0.07638335 0.046997458 -0.006462753 0.062752806 0.013336386 -0.026041863 -0.03077008 0.023076499
-0.044117477 -0.017818986 -0.006885385 0.07438121 -0.057226446 -0.012726421 0.038481828 -0.04323477
0.040460393 -0.06745177 0.073927216 0.040306278 -0.06778063 0.065644264 -0.0146786645 0.06269345
0.011031052 0.025426554 -0.053648412 0.081970915 -0.029541835 -0.061031915 -0.0026596081 0.030024167
0.060159825 -0.04578078 0.02041178 0.077210136 -0.061051555 0.020459259 0.032654602 0.00073915476
0.044878624 0.02002853 0.07037091 0.009131098 -0.012702381 0.044595215 -0.014886395 -0.078988574
0.02979599 -0.06541436 -0.030698238 0.05359665 -0.022849122 -0.038210396 0.08195668 0.03170153
-0.03986041 -0.052321013 0.074698895 0.025540706 0.08206845 -0.07675877 -0.046813488 -0.032871716
-0.049531125 -0.014970377 0.0843703 0.028945362 0.018160906 -0.02064314 0.080200784 0.0062166275
-0.07429521 0.0015279523 0.02871201 0.00903663 0.06825194 0.019693637 -0.0001059157 -0.058035143
0.058459636 -0.03734459 0.0137640815 -0.0601502 0.009413855 -0.019666433 -0.027589124 -0.046791077
0.016341537 0.03548408 0.008009731 0.0605929 -0.02986884 -0.018955775 0.07556902 0.051312678
00000000: 5314 b1bd 3747 103d 2146 6f3d 0001 a83d
00000010: 262d 203d 6382 27bd dadd 9b3d e31e 95bd
00000020: 1842 afbd dca2 8e3c 11e3 c8bc 00a9 debc
00000030: c3e9 a3bd 9f71 fdbc de22 1f3d c98b 11bd
00000040: 4bc6 6fbc e592 b5bc 7544 74bd fa13 68bc
00000050: 78ec 623d 0756 8e3d 4ad0 6e3d 0434 71bd
00000060: dec1 59bd df90 3c3c 09cc 823d 69f1 45bd
00000070: af78 453c 234b c8bc 2200 52bc 97e5 c43c
00000080: e06e 9c3d 6880 403d 80c5 d3bb 8b84 803d
00000090: db80 5a3c bf55 d5bc 8911 fcbc ed0a bd3c
000000a0: 87b4 34bd 1ff9 91bc cc9e e1bb 2d55 983d
000000b0: 4766 6abd 7a82 50bc 1f9f 1d3d f116 31bd
000000c0: ccb9 253d 2724 8abd 2767 973d 3218 253d
000000d0: 92d0 8abd 8070 863d c87e 70bc 6c65 803d
000000e0: 96bb 343c 594b d03c 70be 5bbd 5ee0 a73d
000000f0: b801 f2bc 9afc 79bd d24c 2ebb 3ef5 f53c
00000100: 266a 763d a184 3bbd 9b36 a73c 5920 9e3d
00000110: 3211 7abd 2d9a a73c d5c0 053d d6c3 413a
00000120: a6d2 373d df12 a43c a01e 903d 9a9a 153c
00000130: a61d 50bc 79a9 363d 11e6 73bc c3c4 a1bd
00000140: b816 f43c f7f7 85bd df7a fbbc 2988 5b3d
00000150: 152e bbbc 8182 1cbd e7d8 a73d 77d9 013d
00000160: ab44 23bd 8f4e 56bd bcfb 983d be3a d13c
00000170: 8113 a83d b433 9dbd 80bf 3fbd 7ea4 06bd
00000180: 26e1 4abd 5046 75bc 56ca ac3d d31e ed3c
00000190: 2ec6 943c cd1b a9bc 4f40 a43d dab4 cb3b
000001a0: 1628 98bd 9245 c83a 7335 eb3c 600e 143c
000001b0: acc7 8b3d 8d54 a13c 0f1f deb8 42b6 6dbd
000001c0: 5f73 6f3d a4f6 18bd be82 613c 0e60 76bd
000001d0: 923c 1a3c 801b a1bc 9602 e2bc 00a8 3fbd
000001e0: b0de 853c c157 113d 3f3b 033c 4330 783d
000001f0: 7faf f4bc 2449 9bbc eec3 9a3d 3e2d 523d

weight f4 [2, 128]
0.04554231 0.015913287 0.11338299 -0.09025265 -0.086909465 -0.02728264 -0.05201281 -0.0031082018
0.079514705 -0.012995669 0.09671678 -0.018966217 0.000345549 0.061773628 0.01556031 -0.04322997
-0.06361943 0.034433804 -0.022409324 0.03838639 0.02939298 0.08029343 -0.08597813 -0.0902231
-0.004249559 0.094651766 -0.04512927 -0.04294724 -0.05893595 -0.12384734 0.0040435605 0.1004108
-0.08295772 -0.06582168 0.09591185 -0.10182675 -0.05478973 -0.11778811 -0.034163695 -0.02012583
-0.093584314 0.081013605 -0.017405605 0.042599857 -0.054900933 -0.03565197 -0.07431487 0.026726775
0.04640037 0.024915807 0.046546496 -0.09046414 -0.10178792 -0.03002202 0.024643896 -0.030523706
0.093343966 0.05210292 -0.08040649 0.021938708 0.025775967 0.09443373 -0.05083642 0.052648764
-0.0078840535 0.019917302 -0.054990564 0.0077233966 0.006370008 -0.0634321 0.061489638 -0.06950856
0.12338306 -0.057188097 -0.023087107 0.058990415 0.0047569694 -0.106153764 0.035361152 0.046553127
0.029310226 -0.15946026 -0.096782334 -0.07206882 0.006819587 -0.017010715 -0.04467901 -0.08718736
-0.029215295 -0.052916404 -0.094803356 0.044346455 0.07501567 0.077540725 0.12703927 0.09135786
-0.10654747 -0.15651833 -0.017592357 -0.12081991 -0.049133793 0.032260016 0.10469395 0.066871256
-0.13824719 0.045147292 0.03281557 -0.06273887 0.030833947 -0.11196429 0.05606335 0.020449234
-0.024986284 -0.047352884 -0.1539949 0.030040164 -0.13314334 -0.09756099 0.089132644 -0.06226329
-0.1241799 -0.06518508 0.084400326 0.074579865 0.020643644 -0.044401348 -0.12863941 0.029208811
0.030348651 0.0597792 0.007334114 -0.09140779 0.038947877 -0.099972345 -0.10324829 -0.034276817
-0.023406059 -0.06580901 0.13303778 0.026003247 0.024875717 0.053455867 -0.048196793 -0.053071152
0.035808742 -0.074932985 0.018876625 0.15492335 0.058544636 0.08292014 -0.01706815 -0.032691922
0.047853895 -0.10600715 0.047190305 -0.05066075 0.029283958 0.05583503 -0.13582021 0.037471797
-0.022364924 -0.061098803 0.051673055 0.034863148 -0.0319835 -0.016146002 -0.09851784 0.052261278
0.094678916 -0.12008438 -0.087360375 -0.094861075 0.07682032 -0.1080467 -0.043870993 0.0015363216
-0.013715346 0.10093702 0.028323302 0.08115702 0.08655676 0.14565322 -0.084248744 -0.01555414
-0.026366506 -0.03700777 -0.014079696 0.06117502 0.05598332 0.0939126 0.010789105 0.031552747
-0.057726093 0.06347944 0.06879538 0.10930246 -0.072917156 0.03762198 0.028127223 -0.04292442
0.0110909585 -0.08704537 0.117206536 -0.107593484 -0.092693925 -0.07507537 0.08480708 0.09724447
0.074967556 -0.03197804 -0.08982375 0.116961114 0.044282436 -0.08737233 0.08664846 -0.041109428
0.08597332 -0.026133196 0.08014166 0.029720224 0.06757805 -0.02372688 -0.11062366 0.076883204
0.09830887 -0.16843852 0.03348822 -0.013925932 0.08981286 0.09019953 0.09703565 0.13746701
-0.033164755 -0.11041221 -0.10898772 -0.043583024 0.083059974 -0.07216707 -0.0718212 -0.085177004
-0.077670045 0.049990546 -0.0028309838 0.05647316 0.03225291 -0.058034655 0.0065486203 -0.07445056
0.08434509 -0.056126483 0.09032065 -0.15338227 -0.0420378 -0.07642144 -0.03546526 0.06803466
00000000: 938a 3a3d 955c 823c 5735 e83d 62d6 b8bd
00000010: 97fd b1bd d87f dfbc 620b 55bd f9b2 4bbb
00000020: 9bd8 a23d c9eb 54bc 7213 c63d 0a5f 9bbc
00000030: cd2a b539 5806 7d3d acf0 7e3c e911 31bd
00000040: e74a 82bd 760a 0d3d c293 b7bc 0c3b 1d3d
00000050: 8cc9 f03c e270 a43d 4d15 b0bd e3c6 b8bd
00000060: e23f 8bbb c9d8 c13d 78d9 38bd 72e9 2fbd
00000070: d366 71bd ada3 fdbd d87f 843b 2da4 cd3d
00000080: bde5 a9bd 84cd 86bd 6f6d c43d 8b8a d0bd
00000090: 326b 60bd e53a f1bd 3bef 0bbd edde a4bc
000000a0: 22a9 bfbd 76ea a53d 3396 8ebc 307d 2e3d
000000b0: cddf 60bd cd07 12bd 6532 98bd 1cf2 da3c
000000c0: 500e 3e3d 3c1c cc3c 8aa7 3e3d 4345 b9bd
000000d0: 2f76 d0bd bdf0 f5bc ffe1 c93c da0c fabc
000000e0: 1f2b bf3d df69 553d 28ac a4bd ceb8 b33c
000000f0: 1f28 d33c 7966 c13d da39 50bd 3ba6 573d
00000100: 1e2c 01bc 9c29 a33c c93d 61bd 8c14 fd3b
00000110: 80bb d03b b0e8 81bd 8fdc 7b3d 815a 8ebd
00000120: 42b0 fc3d 113e 6abd 2c21 bdbc ef9f 713d
00000130: 5ae0 9b3b 2567 d9bd dbd6 103d 7eae 3e3d
00000140: 001c f03c 8d49 23be d135 c6bd d198 93bd
00000150: d876 df3b 0e5a 8bbc 5601 37bd 498f b2bd
00000160: ea54 efbc dfbe 58bd 4328 c2bd a1a4 353d
00000170: d1a1 993d accd 9e3d 9516 023e d419 bb3d
00000180: 8f35 dabd 5746 20be d91d 90bc 6e70 f7bd
00000190: 8440 49bd 1423 043d c869 d63d ccf3 883d
000001a0: ac90 0dbe 5eec 383d 9e69 063d 3d7d 80bd
000001b0: 7997 fc3c 894d e5bd afa2 653d 2785 a73c
000001c0: 09b0 ccbc 19f5 41bd d7b0 1dbe ca16 f63c
000001d0: ba56 08be 0ece c7bd 2d8b b63d cb07 7fbd
000001e0: 0852 febd c17f 85bd 14da ac3d 54bd 983d
000001f0: dc1c a93c 30de 35bd 0dba 03be 5147 ef3c
00000200: bc9d f83c 09db 743d 0253 f03b 0234 bbbd
00000210: cf87 1f3d 4dbe ccbd d773 d3bd d965 0cbd
00000220: 10be bfbc e0c6 86bd 0e3b 083e c304 d53c
00000230: 29c8 cb3c 8af4 5a3d 006a 45bd 2361 59bd
00000240: 30ac 123d 7776 99bd 27a3 9a3c 3aa4 1e3e
00000250: 80cc 6f3d 09d2 a93d 81d2 8bbc f7e7 05bd
00000260: 7202 443d 471a d9bd 9f4a 413d a681 4fbd
00000270: e9e4 ef3c 46b3 643d 7414 0bbe 077c 193d
00000280: a536 b7bc bd42 7abd 20a7 533d a9cc 0e3d
00000290: 2101 03bd 9f44 84bc b9c3 c9bd ec0f 563d
000002a0: 05e7 c13d cdee f5bd ffe9 b2bd 8646 c2bd
000002b0: f953 9d3d 9747 ddbd 12b2 33bd 665e c93a
000002c0: 55b6 60bc 11b8 ce3d 4506 e83c a735 a63d
000002d0: ac44 b13d 1e26 153e 9b8a acbd cbd6 7ebc
000002e0: 92fe d7bc 7695 17bd 86ae 66bc a892 7a3d
000002f0: c44e 653d 4055 c03d c9c4 303c 743d 013d
00000300: 3272 6cbd 8201 823d 98e4 8c3d f8d9 df3d
00000310: 9755 95bd 8119 1a3d 106b e63c 84d1 2fbd
00000320: dab6 353c d844 b2bd fb09 f03d f959 dcbd
00000330: 50d6 bdbd 1ec1 99bd 56af ad3d 1c28 c73d
00000340: 9788 993d 68fb 02bd 84f5 b7bd 4f89 ef3d
00000350: 8061 353d 44f0 b2bd bf74 b13d 5c62 28bd
00000360: c812 b03d 4915 d6bc 5021 a43d d477 f33c
00000370: 5c66 8a3d e05e c2bc a88e e2bd f174 9d3d
00000380: 2956 c93d 267b 2cbe f22a 093d 9829 64bc
00000390: ceef b73d 88ba b83d a0ba c63d 27c4 0c3e
000003a0: c4d7 07bd cc1f e2bd f434 dfbd 1d84 32bd
000003b0: 591b aa3d 54cc 93bd fe16 93bd 4871 aebd
000003c0: 7911 9fbd e3c2 4c3d 0788 39bb 6650 673d
000003d0: a11b 043d bfb5 6dbd cf95 d63b 8979 98bd
000003e0: 1ebd ac3d e2e4 65bd 08fa b83d 3e10 1dbe
000003f0: d42f 2cbd d882 9cbd 0544 11bd c155 8b3d

bias f4 [2]
0.01432164 0.051915623
00000000: 50a5 6a3c 7aa5 543d
