data/ppo_penalized_test/ppo_penalized_test_s0/pyt_save/model.pt (torch, 107707 bytes, 17 tensors)

log_std f4 [2]
-0.6450169 -0.62124085
00000000: d41f 25bf a409 1fbf

weight f4 [64, 60]
-0.094040886 0.28638196 -0.045528583 -0.21610747 0.021362208 0.10185796 0.15794288 0.27830538
-0.22943391 -0.10523213 0.15476643 -0.041596252 -0.5186326 -0.4390828 0.022314321 0.024983512
0.06860128 0.38869745 -0.064800054 -0.05621801 0.046891127 0.2520213 0.042832162 0.2474004
0.17568544 0.22555882 0.3268291 0.09667317 -0.0034689638 -0.13647085 -0.07279119 0.19363855
-0.2695373 0.0020319764 0.15814453 -0.1423644 -0.12650007 0.22406225 0.03648707 -0.05283295
0.0067895413 -0.021972347 0.14988065 0.06601751 0.124640875 -0.041943375 -0.09579288 0.111028925
0.10610144 -0.10331721 -0.09668771 0.30941516 0.34809643 0.048665516 0.05179478 0.026218552
0.04518473 -0.16414185 -0.14324832 -0.06669065 0.15323985 0.20808123 -0.05634852 0.047254354
0.042508435 -0.25976995 -0.14625052 0.07561586 0.29185396 0.24777414 -0.2968852 -0.060964465
0.30270714 0.26525527 -0.00018899393 0.045492336 0.051009703 -0.10649191 0.044526786 -0.0807653
-0.12031476 0.2649717 0.17790253 -0.1036916 0.059037678 -0.16536132 -0.112438306 -0.128351
0.07388261 0.04502047 0.24556231 0.0014687252 -0.016533503 -0.055520266 -0.15375711 -0.1181432
-0.009707028 0.00392276 -0.16894095 0.11198259 0.12145021 0.34736452 -0.06480737 -0.22758962
-0.116079025 0.26043078 0.06794132 -0.23415035 -0.0022935525 0.31790194 0.06928674 0.027308252
-0.0061641317 0.372048 0.284074 -0.23064853 0.09776843 0.0446192 -0.027607182 0.030619066
-0.06510507 0.07687074 -0.040475734 0.12938915 -0.14027293 -0.06760863 -0.16592547 -0.107583754
0.017194381 -0.16941074 0.035558768 0.28852788 0.25282678 0.113095514 0.059090972 -0.07953799
0.094087444 -0.23517853 -0.17310959 0.08208652 0.12228896 0.13813597 0.17010841 -0.048433177
-0.25742453 -0.18125047 0.12509137 -0.01909728 -0.12335139 -0.06848292 -0.07877204 -0.041410916
-0.04246361 0.1514039 0.047417562 -0.19683127 0.13442625 -0.0053147296 -0.045422558 -0.11227839
-0.024866525 -0.034267668 -0.07584014 -0.14576197 0.04845884 0.12305717 0.099458344 0.0011212726
-0.15053791 0.14348987 0.36727437 -0.08380837 -0.04741834 0.16039075 0.208244 -0.015179695
-0.18138272 -0.22054942 0.16379522 -0.10432465 0.03198708 -0.037149534 0.08306207 0.15698704
0.15744174 -0.15985386 -0.08554337 -0.028923465 -0.17518346 0.21082576 0.39321157 0.21819592
-0.09102192 -0.090653904 -0.14794786 0.111810096 0.028961081 -0.066231005 -0.12239227 -0.0028165893
0.0054309713 0.20353466 -0.054609697 -0.16323921 -0.123918205 0.12676765 0.022624021 0.1933817
-0.089098126 0.005978337 -0.05489742 -0.06302234 -0.069434844 -0.08938357 -0.08571486 0.004968221
-0.2678985 -0.05650939 -0.09479574 -0.12363613 -0.009270139 0.044605214 0.03794203 0.11290952
0.10662921 0.14122543 -0.050376646 0.0023964606 -0.18914002 0.04025093 -0.033715118 0.10555997
0.18914153 0.30211574 -0.18165073 -0.34875387 -0.17236167 -0.039070606 -0.12012326 0.037971076
-0.006497801 0.14138515 -0.05909621 0.13534588 -0.032820877 -0.13240929 0.023112334 -0.24049665
0.031152988 -0.080783784 0.019603375 0.15790424 0.14934403 -0.16836967 -0.10888773 -0.17159283
00000000: 8298 c0bd a8a0 923e 2e7c 3abd 474b 5dbe
00000010: ccff ae3c e89a d03d c7bb 213e 0b7e 8e3e
00000020: b9f0 6abe f183 d7bd 177b 1e3e d560 2abd
00000030: 1bc5 04bf 76cf e0be 86cc b63c 39aa cc3c
00000040: d47e 8c3d 5a03 c73e e4b5 84bd db44 66bd
00000050: e910 403d f008 813e c770 2f3d 8856 7d3e
00000060: e2e6 333e e4f8 663e 2556 a73e 95fc c53d
00000070: 8e57 63bb 04bf 0bbe 8c13 95bd 2f49 463e
00000080: cb00 8abe e82a 053b a4f0 213e f9c7 11be
00000090: 3c89 01be 9370 653e 7773 153d 5d67 58bd
000000a0: cd7a de3b 5aff b3bc 507a 193e 3034 873d
000000b0: b743 ff3d d1cc 2bbd 0f2f c4bd 2263 e33d
000000c0: b64b d93d f997 d3bd 3504 c6bd aa6b 9e3e
000000d0: b239 b23e 7e55 473d c326 543d 4ac8 d63c
000000e0: a013 393d cd14 28be b0af 12be 1c95 88bd
000000f0: e8ea 1c3e 3f13 553e b5cd 66bd c88d 413d
00000100: 531d 2e3d 9100 85be b2c2 15be 7ddc 9a3d
00000110: e26d 953e 81b8 7d3e 5601 98be e0b5 79bd
00000120: 6efc 9a3e 8acf 873e ac2c 46b9 2c56 3a3d
00000130: 8def 503d 6e18 dabd b861 363d 4768 a5bd
00000140: 9667 f6bd 5faa 873e 152c 363e 435c d4bd
00000150: 7ed1 713d 7a54 29be 0e46 e6bd 726e 03be
00000160: c44f 973d 6267 383d b074 7b3e 3d82 c03a
00000170: 4571 87bc 3869 63bd 8172 1dbe 10f5 f1bd
00000180: 3a0a 1fbc 7f8a 803b dbfe 2cbe 2157 e53d
00000190: e3ba f83d c3d9 b13e bab9 84bd 410d 69be
000001a0: d7ba edbd 2f57 853e d224 8b3d 1cc5 6fbe
000001b0: 6d4f 16bb 0bc4 a23e 35e6 8d3d 8eb5 df3c
000001c0: 7cfc c9bb 137d be3e 2672 913e 212f 6cbe
000001d0: d13a c83d 9fc2 363d 7528 e2bc d6d4 fa3c
000001e0: cf55 85bd 686e 9d3d e2c9 25bd 977e 043e
000001f0: b5a3 0fbe 6576 8abd 5ee8 29be df54 dcbd
00000200: 3bdb 8c3c 027a 2dbe 12a6 113d edb9 933e
00000210: 8372 813e 9f9e e73d 6009 723d d0e4 a2bd
00000220: ebb0 c03d a4d2 70be a443 31be fa1c a83d
00000230: a272 fa3d 8473 0d3e e630 2e3e de61 46bd
00000240: 26cd 83be b999 39be f417 003e e671 9cbc
00000250: a79f fcbd c640 8cbd 3c53 a1bd 7e9e 29bd
00000260: 53ee 2dbd a009 1b3e eb38 423d 238e 49be
00000270: 09a7 093e 2f27 aebb 010d 3abd 36f2 e5bd
00000280: e2b4 cbbc 415c 0cbd 1352 9bbd a042 15be
00000290: c77c 463d 6605 fc3d d1b0 cb3d aaf7 923a
000002a0: 9c26 1abe 02ef 123e 630b bc3e b9a3 abbd
000002b0: bc39 42bd 793d 243e ea3d 553e 41b4 78bc
000002c0: 64bc 39be b5d7 61be efb9 273e 29a8 d5bd
000002d0: e204 033d 1c2a 18bd 721c aa3d 36c1 203e
000002e0: 6838 213e bbb0 23be 5d31 afbd e7f0 ecbc
000002f0: 4b63 33be b5e2 573e 0753 c93e c06e 5f3e
00000300: b369 babd c1a8 b9bd a57f 17be b1fc e43d
00000310: ca3f ed3c 1fa4 87bd cca8 fabd 8796 38bb
00000320: 4af6 b13b 646b 503e 6bae 5fbd 2e28 27be
00000330: d4c8 fdbd 61cf 013e 0356 b93c da05 463e
00000340: 1479 b6bd ede5 c33b 1edc 60bd db11 81bd
00000350: db33 8ebd bc0e b7bd 468b afbd 75cc a23b
00000360: fe29 89be 6476 67bd 4524 c2bd f034 fdbd
00000370: c8e1 17bc f5b3 363d 1a69 1b3d 1b3d e73d
00000380: 6a60 da3d 669d 103e be57 4ebd f00d 1d3b
00000390: ecad 41be 29de 243d dd18 0abd d32f d83d
000003a0: 51ae 413e eaae 9a3e a602 3abe de8f b2be
000003b0: 947f 30be 8008 20bd 2f03 f6bd 8f87 1b3d
000003c0: 81eb d4bb 45c7 103e de0e 72bd 1c98 0a3e
000003d0: 2f6f 06bd 4d96 07be 1456 bd3c c144 76be
000003e0: 8d34 ff3c f871 a5bd 4297 a03c a6b1 213e
000003f0: a4ed 183e 1969 2cbe 8800 dfbd 08b6 2fbe

bias f4 [64]
-0.054163694 -0.09223264 -0.005182973 0.089354604 0.021018472 0.0014191917 -0.06374465 0.18315282
-0.0043271105 0.046140376 0.0132245645 -0.00077482365 0.08906768 0.11664101 0.054431763 0.057268515
0.014186783 -0.04773589 0.101334125 0.029297194 0.060428027 -0.045655128 -0.13213885 -0.02613996
0.06078129 0.07227466 0.034503028 0.061657112 0.13953614 -0.069384575 0.15708053 0.08659625
0.11215997 0.06767056 -0.11972468 0.09066236 0.13474406 -0.09207743 0.010857628 -0.07742546
-0.0054826676 0.011052925 0.09369903 -0.04041394 -0.10804368 0.10523872 0.10251961 -0.013890983
0.07403998 0.071393736 -0.051232483 -0.027347695 0.047225803 0.035896797 -0.046173878 -0.030666724
-0.09694484 0.031685982 0.011553127 -0.061167452 0.13744636 0.025486412 0.09446729 0.13648455
00000000: c0da 5dbd 77e4 bcbd eed5 a9bb 8cff b63d
00000010: ee2e ac3c 2c04 ba3a 8e8c 82bd 6a8c 3b3e
00000020: 6fca 8dbb b1fd 3c3d d8ab 583c 891d 4bba
00000030: 1e69 b63d 7be1 ee3d d7f3 5e3d 6492 6a3d
00000040: ae6f 683c b586 43bd 4488 cf3d ab00 f03c
00000050: 6183 773d df00 3bbd 684f 07be 7823 d6bc
00000060: cdf5 783d bd04 943d 0c53 0d3d 2b8c 7c3d
00000070: 90e2 0e3e 8019 8ebd b8d9 203e 6059 b13d
00000080: 20b4 e53d dd96 8a3d 3732 f5bd 30ad b93d
00000090: 59fa 093e 1793 bcbd 31e4 313c 3d91 9ebd
000000a0: f3a7 b3bb 5417 353c 47e5 bf3d 1689 25bd
000000b0: 0146 ddbd 6687 d73d cdf5 d13d 0197 63bc
000000c0: 46a2 973d e136 923d 27d9 51bd 4608 e0bc
000000d0: d86f 413d 8508 133d d220 3dbd c838 fbbc
000000e0: 048b c6bd 29c9 013d 5449 3d3c b98a 7abd
000000f0: bdbe 0c3e e1c8 d03c 1178 c13d 9bc2 0b3e

weight f4 [64, 64]
0.06816639 -0.031674214 0.060042296 -0.05935528 -0.049259413 0.015077865 -0.055597708 -0.011198719
0.056196384 -0.0051823147 -0.0010489186 0.15988113 -0.08481326 -0.08507597 -0.02985333 0.05044046
-0.13639957 -0.11124604 0.07596514 -0.03474338 0.0779565 -0.055379614 -0.04236277 0.10116301
-0.07118706 0.12196747 0.10987947 -0.0621591 0.14560954 -0.016894124 -0.010408372 -0.104714446
0.07877635 0.051352814 -0.104113735 -0.17340367 -0.1150596 0.07508521 -0.08967234 -0.025628446
0.10933542 -0.067434914 -0.10134155 0.080001354 0.0010934765 0.018588897 0.06764836 0.024004275
-0.050638363 0.1462431 0.08625617 -0.06482543 0.020596068 0.07692614 -0.13917176 -0.06528044
-0.054890152 0.011754384 0.06370177 0.007150436 -0.007316042 0.08046348 0.026184129 -0.091780804
-0.11872135 0.1679039 0.0951263 -0.05464255 -0.0863105 -0.062408917 0.15220177 -0.015656421
0.0573969 -0.08793569 0.03649476 -0.16806948 -0.017090382 0.13042286 -0.1220488 0.07692852
-0.1167791 0.03481258 -0.12214773 -0.14578344 -0.07917045 -0.0397456 0.07246391 -0.21371302
0.09119312 0.046210494 0.10799273 0.09775158 0.0034885493 0.004406512 0.0011126242 0.15785725
0.029907249 -0.041476466 0.08933247 -0.03253814 0.05212988 -0.008132553 -0.044794846 -0.13273415
0.11552284 0.15230115 0.014648461 -0.12264279 0.037977044 0.008692807 -0.051610406 0.10877198
0.077912375 0.024934124 0.048268493 -0.1887103 -0.0424566 -0.029513396 0.10645066 -0.051967755
-0.010682324 0.10302805 -0.14745724 0.09748306 -0.04230013 -0.084445015 0.045253877 0.03427481
-0.056067795 -0.08792069 0.06002487 -0.09166177 -0.033056933 0.12925383 -0.040388945 -0.0407605
-0.151189 0.04045938 -0.034570076 0.049916457 0.031507887 -0.020467058 0.17024602 -0.05764342
-0.09243416 -0.14980444 0.019818878 -0.06634375 -0.010854805 -0.014308616 0.026304845 -0.030065877
-0.13008162 0.051660117 -0.04303771 0.11563019 -0.0026767005 -0.002482406 0.088494256 0.09994609
0.040966064 -0.031733662 -0.07716842 -0.16496725 -0.062411215 -0.057306122 -0.08781367 0.058664054
0.14882468 -0.08415531 -0.05256603 -0.06956125 0.0517254 0.068267114 -0.05270475 0.11340907
-0.08831115 0.010174003 -0.09732756 0.0975891 0.07056739 0.1343718 0.12265096 0.034098104
-0.069156036 -0.100662224 0.09737372 -0.13545477 0.1417486 0.015815722 0.07202524 -0.034156557
0.18711047 -0.13839605 -0.07969696 0.118441544 0.035284117 -0.09153428 -0.012432134 -0.17457603
0.14932823 0.18180172 -0.0075917393 0.080528565 -0.16417448 -0.07681645 -0.13619052 -0.038238797
-0.046834383 0.09918987 0.077927455 0.12084725 -0.032076057 0.10268205 -0.00849984 0.03744244
0.05758408 0.051229943 -0.13904457 0.06929421 0.048203535 0.05614049 -0.14106835 -0.02358708
-0.08318419 0.0063951174 -0.019735327 -0.040209506 0.021012487 -0.04532508 0.019835887 0.01885201
-0.16971038 0.031648915 0.050522864 0.07580928 0.058932614 0.030368416 0.109019205 -0.10400554
-0.038390275 0.09108581 -0.04920121 0.11045047 0.099654846 -0.06959905 -0.15354295 0.13479105
0.0074365083 -0.050120015 -0.011844878 0.010261471 -0.06333756 0.013446938 0.008014002 -0.08481542
00000000: d29a 8b3d d2bc 01bd e9ee 753d 861e 73bd
00000010: 3dc4 49bd 2609 773c 6cba 63bd d57a 37bc
00000020: 2e2e 663d 68d0 a9bb de7b 89ba e1b7 233e
00000030: 93b2 adbd 4f3c aebd f98e f4bc a89a 4e3d
00000040: 54ac 0bbe f7d4 e3bd 9c93 9b3d 134f 0ebd
00000050: a8a7 9f3d bcd5 62bd 9584 2dbd 8d2e cf3d
00000060: 85ca 91bd 15ca f93d 7d08 e13d 8a9a 7ebd
00000070: ab1a 153e 8c65 8abc e087 2abc 8774 d6bd
00000080: 7f55 a13d 5457 523d 9539 d5bd bb90 31be
00000090: 5ea4 ebbd 46c6 993d 22a6 b7bd bff2 d1bc
000000a0: 40eb df3d 511b 8abd 298c cfbd c0d7 a33d
000000b0: fc52 8f3a be47 983c 398b 8a3d 9da4 c43c
000000c0: 2c6a 4fbd c0c0 153e 13a7 b03d 32c3 84bd
000000d0: 16b9 a83c 748b 9d3d 0b83 0ebe c0b1 85bd
000000e0: 7fd4 60bd 7695 403c 1376 823d 344e ea3b
000000f0: 69bb efbb 09ca a43d 1980 d63c 93f7 bbbd
00000100: 2e24 f3bd 00ef 2b3e 94d1 c23d ded0 5fbd
00000110: 8fc3 b0bd 7ea0 7fbd c8da 1b3e e541 80bc
00000120: 0319 6b3d a117 b4bd 887b 153d 681a 2cbe
00000130: 2101 8cbc 928d 053e b9f4 f9bd b38c 9d3d
00000140: e129 efbd a397 0e3d 9728 fabd 4148 15be
00000150: 1e24 a2bd 48cc 22bd f567 943d 96d7 5abe
00000160: 75c3 ba3d 3747 3d3d 4b2b dd3d fb31 c83d
00000170: 25a0 643b 8064 903b 79d5 913a 55a5 213e
00000180: 0c00 f53c 3ae3 29bd f1f3 b63d b646 05bd
00000190: 2486 553d 663e 05bc cd7a 37bd 76eb 07be
000001a0: 3d97 ec3d d5f4 1b3e 1900 703c 252c fbbd
000001b0: d18d 1b3d 466c 0e3c 6f65 53bd d8c3 de3d
000001c0: 8690 9f3d a642 cc3c 2fb5 453d 463d 41be
000001d0: f9e6 2dbd 14c6 f1bc ce02 da3d 24dc 54bd
000001e0: ea04 2fbc 5f00 d33d 08ff 16be 33a5 c73d
000001f0: e742 2dbd 82f1 acbd 215c 393d be63 0c3d
00000200: 58a7 65bd c30f b4bd a3dc 753d 2bb9 bbbd
00000210: b566 07bd 1e5b 043e e16e 25bd 7bf4 26bd
00000220: 4ad1 1abe bcb8 253d 5a99 0dbd 3375 4c3d
00000230: 6a0e 013d 88aa a7bc f954 2e3e 821b 6cbd
00000240: 1f4e bdbd 5666 19be 335b a23c 3bdf 87bd
00000250: 5ad8 31bc af6e 6abc 427d d73c b74c f6bc
00000260: 1e34 05be 8f99 533d 4f48 30bd 85cf ec3d
00000270: 956b 2fbb ddaf 22bb 7a3c b53d 89b0 cc3d
00000280: 08cc 273d 28fb 01bd 7a0a 9ebd 2ded 28be
00000290: e7a2 7fbd d3b9 6abd a7d7 b3bd b849 703d
000002a0: 7f65 183e 9f59 acbd 7a4f 57bd 2176 8ebd
000002b0: 03de 533d a1cf 8b3d f0e0 57bd 0443 e83d
000002c0: 7adc b4bd ddb0 263c ac53 c7bd cbdc c73d
000002d0: a385 903d c398 093e 6d30 fb3d 74aa 0b3d
000002e0: aea1 8dbd ff27 cebd df6b c73d a8b4 0abe
000002f0: 8c26 113e f98f 813c f881 933d bfe7 0bbd
00000300: e399 3f3e b2b7 0dbe 2938 a3bd 7b91 f23d
00000310: 1486 103d 5376 bbbd 26b0 4bbc 0fc4 32be
00000320: 80e9 183e 3b2a 3a3e 20c4 f8bb 29ec a43d
00000330: 5b1d 28be f151 9dbd 8775 0bbe 49a0 1cbd
00000340: 69d5 3fbd 0f24 cb3d 6e98 9f3d c37e f73d
00000350: 2f62 03bd f74a d23d ea42 0bbc 3e5d 193d
00000360: 49dd 6b3d 7dd6 513d b361 0ebe 1fea 8d3d
00000370: 1271 453d 92f3 653d 3974 10be b139 c1bc
00000380: 795c aabd 228e d13b fbab a1bc b9b2 24bd
00000390: 6122 ac3c cba6 39bd df7e a23c 886f 9a3c
000003a0: 8fc8 2dbe 4ba2 013d 10f1 4e3d e541 9b3d
000003b0: 5363 713d 2fc7 f83c 7645 df3d db00 d5bd
000003c0: 1f3f 1dbd 328b ba3d 3587 49bd db33 e23d
000003d0: d717 cc3d f289 8ebd 5d3a 1dbe aa06 0a3e
000003e0: f4ad f33b a54a 4dbd 0511 42bc bb1f 283c
000003f0: 1fb7 81bd 8c50 5c3c 294d 033c b5b3 adbd

bias f4 [64]
0.10667965 0.016814645 -0.11237715 0.05010055 -0.07511522 -0.11552765 0.021480275 -0.03104911
0.022532826 0.08392048 -0.09908968 0.10179891 -0.059576537 -0.026349805 0.03204696 -0.06919352
-0.048893914 -0.025874801 0.05598792 0.001222803 0.11297751 0.048922822 -0.11407408 -0.08611455
0.006131458 -0.020444255 -0.060132712 0.047452457 0.04663614 -0.064514756 -0.029727804 0.043166474
0.053061847 0.0027678367 0.061089665 0.03624074 -0.11545143 -0.11368079 0.0043480867 0.058318075
-0.06662467 -0.07328351 -0.09422068 0.022367815 0.08717217 0.107465364 -0.10653518 0.0949982
-0.052317183 -0.107283555 0.07706127 0.10306956 -0.0019326956 -0.045337494 0.01975135 0.06335274
0.06414713 -0.05727604 -0.007225683 0.040592734 0.025785115 0.016089687 0.018871 0.019836193
00000000: dc7a da3d debe 893c fe25 e6bd 3c36 4d3d
00000010: 02d6 99bd c399 ecbd 67f7 af3c b45a febc
00000020: c396 b83c 80de ab3d 88ef cabd f27b d03d
00000030: 8706 74bd 8cdb d7bc ac43 033d 55b5 8dbd
00000040: fc44 48bd 64f7 d3bc 9753 653d 7646 a03a
00000050: c160 e73d 4c63 483d ac9f e9bd d35c b0bd
00000060: 66ea c83b b67a a7bc b84d 76bd 825d 423d
00000070: 8a05 3f3d 5020 84bd b987 f3bc 54cf 303d
00000080: 6157 593d 9864 353b 2839 7a3d 2c71 143d
00000090: cd71 ecbd 79d1 e8bd 657a 8e3b efde 6e3d
000000a0: 8472 88bd aa15 96bd c6f6 c0bd b53c b73c
000000b0: 5387 b23d cd16 dc3d 1e2f dabd 6b8e c23d
000000c0: 8b4a 56bd 7bb7 dbbd 4dd2 9d3d 2216 d33d
000000d0: 8152 fdba cfb3 39bd 95cd a13c 15bf 813d
000000e0: 925f 833d 489a 6abd 6cc5 ecbb 9144 263d
000000f0: 4e3b d33c 85ce 833c 5b97 9a3c 837f a23c

weight f4 [2, 64]
0.13070221 -0.15024105 0.1810255 -0.030666705 -0.28052562 0.17466192 -0.12175615 -0.19755827
0.08075263 0.24151309 -0.12425409 -0.026414037 -0.23529077 0.03696136 0.15400243 -0.03610218
-0.18322465 -0.16640647 -0.20005779 -0.21017978 -0.34581596 0.08735394 -0.09799484 -0.15604551
-0.015469763 -0.32508025 0.23465657 -0.008347891 0.11259076 0.17833391 -0.15400058 0.22302274
-0.47561413 -0.2544474 0.25025746 -0.18859315 -0.12814735 -0.043746013 -0.17850891 -0.12588151
0.057219867 -0.24034372 -0.32068247 0.18943983 -0.29649395 0.20657495 0.22994627 -0.10935883
-0.031537496 -0.23084491 0.23504725 0.24580571 -0.22863592 0.13808347 -0.18299982 -0.17578392
0.18390608 -0.31693354 -0.08080039 -0.39838985 -0.13839328 0.05281591 -0.19007787 0.0982375
-0.077330425 0.28180584 0.12692711 -0.42522702 0.22758034 0.2639102 -0.157795 0.12505892
-0.29020968 0.17029987 -0.09398306 0.12941104 -0.2741484 -0.15307161 0.12942395 0.1428405
-0.12825263 0.17830278 0.031285483 0.06616643 -0.35864058 0.08469605 0.6237605 0.1259734
0.24247426 0.2139948 0.4768112 -0.072804414 -0.21767844 0.294399 -0.013614445 0.027398238
-0.3798229 -0.179534 0.11577332 0.21908812 0.082806155 0.09274267 0.2733894 -0.0023684637
0.33160982 -0.24075738 0.0454735 -0.13764606 0.06736555 -0.19954239 -0.07671868 -0.177109
-0.33935696 0.17796463 0.22747537 -0.21353415 -0.26490209 -0.18078762 0.003349997 0.084652185
-0.036393918 0.20706528 0.38077307 0.23447944 -0.07623776 0.5081543 0.27870205 0.07740646
00000000: cdd6 053e cad8 19be c05e 393e be38 fbbc
00000010: 0ea1 8fbe 93da 323e 4a5b f9bd b74c 4abe
00000020: a361 a53d 354f 773e ee78 febd 4062 d8bc
00000030: 10f0 70be cc64 173d d0b2 1d3e e1df 13bd
00000040: 3e9f 3bbe 7566 2abe f3db 4cbe 5e39 57be
00000050: ca0e b1be 9fe6 b23d 85b1 c8bd 65ca 1fbe
00000060: e474 7dbc eb70 a6be d049 703e 98c5 08bc
00000070: fc95 e63d 2a9d 363e 54b2 1dbe 1360 643e
00000080: b283 f3be ee46 82be bf21 803e 901e 41be
00000090: 0f39 03be 052f 33bd 0acb 36be 15e7 00be
000000a0: 615f 6a3d aa1c 76be 7e30 a4be 84fc 413e
000000b0: 0ece 97be 6288 533e 0977 6b3e 86f7 dfbd
000000c0: 762d 01bd 9c62 6cbe 3ab0 703e 7eb4 7b3e
000000d0: 891f 6abe c165 0d3e 4e64 3bbe b300 34be
000000e0: e051 3c3e 1d45 a2be ad7a a5bd c1f9 cbbe
000000f0: f8b6 0dbe 7f55 583d c6a3 42be be30 c93d
00000100: 6a5f 9ebd db48 903e 2ef9 013e 5bb7 d9be
00000110: d20a 693e 3d1f 873e 0395 21be 720f 003e
00000120: 5d96 94be 1763 2e3e 317a c0bd 5484 043e
00000130: 2e5d 8cbe cebe 1cbe b687 043e c844 123e
00000140: a854 03be 0195 363e 3525 003d 4482 873d
00000150: bd9f b7be 1f75 ad3d c5ae 1f3f 2cff 003e
00000160: 2c4b 783e 7421 5b3e 9920 f43e 7b1a 95bd
00000170: 19e7 5ebe 77bb 963e 1f0f 5fbc 4572 e03c
00000180: 2678 c2be c3d7 37be 901a ed3d a358 603e
00000190: 4696 a93d deef bd3d b2f9 8b3e 3a38 1bbb
000001a0: c3c8 a93e 1a89 76be 6c42 3a3d 17f3 0cbe
000001b0: f3f6 893d d754 4cbe af1e 9dbd 105c 35be
000001c0: 32c0 adbe 5c3c 363e 4eef 683e b2a8 5abe
000001d0: 3fa1 87be 6420 39be a08b 5b3b 205e ad3d
000001e0: ca11 15bd ec08 543e b0f4 c23e 611b 703e
000001f0: 8b22 9cbd 6616 023f 09b2 8e3e 4787 9e3d

bias f4 [2]
-0.0050757406 0.045505304
00000000: 6652 a6bb c563 3a3d

weight f4 [64, 60]
0.022899335 0.038226176 -0.004912029 0.03210837 0.113332495 0.21413662 -0.29614818 -0.048619896
0.25362635 0.21030185 -0.4267841 -0.4546458 0.16618638 0.4250006 0.4836588 0.12688634
0.27845186 -0.27884573 0.26757187 -0.1251058 -0.07158473 -0.20859183 -0.23030458 -0.6072701
-0.40501198 -0.31837684 -0.08410817 0.10850117 0.19113833 0.3645571 0.27390143 0.13157271
-0.20235239 0.07435907 -0.012985616 0.0027213094 -0.024239406 0.13373384 0.02026165 0.28699353
-0.10508726 -0.27553368 -0.56995934 -0.37963805 -0.30017075 0.4788302 0.53092396 0.36936158
-0.06746265 -0.48630592 -0.42541716 -0.34601706 0.21029122 0.28548652 -0.18354565 -0.17521515
-0.41987997 -0.796201 0.16542785 -0.035561625 -0.14167108 -0.04632146 0.06815151 0.9579905
0.63129276 0.16194846 -0.036962435 0.1890809 0.681528 0.47000134 -0.77136534 -0.32231078
0.062309798 0.0066195256 0.9445271 0.67002463 1.1494156 0.78520507 0.8410504 0.08183377
-0.0830324 -0.060382243 0.55809706 0.068153895 0.16642529 0.019603731 0.09425976 0.27938226
-0.12834877 0.2717999 0.20127042 -0.36732578 -0.7533735 -0.4684764 -0.14248513 -0.090120606
0.33843744 -0.028397132 -0.11405836 -0.21362467 0.11873895 0.13873105 -0.2769059 -0.14487089
0.085572 0.5711672 0.29485273 -0.2220057 0.06565881 0.02606655 -0.042343326 -0.455878
-0.28034914 -0.36065435 0.5632546 0.6407272 0.5053593 0.03232923 0.1517915 0.02457344
-0.032639753 0.0039300495 -0.21594733 -0.2739126 -0.10427094 -0.16289335 0.13266371 0.3489149
0.29848588 -1.6181011 -1.4768461 -0.35614768 0.0942134 -0.10585604 -0.3183338 -0.58136934
-0.88833505 -0.43368566 0.08902996 0.0046296064 0.06358147 0.008985829 -0.19343217 0.0005674008
0.1188982 0.036412157 -0.1310806 -0.0864181 0.175517 -0.6535766 0.007027942 0.19402416
0.6175562 0.67398167 0.43606812 0.12731922 0.14295882 0.03493662 0.5799262 0.06993217
0.10893589 0.03790732 -0.18154381 -0.27967533 0.028064676 -0.18427476 -0.3916271 -0.66777235
-0.6317614 -0.14049158 -0.37643978 -0.1657043 -0.25650942 -0.011198976 0.00020751762 -0.07933894
-0.22394948 0.5178078 0.14474301 -0.02551813 -0.009189837 0.0065870583 0.23680016 0.24848373
0.2776728 -0.4497062 -0.0038782388 -0.16837466 -0.11115985 0.30516002 1.1511228 0.59061456
0.47803223 0.48814067 0.35324633 0.68435055 0.92110723 0.038771566 -0.41926834 0.1160876
0.08554951 0.058749527 0.06743026 -0.22428788 -0.06119398 0.28794003 0.13024817 0.08941649
0.31736544 0.7471974 0.23862386 0.0083127655 -0.46040404 0.0556692 -0.08631152 -0.5081944
-0.41760075 -0.071350165 -0.2842185 0.12520513 0.118025646 -0.35807714 0.13522923 1.0178466
0.56034875 0.39840162 0.46264836 0.33164957 0.18964323 -0.05289825 -0.06861236 -0.036411773
-0.101773985 -0.082242094 0.119984426 0.13526042 -0.29270175 -0.64556336 0.19379553 0.054834846
-0.04347239 -0.067887165 0.105479866 -0.8850279 -0.18010156 -0.62846756 -0.0914914 0.103323214
0.09533142 0.07497573 0.291991 0.75923455 -0.41043895 -0.81150025 0.18293935 0.2665005
00000000: 6397 bb3c 0d93 1c3d 16f5 a0bb 1184 033d
00000010: de1a e83d a146 5b3e bca0 97be a825 47bd
00000020: 50db 813e 5e59 573e 7283 dabe 56c7 e8be
00000030: c32c 2a3e ae99 d93e 20a2 f73e 7eee 013e
00000040: 3e91 8e3e dec4 8ebe 2eff 883e bc1b 00be
00000050: 049b 92bd 1999 55be f7d4 6bbe 0e76 1bbf
00000060: bb5d cfbe 4a02 a3be e740 acbd dd35 de3d
00000070: c4b9 433e 3aa7 ba3e cf3c 8c3e ffba 063e
00000080: 7735 4fbe 9149 983d 9fc1 54bc ff57 323b
00000090: b891 c6bc 86f1 083e c3fb a53c d1f0 923e
000000a0: fd37 d7bd c012 8dbe dbe8 11bf eb5f c2be
000000b0: fbaf 99be 3b29 f53e a2ea 073f f61c bd3e
000000c0: dc29 8abd 17fd f8be 47d0 d9be 2629 b1be
000000d0: 9556 573e 4a2b 923e 64f3 3bbe 9a6b 33be
000000e0: 82fa d6be d4d3 4bbf eb65 293e 11a9 11bd
000000f0: 3912 11be 92bb 3dbd 0593 8b3d de3e 753f
00000100: 679c 213f d1d5 253e ec65 17bd 6c9e 413e
00000110: 9e78 2e3f 04a4 f03e 3378 45bf eb05 a5be
00000120: 8f38 7f3d 9be8 d83b 87cc 713f bc86 2b3f
00000130: 0d20 933f 3303 493f 144f 573f 7798 a73d
00000140: e40c aabd 5f53 77bd 73df 0e3f 4594 8b3d
00000150: 646b 2a3e 0198 a03c 430b c13d 310b 8f3e
00000160: dc6d 03be 5b29 8b3e d519 4e3e 2012 bcbe
00000170: 16dd 40bf 24dc efbe 9fe7 11be 2791 b8bd
00000180: ac47 ad3e 1aa1 e8bc 6e97 e9bd 6dc0 5abe
00000190: 682d f33d 830f 0e3e 9cc6 8dbe 0959 14be
000001a0: 5f40 af3d 0338 123f f0f6 963e 7655 63be
000001b0: 2078 863d 8489 d53c 3270 2dbd d768 e9be
000001c0: ec89 8fbe b0a7 b8be 7431 103f b306 243f
000001d0: 3a5f 013f a86b 043d 3b6f 1b3e 3d4e c93c
000001e0: 43b1 05bd a5c7 803b 4c21 5dbe 463e 8cbe
000001f0: 018c d5bd 84cd 26be ffd8 073e f9a4 b23e
00000200: 24d3 983e f01d cfbf 4b09 bdbf fd58 b6be
00000210: f4f2 c03d 0dcb d8bd a6fc a2be 9fd4 14bf
00000220: ed69 63bf 0c0c debe 5755 b63d f4b3 973b
00000230: 0037 823d 4c39 133c 1513 46be a0bd 143a
00000240: e680 f33d ea24 153d fe39 06be f9fb b0bd
00000250: baba 333e cc50 27bf a74a e63b 45ae 463e
00000260: 2a18 1e3f 108a 2c3f 5244 df3e f85f 023e
00000270: cc63 123e b419 0f3d 0b76 143f 9938 8f3d
00000280: c819 df3d b544 1b3d 9fe6 39be 9b31 8fbe
00000290: e4e7 e53c 86b2 3cbe 5983 c8be 21f3 2abf
000002a0: 1dbb 21bf 06dd 0fbe b7bc c0be 63ae 29be
000002b0: 3455 83be e97b 37bc 1699 5939 747c a2bd
000002c0: 0353 65be 0d8f 043f 8337 143e 660b d1bc
000002d0: f890 16bc 40d8 d73b be7b 723e 8572 7e3e
000002e0: 212b 8e3e e43f e6be 0d2a 7ebb 686a 2cbe
000002f0: c7a7 e3bd ef3d 9c3e fe57 933f 8432 173f
00000300: a4c0 f43e 93ed f93e b4dc b43e 9931 2f3f
00000310: afcd 6b3f efce 1e3d 57aa d6be 56bf ed3d
00000320: 9534 af3d 58a3 703d e018 8a3d b9ab 65be
00000330: 8aa6 7abd e06c 933e c75f 053e fe1f b73d
00000340: b97d a23e 5448 3f3f d059 743e 4432 083c
00000350: 14ba ebbe 6305 643d 18c4 b0bd 0719 02bf
00000360: c4cf d5be 0920 92bd 1685 91be c635 003e
00000370: 6eb7 f13d e355 b7be 8879 0a3e cc48 823f
00000380: 0473 0f3f 4cfb cb3e 3fe0 ec3e f9cd a93e
00000390: d631 423e d6ab 58bd a384 8cbd 8324 15bd
000003a0: e16e d0bd 8b6e a8bd 65ba f53d b581 0a3e
000003b0: 01dd 95be a443 25bf 5672 463e 819a 603d
000003c0: 1b10 32bd 6d08 8bbd d405 d83d 3091 62bf
000003d0: 8b6c 38be 40e3 20bf d85f bbbd 1f9b d33d
000003e0: 1f3d c33d e08c 993d d87f 953e 325d 423f
000003f0: 0e25 d2be 7bbe 4fbf 7454 3b3e c172 883e

bias f4 [64]
0.046827342 0.27299646 -0.2734645 0.39720026 -0.1283785 -0.040100325 0.012430977 0.16061832
0.055209048 0.3647476 0.43818808 -0.04420317 0.18934333 0.10322008 -0.07273419 0.24636883
-0.10170501 0.32897282 0.08073039 -0.3260936 -0.09005436 0.28810817 -0.20780066 0.012907095
-0.293664 -0.007911499 0.28330114 -0.010488968 0.24673036 -0.36438802 0.2621711 -0.14190906
0.07001555 -0.197426 0.029506348 -0.09272754 -0.17441943 0.18420143 0.42711532 0.32326376
-0.042088617 0.24441454 0.015079361 0.23461749 0.2761592 0.4196759 0.2168368 -0.12432795
0.03378497 -0.10855 -0.13786791 0.22114572 0.15560247 -0.102937974 -0.26821926 0.17576194
0.18273935 0.28978053 0.39469993 -0.046974562 -0.36352122 -0.25647858 -0.037991717 -0.18241034
00000000: 07ce 3f3d 31c6 8b3e 8a03 8cbe d55d cb3e
00000010: a775 03be 3d40 24bd 4cab 4b3c 2179 243e
00000020: e222 623d 33c0 ba3e 305a e03e 620e 35bd
00000030: 38e3 413e 0d65 d33d aaf5 94bd 1c48 7c3e
00000040: b74a d0bd 206f a83e fa55 a53d bef5 a6be
00000050: 6c6e b8bd ea82 933e b2c9 54be 4878 533c
00000060: 215b 96be 3b9f 01bc d90c 913e ecd9 2bbc
00000070: e2a6 7c3e 1191 babe 4a3b 863e 9c50 11be
00000080: 5064 8f3d 0b2a 4abe 4cb7 f13c f0e7 bdbd
00000090: 029b 32be 4d9f 3c3e dcae da3e d482 a53e
000000a0: 1d65 2cbd ce47 7a3e 6d0f 773c 913f 703e
000000b0: bd64 8d3e c2df d63e 770a 5e3e a79f febd
000000c0: 1c62 0a3d 764f debd 3f2d 0dbe 0674 623e
000000d0: 4156 1f3e 25d1 d2bd 0954 89be f0fa 333e
000000e0: 0620 3b3e 1d5e 943e 1c16 ca3e 6668 40bd
000000f0: 741f babe 2951 83be 349d 1bbd c7c9 3abe

weight f4 [64, 64]
0.04892162 0.038762175 0.3724801 -0.5364457 -0.13180496 -0.079896376 -0.39391756 -0.1450692
-0.31710348 -0.25704932 -0.29576248 -0.34554496 -0.1662254 0.049023308 0.28230304 -0.1251854
-0.27406847 -0.38007048 -0.20511122 0.41223213 0.67275655 -0.30469078 -0.036938556 -0.17656302
0.0026587646 0.25654295 0.45641217 -0.3411882 0.008518814 0.20116396 -0.18881741 0.30669412
-0.44475487 0.30329862 -0.028933713 -0.036931004 -0.08547174 -0.015026573 -0.1952843 -0.2268356
0.35079452 -0.33904478 -0.47444484 -0.39447746 -0.6329602 -0.7913037 -0.34003213 0.14633816
-0.12774484 -0.15622103 0.5110143 0.004360173 -0.04915903 0.08401364 0.35946596 -0.46814737
-0.4628756 -0.4256341 0.090885684 0.1230621 0.3743355 0.092584185 0.03697068 0.35284516
-0.027168486 0.3098743 -0.25964773 0.21363682 -0.15943004 -0.19489008 0.09305019 0.13629611
0.13671474 0.26949522 0.1316333 0.12972683 -0.059469294 0.03181953 0.049878612 -0.054843318
-0.061389104 0.14622049 0.15066183 -0.2628302 -0.25788713 0.39313006 0.014453683 0.16591246
-0.0013484015 -0.41413262 -0.077457435 0.238491 -0.008647259 -0.58345324 0.10895035 -0.3706351
0.100233495 -0.06313221 -0.026243823 -0.008230226 -0.014434819 0.105260156 0.19180727 0.06545952
-0.10111937 0.16879208 0.33094266 0.49138662 0.49479863 0.6832402 0.08485718 -0.017465612
0.07729136 -0.03131749 -0.048030216 0.25251108 -0.13199504 -0.012102935 -0.38418615 0.64418525
0.3406042 0.56470037 0.06898722 -0.030231573 -0.4945778 0.052161243 -0.1633863 -0.38902482
-0.18962318 0.104770206 0.1533876 -0.19797415 -0.024610663 0.18925259 0.03735959 -0.26372954
0.07957248 -0.3010028 -0.10138621 -0.0067994785 -0.4226036 -0.25844428 0.2769607 0.09519032
-0.08789255 -0.23501734 -0.43414375 0.062182862 0.19323161 0.031646494 0.5989807 -0.18677118
0.07466624 0.11917879 -0.6828303 0.13774243 -0.08408664 0.1901181 -0.15350574 0.53427815
-0.00083759095 -0.027154852 0.27922124 0.08845797 0.3081937 0.029679677 -0.034023758 -0.072883986
0.2947813 0.21209 0.008900858 -0.06296642 -0.6215429 -0.18278304 -0.26447082 0.13663155
-0.030522576 0.0025488834 0.014892659 -0.22392319 -0.255713 0.025489258 0.24122529 -0.34400612
-0.07956464 -0.5250177 -0.30753002 -0.118538015 0.63745326 0.37125456 0.046349794 0.18833235
0.2080626 0.23112457 -0.3044136 0.28549847 0.24457164 0.2086084 -0.26739192 0.08810106
-0.08377167 0.8200557 0.39138797 0.11922512 0.034799755 0.18429014 0.06955249 -0.17218742
-0.15637302 0.1226364 0.3421593 -0.33666626 -0.019720482 0.1387109 0.056418065 -0.022598065
-0.18224822 -0.45759815 0.029931061 -0.3188435 0.07331416 -0.1482054 0.49831882 0.23763672
-0.044860013 -0.27149454 -0.31866473 -0.14256161 -0.26622343 -0.015701678 0.5311186 -0.15112737
0.10274249 0.41631642 -0.07762658 0.5980436 0.25545034 0.32242322 0.40170574 0.39338028
-0.020050075 -0.48418617 -0.3489243 0.15480617 0.02336159 -0.1535504 0.12921332 0.3128486
0.40503535 0.491372 0.07989226 0.21871838 -0.13166642 -0.07110723 0.789816 -0.27901086
00000000: 0962 483d 16c5 1e3d b6b5 be3e 8154 09bf
00000010: e1f7 06be b6a0 a3bd 90af c9be 058d 14be
00000020: 635b a2be f89b 83be 2e6e 97be 45eb b0be
00000030: fe36 2abe aacc 483d 068a 903e 9a30 00be
00000040: b452 8cbe 9998 c2be ad08 52be 1710 d33e
00000050: c639 2c3f 6e00 9cbe e24c 17bd f0cc 34be
00000060: ab3e 2e3b 9959 833e dbae e93e 38b0 aebe
00000070: 7f92 0b3c edfd 4d3e 5a59 41be 0307 9d3e
00000080: e9b6 e3be f549 9b3e 6506 edbc f744 17bd
00000090: cf0b afbd 0432 76bc 9cf8 47be 9747 68be
000000a0: 579b b33e 4797 adbe 6fea f2be f3f8 c9be
000000b0: ae09 22bf e192 4abf b118 aebe acd9 153e
000000c0: 8bcf 02be 68f8 1fbe d5d1 023f c8df 8e3b
000000d0: fb5a 49bd 580f ac3d ec0b b83e 03b1 efbe
000000e0: 08fe ecbe b6ec d9be 4622 ba3d fb07 fc3d
000000f0: e7a8 bf3e c79c bd3d 916e 173d 1fa8 b43e
00000100: 7290 debc d8a7 9e3e 8cf0 84be 9cc3 5a3e
00000110: a141 23be 4491 47be 1991 be3d 3591 0b3e
00000120: f3fe 0b3e 47fb 893e e1ca 063e 1cd7 043e
00000130: 1396 73bd 3255 023d 844d 4c3d 63a3 60bd
00000140: 2473 7bbd d3ba 153e 1847 1a3e ae91 86be
00000150: c809 84be 5848 c93e 24cf 6c3c f5e4 293e
00000160: d9bc b0ba 3109 d4be 01a2 9ebd fc36 743e
00000170: 3cad 0dbc 315d 15bf 5c21 df3d e2c3 bdbe
00000180: 3847 cd3d 764b 81bd 49fd d6bc 12d8 06bc
00000190: 0580 6cbc a392 d73d 2069 443e a40f 863d
000001a0: ac17 cfbd d5d7 2c3e 5171 a93e 0797 fb3e
000001b0: 3f56 fd3e d4e8 2e3f 9ac9 ad3d 0b14 8fbc
000001c0: ef4a 9e3d c546 00bd 55bb 44bd 2249 813e
000001d0: b529 07be 644b 46bc 0cb4 c4be 53e9 243f
000001e0: ac63 ae3e 3490 103f 2c49 8d3d 34a8 f7bc
000001f0: 4d39 fdbe 07a7 553d bd4e 27be 432e c7be
00000200: 942c 42be c391 d63d a411 1d3e bcb9 4abe
00000210: 4d9c c9bc 6ecb 413e 5f06 193d 8f07 87be
00000220: e5f6 a23d 0a1d 9abe 93a3 cfbd 29ce debb
00000230: 805f d8be cf52 84be cbcd 8d3e 24f3 c23d
00000240: 0201 b4bd 63a8 70be 1748 debe 75b3 7e3d
00000250: 82de 453e c19f 013d cd56 193f f240 3fbe
00000260: 9dea 983d 0214 f43d f7cd 2ebf 5a0c 0d3e
00000270: 9e35 acbd 52ae 423e 9c30 1dbe 74c6 083f
00000280: c791 5bba da73 debc 16f6 8e3e 7429 b53d
00000290: 91cb 9d3e cb22 f33c 7f5c 0bbd 3344 95bd
000002a0: 93ed 963e 1f2e 593e e8d4 113c 8af4 80bd
000002b0: 6f1d 1fbf 7a2b 3bbe b868 87be 24e9 0b3e
000002c0: 7b0a fabc 2b0b 273b 5700 743c 1f4c 65be
000002d0: d0ec 82be d9ce d03c c303 773e 9221 b0be
000002e0: c9f2 a2bd 8f67 06bf 9374 9dbe 0fc4 f2bd
000002f0: 2330 233f 1415 be3e 48d9 3d3d 32da 403e
00000300: 5d0e 553e ebab 6c3e 19dc 9bbe db2c 923e
00000310: fd70 7a3e 719d 553e 98e7 88be 546e b43d
00000320: 7b90 abbd 2cef 513f 0164 c83e 4d2c f43d
00000330: 308a 0e3d 8eb6 3c3e 8971 8e3d e651 30be
00000340: 4020 20be cb28 fb3d 812f af3e 855f acbe
00000350: d98c a1bc 3b0a 0e3e a116 673d 941f b9bc
00000360: 479f 3abe 4e4a eabe fc31 f53c 753f a3be
00000370: bc25 963d 28c3 17be a523 ff3e 0a57 733e
00000380: 22bf 37bd 5501 8bbe 0628 a3be acfb 11be
00000390: 704e 88be cea0 80bc 63f7 073f 22c1 1abe
000003a0: a86a d23d 6d27 d53e affa 9ebd 6319 193f
000003b0: 63ca 823e a814 a53e 60ac cd3e 2469 c93e
000003c0: 0e40 a4bc 40e7 f7be 35a6 b2be 8285 1e3e
000003d0: ce60 bf3c 513c 1dbe 7f50 043e b12d a03e
000003e0: cb60 cf3e 1c95 fb3e 8e9e a33d b6f7 5f3e
000003f0: 90d3 06be aba0 91bd 6231 4a3f 83da 8ebe

bias f4 [64]
0.03116745 -0.15422307 -0.24324167 -0.07154446 0.23064303 -0.12880036 -0.1319325 -0.16339587
-0.09144652 -0.21388315 -0.14261329 0.30317655 0.16164179 -0.07426549 -0.19794913 0.06215564
-0.24330898 0.013171277 0.1322527 0.1227437 0.11030843 0.05243676 0.31755126 0.27808565
0.17980576 -0.25679952 0.26313245 0.32719398 0.19692098 -0.086005434 0.38589892 -0.1600976
-0.28696218 0.20449461 -0.30964684 -0.07407527 -0.53918386 0.2658924 0.04945938 0.07687446
-0.19374672 0.32413504 0.13665888 0.13335796 0.028081924 0.28643766 0.16104458 -0.07700313
0.38374716 0.49743053 -0.03409834 -0.03297 -0.103048466 0.3667625 0.210822 -0.22038224
-0.040367622 0.18595172 -0.20665094 0.36031616 0.15298589 0.024322085 0.24800397 -0.06222853
00000000: e152 ff3c a7ec 1dbe 5814 79be e785 92bd
00000010: b02d 6c3e 3ee4 03be 5019 07be 3f51 27be
00000020: 5048 bbbd 2f04 5bbe 3809 12be f539 9b3e
00000030: 6d85 253e 8118 98bd 2db3 4abe ea96 7e3d
00000040: fd25 79be 57cc 573c 406d 073e 0d61 fb3d
00000050: 63e9 e13d eec7 563d 1496 a23e 3e61 8e3e
00000060: 001f 383e 3a7b 83be 4cb9 863e f885 a73e
00000070: a7a5 493e 9e23 b0bd 8b94 c53e a0f0 23be
00000080: b5ec 92be 0967 513e 088a 9ebe c6b4 97bd
00000090: f407 0abf 0c23 883e eb95 4a3d 5b70 9d3d
000000a0: 8a65 46be 07f5 a53e 4ef0 0b3e fd8e 083e
000000b0: 100c e63c f5a7 923e dfe8 243e d1b3 9dbd
000000c0: 827a c43e 37af fe3e b3aa 0bbd 8d0b 07bd
000000d0: 130b d3bd 4bc8 bb3e b9e1 573e e2ab 61be
000000e0: 8558 25bd 216a 3e3e 4e9c 53be 5c7b b83e
000000f0: 55a8 1c3e 1c3f c73c c1f4 7d3e 58e3 7ebd

weight f4 [1, 64]
-0.5161994 0.39234006 0.097265296 0.42293763 -0.6559338 -0.32109725 0.3903004 0.55136275
0.38495758 0.73767084 0.68814725 -0.32094616 -0.86855507 0.39183903 0.6760964 -0.37972137
0.48931423 0.29743937 0.33775535 0.07099495 -0.27474782 -0.4465859 -1.0688287 -0.61694115
-0.6237332 0.5916672 -0.8473927 -0.59877515 -0.4906526 0.5929152 -0.60074896 0.43493056
0.6725924 -0.59007883 0.59301174 -0.60141134 1.1451696 -0.61715114 0.46749935 -0.5129717
0.62878615 -0.63849455 -0.98591137 -0.87922895 0.5666026 -0.58014864 -0.16713627 0.47173122
-0.620776 -1.168649 -0.30846593 -0.3670525 -0.3993997 -0.6071415 -0.6711233 0.81364113
0.34090868 -0.31079653 0.6613772 -0.5953538 -0.55539733 0.5189277 -0.56402034 -0.24676181
00000000: a525 04bf cce0 c83e 0733 c73d 488b d83e
00000010: 47eb 27bf dc66 a4be 74d5 c73e 1c26 0d3f
00000020: 2919 c53e ffd7 3c3f 6b2a 303f 0e53 a4be
00000030: a059 5ebf 209f c83e a714 2d3f d76a c2be
00000040: 6587 fa3e f949 983e 45ee ac3e cd65 913d
00000050: bfab 8cbe e8a6 e4be 61cf 88bf dbef 1dbf
00000060: fbac 1fbf 8077 173f baee 58bf 5449 19bf
00000070: d136 fbbe 4ac9 173f afca 19bf 38af de3e
00000080: 042f 2c3f 680f 17bf 9ecf 173f 18f6 19bf
00000090: eb94 923f 9efd 1dbf 135c ef3e 1d52 03bf
000000a0: 21f8 203f 6174 23bf b064 7cbf 2615 61bf
000000b0: de0c 113f 9f84 14bf c525 2bbe c186 f13e
000000c0: 2deb 1ebf 4a96 95bf 3fef 9dbe 4eee bbbe
000000d0: 1e7e ccbe a06d 1bbf bdce 2bbf c94a 503f
000000e0: 958b ae3e b920 9fbe 0450 293f 1b69 18bf
000000f0: 852e 0ebf 72d8 043f a363 10bf 21af 7cbe

weight f4 [64, 60]
-0.00092300645 0.10948935 -0.010190022 0.12764215 0.11726234 0.06564574 -0.12056905 -0.040072914
-0.110023364 -0.12201189 -0.0052524954 0.12462556 0.09098502 0.026119135 -0.08354338 -0.09517088
-0.05891179 0.052640747 -0.0038839835 -0.08871787 0.062571034 -0.11033346 0.018378254 -0.036923196
0.1265447 -0.11969883 0.10889946 -0.024124565 -0.09589833 -0.036040436 -0.01976585 -0.0062162695
0.03993513 0.10966972 0.023953998 0.08674184 -0.0996277 -0.06380408 -0.100480564 0.03667139
0.120569035 -0.110760726 -0.026766986 -0.012687056 -0.074959725 -0.09890504 0.08012468 -0.040314537
-0.07384525 -0.017642604 -0.10804231 0.12061834 0.028228777 -0.031392083 0.043952357 0.087084204
-0.014360271 0.056108125 -0.11998049 0.10649264 0.09191074 -0.046021525 0.0524868 0.040619377
-0.029168095 0.1289155 0.038033083 -0.09383316 0.023273058 -0.03674104 -0.122673824 0.09559937
0.026215907 -0.1026096 0.063251436 -0.06024835 0.100919805 -0.013223193 -0.0153744165 -0.09802485
-0.064902365 0.09285179 0.06434828 -0.057122547 0.0131007815 -0.02748226 -0.103596106 0.044834383
-0.055402488 0.08438164 -0.011177219 0.038797434 -0.024180537 0.011224035 0.101299815 -0.11243762
0.1253207 0.037014212 -0.09475814 -0.11736579 0.008040628 -0.06421247 0.12625682 -0.06369228
0.11127839 0.07892352 -0.087373674 -0.039367553 0.085828885 -0.0729225 -0.08116964 -0.072931714
-0.021134008 0.0678717 -0.012561105 0.026843874 0.041225582 -0.009425808 0.07140278 0.095505014
-0.0702673 0.061042544 -0.02460122 -0.0054625208 -0.10526561 0.10997569 0.07796167 0.06094582
-0.06650082 0.019063719 0.09241696 0.02429993 -0.12714349 0.08241331 0.10686289 0.027899202
0.08005469 0.08835887 -0.09912347 -0.028050931 0.08562712 -0.029408686 -0.12591188 -0.12755005
0.07487496 0.01094077 0.06526977 -0.110488944 7.379435e-05 -0.103678286 0.061054487 -0.081754796
-0.072037704 -0.08388224 -0.08170841 -0.013690567 0.032174274 0.089666255 0.12706779 -0.036438923
0.028795661 -0.054939542 -0.12335869 -0.032969438 0.09972968 0.045712158 -0.0008840701 -0.10699863
-0.06461933 0.034136124 0.12146466 -0.006530207 -0.0750615 0.05830124 0.01329551 0.05978287
-0.015442379 0.07471572 0.067862354 -0.08655361 0.028538112 0.023986502 0.11026665 -0.106648356
0.09430471 0.00907652 0.018641975 0.038188566 -0.107611716 -0.084621996 -0.12280755 0.09583577
0.10745888 -0.06586283 0.052187253 0.08589768 -0.12511458 0.008955325 0.028594147 -0.099861756
-0.048103403 0.05963228 0.07527225 -0.0046386095 0.089693524 0.06781177 -0.048647385 -0.0708139
0.088144615 0.0010065271 0.07270644 0.024521438 -0.02835699 0.054120604 -0.08411013 0.019111719
0.04950137 -0.07742875 0.10498421 -0.008275693 -0.093636006 0.037845433 -0.074819125 -0.079142414
0.0004324241 0.059559193 0.124053605 0.0066377977 0.10800522 0.1144468 -0.034713276 -0.0076847537
-0.12497062 -0.040096108 0.082320474 -0.010379902 -0.01594264 -0.03975136 0.06658183 0.103715435
-0.08003422 0.062321242 -0.0681861 0.08087103 -0.0004387801 -0.058010127 0.08083907 -0.11053119
0.06503336 -0.0062337983 -0.07809218 -0.09399359 -0.07283788 0.0001914036 0.055218253 -0.0042498927
00000000: eaf5 71ba f43b e03d 0df4 26bc a0b4 023e
00000010: 3d27 f03d 4671 863d e8ec f6bd 7f23 24bd
00000020: ee53 e1bd 5fe1 f9bd 201d acbb b03b ff3d
00000030: 5b56 ba3d ccf7 d53c cb18 abbd f3e8 c2bd
00000040: 7d4d 71bd d39d 573d 6e8a 7ebb b7b1 b5bd
00000050: 3e25 803d 82f6 e1bd fe8d 963c c73c 17bd
00000060: ef94 013e a924 f5bd ae06 df3d e1a0 c5bc
00000070: 5866 c4bd 239f 13bd feeb a1bc d9b1 cbbb
00000080: 0593 233d 859a e03d 2d3b c43c b5a5 b13d
00000090: 9c09 ccbd b7ab 82bd c1c8 cdbd bd34 163d
000000a0: e6ec f63d 85d6 e2bd 7046 dbbc 5fdd 4fbc
000000b0: 7c84 99bd ba8e cabd 6918 a43d db20 25bd
000000c0: 2e3c 97bd 3987 90bc 4945 ddbd c006 f73d
000000d0: 0940 e73c fc94 00bd 6307 343d 3459 b23d
000000e0: 5847 6bbc a2d1 653d 55b8 f5bd d018 da3d
000000f0: b33b bc3d 1181 3cbd 66fc 563d 8160 263d
00000100: eef1 eebc 6d02 043e 94c8 1b3d 9a2b c0bd
00000110: 24a7 be3c c67d 16bd 6a3c fbbd 9ac9 c33d
00000120: bec2 d63c fb24 d2bd f889 813d f9c6 76bd
00000130: 0baf ce3d 17a6 58bc fae4 7bbc 41c1 c8bd
00000140: 88eb 84bd 1429 be3d 08c9 833d 55f9 69bd
00000150: a9a4 563c 7a22 e1bc 322a d4bd 42a4 373d
00000160: b8ed 62bd 48d0 ac3d a820 37bc 0fea 1e3d
00000170: 4316 c6bc 04e5 373c 4776 cf3d b245 e6bd
00000180: 1254 003e 379c 173d 8e10 c2bd 7a5d f0bd
00000190: d7bc 033c d481 83bd 7849 013e 1971 82bd
000001a0: ede5 e33d a8a2 a13d f8f0 b2bd df3f 21bd
000001b0: 0ec7 af3d 6458 95bd 453c a6bd 395d 95bd
000001c0: 3a21 adbc 5100 8b3d 18cd 4dbc afe7 db3c
000001d0: 28dc 283d b46e 1abc 9f3b 923d 2298 c33d
000001e0: 4de8 8fbd bf07 7a3d 7f88 c9bc f2fe b2bb
000001f0: 7f95 d7bd ef3a e13d 5eaa 9f3d 53a2 793d
00000200: 9531 88bd 842b 9c3c 1a45 bd3d a610 c73c
00000210: e731 02be 4fc8 a83d eeda da3d de8c e43c
00000220: b7f3 a33d 7ff5 b43d 3f01 cbbd 11cb e5bc
00000230: 465d af3d 7cea f0bc 0bef 00be 7b9c 02be
00000240: 0b58 993d ea40 333c 28ac 853d 0748 e2bd
00000250: 0ac2 9a38 4855 d4bd 4514 7a3d 0f6f a7bd
00000260: 8188 93bd 74ca abbd bd56 a7bd 664e 60bc
00000270: 2cc9 033d f1a2 b73d 0f1e 023e fb40 15bd
00000280: e1e4 eb3c 4908 61bd 7ba3 fcbd f60a 07bd
00000290: 133f cc3d ac3c 3b3d f1c0 67ba 1922 dbbd
000002a0: 2457 84bd 52d2 0b3d 77c2 f83d 59fb d5bb
000002b0: d8b9 99bd 48cd 6e3d 69d5 593c e2de 743d
000002c0: 0802 7dbc 8e04 993d 6bfb 8a3d 0543 b1bd
000002d0: c2c8 e93c 577f c43c 7bd3 e13d 746a dabd
000002e0: d422 c13d afb5 143c 0eb7 983c 9d6b 1c3d
000002f0: 8863 dcbd 4c4e adbd 8682 fbbd 8b45 c43d
00000300: 6713 dc3d 17e3 86bd 4dc2 553d 1feb af3d
00000310: 091e 00be 5bb9 123c 463e ea3c 5284 ccbd
00000320: 1308 45bd fa40 743d 5628 9a3d 7aff 97bb
00000330: 3db1 b73d e6e0 8a3d 7b42 47bd e106 91bd
00000340: 2a85 b43d 72ed 833a 1de7 943d 2fe1 c83c
00000350: eb4c e8bc 91ad 5d3d ef41 acbd 2e90 9c3c
00000360: f3c1 4a3d f792 9ebd f601 d73d c696 07bc
00000370: 3cc4 bfbd d003 1b3d c53a 99bd 6b15 a2bd
00000380: fbb6 e239 57f4 733d d10f fe3d e281 d93b
00000390: d731 dd3d 1563 ea3d 822f 0ebd 63d0 fbbb
000003a0: 99f0 ffbd d13b 24bd a397 a83d 7710 2abc
000003b0: 249a 82bc 52d2 22bd 0e5c 883d c268 d43d
000003c0: fbe8 a3bd 8f44 7f3d 27a5 8bbd b69f a53d
000003d0: 110c e6b9 079c 6dbd f48e a53d 2d5e e2bd
000003e0: 3630 853d e444 ccbb cbee 9fbd b67f c0bd
000003f0: 072c 95bd 83b3 4839 892c 623d af42 8bbb

bias f4 [64]
0.031395655 0.11715755 0.01590192 -0.042721692 -0.018621076 -0.12240093 0.11767095 0.08384617
-0.05558832 0.03359639 0.082846105 -0.05973139 -0.07830163 -0.085581295 -0.12615883 0.12642121
0.0022548598 -0.017191004 0.011504161 -0.095980175 0.09805349 -0.1250712 0.10059756 -0.08165845
0.055827215 -0.00028260387 -0.12420264 0.10715699 0.07623767 0.033748716 0.059679296 -0.12004162
0.032734986 0.050181493 0.08528329 -0.12708458 -0.0018152485 0.09960901 -0.09538214 -0.08254871
0.11771409 0.027289873 -0.026773866 -0.07130548 0.02104233 0.018097112 0.10549998 -0.026959453
0.05428449 0.06618117 0.04296107 -0.08442167 0.04738065 -0.019962225 -0.087216094 -0.046538517
-0.034904495 -0.02416938 -0.010041679 0.10281146 0.059544835 0.04238687 0.06182578 0.11185758
00000000: bb98 003d 4cf0 ef3d be44 823c f1fc 2ebd
00000010: 3a8b 98bc 57ad fabd 78fd f03d 8ab7 ab3d
00000020: 94b0 63bd 5e9c 093d 38ab a93d e7a8 74bd
00000030: 9b5c a0bd 3f45 afbd c82f 01be 9074 013e
00000040: 45c6 133b 26d4 8cbc f37b 3c3c 4191 c4bd
00000050: 45d0 c83d aa12 00be 1806 ce3d 8c3c a7bd
00000060: 14ab 643d 732a 94b9 f45d febd 2075 db3d
00000070: 7f22 9c3d 183c 0a3d 4772 743d 62d8 f5bd
00000080: 1f15 063d 1c8b 4d3d 01a9 ae3d 7622 02be
00000090: a2ed edba cfff cb3d b657 c3bd 4c0f a9bd
000000a0: 1614 f13d 038f df3c de54 dbbc 9c08 92bd
000000b0: f760 ac3c 6540 943c 6010 d83d 12da dcbc
000000c0: 6a59 5e3d fe89 873d f2f7 2f3d 45e5 acbd
000000d0: 3612 423d d287 a3bc 5a9e b2bd 2c9f 3ebd
000000e0: 04f8 0ebd ddfe c5bc db85 24bc d18e d23d
000000f0: 49e5 733d db9d 2d3d 073d 7d3d 9615 e53d

weight f4 [64, 64]
-0.086506516 -0.02410777 -0.09278865 -0.0625346 0.052145034 0.10328178 0.043393537 -0.02888909
-0.057854027 -0.08356866 0.030116603 -0.10055794 0.10018256 -0.0059347004 0.012869835 -0.06404129
-0.052257657 0.041212887 0.023568809 0.062388405 0.081447184 -0.08367501 0.11355443 0.00744392
-0.103909105 0.07095419 -0.070492595 0.096098274 -0.060039684 -0.053769067 0.051765025 0.11931591
-0.0912565 0.05277598 -0.09898783 0.10292527 -0.0040355623 0.07067379 -0.07611579 0.037630066
0.100831285 0.06858629 0.086269036 0.087381944 -0.02857311 -0.103471145 0.014778331 -0.096547216
-0.122006476 0.052245274 0.09032901 0.02743347 -0.10772951 0.009355038 0.09252299 0.016480967
-0.09880926 -0.02537261 -0.08630967 0.007715732 -0.060044184 -0.118906274 0.032896474 -0.03367926
-0.11461383 0.11051145 -0.034204066 -0.10756682 0.043834597 0.103487015 -0.061494097 -0.10606754
-0.014382228 0.1216933 0.12348801 0.04963249 -0.029156253 0.075565815 0.00798583 0.0152834505
0.02503395 -0.0587302 -0.05302511 -0.067138046 -0.03996277 0.022857532 0.0064284503 0.026417255
0.10889049 0.010512754 0.07020815 -0.01865229 -0.0911389 0.059827402 0.12106167 0.07450068
0.0081217885 -0.022931933 -0.11011253 0.096212596 0.08992672 0.02585721 -0.010498211 0.05674672
-0.07747765 0.07933448 -0.101037815 0.12317538 -0.06306632 -0.06398292 0.012685329 -0.036292195
0.03301415 -0.07709594 -0.039515316 0.0043614507 -0.03968188 -0.033770844 -0.00095154345 0.027465686
0.0662234 0.072585285 0.071629435 -0.059493676 -0.081373975 -0.04509969 -0.11063458 -0.099391446
0.062214747 -0.07539259 -0.004834071 0.07078059 0.0988844 0.038578525 -0.025104046 -0.03460671
0.08893971 -0.051127985 0.070101336 0.06416103 -0.056000337 0.0003402382 0.045212492 -0.09802066
0.065597266 0.06189291 -0.108986124 0.11208667 0.11453597 0.07313922 0.0566853 0.08300035
0.006864339 0.009631813 -0.000644505 -0.10848698 -0.022322014 0.073913306 -0.003933683 -0.123309135
0.040110752 0.037552044 0.046852335 0.048124894 0.056763917 0.06544384 0.04169555 -0.06896508
-0.057371378 0.08891839 0.052158102 -0.013421297 0.08554438 -0.033237547 -0.044955745 -0.038764
0.10008609 -0.083075956 0.04418102 -0.0029933304 -0.035877734 -0.10576959 0.07714912 0.046342283
0.074399576 0.098790556 -0.09771234 0.0722719 0.023114488 -0.034537226 -0.10494861 0.09018788
0.013978049 0.0784401 -0.032960862 -0.001902923 0.09595591 -0.043155983 -0.040377468 -0.030676082
-0.087389424 0.08210038 0.006358266 0.018192858 0.074016854 -0.102803946 -0.105509475 -0.106962636
0.036586985 -0.035014153 0.08958028 0.08263296 -0.078772455 0.015186518 -0.08473213 0.047731966
0.012218744 0.022663891 0.019050092 0.00079001486 -0.10607393 -0.008878097 0.055905998 -0.06865987
0.12160167 0.009332582 -0.034772158 -0.0066076666 -0.058623657 0.007285714 -0.02674213 -0.018498123
0.113133594 0.07757132 -0.0035120696 -0.09906958 -0.11134516 -0.1040484 -0.02285406 -0.12105733
0.07605316 -0.11108136 0.017283276 0.104610175 0.08851345 0.049004436 0.016432688 0.050515592
0.104992345 -0.117017716 0.023092225 -0.07606462 0.10867742 0.06368342 -0.08315681 -0.053889096
00000000: 542a b1bd a87d c5bc fa07 bebd 2412 80bd
00000010: 0896 553d 6685 d33d 6cbd 313d d0a8 ecbc
00000020: 58f8 6cbd 0c26 abbd 18b7 f63c 52f1 cdbd
00000030: 842c cd3d e077 c2bb 00dc 523c 1428 83bd
00000040: 200c 56bd d8ce 283d 6013 c13c fc8a 7f3d
00000050: c8cd a63d ce5d abbd 3a8f e83d 20ec f33b
00000060: 4cce d4bd 6e50 913d 6c5e 90bd 2ccf c43d
00000070: 2cec 75bd f43c 5cbd 9007 543d e65b f43d
00000080: b0e4 babd a02b 583d 22ba cabd 7cca d23d
00000090: c03c 84bb 6cbd 903d 98e2 9bbd fc21 1a3d
000000a0: a280 ce3d f876 8c3d d2ad b03d 4ef5 b23d
000000b0: 2812 eabc aee8 d3bd d020 723c 8cba c5bd
000000c0: 88de f9bd 24ff 553d 6afe b83d 28bc e03c
000000d0: 4aa1 dcbd e045 193c b27c bd3d 1803 873c
000000e0: 825c cabd 38da cfbc 20c3 b0bd 40d4 fc3b
000000f0: e4f0 75bd 2285 f3bd 74be 063d 44f3 09bd
00000100: a8ba eabd d453 e23d 9019 0cbd fe4b dcbd
00000110: e88b 333d 00f1 d33d 3ce1 7bbd f039 d9bd
00000120: 70a3 6bbc 563a f93d 48e7 fc3d 704b 4b3d
00000130: 18d9 eebc 40c2 9a3d 00d7 023c 7067 7a3c
00000140: 0014 cd3c 148f 70bd dc30 59bd ac7f 89bd
00000150: 00b0 23bd b83f bb3c c0a5 d23b 0069 d83c
00000160: fa01 df3d b03d 2c3c 4ac9 8f3d b0cc 98bc
00000170: 08a7 babd 940d 753d 2eef f73d d093 983d
00000180: 4011 053c c0db bbbc ae82 e1bd 1c0b c53d
00000190: 802b b83d 80d2 d33c b000 2cbc 406f 683d
000001a0: 9aac 9ebd 1e7a a23d eaec cebd 6043 fc3d
000001b0: ea28 81bd 7a09 83bd 20d6 4f3c 20a7 14bd
000001c0: d839 073d 7ae4 9dbd d0da 21bd 80ea 8e3b
000001d0: 7889 22bd 4c53 0abd 0071 79ba b8ff e03c
000001e0: 22a0 873d 98a7 943d 74b2 923d a4af 73bd
000001f0: 66a7 a6bd 74ba 38bd 6294 e2bd be8d cbbd
00000200: e4d4 7e3d 6e67 9abd 2067 9ebb 6af5 903d
00000210: e883 ca3d 8404 1e3d 00a7 cdbc c4bf 0dbd
00000220: 0626 b63d 946b 51bd 4a91 8f3d dc66 833d
00000230: 9c60 65bd 0062 b239 bc30 393d 0ebf c8bd
00000240: dc57 863d 6c83 7d3d 1e34 dfbd b28d e53d
00000250: d691 ea3d 04ca 953d d82e 683d 16fc a93d
00000260: 40ee e03b c0ce 1d3c 00f4 28ba 6c2e debd
00000270: a8dc b6bc dc5f 973d 20e6 80bb 8089 fcbd
00000280: 2c4b 243d 2cd0 193d 3ce8 3f3d 9c1e 453d
00000290: 4881 683d 6c07 863d f4c8 2a3d 903d 8dbd
000002a0: 40fe 6abd d81a b63d bca3 553d 00e5 5bbc
000002b0: e431 af3d 1824 08bd 8423 38bd 00c7 1ebd
000002c0: f0f9 cc3d ba23 aabd 28f7 343d c02b 44bb
000002d0: 88f4 12bd ba9d d8bd 5c00 9e3d 68d1 3d3d
000002e0: ce5e 983d b452 ca3d 681d c8bd 4a03 943d
000002f0: 985a bd3c e876 0dbd 4cef d6bd 6cb4 b83d
00000300: 3004 653c 34a5 a03d f801 07bd 806b f9ba
00000310: 8884 c43d 54c4 30bd d862 25bd 684c fbbc
00000320: 3af9 b2bd 3e24 a83d 0059 d03b 3009 953c
00000330: 2696 973d e08a d2bd 5a15 d8bd 3a0f dbbd
00000340: 3cdc 153d 006b 0fbd de75 b73d 783b a93d
00000350: 7453 a1bd e0d0 783c 0a88 adbd 9882 433d
00000360: 2031 483c a0a9 b93c f00e 9c3c 0019 4f3a
00000370: 4a3d d9bd 7075 11bc b0fd 643d 8c9d 8cbd
00000380: 4c0a f93d b0e7 183c 406d 0ebd 2085 d8bb
00000390: 5c1f 70bd 00bd ee3b 5012 dbbc 6089 97bc
000003a0: 96b2 e73d b6dd 9e3d c02a 66bb fee4 cabd
000003b0: ee08 e4bd 5417 d5bd 7038 bbbc e8ec f7bd
000003c0: c2c1 9b3d a07e e3bd a895 8d3c dc3d d63d
000003d0: 8a46 b53d e0b8 483d d89d 863c 70e9 4e3d
000003e0: 3a06 d73d fca6 efbd e82b bd3c c4c7 9bbd
000003f0: 4492 de3d 746c 823d 1e4e aabd d0ba 5cbd
