clone_data/rose_clone_200ep_100trn_500_expert_runs/rose_clone_200ep_100trn_500_expert_runs_s0/pyt_save/model.pt (torch, 104138 bytes, 9 tensors)

log_std f4 [2]
-0.5 -0.5
00000000: 0000 00bf 0000 00bf

weight f4 [128, 60]
0.061703254 -0.048555683 0.05772173 0.029768283 0.115154386 0.20428893 0.04860709 -0.20641774
-0.17748709 -0.026445525 0.17845127 -0.15067823 -0.05614836 -0.00305642 -0.01242591 0.04213969
-0.046681363 0.054885548 -0.084622666 -0.025927393 0.036053132 -0.0668907 0.0046991315 0.035774037
-0.03961444 0.016014853 -0.18095538 0.03563534 -0.17503287 -0.20463839 0.049631927 -0.058725763
-0.11139228 -0.06543918 0.1485914 0.049200688 0.02833133 0.0411428 -0.13875245 0.03141625
-0.023318043 0.13119112 0.16855976 0.024067113 -0.19652158 -0.115058 0.06963045 -0.029349025
0.06969903 -0.15526854 -0.14962539 -0.014190243 -0.05814874 -0.0840013 -0.16497737 -0.1037783
-0.07115826 0.04689157 -0.075281896 -0.076035865 0.06693273 -0.10832949 0.06147476 0.036551654
-0.0360457 0.07617244 -0.025034048 -0.18731189 0.26735654 0.17179486 -0.004783861 -0.14573076
0.04150348 0.132207 0.07476956 0.013257572 -0.1969111 0.08249834 -0.06707628 0.05581863
0.101620354 -0.1454314 0.08075136 0.050347775 0.036367573 0.0017398556 -0.03557372 0.038993824
0.051514577 0.1415704 -0.025181659 0.0031423478 0.13333172 0.08590338 -0.041969765 0.06806526
0.06735579 0.11685883 0.11665627 0.10412584 0.004439911 -0.0015282948 -0.011995174 -0.09401148
-0.06503838 -0.20325728 0.16899356 0.030218162 -0.19101195 -0.08265502 -0.10747573 0.14686696
0.110921495 0.05842614 -0.18650131 -0.08592162 -0.057100922 -0.12339265 0.061999135 -0.07092829
-0.08979644 0.06523236 0.18242557 -0.007143703 0.07212812 0.047459684 0.30038708 -0.17815994
-0.010878777 -0.036495797 0.056095075 -0.00947898 -0.08806526 -0.08366297 0.09561619 -0.048252657
-0.18580844 0.0012645215 -0.2160977 -0.057740573 -0.03955403 0.0066311117 -0.11755394 -0.034518383
-0.017305497 -0.102439664 -0.01860987 0.04941053 -0.1746581 -0.18140922 0.10715691 0.15284
0.081630036 -0.1045433 -0.13411592 -0.13305883 0.038569313 0.0495514 -0.059743915 0.09398984
0.12040353 -0.16764188 0.12758356 -0.08259528 -0.25327054 -0.09572104 0.079983406 -0.13621558
-0.034293216 0.16197255 0.09310585 0.0812212 -0.11076468 0.0036304903 0.03635706 0.05653981
-0.03231401 -0.07918235 0.043161616 -0.011187685 0.26833582 -0.1435562 0.033076644 -0.03937678
-0.25321135 -0.21793666 0.049272195 -0.29507068 -0.10154224 0.3887207 0.21629943 0.53619164
0.42451805 -0.0998606 -0.3138158 -0.2897271 0.085039996 0.29704514 0.19751959 0.08062019
-0.11649208 -0.038855366 -0.17235617 -0.11302384 -0.052360706 0.089146584 0.040928047 0.37394235
-0.0017661414 -0.074310414 -0.1331469 0.03768767 0.4590445 0.25984415 -0.29728565 -0.02858532
0.14447004 0.11090794 0.25994483 0.060578037 0.09788964 -0.04075027 -0.08337755 0.12757543
-0.024548555 0.1187007 0.15341584 -0.01798693 0.08100784 0.0044839736 -0.18321805 0.14256468
0.13912576 0.21821506 0.18990465 -0.059137855 0.11768173 -0.38334465 0.23638986 0.07047589
-0.10599212 -0.034708086 0.17719676 0.053880308 -0.1661858 0.0440491 0.119717106 -0.12435426
-0.14867975 -0.04370094 -0.1069502 -0.021765053 -0.12821974 -0.036020495 -0.03337656 -0.06007588
00000000: 8dbc 7c3d 53e2 46bd 9f6d 6c3d 9ddc f33c
00000010: 10d6 eb3d 1e31 513e 3a18 473d 2c5f 53be
00000020: 2dbf 35be 49a4 d8bc eebb 363e 654b 1abe
00000030: d3fb 65bd 384e 48bb 0b96 4bbc ab9a 2c3d
00000040: f534 3fbd abcf 603d a64e adbd af65 d4bc
00000050: 73ac 133d fefd 88bd 2cfb 993b cc87 123d
00000060: c042 22bd 9531 833c 5e4c 39be 5df6 113d
00000070: d13b 33be ba8c 51be d94a 4b3d 6d8a 70bd
00000080: a321 e4bd fa04 86bd 5828 183e a986 493d
00000090: 1b17 e83c 5a85 283d 1f15 0ebe 53ae 003d
000000a0: 7b05 bfbc f756 063e ee9a 2c3e 6528 c53c
000000b0: f43c 49be 87a3 ebbd 699a 8e3d 5e6d f0bc
000000c0: 5dbe 8e3d b7fe 1ebe 6637 19be 317e 68bc
000000d0: 602d 6ebd e008 acbd d4ef 28be b889 d4bd
000000e0: 6cbb 91bd 6011 403d 652d 9abd b1b8 9bbd
000000f0: 0714 893d dadb ddbd f5cc 7b3d 30b7 153d
00000100: a8a4 13bd 4c00 9c3d 3414 cdbc b0ce 3fbe
00000110: f5e2 883e feea 2f3e efc1 9cbb 723a 15be
00000120: 8eff 293d 4661 073e c820 993d 4a36 593c
00000130: 10a3 49be e4f4 a83d 4a5f 89bd 13a2 643d
00000140: 551e d03d f8eb 14be f860 a53d 7839 4e3d
00000150: 2af6 143d de0b e43a c0b5 11bd fdb7 1f3d
00000160: f300 533d d5f7 103e c449 cebc d9ef 4d3b
00000170: 1c88 083e 1cee af3d 7de8 2bbd cd65 8b3d
00000180: d5f1 893d af53 ef3d 7ce9 ee3d ee3f d53d
00000190: ac7c 913b 1051 c8ba 6887 44bc 1789 c0bd
000001a0: d832 85bd ad22 50be a60c 2d3e 148c f73c
000001b0: a398 43be 0947 a9bd 3c1c dcbd 4b64 163e
000001c0: cf2a e33d 4050 6f3d 33fa 3ebe adf7 afbd
000001d0: a8e2 69bd 49b5 fcbd cef2 7d3d da42 91bd
000001e0: 32e7 b7bd 8b98 853d c5cd 3a3e b915 eabb
000001f0: e8b7 933d 1665 423d 56cc 993e 8f6f 36be
00000200: e63c 32bc 9e7c 15bd f3c3 653d b94d 1bbc
00000210: 8f5b b4bd 7e57 abbd 6cd2 c33d 94a4 45bd
00000220: 9144 3ebe 4dbe a53a b748 5dbe 6181 6cbd
00000230: 6803 22bd cc49 d93b 1fc0 f0bd 2663 0dbd
00000240: 42c4 8dbc e3cb d1bd ba73 98bc b262 4a3d
00000250: 93d9 32be 57c3 39be 1575 db3d 1782 1c3e
00000260: a62d a73d cc1a d6bd af55 09be 9340 08be
00000270: dbfa 1d3d 69f6 4a3d 09b6 74bd bf7d c03d
00000280: 2096 f63d 50aa 2bbe 44a5 023e b727 a9bd
00000290: adac 81be 6509 c4bd 57ce a33d 197c 0bbe
000002a0: 0b77 0cbd 22dc 253e 48ae be3d 4d57 a63d
000002b0: 98d8 e2bd 85ed 6d3b 24eb 143d 4a96 673d
000002c0: b25b 04bd 5b2a a2bd 3cca 303d 8d4c 37bc
000002d0: 5063 893e 6600 13be 607b 073d 8c49 21bd
000002e0: eba4 81be ca2a 5fbe a4d1 493d 8113 97be
000002f0: 61f5 cfbd 6606 c73e 997d 5d3e db43 093f
00000300: 6e5a d93e b783 ccbd 77ac a0be 1c57 94be
00000310: 7329 ae3d 4d16 983e 9342 4a3e 331c a53d
00000320: 6693 eebd ce26 1fbd 237e 30be 0b79 e7bd
00000330: 2e78 56bd 7c92 b63d 2ba4 273d 5f75 bf3e
00000340: df7d e7ba 0f30 98bd a957 08be 635e 1a3d
00000350: e107 eb3e 4b0a 853e d335 98be c32b eabc
00000360: f4ef 133e b423 e33d 7d17 853e ad20 783d
00000370: 5d7a c83d c1e9 26bd d9c1 aabd 22a3 023e
00000380: 0d1a c9bc 5a19 f33d 0b19 1d3e 5459 93bc
00000390: 70e7 a53d 4cee 923b 839d 3bbe 7afc 113e
000003a0: fc76 0e3e c573 5f3e 5d76 423e 893a 72bd
000003b0: 1e03 f13d c045 c4be 2f10 723e aa55 903d
000003c0: 6612 d9bd 112a 0ebd 1173 353e 99b1 5c3d
000003d0: 9c2c 2abe d46c 343d 3e2e f53d 72ad febd
000003e0: 813f 18be c2ff 32bd b508 dbbd a04c b2bc
000003f0: 094c 03be 3a8a 13bd dcb5 08bd 2012 76bd

bias f4 [128]
0.1310127 0.17282166 -0.028050955 0.16260062 -0.078446366 -0.048088025 0.13433048 -0.07238318
0.0047406 -0.15638617 0.11622373 0.084728494 0.12906016 -0.047671564 0.027860053 -0.15247579
0.0861903 0.09375124 -0.024523027 0.062003728 0.021014484 -0.07381046 -0.026709082 0.10161914
-0.1168563 0.16170841 0.07280298 0.14986353 -0.05532509 -0.104161255 0.08736599 0.008718034
-0.06765601 -0.055301018 -0.07287765 0.15842873 -0.06912819 0.089203045 -0.02033786 0.030602474
-0.032355927 -0.023350393 0.026705293 0.028002637 0.1144059 0.03253484 0.07438104 0.08991887
0.004731906 0.07857491 0.038476214 0.037833016 -0.0749307 0.05190963 0.11994184 0.08400513
-0.071163215 -0.0394546 0.083720036 0.12433274 -0.06626125 0.07297544 -0.0007195248 0.04980249
-0.04623319 0.05989456 -0.02751706 -0.18810263 -0.009807127 -0.080800064 0.078081004 0.12761821
-0.040074736 0.051355913 -0.063456945 0.15068938 0.09106312 0.10401398 -0.03752432 0.18127483
0.06438194 -0.09180058 -0.12648717 0.08547008 0.11311191 0.0055580153 -0.07717237 0.13315031
-0.03925124 0.052078195 0.09568678 0.072151706 0.10342267 -0.06162698 -0.023448192 0.020435186
-0.114829555 0.06513326 -0.009149428 -0.037735395 0.11430204 -0.086558275 -0.19046146 0.046354033
0.027543053 -0.082022816 -0.03856916 0.1635022 -0.044447277 -0.119422965 0.07570151 -0.012072655
0.090792775 0.101364724 -0.0040513678 0.012657194 0.14892446 -0.04408493 0.12840657 0.013378371
0.1555358 0.03184569 -0.022240814 -0.04489792 0.0655522 0.10153143 0.080339424 0.06349785
00000000: 3128 063e 29f8 303e 1ecb e5bc c780 263e
00000010: 7da8 a0bd f3f7 44bd ee8d 093e a23d 94bd
00000020: 0957 9b3b b223 20be b506 ee3d 2286 ad3d
00000030: 5928 043e 4243 43bd c43a e43c 9d22 1cbe
00000040: 8a84 b03d a600 c03d 84e4 c8bc 9ff7 7d3d
00000050: 9126 ac3c f029 97bd 01cd dabc b21d d03d
00000060: 5b52 efbd e496 253e bb19 953d d375 193e
00000070: 909c 62bd 7f52 d5bd f1ec b23d 16d6 0e3c
00000080: 3c8f 8abd 5283 62bd e140 95bd 243b 223e
00000090: 1593 8dbd 16b0 b63d 959b a6bc 0ab2 fa3c
000000a0: a687 04bd 5349 bfbc 0fc5 da3c c965 e53c
000000b0: a44d ea3d 4143 053d 1655 983d 6227 b83d
000000c0: 1b0e 9b3b e2eb a03d 3c99 1d3d cbf6 1a3d
000000d0: 4475 99bd 319f 543d 11a4 f53d e20a ac3d
000000e0: 05be 91bd 269b 21bd 6975 ab3d 2aa2 fe3d
000000f0: fab3 87bd 2674 953d 7e9e 3cba b2fd 4b3d
00000100: 035f 3dbd 0054 753d 756b e1bc fa9d 40be
00000110: 12ae 20bc 817a a5bd efe8 9f3d 59ae 023e
00000120: 6825 24bd 945a 523d b7f5 81bd 514e 1a3e
00000130: 4d7f ba3d 4805 d53d 1ab3 19bd 1ca0 393e
00000140: aeda 833d f101 bcbd da85 01be f00a af3d
00000150: 38a7 e73d 0320 b63b 8c0c 9ebd 8e58 083e
00000160: e9c5 20bd f24f 553d 6ef7 c33d 46c4 933d
00000170: 44cf d33d 926c 7cbd 6c16 c0bc b167 a73c
00000180: c22b ebbd 9664 853d 7ce7 15bc 6e90 1abd
00000190: 3017 ea3d 7745 b1bd 5408 43be badd 3d3d
000001a0: f8a1 e13c 94fb a7bd b2fa 1dbd 1f6d 273e
000001b0: 590e 36bd 0794 f4bd 6509 9b3d 63cc 45bc
000001c0: 90f1 b93d 4f98 cf3d 56c1 84bb 1f60 4f3c
000001d0: a77f 183e 6692 34bd 037d 033e f430 5b3c
000001e0: c744 1f3e a070 023d 5e32 b6bc e2e6 37bd
000001f0: 3b40 863d b6ef cf3d ff88 a43d 290b 823d

weight f4 [128, 128]
-0.03895202 0.09670741 0.05670086 0.06899974 -0.006222845 0.33357504 0.016857103 -0.044196572
-0.08245422 -0.04735951 -0.41035813 -0.022260102 -0.030565588 0.22095075 -0.119185194 -0.08143844
0.113139324 0.075398244 0.039140634 -0.24441642 -0.022675334 0.01175852 0.025809616 -0.39453137
-0.12377639 -0.0033505387 -0.017571796 0.0347143 -0.0555436 0.043383967 -0.017567946 0.065931804
0.028843777 0.062624216 -0.025775794 0.017076822 0.025256343 0.029011523 0.09670561 -0.082268775
0.046915006 0.059928905 -0.31318825 0.07758151 -0.062580235 -0.06132063 0.051311396 0.100685924
0.03640517 -0.055406477 0.06335678 0.07911749 -0.074306406 0.1971819 0.18766202 -0.11634624
0.0014454956 0.184692 0.0051630614 -0.19193183 -0.094037466 0.09912168 -0.41649938 0.09611678
-0.10848355 0.091258585 -0.118852526 0.13780832 0.2273646 0.014730839 0.3208516 0.16802427
-0.30654958 0.023842506 -1.1526175 -0.03875558 0.0032793288 -0.051164694 0.09042932 0.0112006385
-0.0050980216 -0.29454666 -0.045772817 0.04648166 -0.01557716 -0.013822959 -0.013153001 -0.040420305
0.06334841 -0.29650867 -0.0036970696 -0.067038074 0.32765344 0.027500378 0.006571402 -0.22770712
0.033392604 0.17875989 -0.14901118 0.09388348 0.08822271 0.042430572 0.024780918 0.0063155205
0.21159442 0.11273583 -0.07593013 -0.067906365 0.07516501 0.0026559522 0.19026789 -0.0022742385
-0.15310024 -0.008052474 0.05526331 -0.013341283 -0.015947914 -0.01674822 0.06599207 0.057920966
0.035406005 -0.042141795 0.07876767 0.06639922 -0.00615133 -0.013591108 -0.10290103 -0.027922085
-0.105350345 -0.1335843 0.010599675 0.09068203 0.001907567 -0.18484443 -0.00031439666 0.05179398
-0.004706849 0.15691987 0.073288284 -0.034259573 -0.024736224 0.003906662 -0.01236139 -0.033073157
0.023803387 0.3427545 0.0016011399 0.12957005 0.10013417 -0.01297701 -0.014015891 0.005648548
0.06295763 -0.09210725 -0.10404892 -0.0408465 -0.17203432 0.052044075 -0.041541923 -0.0688135
0.06848535 0.05121401 0.0046731657 0.037028365 -0.005015697 -0.015453375 0.019105384 0.0628133
-0.23204058 -0.0997666 -0.008790987 -0.0002014386 -0.05956324 -0.034377966 -0.01838971 -0.06744709
-0.12360495 -0.095101126 0.056317914 -0.0049276953 -0.025301112 -0.08312067 -0.022029672 -0.014157841
0.088004716 -0.13814518 0.041055396 0.08631147 -0.017244453 -0.08446108 0.07470641 -0.020142047
0.06190726 -0.020641368 -0.01414797 -0.2680897 -0.029787976 -0.009553338 0.008810269 -0.05195966
0.058655724 0.019440446 -0.07588199 -0.05292467 0.10342485 -0.078246914 0.010534144 -0.022546
-0.10100225 -0.025487624 -0.03697127 -0.10395296 -0.061730675 -0.11010944 0.0179965 -0.033834595
0.055375747 0.045913104 -0.04725608 0.011138895 0.008470196 -0.082395434 -0.06628851 0.05816088
-0.012875303 -0.1912082 0.073102966 -0.057523064 -0.08234074 -0.034661576 0.07788173 -0.096749246
-0.02536381 0.02607998 -0.010573738 -0.04097481 0.022755696 0.05264571 -0.12592572 -0.017596029
-0.05455174 -0.12639341 -0.016597636 0.038075052 -0.0975353 -0.096935265 0.061947387 -0.04238055
-0.054670315 0.03685836 -0.06295479 -0.14703296 0.0019966771 0.041852195 0.11565697 -0.103273936
00000000: 278c 1fbd 890e c63d 293f 683d bc4f 8d3d
00000010: 02e9 cbbb 59ca aa3e e817 8a3c 7707 35bd
00000020: c2dd a8bd 0cfc 41bd 761a d2be d15a b6bc
00000030: af64 fabc ea40 623e 5e17 f4bd 32c9 a6bd
00000040: 97b5 e73d 656a 9a3d ee51 203d 4c48 7abe
00000050: 9fc1 b9bc cfa6 403c b06e d33c 0400 cabe
00000060: 7a7e fdbd b694 5bbb baf2 8fbc 9530 0e3d
00000070: b081 63bd 63b3 313d a7ea 8fbc 4107 873d
00000080: c949 ec3c 2041 803d c227 d3bc b1e4 8b3c
00000090: 64e6 ce3c 93a9 ed3c 970d c63d 887c a8bd
000000a0: f329 403d 0378 753d 365a a0be 0ee3 9e3d
000000b0: 112a 80bd 572b 7bbd e62b 523d 6c34 ce3d
000000c0: 961d 153d e7f1 62bd 33c1 813d 5a08 a23d
000000d0: f52d 98bd 0dea 493e 792a 403e f046 eebd
000000e0: c976 bd3a e61f 3d3e e62e a93b c789 44be
000000f0: b796 c0bd 4f00 cb3d 683f d5be e0d8 c43d
00000100: a02c debd c8e5 ba3d f468 f3bd a01d 0d3e
00000110: 44d2 683e 9e59 713c a946 a43e 8e0e 2c3e
00000120: 11f4 9cbe 5c51 c33c f888 93bf 2cbe 1ebd
00000130: 02ea 563b 1292 51bd 0233 b93d e282 373c
00000140: 4e0d a7bb d2ce 96be 477c 3bbd 8e63 3e3d
00000150: 5837 7fbc b179 62bc af7f 57bc c38f 25bd
00000160: d0bc 813d fccf 97be 894a 72bb 424b 89bd
00000170: 31c2 a73e 7948 e13c ea54 d73b 0e2c 69be
00000180: afc6 083d d50c 373e 6396 18be fb45 c03d
00000190: 1cae b43d aecb 2d3d 5a01 cb3c 6df2 ce3b
000001a0: 35ac 583e 0be2 e63d 4281 9bbd 7e12 8bbd
000001b0: 1df0 993d 7c0f 2e3b 96d5 423e 640b 15bb
000001c0: 4fc6 1cbe 86ee 03bc c85b 623d 6695 5abc
000001d0: 33a5 82bc 9033 89bc da26 873d 893e 6d3d
000001e0: e305 113d e09c 2cbd f250 a13d 50fc 873d
000001f0: 1991 c9bb 3dad 5ebc c6bd d2bd dbbc e4bc
00000200: ecc1 d7bd 53ca 08be 42aa 2d3c 80b7 b93d
00000210: 5407 fa3a dc47 3dbe 9bd5 a4b9 ed25 543d
00000220: e93b 9abb 9aaf 203e 2b18 963d c453 0cbd
00000230: 9fa3 cabc 7503 803b 6d87 4abc b877 07bd
00000240: 52ff c23c 857d af3e 57dd d13a 03ae 043e
00000250: 2513 cd3d 869d 54bc e8a2 65bc 7417 b93b
00000260: eeef 803d baa2 bcbd 9a17 d5bd a94e 27bd
00000270: c429 30be 2b2c 553d dd27 2abd 18ee 8cbd
00000280: 0c42 8c3d c8c5 513d 5b21 993b 0eab 173d
00000290: b75a a4bb 2730 7dbc e582 9c3c 42a4 803d
000002a0: 0c9c 6dbe 6e52 ccbd 1208 10bc 4339 53b9
000002b0: 95f8 73bd e9cf 0cbd 04a6 96bc b321 8abd
000002c0: 9824 fdbd 61c4 c2bd 9dad 663d 8178 a1bb
000002d0: 4744 cfbc 2b3b aabd 9277 b4bc 4af6 67bc
000002e0: d13b b43d ee75 0dbe b429 283d 11c4 b03d
000002f0: 3d44 8dbc eef9 acbd adff 983d ef00 a5bc
00000300: 7892 7d3d 1618 a9bc e3cc 67bc 0e43 89be
00000310: ea05 f4bc 9b85 1cbc f258 103c a7d3 54bd
00000320: fc40 703d 9241 9f3c 0468 9bbd 8ac7 58bd
00000330: 68d0 d33d eb3f a0bd 6797 2c3c 64b2 b8bc
00000340: 45da cebd 6ccb d0bc 306f 17bd 4ae5 d4bd
00000350: 4ed9 7cbd 0f81 e1bd 656d 933c 2596 0abd
00000360: aed1 623d 610f 3c3d 978f 41bd e97f 363c
00000370: 94c6 0a3c f0be a8bd 45c2 87bd 1a3a 6e3d
00000380: eff2 52bc 15cc 43be 02b7 953d 4e9d 6bbd
00000390: 43a2 a8bd 4cf9 0dbd 7580 9f3d 7824 c6bd
000003a0: c4c7 cfbc afa5 d53c 793d 2dbc 34d5 27bd
000003b0: 276a ba3c 07a3 573d acf2 00be 8c25 90bc
000003c0: a571 5fbd 466d 01be c4f7 87bc 96f4 1b3d
000003d0: 96c0 c7bd ff85 c6bd 8bbc 7d3d 3a97 2dbd
000003e0: fbed 5fbd cbf8 163d 71ee 80bd cf8f 16be
000003f0: afda 023b 356d 2b3d 90dd ec3d 4981 d3bd

bias f4 [128]
-0.06908323 -0.13467032 -0.068832874 -0.081001095 -0.07016661 0.04192445 0.056770302 -0.015930306
0.15989266 0.0021310057 0.0312597 0.09485548 -0.03956142 0.005813968 0.009398162 -0.0369428
0.021721706 -0.05668296 0.13095309 -0.012775381 0.037284195 0.12560269 -0.059802156 -0.0028515614
0.09270738 0.08434978 0.10646317 0.037905768 0.014352931 -0.070980966 0.033219717 0.052108575
0.018405791 -0.046326052 -0.062136922 0.06660369 0.054770313 0.017084522 -0.03746512 -0.079050645
-0.07274789 -0.045383602 0.10838372 -0.061128043 0.011520398 0.055300023 0.07545703 0.061559517
0.08340154 0.04942602 0.09201469 -0.03808291 0.04312711 -0.015886039 -0.021392541 0.10899331
-0.0677506 -0.012559342 -0.13759893 -0.084241524 0.062538035 -0.095136635 0.121387646 0.12772617
-0.07869023 0.017517244 0.007010687 -0.027779175 0.12450903 0.08867392 0.014485636 0.07104498
0.06074723 -0.045977686 -0.024865525 0.05008503 0.020246925 0.041861057 -0.029315144 -0.11407185
0.13043286 0.030589659 0.06882765 -0.023305979 0.043977484 0.083932094 -9.508191e-05 -0.021632526
0.0662134 -0.09387391 0.0758062 0.03675495 -0.09169246 -0.021021836 0.124459445 0.084506035
0.13018154 0.092612594 0.08108807 0.06940139 0.074306995 -0.06899553 -0.026600095 -0.010115092
0.06766386 0.061690252 0.12946881 0.040558994 -0.0706262 0.070313446 0.044535894 0.059749316
0.081493504 0.011985476 0.06848962 -0.01429498 0.015895994 -0.029888038 -0.008087417 -0.045319088
0.10917499 0.115588605 0.053141646 0.036181003 -0.02485687 0.08148192 -0.02307342 -0.018984955
00000000: 827b 8dbd 04e7 09be 40f8 8cbd e7e3 a5bd
00000010: 83b3 8fbd f9b8 2b3d fa87 683d 4680 82bc
00000020: e7ba 233e 58a8 0b3b 2c0a 003d 9743 c23d
00000030: 280b 22bd 1983 be3b c0fa 193c 5551 17bd
00000040: b8f1 b13c 642c 68bd 9118 063e d54f 51bc
00000050: 50b7 183d fe9d 003e 1bf3 74bd 43e1 3abb
00000060: 5edd bd3d 94bf ac3d 5d09 da3d 1443 1b3d
00000070: 8e28 6b3c 785e 91bd 6611 083d cd6f 553d
00000080: bec7 963c 63c0 3dbd 4983 7ebd 8467 883d
00000090: d656 603d d7f4 8b3c 0775 19bd 4ee5 a1bd
000000a0: d9fc 94bd 28e4 39bd 49f8 dd3d 6661 7abd
000000b0: 0dc0 3c3c 4782 623d 3789 9a3d d525 7c3d
000000c0: 6dce aa3d f072 4a3d 3372 bc3d d3fc 1bbd
000000d0: 0da6 303d 7023 82bc 693f afbc e237 df3d
000000e0: d4c0 8abd b3c5 4dbc bce6 0cbe d286 acbd
000000f0: f113 803d ffd6 c2bd 169a f83d a6ca 023e
00000100: 5828 a1bd 5380 8f3c e8b9 e53b 2791 e3bc
00000110: 97fe fe3d ac9a b53d 2955 6d3c 0880 913d
00000120: 16d2 783d 1953 3cbd c9b2 cbbc f625 4d3d
00000130: e1dc a53c 8076 2b3d 5026 f0bc 819e e9bd
00000140: 3190 053e 2a97 fa3c 83f5 8c3d 2eec bebc
00000150: bc21 343d 97e4 ab3d b666 c7b8 b236 b1bc
00000160: e49a 873d f740 c0bd 4840 9b3d 5c8c 163d
00000170: 42c9 bbbd fc35 acbc 98e4 fe3d 8011 ad3d
00000180: 4f4e 053e acab bd3d 8111 a63d 5122 8e3d
00000190: 442e 983d 874d 8dbd 71e8 d9bc c5b9 25bc
000001a0: 5a93 8a3d ebae 7c3d 7993 043e 3021 263d
000001b0: 78a4 90bd 7f00 903d 456b 363d b3bb 743d
000001c0: 11e6 a63d bb5e 443c 4944 8c3d 7e35 6abc
000001d0: 5138 823c c2d7 f4bc 1681 04bc 82a0 39bd
000001e0: 2397 df3d b8b9 ec3d 0eab 593d 8832 143d
000001f0: a2a0 cbbc fedf a63d 7804 bdbc 5686 9bbc

weight f4 [2, 128]
0.18249078 0.10585651 0.11393178 0.094686225 0.5230019 -0.14262342 -0.081140526 0.03483781
-0.23229139 0.12578215 -0.07794171 -0.18000534 0.14634621 0.03571017 -0.19905521 0.0010734127
-0.08797068 0.08723648 -0.12034494 -0.069226205 -0.15876038 -0.13319607 -0.10064807 -0.16139723
0.027900888 -0.11613186 -0.17956181 -0.08540661 -0.10959821 0.08071069 -0.05555464 -0.11562776
-0.07712032 0.11093295 0.0030413263 -0.06658348 -0.19924766 -0.05790869 -0.0020259186 0.07597543
0.19535029 0.12495828 -0.12640561 -0.054331724 -0.12583499 -0.110826336 -0.11009262 -0.13008873
-0.24364683 -0.15654863 -0.2343327 -0.05445205 -0.30893934 -0.10714909 -0.23617335 -0.23173432
0.081931904 0.085162714 0.119792566 0.042356018 -0.017325718 0.109967105 -0.088298105 -0.15432547
0.1437404 0.40887043 -0.21149082 -0.074142426 -0.24631801 0.05230935 0.29466733 -0.1095807
-0.10616101 0.7446689 -0.008596163 -0.10144941 -0.032965306 -0.098046295 -0.080474146 0.013643535
-0.13396545 0.15617149 -0.10122571 -0.116175935 -0.025082557 0.17937204 -0.008950005 0.08187021
-0.08130278 0.08540022 -0.16727448 0.039866585 0.06849729 0.060589228 -0.22526552 -0.14542268
-0.15377666 -0.16646606 -0.1845788 -0.23194978 -0.18466504 -0.11626125 0.14059912 -0.21427721
-0.15479238 -0.19860499 -0.1332118 -0.12877667 0.15615167 0.014918842 -0.019488804 0.1786201
0.01941237 -0.14147472 0.07328769 0.0067676087 0.14774671 0.12063396 -0.17511462 0.19257413
-0.09896057 -0.16481298 -0.21989563 0.118246555 -0.04015879 -0.11227105 0.074654266 -0.12984617
-0.22439528 0.11199989 0.010821102 0.08568498 -0.28879538 -0.062414046 -0.017966697 -0.018705254
-0.059201166 -0.28149244 0.065805465 -0.08249924 -0.017504063 -0.014210705 0.08550812 -0.0016050194
-0.086137384 0.07922755 -0.03745085 0.22923146 -0.07120772 -0.028556062 0.03576866 0.051975984
-0.27989355 -0.13910168 0.00697886 0.6504214 -0.09070114 0.010005369 0.009360132 -0.015238229
0.041554466 -0.05911933 0.017771365 -0.10646187 0.00789405 0.05872952 0.13454373 0.104226254
-0.48204392 -0.017502366 -0.11519954 0.21700813 -0.12547417 -0.046503313 0.06296378 0.0010590083
-0.10958006 -0.02641637 -0.005728606 0.029881872 -0.14623941 0.22299747 -0.09019436 -0.1265024
-0.0766376 6.2878964e-05 0.06478265 0.035226014 -0.017888365 -0.0402168 0.106439285 0.04694206
0.07695398 -0.2346671 -0.072862215 0.2474499 -0.10518441 -0.22318353 0.03399906 0.22314031
-0.05701587 0.026662549 -9.652551e-06 -0.07868225 0.1683361 0.0058337306 -0.024393344 -0.003193034
-0.1334232 -0.20583773 0.003325245 -0.15824644 0.17202006 -0.230961 0.11206052 0.05127475
0.16432537 -0.12521178 0.12947237 0.009809579 0.045008272 -0.017313955 -0.089649245 -0.01799529
-0.0002777091 -0.1771411 -0.16456746 -0.111704156 0.018140674 1.0688335 0.041506454 -0.14196263
0.04925849 0.17529632 0.055402935 -0.008412755 0.03884952 -0.17823367 0.18268625 -0.022480315
-0.28423733 -0.037384782 0.22947037 0.16366841 0.059799176 0.08425327 -0.0020836662 0.32322103
0.087075874 -0.1406726 -0.15658407 -0.012378752 0.21913402 -0.020240037 0.029572744 -0.12893522
00000000: ddde 3a3e 4ccb d83d 1155 e93d daea c13d
00000010: 74e3 053f e00b 12be 012d a6bd 17b2 0e3d
00000020: cbdd 6dbe 09cd 003e e79f 9fbd 5253 38be
00000030: c8db 153e d444 123d 21d5 4bbe c1b1 8c3a
00000040: f929 b4bd 0aa9 b23d 6877 f6bd 78c6 8dbd
00000050: 1592 22be 8d64 08be 9320 cebd 5145 25be
00000060: 6790 e43c 8ad6 edbd 0ddf 37be a9e9 aebd
00000070: 0775 e0bd a54b a53d 438d 63bd 3fce ecbd
00000080: 42f1 9dbd d130 e33d fd50 473b eb5c 88bd
00000090: 9407 4cbe aa31 6dbd 46c5 04bb 0299 9b3d
000000a0: e809 483e 20ea ff3d 7970 01be f18a 5ebd
000000b0: e3da 00be ebf8 e2bd 3d78 e1bd fb35 05be
000000c0: 8e7e 79be 494e 20be e9f4 6fbe 1d09 5fbd
000000d0: 4c2d 9ebe fb70 dbbd 6dd7 71be c34b 6dbe
000000e0: eacb a73d ca69 ae3d ce55 f53d 817d 2d3d
000000f0: aaee 8dbc 6f36 e13d a3d5 b4bd 7f07 1ebe
00000100: af30 133e 7757 d13e 0d91 58be fcd7 97bd
00000110: ca3a 7cbe 5442 563d a3de 963e d96b e0bd
00000120: f26a d9bd 9fa2 3e3f ecd6 0cbc b5c4 cfbd
00000130: a106 07bd 7fcc c8bd a1cf a4bd 2289 5f3c
00000140: 3d2e 09be 6beb 1f3e 6d4f cfbd a6ed edbd
00000150: ef79 cdbc 4ead 373e 0ba3 12bc 92ab a73d
00000160: 1282 a6bd 4fe6 ae3d 004a 2bbe 254b 233d
00000170: 4f48 8c3d 692c 783d 01ac 66be afe9 14be
00000180: a177 1dbe 1476 2abe 3a02 3dbe 3e84 6dbe
00000190: d518 3dbe 611a eebd 37f9 0f3e 7c6b 5bbe
000001a0: e581 1ebe 1b5f 4bbe ad68 08be 08de 03be
000001b0: 39e6 1f3e 296e 743c fca6 9fbc 30e8 363e
000001c0: b106 9f3c c0de 10be db17 963d d1c2 dd3b
000001d0: ea4a 173e f00e f73d 3f51 33be 2732 453e
000001e0: d7ab cabd bcc4 28be 522c 61be 402b f23d
000001f0: 8b7d 24bd 5dee e5bd 56e4 983d 65f6 04be
00000200: e0c7 65be 3360 e53d fe4a 313c 9b7b af3d
00000210: fddc 93be dfa5 7fbd e52e 93bc c33b 99bc
00000220: ec7c 72bd c71f 90be 04c5 863d 5df5 a8bd
00000230: ae64 8fbc 04d4 68bc e21e af3d 845f d2ba
00000240: cc68 b0bd 0e42 a23d 1066 19bd a7bb 6a3e
00000250: 5ad5 91bd 67ee e9bc 2982 123d c5e4 543d
00000260: 354e 8fbe ac70 0ebe ecae e43b 0482 263f
00000270: 85c1 b9bd 8fed 233c 3d5b 193c c4a9 79bc
00000280: 0435 2a3d 1c27 72bd 4195 913c ae08 dabd
00000290: 0c56 013c 5d8e 703d d5c5 093e 9374 d53d
000002a0: 76ce f6be 1f61 8fbc bded ebbd 6137 5e3e
000002b0: 4d7c 00be 427a 3ebd 27f3 803d 6cce 8a3a
000002c0: 836b e0bd 2567 d8bc 08b7 bbbb d4ca f43c
000002d0: c9bf 15be 7359 643e d2b7 b8bd d889 01be
000002e0: 2df4 9cbd e3dd 8338 c4ac 843d 2749 103d
000002f0: 9f8a 92bc 5fba 24bd d7fc d93d 5146 403d
00000300: 0c9a 9d3d 924c 70be c938 95bd 8263 7d3e
00000310: ed6a d7bd 398a 64be 9942 0b3d e57e 643e
00000320: 7989 69bd 6b6b da3c 64f1 21b7 2924 a1bd
00000330: 4c60 2c3e e128 bf3b 8dd4 c7bc 3942 51bb
00000340: 17a0 08be 20c7 52be 5bec 593b 5b0b 22be
00000350: 0726 303e 0a81 6cbe fc7f e53d 7905 523d
00000360: e944 283e 8437 00be 6894 043e 5bb8 203c
00000370: 985a 383d ffd5 8dbc 069a b7bd dc6a 93bc
00000380: 7c99 91b9 7a64 35be 5f84 28be 26c5 e4bd
00000390: c09b 943c 89cf 883f ac02 2a3d a75e 11be
000003a0: 45c3 493d e180 333e 30ee 623d a7d5 09bc
000003b0: ad20 1f3d e382 36be 1b12 3b3e a328 b8bc
000003c0: 8e87 91be c920 19bd 48fa 6a3e b198 273e
000003d0: fbef 743d fa8c ac3d 1e8e 08bb 3a7d a53e
000003e0: d654 b23d 7a0c 10be 9357 20be 40d0 4abc
000003f0: ab64 603e 6fce a5bc 8a42 f23c 9807 04be

bias f4 [2]
-0.21481529 -0.091424085
00000000: 8af8 5bbe 8d3c bbbd

weight f4 [2, 128]
-0.02070763 0.00914913 -0.033073056 0.067238316 -0.0046095103 0.05080289 -0.012259476 -0.030006431
-0.011990385 -0.011014206 0.0002193804 0.04664944 0.057685167 0.0023122274 0.012332273 0.00043161993
-0.008394455 -0.040191207 -0.05706478 -0.017550679 -0.027856471 0.057867993 0.024784377 -0.0464495
-0.047572166 -0.008348397 -0.060567386 -0.0037292505 -0.025138581 -0.010929568 0.01636681 -0.025679251
0.028796552 -0.037608102 0.001488372 -0.022661734 0.03450034 -0.004124124 0.010708813 0.01760822
0.008246661 -0.027567038 0.018843573 0.026450582 0.012267447 -0.013625688 0.045010813 0.045408014
-0.015664147 0.035238937 0.0030268035 0.007342104 -0.024970146 0.037719168 -0.014100959 0.026832422
-0.026286736 0.03454709 -0.054944932 -0.016106369 0.007123528 0.046948034 -0.03633739 -0.0042125257
-0.03545963 0.002772214 -0.068396546 0.04092173 0.0009302499 -0.031442974 -0.02160222 0.026399154
0.031791054 0.0025736333 -0.0019331621 -0.03107777 -0.0032304572 -0.0071024527 -0.005580098 0.028468106
0.013081789 0.035525963 0.007690382 0.0035622253 -0.030918062 0.02577016 0.0074178525 0.02410536
-0.017742066 0.01147059 -0.0058245696 0.00020002598 -0.03407797 0.008678217 -0.014248129 -0.005875425
0.011453022 0.028029105 -0.01748053 0.058180287 -0.024556331 0.00090699794 0.025540847 -0.011533807
-0.049853858 -0.002141607 0.011706907 -0.062744 -0.056980707 -0.03764925 -0.01323036 -0.009879344
0.05561106 0.059523106 0.0009989565 -0.03291947 -0.048119295 -0.019064277 -0.028594306 -0.004448147
0.019916251 0.0053673647 0.036961302 -0.020444244 0.00093309477 -0.009611337 -0.0017001705 -0.006229428
-0.022108197 0.026724903 -0.015023564 -0.011274016 0.0039407304 -0.010129445 -0.04342011 -0.016366607
-0.05597863 0.002890863 -0.023692932 0.013826504 -0.0017116574 0.011504322 -0.0053535914 -0.0003896665
0.04831521 -0.056455042 -0.0031363172 0.033567764 -0.03264113 -0.036342777 -0.008293168 0.04527452
-0.013538333 0.014228151 -0.04876543 -0.0087870825 0.067927726 -0.043750215 0.03009152 -0.016865771
0.009744022 -0.014103956 -0.004640362 -0.047212895 -0.053462923 0.013210916 0.00477695 0.01463755
-0.014091552 -0.013824137 0.060570627 0.048055895 0.01211023 0.017081466 0.029753922 -0.03722421
-0.0055658994 -0.0630561 0.007876145 0.027857868 -0.033305652 0.011122805 0.045217004 0.06354171
-0.008701234 0.0020338842 0.010002449 -0.012323539 0.012510684 -0.018304106 0.0020278834 -0.038201258
-0.008525362 -0.0031679464 -0.06803243 -0.027227413 0.016749118 0.044721317 0.011487994 -0.010890072
-0.056364298 -0.01897333 -0.0010143026 0.029264664 -0.01965163 -0.029210389 0.010808558 0.034167554
0.05875656 0.038129255 0.041266613 0.019338638 -0.025770158 -0.04574968 0.0036759307 -0.03982391
0.009529499 -0.0035721832 -0.01146382 0.0022968864 -0.039353494 -0.014707153 -0.019681467 -0.00058557943
0.017133975 -0.043868802 0.065172315 -0.055442978 0.009767765 -0.011121977 0.02743 -0.008619697
0.04664411 0.021085404 0.014048583 0.05146949 -0.0052428315 -0.0023566496 -0.016908757 -0.00025295906
0.00923649 0.04367324 -0.0021920705 0.021470932 0.011356631 -0.024798369 0.081264526 0.019695288
-0.010574684 -0.06496131 -0.008734876 -0.008211189 -0.0059660254 -0.039532248 -0.03440313 0.025678504
00000000: 0ca3 a9bc 3ce6 153c 9d77 07bd 3eb4 893d
00000010: 600b 97bb b116 503d f8db 48bc 0cd0 f5bc
00000020: 5273 44bc ee74 34bc 7a09 6639 7c13 3f3d
00000030: 4847 6c3d bd88 173b 4d0d 4a3c 0c4b e239
00000040: e588 09bc 899f 24bd c2bc 69bd 71c6 8fbc
00000050: 4133 e4bc fd06 6d3d 9b08 cb3c d541 3ebd
00000060: 08db 42bd b7c7 08bc 8215 78bd 7166 74bb
00000070: 6def cdbc ee11 33bc b013 863c 4b5d d2bc
00000080: bfe6 eb3c f40a 1abd 7a15 c33a 1aa5 b9bc
00000090: 3b50 0d3d a923 87bb 0474 2f3c 1d3f 903c
000000a0: 011d 073c 45d4 e1bc d65d 9a3c e4ae d83c
000000b0: 67fd 483c 473e 5fbc 425d 383d c1fd 393d
000000c0: 1952 80bc b456 103d 565d 463b 0896 f03b
000000d0: 318e ccbc 6a7f 1a3d b507 67bc abcf db3c
000000e0: 4857 d7bc 4081 0d3d f00d 61bd 81f1 83bc
000000f0: 7c6c e93b 954c 403d 84d6 14bd 3a09 8abb
00000100: 1e3e 11bd 08ae 353b 7d13 8cbd 8b9d 273d
00000110: 04dc 733a 59ca 00bd 24f7 b0bc 0a43 d83c
00000120: 5637 023d 67aa 283b 2862 fdba cf96 febc
00000130: 14b6 53bb b1bb e8bb 41d9 b6bb f235 e93c
00000140: 0055 563c ac83 113d 9aff fb3b 3974 693b
00000150: e047 fdbc f11b d33c 7511 f33b 9b78 c53c
00000160: cf57 91bc 24ef 3b3c 08dc bebb 11be 5139
00000170: 5795 0bbd 152f 0e3c fc70 69bc a386 c0bb
00000180: 75a5 3b3c 4b9d e53c 5433 8fbc 744e 6e3d
00000190: 5c2a c9bc 9ac3 6d3a 0a3b d13c 4bf8 3cbc
000001a0: 8f33 4cbd 345a 0cbb 54ce 3f3c ed7f 80bd
000001b0: 9a64 69bd 1a36 1abd 27c4 58bc f9dc 21bc
000001c0: 6cc8 633d 80ce 733d 6bef 823a 91d6 06bd
000001d0: bd18 45bd b02c 9cbc 9b3e eabc c3c1 91bb
000001e0: 6827 a33c b8e0 af3b bc64 173d b07a a7bc
000001f0: ee9a 743a df78 1dbc 41d8 deba 3b20 ccbb
00000200: 401c b5bc 2fee da3c 6525 76bc a7b6 38bc
00000210: 3e21 813b f9f5 25bc 49d9 31bd 4313 86bc
00000220: d949 65bd a274 3d3b ae17 c2bc 9088 623c
00000230: b159 e0ba a07c 3c3c 2e6d afbb 274c ccb9
00000240: 2be6 453d 673d 67bd ac8a 4dbb 5a7e 093d
00000250: b5b2 05bd 2adc 14bd 11e0 07bc c671 393d
00000260: e2cf 5dbc 311d 693c 42be 47bd b2f7 0fbc
00000270: b11d 8b3d 6d33 33bd 7e82 f63c 162a 8abc
00000280: 64a5 1f3c 4714 67bc 2e0e 98bb 4f62 41bd
00000290: f0fb 5abd 9972 583c f687 9c3b 56d2 6f3c
000002a0: 41e0 66bc a27e 62bc e818 783d 42d6 443d
000002b0: fc69 463c 6eee 8b3c 7fbe f33c 6a78 18bd
000002c0: 2662 b6bb 8e23 81bd f20a 013c 2f36 e43c
000002d0: 826b 08bd 6d3c 363c 7735 393d 2822 823d
000002e0: 9f8f 0ebc ea4a 053b 50e1 233c abe8 49bc
000002f0: 9df9 4c3c 7ef2 95bc 3de6 043b ec78 1cbd
00000300: f6ad 0bbc 529d 4fbb 9654 8bbd 060c dfbc
00000310: 7235 893c b32d 373d 2438 3c3c 466c 32bc
00000320: 40de 66bd f56d 9bbc 59f2 84ba 73bc ef3c
00000330: 75fc a0bc a04a efbc 6116 313c 47f3 0b3d
00000340: b8aa 703d 6c2d 1c3d 2e07 293d 106c 9e3c
00000350: f01b d3bc 0464 3bbd e2e7 703b 651e 23bd
00000360: 9e21 1c3c 4a1b 6abb bfd2 3bbc 5c87 163b
00000370: 2131 21bd 45f6 70bc 073b a1bc 9281 19ba
00000380: 8d5c 8c3c c6af 33bd 1079 853d 2d18 63bd
00000390: fa08 203c f438 36bc e1b4 e03c a139 0dbc
000003a0: e50d 3f3d 4cbb ac3c 072c 663c acd1 523d
000003b0: 0fcc abbb 0572 1abb 3c84 8abc 979f 84b9
000003c0: a654 173c b6e2 323d d7a8 0fbb cfe3 af3c
000003d0: 2a11 3a3c f325 cbbc 046e a63d 0358 a13c
000003e0: 7041 2dbc 6f0a 85bd ba1c 0fbc 3988 06bc
000003f0: a67e c3bb 91ec 21bd 4cea 0cbd ba5b d23c

bias f4 [2]
-0.08996006 0.06483688
00000000: fb3c b8bd 33c9 843d
