data/ppo_penalized_sage_8Ks_50e_64x2/ppo_penalized_sage_8Ks_50e_64x2_s0/pyt_save/model.pt (torch, 705515 bytes, 29 tensors)

log_std f4 [2]
-1.2580029 -1.0528297
00000000: 3d06 a1bf 20c3 86bf

weight f4 [128, 60]
-0.030160122 0.08056948 -0.08626096 -0.11110993 -0.07075792 0.034309007 0.0083114365 0.08607144
-0.022096427 0.054409567 -0.0194683 -0.0050855093 -0.11273059 -0.08875902 -0.0495115 0.015696954
0.06647016 0.07992377 -0.09836136 -0.05621801 0.046891127 0.14183922 -0.060872413 0.08349367
-0.0061997157 0.047814105 0.12139284 -0.12962574 -0.080376565 -0.051830124 -0.047084898 0.097029366
-0.10075124 -0.04801339 -0.089277744 -0.13933915 -0.06407995 0.1263061 0.052075595 0.056207236
0.0067895413 -0.081907004 0.014051679 -0.1250851 -0.11468055 -0.07933936 0.06779066 0.060797486
-0.031862542 -0.008871818 0.07727553 0.15051135 0.053736616 0.009232076 0.08382537 -0.06320917
0.021583952 -0.07703718 -0.10117421 -0.06669065 0.08332406 0.04957083 -0.07204254 0.03746383
0.06892984 -0.017290797 0.00495562 0.029946089 0.08481431 0.13480632 -0.103638954 -0.064184286
0.041185692 0.09488011 0.10787888 0.11730165 0.036366567 -0.099061556 0.012594671 -0.0807653
-0.12031476 0.11612672 0.103227526 -0.1200587 0.04224499 -0.002271659 -0.013495017 -0.030243378
0.071472645 -0.051773004 0.052349508 0.06904309 0.101575926 0.055818904 -0.13859542 -0.085319914
0.07542032 0.024580436 -0.07333819 -0.07038121 0.12145021 0.101257145 -0.033294205 -0.020629616
-0.108024 -0.0026852475 -0.097961046 -0.10229553 -0.0233599 0.026215516 -0.047859605 0.0699936
-0.090391584 0.10784546 0.09274726 -0.09987541 -0.027552862 0.021588996 0.019065874 0.030619066
-0.020361787 -0.035640232 -0.03491963 0.08015873 -0.085903086 -0.06927543 -0.028188603 -0.0662561
-0.055412076 -0.114615425 -0.049575865 0.012866914 -0.05211354 0.03587175 0.10938412 -0.0063804546
-0.015474027 -0.025204904 0.02081952 0.08208652 0.12228896 0.057710823 0.09600737 0.021103544
-0.08772957 -0.086678624 0.1012876 0.0021992447 -0.074020945 -0.079026274 -0.122183494 -0.13142958
0.008135934 0.09463158 0.061671313 -0.1246211 0.105300434 -0.092947364 -0.039154213 -0.056219205
-0.024866525 -0.0105910115 -0.10045808 -0.09601365 -0.017196354 0.0013282245 -0.06453121 0.030406827
-0.13138711 0.00030541507 0.14564206 -0.039626047 0.097741105 0.041487306 -0.10665168 0.08032484
-0.008218834 -0.051083583 0.12660299 -0.10432465 0.0025429968 0.04598923 0.041895702 0.0049550994
0.032772988 0.04737558 -0.030277308 -0.033802893 -0.10659804 0.087842345 0.11192385 0.11525313
-0.09091543 -0.021695038 -0.08519998 -0.07407039 -0.05533553 0.025212307 -0.123643 -0.0028165893
0.0054309713 0.017276587 -0.065923415 -0.09614516 -0.09814336 0.096107475 -0.038457602 0.10709668
0.051738907 0.016233312 0.00033097615 -0.039351616 -0.000900243 -0.047527567 0.0025992652 0.020207034
-0.14101043 -0.06370807 0.10182607 -0.093320824 -0.009270139 0.09582218 0.05297053 0.029601347
-0.12305755 0.05263164 -0.09331761 -0.031034699 -0.030023223 -0.049026005 -0.010154238 0.1030139
0.029477896 0.15897135 0.06320643 -0.10188779 0.04292408 -0.109281786 -0.061798524 0.037971076
-0.030508183 0.068517715 -0.0059226435 0.0075351675 0.08679715 -0.118904665 0.102649406 -0.12468562
-0.03676742 -0.05176553 -0.073607154 0.0867374 0.17845124 -0.00026977574 -0.048627827 -0.041081022
00000000: 5c12 f7bc 9d01 a53d 96a9 b0bd 9a8d e3bd
00000010: 87e9 90bd 9a87 0c3d b12c 083c 3946 b03d
00000020: 9103 b5bc 91dc 5e3d fc7b 9fbc 58a4 a6bb
00000030: 4cdf e6bd 4ac7 b5bd 92cc 4abd e696 803c
00000040: 8221 883d 13af a33d ae71 c9bd db44 66bd
00000050: e910 403d 4d3e 113e 5a55 79bd bbfe aa3d
00000060: fc26 cbbb b9d8 433d cf9c f83d 9cbc 04be
00000070: 789c a4bd d34b 54bd 18dc 40bd 55b7 c63d
00000080: ab56 cebd b0a9 44bd 40d7 b6bd ecae 0ebe
00000090: 593c 83bd 6356 013e 384d 553d 8f39 663d
000000a0: cd7a de3b dcbe a7bd 0339 663c 4f16 00be
000000b0: a3dd eabd ad7c a2bd d4d5 8a3d c906 793d
000000c0: 4c82 02bd 1a5b 11bc a242 9e3d a61f 1a3e
000000d0: ed1a 5c3d 2242 173c a3ac ab3d cf73 81bd
000000e0: d4d0 b03c abc5 9dbd 6d34 cfbd 1c95 88bd
000000f0: cea5 aa3d c80a 4b3d 0a8b 93bd ac73 193d
00000100: 172b 8d3d 6ea5 8dbc c162 a23b 8051 f53c
00000110: 20b3 ad3d ab0a 0a3e a940 d4bd 0d73 83bd
00000120: 54b2 283d 8150 c23d 9aef dc3d d93b f03d
00000130: 1cf5 143d c9e0 cabd e159 4e3c 4768 a5bd
00000140: 9667 f6bd d9d3 ed3d f468 d33d 56e1 f5bd
00000150: 1509 2d3d 1de0 14bb 341a 5dbc f6c0 f7bc
00000160: 4060 923d ee0f 54bd 706c 563d 7766 8d3d
00000170: 0a07 d03d 5da2 643d f5eb 0dbe 35bc aebd
00000180: f875 9a3d e95c c93c 5532 96bd 0624 90bd
00000190: e3ba f83d e85f cf3d 815f 08bd 71ff a8bc
000001a0: b03b ddbd fafa 2fbb cd9f c8bd 5280 d1bd
000001b0: 435d bfbc ecc1 d63c 6f08 44bd ce58 8f3d
000001c0: 391f b9bd 15de dc3d 47f2 bd3d 7b8b ccbd
000001d0: 8ab6 e1bc 68db b03c 0930 9c3c d6d4 fa3c
000001e0: c3cd a6bc 7efb 11bd e307 0fbd 432a a43d
000001f0: f5ed afbd 47e0 8dbd c9eb e6bc 47b1 87bd
00000200: c6f7 62bd 7ebb eabd 1010 4bbd c0cf 523c
00000210: 0275 55bd 42ee 123d c804 e03d 2213 d1bb
00000220: c686 7dbc 847a cebc b38d aa3c fa1c a83d
00000230: a272 fa3d 2f62 6c3d 839f c43d 57e1 ac3c
00000240: 90ab b3bd 9084 b1bd e06f cf3d 3421 103b
00000250: 4b98 97bd 87d8 a1bd 573b fabd 7a95 06be
00000260: 954c 053c 34ce c13d 0f9b 7c3d 5939 ffbd
00000270: c1a7 d73d 305b bebd 2b60 20bd 1c46 66bd
00000280: e2b4 cbbc ec85 2dbc f7bc cdbd cea2 c4bd
00000290: 5edf 8cbc d217 ae3a f028 84bd bd17 f93c
000002a0: 588a 06be 1e20 a039 3123 153e ec4e 22bd
000002b0: 7d2c c83d 98ee 293d 326c dabd 5a81 a43d
000002c0: 4aa8 06bc 053d 51bd 37a4 013e 29a8 d5bd
000002d0: 68a8 263b 345f 3c3d d49a 2b3d 635e a23b
000002e0: f83c 063d e50c 423d 1e08 f8bc e774 0abd
000002f0: 1350 dabd b0e6 b33d 5538 e53d d509 ec3d
00000300: de31 babd cbb9 b1bc 547d aebd 37b2 97bd
00000310: 82a7 62bd 0a8a ce3c 8b38 fdbd 8796 38bb
00000320: 4af6 b13b a187 8d3c db02 87bd c1e7 c4bd
00000330: 63ff c8bd ffd3 c43d b885 1dbd 8155 db3d
00000340: 2dec 533d b9fb 843c de86 ad39 292f 21bd
00000350: 49fe 6bba 44ac 42bd 6f58 2a3b 3989 a53c
00000360: 0a65 10be 6079 82bd 308a d03d fd1e bfbd
00000370: c8e1 17bc 6b3e c43d a0f7 583d 867e f23c
00000380: 9905 fcbd 4694 573d 4e1d bfbd 7b3c febc
00000390: 43f3 f5bc 7ecf 48bd f65d 26bc f4f8 d23d
000003a0: a17b f13c 63c9 223e 5f72 813d 8caa d0bd
000003b0: 29d1 2f3d 21cf dfbd 7320 7dbd 8f87 1b3d
000003c0: 4cec f9bc 0453 8c3d bc12 c2bb 91e9 f63b
000003d0: b4c2 b13d 4a84 f3bd da39 d23d 2d5b ffbd
000003e0: 6f99 16bd 1808 54bd 59bf 96bd 61a3 b13d
000003f0: ecbb 363e b070 8db9 f92d 47bd 9344 28bd

bias f4 [128]
0.041826572 0.013944224 0.09669401 -0.14221668 0.08359341 -0.0698267 0.13157916 -0.12016096
-0.016468076 0.04248366 0.038419433 0.035646524 -0.0036240234 0.01588935 -0.09479607 -0.03137931
0.020811692 0.093116775 -0.098309204 -0.041545067 -0.092666 -0.07891819 -0.07885012 -0.017451642
0.05911949 -0.022485534 0.023524089 -0.033747062 -0.109581545 0.028877545 0.017903032 -0.094700925
-0.12656203 0.038227815 -0.04033827 0.029121649 -0.015869834 -0.044374947 -0.046936885 0.123790056
-0.10869967 -0.037279762 -0.022051156 -0.03508756 0.0541726 0.102031685 0.0915083 -0.052710086
-0.07600419 0.0488758 0.07821238 -0.09327614 -0.054345217 -0.053298194 -0.0142604 -0.0274742
-0.11337492 -0.017814567 -0.028547782 0.021558937 -0.038241327 -0.04282239 0.11705108 -0.0551983
0.087072775 -0.10237095 -0.02786784 0.041520074 0.036080025 -0.10449968 0.08675353 -0.044131763
0.0006138149 -0.033755228 0.09794921 0.027319307 0.01212598 -0.01084568 0.12267218 0.0428876
0.040135354 -0.048171792 -0.13595061 0.061662782 -0.12772307 -0.11880794 0.0148896305 -0.039961725
-0.077759944 0.10288976 0.0017606603 -0.07065921 0.081306316 0.028263837 -0.09629692 -0.015730921
-0.10444273 -0.07581771 0.031522337 0.024634063 -0.051286805 -0.042962525 -0.10151217 -0.05924795
-0.020962592 0.011182355 0.08030075 0.08560897 0.12184111 0.03009292 -0.06904196 -0.03158251
-0.122302055 0.0046294127 0.040659394 -0.0010767021 0.057414383 0.11030498 0.08445926 -0.04029971
0.10183858 0.056129787 -0.0908147 0.0170756 0.072885774 0.043841183 0.1192695 -0.07365466
00000000: 5752 2b3d 5176 643c 8207 c63d 40a1 11be
00000010: 0633 ab3d 4d01 8fbd b0bc 063e f316 f6bd
00000020: 0fe8 86bc 5903 2e3d b25d 1d3d 1702 123d
00000030: 0681 6dbb 622a 823c 7124 c2bd 9787 00bd
00000040: 487d aa3c 02b4 be3d 5656 c9bd 292b 2abd
00000050: acc7 bdbd dc9f a1bd 2c7c a1bd bff6 8ebc
00000060: 4727 723d 9533 b8bc 97b5 c03c 5c3a 0abd
00000070: 4a6c e0bd 9a90 ec3c 61a9 923c 8ff2 c1bd
00000080: 7a99 01be c594 1c3d be39 25bd 8690 ee3c
00000090: 7401 82bc 81c2 35bd e440 40bd a485 fd3d
000000a0: ef9d debd aab2 18bd a0a4 b4bc f9b7 0fbd
000000b0: 17e4 5d3d fdf5 d03d b468 bb3d 88e6 57bd
000000c0: 16a8 9bbd fe31 483d d02d a03d 9007 bfbd
000000d0: 1799 5ebd 354f 5abd 74a4 69bc 9311 e1bc
000000e0: 1c31 e8bd dbef 91bc 0add e9bc 5e9c b03c
000000f0: f0a2 1cbd 8866 2fbd 7ab8 ef3d 9d17 62bd
00000100: 3653 b23d dca7 d1bd 194b e4bc f410 2a3d
00000110: a6c8 133d ee03 d6bd d6ab b13d 82c3 34bd
00000120: 6ce8 203a ec42 0abd 9899 c83d bdcc df3c
00000130: 0cac 463c 14b2 31bc 8d3b fb3d e8aa 2f3d
00000140: f864 243d c94f 45bd a336 0bbe 1d92 7c3d
00000150: d6c9 02be 9451 f3bd a3f3 733c e8ae 23bd
00000160: 9b40 9fbd deb7 d23d f5c5 e63a c7b5 90bd
00000170: ed83 a63d 9089 e73c 5237 c5bd 22de 80bc
00000180: 12e6 d5bd 5146 9bbd 911d 013d 60cd c93c
00000190: 1d12 52bd 79f9 2fbd 9de5 cfbd faad 72bd
000001a0: beb9 abbc 3236 373c b874 a43d c153 af3d
000001b0: d587 f93d 6d85 f63c df65 8dbd a95c 01bd
000001c0: 8079 fabd 54b2 973b 778a 263d 2120 8dba
000001d0: 582b 6b3d 94e7 e13d faf8 ac3d 4f11 25bd
000001e0: bf90 d03d 59e8 653d 0ffd b9bd 21e2 8b3c
000001f0: 2345 953d d092 333d 9143 f43d 41d8 96bd

weight f4 [128, 128]
0.01290933 0.080939494 -0.05726879 -0.04601768 0.05333363 0.0409759 0.06798817 -0.009120303
0.05298277 -0.08395017 -0.065284625 0.021836422 -0.06509595 0.011917718 -0.032340784 0.09850755
-0.009514357 0.037164543 0.024066595 0.07253239 -0.0038917987 0.047666293 -0.07065541 -0.05822423
0.07746636 0.07157364 -0.040680323 0.06495002 0.047102794 -0.050358027 0.040749684 0.09256705
-0.026147349 0.06256782 -0.032245934 -0.0876092 -0.06882022 -0.015563214 0.073021755 0.03278047
0.06982545 0.055779684 -0.008258566 -0.066567674 -0.07589939 -0.029610494 -0.02572557 0.07279546
-0.01698373 -0.014891875 0.01170889 0.07085938 -0.0124862995 0.026642554 -0.04627481 -0.08100687
-0.022728423 0.052177407 0.0590285 0.031151582 0.062282942 -0.05518167 0.022990968 0.05797712
-0.05034377 0.04097044 -0.07900004 0.06345267 0.036863506 0.08510326 -0.015815755 -0.002831313
-0.052546673 0.089532204 0.0072762445 -0.017065024 0.01145379 0.046195503 -0.045447893 -0.060225073
-0.024838533 0.034944873 -7.9208316e-05 -0.023796337 0.015325851 -0.0063676722 0.07038555 -0.05226978
0.08438925 0.0018953941 0.067686 0.03179632 -0.07985006 0.059919864 -0.036924537 -0.061187007
0.0309335 0.020628635 -0.049261753 -0.039667856 0.072040215 -0.07484086 0.012574345 -0.015462994
-0.070852086 0.041597046 -0.0651291 -0.014830829 0.0008992883 0.037999205 -0.034033433 -0.073597685
-0.0019294689 0.06375567 -0.062081363 0.0796933 0.055425644 -0.017048571 -0.0036812332 0.07495262
0.011879156 0.0032161823 0.009287063 0.042676605 -0.093589604 -0.048128556 0.08267321 0.06055432
0.0066599194 0.08005188 -0.0314851 0.05008081 -0.06406413 0.06628912 0.051645555 0.0018903863
-0.022085588 0.048776705 0.032456066 0.0480807 -0.040207896 -0.015421198 -0.030939393 -0.096220106
0.009975862 0.035981897 0.0310794 -0.019723345 0.08729135 0.0021162687 0.092306405 -0.112467915
-0.037379242 -0.067558266 0.04430942 0.058587983 0.083322264 -0.03987179 0.005030887 0.025303636
-0.057003826 0.09327191 0.06813181 0.025453541 -0.015281845 0.08477781 -0.050608672 -0.05152595
-0.017639007 0.0025232485 0.055932984 0.06680216 0.022658616 0.0061422144 0.07169263 0.07266568
-0.10178212 0.07324204 0.039755464 0.032422543 0.026747977 0.056716245 0.009149231 -0.02367557
-0.00014639224 -0.07452505 -0.00223598 -0.04303585 0.027096925 -0.060180966 0.10745763 -0.05073828
0.07029887 0.020687906 -0.099831395 0.011664586 -0.06040049 -0.07404664 0.035404082 -0.044033177
0.025291253 0.067711376 -0.10062781 0.078878626 -0.042294826 -0.0034738432 0.061442804 -0.033597954
-0.033090033 -0.04434971 0.05150428 -0.029584713 0.07364156 0.048261527 -0.120691 -0.08705618
-0.013155353 -0.024905123 -0.03651768 0.054542005 0.03998559 -0.040137183 -0.02558388 0.032357164
0.016614428 0.0011215481 0.04909357 0.044721715 -0.07375113 -0.084451616 -0.0019946243 0.008255904
-0.083263874 -0.051013384 -0.10497052 0.032122802 0.037318528 0.09528915 -0.08296257 0.08595921
-0.074316 -0.090185255 0.07538285 0.10342342 0.0021691092 -0.006800725 -0.0005804449 0.047828022
0.027718067 -0.014577747 0.002865116 0.017684003 0.016719764 0.0077266316 0.0099558905 0.01817691
00000000: a881 533c 9bc3 a53d ae92 6abd 097d 3cbd
00000010: 5d74 5a3d 58d6 273d 623d 8b3d 536d 15bc
00000020: 7604 593d 11ee abbd f2b3 85bd 4ce2 b23c
00000030: 0751 85bd 8842 433c c577 04bd 54be c93d
00000040: 1be2 1bbc d939 183d 4f27 c53c dd8b 943d
00000050: 8c0d 7fbb bb3d 433d c9b3 90bd 887c 6ebd
00000060: afa6 9e3d 3395 923d 69a0 26bd 8404 853d
00000070: dcee 403d 3844 4ebd 24e9 263d cb93 bd3d
00000080: f732 d6bc 8f23 803d 5014 04bd 746c b3bd
00000090: 9ef1 8cbd dafc 7ebc 6e8c 953d d044 063d
000000a0: a500 8f3d 3d79 643d f04e 07bc a254 88bd
000000b0: 2471 9bbd b591 f2bc 6ebe d2bc c915 953d
000000c0: 7721 8bbc 0dfd 73bc a5d6 3f3c b91e 913d
000000d0: 5693 4cbc 7c41 da3c a88a 3dbd eee6 a5bd
000000e0: f530 babc fab7 553d dec7 713d 9a31 ff3c
000000f0: 661c 7f3d 2d06 62bd 8e57 bc3c 6b79 6d3d
00000100: 4535 4ebd 9fd0 273d c6ca a1bd 79f3 813d
00000110: 30fe 163d 9e4a ae3d 0b90 81bc 8d8d 39bb
00000120: 2e3b 57bd a95c b73d 906d ee3b f3cb 8bbc
00000130: ada8 3b3c 7f37 3d3d 9227 3abd 91ae 76bd
00000140: 2e7a cbbc 5b22 0f3d a41c a6b8 89f0 c2bc
00000150: 4719 7b3c e8a7 d0bb 4d26 903d d618 56bd
00000160: 45d4 ac3d df6e f83a f59e 8a3d dc3c 023d
00000170: 6e88 a3bd 886e 753d 2f3e 17bd 3a9f 7abd
00000180: 4068 fd3c 62fd a83c b1c6 49bd c37a 22bd
00000190: d289 933d 2a46 99bd a004 4e3c 7f58 7dbc
000001a0: e61a 91bd aa61 2a3d 6862 85bd 01fd 72bc
000001b0: 37be 6b3a 0ea5 1b3d a466 0bbd 62ba 96bd
000001c0: 3ce6 fcba 5592 823d 0749 7ebd 3e36 a33d
000001d0: 0006 633d 72a9 8bbc d840 71bb c280 993d
000001e0: cba0 423c 96c6 523b c428 183c aacd 2e3d
000001f0: e8ab bfbd 7322 45bd 9250 a93d cf07 783d
00000200: 743b da3b 3df2 a33d 85f6 00bd 8921 4d3d
00000210: 0e34 83bd 97c2 873d 4a8a 533d d7c6 f73a
00000220: d6ec b4bc 15ca 473d a7f0 043d 45f0 443d
00000230: 09b1 24bd 31a9 7cbc 9c74 fdbc 0c0f c5bd
00000240: cc71 233c c161 133d 3a9a fe3c da92 a1bc
00000250: cfc5 b23d 19b1 0a3b 240b bd3d 9455 e6bd
00000260: fa1a 19bd fd5b 8abd cb7d 353d f4f9 6f3d
00000270: dda4 aa3d 9a50 23bd 24da a43b 9249 cf3c
00000280: d87c 69bd 5805 bf3d b188 8b3d f283 d03c
00000290: b460 7abc fd9f ad3d 0a4b 4fbd e00c 53bd
000002a0: ae7f 90bc 165d 253b fc19 653d 92cf 883d
000002b0: 909e b93c a144 c93b 96d3 923d bed1 943d
000002c0: 2573 d0bd ecff 953d a0d6 223d 80cd 043d
000002d0: 931e db3c 4b4f 683d a8e6 153c 45f3 c1bc
000002e0: de80 19b9 97a0 98bd 8589 12bb 5c46 30bd
000002f0: 5ffa dd3c 5180 76bd bf12 dc3d f1d2 4fbd
00000300: dbf8 8f3d af79 a93c 6774 ccbd d21c 3f3c
00000310: 8166 77bd c4a5 97bd df03 113d 225c 34bd
00000320: 9a2f cf3c 43ac 8a3d f415 cebd 1e8b a13d
00000330: 573d 2dbd 6ba9 63bb 73ab 7b3d 029e 09bd
00000340: 6a89 07bd 0ba8 35bd 27f6 523d a45b f2bc
00000350: 63d1 963d e1ad 453d d82c f7bd 834a b2bd
00000360: 8d89 57bc d405 ccbc 9093 15bd 7067 5f3d
00000370: eec7 233d e366 24bd 4995 d1bc f288 043d
00000380: fb1a 883c e900 933a 5716 493d 1e2e 373d
00000390: d50a 97bd f8f4 acbd 3eb8 02bb c543 073c
000003a0: 4086 aabd 69f3 50bd c9fa d6bd 3393 033d
000003b0: 50db 183d f526 c33d 48e8 a9bd 620b b03d
000003c0: fd32 98bd 0cb3 b8bd 5362 9a3d a8cf d33d
000003d0: 9d27 0e3b 9ed8 debb ff28 18ba 51e7 433d
000003e0: 0011 e33c 81d7 6ebc acc4 3b3b 0bde 903c
000003f0: e3f7 883c af2f fd3b 081e 233c bee7 943c

bias f4 [128]
-0.02731421 -0.06413529 0.027044054 -0.063842855 0.045839984 0.08656212 -0.013313602 0.01292881
-0.03355481 0.060490336 -0.023837524 0.06946564 0.076672085 0.024129994 0.028092718 -0.02671427
0.04628728 -0.0878688 0.022466546 0.0652876 0.06891559 -0.05141947 -0.033300687 -0.04496003
0.07497146 -0.0605448 0.07100778 -0.06157122 -0.066515476 0.057846166 0.003136031 -0.04854228
-0.0034522598 -0.08481812 0.017339686 0.0117002465 -0.051117796 0.04350124 -0.018746378 0.058489628
-0.079824716 -0.037324432 0.026586743 -0.093567386 -0.0683711 -0.05803148 0.042302262 0.060192753
0.026561303 0.041297358 0.027533386 0.034130614 0.030756043 -0.05941681 -0.046311222 0.054330952
-0.03795022 -0.053590406 0.07629811 0.0460117 0.028866244 0.009120405 0.017017864 -0.03602225
0.039097294 0.024880253 -0.0047683744 -0.030500935 -0.0023498402 -0.0068349377 -0.056305904 0.06175989
-0.014958806 -0.055935092 0.0875505 0.06611556 0.03430741 0.03548022 -0.057736386 0.024148837
0.07765012 0.050971456 -0.026545035 0.005609501 -0.07608944 -0.07074892 0.043464467 -0.025222167
0.089503825 -0.0045519914 0.057801925 0.045573305 -0.042239964 -0.013605821 -0.011636926 -0.06889681
0.0058756554 -0.07498635 0.0045927125 0.06163326 -0.027453994 0.08578094 -0.02674674 0.038451813
0.0015500316 0.029343283 0.07168206 -0.06407162 0.05455332 0.026873386 -0.06450587 0.050133187
0.045183662 0.01418303 -0.00202818 -0.051048417 -0.08325815 -0.0810825 0.07317129 0.037209056
-0.0534109 0.03847537 0.081179276 0.021719357 -0.029313222 -0.013499833 0.0066122934 0.028181912
00000000: 0dc2 dfbc 5d59 83bd 7e8b dd3c 0bc0 82bd
00000010: b5c2 3b3d 7b47 b13d 4b21 5abc 5cd3 533c
00000020: c570 09bd b7c4 773d e946 c3bc 0044 8e3d
00000030: 4106 9d3d 44ac c53c b322 e63c e2d7 dabc
00000040: bb97 3d3d 8ff4 b3bd c30b b83c 81b5 853d
00000050: 9e23 8d3d 399d 52bd 4d66 08bd 0228 38bd
00000060: a38a 993d d3fd 77bd 876c 913d 1b32 7cbd
00000070: 4439 88bd 1af0 6c3d df85 4d3b 45d4 46bd
00000080: 4f3f 62bb 1fb5 adbd f50b 8e3c 64b2 3f3c
00000090: e560 51bd 5b2e 323d 0192 99bc d292 6f3d
000000a0: 247b a3bd 81e1 18bd 71cc d93c 42a0 bfbd
000000b0: 2606 8cbd 6bb2 6dbd 2345 2d3d ad8c 763d
000000c0: 1797 d93c 6b27 293d b28d e13c 8bcc 0b3d
000000d0: 19f4 fb3c 0a5f 73bd d6b0 3dbd 228a 5e3d
000000e0: b171 1bbd 9d81 5bbd 2f42 9c3d c476 3c3d
000000f0: e778 ec3c c06d 153c 0c69 8b3c 118c 13bd
00000100: 7c24 203d acd1 cb3c 0640 9cbb 19dd f9bc
00000110: c7ff 19bb 9df7 dfbb 05a1 66bd f0f7 7c3d
00000120: c815 75bc 321c 65bd ad4d b33d 9867 873d
00000130: ed85 0c3d b553 113d fd7c 6cbd c8d3 c53c
00000140: 0707 9f3d 72c7 503d f974 d9bc e8cf b73b
00000150: c8d4 9bbd cfe4 90bd cc07 323d b89e cebc
00000160: c84d b73d df28 95bb b6c1 6c3d 13ab 3a3d
00000170: d003 2dbd f3ea 5ebc cea8 3ebc c519 8dbd
00000180: 9288 c03b 7292 99bd 777e 963b 2873 7c3d
00000190: 33e7 e0bc ebad af3d fb1b dbbc a67f 1d3d
000001a0: 6e2a cb3a 5361 f03c 0bce 923d fb37 83bd
000001b0: 4d73 5f3d 9325 dc3c a71b 84bd 7558 4d3d
000001c0: 8112 393d f15f 683c 37eb 04bb 2518 51bd
000001d0: 4083 aabd 950e a6bd d4da 953d 8668 183d
000001e0: 63c5 5abd 5998 1d3d 5241 a63d cbec b13c
000001f0: 4822 f0bc 672e 5dbc f0ab d83b c1dd e63c

weight f4 [128, 128]
-0.07445047 -0.07562079 0.012024254 -0.041030463 0.031681336 0.04708076 0.027070168 0.08141782
-0.06741114 0.04966096 -0.025404304 0.070331715 -0.0763485 0.045484394 0.050023112 0.060135465
-0.025656972 0.067771174 -0.009185106 0.016900897 -0.023719007 0.1005092 -0.031942084 -0.07041747
0.0011285668 -0.07437069 -0.081251934 0.037750296 0.079686694 0.081346154 0.07792955 -0.0887568
0.0730203 -0.0219955 0.021950195 0.08597023 -0.00067026727 0.03257286 0.026820388 0.076960035
0.024130251 -0.0152597185 0.020570114 0.05842765 -0.07317254 -0.04044018 0.07949535 0.024434987
0.0556299 -0.04073686 -0.049063645 0.08117327 -0.080694474 -0.023102254 -0.013854956 -0.069413975
0.0759067 -0.07966012 0.034218032 0.068197764 -0.052362382 -0.05984415 0.0208622 -0.011662197
0.018478587 -0.067855045 -0.08105542 0.07601912 -0.048574246 -0.078004405 -0.07565291 0.062353868
0.08103949 -0.058120053 -0.04281385 0.039345823 0.061685454 -0.006865709 0.037507724 -0.07687442
-0.04961852 0.075621106 0.019157423 -0.029026056 0.079818636 0.07710891 0.060121037 -0.060491107
-0.038831614 -0.0053076507 0.04926394 0.00690085 0.026528848 0.07365927 0.027793575 0.0113266725
0.0705011 -0.077185184 -0.0019163123 0.063668095 -0.07654823 -0.013875836 -0.04859867 -0.02013369
0.06790327 0.010312024 -0.002891722 -0.032346744 0.036246307 -0.024357906 -0.05762646 0.020620584
0.021538077 0.042747475 0.0036782997 0.02604774 0.0637559 -0.016376654 0.069671966 -0.06387171
-0.038507227 0.049417872 0.017120672 0.08386377 -0.0538003 -0.018747995 -0.020019988 0.048477676
-0.027725201 0.08144159 -0.025417173 0.040918928 -0.020114455 0.060532086 0.052173067 0.028279595
0.009585033 -0.009554587 -0.020131383 0.04351524 -0.027333641 0.08444522 0.05611251 0.06816257
0.059062067 -0.06229275 0.05101954 0.08390203 -0.022283815 0.00027698168 0.009580568 -0.035467982
0.01144002 -0.06572368 0.023882626 0.047049306 -0.028756786 0.06304003 -0.06450799 -0.005239259
0.07987441 0.060500145 -0.022121226 0.027519783 -0.019101445 0.049620796 0.059360813 0.03670922
0.019057399 -0.062779315 0.038909916 -0.045744274 0.08749805 -0.042289548 -0.036665346 0.06510617
-0.044950884 0.016020434 -0.059623003 -0.06968859 0.009803092 -0.026330449 0.053472623 -0.04412563
0.030484734 0.024498412 0.06104731 0.05732169 -0.059676647 0.019205986 -0.089399226 0.028617388
0.047685146 0.009677007 0.06041624 0.088805266 -0.05428612 -0.010940322 -0.067673355 -0.003394658
0.03632867 -0.037807506 -0.06592569 -0.06704344 -0.0037349686 0.06492781 0.026481627 -0.080677316
0.022145165 0.025836349 -0.08396687 0.0224221 0.05833191 -0.06863057 -0.079338044 -0.041606646
0.017089272 0.019774457 -0.00821618 0.03086756 -0.057567358 -0.0293884 -0.08116637 0.0805949
-0.037986528 -0.0027232575 0.07513744 -0.027165312 0.032150127 -0.04891257 0.012134437 -0.0013347225
-0.048704907 -0.08359442 -0.07658589 -0.077110425 0.05540874 0.0155102275 0.052656032 -0.017484505
-0.02598061 0.06677301 -0.071164146 -0.0458775 0.081487626 -0.059995066 -0.004308158 0.0058903117
0.03867039 -0.0061957184 0.00074733316 -0.04449229 0.025233 0.03117372 0.02874168 -0.06105402
00000000: 7d79 98bd 13df 9abd 6001 453c 8f0f 28bd
00000010: 4ac4 013d c1d7 403d 42c2 dd3c 63be a63d
00000020: da0e 8abd 4a69 4b3d b01c d0bc 130a 903d
00000030: 9a5c 9cbd d84d 3a3d 09e5 4c3d 9b50 763d
00000040: 922e d2bc 9dcb 8a3d 207d 16bc c073 8a3c
00000050: 5d4e c2bc c4d7 cd3d b4d5 02bd 0937 90bd
00000060: 6bec 933a a94f 98bd 6a67 a6bd 0ea0 1a3d
00000070: c732 a33d d098 a63d 8799 9f3d 20c6 b5bd
00000080: ab8b 953d e82f b4bc e5d0 b33c 2911 b03d
00000090: e0b4 2fba 1f6b 053d 6eb6 db3c 399d 9d3d
000000a0: ceac c53c e603 7abc a882 a83c d551 6f3d
000000b0: 7cdb 95bd 9aa4 25bd 75ce a23d e22b c83c
000000c0: 2edc 633d b2db 26bd f6f6 48bd 2c3e a63d
000000d0: 2543 a5bd f040 bdbc e6ff 62bc ea28 8ebd
000000e0: f974 9b3d d824 a3bd 3528 0c3d 45ab 8b3d
000000f0: f079 56bd 241f 75bd 34e7 aa3c cd12 3fbc
00000100: 6860 973c 96f7 8abd 6200 a6bd eaaf 9b3d
00000110: caf5 46bd c6c0 9fbd eaef 9abd c566 7f3d
00000120: 08f8 a53d 4b0f 6ebd 935d 2fbd 1629 213d
00000130: e3a9 7c3d bef9 e0bb b3a1 193d 5670 9dbd
00000140: ca3c 4bbd 3ddf 9a3d 07f0 9c3c 0dc8 edbc
00000150: f477 a33d 47eb 9d3d 7a41 763d 86c5 77bd
00000160: e60d 1fbd cdeb adbb fcc8 493d 8720 e23b
00000170: 0753 d93c acda 963d 5aaf e33c 8293 393c
00000180: e162 903d 4413 9ebd c52c fbba 6b64 823d
00000190: 52c5 9cbd 7957 63bc 660f 47bd 69ef a4bc
000001a0: df10 8b3d c3f3 283c 0b83 3dbb 057e 04bd
000001b0: 0277 143d 3b8a c7bc b909 6cbd 80ec a83c
000001c0: 9f70 b03c fa17 2f3d a10f 713b 1262 d53c
000001d0: 7492 823d 5528 86bc 2db0 8e3d 2ccf 82bd
000001e0: c1b9 1dbd 656a 4a3d a740 8c3c c5c0 ab3d
000001f0: b45d 5cbd 6595 99bc f500 a4bc 8790 463d
00000200: f61f e3bc d9ca a63d ad37 d0bc 9b9a 273d
00000210: 12c7 a4bc 7ef0 773d 6db3 553d 9caa e73c
00000220: 8b0a 1d3c d88a 1cbc 92ea a4bc 093d 323d
00000230: cdea dfbc 9ef1 ac3d 3bd6 653d d198 8b3d
00000240: 11eb 713d af26 7fbd ddf9 503d d4d4 ab3d
00000250: 8c8c b6bc da37 9139 d1f7 1c3c e046 11bd
00000260: ec6e 3b3c 239a 86bd 7fa5 c33c c6b6 403d
00000270: 5a93 ebbc 221b 813d c41c 84bd 17ae abbb
00000280: 3295 a33d 00cf 773d 9337 b5bc 2b71 e13c
00000290: a27a 9cbc 2d3f 4b3d 5324 733d 685c 163d
000002a0: 431e 9c3c 7192 80bd 0160 1f3d 595e 3bbd
000002b0: 2d32 b33d ce37 2dbd 672e 16bd 6256 853d
000002c0: 6b1e 38bd 493d 833c 4037 74bd e4b8 8ebd
000002d0: 269d 203c f4b2 d7bc 1c06 5b3d 14bd 34bd
000002e0: 1fbb f93c e5b0 c83c be0c 7a3d 26ca 6a3d
000002f0: 806f 74bd df55 9d3c f116 b7bd 036f ea3c
00000300: 8051 433d 4f8c 1e3c 0577 773d 89df b53d
00000310: 1f5b 5ebd 093f 33bc 5498 8abd e978 5ebb
00000320: 5fcd 143d 0bdc 1abd 0c04 87bd 124e 89bd
00000330: 60c6 74bb dff8 843d ffef d83c 263a a5bd
00000340: c769 b53c c0a6 d33c d3f6 abbd 8dae b73c
00000350: 71ed 6e3d 2f8e 8cbd fc7b a2bd bb6b 2abd
00000360: cdfe 8b3c 0bfe a13c 289d 06bc f7dd fc3c
00000370: c0cb 6bbd f1bf f0bc 8e3a a6bd f00e a53d
00000380: c397 1bbd ae78 32bb a8e1 993d ca89 debc
00000390: daaf 033d 8c58 48bd 85cf 463c dbf1 aeba
000003a0: cc7e 47bd 8d33 abbd 10d9 9cbd 12ec 9dbd
000003b0: 46f4 623d 9c1e 7e3c daad 573d aa3b 8fbc
000003c0: 4ad5 d4bc 4ac0 883d 82be 91bd 0cea 3bbd
000003d0: fce2 a63d 63bd 75bd 732b 8dbb 8403 c13b
000003e0: d864 1e3d 7405 cbbb aee8 433a 8c3d 36bd
000003f0: 70b5 ce3c 0760 ff3c ac73 eb3c c813 7abd

bias f4 [128]
-0.029531667 0.017435616 0.033520207 0.0009103788 -0.013214964 0.019489834 -0.028113142 -0.068295695
-0.024839202 -0.069182195 -0.07321001 -0.022351362 -0.005983671 0.06440444 0.020110132 -0.07347834
0.00067893567 -0.029102622 0.029678198 -0.057564486 -0.06505866 0.016924968 0.014959259 -0.019079443
-0.018037844 -0.062521525 -0.07505023 0.0061599743 0.04866917 -0.014018123 0.002155512 -0.00853542
-0.070172854 0.00030811012 -0.056970906 0.06056203 0.04184216 0.044922546 0.038618967 0.008012158
0.014015 -0.004445442 -0.043914597 0.07997985 -0.018753927 -0.07166596 0.009936 -0.08396775
0.076146826 0.0076656286 -0.060494173 0.037825994 0.012032101 0.006866164 -0.03656479 -0.05541441
-0.065029 -0.009824382 -0.045858398 0.06508888 0.030541487 -0.0138395745 -0.016818175 0.063808575
0.029429095 -0.06731903 -0.061155614 -0.09020711 0.071491085 -0.056721233 0.059124686 0.044690806
0.04238512 0.07442944 0.058013245 0.07932418 0.06000797 -0.017493976 -0.03766068 0.0050121984
0.0721595 -0.07150717 0.08911428 0.022752028 -0.015935192 0.015301334 -0.05880407 0.0031120824
-0.0020999077 -0.079542205 -0.041534387 -0.04243025 0.020856291 -0.018771783 -0.065768994 0.061965927
0.037547477 -0.04462021 -0.06454347 0.07158961 0.024074044 -0.06180011 -0.066959225 0.043607634
-0.07974146 -0.027634732 -0.011494782 -0.052626606 0.07168699 -0.028566979 -0.029844226 0.048854075
-0.011817683 0.003997595 -0.062019248 -0.0022851655 -0.080853805 0.0089649875 -0.015915487 0.008032993
0.03771811 -0.006638525 0.07204396 -0.062471934 0.02310559 -0.0033910326 0.089288875 -0.048855096
00000000: 65ec f1bc 23d5 8e3c 7c4c 093d 7da6 6e3a
00000010: 9483 58bc 25a9 9f3c 884d e6bc 9dde 8bbd
00000020: 957b cbbc 65af 8dbd 21ef 95bd 341a b7bc
00000030: ac12 c4bb 7ae6 833d 01be a43c d07b 96bd
00000040: 9afa 313a 9f68 eebc b11f f33c bdc8 6bbd
00000050: 7a3d 85bd 3ba6 8a3c ae17 753c 7e4c 9cbc
00000060: 1ac4 93bc 490b 80bd efb3 99bd 9cd9 c93b
00000070: 5359 473d 45ac 65bc 7e43 0d3b 25d8 0bbc
00000080: c9b6 8fbd d789 a139 535a 69bd e40f 783d
00000090: af62 2b3d b400 383d ec2e 1e3d 6d45 033c
000000a0: 2c9f 653c 12ab 91bb cbdf 33bd 7acc a33d
000000b0: d6a1 99bc 9ac5 92bd 9bca 223c 49f7 abbd
000000c0: def2 9b3d f42f fb3b bdc8 77bd 6eef 1a3d
000000d0: 4a22 453c 8ffd e03b f6c4 15bd 38fa 62bd
000000e0: ed2d 85bd 72f6 20bc 04d6 3bbd 524d 853d
000000f0: 2432 fa3c 62bf 62bc 45c6 89bc 12ae 823d
00000100: 4915 f13c 8fde 89bd 4f7e 7abd 81be b8bd
00000110: eb69 923d 8654 68bd ba2c 723d b50d 373d
00000120: 059c 2d3d 766e 983d 4c9f 6d3d b774 a23d
00000130: ebca 753d 874f 8fbc 1642 1abd 5e3d a43b
00000140: 5cc8 933d 5a72 92bd 8c81 b63d 7662 ba3c
00000150: 858a 82bc 72b2 7a3c 89dc 70bd 14f4 4b3b
00000160: 9b9e 09bb 06e7 a2bd f61f 2abd 58cb 2dbd
00000170: d0da aa3c 48c7 99bc e5b1 86bd fccf 7d3d
00000180: 62cb 193d aec3 36bd 5e2f 84bd 939d 923d
00000190: ee36 c53c 1d22 7dbd eb21 89bd eb9d 323d
000001a0: 7e4f a3bd 3c62 e2bc 9c54 3cbc ff8e 57bd
000001b0: a1d0 923d 4c05 eabc e17b f4bc 361b 483d
000001c0: f49e 41bc 42fe 823b e507 7ebd b7c2 15bb
000001d0: ae96 a5bd e2e1 123c 3261 82bc d19c 033c
000001e0: 4e7e 1a3d fc87 d9bb c98b 933d 92e2 7fbd
000001f0: ef47 bd3c 163c 5ebb 16dd b63d 481c 48bd

weight f4 [128, 128]
-0.02157186 0.021517849 -0.067373246 0.037308898 0.040539768 0.051266 0.03792042 0.042210866
0.015039786 -0.020189615 -0.08006774 0.009566144 -0.0120591475 -0.08194295 0.043682 0.018069962
0.014306472 -0.065572985 -0.044985604 0.08799747 0.058401145 0.013306294 0.07130711 -0.07045833
0.06973919 -0.08600022 0.019230295 -0.06689812 -0.044905137 -0.055509705 -0.018101081 0.018620862
-0.0008021701 -0.07538725 -0.043974362 -0.06747345 -0.08578408 0.08031765 0.061012734 -0.0027928457
-0.03885248 0.027707044 0.08907887 0.009618121 0.042224187 0.05176835 0.043906834 -0.09167531
-0.08302266 0.08045264 0.0066465246 0.0013664354 0.022951005 0.06693912 0.023509301 -0.07475755
-0.03571507 0.07687347 -0.041167602 0.027277881 -0.08430521 0.038117066 0.020808749 0.013122288
0.011701163 -0.061794166 0.07181785 -0.051350933 0.07538868 -0.022104032 -0.044495206 0.057415064
0.020047933 0.08793192 0.03692347 -0.07775964 0.02109993 0.04097286 -0.05142709 0.013843454
-0.07255483 -0.04636696 -0.057458576 0.015008981 -0.06416486 -0.074807 0.069435686 -0.06343124
-0.0034121962 0.03664652 0.03187182 -0.077652305 -0.06641015 0.0041969866 -0.03831642 -0.05495005
0.03242125 0.009767658 -0.08185942 -0.054053877 -0.02565349 0.028747158 -0.08506674 -0.0011682822
-0.0031959093 -0.052564185 0.037952103 -0.016022386 -0.05527784 -0.07483518 -0.07566964 0.0071843183
-0.02774762 0.021835094 0.0733642 0.061467838 -0.017138489 0.0026806607 -0.048273794 0.03716951
0.0814891 -0.027562274 -0.054333743 -0.08683792 0.01279764 0.03246712 -0.048553053 0.0016784561
-0.04369947 -0.04292753 -0.06820289 -0.08516651 -0.03902095 0.06254569 -0.051728554 0.045164682
-0.011827044 -0.06377051 -0.039091043 -0.004667918 0.083925165 -0.06154023 -0.014607281 0.018793799
0.07784651 0.0041891006 0.07487045 0.045611635 0.045089576 -0.007219217 0.08815329 0.026791116
0.05694942 -0.025687274 0.0070890835 0.009096661 0.027303139 0.022518558 -0.030994425 -0.021620953
0.052205052 0.07711339 0.0032646533 -0.07218967 -0.0019353721 -0.055189013 0.047356654 0.017923377
-0.021121088 0.01778007 0.05183763 0.08358247 0.020759191 0.05651404 0.06066003 0.05541241
0.06570799 0.05706207 0.04948863 -0.041186176 0.0016915414 0.048361853 0.0539721 -0.07856885
0.03800461 0.04471725 0.016764535 0.05239299 -0.08031758 -0.05470194 0.08109859 -0.04015305
-0.07329884 0.011657251 0.016219385 -0.053762246 0.010263464 -0.07947628 -0.0018837523 0.0017777584
0.010823133 0.032740068 0.07671325 -0.027995314 -0.04044536 0.08693678 0.008187309 -0.07643562
0.024361163 -0.07450231 0.07981975 -0.04812879 -0.064440235 0.05830445 0.0022330487 0.00083493564
-0.0034820845 -0.075991556 -0.07668239 0.017875304 -0.08247096 -0.0037561806 -0.0270319 -0.019330258
0.027662376 -0.021215554 -0.024585146 -0.031764276 0.0055000903 0.04635388 -0.032068107 0.09028827
-0.013315123 -0.06781464 0.07653293 0.08074128 0.027473707 -0.082335494 0.012282799 0.066169135
0.035185367 -0.063031055 -0.034613326 -0.039634943 -0.04800115 0.019546622 -0.083656445 -0.01970573
-0.08413506 -0.033842787 0.07504601 0.07784626 0.013316066 -0.058464028 0.07442056 0.05820416
00000000: 78b7 b0bc 3346 b03c fcfa 89bd 37d1 183d
00000010: 070d 263d 4cfc 513d 7152 1b3d 4de5 2c3d
00000020: 6f69 763c b164 a5bc 8efa a3bd 51bb 1c3c
00000030: bb93 45bc b5d1 a7bd e6eb 323d 7507 943c
00000040: b165 6a3c 214b 86bd d342 38bd 0438 b43d
00000050: 0a36 6f3d a402 5a3c 7609 923d 754c 90bd
00000060: 6cd3 8e3d e220 b0bd da88 9d3c e201 89bd
00000070: 73ee 37bd 255e 63bd b848 94bc c78a 983c
00000080: b948 52ba a164 9abd 761e 34bd 852f 8abd
00000090: 90af afbd 957d a43d 7de8 793d 2d08 37bb
000000a0: c723 1fbd e2f9 e23c fc6e b63d 5395 1d3c
000000b0: 45f3 2c3d 0d0b 543d a7d7 333d 44c0 bbbd
000000c0: c907 aabd 5bc4 a43d 17cb d93b f719 b33a
000000d0: bf03 bc3c 6117 893d 9496 c03c 7d1a 99bd
000000e0: f749 12bd d66f 9d3d 5c9f 28bd dd75 df3c
000000f0: 36a8 acbd a420 1c3d 1c77 aa3c ddfe 563c
00000100: 3cb6 3f3c e11b 7dbd 3d15 933d 5b55 52bd
00000110: 6165 9a3d 8413 b5bc 9b40 36bd 0f2c 6b3d
00000120: 903b a43c a715 b43d 113d 173d 7240 9fbd
00000130: c3d9 ac3c 28d3 273d 36a5 52bd a8cf 623c
00000140: a097 94bd 48eb 3dbd af59 6bbd 3be8 753c
00000150: de68 83bd 6a34 99bd 4c34 8e3d 3de8 81bd
00000160: 279f 5fbb a91a 163d 078c 023d 2c08 9fbd
00000170: 0b02 88bd e086 893b aef1 1cbd 4e13 61bd
00000180: 25cc 043d 8708 203c e9a5 a7bd 9967 5dbd
00000190: 4527 d2bc 297f eb3c 7937 aebd 0c21 99ba
000001a0: 7672 51bb 8b4d 57bd aa73 1b3d 6141 83bc
000001b0: 046b 62bd 3043 99bd aff8 9abd 6e6a eb3b
000001c0: fa4e e3bc 83df b23c f83f 963d b3c5 7b3d
000001d0: 0466 8cbc 06ae 2f3b beba 45bd 0e3f 183d
000001e0: c2e3 a63d 47ca e1bc 0f8d 5ebd 14d8 b1bd
000001f0: 31ad 513c 3efc 043d 91df 46bd a4ff db3a
00000200: 37fe 32bd c7d4 2fbd f5ad 8bbd c76b aebd
00000210: 6fd4 1fbd f417 803d 52e1 53bd 9afe 383d
00000220: 38c6 41bc 1d9a 82bd ee1d 20bd 56f5 98bb
00000230: f5e0 ab3d 9c11 7cbd 6153 6fbc 74f5 993c
00000240: fe6d 9f3d b944 893b ae55 993d 44d3 3a3d
00000250: d9af 383d 2e8f ecbb b689 b43d 0b79 db3c
00000260: cc43 693d 1e6e d2bc 8b4b e83b 290a 153c
00000270: d5aa df3c d778 b83c 05e8 fdbc 6d1e b1bc
00000280: f7d4 553d a0ed 9d3d cbf3 553b 2dd8 93bd
00000290: 50ac fdba e00d 62bd 0df9 413d 0cd4 923c
000002a0: 2206 adbc 82a7 913c b253 543d 492d ab3d
000002b0: 2e0f aa3c 447b 673d a776 783d 20f8 623d
000002c0: e991 863d ebb9 693d 97b4 4a3d d6b2 28bd
000002d0: b6b6 dd3a 1417 463d d911 5d3d b5e8 a0bd
000002e0: b9aa 1b3d 6f29 373d c755 893c 089a 563d
000002f0: 8b7d a4bd 240f 60bd 0417 a63d 8677 24bd
00000300: b41d 96bd 0efe 3e3c 84de 843c cd35 5cbd
00000310: 1728 283c 76c4 a2bd 3de8 f6ba ac03 e93a
00000320: 8353 313c 731a 063d d61b 9d3d 6e56 e5bc
00000330: 09aa 25bd e90b b23d 1024 063c 478a 9cbd
00000340: 1091 c73c ab94 98bd 8978 a33d b222 45bd
00000350: 3ef9 83bd a6d0 6e3d 5758 123b 95df 5a3a
00000360: af33 64bb 76a1 9bbd a80b 9dbd 3b6f 923c
00000370: 89e6 a8bd 412a 76bb 0172 ddbc 7d5a 9ebc
00000380: 359c e23c 3ecc adbc ca66 c9bc 421b 02bd
00000390: 1a3a b43b 91dd 3d3d d959 03bd 0ee9 b83d
000003a0: ac27 5abc 67e2 8abd 4cbd 9c3d af5b a53d
000003b0: 8a10 e13c 839f a8bd cb3d 493c af83 873d
000003c0: 881e 103d 6d16 81bd b4c6 0dbd 4058 22bd
000003d0: db9c 44bd 3d20 a03c 1254 abbd e96d a1bc
000003e0: 014f acbd bc9e 0abd b9b1 993d dc6d 9f3d
000003f0: a12b 5a3c fa77 6fbd ce69 983d 7c67 6e3d

bias f4 [128]
-0.084704414 0.03661948 0.06300311 0.07281964 0.03272683 -0.043400947 0.07197989 -0.07045253
-0.07789742 0.012272483 -0.017759468 -0.024999801 -0.07761373 -0.026647383 0.033886485 -0.03793635
-0.017362371 -0.023301985 -0.05594109 -0.0110031245 0.054276977 0.074102916 0.05013874 -0.06306111
-0.048247058 0.013307562 0.059150852 -0.053132758 0.009251066 -0.023263417 -0.014980076 0.0320596
0.06765493 0.041590672 0.0010028934 0.05687928 0.004852166 -0.030799072 -0.04245276 0.026524207
-0.042444654 -0.02050084 -0.013201927 0.07171723 -0.056612503 -0.014203768 0.030123439 -0.039316565
0.042055465 -0.060320262 0.076908976 0.04069141 -0.06535889 0.06949315 -0.016681405 0.054716367
0.014148818 0.02515376 -0.05983061 0.08266586 -0.021266272 -0.051862117 -0.007098006 0.037362766
0.058439728 -0.04332073 0.020732772 0.07885989 -0.05919791 0.02180295 0.0411504 -0.0023259188
0.049939457 0.0148961665 0.0731524 0.009137465 -0.014716194 0.03496407 -0.008149306 -0.07234403
0.03151766 -0.070332296 -0.037263338 0.054365747 -0.020921808 -0.037783146 0.07928956 0.024256675
-0.03928407 -0.05571438 0.07310489 0.033381283 0.08410307 -0.07021238 -0.048177745 -0.027653782
-0.0487602 -0.022942577 0.08279952 0.022348257 0.018539231 -0.0130758 0.08542274 0.011261904
-0.07705782 -0.00085369236 0.024040066 0.0011626453 0.07141139 0.011533423 -0.00024092056 -0.057883646
0.05240513 -0.033452295 0.00831268 -0.05266745 0.0073949816 -0.026847055 -0.020413216 -0.04753341
0.014396765 0.025687978 0.013089843 0.061268207 -0.030141765 -0.023471193 0.0669061 0.05477649
00000000: 8279 adbd 4ffe 153d c607 813d 7722 953d
00000010: 920c 063d 31c5 31bd 316a 933d 6b49 90bd
00000020: af88 9fbd 8612 493c 4e7c 91bc 62cc ccbc
00000030: f3f3 9ebd 9d4b dabc 8ecc 0a3d 2563 1bbd
00000040: 883b 8ebc cee3 bebc 7c22 65bd 7346 34bc
00000050: 8951 5e3d 45c3 973d 485e 4d3d 2f26 81bd
00000060: b59e 45bd f607 5a3c 2a48 723d bca1 59bd
00000070: c891 173c ec92 bebc fe6e 75bc ed50 033d
00000080: ab8e 8a3d fb5a 2a3d 8573 833a 3ffa 683d
00000090: ebfe 9e3b 564e fcbc f2e2 2dbd 4b49 d93c
000000a0: 72da 2dbd 61f1 a7bc e54c 58bc 7ce0 923d
000000b0: 83e2 67bd ecb6 68bc 6ec5 f63c 680a 21bd
000000c0: 5a42 2c3d 6112 77bd 7482 9d3d 09ac 263d
000000d0: e2da 85bd 6d52 8e3d 71a7 88bc 451e 603d
000000e0: 72d0 673c 420f ce3c f110 75bd b84c a93d
000000f0: 9b36 aebc 5f6d 54bd 6496 e8bb b309 193d
00000100: 7f5e 6f3d 1471 31bd c6d7 a93c 4b81 a13d
00000110: 8279 72bd 1a9c b23c 528d 283d 716e 18bb
00000120: 518d 4c3d 0d0f 743c edd0 953d 4eb5 153c
00000130: 311c 71bc 7c36 0f3d ab84 05bc 1b29 94bd
00000140: a918 013d 610a 90bd 71a1 18bd 9eae 5e3d
00000150: 3664 abbc 80c2 1abd 9162 a23d efb5 c63c
00000160: 55e8 20bd c334 64bd 04b8 953d d0ba 083d
00000170: 3b3e ac3d 82cb 8fbd 0756 45bd 2f8a e2bc
00000180: c7b8 47bd 12f2 bbbc cb92 a93d b113 b73c
00000190: 96df 973c e13b 56bc 1ef2 ae3d d983 383c
000001a0: 7ed0 9dbd 53ca 5fba acef c43c e763 983a
000001b0: 2340 923d aff6 3c3c 9f9f 7cb9 6717 6dbd
000001c0: c3a6 563d 4605 09bd e831 083c d3b9 57bd
000001d0: 9a51 f23b 5bee dbbc 9e39 a7bc 65b2 42bd
000001e0: 69e0 6b3c 986f d23c c876 563c 5ff4 7a3d
000001f0: ddeb f6bc a946 c0bc 1106 893d 505d 603d

weight f4 [2, 128]
-0.032335974 -0.05206987 0.13820967 -0.069048144 -0.044368934 -0.035773885 -0.04000201 0.010135288
0.07838548 -0.023028618 0.110801235 -0.050691552 -0.049013242 0.010430992 0.008768096 -0.02193121
-0.015712572 0.057597317 0.037491195 -0.03271438 -0.028589424 0.086761706 -0.062600456 -0.12271436
-0.017398914 0.10103404 -0.047168776 -0.06866048 -0.009633308 -0.11733851 0.05034159 0.091244824
-0.037697755 -0.0043925014 0.03948335 -0.07647862 -0.095507 -0.05232402 -0.06825638 0.05405166
-0.08787691 0.083117545 -0.012964252 0.031993642 -0.056503933 0.008124112 -0.08266293 0.007719895
0.055876892 0.021214226 0.025618173 -0.10326538 -0.14658564 0.009288824 0.018392004 -0.006985562
0.07552851 0.01822221 -0.051785406 0.01715563 0.039526816 0.07589434 -0.073988795 0.085771106
0.01056385 -0.017904755 -0.0537945 0.00037872858 0.082605205 0.002342418 0.0477305 -0.07495409
0.1248648 -0.0010723717 -0.0029640673 0.04532558 0.00021067385 -0.09846941 0.013942071 0.019013137
-0.035956822 -0.06388075 -0.067658775 -0.025754958 -0.010731138 0.029379226 -0.0556799 -0.100766145
-0.059669826 -0.077724054 -0.1169929 0.07402262 0.02571062 0.08491893 0.12658969 0.03513105
-0.08168099 -0.12450255 -0.016180646 -0.09337619 -0.09093838 0.006827685 0.1077666 0.005936043
-0.1295138 0.003863542 0.016426956 -0.07833077 0.0568603 -0.0760854 0.014068833 0.021268817
-0.009112207 0.009916519 -0.11758557 0.024809606 -0.13731338 -0.10182738 0.12163797 -0.0076384386
-0.14303291 -0.07282454 0.03137214 0.096602485 -0.0050362805 -0.05922758 -0.07337078 -0.006144183
0.038913272 0.05289929 -0.010360659 -0.10386028 0.040795207 -0.09790775 -0.12356688 -0.055758018
-0.02460963 -0.099994555 0.11253836 -0.0058787875 0.008285355 0.044466928 -0.02710744 -0.080339484
-0.03213698 -0.0805188 -0.039281234 0.1569561 0.06341476 0.07177714 -0.026021387 -0.006311703
0.009025405 -0.078468606 0.005012607 -0.060630746 0.0064835595 0.06734118 -0.13579538 0.076758474
-0.025634898 -0.100974314 0.06614714 0.04647073 -0.037378725 -0.044279337 -0.12049517 -0.017333891
0.08030763 -0.14733171 -0.072366744 -0.10343628 0.08555472 -0.112045735 -0.043028567 -0.053189263
-0.047914002 0.058604944 0.049717113 0.09928923 0.079667695 0.118381046 -0.10328405 -0.027782744
-0.020891134 -0.035538577 -0.008143857 0.05575183 0.016220525 0.10245168 -0.05829739 0.0076218667
0.013581029 0.08866524 0.011613328 0.07584154 -0.07869202 0.08338275 0.047036264 0.0041386355
0.05950773 -0.07275876 0.13177837 -0.09691779 -0.11181555 -0.058521643 0.05458418 0.08186099
0.031053737 -0.038455572 -0.07335379 0.15924783 0.07004996 -0.044013843 0.08246408 0.015348282
0.076293536 -0.07586089 0.08350575 0.04660332 0.108663484 0.014464319 -0.07842776 0.06271047
0.10163599 -0.1756155 -0.011305923 -0.030467547 0.045393813 0.09633525 0.11505991 0.14171825
-0.052033976 -0.0763233 -0.0981652 -0.043596577 0.13836636 -0.068585366 -0.07970988 -0.10820565
-0.037927732 -0.0040798206 -0.025733966 0.06844168 0.028131511 -0.04848674 -0.0101472875 -0.061478652
0.0843824 -0.04036968 0.11721581 -0.05316474 -0.03275156 -0.028356982 -0.013891161 0.11158266
00000000: ba72 04bd 3747 55bd d686 0d3e 1d69 8dbd
00000010: 33bc 35bd a387 12bd 26d9 23bd 7b0e 263c
00000020: 9188 a03d 83a6 bcbc c2eb e23d f2a1 4fbd
00000030: 1cc2 48bd c0e6 2a3c 0fa8 0f3c 15a9 b3bc
00000040: a7b7 80bc 2aeb 6b3d 5e90 193d 84ff 05bd
00000050: 5e34 eabc 1fb0 b13d ab34 80bd ab51 fbbd
00000060: 2b88 8ebc efea ce3d 0c34 41bd de9d 8cbd
00000070: 06d5 1dbc 2c4f f0bd fc32 4e3d 91de ba3d
00000080: f668 1abd f9ee 8fbb 4bb9 213d d3a0 9cbd
00000090: 2d99 c3bd b651 56bd 00ca 8bbd 4665 5d3d
000000a0: cff8 b3bd 8839 aa3d 0468 54bc c40b 033d
000000b0: ab70 67bd ff1a 053c 2f4b a9bd 2cf7 fc3b
000000c0: 2bdf 643d 75c9 ad3c 34dd d13c cd7c d3bd
000000d0: 8c1a 16be 2730 183c d4aa 963c 24e7 e4bb
000000e0: b1ae 9a3d bf46 953c ef1c 54bd f789 8c3c
000000f0: dfe6 213d 7e6e 9b3d 7087 97bd c3a8 af3d
00000100: 0014 2d3c feac 92bc 9f57 5cbd 1790 c639
00000110: eb2c a93d 4183 193b 0f81 433d 8881 99bd
00000120: 1eb9 ff3d d38e 8cba cc40 42bb 51a7 393d
00000130: 55e8 5c39 54aa c9bd 496d 643c 70c1 9b3c
00000140: 7647 13bd e9d3 82bd af90 8abd 10fc d2bc
00000150: a8d1 2fbc b4ac f03c 9b10 64bd 7b5e cebd
00000160: 5968 74bd ca2d 9fbd f999 efbd 2c99 973d
00000170: 149f d23c fae9 ad3d baa0 013e 93e5 0f3d
00000180: 5d48 a7bd 31fb febd 468d 84bc 043c bfbd
00000190: e73d babd c6ba df3b bcb4 dc3d 2383 c23b
000001a0: 449f 04be 7b33 7d3b d391 863c e26b a0bd
000001b0: 59e6 683d aad2 9bbd f680 663c f13b ae3c
000001c0: 5e4b 15bc e578 223c b4d0 f0bd 843d cb3c
000001d0: e19b 0cbe e08a d0bd 541d f93d de4b fabb
000001e0: 3877 12be 0825 95bd 1380 003d 86d7 c53d
000001f0: 6207 a5bb 9e98 72bd 6b43 96bd 2555 c9bb
00000200: 8663 1f3d edac 583d c1bf 29bc b3b4 d4bd
00000210: e018 273d dc83 c8bd a210 fdbd 8562 64bd
00000220: 239a c9bc f2c9 ccbd 837a e63d d8a2 c0bb
00000230: 4cbf 073c f422 363d 6c10 debc 0789 a4bd
00000240: 11a2 03bd 0ae7 a4bd 5ce5 20bd 1ab9 203e
00000250: 99df 813d e5ff 923d ce2a d5bc 67d2 cebb
00000260: 4bdf 133c 26b4 a0bd cc40 a43b f257 78bd
00000270: 0a74 d43b 2cea 893d f20d 0bbe 8c33 9d3d
00000280: 4700 d2bc 9fcb cebd 2778 873d 1858 3e3d
00000290: 6f1a 19bd 405e 35bd 2cc6 f6bd ceff 8dbc
000002a0: 5478 a43d 20de 16be 0435 94bd 66d6 d3bd
000002b0: 5037 af3d 3c78 e5bd b93e 30bd fcdc 59bd
000002c0: 7941 44bd bd0b 703d 2ca4 4b3d 2758 cb3d
000002d0: d128 a33d c371 f23d 9786 d3bd a398 e3bc
000002e0: e223 abbc e690 11bd d06d 05bc 085c 643d
000002f0: e8e0 843c 30d2 d13d 3ec9 6ebd dac0 f93b
00000300: f782 5e3c 1f96 b53d d445 3e3c cf52 9b3d
00000310: 4829 a1bd 93c4 aa3d 19a9 403d 649d 873b
00000320: 61be 733d 8b02 95bd e9f0 063e d67c c6bd
00000330: 8dff e4bd 64b4 6fbd a993 5f3d bca6 a73d
00000340: 6864 fe3c 9783 1dbd 833a 96bd dd11 233e
00000350: 5a76 8f3d dc47 34bd ede2 a83d 5c77 7b3c
00000360: c93f 9c3d f45c 9bbd 1005 ab3d 1fe3 3e3d
00000370: f68a de3d c0fb 6c3c bc9e a0bd 596e 803d
00000380: 8826 d03d 8dd4 33be 7a3c 39bc 1497 f9bc
00000390: ddee 393d 6a4b c53d 88a4 eb3d 971e 113e
000003a0: 9421 55bd 644f 9cbd d60a c9bd 5392 32bd
000003b0: e9af 0d3e 7c76 8cbd ef3e a3bd ec9a ddbd
000003c0: 1c5a 1bbd 04b0 85bb 0ad0 d2bc 272b 8c3d
000003d0: 0e74 e63c 089a 46bd cf40 26bc 0ad1 7bbd
000003e0: aed0 ac3d ad5a 25bd d80e f03d 45c3 59bd
000003f0: 8026 06bd e74c e8bc c197 63bc 7385 e43d

bias f4 [2]
0.019908374 0.06280772
00000000: e316 a33c 55a1 803d
