clone_data/cyan_clone_200ep_100trn_1000_expert_runs/cyan_clone_200ep_100trn_1000_expert_runs_s0/pyt_save/model.pt (torch, 104138 bytes, 9 tensors)

log_std f4 [2]
-0.5 -0.5
00000000: 0000 00bf 0000 00bf

weight f4 [128, 60]
0.029171418 0.049178254 0.10044359 0.1958545 -0.04377815 -0.2446218 0.21716172 0.032217298
0.010930045 0.085712895 -0.29150474 -0.3381311 -0.022929994 -0.4807423 -0.10058859 0.044383667
0.0337433 0.19151928 0.06754392 0.10394143 0.043036245 -0.011353313 -0.1173276 -0.18526566
-0.004424424 -0.11475922 -0.28101674 -0.15347198 -0.08052169 0.13631742 0.0706066 -0.06461123
-0.32456622 -0.07389571 0.029780889 -0.04364739 0.046851207 -0.10969246 -0.27602908 -0.22914867
-0.06667594 0.31626672 0.12930499 -0.23953727 -0.15376288 -0.23778073 -0.21767893 0.049027804
-0.025465967 -0.039825354 -0.07445331 -0.018541673 0.084384315 0.07487341 -0.10993153 -0.08248404
-0.1020133 -0.0054035927 0.06443613 -0.0046614017 0.09588901 -0.043293323 0.023860626 0.2573559
0.312887 0.3191703 0.37900913 -0.5043262 0.12762246 -0.14901139 -0.28544044 -0.068441376
-0.10035759 -0.21912208 0.099718735 -0.018991169 -0.047366228 -0.009355123 0.05071618 -0.020774439
0.10238738 0.093511194 0.09780556 -0.053349882 -0.08751583 0.009305757 0.08271724 0.040507596
0.06807657 0.14331065 0.1443059 -0.093773395 0.30703786 -0.03889237 0.18933764 -0.0413711
0.14023305 -0.062682815 -0.12971248 0.0037620843 -0.0416272 0.12127327 -0.17538978 -0.29272768
-0.13532393 0.06606114 0.42597777 -0.18227118 0.012143053 0.1905568 0.09557083 0.17865917
-0.12649782 0.19626403 -0.0371385 -0.060240414 -0.19058874 -0.09051772 -0.3529371 -0.051814266
-0.056711756 0.07777254 -0.061372273 -0.1681667 -0.21687527 0.28816864 -0.5191098 0.092368335
0.04534119 0.15999927 0.42950752 0.11497046 -0.047958907 0.111830145 0.09168592 -0.09495795
0.17925216 -0.10652711 -0.02187702 -0.012434632 0.12504537 0.23619397 0.07349897 -0.011154739
0.052562475 -0.13296705 -0.21219052 -0.17596175 0.0992055 0.046235625 0.05075304 -0.026490588
0.011866031 -0.055825837 0.05564578 0.15200709 -0.007133056 0.07315351 0.030443689 0.2307727
0.018121751 -0.078495994 -0.083485946 -0.10121693 0.03200016 0.1910723 -0.23590963 -0.23486975
0.2917865 0.17292711 -0.03945564 -0.14057088 -0.09083848 0.04355678 -0.013485107 -0.05154305
-0.2650761 0.29980212 -0.39827943 -0.07090724 0.12502293 -0.056853645 0.09960204 0.32593188
0.22815219 0.6983066 -0.09283729 -0.20004115 -0.28802285 -0.24196997 0.15976745 0.14984609
0.3070762 0.17470007 0.08062027 0.034405015 -0.12849897 -0.30465543 -0.059334423 0.038948208
-0.054029666 -0.09767041 0.020374482 -0.2310548 -0.084233895 -0.11873854 -0.22408696 0.12975761
0.0939528 0.092990294 -0.119952925 -0.16250674 0.11758014 -0.16066442 0.10784867 -0.035113096
-0.121800825 0.03588473 0.026248066 -0.010575625 -0.07861705 -0.13011864 -0.17607628 0.063144
0.13914631 -0.04384966 -0.10068573 -0.31566733 0.19534923 -0.037082795 -0.071666546 -0.18603294
-0.0165758 0.4065468 0.16677304 0.08538529 -0.14638066 0.008553125 -0.11508896 -0.10164276
-0.07457165 0.14286242 -0.053431895 -0.43231282 -0.37028712 -0.029678613 -0.0855582 0.23478082
0.16720146 0.33300763 0.21301556 0.2777269 -0.33435726 -0.043474264 0.2516395 -0.18556312
00000000: e6f8 ee3c 236f 493d 5eb5 cd3d 158e 483e
00000010: b850 33bd 237e 7abe a45f 5e3e 49f6 033d
00000020: ee13 333c 3e8a af3d 1c40 95be 851f adbe
00000030: afd7 bbbc db23 f6be 6401 cebd a6cb 353d
00000040: 6a36 0a3d a11d 443e 7754 8a3d 3fdf d43d
00000050: c646 303d 3f03 3abc 7449 f0bd 48b6 3dbe
00000060: c2fa 90bb e206 ebbd 6de1 8fbe c227 1dbe
00000070: 8ee8 a4bd cb96 0b3e 319a 903d e452 84bd
00000080: 8b2d a6be a256 97bd 0df7 f33c 9bc7 32bd
00000090: 0de7 3f3d 71a6 e0bd af53 8dbe f3a5 6abe
000000a0: 658d 88bd b6ed a13e 8768 043e 4249 75be
000000b0: 0474 1dbe cb7c 73be 3ae7 5ebe 61d1 483d
000000c0: 019e d0bc e91f 23bd fa7a 98bd b5e4 97bc
000000d0: afd1 ac3d 3b57 993d c823 e1bd 64ed a8bd
000000e0: 59ec d0bd 9f10 b1bb 17f7 833d acbe 98bb
000000f0: 7561 c43d 5754 31bd 5c77 c33c 27c4 833e
00000100: ba32 a03e 4a6a a33e 7c0d c23e 861b 01bf
00000110: 76af 023e 7196 18be 4025 92be fe2a 8cbd
00000120: 4888 cdbd 8a61 60be 5639 cc3d 5e93 9bbc
00000130: 1703 42bd 3b46 19bc c5bb 4f3d 282f aabc
00000140: 7ab0 d13d cc82 bf3d 484e c83d 6885 5abd
00000150: 803b b3bd 2c77 183c a867 a93d 4beb 253d
00000160: bb6b 8b3d 07c0 123e edc4 133e 440c c0bd
00000170: 1134 9d3e 9b4d 1fbd bae1 413e be74 29bd
00000180: 4199 0f3e d95f 80bd 59d3 04be 4d8d 763b
00000190: 4881 2abd 1f5e f83d 6199 33be 67e0 95be
000001a0: 5b92 0abe 104b 873d c219 da3e 4ca5 3abe
000001b0: a8f3 463c 5221 433e a4ba c33d 6ef2 363e
000001c0: a588 01be 70f9 483e 8a1e 18bd a7be 76bd
000001d0: b229 43be 5b61 b9bd 2cb4 b4be 323b 54bd
000001e0: 964a 68bd 3647 9f3d 7e61 7bbd e433 2cbe
000001f0: 8d14 5ebe d78a 933e 61e4 04bf 9c2b bd3d
00000200: afb7 393d d9d6 233e 69e8 db3e a275 eb3d
00000210: 8f70 44bd 3407 e53d d4c5 bb3d 5079 c2bd
00000220: e18d 373e e32a dabd 7037 b3bc a0ba 4bbc
00000230: e50b 003e d5dc 713e a186 963d 5ec2 36bc
00000240: c04b 573d 8428 08be 7948 59be 512f 34be
00000250: 412c cb3d 9161 3d3d 6be2 4f3d ca02 d9bc
00000260: be69 423c a2a9 64bd d4ec 633d bfa7 1b3e
00000270: 69bc e9bb 82d1 953d 0b65 f93c ae4f 6c3e
00000280: 1174 943c 82c2 a0bd aefa aabd d24a cfbd
00000290: 9a12 033d 75a8 433e 4b92 71be b281 70be
000002a0: 0a65 953e ce13 313e 3d9c 21bd d0f1 0fbe
000002b0: 8609 babd 9868 323d a3f0 5cbc ce1e 53bd
000002c0: 0eb8 87be aa7f 993e 48eb cbbe d137 91bd
000002d0: 0306 003e 5edf 68bd 28fc cb3d 8be0 a63e
000002e0: baa0 693e 39c4 323f 7a21 bebd 96d7 4cbe
000002f0: bb77 93be fac6 77be 149a 233e 4171 193e
00000300: 1739 9d3e 93e4 323e 3d1c a53d 46ec 0c3d
00000310: 3c95 03be ccfb 9bbe a708 73bd 2888 1f3d
00000320: 364e 5dbd 6d07 c8bd 63e8 a63c a199 6cbe
00000330: d282 acbd 312d f3bd 0d77 65be 2edf 043e
00000340: 536a c03d b271 be3d e1a9 f5bd 2b68 26be
00000350: dbcd f03d 3785 24be c3df dc3d c0d2 0fbd
00000360: b672 f9bd defb 123d 2f06 d73c 6345 2dbc
00000370: fa01 a1bd d23d 05be 574d 34be a451 813d
00000380: 5f7c 0e3e b39b 33bd 5234 cebd 269f a1be
00000390: a109 483e 21e4 17bd e9c5 92bd 6b7f 3ebe
000003a0: f9c9 87bc e726 d03e 8dc6 2a3e 7cde ae3d
000003b0: d0e4 15be 6822 0c3c c3b3 ebbd 142a d0bd
000003c0: 05b9 98bd 874a 123e 67db 5abd 1b58 ddbe
000003d0: 4696 bdbe 9020 f3bc 2339 afbd 626a 703e
000003e0: dc36 2b3e fa7f aa3e c020 5a3e 3832 8e3e
000003f0: e030 abbe 1212 32bd e4d6 803e 4204 3ebe

bias f4 [128]
0.10738329 -0.0340179 -0.04620457 0.024411881 0.06277941 0.116842605 0.09566234 0.10480755
-0.074083984 -0.13304193 -0.11462831 0.0997944 0.09712525 0.02192987 0.04743447 0.023157977
0.024133213 -0.03206174 -0.0835875 -0.032169186 -0.032881156 0.06403717 0.06710537 -0.014922588
-0.07626734 0.06426472 -0.09725545 -0.09276575 -0.13040273 0.10566503 -0.0708363 -0.07534967
-0.031212384 0.012255543 0.12342519 -0.07929116 -0.04348951 -0.00059165386 0.056142505 0.13802801
0.02062458 -0.07157783 -0.030474367 -0.105229065 -0.14939614 0.14952388 -0.106996 0.106807426
-0.13180678 -0.010247709 0.110271424 -0.051364113 -0.0065792473 0.05872661 -0.08825731 0.076837145
-0.020497527 0.087685965 -0.03333366 0.06553971 0.07617594 0.06073097 0.03721825 0.090838745
-0.015317523 0.00811706 -0.09713677 -0.12004508 -0.00011835851 0.11785567 0.062043402 -0.025804421
-0.10194578 -0.06455293 -0.056520313 0.070779786 0.10340221 -0.086179934 -0.08877218 -0.08818563
-0.07298118 0.15735367 0.0867124 -0.07356264 -0.016059441 -0.10966572 -0.020404438 -0.113047905
-0.05955404 0.02266315 0.03953131 0.043918 0.07240181 0.032146122 -0.06154586 0.015258312
-0.10507211 -0.099354 -0.09198034 0.04124561 0.015215506 0.07979359 -0.0704733 0.013243581
-0.122714184 0.0030029446 -0.05003407 -0.073224254 0.047962107 -0.046548374 -0.0043836343 0.09788886
-0.08508495 -0.039728556 -0.058598865 -0.060292713 0.117581494 0.11148146 -0.020576935 -0.050974738
0.06219174 0.057525344 0.09967315 0.0046958094 -0.07752768 0.010092135 -0.05069916 0.034683604
00000000: c5eb db3d 5a56 0bbd 0141 3dbd 6dfb c73c
00000010: 7e92 803d 2d4b ef3d 9eea c33d 57a5 d63d
00000020: 58b9 97bd 253c 08be 3fc2 eabd 0261 cc3d
00000030: 9ae9 c63d 45a6 b33c a64a 423d ccb5 bd3c
00000040: 04b3 c53c 2c53 03bd ec2f abbd d6c3 03bd
00000050: 64ae 06bd eb25 833d 8a6e 893d df7d 74bc
00000060: 0d32 9cbd 399d 833d de2d c7bd f8fb bdbd
00000070: 4b88 05be e866 d83d 9f12 91bd ee50 9abd
00000080: 1db1 ffbc 79cb 483c 59c6 fc3d 6763 a2bd
00000090: 0e22 32bd 3819 1bba aff5 653d 3757 0d3e
000000a0: e1f4 a83c 6697 92bd 61a5 f9bc 5682 d7bd
000000b0: 4dfb 18be ca1c 193e b820 dbbd dabd da3d
000000c0: 5bf8 06be 02e6 27bc fcd5 e13d 2d63 52bd
000000d0: ba96 d7bb 508b 703d 40c0 b4bd cb5c 9d3d
000000e0: 6eea a7bc b394 b33d e088 08bd af39 863d
000000f0: 2202 9c3d 0ac1 783d 2a72 183d aa09 ba3d
00000100: 59f6 7abc 6bfd 043c a5ef c6bd 32da f5bd
00000110: 3e37 f8b8 505e f13d 3921 7e3d cb63 d3bc
00000120: f3c8 d0bd 5434 84bd d881 67bd fef4 903d
00000130: 8ac4 d33d 1b7f b0bd 30ce b5bd ab9a b4bd
00000140: 2877 95bd 5221 213e 4596 b13d 02a8 96bd
00000150: 178f 83bc 6c98 e0bd 3527 a7bc a985 e7bd
00000160: f0ee 73bd 12a8 b93c 95eb 213d 5ce3 333d
00000170: 6647 943d a7ab 033d 8317 7cbd 00fe 793c
00000180: 0c30 d7bd 1c7a cbbd 3060 bcbd 28f1 283d
00000190: 754a 793c d26a a33d 4e54 90bd 9bfb 583c
000001a0: 9351 fbbd 0dcd 443b 86f0 4cbd 99f6 95bd
000001b0: ea73 443d 82a9 3ebd 97a4 8fbb f479 c83d
000001c0: 0541 aebd 69ba 22bd 5d05 70bd 7ef5 76bd
000001d0: 91ce f03d 6450 e43d f690 a8bc e3ca 50bd
000001e0: c4bc 7e3d b29f 6b3d 7021 cc3d 4edf 993b
000001f0: d5c6 9ebd 7b59 253c eca9 4fbd 6510 0e3d

weight f4 [128, 128]
0.08005437 0.0952719 -0.08573607 0.060599506 -0.36592808 0.033336002 0.012703432 -0.024328353
-0.34811127 -0.009216852 -0.069168404 -0.017772121 0.25759324 0.0073196874 -0.085049964 -0.13957264
-0.16915672 0.17639495 0.018215492 -0.072796054 0.06602955 -0.5061336 -0.29590154 0.049157314
0.01568561 0.035635654 -0.017047806 -0.10537777 -0.18655328 0.013277427 -0.036097895 -0.10062334
0.123912886 -0.18709096 -0.009813933 0.11310685 0.29429865 -0.0023026713 -0.00094067655 -0.008199546
-0.10171917 0.054003924 0.020773323 0.0741702 -0.07376175 -0.07968846 0.013297133 -0.21009484
0.1470687 0.044477116 -0.15163067 0.022390172 -0.018635962 0.10942557 0.0848245 0.03336926
0.18542558 0.10501047 -0.0116088055 0.041327234 -0.032037005 -0.16871986 -0.20116328 0.00389306
0.015803905 -0.10103798 -0.034610517 -0.069817975 -0.050665766 0.075453065 0.081007116 0.048396148
0.10150515 0.11048239 0.020442158 -0.484499 -0.16121382 0.10655812 -0.016089872 0.11330467
0.11291857 0.16304831 0.09362968 -0.06277272 -0.0037815128 -0.0946104 0.24450064 -0.09537817
0.0747952 -0.00038231624 -0.024769003 0.043986488 0.09755216 0.030326892 0.013194846 -0.10603795
-0.32111225 0.0012188838 -0.33422711 -0.18536268 0.15955868 0.04784032 -0.034890857 0.044188756
0.13242018 -0.07079607 0.064348646 -0.016984928 -0.06769676 0.13676856 0.0807929 -0.030949848
0.023481669 0.120594785 0.02549 -0.028163146 -0.39651823 0.15075561 0.05663571 0.14781536
-0.12323943 -0.029798664 -0.21146032 -0.08707577 0.017566951 -0.013962805 -0.41317517 -0.025092239
-0.021131055 0.113998294 0.32854837 -0.06749679 -0.53647083 0.2019943 0.07936855 -0.11428525
0.0054887864 0.056863345 -0.010196798 -0.06478654 0.11615585 -0.557967 0.020158997 0.044460893
-0.10224699 0.18659967 0.03283685 -0.18935233 0.27013052 -0.06315265 0.111093156 -0.04883401
-0.30857253 0.051675048 -0.11856464 0.17591968 -0.1385116 -0.12283412 0.07999181 0.13267894
0.1250847 0.1918189 -0.12247653 -0.004306552 -0.46396527 -0.023514837 0.07856693 -0.02382847
0.025449626 0.025487324 -0.16194153 -0.15142761 -0.06046305 0.20647411 -0.024478724 0.009825651
0.061038498 -0.045712512 0.32726154 0.045004714 -0.01194633 0.07010239 0.021104854 0.13342488
0.086382866 0.07461714 0.01046033 -0.10500152 0.10654267 -0.07366265 -0.7011304 0.042757157
-0.2664194 -0.3257023 -0.1448908 0.16711685 -0.16091998 0.053857908 0.024267578 0.32451257
0.15081084 0.29825512 -0.0040598824 -0.12319583 -0.377722 -0.29706237 0.028427782 -0.0598585
-0.24297366 -0.09803812 -0.11244247 0.08272403 -0.032110844 -0.05579229 -0.09686933 0.057225395
-0.010823875 0.12234764 -0.27227274 0.13536982 0.21128927 -0.040167477 0.0070289616 -0.02062171
-0.16682719 -0.05659078 0.24021944 0.070709094 0.11080322 0.079359666 0.06309313 0.03880228
0.18123478 0.16680688 -0.24118458 0.15839225 -0.10100966 -0.15392518 -0.062459074 -0.17960444
0.15573801 0.069720894 -0.005863664 -0.21571589 0.71548617 0.09345456 -0.6591539 0.08247237
-0.32639349 -0.025296511 -0.09774314 -0.2777213 0.021725403 -0.19370995 -0.39613363 -0.079991266
00000000: 8cf3 a33d ea1d c33d 6596 afbd 3037 783d
00000010: ed5a bbbe 558b 083d 0e22 503c 414c c7bc
00000020: a43b b2be 4702 17bc 2aa8 8dbd d796 91bc
00000030: 43e3 833e fdd9 ef3b ad2e aebd 21ec 0ebe
00000040: 6b37 2dbe e1a0 343e a838 953c 1916 95bd
00000050: 803a 873d f991 01bf 6880 97be 2e59 493d
00000060: 1c7f 803c b1f6 113d d7a7 8bbc 4dd0 d7bd
00000070: d307 3fbe 9189 593c 63db 13bd 9c13 cebd
00000080: 0ac6 fd3d c694 3fbe 9eca 20bc 90a4 e73d
00000090: 50ae 963e 6ae8 16bb bc97 76ba 6357 06bc
000000a0: 2452 d0bd 3833 5d3d d12c aa3c 8ce6 973d
000000b0: 6610 97bd b433 a3bd 38dc 593c 1a23 57be
000000c0: 2d99 163e a32d 363d 1245 1bbe 986b b73c
000000d0: 72aa 98bc 831a e03d 78b8 ad3d 35ae 083d
000000e0: 34e0 3d3e bb0f d73d dc32 3ebc bf46 293d
000000f0: 3c39 03bd e6c4 2cbe bffd 4dbe b522 7f3b
00000100: 3177 813c 00ed cebd c2c3 0dbd bafc 8ebd
00000110: e886 4fbd 2387 9a3d 0fe7 a53d 0a3b 463d
00000120: efe1 cf3d 9744 e23d 5076 a73c 4110 f8be
00000130: 3c15 25be 253b da3d e8ce 83bc 470c e83d
00000140: da41 e73d 23f6 263e ebc0 bf3d fc8e 80bd
00000150: 42d3 77bb 19c3 c1bd 605e 7a3e a155 c3bd
00000160: 3a2e 993d 9e71 c8b9 5de8 cabc 2d2b 343d
00000170: 6dc9 c73d 1a70 f83c 322f 583c 6d2a d9bd
00000180: d368 a4be f4c2 9f3a d11f abbe b7cf 3dbe
00000190: 5a63 233e 36f4 433d b7e9 0ebd 45ff 343d
000001a0: 2899 073e 88fd 90bd 39c9 833d fa23 8bbc
000001b0: 99a4 8abd 0f0d 0c3e bf76 a53d 898a fdbc
000001c0: a15c c03c 66fa f63d 68d0 d03c 66b6 e6bc
000001d0: 7004 cbbe ae5f 1a3e d9fa 673d e95c 173e
000001e0: f464 fcbd 541c f4bc 0e89 58be c854 b2bd
000001f0: 91e8 8f3c 40c4 64bc b28b d3be 3d8e cdbc
00000200: 091b adbc f077 e93d 7e37 a83e c23b 8abd
00000210: 2756 09bf 98d7 4e3e fa8b a23d 630e eabd
00000220: 47db b33b 8ae9 683d 7810 27bc ceae 84bd
00000230: 1ee3 ed3d edd6 0ebf 7b24 a53c a01c 363d
00000240: df66 d1bd fc13 3f3e ef7f 063d 94e5 41be
00000250: 8c4e 8a3e 2d56 81bd cf84 e33d 2c06 48bd
00000260: 38fd 9dbe 37a9 533d 05d2 f2bd 4a24 343e
00000270: fcd5 0dbe 7590 fbbd bfd2 a33d fddc 073e
00000280: 3416 003e 2c6c 443e fad4 fabd fa1d 8dbb
00000290: db8c edbe 30a2 c0bc b3e7 a03d ec33 c3bc
000002a0: bc7b d03c cbca d03c 00d4 25be d70f 1bbe
000002b0: 1aa8 77bd f36d 533e 9b87 c8bc c4fb 203c
000002c0: 8103 7a3d 0b3d 3bbd d38e a73e dd56 383d
000002d0: 8aba 43bc d891 8f3d 16e4 ac3c 88a0 083e
000002e0: 80e9 b03d dfd0 983d ce61 2b3c 090b d7bd
000002f0: 0b33 da3d 72dc 96bd 487d 33bf 2122 2f3d
00000300: 2068 88be 74c2 a6be 415e 14be ae20 2b3e
00000310: 35c8 24be 1c9a 5c3d cdcc c63c 8326 a63e
00000320: 286e 1a3e e5b4 983e c308 85bb 184e fcbd
00000330: c764 c1be 8f18 98be 61e1 e83c 302e 75bd
00000340: 16ce 78be 36c8 c8bd 3d48 e6bd 376b a93d
00000350: a986 03bd 7586 64bd 6d63 c6bd 2d65 6a3d
00000360: 9f56 31bc 6691 fa3d 5567 8bbe 639e 0a3e
00000370: 375c 583e a786 24bd 3453 e63b dcee a8bc
00000380: bfd4 2abe bccb 67bd 16fc 753e eecf 903d
00000390: ccec e23d 5287 a23d f936 813d 24ef 1e3d
000003a0: 9c95 393e 6ccf 2a3e 17f9 76be 9431 223e
000003b0: 27de cebd 909e 1dbe 16d5 7fbd 3aea 37be
000003c0: c979 1f3e d4c9 8e3d fb23 c0bb a0e4 5cbe
000003d0: 1a2a 373f 1b65 bf3d 4fbe 28bf 46e7 a83d
000003e0: 0c1d a7be a13a cfbc 8e2d c8bd 7c31 8ebe
000003f0: 79f9 b13c e75b 46be 07d2 cabe 76d2 a3bd

bias f4 [128]
0.074141726 0.030466693 0.05187482 0.0942152 -0.00084524625 0.020978484 -0.022348141 -0.045497946
0.007187422 -0.049511902 -0.0098572085 0.088837124 0.054739896 0.029963098 0.08832443 -0.026346564
-0.024703331 -0.02018314 -0.05197816 0.032442577 -0.033671558 0.058382448 0.0824341 -0.052761223
0.08559665 0.10805779 -0.049407996 -0.02111676 -0.00393301 -0.09902349 0.05682026 0.045972742
-0.0024865698 -0.046143446 -0.024786543 0.085479066 0.02767753 0.009767969 0.07237859 0.10345223
0.11007966 0.047163945 -0.0057754223 -0.015187515 0.078338765 -0.09058564 -0.07426522 0.0039659687
0.03387369 0.03732809 0.023790263 -0.0030711947 0.03920403 0.056001037 -0.012376205 0.026647476
0.010761965 -0.0420854 0.08546957 -0.0014716793 -0.009866933 0.029462429 -0.10809766 0.051417023
0.027536852 0.04751985 0.00609325 0.10430356 0.0365053 0.09939642 -0.050440654 0.10006667
0.06610396 0.09698046 0.06571157 -0.0024001324 0.025452252 0.09613781 0.032668736 0.06165413
-0.09045975 0.040918197 -0.036467385 0.091534436 -0.09695678 0.05493794 0.072370104 0.096325085
0.06871615 0.07637522 0.06508736 0.06739073 0.08035704 -0.01969626 0.083675675 -0.034968797
0.022476139 -0.0019578405 0.018139295 -0.07881164 0.03149198 -0.047407098 0.05106869 0.017085513
-0.04400103 0.106962286 0.12829919 -0.0065478534 0.007659958 0.05120385 0.02317665 0.06824799
0.10289711 0.11421094 -0.033908486 -0.06627962 0.06913209 0.08971171 -0.103082255 0.03286409
-0.014395647 0.022385433 0.11850472 0.047273494 -0.027333308 0.009044727 -0.014317393 -0.068948984
00000000: 9ed7 973d 4995 f93c b17a 543d e6f3 c03d
00000010: 8493 5dba 12db ab3c 7313 b7bc 0e5c 3abd
00000020: 7784 eb3b fecc 4abd 2180 21bc 3df0 b53d
00000030: f136 603d 2c75 f53c 70e3 b43d c0d4 d7bc
00000040: a45e cabc 1d57 a5bc 0de7 54bd 82e2 043d
00000050: 30eb 09bd 6f22 6f3d 36d3 a83d 271c 58bd
00000060: 4c4d af3d 674d dd3d 0a60 4abd 0efd acbc
00000070: 7be0 80bb d4cc cabd 5cbc 683d ea4d 3c3d
00000080: b8f5 22bb e900 3dbd 260d cbbc a60f af3d
00000090: fdbb e23c d509 203c 3a3b 943d c3de d33d
000000a0: 7271 e13d fb2e 413d c13f bdbb 0ed5 78bc
000000b0: 1370 a03d f784 b9bd 5d18 98bd f5f4 813b
000000c0: 23bf 0a3d 57e5 183d cce3 c23c 1946 49bb
000000d0: 6894 203d 5861 653d 91c5 4abc cf4b da3c
000000e0: f452 303c be61 2cbd ab0a af3d 5de5 c0ba
000000f0: eba8 21bc 315b f13c 4e62 ddbd a89a 523d
00000100: f794 e13c 2da4 423d e3a9 c73b 1b9d d53d
00000110: 9586 153d 5a90 cb3d dc9a 4ebd c1ef cc3d
00000120: 8361 873d b19d c63d ca93 863d 8a4b 1dbb
00000130: 3e81 d03c e6e3 c43d a7cf 053d 0b89 7c3d
00000140: f642 b9bd d799 273d d35e 15bd 6876 bb3d
00000150: 4791 c6bd 9b06 613d c736 943d 1646 c53d
00000160: 0ebb 8c3d 9d6a 9c3d 864c 853d 2704 8a3d
00000170: 3b92 a43d 0d5a a1bc 275e ab3d 713b 0fbd
00000180: e11f b83c 1d4f 00bb dc98 943c ff67 a1bd
00000190: bcfd 003d f22d 42bd 672d 513d ebf6 8b3c
000001a0: 6d3a 34bd 0b0f db3d dd60 033e 608f d6bb
000001b0: 6300 fb3b 21bb 513d f5dc bd3c 9ac5 8b3d
000001c0: b8bb d23d 6de7 e93d a0e3 0abd 9cbd 87bd
000001d0: 2095 8d3d c6ba b73d ca1c d3bd 7f9c 063d
000001e0: b8db 6bbc a861 b73c 9ab2 f23d daa1 413d
000001f0: 1aea dfbc 5630 143c 8093 6abc 2035 8dbd

weight f4 [2, 128]
0.24773069 -0.36522284 -0.16592333 -0.13214399 -0.24462251 0.29869348 0.12805483 0.47062707
0.1601339 -0.089424476 0.0021477377 0.14676118 0.25578737 0.031832725 0.08010393 -0.06304262
-0.34012753 -0.4553172 -0.027570779 0.24668695 -0.16490515 0.10044961 -0.018547494 -0.46585283
0.09829669 -0.18026848 -0.023496302 -0.09838485 0.19142866 0.012708586 -0.050905667 0.09557113
0.012007081 0.26302186 -0.072398566 0.13491069 -0.2421633 0.04535693 0.07850742 0.10387357
0.12122703 0.07583546 0.13138705 0.15622844 -0.029265227 -0.23912552 -0.092544325 0.19734386
-0.004993937 0.17067319 -0.19561365 -0.15020417 -0.317662 -0.22929253 -0.22515187 0.005547185
0.00806427 0.06804748 -0.25167814 0.0068910094 -0.04532415 -0.23516107 0.52567464 0.09080946
0.19928248 0.09363369 -0.08261895 0.063534304 -0.13566923 0.04841764 -0.038898338 -0.21110967
-0.22046113 0.31901926 0.08953174 0.16646649 0.14632156 0.09841162 -0.03145245 0.14714605
-0.036019016 0.3804742 0.014951213 -0.16485098 -0.004665311 -0.27144054 0.11833195 0.05046789
-0.19000842 0.016315652 -0.28344193 0.21648347 -0.064587004 0.1427778 0.1801261 -0.19397807
-0.004262053 0.15559258 0.1991475 -0.017610945 -0.10373256 0.15200399 -0.53812927 0.34249157
-0.11212278 0.116464846 0.10595537 -0.049617283 -0.2813012 0.093098275 0.1455081 0.11544527
0.16873595 -0.17386483 0.11089926 0.3670414 0.045868907 -0.1489531 -0.07374563 0.029570859
-0.28643075 -0.22272979 0.19100592 -0.08266647 -0.24762523 -0.18273802 -0.1722675 0.009433339
0.095265836 0.2898214 -0.19442844 0.070894085 -0.22052665 0.23882209 -0.15570061 -0.13539816
-0.07897206 0.03760477 0.010087477 -0.01580707 -0.16181804 0.06640299 -0.29253033 -0.22890638
-0.10647021 -0.025418414 -0.06844329 -0.014782937 -0.09665532 0.024957163 -0.166312 -0.16360591
0.20935062 -0.19470668 -0.030432712 -0.19501607 -0.06556359 -0.0024117555 0.07904155 0.08813209
0.1827492 0.20741957 -0.392706 -0.23914348 0.05286544 0.021259109 0.12777331 -0.1710388
0.2146192 -0.064215764 0.35128778 -0.074452534 0.32436672 -0.012885047 0.19703445 0.05155195
-0.0009882996 0.11121896 0.041737113 0.033259727 0.20107703 -0.14671007 0.14116222 0.0017955307
0.046201598 0.16803999 0.17615438 0.02754132 -0.05313433 0.099648885 0.11452616 0.11609609
-0.18241487 0.073713526 -0.23088518 -0.09603212 -0.042953283 0.09190742 -0.15382694 0.037059676
-0.2925002 -0.19830346 -0.047498554 -0.07997869 0.14339568 0.10622693 -0.59584224 -0.16726913
-0.02243151 -0.036832858 0.0068880096 -0.17553726 0.0033770194 -0.12693879 -0.19278894 -0.16762559
0.033231027 0.18978505 0.039022267 0.13907087 -0.23592629 0.0056998176 -0.14297242 -0.04322767
-0.047921617 0.00064374885 0.4007907 -0.041768506 -0.20072505 -0.17011975 0.042509504 -0.33902562
-0.035832386 0.10306782 0.11309973 0.116602175 -0.2623978 0.19692563 0.30966574 0.14912221
-0.24964052 -0.11391359 -0.11229389 -0.27561328 -0.06434223 -0.2571901 -0.10674134 -0.17895919
0.16851664 0.082134545 -0.104737535 0.092980735 0.11766291 0.003178636 0.16705959 -0.022884194
00000000: 1dad 7d3e 7dfe babe cee7 29be c150 07be
00000010: 537e 7abe 5aee 983e ce20 033e 08f6 f03e
00000020: 24fa 233e 2e24 b7bd 0fc1 0c3b 9048 163e
00000030: 90f6 823e 0863 023d 870d a43d 7d1c 81bd
00000040: 3225 aebe 561f e9be 1ddc e1bc 819b 7c3e
00000050: e5dc 28be 86b8 cd3d eaf0 97bc 4384 eebe
00000060: c64f c93d 4d98 38be 517b c0bc ff7d c9bd
00000070: e005 443e ac37 503c 7682 50bd ccba c33d
00000080: 59b9 443c cdaa 863e b345 94bd 0726 0a3e
00000090: a8f9 77be 30c8 393d 80c8 a03d abbb d43d
000000a0: e145 f83d 9f4f 9b3d 548a 063e 59fa 1f3e
000000b0: a1bd efbc 52dd 74be e187 bdbd 8214 4a3e
000000c0: 2ea4 a3bb f4c4 2e3e f24e 48be 1fcf 19be
000000d0: 98a4 a2be a9cb 6abe 368e 66be 29c5 b53b
000000e0: 0020 043c 7a5c 8b3d f5db 80be facd e13b
000000f0: d1a5 39bd 10ce 70be 9d92 063f 4ffa b93d
00000100: b510 4c3e 05c3 bf3d 2034 a9bd 461e 823d
00000110: e0ec 0abe 9351 463d dd53 1fbd 222d 58be
00000120: 90c0 61be 7e56 a33e 6b5c b73d 3176 2a3e
00000130: 52d5 153e 088c c93d 49d4 00bd 74ad 163e
00000140: ad88 13bd 84cd c23e eff5 743c b2ce 28be
00000150: 77df 98bb 41fa 8abe 0558 f23d 6bb7 4e3d
00000160: 9191 42be 67a8 853c 4d1f 91be d8ad 5d3e
00000170: 3146 84bd 5834 123e fa72 383e 30a2 46be
00000180: b1a8 8bbb a953 1f3e 52ed 4b3e d444 90bc
00000190: bd71 d4bd efa6 1b3e d7c2 09bf 0e5b af3e
000001a0: a1a0 e5bd 1f85 ee3d 21ff d83d 7e3b 4bbd
000001b0: b606 90be 4faa be3d 1300 153e 926e ec3d
000001c0: 1ec9 2c3e 9f09 32be 271f e33d daec bb3e
000001d0: 09e1 3b3d 2987 18be f307 97bd 963e f23c
000001e0: 0da7 92be 4713 64be 0e97 433e 0a4d a9bd
000001f0: 7891 7dbe ad1f 3bbe e466 30be 4b8e 1a3c
00000200: bc1a c33d 7863 943e 4018 47be eb30 913d
00000210: bdd1 61be c78d 743e fb6f 1fbe d1a5 0abe
00000220: 1abc a1bd 7607 1a3d f245 253c d47d 81bc
00000230: a1b3 25be 4afe 873d 89c6 95be 6f66 6abe
00000240: 0e0d dabd 473a d0bc ff2b 8cbd 2234 72bc
00000250: 39f3 c5bd f772 cc3c b14d 2abe 4f88 27be
00000260: 0260 563e 3061 47be 064e f9bc 4bb2 47be
00000270: 3446 86bd 8b0e 1ebb 89e0 a13d 997e b43d
00000280: 9b22 3b3e cc65 543e c310 c9be 07e2 74be
00000290: 6e89 583d 9527 ae3c 02d7 023e cc24 2fbe
000002a0: 23c5 5b3e 8e83 83bd fedb b33e 927a 98bd
000002b0: 6513 a63e ce1b 53bc 66c3 493e 2328 533d
000002c0: d589 81ba c4c6 e33d 89f4 2a3d 5a3b 083d
000002d0: 23e7 4d3e 2a3b 16be d48c 103e 0358 eb3a
000002e0: e33d 3d3d ad12 2c3e d061 343e 569e e13c
000002f0: 62a3 59bd b714 cc3d b18c ea3d c9c3 ed3d
00000300: f7ca 3abe 1ef7 963d 2a6d 6cbe 7dac c4bd
00000310: c8ef 2fbd f539 bc3d cf84 1dbe e3cb 173d
00000320: 96c2 95be 1010 4bbe d88d 42bd decb a3bd
00000330: 51d6 123e 818d d93d 1e89 18bf 9948 2bbe
00000340: 49c2 b7bc 0dde 16bd d0b4 e13b 0ac0 33be
00000350: fc50 5d3b 3efc 01be 776a 45be 0ba6 2bbe
00000360: 421d 083d 0357 423e d0d5 1f3d 9868 0e3e
00000370: a996 71be 89c5 ba3b 5d67 12be 7f0f 31bd
00000380: 7549 44bd 41c1 283a 7034 cd3e 7415 2bbd
00000390: de8a 4dbe df33 2ebe 721e 2e3d c494 adbe
000003a0: fbc4 12bd 3915 d33d d5a0 e73d 1fcd ee3d
000003b0: 0159 86be dfa6 493e 828c 9e3e 7eb3 183e
000003c0: c4a1 7fbe 874b e9bd 57fa e5bd 2f1d 8dbe
000003d0: dcc5 83bd 6cae 83be 349b dabd 1441 37be
000003e0: a08f 2c3e 2836 a83d a280 d6bd af6c be3d
000003f0: 40f9 f03d aa50 503b ab11 2b3e a277 bbbc

bias f4 [2]
0.05856476 0.0016595076
00000000: 9ae1 6f3d d683 d93a

weight f4 [2, 128]
-0.0025517114 -0.0011679713 0.0027422507 -0.00015262878 0.0043455134 -0.0015325929 0.011874082 0.0020215393
-0.007314854 0.0071853497 0.001781439 0.0020969163 -0.0008000035 0.0018653376 -0.00033718214 0.0001587114
0.0055702045 0.00086266897 0.0007330324 -0.00013285261 -0.0021042456 0.0067246296 0.0018211822 1.7807586e-05
-0.0008380533 0.0005475701 0.0037581618 0.004610508 9.401154e-05 -0.07020813 -6.925457e-05 0.0054555116
0.0025968913 -0.006012899 0.00015281158 0.00230204 0.0070465724 -0.004151147 0.0061284844 -0.004520997
-0.0022698664 0.0036851254 0.00066798704 7.5513904e-05 -0.00095963763 0.0017787333 0.0023156651 0.0014656209
-0.017028725 0.004559125 7.969959e-05 0.0032254509 0.0025059094 -0.0030341481 -0.0022786735 0.009972169
-0.0006803211 0.0009832812 0.004937202 0.0030085696 -0.01001247 0.001779507 0.0014363897 0.0041576
0.0003934713 -0.00020623195 -0.0016664144 -0.00044019546 0.0016989859 -0.0016907088 -0.00093955436 -0.0013392491
0.00032889663 -0.00045744356 -7.220637e-05 -0.006050911 -0.0007914574 -0.00044532775 -0.004534525 0.0055116815
-0.00078809325 -0.0022847578 -4.1046285e-05 0.00040595216 -0.012270941 -0.0022777622 0.0044949055 0.0004944552
-0.0001915625 0.0015980595 -0.0023670893 0.00056158553 -0.006278997 9.366867e-05 -0.0010004408 0.0037588773
-0.0087310895 0.003675065 0.002509861 -0.038283173 0.0036452773 -0.0005904774 -0.0025191028 -0.011829176
0.00042673794 0.0037601017 -0.00079630804 0.005499299 0.0035907072 -0.0010285764 0.0006637568 4.1753447e-05
0.0026348045 -0.002637207 0.0008683747 -0.0011703195 0.0010069677 -0.002808227 -0.03002833 -0.005215689
-0.00052653503 0.0023516996 -0.0005420893 0.0064437203 0.009334203 -0.0075236172 -0.0008373645 0.017020956
0.0020182203 0.002291164 -0.0006152856 0.0020983752 -0.0010481327 -0.0025001843 0.0032008942 0.005921883
-0.004053692 -0.00063813967 -0.018368741 0.00032082564 0.001563282 0.0009583253 0.0052932715 -0.005590846
0.0045733056 -0.0003505903 -0.008707693 -0.0034712371 0.0044187536 -0.0003002382 0.0015520545 0.001960763
-0.009490531 -0.0020220135 -0.007552241 0.001168137 0.000187094 0.024221055 0.0026030715 0.0015303971
0.0015222451 -0.005606231 0.0027654883 0.0012062446 0.00097401504 -0.009659356 0.0038804398 9.477095e-05
0.0007990886 0.008062661 -0.0028898767 -0.006753361 0.001427783 0.0051233443 -0.00029328518 0.0016136164
0.032573182 -0.000991991 0.0015819202 0.004068016 -0.004385285 0.0055010873 0.0028984514 0.019726824
-0.0034494135 0.00011123685 -0.0019510426 -0.0020147837 -0.010888298 -0.0031345068 -0.0029485736 -7.7636825e-05
0.0010753943 -0.0023653926 0.0033875292 0.0020167823 0.0030876317 -0.0033884249 0.0005113489 0.004453242
0.00017272384 -0.0051859114 -0.0041318503 -0.0025484676 -0.0017044981 -0.0003299676 0.0012528225 0.0010214266
0.0078761345 -0.00011364576 0.005704474 0.0006277567 0.0103694 -0.00010687439 0.0015395018 0.0035630807
-0.0026058168 0.00371545 -0.00017307488 -0.0043794517 0.0002142323 -9.290506e-05 0.001328706 -0.0018870515
-0.0048778327 0.0059362813 0.0028034577 0.042466816 0.005599683 0.001933707 -0.0020858995 0.0025738934
0.0035776978 0.0011699747 0.0014482258 0.0019145336 -0.005833761 -0.0051595774 -0.002847696 -1.55468e-05
0.003322092 0.0035123979 -0.005319783 0.0044702846 0.0033704038 -0.005369837 0.010705163 0.0046008686
0.0060084625 -0.000879484 -0.0034652348 0.004318531 0.011361982 -0.0029499156 -0.0010844996 0.018085863
00000000: 9d3a 27bb 9d16 99ba 55b7 333b fa0a 20b9
00000010: cf64 8e3b 49e1 c8ba 828b 423c cd7b 043b
00000020: 71b1 efbb 1573 eb3b 2c7f e93a 6b6c 093b
00000030: 53b7 51ba 587e f43a d2c7 b0b9 c46b 2639
00000040: 4386 b63b bc24 623a f928 403a 5a4e 0bb9
00000050: 62e7 09bb 485a dc3b bcb4 ee3a 8061 9537
00000060: ceb0 5bba cf8a 0f3a 7e4b 763b bf13 973b
00000070: 1028 c538 48c9 8fbd c43c 91b8 26c4 b23b
00000080: 9b30 2a3b da07 c5bb 0c3c 2039 d3dd 163b
00000090: efe6 e63b 5806 88bb 74d1 c83b df24 94bb
000000a0: 0ac2 14bb 2582 713b da1b 2f3a 385d 9e38
000000b0: 3190 7bba 6324 e93a 6ac2 173b 141a c03a
000000c0: d37f 8bbc b664 953b 6424 a738 1662 533b
000000d0: 2f3a 243b 8fd8 46bb cc55 15bb 4f62 233c
000000e0: 9457 32ba 71e1 803a 41c8 a13b 6c2b 453b
000000f0: 580b 24bc 593e e93a 3e45 bc3a 7a3c 883b
00000100: d34a ce39 f83f 58b9 976b daba 09ca e6b9
00000110: 82b0 de3a c69a ddba 6d4c 76ba be89 afba
00000120: c26f ac39 09d5 efb9 806d 97b8 b846 c6bb
00000130: cf79 4fba e17a e9b9 5a96 94bb 569b b43b
00000140: 0b98 4eba e0bb 15bb 1d29 2cb8 fad5 d439
00000150: 0f0c 49bc 8246 15bb 004a 933b 549e 013a
00000160: 2bde 48b9 fb75 d13a 2b21 1bbb 5e37 133a
00000170: 0bc0 cdbb fc6f c438 3921 83ba 7f57 763b
00000180: d80c 0fbc 5cd9 703b 7b7c 243b d1ce 1cbd
00000190: 9be5 6e3b 44ca 1aba 8817 25bb 29cf 41bc
000001a0: ccbb df39 0a6c 763b 54bf 50ba 7733 b43b
000001b0: 1252 6b3b 4cd1 86ba f7ff 2d3a 6c20 2f38
000001c0: afac 2c3b fed4 2cbb a4a3 633a 6865 99ba
000001d0: 3bfc 833a 3b0a 38bb f9fd f5bc 5fe8 aabb
000001e0: 2b07 0aba f91e 1a3b ff1a 0eba d825 d33b
000001f0: 7cee 183c ad88 f6bb 9582 5bba 886f 8b3c
00000200: 1e44 043b 5a27 163b 1e4b 21ba e584 093b
00000210: 7f61 89ba 22da 23bb 18c6 513b 5b0c c23b
00000220: d5d4 84bb d448 27ba 0b7a 96bc 7d34 a839
00000230: 0ae7 cc3a 1f38 7b3a 2e73 ad3b 6a33 b7bb
00000240: abdb 953b 6fcf b7b9 b6aa 0ebc b27d 63bb
00000250: 31cb 903b 4a69 9db9 4f6e cb3a 2580 003b
00000260: 2c7e 1bbc c283 04bb ca78 f7bb 2c1c 993a
00000270: aa2e 4439 3c6b c63c 4b98 2a3b 9b97 c83a
00000280: 1286 c73a 79b4 b7bb 323d 353b da1a 9e3a
00000290: 0b55 7f3a 4742 1ebc fa4e 7e3b c4bf c638
000002a0: ee79 513a 4019 043c 1664 3dbb 4c4b ddbb
000002b0: 7324 bb3a bae1 a73b 12c4 99b9 fb7f d33a
000002c0: 756b 053d b205 82ba 6f58 cf3a fe4c 853b
000002d0: 70b2 8fbb 7742 b43b f2f3 3d3b 269a a13c
000002e0: 8e0f 62bb d447 e938 20ba ffba 760a 04bb
000002f0: d564 32bc 4c6c 4dbb db3c 41bb f4d0 a2b8
00000300: 3ff4 8c3a b404 1bbb 4f01 5e3b fe2b 043b
00000310: dd59 4a3b 5610 5ebb 0b0c 063a 80ec 913b
00000320: 341d 3539 94ee a9bb 7964 87bb 3104 27bb
00000330: 7769 dfba 80ff acb9 bf35 a43a 64e1 853a
00000340: e70a 013c 1a55 eeb8 99ec ba3b 0a90 243a
00000350: 6ae4 293c c021 e0b8 1cc9 c93a 9382 693b
00000360: 5ac6 2abb e87e 733b 6f7b 35b9 8181 8fbb
00000370: 8ca3 6039 06d6 c2b8 fa27 ae3a f156 f7ba
00000380: 3ad6 9fbb 2385 c23b 37ba 373b aff1 2d3d
00000390: 8c7d b73b 7174 fd3a 96b3 08bb c4ae 283b
000003a0: cf77 6a3b d659 993a 65d2 bd3a 16f1 fa3a
000003b0: 2229 bfbb ac11 a9bb 69a0 3abb 806a 82b7
000003c0: 74b7 593b 4230 663b 9351 aebb 777b 923b
000003d0: fee1 5c3b 75f5 afbb b564 2f3c e2c2 963b
000003e0: a3e2 c43b 2c8d 66ba fe18 63bb 7782 8d3b
000003f0: 9b27 3a3c 5f53 41bb c525 8eba ce28 943c

bias f4 [2]
-0.0002528848 -0.00050016976
00000000: a095 84b9 d31d 03ba
