data/mod-valor-expts/mod-valor-expts_s0/pyt_save/model.pt (torch, 236951 bytes, 11 tensors)

weight f4 [128, 60]
000000 cc 52 02 be 27 e3 de bc c9 20 f5 3b fc 4f 24 3d
       -0.12726897 -0.027207924 0.007480715 0.04011534
000010 eb bd 57 3d 4c a4 c1 3d ec dd 22 bd 86 70 6e 3c
       0.052671354 0.09455165 -0.039762422 0.014553195
000020 ad de bd bc ce a0 10 bd e4 1b 5e 3d df 42 31 3e
       -0.02317747 -0.035309605 0.054225817 0.17310666
000030 67 7d 10 bd c0 08 4c 3e 4b d0 34 3d 3f 9b 16 bd
       -0.035275843 0.19925213 0.044143956 -0.036769148
000040 3a b1 56 3e d0 a1 19 3d 3c 9c 1c be 7a 3f ee bd
       0.20966044 0.037507832 -0.15293974 -0.11633201
000050 0d 2a 4b bd 7e 81 ea 3d 65 a2 3b bd 01 f2 1c 3e
       -0.04960065 0.1145048 -0.04580917 0.15326692
000060 c7 fa de 3b 28 34 7d bc d6 00 34 3e 78 c0 af 3b
       0.0068047973 -0.01545433 0.17578444 0.0053635202
000070 cd 44 bd bb 34 f9 0c 3e 1a 11 82 3d d6 4c b5 3c
       -0.005776024 0.13766938 0.06350918 0.022131365
000080 94 38 da bc 9f 18 f3 bd cc 98 2c 3e f1 ac 6e bd
       -0.026638307 -0.118699305 0.16855162 -0.0582704
000090 73 2b ea bd 36 74 3e 3d 61 88 54 bd 4d 38 e5 3d
       -0.114340685 0.046497546 -0.051887874 0.11192379
0000a0 04 3e f2 bc 85 44 84 bd 15 ec c6 bd 03 eb f0 3c
       -0.029570587 -0.064583816 -0.09712998 0.029408937
0000b0 55 74 47 3e 01 86 a3 bd a6 a2 72 bc f4 7a 9c 3c
       0.19477971 -0.079845436 -0.014809286 0.019101597
0000c0 f8 78 81 3d 2c 2c 05 bd ea e0 13 bd 5d b7 94 bd
       0.06321901 -0.03251283 -0.036103167 -0.07261536
0000d0 e3 b0 00 3e 44 c8 0a be fe cf 92 bd 00 b6 c1 bd
       0.12567477 -0.13552958 -0.071685776 -0.09458542
0000e0 e3 6d 70 be 86 90 df 3d 4d 34 5b bd 20 63 fa 3d
       -0.23479418 0.109162375 -0.053516675 0.12225938
0000f0 1a c4 b1 bd ed f0 e5 3d 21 04 99 bb 49 ed 19 3b
       -0.086799815 0.112275936 -0.0046696817 0.002348738
000100 85 43 d8 bd a7 b1 c8 bd 66 53 98 3d ef 7e ab be
       -0.10559753 -0.097995095 0.07437782 -0.3349528
000110 a6 ed 11 bc f0 a7 19 be dd 63 70 bc 65 4f 20 bd
       -0.008906757 -0.1500547 -0.014672247 -0.039138217
000120 a2 aa 5a bd b8 a4 99 3d 68 ce 53 bd 4a f5 00 be
       -0.053385384 0.07502121 -0.051710516 -0.1259357
000130 a7 24 8d be b4 86 6c bd 96 f3 f0 bd 49 e5 91 bd
       -0.27567026 -0.05774565 -0.1176521 -0.07123811
000140 c6 de 84 bd 68 c3 10 3d c2 98 fb bd db f0 ba ba
       -0.06487803 0.035342604 -0.122849956 -0.0014262454
000150 0b 38 c0 3d 6a be 07 3e 10 e5 b6 bc df b7 f9 bb
       0.09385689 0.13256231 -0.022326022 -0.007620796
000160 fd 59 95 bd 9a 26 03 bd d7 66 a5 bd b9 1e 8a 3d
       -0.072925545 -0.032019235 -0.08076256 0.06744141
000170 c3 3d 17 3d 4c e6 54 3d 51 ca 38 3d b7 af a9 3e
       0.036924135 0.05197744 0.04511482 0.33141872
000180 33 ac be 3c 0f 18 3f bb 08 a3 4f bd 15 5e 36 be
       0.02327547 -0.0029158627 -0.050692588 -0.17809327
000190 cb ab af 3b 8b 64 60 3d 75 a7 13 3e 26 69 4f be
       0.0053610555 0.054783385 0.14419349 -0.20254955
0001a0 bc 3a e1 bd 47 b0 99 bd de 08 3e bc 78 b8 2a 3d
       -0.10997531 -0.07504325 -0.011598794 0.04167983
0001b0 26 de 0b bd ea e4 67 bc 76 73 db bd a5 1a 8a 3e
       -0.034147404 -0.014153698 -0.10715382 0.26973453
0001c0 2c 0d ed 3c 2f ff 74 bd 12 55 2f be b0 e7 1a 3e
       0.028936945 -0.059813675 -0.17122295 0.15127444
0001d0 6e f7 7e 3c fc ed 37 bd 2a bf 21 bd e9 1c 96 bd
       0.0155619215 -0.044904694 -0.03948895 -0.07329733
0001e0 5e 8f a2 bd 74 1a 0f be 7d b1 37 3d 0f 17 5d 3d
       -0.07937501 -0.13974935 0.044847 0.05397707
0001f0 15 7f 1f bd 9f 0b 94 3d 49 2e 1f 3e f0 50 93 3e
       -0.038939554 0.07228779 0.15545 0.28772688
000200 80 a5 42 39 e7 0d 85 3d c7 e4 d1 3d 67 64 27 bd
       0.00018562935 0.06496792 0.10248714 -0.040867236
000210 0b 13 af bd 1f 80 d4 bd ef 6d f2 bd fd bd 09 3e
       -0.08548554 -0.10376 -0.118373744 0.13451381
000220 4a f4 65 3e fa ca 2f 3d 5d d6 94 3d 13 4e e5 3d
       0.2245647 0.042918183 0.07267449 0.11196532
000230 9c 6f 87 3d 82 c3 b7 3d 6e 4a 43 bc a6 27 b9 3c
       0.06613085 0.08972837 -0.011919601 0.022601914
000240 1f fb 8c bd 56 08 92 bd 62 ae eb bd 2f 16 cf bc
       -0.06883835 -0.07130496 -0.1150787 -0.025279133
000250 11 2e 1b 3e 9b ae 9c 3d d4 a4 21 3d 8f f9 52 be
       0.15154292 0.07650491 0.039463833 -0.20603012
000260 dc e6 b9 3c 81 67 38 bd 14 f4 ea 3b 4f fa 90 bd
       0.02269309 -0.045020584 0.0071702097 -0.070789926
000270 ca fc a8 bd 37 29 f5 3d d8 1c 91 bd dd 35 5d bb
       -0.08251341 0.11970752 -0.0708558 -0.003375403
000280 b3 9a 7f bd 9d 30 44 3d 5c 80 1d 3d a5 de e8 3d
       -0.062403392 0.047897924 0.03845249 0.11370591
000290 ef 69 4d 3e 72 a2 2c 3c 57 75 ef bc 63 33 e9 bc
       0.20059942 0.010536777 -0.029230757 -0.028466886
0002a0 4d ba 28 3d 2d cb 14 bd 25 93 18 3c 36 83 c7 bd
       0.041193295 -0.036326576 0.009312426 -0.097418234
0002b0 cf 14 ee 3d e4 23 8c 3d 07 20 cf 3d af 2e a2 bc
       0.11625063 0.06842783 0.101135306 -0.019797651
0002c0 03 4b bf bd 74 00 26 3d 18 ce 19 be 88 7d 53 bc
       -0.09340479 0.040527776 -0.15020025 -0.012908347
0002d0 3e df b8 3d 6b 94 89 3d 31 95 c6 3d aa 59 4b bd
       0.09026955 0.067177616 0.09696425 -0.049646057
0002e0 b9 b4 da 3c a7 61 0e 3e 2c b7 9f be e3 9b ab be
       0.026697503 0.13904439 -0.31194437 -0.3351737
0002f0 38 cf 5a 3d 5e b1 6e be 86 91 ac 3b 22 ee 4e 3e
       0.053420275 -0.23309848 0.005266371 0.20208028
000300 2c 41 a7 3b c2 f5 8f 3d 24 04 82 bd 8e 0b 99 bd
       0.0051042046 0.070292965 -0.06348446 -0.07472907
000310 cf 7f a4 3e d2 cd 8e bd 6a 88 43 be 7c 67 6d 3d
       0.3212876 -0.06972851 -0.19095007 0.05796002
000320 88 95 85 3d 5d aa b6 3d 25 82 33 be 09 04 98 3c
       0.065226614 0.08919213 -0.17530115 0.018556612
000330 13 93 bc bb bd 77 55 bc 61 bb 76 3d 20 c5 ae bd
       -0.0057548373 -0.013029036 0.060237292 -0.08533692
000340 dc f6 da bd 78 74 9d bd a3 99 aa bd f7 02 51 3e
       -0.10691616 -0.0768823 -0.08330085 0.20411287
000350 21 ec d0 3b 44 ab ba bc 1c f0 ae 3c 2d c3 7a 3d
       0.006375805 -0.022786744 0.021354727 0.06122129
000360 9e 45 ef bb ab a0 3f bd 2e b9 11 3d 12 c2 cc 3d
       -0.007302 -0.046784084 0.03557699 0.099979535
000370 d6 7f 9e 3d dd f3 c0 3d 08 52 af bd e5 71 39 be
       0.077392265 0.09421513 -0.08560568 -0.18109854
000380 c9 15 61 bd 24 3a 8c bd ef 4d 68 3e ae 99 39 3e
       -0.054952417 -0.06847027 0.2268598 0.1812503
000390 e7 db 6f 3e 37 eb 1c 3e 6e 5e d1 bb 3c 49 b6 3d
       0.2342373 0.15324102 -0.0063894307 0.08900687
0003a0 d9 66 d0 bb 64 aa 1a be 44 f6 60 bd 74 10 ae 3d
       -0.0063599166 -0.15104061 -0.054922357 0.08499232
0003b0 42 24 2e bd 0c cf 91 3d 60 d4 83 bd b2 26 92 3c
       -0.042515047 0.07119569 -0.06436992 0.017840717
0003c0 d7 ca 83 3e 5f a3 08 3c ce 81 f3 bd 9e c3 2d be
       0.25740692 0.008339732 -0.11889993 -0.16969153
0003d0 90 f9 a5 bd ff dc 10 3e 21 2b c8 bd de 7f 17 3b
       -0.08104241 0.14146803 -0.09773851 0.0023116986
0003e0 30 9b a5 3d bd e0 2b be 60 99 3c be 69 b6 13 3e
       0.0808624 -0.1678495 -0.18417883 0.14425053
0003f0 71 f5 36 3e d8 f3 70 bd 2d f6 e7 bc a7 24 6d be
       0.17867066 -0.058826298 -0.028315628 -0.23158513

bias f4 [128]
000000 64 38 9c bd 40 19 0d be ee bb fc 3d 1c c6 4f be
       -0.07627943 -0.13779163 0.12340532 -0.20290416
000010 ce ca b3 bc a9 75 d9 bd 2b 47 76 bd 96 29 7c bd
       -0.02194729 -0.10618145 -0.060126465 -0.061563097
000020 55 9e 05 be db b2 0c bd 8f 72 3b 3e 79 36 1e 3e
       -0.1304868 -0.034350257 0.1830542 0.15450467
000030 0c 48 4b 3e 9e a3 47 bd 5b 4a 8a bd 3a db 97 3d
       0.19851702 -0.048740022 -0.067524634 0.07414861
000040 10 d0 15 3e da 76 47 bd fc 08 b5 3d 8f 2d 2e 3e
       0.14630151 -0.04869733 0.08839604 0.17009567
000050 ee 73 cc bd 04 a3 b8 bc 5e 33 a9 3c f4 d7 e2 3d
       -0.09983049 -0.02253867 0.020654377 0.11076346
000060 b7 c0 ee bd e9 d6 3a 3d ff 06 7b 3d b0 c6 d9 bd
       -0.11657851 0.04561511 0.06128597 -0.106336
000070 7e 11 e1 bc a9 8e e5 3a 12 1e e1 bc da ce 4c bb
       -0.027474161 0.001751383 -0.027480159 -0.0031251223
000080 fd 23 a1 bd 2d f0 27 be 8c c8 94 3d 15 10 59 bd
       -0.07868192 -0.16400214 0.07264814 -0.052993853
000090 d0 17 0e be 11 03 27 3e a8 eb 91 bd 6d 53 63 bd
       -0.13876271 0.16309763 -0.07125026 -0.055499483
0000a0 13 2e 3e bd b7 8c 18 3e d6 8a b7 3c cc 7b 9e 3d
       -0.04643066 0.14897428 0.02240507 0.07738456
0000b0 14 12 05 be 37 48 8a ba e2 43 0f 3e 14 e7 90 bd
       -0.12995178 -0.0010550086 0.13990739 -0.07075325
0000c0 8e 79 93 3d da 80 04 3e 51 35 1d 3b 3f 31 eb 3d
       0.07200919 0.12939778 0.0023988078 0.11484002
0000d0 84 a8 15 3e 5e fe 93 3d 4b 44 d4 bd 0b d9 f5 3d
       0.14615065 0.07226251 -0.10364588 0.12004288
0000e0 24 0e 27 3e 27 3e 25 bc ed 59 a8 3c be 8b 8e bc
       0.16313988 -0.010085619 0.020550692 -0.017400619
0000f0 98 45 4d 3c 34 2a 8d 3d 4d c6 69 3e c2 16 68 be
       0.0125287995 0.06892815 0.22829552 -0.22664931
000100 57 6d d9 3d da 62 08 3d 1e 1c 02 3e 44 92 9d 3d
       0.10616558 0.033297397 0.12706038 0.076939136
000110 67 34 2a be a3 f7 68 3d c0 77 96 3c 09 6e c0 bc
       -0.16621552 0.05687679 0.018367648 -0.023489969
000120 b3 71 d6 3d d7 8f 5d be 39 92 00 be 6b 64 94 bd
       0.10470905 -0.21636902 -0.1255578 -0.07245716
000130 b0 8a 0c be 43 08 30 3e 9e da 8c 3d 94 96 04 3d
       -0.1372478 0.17190652 0.068776354 0.032370165
000140 16 88 21 3d c8 e2 fd 3d 2a 1e 7b 3d a8 db 3c bd
       0.039436422 0.12396771 0.061308064 -0.046107918
000150 44 94 33 3d e8 5a a6 bd 7e 4c 3a 3e 2e 93 ab 3d
       0.04384257 -0.08122808 0.18193242 0.08377682
000160 a6 4e ad bd 64 2c 8d 3d cb e0 f0 3d 8a 75 f7 3d
       -0.084622666 0.068932325 0.11761626 0.12082966
000170 94 cc 00 be 50 f4 57 3c bd 57 4e 3d 81 c0 9a 3d
       -0.1257804 0.013180807 0.050376642 0.075562485
000180 60 e5 22 3e 41 21 a7 bd 5a 5c cf 3d f4 2c 33 bd
       0.15907812 -0.081606396 0.101250365 -0.043744043
000190 60 5c c6 bb f0 08 da bd 82 a6 65 3e fe da 96 3d
       -0.0060534924 -0.10646236 0.22426799 0.07365988
0001a0 9d 51 98 bd ee ee 14 3e b9 12 84 3d d3 b3 e0 3d
       -0.074374415 0.1454427 0.064488836 0.10971799
0001b0 63 04 c3 3d 9d 8f 12 be 92 78 99 3c 9e ff b1 3c
       0.09522321 -0.14312597 0.01873425 0.021728333
0001c0 be e6 77 3d b8 51 b9 3d 73 7e cb bd a4 65 85 ba
       0.060522787 0.0904879 -0.09936228 -0.0010177386
0001d0 c9 6a 02 be f6 fd 88 bd 41 25 b5 3c bf cc 1f 3e
       -0.12736048 -0.06689064 0.02211249 0.15605448
0001e0 5b a4 20 3d f3 d1 1e be 0a c5 9f 3d 6c 57 4f 3e
       0.03921924 -0.15509777 0.07801254 0.20248193
0001f0 c7 d2 d2 bd 0c c4 0b 3e 62 1e 04 3e 13 1d 18 3e
       -0.10294109 0.13649005 0.12902215 0.14854841

weight f4 [128, 128]
000000 08 ae 9f 3c bc a2 1e 3b 1a 36 c0 3c 7a 3c 0a 3d
       0.019492164 0.0024205884 0.023463298 0.03374908
000010 0f 37 07 bd b3 f9 c6 bd 1e f5 3c bd e8 c5 a8 3b
       -0.033011492 -0.09715595 -0.0461322 0.0051505454
000020 e8 30 36 3e f9 0c 09 bd a6 1a 46 bc 4b e7 ed 3d
       0.17792094 -0.033459637 -0.012091314 0.11616381
000030 29 5a 02 be bd 22 20 bd 95 f7 3e 3c 55 a4 ab 3d
       -0.12729706 -0.03909563 0.011655708 0.08380953
000040 c8 d6 bc 3d 1b 23 b1 39 2b 94 16 3d 05 a9 da 3c
       0.09220654 0.00033786226 0.036762398 0.026691923
000050 0e ba 30 3c 80 41 c4 bd f2 6a 0e 3e b3 cd 30 3c
       0.010786546 -0.09582806 0.13907984 0.01079123
000060 0b 16 1f 3d 89 32 cf bc 3b 34 96 bd e5 a4 06 be
       0.03883938 -0.025292652 -0.07334181 -0.1314884
000070 f1 b0 86 bd a7 7d d2 bd 3f ae 6b bd d8 77 dd bc
       -0.06576718 -0.102778725 -0.05753922 -0.027034685
000080 c6 82 f9 bd b8 04 88 bd fa ee 53 3d 68 ed 35 3d
       -0.12183146 -0.06641525 0.051741578 0.04441586
000090 98 3f 9b bc 95 1b 7c 3d 42 dc db bd 96 c7 79 bd
       -0.018951222 0.06154974 -0.1073537 -0.060981356
0000a0 a7 7a 00 be 88 67 da 3c 91 42 46 3c c2 d9 8c 3d
       -0.12546788 0.026660696 0.012100832 0.068774715
0000b0 db b3 73 3d ff 07 33 3e bc 94 ac bc 95 ac 16 bd
       0.059497695 0.17483519 -0.021067016 -0.03678568
0000c0 65 0a 87 3c 0f 86 20 bd 3c 31 85 3d 1b b8 55 bc
       0.016484449 -0.03919035 0.06503531 -0.013044382
0000d0 40 a0 9c 3b 11 ed 9e bd 0b c3 80 bd 08 c6 d9 bd
       0.0047798455 -0.077600606 -0.062872015 -0.106334746
0000e0 a1 09 e8 3d 31 e3 17 bd 13 37 18 be 29 22 c3 3d
       0.113299616 -0.0370819 -0.14864759 0.09528
0000f0 ea 50 60 3c 7f c5 27 3d 7f 09 06 3d c0 04 8c 3c
       0.013691166 0.04095983 0.0327239 0.017092109
000100 a4 fd 57 bd 99 ae f7 3c b7 24 8c 3a 7b d3 f7 bd
       -0.052732125 0.030234622 0.0010692094 -0.121008836
000110 3d 26 eb bd 08 26 a9 3d 95 8d 47 3c 7c b9 4b be
       -0.11481903 0.08259207 0.012179752 -0.19894975
000120 63 3e 01 bd 12 c6 07 bd c8 90 72 bd ef 03 5a bc
       -0.031553637 -0.03314788 -0.059220105 -0.013306602
000130 27 53 02 bd 7d 43 0b be 95 aa 7e be 4e 15 35 3d
       -0.03181758 -0.13599963 -0.2486976 0.04420977
000140 25 21 a3 bd 37 c0 02 3c 93 b6 5a bd 88 81 a5 bd
       -0.07965306 0.007980398 -0.053396773 -0.08081347
000150 84 84 ed 39 e6 d7 42 bd de 6b de bd 64 68 37 3d
       0.00045302894 -0.047569178 -0.10860418 0.04477729
000160 28 13 ec bd 62 c4 e6 3d 46 c6 88 3b 3d 66 45 bd
       -0.11527091 0.11267926 0.0041740267 -0.048193205
000170 98 67 52 bd 6e 17 90 3d 15 ec 00 bd 09 c7 c5 3b
       -0.051368326 0.07035719 -0.031475145 0.0060356897
000180 1a a4 70 bd 91 a2 a3 bc b7 71 28 3d 51 e5 25 bc
       -0.05875025 -0.019974979 0.041124072 -0.010125474
000190 c9 c3 a3 bd c1 2f ed 3c 36 e4 71 bc 7f 3d 0f be
       -0.079963274 0.028953435 -0.014763882 -0.13988303
0001a0 6c 44 03 bd 78 33 93 bc 8e 40 1b bd 68 30 31 bb
       -0.032047674 -0.017968878 -0.03790336 -0.002703691
0001b0 54 1d 8e 3d 2b b7 6e ba 55 7a ca bd 64 f4 8a bd
       0.06939188 -0.00091062736 -0.09886614 -0.06784895
0001c0 39 00 0c bd 07 0f e8 3a 6c 81 e9 3d b1 f3 01 3d
       -0.0341799 0.0017704674 0.114016384 0.031726543
0001d0 45 9e c5 bd 72 17 ff 3b e9 40 36 bc 95 0f fe 3d
       -0.09649328 0.0077847773 -0.011123874 0.12405316
0001e0 af 4d 37 3c 5d b2 f6 3c 72 62 1d 3b 5b f7 f2 bc
       0.011187955 0.030114347 0.0024014977 -0.029658964
0001f0 da 8c c4 3d 4f 19 88 bd c4 de df bb 93 3c 45 bd
       0.09597178 -0.06645452 -0.0068319757 -0.04815347
000200 c8 e2 b9 bd 76 df 94 3d ce da 54 bd db a0 a2 3d
       -0.09076458 0.07269184 -0.05196648 0.07940837
000210 4b 44 21 bd e8 bf 2a 3e 14 3d 6c 3d 1c 90 56 3c
       -0.03937177 0.16674769 0.057675436 0.013095882
000220 47 76 9e 3d d9 78 60 bd 42 6d de bd 30 dd 83 bd
       0.07737403 -0.05480275 -0.10860683 -0.064386725
000230 50 f9 f6 bc f4 96 a6 bc d1 07 c0 3d 0c c7 5e bc
       -0.030148178 -0.020335652 0.09376491 -0.013597261
000240 c2 09 01 bb 2d b7 a7 bc c8 63 ae bb ca 35 24 be
       -0.0019689654 -0.020473087 -0.0053219534 -0.16036144
000250 14 6a 17 3e fa 18 6f 3d 89 1c 60 3d b2 4e 56 bd
       0.1478656 0.05837343 0.054714713 -0.052321143
000260 d5 21 d9 3d ca f6 67 3d 46 98 77 3c 52 2c 65 3c
       0.10602156 0.05663184 0.015111988 0.013987618
000270 5e a1 51 3d 30 4f d0 3d 8c db 9c 3d ee c2 1f bd
       0.051179282 0.10171354 0.07659063 -0.03900426
000280 57 5e dc 3d ca 21 1d 3d d5 dd bc bc 97 bc ac 3d
       0.107601814 0.038362302 -0.023054997 0.08434408
000290 42 35 45 bd ea 1c 48 bd 81 18 12 39 52 6a a0 bd
       -0.048146494 -0.0488557 0.00013932773 -0.07832779
0002a0 df 87 de bb 71 70 34 3d 54 2e 70 3d 2f 6b 91 bd
       -0.0067910994 0.044052545 0.058637932 -0.07100522
0002b0 64 97 03 3e 66 e1 83 3d f7 84 db 3c 39 1b 28 3c
       0.1285072 0.06439476 0.026796801 0.010260397
0002c0 9f 94 53 bd 8c 65 ec 3a e6 22 04 bd 00 3e 24 bd
       -0.051655408 0.0018035634 -0.032259844 -0.04009819
0002d0 3d 75 13 bc 6c ed 74 bc 6b 18 f5 3c 39 47 01 be
       -0.00900012 -0.014949184 0.02991887 -0.12624826
0002e0 39 75 13 be 76 23 32 3d 4a 4a 9a bd 92 27 d8 3d
       -0.14400186 0.04349085 -0.07533701 0.105544224
0002f0 65 66 ca 3b bb d9 50 3d c9 36 c9 bd 9b 74 2b 3c
       0.006176757 0.050988894 -0.098249026 0.010464813
000300 82 e4 00 3d f1 f7 92 bd 68 4f 51 3d 6b 03 0a be
       0.031467922 -0.07176197 0.05110112 -0.13477866
000310 49 27 b6 3b 5d e3 89 bd 3b 61 3f bc af d5 b2 bd
       0.0055588824 -0.06732819 -0.011680896 -0.08732163
000320 b3 1b 1a bc f8 02 a0 3d f9 b3 f6 3d fc 75 46 bd
       -0.009406018 0.07813066 0.12046046 -0.048452362
000330 20 2b 13 3e c3 7e ff bd df 0f bd bd c8 77 44 3d
       0.1437192 -0.1247535 -0.09231543 0.047965795
000340 2e b1 9d bd e3 8f c2 bb b1 b7 c4 bd 6b c0 b2 bd
       -0.0769981 -0.005937563 -0.09605349 -0.08728107
000350 1e 29 09 bd 08 85 6f bd ad 8a 11 be be fe 02 be
       -0.033486478 -0.058476478 -0.14213057 -0.12792489
000360 da bc c3 3d f7 01 e7 3c 4f d4 0b be da c2 b7 bd
       0.09557505 0.02819918 -0.13655208 -0.08972712
000370 8e fd 00 3d 5a 7a 3e bc 9c a3 50 bd f1 95 8a 3c
       0.03149181 -0.011625851 -0.05093728 0.0169172
000380 12 28 25 b9 96 7d ce 38 ca 4b 65 bc e5 d5 f1 3c
       -0.00015750554 9.846238e-05 -0.01399512 0.029520938
000390 97 99 91 bc bb 80 0f 3d 81 99 0a 3d 9b 27 76 bc
       -0.017773433 0.035034876 0.0338378 -0.015024091
0003a0 8e be 8a bc 40 01 f9 bd f6 d3 43 3d cb a9 9b bc
       -0.016936567 -0.121584415 0.047809564 -0.019001862
0003b0 5a 26 48 bd bf fe ad 3d d5 1d ba bd c2 a6 ef bd
       -0.0488647 0.084958546 -0.09087721 -0.117017284
0003c0 c1 33 28 bd 92 d6 74 bd 2a cd fa 3d ce 1d d9 3c
       -0.04106498 -0.059774943 0.12246163 0.02650347
0003d0 42 3e d8 3d 31 8e 71 bd 80 94 5d 3d 99 e6 4c 3c
       0.1055875 -0.058973495 0.0540967 0.012506151
0003e0 c0 c5 5a bd 2f e0 d6 bc 81 b7 3c 3d 63 2f bf 3c
       -0.053411245 -0.026229946 0.04607344 0.023338025
0003f0 24 11 9a 3c 6d 33 01 be 01 0a f4 bd 74 48 94 bd
       0.018807001 -0.12617274 -0.119159706 -0.07240382

bias f4 [128]
000000 16 3d 5d 3d 97 f7 92 3b 07 00 01 3d fa ff 9c bd
       0.054013334 0.0044850814 0.031494167 -0.07666011
000010 dd b8 9b 3d bd 60 af bc 81 38 a6 3d 4b 94 8f 3d
       0.07603619 -0.021408433 0.08116246 0.070107065
000020 01 85 8f 3c 7f 4c 89 3c 3d 5c 78 3d b8 04 51 3d
       0.017519476 0.016760109 0.06063484 0.05102989
000030 e7 3d 90 3c 78 16 62 bc d7 d5 67 bd 0b 59 4f bd
       0.017607642 -0.013799302 -0.056600418 -0.050622027
000040 e9 37 25 3d 88 ee ae 3d fe 39 cb bc bf 6f ff bd
       0.040336523 0.0854159 -0.024807926 -0.12472486
000050 1d 2b b7 3c 70 30 74 bc 16 e3 b1 3c 1f d7 91 bb
       0.022359425 -0.0149041265 0.021714728 -0.0044506933
000060 00 c6 31 bd dd 20 9c 3d 14 f6 97 3d 56 95 72 3b
       -0.04340172 0.07623456 0.074199826 0.003701528
000070 25 1e 29 3c 64 b4 4e 3c d3 2d 4e 3c 32 d8 c9 3d
       0.010322128 0.012616251 0.0125841675 0.09855689
000080 99 ed 89 3d 58 9b af bc 04 a7 8f 3b f2 4a 9d bb
       0.06734771 -0.021436378 0.0043839235 -0.004800194
000090 1d 67 b1 bd d0 66 8e 3d 57 03 4e 3d 58 3c ee bc
       -0.086622454 0.06953204 0.050296154 -0.029081509
0000a0 96 95 7a bd 39 a1 81 bb 80 99 ee 3c 4b 60 01 bc
       -0.061177813 -0.003955987 0.029125929 -0.007896493
0000b0 16 d5 8c 3c b8 25 53 3d 15 fd 02 bd bd 73 e3 3d
       0.017191451 0.051549643 -0.03197964 0.1110606
0000c0 7e d6 a3 bc d2 1e a9 3d 67 ee 18 3d 19 a8 2f bc
       -0.019999739 0.08257832 0.037336733 -0.01072123
0000d0 aa 36 f0 bb 61 4d f8 3d 37 98 c8 3d 62 c9 a4 bd
       -0.007330735 0.12124134 0.09794658 -0.08046223
0000e0 8b f0 33 bd 8a f2 64 bd e7 f4 00 3e 16 12 dd 3c
       -0.04393057 -0.055895366 0.12593423 0.026986163
0000f0 f5 7e 96 bd 99 4e dc 3b 43 81 17 bd 89 06 cf 3d
       -0.07348434 0.0067232368 -0.036988508 0.10108668
000100 54 d2 8d 3c 42 21 81 bd 9a 3b f0 bb a0 6b 94 bd
       0.017312206 -0.063051715 -0.007331324 -0.0724709
000110 7e 54 b0 bd dc f6 ac 3c ad 82 22 3d cf 85 0a 3d
       -0.086098656 0.021113805 0.039675403 0.033819016
000120 77 fe d7 bc de e2 8a 3d a0 84 5d bd b0 73 0b bd
       -0.026366455 0.06781553 -0.05408156 -0.034045875
000130 b6 18 83 bd fc 37 ae bb 16 34 99 bc f0 d5 fc bc
       -0.064011976 -0.0053167325 -0.018701594 -0.030863732
000140 a9 6d eb bd 15 33 8c 3d e2 4e 0b 3d 2f 35 af bb
       -0.114955254 0.068456806 0.034010775 -0.005346916
000150 04 87 ce bc df 32 98 3c c2 99 bc 3c 6f 3b 11 be
       -0.025210865 0.018578945 0.023022536 -0.14182828
000160 34 9f 79 bd 86 f5 95 bd da 73 9e bd 06 c7 96 bd
       -0.060942844 -0.073222205 -0.07736941 -0.073621795
000170 e0 ba ab bd 3d d1 90 bc 83 e7 04 bd d1 33 d1 bb
       -0.08385253 -0.017677898 -0.03244735 -0.006384351
000180 1c c3 d7 bc bb 4d 45 3d 21 d8 54 3d fd 20 aa 3b
       -0.026338153 0.048169833 0.05196393 0.005191921
000190 b5 a4 aa ba eb f1 a9 bc b6 15 65 3d c2 28 51 3a
       -0.0013019057 -0.020745238 0.05592891 0.00079787907
0001a0 0a cf a7 3c 31 f2 5a 3d a4 c1 da bb ff ef 8a bd
       0.020484466 0.053453628 -0.006675916 -0.06784057
0001b0 2c 29 62 bc 96 d2 47 3d a1 62 c5 3c 8e 87 90 bd
       -0.013803761 0.048784815 0.024094881 -0.07057105
0001c0 f7 be 73 bc 96 4a b3 3b 1b 25 8e 3c 8f ff 11 3d
       -0.014877073 0.005471538 0.017351678 0.03564411
0001d0 e4 f0 e6 bd 11 5c ea bc bf 90 7d bd 48 30 3a b9
       -0.11276415 -0.028608354 -0.06190562 -0.00017756328
0001e0 81 0a 31 3d f9 ae 83 bd 74 60 ba bc a0 92 41 bd
       0.043222908 -0.06429858 -0.02275107 -0.047258973
0001f0 8f f7 af bd fb 63 c6 3d 4b 60 4e 3c 04 8d eb 3c
       -0.0859214 0.096870385 0.0125962 0.028753765

weight f4 [128, 128]
000000 3f 18 d4 bd 8b 9a b0 3d 82 9b ff bb 2e dd 4d 3e
       -0.10356187 0.08623227 -0.0078005204 0.20103905
000010 1b 88 29 bd 9d 0c 21 3e 96 76 81 bd f5 fd 2d be
       -0.041389566 0.15727468 -0.063214466 -0.16991408
000020 2c cd 18 be 1a f7 38 3d 80 20 81 bd 53 d8 15 bd
       -0.14922017 0.04515753 -0.06305027 -0.036583256
000030 8a 22 dd bd cc 84 1a bd bb d2 ce 3d 16 bb 83 3c
       -0.107976034 -0.0377243 0.100987874 0.01608042
000040 94 c2 34 3d 5d b6 3c be 89 8d d9 3d c3 81 30 3e
       0.044130877 -0.18428941 0.10622699 0.17237
000050 2b 77 e8 3d 62 19 f7 bc 9f 94 6d bd aa c4 a7 bd
       0.113508545 -0.03016347 -0.058003064 -0.081918076
000060 49 6e 86 3d fe 0c 88 3c dd b4 aa 3c b2 8c f5 bd
       0.06564004 0.016607758 0.020838195 -0.11989726
000070 65 5f b0 3d 04 94 63 3b 3d fe b1 bc 30 34 2d bd
       0.08611945 0.0034725675 -0.021727676 -0.042286098
000080 99 e3 d1 bd 3e eb 0c 3e a6 ce ad bd 6d 2a 6a 3d
       -0.10248489 0.13761613 -0.08486681 0.057169367
000090 a7 cf 18 3e ca ae d4 bc 6c ef 21 bd 19 2f 25 bd
       0.14922963 -0.025962252 -0.03953497 -0.04032812
0000a0 65 37 94 3d aa 2c 0c bd b1 9c 7f 3d 59 d6 7b bd
       0.07237128 -0.034222282 0.062405292 -0.061483715
0000b0 79 b0 94 bd 75 fa 30 bd 33 27 25 3c 43 19 20 be
       -0.07260222 -0.043207604 0.010080147 -0.15634637
0000c0 d3 26 29 3c 26 e0 c2 bd ec a2 b5 bd c4 a7 85 3d
       0.010324198 -0.09515409 -0.088689655 0.065261394
0000d0 59 19 3f 3e 15 58 0e be f4 c5 86 bb 52 1f 00 3e
       0.18662013 -0.13900788 -0.0041129533 0.12511948
0000e0 72 6f ce bd 98 10 93 3b 5b ca ed bd 1b b7 fa 3c
       -0.1007985 0.004488062 -0.11610862 0.03060489
0000f0 5f d0 5e bc 9b 02 bd bd 5d 36 3b 3d 2a 21 98 3b
       -0.013599484 -0.092290126 0.04570614 0.0046426253
000100 db ba 52 bd 7e ea 56 3c aa 4a fc bd 31 d6 cc 3d
       -0.05144773 0.013117431 -0.123189285 0.10001791
000110 7c 23 40 3d 19 0b 3b be 07 df 0f be e2 5c 48 3c
       0.04690884 -0.18265952 -0.14049922 0.012229176
000120 03 8d a2 3c f8 60 02 bd 61 5c a7 3d 46 af c9 3d
       0.01984263 -0.031830758 0.08171917 0.09847884
000130 03 49 d8 3c c0 f7 e4 3c a8 a2 75 bd 6e df d8 3d
       0.026402002 0.027950168 -0.059969574 0.10589491
000140 cf 27 f8 3d aa 9a c7 bd c9 56 73 3d 25 31 45 bd
       0.12116968 -0.09746297 0.059408937 -0.04814257
000150 8a bd 28 3d 15 ec bd bd 20 a1 55 3d 04 e3 41 3e
       0.041196384 -0.09273545 0.052155614 0.18934256
000160 9e 09 a1 bc 89 33 aa 3d 49 3b 9c 3c 3c 1c 57 bc
       -0.019657906 0.08310611 0.019071238 -0.01312929
000170 a6 4d 21 3b 3c d8 83 3b 6b f1 03 bd 8f bf c1 3c
       0.0024612932 0.00402358 -0.032212656 0.023650913
000180 92 95 a3 3c ed 84 89 bd 08 b4 f6 bc 7a b0 91 bd
       0.019968782 -0.06714807 -0.030115142 -0.07113738
000190 0c d1 83 bd 4b 6e 01 3d 50 f5 2f bd e2 67 4e 3c
       -0.06436357 0.031599324 -0.042958558 0.01259801
0001a0 7d bf 2b bd 75 3c 76 bd ca 72 24 bd 39 1a 2a 3c
       -0.041930664 -0.06011625 -0.040148534 0.0103822285
0001b0 8e 6d f6 bd 65 6e 1f 3d e0 cf fb bd 14 5e 02 bd
       -0.12032615 0.03892364 -0.122955084 -0.031828
0001c0 5f 65 d4 3d 22 10 c7 bd fb 85 37 bd 7b a0 8e bd
       0.103708975 -0.09719874 -0.044805508 -0.06964203
0001d0 a5 33 02 3d 14 d9 ad 3c 49 34 d4 3d 1f 6c 99 3d
       0.031787533 0.021221675 0.10361535 0.074913256
0001e0 fb 93 52 bc 7c d7 28 3e f5 82 bc bc f4 eb b2 3d
       -0.012852664 0.16488451 -0.023011664 0.08736411
0001f0 ca 9e b7 bb 4d f1 37 bc b2 d4 e1 bd 16 9e 4a be
       -0.005603646 -0.011226964 -0.110268965 -0.19786867
000200 47 82 30 3d c3 92 a1 3d 29 8f 10 3d 85 78 8a 3d
       0.043092992 0.07889321 0.03529278 0.067612685
000210 5a 91 0a be 81 62 fe bc 0c 1e 13 bd a0 33 06 bd
       -0.1353201 -0.03105283 -0.035917327 -0.032764077
000220 1e 1f 56 3c 3a cb a5 3d 7a e5 15 3d 09 73 87 bc
       0.013068942 0.08095403 0.0365958 -0.016534345
000230 7b a3 ee bd 4f c6 2a 3d a6 14 12 3c 44 fe 87 3c
       -0.11652275 0.041693028 0.008916056 0.016600735
000240 b1 65 89 3d 03 13 5b 3c 4e 7e 09 3e ea e7 c5 3d
       0.06708849 0.013371232 0.13427088 0.09663375
000250 81 2b a9 bc 6b e3 de bd 2f ca 27 bc ac c8 e1 bd
       -0.020650627 -0.1088322 -0.010241075 -0.11024603
000260 de 4e e4 3d a5 9f 26 be 51 ad c8 3c a6 8d 0f bd
       0.11147855 -0.16271837 0.024496706 -0.035047196
000270 15 f4 0f 3e 69 2c 71 3d b1 13 0c 3d b0 41 1d be
       0.14057954 0.058880243 0.034198467 -0.15357089
000280 eb 0a 04 be e7 62 7f 3b 27 c2 4a 3d 14 48 1a 3c
       -0.1289479 0.0038968863 0.049501564 0.009416599
000290 d4 a9 91 3d b4 1b c8 bd 89 66 e0 bc e9 17 98 3d
       0.0711247 -0.09770909 -0.027392643 0.074264355
0002a0 9b 4f 13 bd 51 7a a2 bd 8e 0c 99 3d f1 c0 09 bd
       -0.03596459 -0.07933486 0.07473098 -0.03363127
0002b0 66 98 f5 bc d1 88 01 bd 11 de 4b 3e df f9 93 bd
       -0.029979896 -0.03162462 0.1990893 -0.072253935
0002c0 e1 ea b1 bd 89 9e a5 bd b1 4c 3a bd f8 d1 48 bd
       -0.08687378 -0.08086879 -0.045483295 -0.049028367
0002d0 4b 46 fe 3d 47 01 b1 bc 12 0a 1e be 69 5e 04 3e
       0.12415751 -0.021607054 -0.15433529 0.1292664
0002e0 8e 0d 27 bd 9f 90 f5 3d 6c 3d 31 be 10 13 ff 3d
       -0.04078441 0.11990475 -0.17308587 0.12454808
0002f0 c9 0b 2d 3d c2 14 84 bd 1c 77 a6 3d 7e d1 6a bd
       0.042247567 -0.06449272 0.08128187 -0.057328694
000300 6c 77 ea 3c 47 ef a9 3d 6f 06 a3 bc e9 b6 2c bd
       0.028621398 0.08297592 -0.019900529 -0.042166624
000310 d4 66 39 3e f9 e1 8e bc b1 89 ce 3c 34 51 0c bd
       0.18105632 -0.017441737 0.02521214 -0.03425713
000320 40 62 03 3e 0c 81 49 bd 29 27 ab 3d df fd ed 3d
       0.12830448 -0.049195334 0.083570786 0.11620688
000330 a8 65 22 3e 3b 72 0f 3e c8 8f fc 3c a7 81 88 3c
       0.15859091 0.14008419 0.030830279 0.016663386
000340 c2 00 0c 3d 97 88 f8 3c d3 fc 29 3d 8c 4f 14 3d
       0.03418041 0.030338569 0.041500878 0.036208674
000350 70 50 f8 3d 2d 1f 08 be b2 94 60 3d 58 fd 66 3d
       0.12124717 -0.13293143 0.054829307 0.05639395
000360 83 26 30 3c e7 75 a4 3c c5 20 92 3d cb 4d 8c 3d
       0.010751369 0.020075751 0.071351565 0.06850775
000370 52 33 12 3e 94 39 f1 bc 02 62 93 bd 85 96 bc 3d
       0.1427739 -0.0294464 -0.07196428 0.09208397
000380 30 8e 95 bd da e7 cc bc 8b e8 b5 bc 6f dc a4 ba
       -0.07302511 -0.0250129 -0.022205612 -0.0012577901
000390 08 eb 35 bd ce 14 7b bd 97 0c 57 bd 73 41 3c bc
       -0.044413596 -0.061299138 -0.05250224 -0.011490214
0003a0 d9 94 6b 3c f4 c0 af 3c c6 9e e9 bd 24 97 48 bb
       0.01437875 0.021454312 -0.11407237 -0.0030607665
0003b0 70 0e d2 bd 3b 7f ac bd 4c 71 eb bd 16 c6 c7 bd
       -0.1025666 -0.08422705 -0.11496219 -0.09754579
0003c0 eb 88 dc 3d d8 4c ce bd 75 73 41 3c 61 9f ff bd
       0.107683025 -0.100732505 0.011807312 -0.12481571
0003d0 9d 8e ec 3c 2b f2 d8 bd 39 cb 89 3b 19 36 0f 3c
       0.028876597 -0.10593065 0.004205134 0.008740925
0003e0 5f 29 70 3a 4b 72 b7 3d 76 67 ac 3b d2 59 38 3d
       0.0009161438 0.089573465 0.005261357 0.045007534
0003f0 61 3b 14 3e 9b cb 44 bd ec ec 9d bb 5f 22 5b 3c
       0.14475776 -0.048045736 -0.004819503 0.013374894

bias f4 [128]
000000 e7 c5 40 bc 83 e3 4a bd 65 99 20 3d 13 3e 3a 3c
       -0.011765934 -0.04953338 0.03920879 0.011367339
000010 d8 ed 54 3c 10 02 b9 3d 4c 01 99 3d c3 0c cc 3d
       0.0129961595 0.090335965 0.074709505 0.099633716
000020 b1 96 84 bd 87 43 19 3e 65 9c 93 3c 47 64 ef 3d
       -0.064740546 0.14967166 0.01801891 0.11689048
000030 21 4a 88 bd 78 04 fb bd 1a 79 33 3d 3e 16 80 3d
       -0.06654764 -0.12256712 0.043816663 0.06254242
000040 19 dd 9b 3d 0e a3 99 bd 2d d0 c2 bd c5 0d f2 bc
       0.076105304 -0.07501803 -0.09512363 -0.029547581
000050 a0 5b 7a bd eb 1f 17 bd c3 aa e9 bd 5b 91 c3 3b
       -0.061122537 -0.036895674 -0.11409523 0.0059682555
000060 2b 60 c9 3c 8b ef bc bd f2 e8 31 3c 38 09 21 bd
       0.02458199 -0.09225377 0.010858761 -0.039315432
000070 a1 20 0e bd 48 b2 7f 3d 80 b1 e8 bd f8 e7 8e bc
       -0.034699086 0.06242588 -0.113619804 -0.017444596
000080 89 c2 f1 3c 22 3c 71 3d f2 51 0d bd c2 e5 16 bd
       0.029511707 0.058895238 -0.034501977 -0.036840208
000090 91 df 59 b9 64 7e ba 3d 93 a5 23 3c cb 5f 90 3d
       -0.00020778018 0.09106138 0.009988206 0.07049521
0000a0 6d 09 85 bb 6c f9 0e bc 16 36 95 3d 9c 16 a0 ba
       -0.0040599615 -0.008726459 0.07285707 -0.0012213769
0000b0 1c e5 07 3e e6 83 4b 3c 54 21 74 bd 3b ee bc bd
       0.13270992 0.012421584 -0.059602097 -0.09225126
0000c0 76 05 12 3e f5 fd 08 be 00 dd bc 3d 02 3a 2b 3d
       0.14259896 -0.13378127 0.0922184 0.041803367
0000d0 5e dd 9f bd 95 f5 5c 3d fe d5 20 bd c7 b6 7d bd
       -0.07805894 0.053945143 -0.03926658 -0.06194189
0000e0 8f aa 9e 3d ba 06 d8 bd 69 c4 d9 bd 69 86 76 bd
       0.07747375 -0.10548158 -0.106331654 -0.060186777
0000f0 00 31 39 bd bf 85 3f 3d 93 ab 0d bd bd 9d 81 3c
       -0.045212746 0.04675841 -0.034587454 0.015822286
000100 cd 01 45 3d e7 0b 7d 3d dd b3 b7 bd 2a 7f a5 3d
       0.04809742 0.06177893 -0.08969853 0.08080895
000110 24 58 85 bd 55 aa 81 bd ea 48 1a bd ab c2 1c 3e
       -0.06510952 -0.063313164 -0.037667193 0.15308635
000120 e6 88 61 bd ec 23 01 3e 8d 19 84 bd 2d 9f 45 bb
       -0.055062197 0.1261136 -0.06450186 -0.003015469
000130 d0 f5 03 3d d2 d6 1a bc fb c0 f2 bd a4 65 d0 bd
       0.032216847 -0.009450631 -0.11853214 -0.101756364
000140 28 e2 25 3d 70 9c 1d bc 0e 72 36 bd ad 9a dc 3c
       0.040498883 -0.009619817 -0.044542365 0.026929224
000150 9f 55 f6 bd f2 02 8f 3c cb 93 32 bc cc 3a 93 3d
       -0.1202805 0.01745746 -0.010899494 0.07188949
000160 85 3e c4 bd e3 13 11 3d 86 5d d8 3b 1c 6d eb bc
       -0.09582237 0.035419356 0.0066029457 -0.02873855
000170 3e 55 26 3d 46 d3 74 bb b2 12 fc 3d fd 11 e8 bd
       0.040608637 -0.0037357374 0.12308253 -0.11331556
000180 0a a9 85 bd 28 a4 ea 3c b1 b0 d4 bc 7c 76 09 3d
       -0.06526382 0.028642729 -0.02596316 0.03356026
000190 be 07 0d be 20 84 9b 3b d4 1c ea bc 22 00 e3 bb
       -0.13772485 0.004745975 -0.0285782 -0.006927506
0001a0 e7 4a 07 be c8 bf 03 bd 62 a8 67 bd 84 ad 9e 3d
       -0.13212167 -0.03216532 -0.056557067 0.07747939
0001b0 c1 a9 28 3e f5 81 0c bd ab 5f a8 3b 3d ab b0 bc
       0.16471006 -0.034303624 0.0051383576 -0.021566028
0001c0 df c9 0f 3e 58 96 d0 3c 1e 00 a2 bc 0f 7f 5c bd
       0.14041851 0.025462314 -0.019775447 -0.05383211
0001d0 f2 83 0a be 5d 60 bf bd 36 35 ef 3c 26 53 e5 3c
       -0.13526896 -0.09344552 0.029200178 0.02799375
0001e0 e6 8a 58 3d 94 d3 0b 3e 29 af 3e bc a5 a8 d3 bd
       0.05286684 0.1365493 -0.011638441 -0.10334901
0001f0 0c ae b7 3d 89 53 ce 3d 2e 3c 96 3d 99 ea 83 3c
       0.08968744 0.10074527 0.07335697 0.016103076

weight f4 [128, 128]
000000 6f fa 4a bd 11 1b 40 bd 0c a4 36 3c 5b bb 07 be
       -0.04955524 -0.046900813 0.01114751 -0.13255064
000010 5d e0 08 be c8 e0 4f 3d b7 ef cc 3d 73 fd ee 3d
       -0.13366838 0.050751477 0.100066595 0.11669435
000020 fe c2 e2 bb 5f 9c 2a 3e 28 af 64 bc ae 83 b0 bc
       -0.0069202175 0.16661213 -0.013957776 -0.021547165
000030 52 22 21 3d 33 d6 d9 bd df 6d 1c bd 98 d5 0d 3e
       0.03933937 -0.106365584 -0.03819072 0.13851011
000040 94 12 e4 3c 74 62 86 bd 27 ac b6 bd 43 9b f3 3c
       0.02784089 -0.06561747 -0.08919554 0.02973712
000050 69 96 1d bd 4a f2 83 bd 2a 3f 3b bc 9b 1e 02 3d
       -0.03847352 -0.06442697 -0.011428634 0.03176747
000060 03 fa 82 3d a0 dc 25 bd ba 26 1d 3e e9 39 0f bd
       0.06395342 -0.040493608 0.15346804 -0.034967337
000070 41 cb a8 3c 0d 9e 6d 3d ec ac 04 be 35 38 f8 bd
       0.020604732 0.058012057 -0.1295659 -0.12120096
000080 2f 95 c9 3d 71 d3 24 3d 9e ea 25 bd 2c 1e 8c 3d
       0.09842908 0.04024071 -0.04050695 0.06841692
000090 45 dc c6 3d e1 c2 0c 3e 15 c6 e5 bc 99 6b fd bc
       0.09709982 0.13746215 -0.028048554 -0.030935096
0000a0 3b 4c 3d bc c5 c3 81 3d 29 14 01 3d b3 80 81 3d
       -0.011553819 0.06336168 0.031513367 0.063233756
0000b0 a7 5d 57 3d 75 e3 81 3d 2e 18 72 bd 4c c6 39 bd
       0.05257955 0.06342212 -0.05910509 -0.045355126
0000c0 40 de 12 3e c3 ef 11 3c 72 dd 00 3e cb d5 61 3d
       0.14342594 0.008907261 0.12584475 0.05513553
0000d0 9b f7 8f bd 4e c3 8c 3d 29 32 04 bd 96 90 d4 3c
       -0.07029649 0.06873189 -0.0322744 0.02594785
0000e0 10 71 bc 3d e5 d3 5b 3d 64 6d b2 bd d2 fd ef 3a
       0.092012525 0.053668875 -0.08712271 0.0018309897
0000f0 1d ca 03 bd a7 9a 83 3c 3e d2 69 bd e3 b7 fb 3d
       -0.032175172 0.016064955 -0.05708527 0.12290933
000100 77 e8 98 bc 2b 73 41 bd 49 bb 7e bd e1 45 16 3d
       -0.018665535 -0.047228973 -0.062190328 0.036687735
000110 d0 ad e8 bd 8e bb 86 bc 77 ce 0f be 95 c6 e3 3d
       -0.11361277 -0.016446855 -0.14043604 0.11121861
000120 e9 c5 ed bd 37 e6 d6 3d ed f9 87 3c 06 2c 23 be
       -0.11610014 0.10493129 0.016598666 -0.15934762
000130 db f3 b1 bc 60 45 d5 bb 37 5d e0 bd 25 55 a5 3c
       -0.021722725 -0.0065085143 -0.10955279 0.020182202
000140 b0 3d 83 bd 7d 46 54 3d 5e 2d 16 3e af ad 9a bd
       -0.0640825 0.051825035 0.14665744 -0.07552659
000150 55 56 2e bd 9e e6 7c bd b5 b6 96 3c b9 98 35 3e
       -0.0425628 -0.06174337 0.018397668 0.1773404
000160 f4 2b 8e bd 21 62 9c 3d 62 67 70 3d 47 0d 1e bd
       -0.06941977 0.07635904 0.058692344 -0.03858688
000170 0f eb fe bc 64 47 b1 3a ec 64 86 3d f1 4e 13 3d
       -0.031117944 0.0013525304 0.06562218 0.035963956
000180 9f c2 a3 bd d9 6c e4 3d 20 6a be bd 42 ed 2f 3d
       -0.079961054 0.111535735 -0.092975855 0.042950876
000190 cc e5 81 bd 11 db 7b 3c f2 44 c7 bd 58 17 93 bd
       -0.063426584 0.015372054 -0.09729947 -0.07182187
0001a0 8d da 84 bd 37 7f 52 3d ee a1 26 be 9f df 74 3d
       -0.06486998 0.051390853 -0.16272709 0.059783574
0001b0 63 f9 29 3c 33 e5 b5 bc a0 2d 83 bd 7d 69 09 bd
       0.0103744 -0.022204017 -0.06405187 -0.033547867
0001c0 b5 ba a6 3d e8 ad 70 bc f7 1a f2 bc 3d 9f c4 3d
       0.0814108 -0.0146899 -0.029553873 0.09600685
0001d0 f9 81 11 be ca 8f ca bd bc 16 46 3d 88 89 9b bb
       -0.14209737 -0.09890707 0.048361525 -0.0047466196
0001e0 a9 4d d2 bc 43 b7 0f 3e 19 05 73 3d 15 8b d2 3c
       -0.025671797 0.14034753 0.059331033 0.025701085
0001f0 30 72 1c 3e 71 e8 fa bc c5 00 a4 3c b6 c6 c6 bd
       0.15277934 -0.030628415 0.020019898 -0.0970587
000200 51 8e 69 bc 88 5e 0d 3d 10 4b 58 bd 23 28 44 3d
       -0.014255122 0.03451398 -0.05280596 0.04788984
000210 c9 40 5e bd da fc 18 3d b2 83 ec 3b db 77 43 3d
       -0.054261003 0.037350513 0.0072178477 0.047721725
000220 1c 08 0b 3e 36 27 8f 3c 45 7a f9 bc 78 9d 81 bd
       0.13577312 0.017474752 -0.03045381 -0.06328863
000230 6e c0 24 bd 93 d1 ec bd 11 b1 2b bd d9 57 09 bc
       -0.040222578 -0.115634106 -0.04191691 -0.008382761
000240 6c 93 e2 3d b9 bd cc bd 0b db 8c bd 0b e6 38 3c
       0.11063275 -0.09997124 -0.06877717 0.011285315
000250 1c f7 d8 bd b4 0e 1c bd c6 1b 15 3c 0c 36 1a bb
       -0.105940074 -0.03809996 0.00910086 -0.002353075
000260 75 a0 13 bd f6 e5 b0 bd 20 c5 3d 3d eb 27 42 bd
       -0.036041696 -0.086376116 0.04633057 -0.04740135
000270 12 bf b3 3a 68 bd a1 3d 22 df 88 bd cf a2 aa bd
       0.001371356 0.078974545 -0.06683184 -0.083318345
000280 e5 f1 98 3d 6b e7 d3 3c 66 2d 8e bb d3 5c 3e 3d
       0.07468013 0.025867185 -0.004338908 0.046475243
000290 b8 2f 17 3d ec 28 96 bc 0e 69 51 3d 85 ab 0d 3d
       0.036910743 -0.01833006 0.05112558 0.034587402
0002a0 de 69 cb bd 2e 62 98 3d 22 8c 14 bd 05 0d 9e 3c
       -0.09932302 0.07440601 -0.036266454 0.019293318
0002b0 60 4a b2 3d 71 cd 3a 3d 74 f3 22 3d 0b b8 bb 3c
       0.08705592 0.04560608 0.039782956 0.022914907
0002c0 b5 95 c4 bc 9a 7b 21 3c b2 3d dc 3b 57 26 92 bd
       -0.023997167 0.009856129 0.006721222 -0.07136219
0002d0 de da 04 3d 66 90 a2 3d 7f b4 98 3d 57 3e 9f 3d
       0.03243529 0.07937698 0.07456302 0.07775562
0002e0 b5 f8 ee 3d 55 a9 a9 bd e2 32 70 bc 77 f3 ce bd
       0.11668531 -0.08284251 -0.014660569 -0.10105031
0002f0 c8 57 b1 bd 49 98 50 3c 53 be d6 3c f6 c9 9f 3d
       -0.08659321 0.01273162 0.0262138 0.07802193
000300 55 be b9 3c 0e cb c2 3d 7d 38 4d 3d 5d 6f a8 3c
       0.022673765 0.09511386 0.0501027 0.020560915
000310 54 e1 1b bb 4d 97 ee bd 96 6b ac bc a9 de ae bd
       -0.002378543 -0.11649952 -0.021047395 -0.08538563
000320 0c 25 bb bd 7d f0 f9 3d 23 96 9d 3d 0e c4 dd bd
       -0.091379255 0.122040726 0.07694652 -0.1082841
000330 23 8c d7 bc 35 dc be bc 88 76 68 3c 27 7f 11 bd
       -0.02631194 -0.023298362 0.014188416 -0.035521653
000340 17 62 9b 3d 37 7e 84 3d bc 16 f6 3d 7e 2a b5 bd
       0.075870685 0.06469386 0.12016055 -0.08845995
000350 61 3a 87 3c 01 a1 4b bd a7 40 41 3d f8 49 89 3d
       0.01650733 -0.049714092 0.047180798 0.067035615
000360 09 1e e0 bd f6 76 dc 3d 01 c3 11 3d 6c 62 89 bd
       -0.10943229 0.107648775 0.03558636 -0.067082256
000370 77 94 5e bd c7 8a 52 bd 4d 85 7e 3d 6a 31 20 3c
       -0.054340806 -0.05140188 0.062138844 0.009777406
000380 b3 6e f9 bc 32 f3 78 3d af 25 9c bd 46 3e 9b 3d
       -0.030448293 0.060778804 -0.07624375 0.07580237
000390 10 44 8d 3c 2a c7 4a 3d e2 7a d3 bd cb 48 b1 bc
       0.017244369 0.049506344 -0.103261724 -0.021641156
0003a0 11 91 46 bd 38 0a ae bc e6 c9 10 3d f8 64 27 3d
       -0.04847819 -0.021245107 0.035348795 0.040867776
0003b0 d6 c5 4e 3d d6 bc 4c bb 2f 43 b0 3d 64 3e f0 bc
       0.05048164 -0.0031240485 0.08606564 -0.029326625
0003c0 09 78 e7 3c e2 6b ba bc b8 5c 6a 3d ce e4 ca bc
       0.02825548 -0.02275652 0.05721733 -0.024767306
0003d0 0c 52 af bd 2c 9a 81 3c d8 b2 22 3d 29 44 e0 bc
       -0.08560571 0.015820585 0.03972134 -0.027376251
0003e0 a8 9c 44 3d aa d4 1a bd 03 fa de 3c 78 ce 09 bd
       0.04800096 -0.03780047 0.027218824 -0.03364417
0003f0 92 42 38 3b 37 b1 2f bd f9 f0 01 3d 2f 9a b8 bd
       0.002811585 -0.042893615 0.03172395 -0.09013783

bias f4 [128]
000000 8b 29 aa ba 23 b5 7c bc 33 53 78 bd ec df 7a bd
       -0.0012982351 -0.015424046 -0.06062622 -0.061248705
000010 21 a8 3f bd bb d4 89 3b 7f 57 97 bd bf eb 4e 3d
       -0.0467912 0.0042062677 -0.073897354 0.050517794
000020 69 c2 86 3d 7d ac ef bc 9a 0a c9 3c be 82 b5 bd
       0.065800495 -0.029257054 0.024541188 -0.08862828
000030 80 27 2d bd dd 0c e6 bc b3 77 26 bd d1 a9 c9 bd
       -0.042274 -0.028082306 -0.040641498 -0.09846843
000040 94 59 31 3b 5c 49 85 3d a6 1d b2 3d e9 9f 8d 3d
       0.002706145 0.06508133 0.08697061 0.06915266
000050 84 a6 e2 bc e7 38 02 bd 77 8a 38 bd 95 ab 1c bd
       -0.027667291 -0.031792548 -0.045053925 -0.03824957
000060 9e 6b e3 bc 78 74 09 3e f0 5f b3 3d ea f8 fa 3b
       -0.027761277 0.13423336 0.08758533 0.0076590674
000070 e1 f1 89 bd 71 82 5a 3c 17 58 2f 3c 2d 1b e8 bb
       -0.06735588 0.013336764 0.010702155 -0.0070833177
000080 26 07 9f bb b4 35 82 bd 13 fc b6 bc 5c 6f b4 bb
       -0.004853147 -0.06357899 -0.022336995 -0.005506439
000090 36 b9 22 3d 7d 05 03 be 9d 9b a0 bd b6 7a b4 bb
       0.039727412 -0.12795062 -0.07842181 -0.0055077923
0000a0 ba d9 60 3c 14 13 e4 bc 53 de b4 3d 43 d6 5b 3d
       0.013723785 -0.027841128 0.088314675 0.053671133
0000b0 19 34 8a 3d 90 50 94 3d cb a0 9a bd 89 8f 16 be
       0.06748218 0.072419286 -0.075502 -0.14703192
0000c0 38 64 6e bb 48 4b 7c 3d 67 d4 a0 3c 08 24 84 3d
       -0.0036375653 0.06159523 0.019632531 0.06452185
0000d0 11 b2 44 bd 3a 59 b5 3d d8 1e a5 bc e4 cd 21 bd
       -0.04802138 0.08854909 -0.020156309 -0.039502993
0000e0 2e 36 0f bd 2d f5 e8 3c 67 dd 2a bd 57 0a 4f bd
       -0.03496378 0.028437221 -0.041715052 -0.05054697
0000f0 ff 24 ff 3c 1e 84 ae bd 2d 2a f6 3d e4 6a f7 ba
       0.03114557 -0.08521293 0.12019763 -0.001887646
000100 0a fe e4 3d 51 1c 97 bd 34 e8 ca bc 3f 04 40 3d
       0.111812666 -0.07378448 -0.024768926 0.04687905
000110 8f 23 cc bd f6 46 cd 3d 84 1e 59 bc 98 a5 69 bd
       -0.0996772 0.100233 -0.013251904 -0.057042688
000120 c4 ad 8c 3c 38 08 83 bd 23 e2 90 3d 3b 4e 04 3d
       0.017172702 -0.06398052 0.07074382 0.03230117
000130 ef a6 10 bb 1e 76 4c bd 12 fd f9 bd 47 a5 df 3b
       -0.0022072156 -0.049917333 -0.122064725 0.0068251225
000140 53 18 2e 3d e9 4c 18 3d 0f d5 44 bc cb 44 ce bc
       0.042503666 0.037182722 -0.012013688 -0.025179287
000150 b3 98 a0 bd 16 87 41 bd 8f 80 b2 3c 32 00 06 bd
       -0.07841625 -0.04724797 0.021789817 -0.03271503
000160 63 ba 5e 3c 09 b8 0b be b9 9a 63 bd 18 ff b8 bc
       0.013594243 -0.13644423 -0.055567477 -0.022582576
000170 0d 98 ea 3c 0e b6 84 bd 2c e6 e4 bb 62 2d fa bc
       0.028636957 -0.06480037 -0.0069854464 -0.030539218
000180 c4 05 d9 bb e1 64 a1 3c 8c 79 9f 3c 56 ac 0d bd
       -0.006623002 0.019701423 0.019467138 -0.03458818
000190 b1 d0 02 be 17 a6 15 bd fb 73 a8 3d 43 1a 15 bd
       -0.12774922 -0.03653535 0.082252465 -0.036402
0001a0 67 d3 86 bd 95 c7 b1 3d 4e 2f bf bc 64 89 ec bc
       -0.065832905 0.086806454 -0.023337986 -0.028874107
0001b0 5a 48 bb 3d a4 6a 95 3c 74 9d a2 bb 4a 1e 9d 3d
       0.09144659 0.018239327 -0.0049626175 0.07671793
0001c0 04 90 8e 3d 41 8c 8c 3d eb 3d b8 3d 2c df a4 bd
       0.069610626 0.06862689 0.08996185 -0.08050379
0001d0 f1 0a 50 3d 44 34 0b bd 2e d6 26 3d c1 ab 26 bd
       0.050791685 -0.03398539 0.0407316 -0.04069114
0001e0 7b ce 84 3d 36 4e b8 bc e8 0b b9 3c 17 83 da 3d
       0.064846955 -0.022498231 0.022588685 0.10669535
0001f0 d6 d6 0a bc 4e 89 c1 3d 04 87 84 3d 28 58 6a bd
       -0.008474072 0.09450017 0.06471065 -0.05721298

weight f4 [2, 128]
000000 f0 e8 e5 bd e9 f9 c4 3b 45 11 05 3d 90 ba 08 bd
       -0.1122607 0.006011237 0.032487173 -0.033381045
000010 9f 7b 91 3c 4d cd d4 3d 2d 99 26 3e 97 6b 0e bd
       0.017759142 0.103907205 0.1626937 -0.034770574
000020 ec 61 a1 bd dc 3b 09 3c aa 81 c5 3d 7e 69 01 3e
       -0.07880005 0.008376088 0.09643872 0.12637898
000030 96 b0 96 3c 07 e5 ef 3b a0 ab ab bd be 7a 0d 3e
       0.01839475 0.0073210034 -0.08382344 0.13816354
000040 6d fd ca bd 7e fe 8a 3d de 5e f9 bd c6 24 94 3a
       -0.099116184 0.06786822 -0.121762976 0.0011302463
000050 0f 0a a1 3c e5 31 a0 3b 6d c4 cf 3d 35 0d b6 3c
       0.019658117 0.0048887604 0.10144887 0.022223094
000060 83 f5 ae bd 0b 69 f8 bd 80 a7 9f 3d b0 c3 08 be
       -0.085429214 -0.1212941 0.0779562 -0.13355899
000070 35 63 22 3c 47 cd c1 bd 1c 79 b4 3d f5 e8 e8 bd
       0.009911348 -0.09462982 0.08812162 -0.11372558
000080 46 19 d0 3d be c7 13 3c a8 0c 5e 3d 14 e8 15 3e
       0.101610705 0.00901979 0.05421129 0.14639312
000090 67 ab f9 3b f5 28 b5 3d 10 33 a0 bd ce a0 ea 3d
       0.0076193097 0.088457026 -0.078222394 0.11456452
0000a0 85 3e 57 3c 29 70 77 3d 7e 7e 0c 3d f3 0b 4a 3d
       0.013137464 0.0604097 0.03430032 0.049327802
0000b0 b7 5f 85 bd f6 53 86 bd 41 76 29 bd f0 9a 02 3e
       -0.06512397 -0.06558983 -0.04137254 0.12754416
0000c0 3a 8d b3 bd 60 9a b6 bb 0c a9 0c bd 51 12 38 3c
       -0.08767171 -0.005572602 -0.034340903 0.011234836
0000d0 37 d5 ab bd 2e 19 3d 3c f2 86 91 3d 45 30 04 be
       -0.08390277 0.011541648 0.07105817 -0.12909038
0000e0 af 64 a2 3d fb 4e 17 be ba 78 49 3c 77 00 fa 3c
       0.0792936 -0.14776222 0.01229685 0.0305178
0000f0 ff e5 a0 bc 95 b3 af 3d d0 56 9c bd 84 2b 9a bd
       -0.01964092 0.085791744 -0.07633746 -0.07527831
000100 2b e9 90 bd 81 f6 0b 3e c5 ba 50 3c ce 98 d7 bc
       -0.07075723 0.13668253 0.012739842 -0.02631798
000110 7a db 99 bd de d2 be bd b2 48 d8 3b c2 9b 57 bd
       -0.07512565 -0.093175635 0.006600463 -0.052638777
000120 df 15 37 bd c4 12 e0 3d 06 05 2a 3d 7a 7e 79 bd
       -0.044698592 0.10941079 0.041508697 -0.060911633
000130 fd 59 06 bd c0 b3 34 3e dd 41 a7 3d 85 71 81 3d
       -0.032800663 0.17646694 0.08166859 0.0632048
000140 f9 54 3f be e8 ba 82 bd ec bc ad 3d 55 f8 43 3c
       -0.18684758 -0.06383306 0.084832996 0.011961062
000150 24 26 cf bd 38 d8 52 bc de a7 ba 3d 0f 0d 23 bb
       -0.101146966 -0.012868933 0.091140494 -0.002487961
000160 bc 7c 93 3d 41 dc 2e 3e a0 ce 8e bd 43 c2 0c 3e
       0.072015256 0.17076208 -0.06973004 0.1374598
000170 4d e9 9d 3d 58 e7 27 3c 06 21 3e bd e3 b6 20 3e
       0.07710514 0.010248028 -0.046418212 0.15694766
000180 21 65 e7 3d 02 ab bb 3d 41 9c 58 bd 93 8f e1 3d
       0.11298586 0.091634765 -0.05288339 0.11013713
000190 a6 f7 ba 3d d9 5d c5 3d 3a ae d4 3b 2f 16 18 bd
       0.091292664 0.09637041 0.006490496 -0.03713053
0001a0 be 93 c9 bd a9 a3 fc bc ae ad 59 bd dc 04 06 3e
       -0.09842633 -0.030839758 -0.05314415 0.13087791
0001b0 7e be 9a 3d 7b e2 cf ba 9e d3 80 3d 82 a7 9d 3d
       0.07555865 -0.0015860343 0.06290363 0.07697965
0001c0 6a 0c 8f bd bd c9 b5 3b 0d e2 00 be 58 9e 03 3e
       -0.0698479 0.0055477307 -0.12586232 0.12853372
0001d0 35 c4 3a bb 1d 0d 01 3c 76 c4 f1 3c 56 67 d6 3c
       -0.0028498296 0.007876662 0.029512625 0.026172321
0001e0 cd a9 aa bd c2 fe a5 bc 51 c8 e0 3c 90 65 04 bb
       -0.08333168 -0.02026308 0.027439268 -0.0020202138
0001f0 55 52 e0 3d 4d 83 5f 3d b4 e1 f0 bd f2 2d 00 be
       0.109532036 0.054568578 -0.117617995 -0.12517527
000200 76 e1 ef bd 2d 71 48 bd 60 08 b7 bd 8b 3a df bd
       -0.11712925 -0.048936058 -0.08937144 -0.10899838
000210 bf d5 1f bd 91 7d 40 3d 02 a3 68 3d c4 09 4d bc
       -0.039022204 0.04699475 0.05679608 -0.012514535
000220 80 e2 95 bc 6e 04 18 3e 54 25 55 3d ef d1 8b 3d
       -0.01829648 0.1484544 0.052037552 0.06827151
000230 73 eb dd 3d c1 5b c6 3d 18 52 8d 3c 59 67 ff 3d
       0.10835924 0.096854694 0.01725106 0.12470884
000240 a7 f3 93 bd 16 5d 16 3d 82 96 4e bd f8 13 40 bd
       -0.07224207 0.036709867 -0.050436504 -0.046894044
000250 40 a7 25 3d 76 9b ae 3d 46 0c 98 3d d5 ca 87 bd
       0.040442705 0.085257456 0.07424216 -0.06630484
000260 d8 be 80 3d cd c4 89 bd bb 92 85 bc 85 7d ea bd
       0.062864006 -0.0672699 -0.016305318 -0.11449722
000270 93 cc e3 39 31 77 d0 bd d6 d1 be 3d 44 2a ff bd
       0.00043449234 -0.10178984 0.09317367 -0.124592334
000280 4c 67 ea 3d 06 1d c3 bc 8e d1 a9 3d 3a ec 25 3e
       0.114454836 -0.02381755 0.082919225 0.16203395
000290 2a 51 0a be 39 c1 a8 3d 90 56 26 bd 07 ab 9c bc
       -0.13507524 0.08239979 -0.040609896 -0.019124521
0002a0 80 4d 72 3a 77 d2 ad 3c ee 6c b9 bb 13 63 4b 3d
       0.0009243116 0.021218522 -0.0056587374 0.04965503
0002b0 43 0e af bd 12 b1 6a 3c 5b e3 58 3d da 5f 0f 3e
       -0.08547642 0.014324443 0.052951198 0.14001408
0002c0 5c 3b 81 bd c6 90 b9 3c 40 90 84 3d 14 1a af 3d
       -0.0631015 0.022652041 0.06472826 0.08549896
0002d0 7b 52 7a bc c3 77 be bd 2f 6f 0c bd 8d 9d 34 3d
       -0.015278454 -0.093001865 -0.03428572 0.044095565
0002e0 15 b9 bf 3d e5 41 80 bd 97 4b 93 bc 67 da f9 3d
       0.093614735 -0.062625684 -0.01798038 0.1219986
0002f0 4d 3c 4d 3d 69 75 89 3d 18 72 e5 3c c4 6d 83 bd
       0.050106335 0.06711847 0.028008506 -0.064174205
000300 49 8c b4 bd 66 12 e0 ba 50 6f c0 3d c6 56 0d 3c
       -0.0881582 -0.0017095327 0.09396231 0.008626645
000310 17 89 87 3d 09 6c 35 3d dd 1d 2a bd 76 d0 33 bc
       0.06617945 0.044292483 -0.041532386 -0.010974994
000320 ed d4 85 3d a1 c8 35 3d de 03 c1 3d c0 7b 8d bd
       0.06534753 0.044380788 0.09424566 -0.06908369
000330 b2 46 b5 3d 75 48 02 3e dd fc f0 3d 8d c8 6a bd
       0.08851375 0.12722953 0.1176698 -0.057320166
000340 fd 11 3c be 7b 8a 1e bb dd d5 50 3d 55 98 da 3d
       -0.18366237 -0.0024191428 0.050985206 0.10673586
000350 1c f5 59 3d 2b 9b 87 3d a3 8a 17 3d 34 d3 88 3d
       0.05321227 0.06621393 0.03699745 0.06680909
000360 4f 2c 43 bd cd d7 11 3e ae f0 bf bd eb 77 ed 3d
       -0.047649678 0.14242478 -0.09372078 0.11595138
000370 73 07 b2 3d 36 6d 06 3d 1d 48 9f bd ff fc 13 3e
       0.08692827 0.032818995 -0.077774264 0.14451979
000380 7e 48 f4 3d 16 73 18 3d af 38 70 3d 8f 7f cd 3d
       0.11927889 0.03721913 0.058647808 0.100340955
000390 50 9a df 3d f7 9b 69 3c 98 1c 40 bd 5b 7a d6 3d
       0.10918105 0.014258376 -0.04690227 0.10472556
0003a0 0c 44 54 bd 9a ca 7b bb 60 8b a4 bd 8f 92 a2 3c
       -0.051822707 -0.003842032 -0.08034396 0.019845275
0003b0 80 04 a8 bd 05 ab 6c 3d 88 e6 13 3e 80 c6 00 bd
       -0.08203983 0.057780284 0.1444341 -0.031439304
0003c0 ef 08 86 3c 5f 43 55 bd d0 44 b1 bd c3 d9 4c 3d
       0.016361682 -0.052066203 -0.08655703 0.05001236
0003d0 df 22 86 3d 56 e6 38 3b 11 11 9e bd 9c 70 17 3d
       0.0654962 0.0028213463 -0.07718099 0.036972627
0003e0 eb 36 ef bd fe c4 84 bd d4 a8 cb 3d 04 0c e1 3c
       -0.11680397 -0.06482886 0.09944311 0.02747155
0003f0 23 e6 cc 3d 18 07 87 3d 70 d3 db bd b5 bf 15 bd
       0.100048326 0.0659315 -0.10733688 -0.03655978

bias f4 [2]
000000 d3 48 03 3e d9 05 cd ba
       0.12820749 -0.0015642002
