data/vanilla-valor-expts/vanilla-valor-expts_s0/pyt_save/model.pt (torch, 308243 bytes, 26 tensors)

weight f4 [25, 60]
0.0010887628 0.06811856 -0.10625467 -0.09502357 -0.049722858 0.034621857 -0.002556025 0.10236092
-0.011452522 0.03416147 -0.038983393 -0.025371956 -0.12335664 -0.08550251 -0.05321804 0.00478115
0.051024344 0.07747491 -0.087523766 -0.05621801 0.046891127 0.109639466 -0.026547266 0.09659842
-0.020833846 0.013666126 0.11690793 -0.11979429 -0.08132921 -0.03268349 -0.050313093 0.111539915
-0.083721615 -0.059437353 -0.09019235 -0.12091046 -0.07536048 0.11095676 0.0575839 0.062589474
0.0067895413 -0.06623316 0.021800015 -0.120539196 -0.09328286 -0.06655482 0.08147241 0.075694
-0.057273388 -0.0046582352 0.082591936 0.12833917 0.0512358 0.017439783 0.086532325 -0.07597585
0.024090776 -0.10008272 -0.089492634 -0.06669065 0.060163856 -0.014107442 -0.07647238 0.03900186
0.07086741 -0.016262814 0.0049514505 0.02989881 0.08009027 0.12396071 -0.09992905 -0.047341123
0.051149745 0.106965266 0.11234328 0.11391177 0.025692668 -0.11226264 0.01187618 -0.0807653
-0.12031476 0.1317844 0.09807104 -0.12868564 0.024138939 -0.021485234 -0.021209503 -0.05913904
0.050303005 -0.07646613 0.047326908 0.06528651 0.09295692 0.048279334 -0.12831318 -0.08360997
0.06478144 0.027239038 -0.10061498 -0.07441476 0.12145021 0.08703391 -0.05575946 -0.03248687
-0.1229787 -0.0023247406 -0.09721949 -0.09958172 -0.0071133287 0.019383643 -0.052870132 0.07660472
-0.078562096 0.11714097 0.08847187 -0.10886979 -0.03262031 0.0058849114 0.018312626 0.030619066
0.08088238 0.0011122561 -0.06299133 0.061102033 -0.12383871 -0.07651862 -0.03231774 -0.06288607
-0.045168515 -0.10581112 -0.027480645 0.027635898 -0.08405075 -0.0066224043 0.09241577 -0.013269864
0.003605644 -0.011148216 0.026129976 0.08208652 0.12228896 0.08009835 0.12268648 -0.009365532
-0.11595984 -0.06150221 0.08789245 -0.0008003961 -0.064056054 -0.098930344 -0.12083063 -0.1089587
-0.026099736 0.07066857 0.06932146 -0.124524355 0.08050752 -0.10104179 -0.0272614 -0.052376498
-0.024866525 -0.02528857 -0.11576139 -0.111469395 -0.020201413 0.0016695374 -0.058669426 0.04863133
-0.11617459 -0.008712212 0.113500334 -0.052655388 0.116577886 0.04675498 -0.116470955 0.081584364
-0.015020796 -0.056913324 0.10318995 -0.10432465 0.029398294 0.06644565 0.09219155 0.036037233
0.06203297 0.045592625 -0.03104515 -0.027150316 -0.10638845 0.06995254 0.10255433 0.08829244
-0.09115593 0.0057578487 -0.0910066 -0.0710672 -0.075226955 0.044119183 -0.076932125 -0.0028165893
0.0054309713 0.09844501 -0.09762598 -0.08859999 -0.07469051 0.089369945 -0.046417676 0.10886237
0.046872985 0.016347248 -0.00070281595 -0.02522126 0.015895652 -0.029554164 -0.0010965653 0.016696291
-0.1009537 -0.06762554 0.104229674 -0.10475162 -0.009270139 0.12760152 0.0466355 0.0036551978
-0.11187886 0.06395301 -0.09195505 -0.036646716 -0.04331497 -0.019118214 0.0014121076 0.10648237
0.016116623 0.11563344 0.078971624 -0.08147178 0.05793986 -0.09050543 -0.055030465 0.037971076
0.026448987 0.011337876 -0.04155916 0.00020667033 0.066455685 -0.12479408 0.093376145 -0.1067802
0.0017793132 -0.021949627 -0.06885421 0.016977634 0.10753101 -0.03773829 -0.076645575 -0.047745988
00000000: d1b4 8e3a be81 8b3d 0c9c d9bd b89b c2bd
00000010: 32aa 4bbd a6cf 0d3d fc82 27bb 9aa2 d13d
00000020: 5ca3 3bbc e6ec 0b3d 0dad 1fbd d9d8 cfbc
00000030: 68a2 fcbd f11b afbd 29fb 59bd 31ab 9c3b
00000040: e7fe 503d 2aab 9e3d a93f b3bd db44 66bd
00000050: e910 403d a88a e03d a779 d9bc 64d5 c53d
00000060: beab aabc e3e7 5f3c 6d6d ef3d b556 f5bd
00000070: ee8f a6bd 20df 05bd 1a15 4ebd 0a6f e43d
00000080: 3d76 abbd 9574 73bd c4b6 b8bd e79f f7bd
00000090: 9856 9abd 4c3d e33d 18dd 6b3d e92e 803d
000000a0: cd7a de3b 40a5 87bd f295 b23c 41dd f6bd
000000b0: 160b bfbd e54d 88bd 02db a63d 7505 9b3d
000000c0: 8097 6abd 1ca4 98bb f625 a93d 586b 033e
000000d0: a1dc 513d e0dd 8e3c dc37 b13d 3a99 9bbd
000000e0: 055a c53c 2bf8 ccbd ea47 b7bd 1c95 88bd
000000f0: 606e 763d e722 67bc 8d9d 9cbd 6ac0 1f3d
00000100: ef22 913d 9839 85bc c73f a23b 59ee f43c
00000110: 5e06 a43d 1ddf fd3d 9aa7 ccbd c4e8 41bd
00000120: 6582 513d 9b10 db3d 3c14 e63d 934a e93d
00000130: 6e79 d23c f4e9 e5bd 4f94 423c 4768 a5bd
00000140: 9667 f6bd 7df2 063e 78d9 c83d 2bc6 03be
00000150: 06bf c53c cd01 b0bc 8dbf adbc c73b 72bd
00000160: 860a 4e3d 469a 9cbd dcd9 413d efb4 853d
00000170: 3360 be3d 8dc0 453d 8864 03be b43b abbd
00000180: 22ac 843d 6724 df3c 3a0f cebd c466 98bd
00000190: e3ba f83d d63e b23d 0864 64bd f410 05bd
000001a0: 42dc fbbd ad5a 18bb 031b c7bd 80f1 cbbd
000001b0: ed16 e9bb 72ca 9e3c 5a8e 58bd efe2 9c3d
000001c0: 2ae5 a0bd 9be7 ef3d bd30 b53d 20f7 debd
000001d0: e09c 05bd 37d6 c03b 5c04 963c d6d4 fa3c
000001e0: a9a5 a53d 1fc9 913a 9901 81bd 2046 7a3d
000001f0: 269f fdbd cbb5 9cbd 9b5f 04bd 69ca 80bd
00000200: 9f02 39bd 80b3 d8bd 171f e1bc ae64 e23c
00000210: cd22 acbd c100 d9bb 7b44 bd3d d869 59bc
00000220: ab4c 6c3b 02a7 36bc 880e d63c fa1c a83d
00000230: a272 fa3d 9b0a a43d 0d43 fb3d e371 19bc
00000240: 5a7c edbd bee9 7bbd f500 b43d acd1 51ba
00000250: d22f 83bd fe9b cabd 0d76 f7bd bd25 dfbd
00000260: 1dcf d5bc afba 903d 69f8 8d3d a006 ffbd
00000270: 20e1 a43d ffee cebd 4d53 dfbc bd88 56bd
00000280: e2b4 cbbc fa29 cfbc 4f14 edbd 114a e4bd
00000290: 6f7d a5bc 61d4 da3a 5a4f 70bd a531 473d
000002a0: f2ec edbd aabd 0ebc dd72 e83d 2dad 57bd
000002b0: 63c0 ee3d 2682 3f3d 5388 eebd b415 a73d
000002c0: c919 76bc f21d 69bd 4155 d33d 29a8 d5bd
000002d0: b1d4 f03c a814 883d ecce bc3d c79b 133d
000002e0: 4916 7e3d 55bf 3a3d 6652 febc 576a debc
000002f0: 30e2 d9bd 4743 8f3d 0108 d23d abd2 b43d
00000300: f6af babd 56ac bc3b ab61 babd ae8b 91bd
00000310: 9710 9abd 51b6 343d 978e 9dbd 8796 38bb
00000320: 4af6 b13b 8a9d c93d 21f0 c7bd e973 b5bd
00000330: 57f7 98bd 9707 b73d 7620 3ebd 3cf3 de3d
00000340: e3fd 3f3d aaea 853c 2e3d 38ba d19c cebc
00000350: 9937 823c 931b f2bc a0ba 8fba a9c6 883c
00000360: d0c0 cebd 427f 8abd 5e76 d53d 0488 d6bd
00000370: c8e1 17bc f9a9 023e de04 3f3d 0b8c 6f3b
00000380: be20 e5bd ccf9 823d ee52 bcbd de1a 16bd
00000390: 0a6b 31bd cd9d 9cbc 7816 b93a 6e13 da3d
000003a0: 0207 843c 3ad1 ec3d e0bb a13d adda a6bd
000003b0: 5952 6d3d e95a b9bd a067 61bd 8f87 1b3d
000003c0: 8cab d83c 80c2 393c f039 2abd a5b5 5839
000003d0: eb19 883d 0a94 ffbd fe3b bf3d 94af dabd
000003e0: d837 e93a b4cf b3bc 7003 8dbd ae14 8b3c
000003f0: 3839 dc3d 7793 1abd 5bf8 9cbd 4c91 43bd

bias f4 [25]
0.101873934 -0.11498867 0.05307001 -0.058268767 -0.0802215 -0.029676557 -0.06468102 0.0745239
-0.023230083 0.11579509 0.022911143 -0.018797833 -0.053786915 -0.1174593 -0.041689783 -0.12680568
-0.0132805705 -0.007781651 -0.008914298 -0.07916343 0.09824025 0.07806091 -0.03186785 -0.041324753
0.0832528
00000000: 48a3 d03d 2e7f ebbd f05f 593d 3bab 6ebd
00000010: 2b4b a4bd 401c f3bc 7c77 84bd fd9f 983d
00000020: 044d bebc fa25 ed3d 26b0 bb3c eafd 99bc
00000030: ab4f 5cbd 808e f0bd e8c2 2abd 59d9 01be
00000040: c096 59bc 38fd febb 470d 12bc 7020 a2bd
00000050: 2f32 c93d 66de 9f3d dd87 02bd 2544 29bd
00000060: 7280 aa3d

weight f4 [50, 25]
0.17002137 -0.18414122 -0.04478486 -0.01717532 -0.077825055 0.16960225 -0.02115162 0.17480332
0.004936283 -0.027112147 -0.11386794 -0.06432829 0.06870356 0.0821532 -0.009728107 0.177925
-0.14360482 0.08003943 0.18550625 -0.039525744 0.14858866 0.0007283024 -0.1503885 -0.106496975
0.07592028 -0.09393449 0.045686465 0.19479404 0.076143995 -0.02788878 0.048148803 -0.07769821
-0.13926533 -0.13003248 -0.17476146 0.056760676 0.05112782 -0.055872627 -0.20472635 0.10192764
-0.12994255 -0.040011875 -0.14316827 -0.08258487 0.07634714 -0.20098762 -0.11745878 0.14843976
-0.07530719 -0.07271779 -0.057473067 0.085102685 -0.13220489 0.019970912 0.07871931 -0.015168594
0.036193382 -0.15308717 0.09043362 0.07147914 -0.025070084 -0.16541342 0.07771155 0.12648594
-0.03557054 0.08526419 0.07049461 -0.08190868 -0.015147356 0.1961596 -0.005235819 -0.1605418
-0.014744803 0.09655882 -0.06527266 -0.102587864 0.16504651 0.10612434 -0.036080714 0.013579826
-0.020396097 0.034591697 -0.0014332572 -0.12668878 0.040271644 0.0009540097 0.009741781 -0.08469013
0.05546633 -0.15990824 0.06762804 0.11179782 -0.028915044 -0.16431522 0.0024413657 0.0062690387
-0.17144568 -0.14103113 0.17722578 0.14674175 0.10955542 0.1388593 0.07857505 0.11745919
0.13143802 -0.047003545 -0.0011705009 0.1616388 0.0122294985 -0.13002512 -0.1455551 0.11905155
0.18693668 0.15443611 0.030859575 0.13979748 -0.18361819 -0.12627237 -0.17174868 0.16031039
-0.0015126735 -0.09207848 0.06714113 -0.053932264 -0.12166922 0.07461054 0.03469588 -0.14467639
-0.12714495 0.09066544 0.1516955 0.039878637 -0.082750246 0.10850707 0.034524553 -0.16587463
-0.122641616 0.061219424 0.12233269 -0.06695462 0.0931693 -0.12427183 0.20582482 0.16084282
0.03623038 0.08502887 0.06941576 -0.118618526 0.014367509 0.059686113 -0.04314663 0.19268315
-0.07671325 -0.18221293 -0.0931128 -0.18528928 0.14583546 -0.10395843 -0.15009882 -0.020956945
-0.14191778 -0.10989921 0.0871745 -0.1488422 0.09643901 0.14789462 6.723288e-05 0.07660132
-0.12713279 0.15707155 0.19692494 0.04792431 0.1827253 -0.21261664 -0.026746698 0.05523165
-0.16762361 0.10195654 -0.09187087 -0.055576947 -0.1554497 0.023049215 -0.19302927 -0.077794075
0.09949995 0.12251031 0.022745166 -0.123240806 -0.07291534 0.12624109 0.060937673 0.17731394
0.03308826 0.11131696 -0.14976999 0.18502176 -0.085978664 -0.050131418 -0.045170944 -0.05688622
0.043517154 0.18042703 -0.11860381 0.055161715 -0.1575334 0.031736203 0.13324554 0.11049476
0.15471418 0.10768668 -0.029348632 0.042361766 -0.1092924 0.17012593 0.1045941 -0.14710136
0.17168804 -0.024583274 -0.034861065 -0.05411097 -0.05011124 0.010126262 -0.09665497 -0.21068211
-0.111703604 -0.039488353 0.15029773 0.14695288 -0.11657641 -0.007809287 -0.057612754 -0.08955634
-0.021844383 -0.060833592 0.11353025 -0.09245157 0.035723604 -0.09963594 -0.061419487 0.15680267
-0.09647262 -0.010853467 0.20192906 0.082117684 -0.101138614 -0.11884462 -0.06919225 -0.06275975
0.09946282 -0.03954058 0.17142333 -0.10896936 -0.06271765 0.0686731 0.16181782 0.19165681
00000000: 151a 2e3e 848f 3cbe 5470 37bd 42b3 8cbc
00000010: be62 9fbd 36ac 2d3e 2a46 adbc a4ff 323e
00000020: 8bc0 a13b 4b1a debc 9833 e9bd 8dbe 83bd
00000030: 74b4 8c3d f03f a83d a362 1fbc f931 363e
00000040: 240d 13be b6eb a33d 5af5 3d3e bfe5 21bd
00000050: a027 183e 8ceb 3e3a 71ff 19be 161b dabd
00000060: 177c 9b3d ba60 c0bd bb21 3b3d 1778 473e
00000070: 62f1 9b3d 0377 e4bc ae37 453d 3d20 9fbd
00000080: 929b 0ebe 3c27 05be abf4 32be e27d 683d
00000090: 686b 513d b2da 64bd c9a3 51be 70bf d03d
000000a0: a90f 05be 7ee3 23bd b49a 12be 4222 a9bd
000000b0: e45b 9c3d b3cf 4dbe 3b8e f0bd 9800 183e
000000c0: a83a 9abd 11ed 94bd e168 6bbd 514a ae3d
000000d0: b860 07be 0a9a a33c 9737 a13d b285 78bc
000000e0: 833f 143d e2c2 1cbe 4335 b93d a863 923d
000000f0: c75f cdbc 2362 29be 3c27 9f3d 8885 013e
00000100: 6ab2 11bd fe9e ae3d 7a5f 903d bdbf a7bd
00000110: 9e2c 78bc 10de 483e 3c91 abbb 1265 24be
00000120: 3094 71bc a1c0 c53d acad 85bd 9619 d2bd
00000130: f401 293e b857 d93d 5fc9 13bd eb7d 5e3c
00000140: b715 a7bc 06b0 0d3d 22dc bbba b4ba 01be
00000150: e1f3 243d 8216 7a3a fe9b 1f3c 0572 adbd
00000160: aa30 633d fcbe 23be 9280 8a3d 41f6 e43d
00000170: 3edf ecbc 4042 28be 52ff 1f3b 826c cd3b
00000180: 758f 2fbe 776a 10be ad7a 353e 7843 163e
00000190: 985e e03d 2231 0e3e f5eb a03d 728e f03d
000001a0: b097 063e ca86 40bd 7e6b 99ba a484 253e
000001b0: 3c5e 483c 4e25 05be 650c 15be 4dd1 f33d
000001c0: 546c 3f3e 8024 1e3e 38cd fc3c 1227 0f3e
000001d0: 6806 3cbe 8b4d 01be e3de 2fbe 6828 243e
000001e0: e644 c6ba a493 bcbd 4a81 893d 14e8 5cbd
000001f0: b62d f9bd 69cd 983d 441d 0e3d 0c26 14be
00000200: 4932 02be cdae b93d 1156 1b3e c857 233d
00000210: f678 a9bd f438 de3d 9e69 0d3d 0adb 29be
00000220: 872b fbbd 38c1 7a3d 9089 fa3d 811f 89bd
00000230: 8ccf be3d 3b82 febd bec3 523e fbb3 243e
00000240: 4f66 143d 9e23 ae3d da29 8e3d 45ee f2bd
00000250: b365 6b3c 6d79 743d 85ba 30bd bb4e 453e
00000260: d61b 9dbd 0796 3abe ecb1 bebd 79bc 3dbe
00000270: e455 153e 28e8 d4bd 81b3 19be e6ad abbc
00000280: e552 11be d612 e1bd 8b88 b23d 176a 18be
00000290: d181 c53d b071 173e 61ff 8c38 27e1 9c3d
000002a0: 192f 02be 5dd7 203e b1a6 493e 484c 443d
000002b0: 571c 3b3e 2db8 59be e41b dbbc 953a 623d
000002c0: 86a5 2bbe 97ce d03d cb26 bcbd a7a4 63bd
000002d0: 352e 1fbe b5d1 bc3c 77a9 45be 8052 9fbd
000002e0: a1c6 cb3d afe6 fa3d 1254 ba3c ad65 fcbd
000002f0: a354 95bd 5845 013e c899 793d c991 353e
00000300: 8e87 073d 25fa e33d 4e5d 19be 5876 3d3e
00000310: 9515 b0bd 9a56 4dbd 2b05 39bd 8601 69bd
00000320: 0b3f 323d ddc1 383e 8ee6 f2bd 40f1 613d
00000330: 7050 21be d2fd 013d 8571 083e 144b e23d
00000340: 656d 1e3e d68a dc3d 8b6c f0bc 8883 2d3d
00000350: b2d4 dfbd 7e35 2e3e 6e35 d63d bda1 16be
00000360: fdce 2f3e dd62 c9bc 7aca 0ebd 77a3 5dbd
00000370: 7241 4dbd 9fe8 253c 0af3 c5bd 0dbd 57be
00000380: dcc4 e4bd 8abe 21bd a6e7 193e d17a 163e
00000390: 9dbf eebd 0ce5 ffbb 5afb 6bbd 5069 b7bd
000003a0: fef2 b2bc a52c 79bd 8c82 e83d 4057 bdbd
000003b0: ea52 123d ed0d ccbd 0093 7bbd e190 203e
000003c0: 7093 c5bd bdd2 31bc 7ec6 4e3e 512d a83d
000003d0: c321 cfbd cf64 f3bd abb4 8dbd 2f88 80bd
000003e0: 2ab3 cb3d 4ef5 21bd 9989 2f3e 542b dfbd
000003f0: 1c72 80bd 7ba4 8c3d 92b3 253e af41 443e

bias f4 [50]
0.12239067 0.15221825 0.11476304 0.0033339427 0.10934315 -0.17463668 0.15623061 -0.050130356
0.060228568 -0.020121899 -0.07475465 -0.0906555 0.1373644 -0.102285065 -0.042865284 0.09314775
0.024266139 -0.17417803 -0.19904943 -0.08826234 0.18562557 -0.14211082 0.09351132 0.13600476
-0.08735813 -0.08039558 -0.14813958 0.034420915 -0.016643547 0.019046858 0.08127814 0.08702436
-0.061628517 0.0019554086 0.037851814 0.008320662 0.031278584 -0.074293695 0.15805507 -0.031436738
-0.013268975 -0.17032458 -0.1413113 -0.00065679016 -0.01698306 -0.09799801 0.09230627 -0.014090614
0.053571574 0.17659786
00000000: f6a7 fa3d 1adf 1b3e e208 eb3d 477e 5a3b
00000010: 4def df3d f5d3 32be ebfa 1f3e 7d55 4dbd
00000020: 3bb2 763d aed6 a4bc f718 99bd 97a9 b9bd
00000030: 41a9 0c3e d57a d1bd 8293 2fbd 3fc4 be3d
00000040: c8c9 c63c ba5b 32be 9dd3 4bbe e3c2 b4bd
00000050: a114 3e3e 8085 11be dd82 bf3d d544 0b3e
00000060: d2e8 b2bd 70a6 a4bd e7b1 17be f2fc 0c3d
00000070: 0c58 88bc 2808 9c3c 2775 a63d d439 b23d
00000080: 2f6e 7cbd 5026 003b 810a 1b3d 6353 083c
00000090: f91d 003d 4b27 98bd 30d9 213e cfc3 00bd
000000a0: 1d66 59bc 9169 2ebe e9b3 10be 712c 2cba
000000b0: 0f20 8bbc 2eb3 c8bd 120b bd3d 52dc 66bc
000000c0: de6d 5b3d 12d6 343e

weight f4 [60, 50]
-0.059317097 -0.103268854 -0.041767746 -0.017106893 -0.0920993 -0.030265713 -0.028077966 0.06978459
0.14606015 0.103561014 0.012083834 -0.027385144 0.030837301 0.027321927 -0.038995508 0.050532755
-0.11750571 -0.13078159 -0.006254391 -0.06100948 -0.054881107 -0.11608197 0.094349585 -0.0019117246
-0.10588198 -0.06458569 0.030697495 -0.13176382 0.009208702 0.013326235 0.048451383 0.055757504
-0.09139562 0.09550894 0.09073856 -0.009798153 0.059227012 -0.07033558 0.034978878 0.056484506
-0.07552473 0.08476169 -0.11490202 -0.06515225 -0.081426136 -0.101678155 -0.10380508 -0.13160728
-0.007944608 -0.008992233 -0.1135614 -0.001856749 -0.019253397 0.059304077 -0.107075624 -0.04033206
0.03398822 0.060357664 0.0106030805 0.036521357 0.1419365 -0.049592778 0.09813095 0.123387806
-0.12721002 0.03904883 0.08020649 -0.028242687 0.0734861 0.0028615894 0.11192053 0.00225981
-0.09231393 0.11010553 0.03837287 0.11769189 0.032291405 0.07714371 0.08646008 0.025748517
-0.029803826 0.027705073 -0.097198874 0.0037251315 -0.046746194 0.0072024027 -0.11033818 0.0870404
-0.13053344 0.059171733 0.08833933 -0.13159853 0.12627234 -0.10769846 -0.027688611 0.07542007
-0.0402192 0.122893095 -0.061441936 -0.016375547 -0.08303207 -0.08520417 0.13759692 0.10634997
0.0047545573 0.013626912 -0.12612523 0.11037307 -0.016376527 -0.06060803 -0.11331778 0.106838696
0.06884027 0.10429114 0.0030246612 -0.08744923 0.057701237 0.0027253893 0.038504116 -0.046686262
-0.055370092 0.12302574 0.044576656 -0.05283231 -0.0076957652 -0.036973633 -0.018532053 0.06750549
-0.11467128 0.13828266 0.100381255 -0.0044678124 -0.05298615 0.046257973 -0.10459712 0.08075955
-0.08026666 0.02012767 -0.13622276 0.072227515 0.08449792 0.1047046 0.018949617 0.07378492
0.05029122 0.09033711 0.077682115 -0.1282058 -0.0012162353 -0.035561047 -0.045321375 0.044898935
-0.032082368 0.01675414 0.0606436 0.10414549 0.04466331 -0.011476232 -0.10247998 -0.14345272
0.041854214 -0.030700497 -0.09649199 0.11426986 0.0930058 0.09831322 -0.025498418 -0.011160568
-0.112373196 0.034046266 -0.07835494 0.1236192 -0.07363859 -0.043826234 -0.16890696 -0.051924348
-0.030521194 -0.107438415 0.09628157 0.10914191 -0.11567879 -0.02083745 0.05565076 0.18653983
-0.064127766 0.052154887 -0.025959773 -0.07976405 0.094589174 -0.104004025 0.09027718 0.1341766
-0.009511752 0.0295256 0.1460614 0.019863931 0.03481762 0.043740906 -0.10606467 0.06821926
-0.0698902 0.11222672 -0.059975024 0.031980388 -0.042081315 0.070717484 0.0012961001 0.07915511
-0.035534974 -0.0841181 0.054100335 -0.08446073 -0.11482281 0.063292585 -0.091283314 -0.04872143
-0.035293266 0.002858376 -0.053654194 -0.056096904 -0.029011752 0.10142285 0.04114771 -0.06524329
-0.10724931 -3.0125057e-05 0.041804772 -0.0077167163 0.08150506 0.12403188 0.044167124 0.044836838
0.08361788 -0.040980335 0.020844132 0.10955139 -0.0695139 0.008187814 -0.053355478 -0.10707872
0.06905592 0.111255035 -0.07377389 0.04857111 0.043711733 0.053269643 0.078070685 0.12971489
0.100732446 -0.11761529 -0.07179931 0.1093504 -0.079465896 0.029444702 -0.04848284 0.023766581
00000000: 7cf6 72bd 9f7e d3bd a814 2bbd c123 8cbc
00000010: 8f9e bcbd cdef f7bc c303 e6bc 39eb 8e3d
00000020: cb90 153e cc17 d43d 46fb 453c cf56 e0bc
00000030: 829e fc3c 3cd2 df3c c1b9 1fbd 6ffb 4e3d
00000040: d5a6 f0bd 9ceb 05be a2f1 ccbb 14e5 79bd
00000050: 03cb 60bd 62bc edbd 5b3a c13d d592 faba
00000060: a7d8 d8bd 8145 84bd 5079 fb3c 18ed 06be
00000070: 18e0 163c 4856 5a3c f574 463d fb61 643d
00000080: a02d bbbd 319a c33d 23d5 b93d 6f88 20bc
00000090: 0698 723d 1a0c 90bd 0346 0f3d 4c5c 673d
000000a0: b6ac 9abd 8997 ad3d c051 ebbd 8b6e 85bd
000000b0: bfc2 a6bd a33c d0bd c297 d4bd 0fc4 06be
000000c0: 1a2a 02bc 2954 13bc e192 e8bd 285e f3ba
000000d0: 4db9 9dbc d5e8 723d 774a dbbd 3b33 25bd
000000e0: 3b37 0b3d 9939 773d 8bb8 2d3c 6b97 153d
000000f0: cd57 113e cc21 4bbd e1f8 c83d bfb2 fc3d
00000100: 5843 02be aaf1 1f3d 4d43 a43d 355d e7bc
00000110: e17f 963d 8189 3b3b 9736 e53d 5219 143b
00000120: 160f bdbd 027f e13d df2c 1d3d 7208 f13d
00000130: fe43 043d 85fd 9d3d fc11 b13d 8eee d23c
00000140: 2727 f4bc c0f5 e23c 3410 c7bd 5621 743b
00000150: f078 3fbd 2202 ec3b fcf8 e1bd 3d42 b23d
00000160: 8faa 05be 0f5e 723d 40eb b43d c4c1 06be
00000170: 894d 013e 0391 dcbd 3ad3 e2bc d675 9a3d
00000180: e3bc 24bd 60af fb3d 8aaa 7bbd 0326 86bc
00000190: b80c aabd 867f aebd 35e6 0c3e 03ce d93d
000001a0: 1ecc 9b3b 6943 5f3c f926 01be 470b e23d
000001b0: 1128 86bc 2040 78bd 2713 e8bd 3fce da3d
000001c0: 21fc 8c3d 9896 d53d 6539 463b 9518 b3bd
000001d0: 2258 6c3d 729c 323b 7eb6 1d3d 183a 3fbd
000001e0: c0cb 62bd ebf4 fb3d 0396 363d b166 58bd
000001f0: c22c fcbb aa71 17bd 88d0 97bc 5140 8a3d
00000200: c7d8 eabd f899 0d3e b094 cd3d ba66 92bb
00000210: 0108 59bd 0079 3d3d 0437 d6bd 4365 a53d
00000220: d962 a4bd c9e2 a43c fb7d 0bbe 05ec 933d
00000230: 3f0d ad3d 5e6f d63d 3a3c 9b3c 8c1c 973d
00000240: 2bfe 4d3d aa02 b93d cd17 9f3d 6248 03be
00000250: 166a 9fba 76a8 11bd e8a2 39bd f2e7 373d
00000260: cd68 03bd fa3f 893c 6c65 783d 3b4a d53d
00000270: e0f0 363d ce06 3cbc 06e1 d1bd 45e5 12be
00000280: 536f 2b3d 9c7f fbbc 989d c5bd 5106 ea3d
00000290: d379 be3d 7158 c93d 0fe2 d0bc d1da 36bc
000002a0: eb23 e6bd 1974 0b3d 8e78 a0bd 102c fd3d
000002b0: d4cf 96bd 2383 33bd f2f5 2cbe a0ae 54bd
000002c0: 9507 fabc ac08 dcbd 462f c53d cb85 df3d
000002d0: 00e9 ecbd 4db3 aabc 0df2 633d 4c04 3f3e
000002e0: 6b55 83bd 5da0 553d 97a9 d4bc 565b a3bd
000002f0: f8b7 c13d 1000 d5bd 3ee3 b83d 9765 093e
00000300: 2ed7 1bbc acdf f13c 1f91 153e afb9 a23c
00000310: ec9c 0e3d aa29 333d 6f38 d9bd 8ab6 8b3d
00000320: 9822 8fbd 1fd7 e53d 5fa8 75bd defd 023d
00000330: 755d 2cbd 54d4 903d e7e1 a93a 131c a23d
00000340: 1f8d 11bd 1c46 acbd 5098 5d3d bff9 acbd
00000350: 3928 ebbd 8b9f 813d bff2 babd 1f90 47bd
00000360: ac8f 10bd 9753 3b3b 80c4 5bbd dec5 65bd
00000370: 0eaa edbc c8b6 cf3d 808a 283d 469e 85bd
00000380: 87a5 dbbd 11b5 fcb7 7b3b 2b3d 82dc fcbb
00000390: 20ec a63d 6d04 fe3d 96e8 343d d5a6 373d
000003a0: da3f ab3d ffda 27bd 50c1 aa3c 7b5c e03d
000003b0: 4e5d 8ebd 2e26 063c 468b 5abd 174c dbbd
000003c0: 316d 8d3d aed9 e33d c416 97bd 80f2 463d
000003d0: 130b 333d 4531 5a3d 86e3 9f3d fbd3 043e
000003e0: d04c ce3d 49e0 f0bd 840b 93bd 1af3 df3d
000003f0: 04bf a2bd 0436 f13c f195 46bd 22b2 c23c

bias f4 [60]
0.05700395 0.1267668 -0.038093537 -0.04666904 0.037212335 -0.035436463 0.10301585 -0.01843802
0.0014703183 -0.14177577 0.029610818 0.0059777466 0.044681273 0.09509094 0.04358002 0.008638299
-0.014597281 -0.061007123 0.14197196 0.10565495 -0.0037469433 0.13906701 0.14420113 0.07549662
0.07657459 0.05207837 -0.036976077 -0.008867564 0.11159611 -0.025730845 0.047881883 -0.037562527
0.036322188 0.08584639 0.09761572 0.054219432 0.05265062 -0.020263782 0.1267609 0.079704374
0.107616745 -0.09261007 -0.0530324 -0.11531355 0.001614264 0.105013885 -0.09791728 0.040247995
0.011413183 -0.116993435 0.0061114114 -0.034665078 -0.08874093 -0.098198295 0.090721145 -0.027279923
-0.03867194 -0.029913368 -0.024756895 -0.037634164
00000000: f97c 693d 28cf 013e f807 1cbd 0928 3fbd
00000010: f66b 183d d325 11bd f9f9 d23d 550b 97bc
00000020: b2b7 c03a ab2d 11be 6392 f23c f9e0 c33b
00000030: b603 373d 0abf c23d f780 323d a787 0d3c
00000040: 6f29 6fbc 9be2 79bd 1961 113e 9f61 d83d
00000050: 478f 75bb 9567 0e3e 76a9 133e f99d 9a3d
00000060: 23d3 9c3d 2150 553d 3a74 17bd 4249 11bc
00000070: 808c e43d 7ec9 d2bc cb1f 443d 2adb 19bd
00000080: 93c6 143d 3bd0 af3d c0ea c73d 3215 5e3d
00000090: 2da8 573d 3b00 a6bc 9ccd 013e 0c3c a33d
000000a0: 2b66 dc3d 59aa bdbd 8038 59bd 8329 ecbd
000000b0: b695 d33a 8511 d73d db88 c8bd 15db 243d
000000c0: 5cfe 3a3c 419a efbd 3c42 c83b f8fc 0dbd
000000d0: cebd b5bd 301c c9bd 02cc b93d 257a dfbc
000000e0: 7866 1ebd e10c f5bc f9ce cabc 4826 1abd

weight f4 [10, 60]
0.0403786 0.034932062 -0.080051176 0.08647175 0.06896446 0.037443284 0.005005133 -0.071127
-0.0094669545 -0.07047808 0.10360515 -0.08320051 0.099545315 0.08220182 -0.055026174 -0.08915207
0.017606912 -0.070273995 -0.06760555 -0.050714873 0.047073927 -0.068942115 -0.038564093 -0.054059498
0.07515941 0.020487346 0.08214669 0.0013501885 -0.06183992 0.03746551 0.05325831 0.099459134
-0.10537646 -0.07556293 0.08364455 0.03284661 0.06531306 -0.0106730005 0.106144026 0.04877266
-0.029891558 -0.05210851 0.035637747 -0.0017362008 -0.06917683 -0.06572985 0.010249637 0.036804516
0.08069803 -0.060044732 -0.062110983 -0.07856705 -0.08424014 0.10375453 -0.0655583 -0.02720548
0.08077889 0.08511412 -0.07459141 -0.001988933 0.030053508 0.015299854 -0.056854423 -0.0805906
-0.07216546 0.03330332 -0.046557125 -0.09092843 0.09857971 0.04581929 -0.02983356 0.015956534
-0.035521016 -0.065920755 -0.09238668 0.065180555 -0.09234794 -0.075421706 0.083449095 -0.062965214
-0.033582576 0.00046585608 -0.09874707 -0.09079594 -0.081107564 -0.015068636 -0.036186405 0.07427133
0.06432702 0.09728587 -0.086525306 -0.047647595 0.06811159 0.03466367 -0.06512995 0.07497836
-0.051068854 0.094956346 -0.07980308 0.051839724 -0.005678168 -0.08656092 0.051735755 -0.036702197
0.0017375816 -0.03053104 -0.022360705 -0.025592992 0.04488579 -0.0080841165 0.06831955 0.04039547
-0.00059656124 0.040096737 -0.03363579 -0.07705133 -0.065868795 -0.06847467 -0.0807171 0.0160003
-0.007698969 -0.081005104 0.044508267 0.053161394 0.08147636 -0.0013168537 -0.017018806 0.0512562
-0.08942588 0.006929112 0.064274356 0.06738628 0.023194699 -0.007651449 0.03239288 0.017594915
-0.005603509 0.07649195 0.087891184 -0.05258278 0.08286465 -0.031602673 0.023922466 0.088607036
-0.044047415 0.050468158 -0.016564889 -0.051411096 0.0039720885 0.073565274 0.058819328 -0.04829605
0.08781921 0.018930802 0.08904225 0.10005239 -0.023575544 0.076867335 -0.003988221 0.01832142
0.01190066 -0.0056033884 -0.021015847 -0.08941971 0.0005477953 0.08862996 0.029144779 -0.09499596
0.020931762 -0.013474042 0.025989518 -0.08979785 0.015892768 -0.06603103 0.011896021 0.05344626
0.075757 -0.015212976 0.09631003 -0.0018194057 -0.05755434 0.04674046 0.0043311003 -0.07889853
0.06358085 0.09637209 0.054757237 -0.01592362 -0.08389708 0.08567164 -0.053258765 0.0150628565
-0.09048177 0.06168833 0.020076467 0.09519797 0.048528828 -0.09550438 0.079021454 -0.08081075
-0.04779414 0.051632073 -0.05442486 0.026222099 0.010299588 0.007084024 -0.054314245 0.06998553
0.014374387 0.037126925 0.011643767 -0.049747135 -0.037586547 0.066565655 -0.087359406 -0.03456172
-0.091538705 -0.05978346 0.013438714 -0.022781326 0.03332379 0.076197445 0.02103374 0.094973385
-0.00026419162 0.09647467 0.016133536 -0.0025667192 0.027949 -0.078846686 0.08154672 0.091498986
-0.08794653 -0.05951599 0.07903414 0.025135506 -0.036152292 -0.049824394 -0.022912502 -0.0188218
0.09916313 -0.034960173 -0.02144399 -0.004867051 -0.052453738 -0.010783557 0.0021889037 0.05874074
0.045122866 -0.02130792 -0.033640336 -0.037390962 -0.009361238 0.0728902 0.10137279 0.018676177
00000000: 0864 253d ec14 0f3d dff1 a3bd 1a18 b13d
00000010: 3d3d 8d3d 215e 193d 1902 a43b 08ab 91bd
00000020: 491b 1bbc d056 90bd f02e d43d 0765 aabd
00000030: 6ade cb3d 6e59 a83d 2063 61bd 5c95 b6bd
00000040: 5f3c 903c d0eb 8fbd c774 8abd 66ba 4fbd
00000050: 97d0 403d 8631 8dbd 62f5 1dbd 7e6d 5dbd
00000060: 2ded 993d 14d5 a73c 863c a83d cff8 b03a
00000070: db4b 7dbd 6f75 193d 6325 5a3d 3bb1 cb3d
00000080: 9dcf d7bd bdc0 9abd d54d ab3d 2b8a 063d
00000090: dbc2 853d cfdd 2ebc 0a62 d93d d7c5 473d
000000a0: 24df f4bc bc6f 55bd e3f8 113d 3b91 e3ba
000000b0: 95ac 8dbd 5f9d 86bd 18ee 273c 55c0 163d
000000c0: 0245 a53d 77f1 75bd 1668 7ebd c3e7 a0bd
000000d0: 1886 acbd 417d d43d 6e43 86bd 07de debc
000000e0: 676f a53d 5050 ae3d 62c3 98bd c258 02bb
000000f0: c632 f63c 3dac 7a3c 2fe0 68bd af0c a5bd
00000100: 7ccb 93bd 1069 083d afb2 3ebd af38 babd
00000110: 29e4 c93d 02ad 3b3d 8365 f4bc 47b7 823c
00000120: 7c7e 11bd 7601 87bd 3a35 bdbd 627d 853d
00000130: eb20 bdbd b276 9abd 5ce7 aa3d e8f3 80bd
00000140: e28d 09bd 253e f439 e73b cabd 39f3 b9bd
00000150: b91b a6bd 71e2 76bc 3238 14bd 911b 983d
00000160: e2bd 833d d03d c73d 2e34 b1bd 202a 43bd
00000170: 177e 8b3d 7efb 0d3d da62 85bd 418e 993d
00000180: 932d 51bd 7978 c23d cc6f a3bd e455 543d
00000190: ed0f babb da46 b1bd dfe8 533d 0b55 16bd
000001a0: 90bf e33a 3b1c fabc cc2d b7bc 65a8 d1bc
000001b0: 2ada 373d 3e73 04bc 1feb 8b3d b875 253d
000001c0: 8c62 1cba 7a3c 243d afc5 09bd 16cd 9dbd
000001d0: 38e6 86bd 733c 8cbd 024f a5bd 1013 833c
000001e0: a247 fcbb 01e6 a5bd 4d4e 363d c3bf 593d
000001f0: 14dd a63d 479a acba 066b 8bbc 05f2 513d
00000200: ea24 b7bd 9b0d e33b 46a2 833d d101 8a3d
00000210: cf02 be3c 02b9 fabb 66ae 043d 3623 903c
00000220: a49d b7bb d0a7 9c3d 4b00 b43d 0b61 57bd
00000230: f1b4 a93d ce71 01bd 0cf9 c33c 9b77 b53d
00000240: 106b 34bd b3b7 4e3d 17b3 87bc 7194 52bd
00000250: 4b28 823b 64a9 963d 89ec 703d 14d2 45bd
00000260: 8fda b33d c514 9b3c c85b b63d 44e8 cc3d
00000270: 8021 c1bc 9f6c 9d3d 9faf 82bb cd16 963c
00000280: fcfa 423c a19c b7bb 6d29 acbc ae21 b7bd
00000290: ec99 0f3a a083 b53d 08c1 ee3c 3e8d c2bd
000002a0: 1679 ab3c 3ac2 5cbc f8e7 d43c efe7 b7bd
000002b0: 8d31 823c 473b 87bd 87e7 423c 77ea 5a3d
000002c0: 7c26 9b3d d93f 79bc 313e c53d 2079 eeba
000002d0: 1abe 6bbd ed72 3f3d e7eb 8d3b 8d95 a1bd
000002e0: ad36 823d bb5e c53d 2049 603d 4072 82bc
000002f0: 3bd2 abbd 9d74 af3d dd25 5abd 33ca 763c
00000300: 824e b9bd e7ac 7c3d 6777 a43c 27f7 c23d
00000310: 2ac6 463d cd97 c3bd 00d6 a13d 1b80 a5bd
00000320: cac3 43bd 277c 533d 9aec 5ebd bacf d63c
00000330: 9abf 283c 1a21 e83b 9d78 5ebd 9354 8f3d
00000340: 8d82 6b3c 6712 183d 80c5 3e3c a7c3 4bbd
00000350: 5af4 19bd 9353 883d 7de9 b2bd 9790 0dbd
00000360: a578 bbbd 80df 74bd 0d2e 5c3c e79f babc
00000370: 877e 083d 680d 9c3d f34e ac3c 6881 c23d
00000380: 3383 8ab9 8394 c53d 7a2a 843c 6736 28bb
00000390: 4df5 e43c 5f7a a1bd f701 a73d d263 bb3d
000003a0: 4f1d b4bd 0ac7 73bd a7dc a13d fae8 cd3c
000003b0: 6d14 14bd aa14 4cbd 00b3 bbbc 2d30 9abc
000003c0: 0a16 cb3d 6632 0fbd 4eab afbc c87b 9fbb
000003d0: bbd9 56bd 84ad 30bc b673 0f3b 219a 703d
000003e0: c1d2 383d f28d aebc 73ca 09bd 4427 19bd
000003f0: e15f 19bc 7547 953d 8a9c cf3d c8fe 983c

weight f4 [50, 60]
0.04973613 -0.07477511 -0.050383873 -0.05262174 -0.058854774 0.0061211484 -0.054846086 -0.064629875
0.016423503 0.052141897 -0.054881345 0.060045034 0.04323419 0.1084131 0.010020709 0.100077346
-0.11334802 0.03327903 -0.120531715 0.051792428 -0.048605073 -0.032103956 0.10640018 0.11656073
-0.027526613 -0.071237355 0.07572916 -0.059553154 -0.0614175 -0.09545085 0.1288572 0.01655744
0.015384992 -0.082788624 0.0634111 -0.12095159 -0.03358257 -0.023644207 0.08559918 -0.010822567
0.012296787 0.09286548 0.04978922 0.10336118 -0.04664217 0.07683109 -0.020434365 -0.0014288287
0.030779138 0.118843116 -0.0020097697 -0.018928677 -0.055462327 -0.07278017 0.07008695 -0.032935306
-0.037305843 0.030730786 0.011963717 -0.02026347 0.10789822 0.07744137 0.030681828 -0.06043359
-0.05423426 0.11255793 0.025870634 -0.116929226 -0.016375825 0.031195393 0.034294464 0.10880519
0.0041109854 -0.014153888 0.092452295 -0.016941348 0.04069684 -0.093154736 -0.04492433 -0.0961366
0.012196622 -0.10158971 0.09878697 -0.054779798 -0.090992495 0.0075518335 -0.059296403 -0.079304576
0.09734098 0.041389603 0.021581685 0.06296033 -0.041415125 0.012404716 0.12499375 -0.05496545
0.05058702 0.10820797 -0.019520184 0.10580337 -0.033284087 -0.025801845 0.03410682 -0.02053468
-0.03198144 -0.022461694 0.025258277 -0.07222299 -0.10135498 -0.10149702 0.12979932 0.0031683082
0.060281556 -0.12439144 -0.017489778 -0.100286014 -0.009927445 0.11439466 0.094754115 -0.04607265
-0.070293464 -0.10846788 -0.057351764 0.0393996 -0.08035637 0.06791742 -0.04771369 0.12570453
-0.033298053 -0.022904446 0.07179512 0.09650489 0.089710005 0.08731645 -0.120671816 0.07395231
-0.06947192 0.0925043 0.10644293 -0.009355515 0.044578753 0.031717837 0.058451686 0.08800344
0.03564455 -0.04476009 0.0011395125 0.017921202 -0.10803705 0.041293334 -0.08423258 0.07592371
0.12145299 0.023462271 0.10600116 0.0009642396 0.07933669 0.06718831 -0.113271065 -0.104573056
-0.026987793 0.05487323 -0.027718937 -0.024691373 0.07909533 0.11591465 0.055321753 0.03325081
0.065167375 0.021187015 -0.11616698 -0.12426052 -0.11794517 -0.11857003 0.09952751 -0.0051805074
-0.094224624 0.02693766 0.0066442317 -0.07770268 -0.12091378 0.03086204 -0.0023711307 -0.042019926
-0.07068272 -0.03206106 0.11277838 -0.10554825 -0.047896653 -0.043733582 0.12028118 0.001785663
0.09095226 -0.0068987594 -0.021410838 0.070077814 -0.04976195 0.07366132 0.107441545 0.052142344
0.081834 -0.10123042 0.117185116 -0.08025872 0.07575661 0.042140268 0.013828588 0.033651356
-0.12856202 0.122877 -0.0059536346 0.118874215 -0.001622889 -0.056065574 0.08312943 -0.0036356386
-0.07928364 0.013527432 -0.12455718 -0.07966235 -0.10576808 0.0033674496 -0.0697518 -0.0009670875
-0.098653674 -0.11457179 -0.015194501 0.018000431 0.09586379 -0.04660713 0.12097263 -0.09287913
0.043659426 -0.10970832 0.114322126 -0.050995994 0.074304394 0.010548031 -0.057671584 -0.029581146
-0.046693757 0.08015633 0.0922636 0.12507169 -0.029041916 -0.037836637 -0.06396986 -0.01040074
0.032364916 -0.012585361 -0.081717506 0.006512048 -0.0026547823 -0.100171536 -0.035501663 -0.007879548
00000000: 1db8 4b3d b123 99bd 525f 4ebd e589 57bd
00000010: b411 71bd ea93 c83b 4aa6 60bd ab5c 84bd
00000020: 958a 863c be92 553d 43cb 60bd c8f1 753d
00000030: 5616 313d b007 de3d e62d 243c 5af5 cc3d
00000040: 0223 e8bd 984f 083d 55d9 f6bd 4c24 543d
00000050: 1d16 47bd 707f 03bd 56e8 d93d 64b7 ee3d
00000060: 7e7f e1bc e4e4 91bd e417 9b3d 02ee 73bd
00000070: eb90 7bbd bc7b c3bd 24f3 033e 78a3 873c
00000080: 5511 7c3c 158d a9bd aedd 813d 78b5 f7bd
00000090: e08d 09bd 7fb1 c1bc 9f4e af3d 2351 31bc
000000a0: 7778 493c 4230 be3d c8ef 4b3d 07af d33d
000000b0: dc0b 3fbd 9e59 9d3d f865 a7bc 8947 bbba
000000c0: 8824 fc3c 0564 f33d 57b6 03bb 5010 9bbc
000000d0: 772c 63bd c50d 95bd bf89 8f3d 2ce7 06bd
000000e0: 03ce 18bd 21bf fb3c 7703 443c 94ff a5bc
000000f0: bef9 dc3d 9599 9e3d 7558 fb3c 3689 77bd
00000100: be24 5ebd c684 e63d a7ee d33c 9778 efbd
00000110: 9826 86bc 7b8d ff3c 5a78 0c3d 41d5 de3d
00000120: 72b5 863b b6e5 67bc a157 bd3d 95c8 8abc
00000130: bbb1 263d e9c7 bebd 9302 38bd 44e3 c4bd
00000140: 57d4 473c 440e d0bd d350 ca3d c860 60bd
00000150: 465a babd 5f75 f73b c9e0 72bd 706a a2bd
00000160: b55a c73d 2588 293d 13cc b03c 58f1 803d
00000170: e8a2 29bd 263d 4b3c b9fc ff3d 7423 61bd
00000180: 5634 4f3d 249c dd3d cbe8 9fbc 70af d83d
00000190: e554 08bd 645e d3bc 98b3 0b3d 5838 a8bc
000001a0: f8fe 02bd 9601 b8bc 72ea ce3c a6e9 93bd
000001b0: 3393 cfbd abdd cfbd 1dea 043e 64a3 4f3b
000001c0: cbe9 763d f0c0 febd b946 8fbc c162 cdbd
000001d0: b9a6 22bc bf47 ea3d 720e c23d adb6 3cbd
000001e0: 05f6 8fbd 6824 debd afe9 6abd 7a61 213d
000001f0: e191 a4bd 4a18 8b3d 6e6f 43bd b0b8 003e
00000200: 8a63 08bd 1ba2 bbbc 5209 933d 5ba4 c53d
00000210: e1b9 b73d f8d2 b23d c922 f7bd 4f74 973d
00000220: 4b47 8ebd e572 bd3d c0fe d93d e047 19bc
00000230: 3698 363d 90ea 013d 096b 6f3d 263b b43d
00000240: 0500 123d 5b56 37bd b25b 953a 7ccf 923c
00000250: 8742 ddbd 3323 293d 2282 acbd e47d 9b3d
00000260: 58bc f83d f333 c03c 2317 d93d 06c5 7c3a
00000270: 467b a23d 069a 893d a9fa e7bd 662a d6bd
00000280: 8115 ddbc c1c2 603d d312 e3bc 9045 cabc
00000290: bbfc a13d a964 ed3d 1099 623d 0032 083d
000002a0: 7976 853d 6490 ad3c f4e8 edbd 4d7c febd
000002b0: 3d8d f1bd d8d4 f2bd 14d5 cb3d 3fc1 a9bb
000002c0: d7f8 c0bd 5eac dc3c dbb7 d93b 9522 9fbd
000002d0: a5a1 f7bd 64d2 fc3c f964 1bbb 161d 2cbd
000002e0: 1ac2 90bd 7552 03bd 5af8 e63d ae29 d8bd
000002f0: 482f 44bd fc21 33bd fb55 f63d e80c ea3a
00000300: 2e45 ba3d fd0e e2bb c865 afbc f584 8f3d
00000310: 30d3 4bbd bfdb 963d 500a dc3d 3693 553d
00000320: 9698 a73d e551 cfbd c0fe ef3d af5e a4bd
00000330: 4826 9b3d 469b 2c3d 4d91 623c 01d6 093d
00000340: c3a5 03be f0a6 fb3d b516 c3bb 5374 f33d
00000350: 1eb7 d4ba 04a5 65bd c33f aa3d e543 6ebb
00000360: 765f a2bd 2aa2 5d3c d617 ffbd 0426 a3bd
00000370: ef9c d8bd 6eb0 5c3b 08da 8ebd 2584 7dba
00000380: f00a cabd 9da4 eabd 5bf2 78bc a475 933c
00000390: 3c54 c43d 1ee7 3ebd 80c0 f73d 6a37 bebd
000003a0: 3ad4 323d c1ae e0bd b821 ea3d 2de1 50bd
000003b0: e72c 983d a6d1 2c3c 0a39 6cbd 2954 f2bc
000003c0: f441 3fbd 0029 a43d b3f4 bc3d cb12 003e
000003d0: 50e9 edbc 97fa 1abd a102 83bd de67 2abc
000003e0: 1391 043d d432 4ebc 825b a7bd 0563 d53b
000003f0: dbfb 2dbb bc26 cdbd 316a 11bd 3819 01bc

bias f4 [50]
-0.05988585 -0.07883394 -0.11081232 -0.10076601 0.07072782 0.11754188 -0.009255617 -0.0728379
0.068680175 0.09790465 -0.0841963 -0.07520386 0.100333735 0.053650443 -0.08249734 -0.0037526295
-0.06708817 -0.079137236 -0.042903118 0.100265026 -0.08711055 0.06282795 -0.11972883 0.0027841048
0.108318426 -0.024285858 -0.04991149 -0.051192075 -0.09601766 0.043755487 -0.11828415 -0.1011314
0.13556382 0.106093705 -0.040079765 0.011784457 -0.020784857 0.11659785 -0.12574996 -0.11898663
0.060324635 0.012379231 -0.04632868 0.029875267 0.089044355 -0.11906392 0.06295298 0.06516027
-0.009514288 -0.088311
00000000: dd4a 75bd b073 a1bd 92f1 e2bd 695e cebd
00000010: bfd9 903d ccb9 f03d dfa4 17bc 092c 95bd
00000020: 31a8 8c3d 3c82 c83d 1c6f acbd 7b04 9abd
00000030: c67b cd3d 91c0 5b3d 5ef4 a8bd adee 75bb
00000040: 8665 89bd b412 a2bd 2ebb 2fbd c057 cd3d
00000050: 0467 b2bd f1ab 803d 6434 f5bd 8775 363b
00000060: 0dd6 dd3d 23f3 c6bc fe6f 4cbd c8ae 51bd
00000070: e8a4 c4bd f438 333d f63e f2bd fb1d cfbd
00000080: 3ed1 0a3e a847 d93d ae2a 24bd 9813 413c
00000090: 0145 aabc dbca ee3d 99c4 00be 43af f3bd
000000a0: f716 773d 42d2 4a3c 24c3 3dbd fabc f43c
000000b0: e35c b63d c9d7 f3bd 7eed 803d bf72 853d
000000c0: d1e1 1bbc 66dc b4bd

weight f4 [60, 50]
0.061979428 0.08638368 -0.13705873 -0.1274638 -0.018413156 -0.12688512 -0.07146791 0.111239925
0.02542759 0.083089724 0.03595344 0.13919853 0.056198813 0.04035531 0.11093846 -0.056477305
0.12283374 0.015866831 0.13162087 -0.08869332 -0.09447747 0.09996689 -0.07808261 0.028207475
0.13138114 0.026851702 -0.0999307 -0.08479491 -0.07507828 -0.09689879 0.07801655 0.02354995
-0.015424388 0.037356786 0.0835809 0.012971949 0.09340619 -0.020986654 0.058024775 0.032996856
-0.00023462762 0.10287221 0.13696007 0.1124115 -0.038471095 -0.04435882 0.1153614 -0.066226736
0.015962481 -0.07799277 -0.036202706 -0.051758327 0.093231656 -0.060307942 -0.05758387 0.054079194
-0.0060672234 0.015952697 -0.104813926 -0.056931693 0.072081916 0.06909575 -0.12860489 -0.100403644
0.03995863 -0.112859316 -0.07514169 -0.077012725 -0.1084323 -0.0707322 0.10303531 -0.13067384
0.09076657 -0.12440661 -0.036915623 -0.04543961 0.09717528 -0.1187222 -0.06888727 -0.13913357
-0.040260736 0.05727568 0.13324451 0.11886094 -0.03370865 -0.07664061 0.035433937 0.0944836
0.12963298 0.09396208 -0.005734802 -0.11524771 -0.085598476 0.08371047 -0.12214061 -0.099313855
-0.097765364 -0.039983463 0.06437999 0.10583486 0.11289626 0.07039228 0.03862525 -0.029588481
-0.08923672 -0.07798869 -0.004547973 0.12456348 -0.05170879 -0.025502944 0.0022035167 -0.06171794
-0.07316536 0.036620256 -0.093486086 -0.010313788 -0.029362567 0.03720676 -0.0125835445 -0.08317694
-0.039609767 -0.041663997 0.06799567 0.033808958 -0.050827768 0.11122972 0.014516053 0.07985416
-0.048107035 -0.12236395 -0.13084458 -0.041452818 0.081744 0.08360341 0.046190787 0.04187048
-0.09251997 -0.046758104 0.023491357 -0.11695238 -0.13199525 -0.106986366 0.045225576 -0.021469481
-0.02988126 0.091209896 -0.09617785 -0.0914863 -0.030017056 0.093091294 0.032320913 -0.119493745
0.112963475 -0.07797159 0.11286654 0.038928825 0.03717732 0.12276206 0.049804926 -0.13250618
0.06289949 0.14635809 -0.061705615 0.101313815 0.11817209 -0.032312952 -0.000340388 -0.011370636
0.1220286 0.053832673 0.10800676 -0.13219337 -0.05567161 -0.11013947 0.03118072 -0.048560962
0.048918616 0.07012066 -0.030445887 0.014952034 -0.10152424 -0.009771733 0.016958477 0.09439029
0.0623891 0.03463364 0.08177432 0.108216204 0.025234362 0.1352194 -0.095488 0.046810996
0.0013021235 0.10115985 -0.13691474 0.077489994 -0.13631856 -0.04894545 -0.04930606 -0.03652045
-0.064427294 -0.117199145 -0.11871958 -0.032016102 0.11981324 -0.043455876 -0.09573238 -0.037943844
-0.11623352 0.0018101386 0.11564002 -0.1325811 0.08004269 0.1057572 0.09878746 -0.08181985
0.011839063 0.08003633 -0.12754884 0.11171836 -0.006282456 -0.1225926 -0.042622223 0.0008968305
-0.051133014 -0.053030554 -0.00926478 0.04348776 0.06513344 -0.13706455 -0.011770522 0.035575256
0.11419128 0.07052754 0.09757196 0.03781775 -0.008511244 -0.07508468 -0.05453045 0.03922347
-0.033472463 0.12972292 -0.089406975 0.09624779 0.091963954 0.09791482 0.100303054 -0.0834852
0.07705904 -0.13585316 -0.079134025 -0.022717288 0.11209543 -0.028903183 -0.11798787 -0.11832418
00000000: 24de 7d3d ede9 b03d 2059 0cbe df85 02be
00000010: 30d7 96bc 2cee 01be c55d 92bd c2d1 e33d
00000020: 854d d03c f22a aa3d ea43 133d 0f8a 0e3e
00000030: ba30 663d 9c4b 253d b433 e33d bf54 67bd
00000040: 4290 fb3d 28fb 813c 9fc7 063e d8a4 b5bd
00000050: 677d c1bd 71bb cc3d c7e9 9fbd 5d13 e73c
00000060: c788 063e 1af8 db3c 78a8 ccbd f4a8 adbd
00000070: a4c2 99bd df72 c6bd 24c7 9f3d d3eb c03c
00000080: 93b6 7cbc 6e03 193d 772c ab3d 4c88 543c
00000090: bf4b bf3d 34ec abbc 63ab 6d3d b627 073d
000000a0: 5f06 76b9 aaae d23d 433f 0c3e 0038 e63d
000000b0: de93 1dbd 98b1 35bd 9942 ec3d e2a1 87bd
000000c0: c0c3 823c acba 9fbd 4a49 14bd 8a00 54bd
000000d0: 3df0 be3d 7605 77bd 10dd 6bbd 2582 5d3d
000000e0: 8fcf c6bb 3baf 823c afa8 d6bd 3531 69bd
000000f0: af9f 933d 1382 8d3d 00b1 03be 6da0 cdbd
00000100: a9ab 233d c922 e7bd e3e3 99bd d9b8 9dbd
00000110: c111 debd 0bdc 90bd 2d04 d33d 5dcf 05be
00000120: d3e3 b93d e5c8 febd d634 17bd e21e 3abd
00000130: d503 c73d a024 f3bd c514 8dbd 0879 0ebe
00000140: 71e8 24bd e799 6a3d 4071 083e 5d6d f33d
00000150: 1512 0abd c1f5 9cbd 2d23 113d 9e80 c13d
00000160: 82be 043e 316f c03d 02eb bbbb fe06 ecbd
00000170: 414e afbd 6570 ab3d db24 fabd 1065 cbbd
00000180: 3539 c8bd b3c5 23bd a8d9 833d f2bf d83d
00000190: 2836 e73d d429 903d 8335 1e3d 8b63 f2bc
000001a0: bec1 b6bd 89b8 9fbd 2a07 95bb 231b ff3d
000001b0: 99cc 53bd 8deb d0bc e068 103b f3cb 7cbd
000001c0: b8d7 95bd 1fff 153d a275 bfbd 2afb 28bc
000001d0: c489 f0bc 1e66 183d 362b 4ebc ac58 aabd
000001e0: da3d 22bd dea7 2abd 5041 8b3d 437b 0a3d
000001f0: c730 50bd 68cc e33d bdd4 6d3c 948a a33d
00000200: e20b 45bd f399 fabd 1ffc 05be 6eca 29bd
00000210: 6669 a73d 4438 ab3d 8d32 3d3d 6180 2b3d
00000220: 1c7b bdbd 6d85 3fbd f270 c03c bb84 efbd
00000230: c329 07be ab1b dbbd 743e 393d c4e0 afbc
00000240: 8bc9 f4bc 41cc ba3d e5f8 c4bd 2b5d bbbd
00000250: 54e6 f5bc a6a6 be3d ef62 043d 23b9 f4bd
00000260: 6559 e73d 92af 9fbd 9326 e73d d573 1f3d
00000270: 3f47 183d ad6a fb3d 4000 4c3d b3af 07be
00000280: 73d1 803d e5de 153e 07bf 7cbd 9e7d cf3d
00000290: 3504 f23d 965a 04bd 1b76 b2b9 e74b 3abc
000002a0: 21ea f93d a67f 5c3d a632 dd3d b35d 07be
000002b0: ea07 64bd cd90 e1bd b66e ff3c dce7 46bd
000002c0: e35e 483d 6c9b 8f3d a769 f9bc 60f9 743c
000002d0: f1eb cfbd 9e19 20bc 81ec 8a3c b24f c13d
000002e0: b78b 7f3d 01dc 0d3d 4b79 a73d 75a0 dd3d
000002f0: 4bb8 ce3c f476 0a3e 368f c3bd e3bc 3f3d
00000300: 04ac aa3a e52c cf3d 6133 0cbe 13b3 9e3d
00000310: 1897 0bbe 067b 48bd 27f5 49bd 7896 15bd
00000320: 75f2 83bd 1b06 f0bd 4023 f3bd 5123 03bd
00000330: a560 f53d cafe 31bd 570f c4bd 016b 1bbd
00000340: d70b eebd 2c42 ed3a add4 ec3d 57c3 07be
00000350: 6ced a33d 3b97 d83d 1451 ca3d 2a91 a7bd
00000360: a1f8 413c 16ea a33d 2a9c 02be 98cc e43d
00000370: 10dd cdbb d411 fbbd a494 2ebd 4719 6b3a
00000380: da70 51bd 9136 59bd 4ecb 17bc 3920 323d
00000390: ae64 853d a65a 0cbe 26d9 40bc 5cb7 113d
000003a0: 1edd e93d be70 903d cfd3 c73d c9e6 1a3d
000003b0: bf72 0bbc ffc5 99bd 525b 5fbd caa8 203d
000003c0: 6c1a 09bd 16d6 043e 011b b7bd 901d c53d
000003d0: 9957 bc3d 9187 c83d b06b cd3d 4afa aabd
000003e0: 21d1 9d3d 171d 0bbe 0511 a2bd 9b19 babc
000003f0: 4a92 e53d 5ec6 ecbc a0a3 f1bd f353 f2bd

bias f4 [60]
0.09662029 0.0553518 -0.027561873 0.06820742 -0.0808644 -0.033591695 0.035044715 -0.12748218
0.12800068 0.05818677 0.051833875 -0.10504897 0.11962009 -0.07004938 -0.063921675 0.08999525
0.0068555996 0.10417688 0.018259078 -0.03965597 0.01948473 -0.09290148 0.07445192 0.05175022
0.024168313 -0.14793782 0.0097953575 0.0867799 0.11615075 -0.0097079845 0.018674655 0.107128665
-0.009645987 0.030659696 0.044275537 -0.024265172 -0.0075539923 0.09283547 0.040932585 -0.025634006
0.031086357 0.11558769 0.18213724 -0.076344736 0.09723483 0.14289427 0.08710243 0.065955915
-0.07792608 -0.044755373 -0.027069489 0.17849642 -0.021578616 -0.07696482 -0.10505791 -0.09467022
-0.08507418 -0.09909721 -0.0827352 0.09642632
00000000: dce0 c53d 92b8 623d 70c9 e1bc 55b0 8b3d
00000010: 3c9c a5bd 7297 09bd 0c8b 0f3d b08a 02be
00000020: 9c12 033e 4055 6e3d c24f 543d ea23 d7bd
00000030: 61fb f43d 0d76 8fbd 5ee9 82bd 6e4f b83d
00000040: f0a4 e03b b05a d53d 1094 953c 4c6e 22bd
00000050: 719e 9f3c 2243 bebd 407a 983d 0af8 533d
00000060: a0fc c53c 037d 17be b57c 203c a9b9 b13d
00000070: 72e0 ed3d 3d0e 1fbc 97fb 983c 4666 db3d
00000080: 340a 1ebc 0b2a fb3c 445a 353d c1c7 c6bc
00000090: 7b87 f7bb 8620 be3d eda8 273d 68fe d1bc
000000a0: d1a8 fe3c 3db9 ec3d 2f82 3a3e a15a 9cbd
000000b0: 0e23 c73d e052 123e c262 b23d e513 873d
000000c0: b597 9fbd 6951 37bd d5c0 ddbc c4c7 363e
000000d0: a3c5 b0bc bb9f 9dbd 9a28 d7bd 76e2 c1bd
000000e0: 5f3b aebd 7af3 cabd 1371 a9bd 2a7b c53d

weight f4 [60, 60]
-0.029989125 0.11580804 -0.044446565 -0.09188241 -0.0599172 -0.07009175 -0.07497039 -0.13950619
0.031160468 -0.07101544 -0.05861407 -0.051128965 -0.061049107 -0.017021112 -0.09929466 -0.022301976
0.09168247 0.13825135 -0.014215612 0.023914509 0.0949685 0.10216292 -0.04324996 0.029004281
-0.034471408 -0.110184245 0.12026712 0.13130875 0.015910158 0.09795896 0.05022437 0.08984156
0.029382717 0.06916955 0.06889814 0.053927947 0.11116875 0.0471857 -0.07653502 0.0210014
0.14088653 0.12094239 0.09230846 -0.04799917 0.15006162 0.04874706 -0.051466618 -0.0074928096
0.06988645 -0.13332333 -0.027726851 0.12813519 -0.036732927 -0.08020797 -0.059953667 0.013694592
-0.12721103 -0.0004602949 0.010198241 0.06510924 -0.03006931 0.075896345 0.018356955 0.105658635
0.059349466 -0.06862983 -0.042959828 0.14763509 -0.004295674 -0.066450566 0.004905636 0.023526592
-0.06259573 0.018640963 0.087869756 -0.028235197 0.09765098 0.06373227 -0.04587057 -0.07011209
0.0073921997 0.06244106 0.006142709 -0.07706205 -0.09408541 0.025829345 0.08408201 -0.034481823
0.12316802 -0.071353145 0.08292158 -0.09807966 0.12628362 0.03250052 0.11168767 0.119116195
-0.03695766 -0.02466213 -0.05248764 0.052293584 -0.087106414 -0.040153157 -0.06758945 0.10461218
0.12000508 -0.037908874 -0.019038461 -0.07559335 -0.09426147 -0.09614421 -0.06244993 -0.15733843
0.044587594 -0.05546758 0.09921567 0.1295659 0.022628378 0.05818237 0.12227339 -0.1518118
0.109019406 0.12725964 0.124160185 -0.051809635 0.08025769 -0.045721937 0.019760503 0.10943377
0.023706105 0.043886602 -0.032201827 -0.0603485 0.103849895 -0.11573224 0.023608973 -0.015667178
-0.033577397 -0.12747256 -0.07414195 -0.0733316 0.02129331 0.052804895 -0.119161196 -0.05063393
-0.12211587 0.089915946 -0.11903413 -0.02055918 -0.01996529 -0.06930216 0.091295674 0.054676045
0.0707605 0.09001255 -0.067589685 0.06340537 0.103781514 -0.0290978 -0.010936346 0.015638016
-0.12834877 -0.014175116 -0.016430499 -0.09468423 0.092638776 -0.11626448 -0.053371374 0.07541382
0.02238441 0.053354017 0.005067278 -0.123190984 -0.09335405 -0.040948864 -0.08403412 -0.077442564
-0.038833696 0.115684435 0.10278511 0.021754881 -0.08359396 -0.07778323 0.12669963 0.015547968
0.014909656 -0.07264154 -0.06609909 0.06400444 -0.01207965 -0.014528705 -0.062948175 -0.0952296
-0.083772086 -0.12687573 0.11847675 0.017943889 0.018915119 0.09643747 0.06572515 -0.018744027
0.08052807 0.0028592434 -0.12638037 0.10433108 -0.075794354 -0.097008914 -0.029968407 0.030450506
0.1010842 -0.12738498 -0.12129676 -0.08623049 -0.07436442 0.12662056 -0.0029192013 0.09399146
0.036289964 0.07552207 -0.067048565 0.057239465 0.046383955 0.044284604 -0.097274184 -0.044659562
0.10908408 -0.029160215 -0.094336115 -0.1094738 -0.025466962 0.060078282 -0.03816991 0.091016464
0.05482809 -0.10234941 0.0022839208 0.11869017 0.08124163 -0.046060637 -0.09494507 0.032225523
0.059898343 -0.02645477 -0.10930996 0.12357997 0.063174576 -0.12711048 0.0053241896 -0.027712442
0.117092885 0.065443024 0.035988633 -0.037131798 -0.096389264 0.041002586 0.05296899 0.00012499157
00000000: c1ab f5bc c42c ed3d 9a0d 36bd d82c bcbd
00000010: bd6b 75bd 438c 8fbd 138a 99bd b6da 0ebe
00000020: 3d44 ff3c 8b70 91bd 4f15 70bd 9b6c 51bd
00000030: a10e 7abd dc6f 8bbc 005b cbbd a2b2 b6bc
00000040: 05c4 bb3d c391 0d3e 99e8 68bc 5ce8 c33c
00000050: d87e c23d cb3a d13d df26 31bd 639a ed3c
00000060: e431 0dbd 47a8 e1bd 9c4e f63d cd75 063e
00000070: 0556 823c b59e c83d 12b8 4d3d dafe b73d
00000080: 06b4 f03c c4a8 8d3d 781a 8d3d 8de3 5c3d
00000090: 71ac e33d cb45 413d 64be 9cbd 210b ac3c
000000a0: 8f44 103e a5b0 f73d 380c bd3d c79a 44bd
000000b0: c1a9 193e ffaa 473d a9ce 52bd 3e86 f5bb
000000c0: a120 8f3d e985 08be 6c23 e3bc df35 033e
000000d0: 4475 16bd 1444 a4bd fa91 75bd 485f 603c
000000e0: 9c43 02be bc53 f1b9 8616 273c fe57 853d
000000f0: ea53 f6bc 8b6f 9b3d 5361 963c 8e63 d83d
00000100: 6d18 733d cc8d 8cbd a5f6 2fbd a72d 173e
00000110: bac2 8cbb 3c17 88bd 75bf a03b d7ba c03c
00000120: 3132 80bd efb4 983c 0ff5 b33d 804d e7bc
00000130: 3dfd c73d 1086 823d c7e2 3bbd ed96 8fbd
00000140: 443a f23b 32c2 7f3d c748 c93b b5d2 9dbd
00000150: daaf c0bd 1098 d33c 3033 ac3d d03c 0dbd
00000160: 843f fc3d 9921 92bd cad2 a93d fddd c8bd
00000170: 7e50 013e 441f 053d 81bc e43d 31f3 f33d
00000180: ea60 17bd 3c08 cabc 48fd 56bd cc31 563d
00000190: d964 b2bd a377 24bd 566c 8abd e93e d63d
000001a0: 39c5 f53d 5646 1bbd 8cf6 9bbc b0d0 9abd
000001b0: 280c c1bd 41e7 c4bd 7fcb 7fbd 531d 21be
000001c0: 7ba1 363d f931 63bd 9631 cb3d ecac 043e
000001d0: 265f b93c a350 6e3d 796a fa3d 8d74 1bbe
000001e0: 9145 df3d 5a50 023e b247 fe3d 5736 54bd
000001f0: 255e a43d ed46 3bbd c7e0 a13c d01e e03d
00000200: 4e33 c23c 70c2 333d 10e6 03bd fd2f 77bd
00000210: 41af d43d 0605 edbd 9b67 c13c 7458 80bc
00000220: 7488 09bd 2b88 02be bcd7 97bd e12e 96bd
00000230: 4f6f ae3c f249 583d c90a f4bd 8665 4fbd
00000240: e317 fabd da25 b83d 2ac8 f3bd ba6b a8bc
00000250: 3f8e a3bc 4aee 8dbd 3af9 ba3d fdf3 5f3d
00000260: e2ea 903d 8058 b83d 766c 8abd adda 813d
00000270: 678b d43d 825e eebc 5c2e 33bc 4c1b 803c
00000280: dc6d 03be bf3e 68bc 4199 86bc cee9 c1bd
00000290: 66b9 bd3d 121c eebd f19b 5abd 9072 9a3d
000002a0: 835f b73c be89 5a3d 690b a63b 8e4b fcbd
000002b0: 6830 bfbd ffb9 27bd 151a acbd 359a 9ebd
000002c0: 1510 1fbd f6eb ec3d 0081 d23d 4b37 b23c
000002d0: 4f33 abbd d04c 9fbd 8cbd 013e e8bc 7e3c
000002e0: a147 743c 16c5 94bd f65e 87bd c314 833d
000002f0: b9e9 45bc ce09 6ebc f9ea 80bd bd07 c3bd
00000300: b390 abbd b6eb 01be f0a3 f23d 10ff 923c
00000310: e1f3 9a3c 0281 c53d e89a 863d 138d 99bc
00000320: e7eb a43d 2562 3b3b db69 01be 89ab d53d
00000330: 123a 9bbd 9cac c6bd 4e80 f5bc 5773 f93c
00000340: 3c05 cf3d 3571 02be 706a f8bd 9c99 b0bd
00000350: 5f4c 98bd d2a8 013e 1250 3fbb 987e c03d
00000360: c9a4 143d 51ab 9a3d c250 89bd ee73 6a3d
00000370: 1afd 3d3d c663 353d b037 c7bd f2ec 36bd
00000380: 7967 df3d 67e1 eebc 4b33 c1bd cd33 e0bd
00000390: 17a0 d0bc a514 763d 0d58 1cbd d766 ba3d
000003a0: 6b93 603d 919c d1bd d5ad 153b d513 f33d
000003b0: 0362 a63d 14aa 3cbd 9072 c2bd e9fe 033d
000003c0: f757 753d acb7 d8bc e6dd dfbd 7f17 fd3d
000003d0: ac61 813d 4029 02be 8a76 ae3b 3405 e3bc
000003e0: 65ce ef3d fe06 863d d168 133d 8317 18bd
000003f0: bc67 c5bd 54f2 273d 03f6 583d 2b10 0339
