data/vanilla-valor-expts/vanilla-valor-expts_s0/pyt_save/model.pt (torch, 58351 bytes, 32 tensors)

weight f4 [5, 60]
0	0x3e090b4f	0.1338322
1	0x3e5aed1e	0.21379516
2	0xbd8365f7	-0.064159326
3	0x3db80a13	0.089862965
4	0xbcc8ded8	-0.024520323
5	0xbc8e6801	-0.017383577
6	0x3da36405	0.079780616
7	0x3d5d381d	0.054008592
8	0xbdfdef00	-0.12399101
9	0xbe3f5e66	-0.18688354
10	0x3d9a7ae2	0.07542969
11	0x3d3e2405	0.04642107
12	0x3da4416f	0.08020293
13	0xbcd87953	-0.02642504
14	0x3e00b5fc	0.12569422
15	0x3e05a304	0.13050467
16	0x3c6cdb80	0.01445663
17	0x3d28486c	0.041084692
18	0xbb90a0e9	-0.0044137132
19	0x3d76ee3d	0.060285795
20	0xbcdb58b5	-0.026775697
21	0x3e83a502	0.25711828
22	0x3dcb91bf	0.09939908
23	0xbe234dd9	-0.15947665
24	0x3daf49f4	0.08559027
25	0xbcb72c40	-0.022359967
26	0xbd708a52	-0.058725663
27	0xbdb0ff93	-0.08642497
28	0xbd4733bb	-0.04863332
29	0xbc54de34	-0.0129924305
30	0xbdf4f67c	-0.11961076
31	0x3da13389	0.07871158
32	0xbc9537e8	-0.018215135
33	0x3dee2cb8	0.11629623
34	0x3d9196a7	0.07108813
35	0xbd3c3939	-0.04595301
36	0x3df4c923	0.11952426
37	0x3e40908d	0.18805142
38	0xbd190bc3	-0.037364732
39	0x3d789635	0.060690124
40	0xbd9eecb5	-0.07759992
41	0xbde627ff	-0.112380974
42	0xbdfd6e33	-0.123745345
43	0x3c578726	0.0131547805
44	0x3d859ec1	0.065244205
45	0x3da2aa10	0.07942593
46	0xbdcf0ffe	-0.10110472
47	0xbcb660d7	-0.022262974
48	0xbd8dcc23	-0.069237016
49	0x3c602e96	0.013682982
50	0x3e027112	0.12738445
51	0xbd90c430	-0.0706867
52	0x3da2d456	0.07950656
53	0x3d4f8e7e	0.050673
54	0x3dec34d0	0.11533511
55	0xbd381f26	-0.04495158
56	0xbdbccb70	-0.0921849
57	0xbdfcada6	-0.12337808
58	0x3c1441c4	0.009048883
59	0x3e02f92e	0.12790367
60	0x3e5b98a8	0.21444952
61	0x3e2f034c	0.17091101
62	0x3dd55a92	0.104176655
63	0xbde256e3	-0.110517286
64	0xbc743a7a	-0.01490652
65	0xbe041a55	-0.1290067
66	0x3dedc01a	0.11608906
67	0x3dc50bde	0.09621404
68	0x3dd60d78	0.10451788
69	0xbd5fcc50	-0.054638207
70	0xbd746831	-0.059669677
71	0x3e2462e7	0.16053353
72	0xbd775bb7	-0.0603902
73	0xbdfacf00	-0.12246513
74	0x3d19894b	0.03748445
75	0x3cfc3852	0.030788574
76	0x3910745b	0.00013776256
77	0xbd480412	-0.048832007
78	0x3d46a5ec	0.04849808
79	0x3d798308	0.060915977
80	0x3d016662	0.03159178
81	0x3d8d2f5c	0.06893799
82	0x3d491a76	0.0490975
83	0xbdea00a3	-0.11425903
84	0x3deb17be	0.11479138
85	0x3bebda08	0.007197622
86	0x3d4e561c	0.05037509
87	0xbd74e6a5	-0.059790272
88	0xbcfc1dd4	-0.030775942
89	0xbdf96ad1	-0.12178577
90	0xbb15e415	-0.0022871543
91	0x3dab95fc	0.083782166
92	0xbdc04768	-0.0938862
93	0x3d386fb7	0.045028415
94	0xbce51028	-0.027961805
95	0xbd6ef8c3	-0.058342706
96	0x3ae5939a	0.0017515302
97	0x3e0e02b9	0.13868226
98	0x3db0921b	0.086216174
99	0xbdea00e3	-0.114259504
100	0x3dbe46ea	0.092908695
101	0x3d9a13f3	0.07523336
102	0x3ddebd5d	0.10875962
103	0x3e020f30	0.12701106
104	0xbdbfd9de	-0.09367727
105	0xbd82f5d0	-0.06394541
106	0xbdf2190b	-0.11821183
107	0xbc8c2fe3	-0.017112678
108	0xbccdf5c3	-0.025141602
109	0xbd4c9dbf	-0.049955126
110	0x3d79cbec	0.06098549
111	0xbc8eb4e3	-0.017420238
112	0xbd40c2c3	-0.04706074
113	0xbde541bb	-0.11194178
114	0x3da4406a	0.080200985
115	0x3e05a6f7	0.13051973
116	0xbd7e927a	-0.06215141
117	0x3d1acd70	0.037793577
118	0x3c8aea0f	0.016957311
119	0x3d97360a	0.07383354
120	0x3cdac13b	0.026703468
121	0xbdcc643d	-0.099800564
122	0x3caf2334	0.02137909
123	0xbcee7e49	-0.029112952
124	0x3d978d0a	0.07399948
125	0x3dbf19ce	0.09331094
126	0xbdbe7906	-0.09300427
127	0x3dce2d21	0.100672014
128	0xbd8cf3f9	-0.068824716
129	0xbcb2b11d	-0.02181297
130	0xbd939d66	-0.07207756
131	0x3bd9c101	0.0066453223
132	0xbca8d690	-0.020610124
133	0x3b789bae	0.003793459
134	0x3d4ce64b	0.050024312
135	0xbceec0d3	-0.02914468
136	0xbd3f1400	-0.046649933
137	0xbdfab847	-0.12242179
138	0x3dd92e5c	0.106045455
139	0xbcc5ac45	-0.024129996
140	0x3dd3f9e5	0.10350398
141	0xbe41438b	-0.18873422
142	0x3b700209	0.0036622307
143	0xbc7d97a2	-0.015478047
144	0xbd44eec4	-0.048079267
145	0x3d566c63	0.05234946
146	0x3d8948b7	0.067033224
147	0x3e0fead9	0.14054431
148	0x3c7cc6e7	0.015428281
149	0x3d9fef68	0.07809335
150	0xbddc1229	-0.10745651
151	0xbda4e8a2	-0.08052184
152	0x3d78c371	0.060733262
153	0x3db48b35	0.08815614
154	0xbd06b20c	-0.032884642
155	0xbdd3ee70	-0.10348213
156	0xbd034244	-0.032045618
157	0x3bf418f0	0.007449262
158	0x3d16e934	0.036843494
159	0x3c94ce96	0.018164914
160	0x3d415eb3	0.047209453
161	0xbc9ec2b6	-0.019379955
162	0xbde50d79	-0.1118421
163	0x3dee532e	0.11636959
164	0xbdbaf11e	-0.09128021
165	0xbdb08ad5	-0.0862023
166	0xbda877bc	-0.082259625
167	0x3d905398	0.07047194
168	0x3ddaf6dc	0.10691616
169	0xbde8f652	-0.11375107
170	0xbd71480b	-0.058906596
171	0xbdba848b	-0.09107312
172	0x3dfba377	0.12287038
173	0xbc49b75f	-0.0123117855
174	0xbddaea64	-0.10689238
175	0x3dc9b5fc	0.09849164
176	0xbca8eb4f	-0.020620016
177	0x3b542a3a	0.0032373802
178	0xbc742422	-0.014901193
179	0xbe001128	-0.12506545
180	0x3dac5d77	0.084162645
181	0x3e722604	0.23647314
182	0x3dc655e2	0.096843496
183	0xbd60c20c	-0.054872558
184	0xbc3dfde6	-0.011596179
185	0x3cb20ca3	0.021734541
186	0xbde8e92a	-0.113725975
187	0x3dd34485	0.103158034
188	0x3b898918	0.004197251
189	0xbe1ec252	-0.15503815
190	0xbc162fbc	-0.009166654
191	0x3dab22ed	0.08356271
192	0x3d45da24	0.04830374
193	0xbd902f8c	-0.07040319
194	0xbc599b16	-0.013281604
195	0xbdc38add	-0.095479704
196	0xbad31a6f	-0.00161059
197	0xbdebb7b4	-0.11509648
198	0xbc83605c	-0.016037159
199	0x3d08d115	0.03340252
200	0x3ccb6985	0.02483059
201	0x3cb718a4	0.022350617
202	0xbcbf0627	-0.023318363
203	0xbba682f0	-0.005081527
204	0x3c78b0c8	0.015178867
205	0xbbea71ef	-0.007154695
206	0x3e6d4f31	0.2317474
207	0xbdace18e	-0.08441459
208	0x3dc4fc62	0.09618451
209	0xbc288cca	-0.010287473
210	0x3d2fdb4e	0.042933755
211	0xbd56e47b	-0.05246399
212	0xbcb34065	-0.021881292
213	0xbdce63e8	-0.10077649
214	0xbd2c0e52	-0.042005844
215	0x3cbe4035	0.023223976
216	0x3dbd98fd	0.09257696
217	0xbd9fcfe6	-0.07803325
218	0x3e17b949	0.14816774
219	0xbcaf375e	-0.021388706
220	0xbd1838af	-0.037163433
221	0xbd98545e	-0.07437967
222	0x3d4e5947	0.05037811
223	0xbd93a2df	-0.072087996
224	0xba064bb9	-0.0005122978
225	0x3db1a158	0.08673352
226	0xbd2ad8ab	-0.041710537
227	0xbd1e50c2	-0.038651235
228	0xbe1e9430	-0.15486217
229	0x3d940e2d	0.07229266
230	0x3dc6f868	0.097153485
231	0x3c892b46	0.016744267
232	0xbcceebfa	-0.025259007
233	0x3c9e07ee	0.01929089
234	0xbde2ea83	-0.11079886
235	0x3d8d08d6	0.06886451
236	0x3d2830a2	0.041062005
237	0x3cc4801d	0.02398687
238	0xbd99b793	-0.07505717
239	0x3d8c36e8	0.0684641
240	0x3e046edb	0.12932913
241	0x3e248a55	0.16068394
242	0xbcf2c6bb	-0.029635778
243	0xbcc95a0d	-0.024579072
244	0x3cd03aa3	0.025418585
245	0xbd069cf3	-0.032864522
246	0x3d88a762	0.06672551
247	0x3cbfb3c2	0.023401145
248	0x3d3cc730	0.046088398
249	0xbd03d49e	-0.03218519
250	0x3d737ee2	0.059447177
251	0xbbe34214	-0.0069353674
252	0x3ddc60fd	0.107606865
253	0xbdbc8067	-0.09204178
254	0x3bc9ebaf	0.006162129
255	0x3dfab817	0.122421436

bias f4 [5]
0	0x3b9b4f4e	0.0047396785
1	0xbe3d3b13	-0.18479566
2	0xbdfe0dd2	-0.1240498
3	0x3dec4c43	0.11537983
4	0x3da782d1	0.08179248

weight f4 [10, 5]
0	0x3e05b6d5	0.13058026
1	0xbec8c545	-0.39213005
2	0xbc6af826	-0.01434139
3	0xbea021b4	-0.31275713
4	0xbe4a7bc7	-0.1977378
5	0xbe7556d4	-0.23958904
6	0x3e075383	0.13215451
7	0xbf0482d4	-0.5176213
8	0xbe6c9fdd	-0.23107858
9	0xbec0bd67	-0.37644503
10	0xbea8948a	-0.32925826
11	0xbecdceec	-0.4019693
12	0xbd950e25	-0.072780885
13	0xbcb7026f	-0.022340028
14	0xbd61239c	-0.0549656
15	0xbef0186b	-0.4689363
16	0xbcba67f6	-0.02275465
17	0xbead1756	-0.33806866
18	0xbe927abc	-0.28609264
19	0xbeecb8e0	-0.46234798
20	0x3deff830	0.1171726
21	0x3deea184	0.116519004
22	0x3cca1319	0.02466731
23	0x3e6ddae3	0.2322803
24	0xbec5a741	-0.38604167
25	0xbebc3d5d	-0.36765566
26	0x3e865668	0.26237798
27	0x3db03cdf	0.0860536
28	0x3d617789	0.05504564
29	0xbe7deafe	-0.24796674
30	0x3e9309d8	0.28718448
31	0x3ec9ab46	0.39388484
32	0x3e8ed06c	0.27893388
33	0x3e5d42a3	0.21607451
34	0x3d2a6e2f	0.041608986
35	0x3ead5f14	0.338616
36	0x3e4a9454	0.19783145
37	0xbe94e2f5	-0.29079404
38	0x3deef643	0.116680644
39	0x3e8c56b2	0.27409893
40	0xbf10c5e3	-0.5655195
41	0xbee9c68a	-0.45659286
42	0xbd545542	-0.05183912
43	0xbedbe228	-0.4294598
44	0xbee0c125	-0.43897358
45	0x3ea62ca2	0.32455927
46	0x3eab9888	0.3351481
47	0x3e3ce12a	0.18445268
48	0x3ef72d5a	0.48276788
49	0x3eb15c2f	0.34640643

bias f4 [10]
0	0x3e6573e4	0.2240749
1	0xbdb410ec	-0.0879229
2	0xbe8f0bc7	-0.27938673
3	0x3e4ef89e	0.20212027
4	0x3e808c05	0.25106826
5	0xbddfbe1c	-0.10924932
6	0xbe160dc8	-0.14653695
7	0x3cb49706	0.02204467
8	0x3c236bb7	0.009974412
9	0xbe6380ad	-0.22217055

weight f4 [60, 10]
0	0x3e5576b0	0.20846057
1	0x3ec51056	0.38489026
2	0x3dae3079	0.08505339
3	0x3e7c46d3	0.24636392
4	0x3eb9dcfd	0.36301413
5	0xbb869622	-0.0041072527
6	0xbdd70ca9	-0.105004616
7	0xbef7debc	-0.4841212
8	0xbdf266c0	-0.11836004
9	0xbeafca1a	-0.3433388
10	0xbe827bf9	-0.2548521
11	0xbe9b27e1	-0.30303863
12	0x3dde8f37	0.1086716
13	0xbe8239c2	-0.2543469
14	0xbea2015b	-0.3164166
15	0xbc7b886e	-0.015352352
16	0xbea1ea9c	-0.31624305
17	0xbe0ae143	-0.13562493
18	0xbefc8a9f	-0.4932451
19	0x3ee1fe0f	0.44139144
20	0x3ec20b35	0.37899175
21	0xbe3a987a	-0.18222228
22	0x3e3c4b98	0.18388212
23	0xbc1b009c	-0.0094605945
24	0x3b5807e9	0.00329637
25	0xbd4d9f0f	-0.05020052
26	0x3d082dff	0.03324699
27	0x3e26b740	0.16280842
28	0xbe57dc64	-0.21080166
29	0x3e191b71	0.14951874
30	0x3ee853ce	0.45376438
31	0x3ef3ba51	0.47603086
32	0xbdf17589	-0.11789996
33	0x3d4e2a5f	0.050333377
34	0x3dd76e18	0.105190456
35	0x3e30c065	0.17260893
36	0x3d10c848	0.035347253
37	0xbe970a6d	-0.29500142
38	0xbd4978ba	-0.0491874
39	0xbc0c3a1c	-0.008558776
40	0x3d576e6e	0.05259555
41	0x3e8bf264	0.27333367
42	0x3dddf7b9	0.10838265
43	0x3eb8a5a6	0.3606388
44	0xbd81b533	-0.06333389
45	0x3e73ab14	0.2379573
46	0x3dc1bb89	0.094595976
47	0xbedb9627	-0.42887995
48	0x3c637441	0.013882698
49	0xbebedd4e	-0.37278217
50	0x3ed702b0	0.41994238
51	0xbe1b5889	-0.15170492
52	0xbe5cd4b9	-0.21565522
53	0x3e815193	0.2525755
54	0xbdb7e144	-0.08978513
55	0x3eb0ff5f	0.34569833
56	0x3d8433d3	0.06455197
57	0xbe007aa5	-0.12546785
58	0xbddd3ea5	-0.10802964
59	0x3da3cfc3	0.07998612
60	0x3c96303b	0.018333545
61	0xbdc1bd0f	-0.09459888
62	0xbe922956	-0.28547162
63	0xbe9d6df0	-0.30747938
64	0xbee1d04d	-0.44104233
65	0xbea4638c	-0.32107198
66	0x3ee7e5bc	0.4529246
67	0xbe15802b	-0.14599673
68	0xbe9d9950	-0.3078103
69	0xbc4e101e	-0.012577085
70	0xbdc3bf78	-0.09558004
71	0x3e264fd9	0.16241397
72	0xbe454dcb	-0.19267957
73	0xbd99ae09	-0.07503898
74	0xbe1d7aca	-0.15378872
75	0xbef8b170	-0.48572874
76	0x3efe39b7	0.49653408
77	0xbcf727a8	-0.030170277
78	0xbe44b8cd	-0.19211121
79	0x3e3c099b	0.18363039
80	0xbd85c7ec	-0.06532273
81	0x3e055da9	0.1302401
82	0x3dd60122	0.10449435
83	0x3ca73bd7	0.020414276
84	0x3ef2d547	0.47428343
85	0xbe71fc7c	-0.23631471
86	0x3d9d9ea3	0.07696273
87	0xbd7c4606	-0.061590217
88	0x3e80df6c	0.25170457
89	0xbd69b85d	-0.05706059
90	0x3dee8a2e	0.116474494
91	0x3e9a572b	0.3014463
92	0xbe054bb6	-0.13017163
93	0x3ed6af2c	0.4193052
94	0x3ec1fdc3	0.37888917
95	0xbea74301	-0.32668307
96	0xbe669af3	-0.22520046
97	0xbe2fae52	-0.17156342
98	0x3c3d98eb	0.011572103
99	0xbe11b721	-0.14230014
100	0xbe56ecf6	-0.20988831
101	0xbeba4f38	-0.36388564
102	0x3e5759fd	0.21030422
103	0xbec37951	-0.38178495
104	0xbdff006f	-0.124512546
105	0xbe2fbc90	-0.17161775
106	0x3df412b2	0.11917628
107	0xbd57fa75	-0.05272909
108	0xbeaca827	-0.3372204
109	0x3e22889b	0.15872423
110	0x3ee4b471	0.44668916
111	0xbe7228b0	-0.23648334
112	0x3e6879c1	0.22702695
113	0xbe15bb59	-0.14622249
114	0x3e918329	0.2842038
115	0xbe379c19	-0.1793064
116	0x3d038566	0.03210964
117	0x3e2a8dea	0.16655698
118	0xbe3eb553	-0.18623857
119	0xbd74a1ef	-0.059724744
120	0x3e01e429	0.12684692
121	0x3c503ae0	0.012709349
122	0x3dce76e5	0.10081271
123	0x3f01d595	0.50716525
124	0x3dd0f1f4	0.10202399
125	0x3daf2805	0.08552555
126	0x3c60326e	0.013683898
127	0xbe7624c1	-0.24037458
128	0xb99e4dc0	-0.00030194037
129	0xbda3f391	-0.08005441
130	0x3e01aa9b	0.12662737
131	0x3dfa8c1a	0.122337535
132	0x3e54b47d	0.20771976
133	0xbeb87ba1	-0.3603182
134	0x3e423916	0.18967089
135	0xbe654ab4	-0.22391778
136	0xbe7add38	-0.24498451
137	0x3eb9b84b	0.36273417
138	0xbe9ab3c3	-0.30215272
139	0x3eb1d6c5	0.3473417
140	0x3d969ae4	0.07353762
141	0xbdc493cd	-0.09598503
142	0xbe748447	-0.23878585
143	0xbe2ac33e	-0.16676041
144	0x3e321d4a	0.17393985
145	0x3dc953fc	0.09830472
146	0x3e16d280	0.14728737
147	0xbe43a0af	-0.19104265
148	0xbe0718b4	-0.13193017
149	0xbe24164a	-0.16024128
150	0x3eca200f	0.39477584
151	0x3e801b22	0.250207
152	0xbe3e91d2	-0.18610314
153	0x3e2afa9e	0.16697165
154	0x3f0072f3	0.501754
155	0x3dd06416	0.1017534
156	0x3e375df5	0.17906936
157	0xbd3149ac	-0.04328315
158	0x3dc32e0a	0.09530266
159	0xbe47e396	-0.19520411
160	0x3e40fb95	0.18845971
161	0xbe930c3c	-0.28720272
162	0xbe57c881	-0.2107258
163	0x3e6973ee	0.2279813
164	0xbe6e812e	-0.23291466
165	0xbe6fd027	-0.23419248
166	0xbda32b9f	-0.079673044
167	0xbd2e2907	-0.042519595
168	0x3e0522bb	0.1300153
169	0x3e66a533	0.22523956
170	0xbc0c9f5f	-0.008582919
171	0xbe51eef5	-0.20501311
172	0xbeff3a14	-0.49848998
173	0x3e1bf1e6	0.15228996
174	0x3cdb0fa1	0.02674085
175	0x3de6b9b8	0.11265892
176	0x3eb75e2d	0.35814038
177	0x3eb29e08	0.34886193
178	0x3db67f3f	0.08910989
179	0xbd956846	-0.07295279
180	0x3ebe3cd6	0.3715579
181	0x3e266e6d	0.16253062
182	0x3e1b660c	0.15175647
183	0xbea389a1	-0.3194094
184	0x3ba72e85	0.005101981
185	0x3e5dc4e3	0.21657138
186	0x3e0e062c	0.13869542
187	0x3d1f2fd4	0.03886397
188	0xbe6b2c2f	-0.22966073
189	0xbe4cef52	-0.20013168
190	0xbe368638	-0.17824638
191	0xbdba4f17	-0.090971164
192	0xbecca561	-0.39969924
193	0x3d88f708	0.066877425
194	0x3e97957c	0.29606235
195	0x3c17abbb	0.009257252
196	0x3ec1a38f	0.37820098
197	0x3e487a7b	0.19577973
198	0x3d15b9a6	0.036554
199	0xbd3ed1ce	-0.046586804
200	0x3e529c8b	0.20567529
201	0xbd8c0d69	-0.06838495
202	0x3e89f15b	0.26941952
203	0xbeadec8a	-0.33969527
204	0x3df928a3	0.12165954
205	0xbe506ae8	-0.20353281
206	0xbe47f795	-0.19528039
207	0xbd893055	-0.06698672
208	0xbeb22754	-0.3479563
209	0x3eae0cfa	0.33994275
210	0xbe8edc53	-0.2790247
211	0x3e20fc8e	0.15721342
212	0xbe311bc2	-0.17295745
213	0x3d3850cb	0.044998925
214	0xbd9457a7	-0.07243281
215	0xbe43ab8a	-0.19108406
216	0x3ec02427	0.37527582
217	0x3ce3536b	0.027749738
218	0xbe06c1ee	-0.13159916
219	0x3d35157f	0.044209953
220	0x3db6a86e	0.08918844
221	0x3e6f8a36	0.23392567
222	0x3e5cea78	0.21573818
223	0x3dfe33d6	0.12412231
224	0x3f03af6e	0.5143956
225	0xbda13f7b	-0.07873436
226	0x3e55ba80	0.20871925
227	0xbb7902e6	-0.0037996112
228	0x3ef71db0	0.48264837
229	0xbe3ab068	-0.18231356
230	0xbe81317d	-0.2523307
231	0xbdc8d20e	-0.0980569
232	0xbdae7750	-0.08518851
233	0x3e735d81	0.23766138
234	0x3e6af0b8	0.2294339
235	0xbda23633	-0.07920494
236	0x3e936fbe	0.2879619
237	0x3e88d1f0	0.2672267
238	0xbe14dd9d	-0.14537664
239	0x3e41c583	0.18923001
240	0xbee1d485	-0.44107452
241	0xbd89dc45	-0.06731466
242	0xbec7012f	-0.3886809
243	0x3b290525	0.002579042
244	0xbe836df8	-0.25669837
245	0x3e28250a	0.1642038
246	0x3e3b695d	0.18301912
247	0x3d290b92	0.0412708
248	0xbdb5d7c1	-0.088790424
249	0xbe8add32	-0.27121884
250	0x3d8e1269	0.06937105
251	0xbe122cc0	-0.14274883
252	0xbe1bc393	-0.15211324
253	0xbd3dbef1	-0.046324674
254	0xbdd238f3	-0.102647685
255	0xbec7f48e	-0.39053768

bias f4 [60]
0	0xbe2c4d6e	-0.16826412
1	0xbf085b88	-0.53264666
2	0xbe3ccfc2	-0.18438628
3	0xbd168b25	-0.036753792
4	0x3e795f95	0.24352868
5	0xbe2e72e1	-0.1703601
6	0xbc902a71	-0.017598363
7	0x3d4e9f83	0.05044509
8	0x3e176d35	0.14787753
9	0xbdd38d4d	-0.10329685
10	0x3e4d2f5a	0.20037594
11	0xbe2591cf	-0.16168903
12	0x3ee08451	0.4385095
13	0xbe99eabb	-0.30061898
14	0xbeb0d51f	-0.34537598
15	0x3ea7380a	0.32659942
16	0xbe98f3d6	-0.29873532
17	0x3eeb86f1	0.4600139
18	0xbe872e31	-0.2640243
19	0xbdc9c051	-0.098511346
20	0x3db99d20	0.09063172
21	0x3dcb3609	0.09922416
22	0xbe20fece	-0.157222
23	0xbdd6b7c1	-0.10484267
24	0xbe8c1794	-0.2736174
25	0x3dc0ca17	0.094135456
26	0x3de54496	0.11194722
27	0xb9d5e9f8	-0.00040800846
28	0xbe841e49	-0.25804356
29	0x3ebac333	0.3647705
30	0xbec91af6	-0.39278382
31	0xbdb15ad4	-0.08659902
32	0x3b2eb38a	0.0026657307
33	0xbdbe1c33	-0.09282722
34	0x3dac6fd1	0.08419765
35	0xbe556c58	-0.20842111
36	0x3dc98fbe	0.0984187
37	0x3eef8361	0.46779922
38	0x3aa060df	0.0012235901
39	0xbebca3da	-0.3684376
40	0xbeffe182	-0.49976736
41	0xbde76df6	-0.1130027
42	0xbcdd86ad	-0.027041757
43	0x3db76e81	0.08956624
44	0x3bd1943a	0.006395844
45	0xbdb72c73	-0.08944025
46	0xbcb6fb16	-0.022336524
47	0xbd2169c1	-0.039407495
48	0x3e625115	0.22101243
49	0xbeaf1c83	-0.3420144
50	0xbda37b5d	-0.07982514
51	0x3cc031ce	0.023461249
52	0x3d3b433c	0.045718417
53	0xbe8405c6	-0.25785655
54	0xbe82367e	-0.254322
55	0xbe88b439	-0.267
56	0xbedda527	-0.43290064
57	0x3e476460	0.19471884
58	0xbe40d856	-0.18832526
59	0xbd2534e1	-0.040333632

weight f4 [10, 60]
0	0x3e125a8c	0.14292353
1	0xbe106ad0	-0.14103246
2	0xbe78875b	-0.24270384
3	0xbe5a96c8	-0.21346581
4	0x3e465e4a	0.19371906
5	0xbea84129	-0.32862213
6	0x3c84b20c	0.01619818
7	0xbe74b709	-0.23897947
8	0x3ca1e8a0	0.019764245
9	0xbd0308e3	-0.031990897
10	0x3de1576f	0.11003005
11	0xbca360a0	-0.019943535
12	0x3e5554a7	0.20833074
13	0xbe9ddd8e	-0.30833095
14	0xbe9bfe1d	-0.3046731
15	0x3e1ed6b1	0.15511586
16	0xbea34078	-0.31885123
17	0x3e204124	0.15649849
18	0xbe4359e7	-0.19077264
19	0xbe35c4da	-0.17750874
20	0xbe931271	-0.28725007
21	0x3ea8f321	0.32997993
22	0xbe68a45a	-0.22718945
23	0xbe86f8a6	-0.2636158
24	0xbe9ca033	-0.30590972
25	0x3e7b28b4	0.24527246
26	0x3d2918a8	0.04128328
27	0xbdb0d143	-0.086336635
28	0xbe533fe3	-0.2062984
29	0x3cf231de	0.029564794
30	0x3d73a21b	0.059480768
31	0xbe33f0f6	-0.17572388
32	0xbe7b1289	-0.2451879
33	0xbe62e67b	-0.22158234
34	0x3e63e701	0.2225609
35	0xbd01bfe7	-0.031677153
36	0xbe0d992d	-0.13827963
37	0x3e4e7ea3	0.20165496
38	0x3e329812	0.17440823
39	0xbe62ddb9	-0.22154893
40	0xbe6168b6	-0.220126
41	0xbea88166	-0.32911223
42	0x3e730a5b	0.23734419
43	0x3e5c8773	0.21536045
44	0xbdba0663	-0.090832494
45	0xbe230ce6	-0.15922889
46	0xbe8e23f4	-0.27761805
47	0x3e376825	0.17910822
48	0xbdaa2092	-0.083069935
49	0xbe410ddc	-0.18852943
50	0x3d16a327	0.036776688
51	0xbe684cf1	-0.22685601
52	0x3e8bc043	0.27295122
53	0xbe86fba4	-0.26363862
54	0xbe93987e	-0.2882728
55	0xbe9bbd87	-0.30418035
56	0xbe10641f	-0.14100693
57	0xbb59ba0f	-0.0033222472
58	0x3e4b0abd	0.19828315
59	0x3e71c210	0.23609185
60	0xbdc44ca5	-0.09584931
61	0x3d3e607a	0.046478726
62	0x3ca20440	0.019777417
63	0x3cdf3e40	0.027251363
64	0x3dca9818	0.09892291
65	0x3d74592a	0.059655346
66	0xbc968120	-0.018372118
67	0x3dbe1f98	0.0928337
68	0xbd1080ca	-0.035279073
69	0x3d1c56c0	0.03816867
70	0x3d6c73a0	0.057727456
71	0xbda0441b	-0.0782549
72	0xbd3f379a	-0.046683885
73	0xbc8c17ad	-0.017101133
74	0x3db49383	0.08817198
75	0x3c64d8c0	0.013967693
76	0x3d75e167	0.060029414
77	0xbd4770a7	-0.048691418
78	0xbdac9595	-0.08426968
79	0xbdad8be8	-0.084739506
80	0xbc2cbecd	-0.010543537
81	0x3d3f3420	0.04668057
82	0xbd4ee400	-0.050510406
83	0xbd0ce853	-0.03440125
84	0xbd2001a7	-0.039064076
85	0x3da3cb5d	0.07997773
86	0x3da2c58d	0.07947836
87	0xbd947dd0	-0.07250559
88	0x3d2a2eb7	0.041548457
89	0x3dc55573	0.09635439
90	0x3d34c717	0.04413518
91	0xbd819543	-0.063272975
92	0x3cffd48d	0.031229282
93	0x3da02857	0.07820194
94	0x3d455c23	0.04818357
95	0xbdb7e907	-0.08979993
96	0x3b4d8233	0.0031358122
97	0x3c148640	0.009065211
98	0xbd839c5b	-0.06426307
99	0x3d0f7c47	0.03503063
100	0xbd6121b3	-0.05496378
101	0x3be00880	0.006836951
102	0xbda61362	-0.08109166
103	0xbd357b80	-0.044307232
104	0x3d70160d	0.05861478
105	0x3cee3aad	0.029080713
106	0x3d277fc3	0.040893327
107	0x3dcc6287	0.0997973
108	0x3ad8f667	0.0016552926
109	0x3d823d40	0.06359339
110	0x3bac29e7	0.0052540186
111	0x3d1183f7	0.035526242
112	0xbd5e7e93	-0.05431993
113	0x3d80113a	0.06253286
114	0x3c8fea80	0.017567873
115	0xbd1eff47	-0.03881767
116	0x3cf61600	0.030039787
117	0xbdaf93c2	-0.085731044
118	0xbd3ddab3	-0.046351146
119	0xbdbb92a3	-0.09158828
120	0xbd46c4b0	-0.04852742
121	0x3d847ccf	0.06469118
122	0x3d18dc57	0.037319507
123	0x3dac7c9f	0.08422207
124	0x3be13467	0.006872702
125	0x3dc7a24b	0.09747752
126	0xbd020df7	-0.0317516
127	0xbda5291a	-0.0806448
128	0xbd7bf503	-0.06151296
129	0xbce244da	-0.027620722
130	0xbdcc833b	-0.09985968
131	0xbda073e7	-0.078346066
132	0x3d818253	0.063236855
133	0x3d4ae48d	0.04953437
134	0xbd9b23ca	-0.075751856
135	0xbc50d44d	-0.012745929
136	0x3dc646b7	0.096814565
137	0x3d5e7cba	0.054318167
138	0x3db6ea3a	0.08931394
139	0x3d7cb47d	0.061695565
140	0x3d2f640d	0.042820025
141	0x3dc7d57f	0.09757518
142	0xbc8e2ca0	-0.017355263
143	0xbd336ec3	-0.043806802
144	0x3dad8ca0	0.08474088
145	0xbd707c37	-0.05871221
146	0x3d3056ea	0.043051638
147	0xbc05be5a	-0.008163059
148	0xbdc4b2d2	-0.0960442
149	0xbd17755a	-0.03697715
150	0xbdb867b3	-0.09004154
151	0x3d35f313	0.044421267
152	0x3c811e07	0.015761388
153	0xbb9132cd	-0.0044311048
154	0x3d4fac1a	0.05070124
155	0x3cbfb527	0.02340181
156	0x3b32579a	0.002721286
157	0x3cf53c13	0.029935872
158	0x3cfb7740	0.030696511
159	0xbcd034ba	-0.025415767
160	0xbc51164d	-0.012761665
161	0x3d42cd33	0.047558974
162	0xbc87dd3a	-0.016584981
163	0x3c2671b3	0.010158944
164	0x3d6d2300	0.057894707
165	0x3db51388	0.08841616
166	0xbc87e640	-0.016589284
167	0xbd8aba1a	-0.06773777
168	0xbd851632	-0.06498374
169	0x3d06a3e0	0.032871127
170	0xbd495737	-0.04915544
171	0x3cd8dd6d	0.026472772
172	0x3d125c2a	0.035732426
173	0x3be96a9a	0.0071233036
174	0x3cc03e93	0.023467338
175	0xbbe7681a	-0.0070619704
176	0xbd851d55	-0.06499735
177	0x3d6d1963	0.05788554
178	0x3a9b3b33	0.0011843204
179	0xbda42155	-0.0801417
180	0xbd6c8560	-0.057744384
181	0x3d531085	0.051529426
182	0xba77e1dc	-0.0009455958
183	0x3d975c5d	0.07390664
184	0xbcad833a	-0.021180738
185	0x3d7af89c	0.06127225
186	0xbd6195f3	-0.055074643
187	0x3d365662	0.044515975
188	0xbd71db77	-0.05904719
189	0x3d9e407d	0.07727144
190	0x3d6ae261	0.057344798
191	0xbdaf0afe	-0.085470185
192	0x3d2a846c	0.041630194
193	0x3da1ee70	0.079068065
194	0x3d82566c	0.0636414
195	0x3d20df00	0.03927517
196	0x3c260b8c	0.010134589
197	0x3cfe9445	0.03107656
198	0x3d9fb1c2	0.077975765
199	0xbd7bfbcc	-0.06151943
200	0x3d764b29	0.060130272
201	0xbc849656	-0.016184967
202	0xbda0694e	-0.07832585
203	0xbca9a273	-0.020707345
204	0x3db9c02a	0.090698555
205	0x3daf4688	0.08558375
206	0x3cfdcfc0	0.030982852
207	0x3cb16586	0.021654855
208	0x3d826d89	0.063685484
209	0x3d2e3885	0.04253437
210	0x3db0a2dd	0.08624814
211	0xbd774078	-0.060364217
212	0xbdb52202	-0.08844377
213	0xbdada3e9	-0.08478529
214	0x3d7004c3	0.05859829
215	0x3c86b6ef	0.016444651
216	0x3cb160b1	0.021652551
217	0xbd9c6710	-0.07636845
218	0x3d5df502	0.054188736
219	0x3d268803	0.040657055
220	0x3d86d027	0.06582671
221	0xbc79457b	-0.015214319
222	0xbd0249fb	-0.031808835
223	0x3d24da2b	0.040247124
224	0xbd0d5968	-0.034509093
225	0xbd0abacf	-0.03386956
226	0xbd8790e0	-0.066194296
227	0x3dc9f05a	0.098602965
228	0xbd643d64	-0.05572261
229	0xbd3e0863	-0.046394717
230	0x3d110dc3	0.035413515
231	0x3c4b9703	0.012426141
232	0xbdabdfdf	-0.083923094
233	0xbd52bea4	-0.05145134
234	0xbd5a29bd	-0.05326246
235	0x3d8d531a	0.06900616
236	0xbda01ed2	-0.078183785
237	0xbc94fccb	-0.018186947
238	0xbd7e4d79	-0.062085602
239	0x3d1a74e3	0.037709128
240	0xbe254b96	-0.16142115
241	0xbc8f4976	-0.017491084
242	0xbc894dd2	-0.01676074
243	0x3d6583b0	0.05603379
244	0xbe09ff74	-0.13476354
245	0x3d1bfb97	0.03808173
246	0x3d73e06d	0.0595402
247	0x3e0100fb	0.1259803
248	0x3db9b5c9	0.09067876
249	0xbd43b312	-0.047778197
250	0x3e14ec1b	0.14543192
251	0xbce1aa9c	-0.027547173
252	0xbd0d2878	-0.034462422
253	0xbce4c687	-0.027926696
254	0xbcf54af5	-0.029942969
255	0xbd793406	-0.06084063

weight f4 [10, 60]
0	0xbdd2e104	-0.102968246
1	0xbe80c265	-0.2514831
2	0xbdaaf028	-0.083465874
3	0x3b1fff03	0.0024413473
4	0x3dda6976	0.10664646
5	0x3e021d4b	0.12706487
6	0xbd4c4f5c	-0.04988037
7	0xbc1d6577	-0.009606711
8	0x3df33b2f	0.11876523
9	0x3d8ec0cf	0.06970369
10	0x3e1425ff	0.1446762
11	0x3e5e491a	0.21707574
12	0x3dacbc45	0.08434347
13	0x3e2e24af	0.17006181
14	0x3deba9eb	0.11507019
15	0x3d91617d	0.070986725
16	0xbc30dec4	-0.010795299
17	0x3db357d3	0.087569855
18	0xbe1ff6dc	-0.15621513
19	0xbe17612c	-0.14783162
20	0x3d58b1df	0.052904006
21	0xbe2811ed	-0.16413088
22	0xbd93f88f	-0.07225143
23	0x3d1ea89c	0.038735017
24	0x3e3c1cf2	0.18370417
25	0xbe320f19	-0.17388572
26	0xbe751e31	-0.23937298
27	0xbe7352bc	-0.2376203
28	0xbe1db179	-0.15399732
29	0x3cac28e1	0.021015586
30	0xbd7264f1	-0.059178296
31	0xbdabc50b	-0.08387192
32	0x3de13f07	0.1099835
33	0x3c8fb5f1	0.017542811
34	0x3d8bd3ed	0.06827531
35	0xbe27df19	-0.16393699
36	0x3e740fbb	0.23834126
37	0x3c649819	0.0139522785
38	0x3d01726e	0.03160327
39	0xbe39c48d	-0.18141384
40	0xbddf39a6	-0.108996674
41	0x3d2f43e8	0.04278937
42	0xbd0bac6e	-0.03409999
43	0x3c2b6371	0.01046072
44	0xbbf8b84b	-0.007590329
45	0xbdd26ff4	-0.102752596
46	0xbd2f2d5d	-0.04276787
47	0x3acc25b1	0.0015575198
48	0xbb63892a	-0.0034719207
49	0xbe1541e8	-0.14575922
50	0x3c2744ac	0.010209244
51	0xbd79f702	-0.06102658
52	0xbd23da31	-0.040003005
53	0xbd4e517a	-0.05037067
54	0x3da56abb	0.08076998
55	0x3dbfa253	0.09357133
56	0xbe52ea09	-0.2059709
57	0x3daee64b	0.08540019
58	0xbe10a891	-0.14126803
59	0xbd87eee1	-0.066373594
60	0xbdd11fde	-0.10211156
61	0xbd83ac3c	-0.064293355
62	0xbe42f5a1	-0.19039012
63	0xbe0b217d	-0.13586994
64	0x3e6b3dbf	0.22972773
65	0x3dd12c0a	0.10213478
66	0xbe3c3a4d	-0.18381615
67	0x3be1d769	0.006892134
68	0x3cd0f5b3	0.025507784
69	0xbd918eee	-0.0710734
70	0x3e79fcd1	0.24412848
71	0x3e2a0dae	0.16606781
72	0x3d819aa5	0.06328324
73	0x3d27b1b5	0.04094096
74	0x3d7929d6	0.060830913
75	0x3e1e3a2c	0.15451878
76	0xbc4c23d5	-0.012459715
77	0x3d0748f2	0.03302855
78	0xbdafcded	-0.08584199
79	0xbe2fd515	-0.17171128
80	0xbdd11b3f	-0.10210275
81	0x3d291e07	0.041288402
82	0xbe17487c	-0.14773744
83	0xbe0148aa	-0.12625375
84	0x3db963f8	0.09052271
85	0xbda48430	-0.08033025
86	0x3cc6238b	0.02418687
87	0xbd81eac1	-0.06343604
88	0xbe3bebaf	-0.18351625
89	0x3d94d61e	0.07267402
90	0x3dcc9170	0.099886775
91	0xbe06fda4	-0.13182694
92	0xbddc2716	-0.107496426
93	0xbe0c11b9	-0.13678636
94	0x3e1b14c2	0.15144637
95	0xbe3e39f9	-0.18576802
96	0x3e3c0b32	0.18363646
97	0x3da6a0c1	0.0813613
98	0x3e36894b	0.1782581
99	0xbd86b564	-0.06577566
100	0xbe53db59	-0.20689143
101	0xbd879374	-0.06619921
102	0x3e1f0b95	0.15531762
103	0x3dc0d592	0.09415735
104	0xbe140f5c	-0.14458984
105	0xbe1575dc	-0.14595741
106	0x3d1942fb	0.037417393
107	0x3d48f3f3	0.049060773
108	0xbd77a42e	-0.06045931
109	0xbe5a11b1	-0.21295811
110	0xbe5730de	-0.21014735
111	0x3d047b35	0.032344062
112	0x3c48bd60	0.012252182
113	0xbcfd12b9	-0.030892717
114	0xbc89e762	-0.016833965
115	0x3d0003f8	0.031253785
116	0xbe07c742	-0.13259605
117	0x3bd50e67	0.006501961
118	0x3bf772eb	0.007551541
119	0x3e268027	0.16259824
120	0x3e1a343d	0.1505899
121	0x3e419679	0.18905057
122	0xbdecf06a	-0.11569293
123	0xbdfc6dc7	-0.12325626
124	0xbd8678b2	-0.065659896
125	0xbe009dc9	-0.1256019
126	0x3e1e515c	0.15460724
127	0x3d7f82e1	0.062380675
128	0xbd69e50d	-0.057103205
129	0xbe2d4414	-0.16920501
130	0x3c43f0f0	0.011959299
131	0x3cbe24ab	0.023210844
132	0xbe39597d	-0.18100543
133	0xbd97da6d	-0.07414708
134	0xbe1e210a	-0.15442291
135	0xbde6efbf	-0.11276197
136	0xbd76da3f	-0.06026673
137	0xbe81ef19	-0.2537773
138	0x3e672938	0.22574317
139	0x3e000fa1	0.12505962
140	0xbdc72aaa	-0.097249344
141	0x3d8e598e	0.06950675
142	0xbd30259d	-0.04300462
143	0xbc9cc74b	-0.019137999
144	0xbc9373e7	-0.017999602
145	0x3e4ea6e9	0.20180859
146	0x3e62d38d	0.22151013
147	0x3e7e3627	0.24825345
148	0x3e73f510	0.23823953
149	0xbdbe41e7	-0.092899136
150	0x3d3c3d36	0.045956813
151	0x3e85a7c9	0.26104572
152	0xbbe216f2	-0.006899708
153	0x3bd8e35c	0.0066189
154	0x3dd9b76c	0.10630688
155	0x3db282fb	0.08716389
156	0xbcdffa6a	-0.027341086
157	0xbd5d528f	-0.054033812
158	0xbd940d77	-0.07229131
159	0x3d99facb	0.07518538
160	0x3d9b7671	0.0759095
161	0xbe4df56a	-0.2011315
162	0xbd2e4bc8	-0.04255274
163	0x3beec867	0.0072870734
164	0x3e3c71bf	0.18402766
165	0x3dbbe85b	0.09175178
166	0xbdcae491	-0.09906877
167	0x3e39b44c	0.18135184
168	0xbe267255	-0.16254552
169	0x3ca7022a	0.020386774
170	0xbcb82b49	-0.022481577
171	0xbdb3a4cd	-0.08771668
172	0xbd342472	-0.04398007
173	0x3d7c129a	0.061541177
174	0xbd90bb9e	-0.07067035
175	0x3d27372f	0.04082411
176	0x3e7ab0f3	0.24481563
177	0xbe289c8c	-0.16465968
178	0xbc92c48f	-0.017915992
179	0xbb879415	-0.004137526
180	0x3dc5c715	0.096571125
181	0x3e52ffcb	0.2060539
182	0x3db2d330	0.08731687
183	0xbc89f3ce	-0.016839888
184	0xbe421abc	-0.18955511
185	0x3d49973f	0.049216505
186	0x3e3488f8	0.17630374
187	0xbdc8557c	-0.0978193
188	0x3bf1692a	0.007367273
189	0x3c906b23	0.017629212
190	0xbe10f7c0	-0.14157009
191	0xbdfd3e8d	-0.12365446
192	0xbe6486b3	-0.22317009
193	0xbd789b5d	-0.06069504
194	0xbdfe1944	-0.12407163
195	0xbdbebd89	-0.09313495
196	0xbdfffd89	-0.1249953
197	0xbe1bf987	-0.15231906
198	0x3e3f0253	0.1865323
199	0x3d805442	0.06266071
200	0x3d749fd0	0.05972272
201	0x3dd4cea1	0.10390974
202	0xbddc5b82	-0.10759641
203	0x3dd24038	0.10266155
204	0x3d41096c	0.047128126
205	0xbc169f1d	-0.009193209
206	0x3d3a8359	0.04553542
207	0x3e5936d3	0.2121232
208	0x3e95c919	0.29254988
209	0xbcceaa58	-0.02522771
210	0x3e29ef1f	0.16595124
211	0x3da5e5eb	0.08100494
212	0x3d9d0f34	0.076689154
213	0x3e12d77d	0.14340015
214	0xbe00a212	-0.12561825
215	0x3e3b9513	0.18318586
216	0xbd7dad2e	-0.061932735
217	0xbdfabbc3	-0.12242844
218	0xbdb344de	-0.0875337
219	0x3da430f6	0.08017151
220	0x3e0e1a15	0.13877137
221	0xbc24bf03	-0.010055306
222	0xbe14e3ac	-0.14539975
223	0xbdd9d4f9	-0.106363244
224	0x3e273045	0.16327007
225	0x3e75d875	0.24008353
226	0xbd2a2c16	-0.04154595
227	0x3d75b803	0.05998994
228	0xbe0562a3	-0.13025908
229	0x3e85c3ff	0.26126096
230	0x3e017c2c	0.12645024
231	0x3d954003	0.072876
232	0x3d2d887c	0.04236649
233	0xbd13ed66	-0.036115073
234	0xbdccee34	-0.10006371
235	0xbe107a28	-0.14109099
236	0x3d8d5cad	0.06902442
237	0xbd4eed43	-0.05051924
238	0x3d2577b0	0.040397346
239	0x3c630326	0.013855731
240	0xbe38930a	-0.18024841
241	0xbd9a787a	-0.0754251
242	0xbc743eb2	-0.014907526
243	0xbe33a75c	-0.17544311
244	0x3d8f24c7	0.069894366
245	0xbe0645a6	-0.13112506
246	0x3c40751c	0.011746671
247	0xbca98afd	-0.020696158
248	0x3d3e5b24	0.046473637
249	0xbd6a3432	-0.057178684
250	0x3e83e4ca	0.2576049
251	0x3c7f1835	0.015569736
252	0x3e26ffe6	0.16308555
253	0x3c58527c	0.01320326
254	0x3c2d6b38	0.010584645
255	0x3db078d1	0.08616794

bias f4 [10]
0	0xbc1bb455	-0.009503444
1	0xbd841983	-0.064501785
2	0x3db2307c	0.08700654
3	0x3e19c199	0.15015258
4	0xbded0988	-0.115740836
5	0x3d93ed59	0.07223005
6	0xbd8d3974	-0.06895724
7	0xbdc360e6	-0.09539966
8	0xbe013e12	-0.12621334
9	0xbd99bae9	-0.075063534

weight f4 [60, 10]
0	0xbd9bea83	-0.07613089
1	0xbe4ff4cc	-0.20308226
2	0xbedc8da0	-0.430768
3	0x3e6b327a	0.22968474
4	0xbea1fa2e	-0.31636184
5	0x3e83f5f9	0.257736
6	0x3e7bb4ee	0.24580738
7	0xbd63af3d	-0.055587042
8	0xbe1bc626	-0.15212306
9	0xbe383e99	-0.17992629
10	0xbdc8a0d9	-0.09796304
11	0xbcea5131	-0.028603168
12	0xbe8618b3	-0.2619072
13	0x3e1c0097	0.152346
14	0xbc077934	-0.008268643
15	0x3ddf6ca0	0.109093904
16	0x3dfb918d	0.12283621
17	0x3e0046a6	0.1252695
18	0xbe990711	-0.29888204
19	0x3d9e038c	0.0771552
20	0x3eb5e748	0.35528016
21	0xbdece86a	-0.11567767
22	0xbed43639	-0.4144762
23	0x3e6cb3f2	0.23115519
24	0x3d13f26b	0.03611986
25	0xbd66e508	-0.056370765
26	0x3dbe69cd	0.09297524
27	0xbd97b485	-0.07407478
28	0x3e8e21ac	0.27760065
29	0x3dd59f85	0.104308166
30	0x3e095808	0.13412488
31	0xbd969cda	-0.07354136
32	0xbd2b25c1	-0.04178405
33	0xbdb73a8b	-0.08946713
34	0xbe73fef6	-0.23827729
35	0x3eaea18b	0.34107623
36	0x3e21e701	0.15810777
37	0x3dfb04c0	0.12256765
38	0x3d04dddd	0.032438148
39	0x3daabbfa	0.08336635
40	0x3e065bf3	0.13121013
41	0x3eb9f6c9	0.36321095
42	0xb92e1bc7	-0.00016604281
43	0xbded8a4e	-0.11598645
44	0xbe338843	-0.17532448
45	0xbd04721e	-0.032335393
46	0xbe1cf94a	-0.15329471
47	0x3e3a86e5	0.1821552
48	0xbe39cb13	-0.18143873
49	0xbd4a749d	-0.049427617
50	0xbd931220	-0.071811914
51	0x3e22dced	0.15904589
52	0x3e4bfb70	0.19920135
53	0x3e822d73	0.254253
54	0x3dd68050	0.104736924
55	0x3e0c253c	0.13686079
56	0x3e692d16	0.22771105
57	0x3e834a01	0.25642398
58	0x3d9c3d60	0.07628894
59	0xbe4609de	-0.19339702
60	0x3e035e02	0.1282883
61	0xbd4e953a	-0.050435282
62	0xbe7d17a1	-0.24716045
63	0xbd339333	-0.043841552
64	0xbeb4ef06	-0.3533861
65	0xbda3b82d	-0.07994113
66	0x3e856f66	0.26061553
67	0x3a8a5cde	0.0010556241
68	0xbe8d7dfb	-0.27635178
69	0x3cfc8554	0.030825295
70	0xbe8d85b5	-0.27641073
71	0x3e072ba6	0.13200244
72	0x3c94d7f4	0.01816938
73	0xbe4e8a47	-0.20169936
74	0xbe2babd1	-0.16764762
75	0xbe861e0f	-0.26194808
76	0x3e7736bc	0.24141973
77	0x3e84ea32	0.25959927
78	0xbdf3152a	-0.11869271
79	0xbd27c07b	-0.040955048
80	0x3dd3b711	0.103376515
81	0x3e95500d	0.29162636
82	0x3d43990d	0.047753382
83	0xbe6438ef	-0.22287343
84	0xbc3297e3	-0.01090047
85	0xbde34659	-0.11097402
86	0xbec27a93	-0.37984142
87	0x3e0ed201	0.13947298
88	0xbe8331d7	-0.25623962
89	0x3e2fd7fb	0.17172234
90	0x3e32ea67	0.1747223
91	0x3e4e98db	0.20175497
92	0x3e574c1d	0.21025129
93	0x3b9e4988	0.004830543
94	0xbe13f5dd	-0.14449258
95	0x3d58f795	0.052970488
96	0x3d0a92dc	0.033831462
97	0x3e2e0ac6	0.16996297
98	0xbeba9a70	-0.3644595
99	0x3d2b41bb	0.041810732
100	0xbe2fa4bc	-0.17152685
101	0x3dbb95ba	0.091594175
102	0xbe91acb5	-0.28452078
103	0x3e52041e	0.20509383
104	0x3dbf85fe	0.09351729
105	0xbc94d1bf	-0.018166421
106	0x3e216700	0.15761948
107	0xbd3a0d47	-0.04542282
108	0x3e024bc6	0.12724218
109	0x3e69e959	0.22842921
110	0xbeac1abe	-0.33614153
111	0xbd2f766e	-0.042837553
112	0x3df7df66	0.12103157
113	0xbdbceea2	-0.09225203
114	0xbe918fe0	-0.2843008
115	0xbe039dff	-0.1285324
116	0xbcaaec8c	-0.020864747
117	0xbe19ecd9	-0.15031756
118	0x3d2f5f9b	0.042815786
119	0x3d88450f	0.06653797
120	0x3da30c58	0.07961339
121	0xbe5a03aa	-0.2129046
122	0xbe6eb9ba	-0.23313037
123	0xbbc37787	-0.0059651765
124	0x3dd0e67f	0.10200214
125	0xbe0b02df	-0.13575314
126	0x3cb3ff86	0.021972429
127	0x3d8cb04d	0.06869564
128	0xbdac7a4d	-0.084217645
129	0xbe32b910	-0.17453408
130	0x3e7b0ee2	0.24517396
131	0xbe804f5c	-0.25060546
132	0x3d486fe0	0.048934817
133	0xbe93e810	-0.28887987
134	0x3dcc8bed	0.09987626
135	0x3e0b1784	0.13583189
136	0x3e774a14	0.24149352
137	0x3d95275b	0.07282897
138	0xbea1cbda	-0.3160084
139	0xbdce7136	-0.10080187
140	0xbeb4d2e9	-0.35317162
141	0x3da03b6e	0.07823835
142	0x3d38713f	0.045029875
143	0x3d75140e	0.05983358
144	0xbe817fa4	-0.25292695
145	0x3df3cd61	0.11904407
146	0x3da4e8ff	0.08052253
147	0xbd942620	-0.07233834
148	0xbe1daabc	-0.15397161
149	0xbe196ee8	-0.14983714
150	0x3e0536bc	0.13009161
151	0x3e81a9aa	0.25324756
152	0x3e5d70c5	0.2162505
153	0x3dff59ff	0.12468337
154	0x3c3a41f0	0.01136826
155	0xbd4ab5db	-0.049489837
156	0x3e09fd7e	0.13475606
157	0xbe9c076c	-0.30474412
158	0xbe01a4c3	-0.12660508
159	0x3da47746	0.08030562
160	0x3dba8082	0.09106542
161	0xbc850e59	-0.016242193
162	0x3d0437f4	0.032279924
163	0x3dd8d77a	0.10587974
164	0x3e9e20c8	0.30884385
165	0xb91f66b9	-0.00015201689
166	0x3e7af0d4	0.24505931
167	0xb924a834	-0.0001570292
168	0xbe44ed7a	-0.19231215
169	0xbdc5fabd	-0.09666965
170	0x3ea21188	0.31654
171	0xbeb3c98d	-0.3511471
172	0x3e18455c	0.14870209
173	0x3e044a71	0.12919022
174	0xbe63b520	-0.22237062
175	0x3da94ff3	0.08267202
176	0x3e685175	0.22687323
177	0xbe1e5ae7	-0.15464364
178	0x3dba4638	0.090954244
179	0xbe68fa77	-0.22751795
180	0xbe86ef1f	-0.2635431
181	0x3da8b724	0.08238056
182	0x3c738fa7	0.014865792
183	0xbe6217b1	-0.2207935
184	0x3de09005	0.109649695
185	0x3d8e0d24	0.069361
186	0xbe2b879e	-0.16750953
187	0x3e767b23	0.2407041
188	0x3de8db21	0.113699205
189	0xbdeec766	-0.11659126
190	0x3d02b37c	0.03190945
191	0xbdd97863	-0.10618665
192	0xbdd6453e	-0.10462426
193	0xbeaad5c3	-0.33366212
194	0x3dc7f033	0.09762611
195	0xbe1a639e	-0.15077063
196	0xbe624081	-0.22094919
197	0x3e092c9c	0.13395923
198	0x3ea2f556	0.318278
199	0xbe67987d	-0.22616763
200	0x3d171747	0.036887433
201	0x3e96a520	0.29422855
202	0xbe3a9db7	-0.18224226
203	0xbe5c08e3	-0.21487765
204	0x3ea2e52f	0.31815478
205	0xbe0dbc19	-0.13841285
206	0x3be2557b	0.0069071627
207	0xbec1e318	-0.3786857
208	0x3e37d66f	0.17952894
209	0xbe9b8f9d	-0.30383006
210	0x3e617d9d	0.22020574
211	0xbe7fac50	-0.24968076
212	0x3dc7c544	0.09754422
213	0x3e34e387	0.1766492
214	0xbe4d171f	-0.20028351
215	0xbc6171d5	-0.01376005
216	0xbd36d6b3	-0.044638347
217	0x3e9d4304	0.3071519
218	0x3e81823c	0.25294673
219	0xbd35f965	-0.044427294
220	0x3dd7f3d0	0.105445504
221	0xbc20688d	-0.009790552
222	0xbdf20308	-0.118169844
223	0x3e3a15b1	0.18172337
224	0xbe0340ad	-0.1281764
225	0xbe2ab8f4	-0.16672117
226	0xbde72820	-0.1128695
227	0x3e233e08	0.15941632
228	0x3cfb8212	0.03070167
229	0x3def5b81	0.11687375
230	0x3df2c9f3	0.11854925
231	0xbe3f1cef	-0.18663381
232	0x3e749e15	0.23888429
233	0xbd9948f9	-0.074846216
234	0xbdcf9854	-0.10136476
235	0x3da0d81c	0.078537196
236	0xbe7c038a	-0.24610725
237	0x3e25b363	0.16181712
238	0xbbc0a158	-0.0058786087
239	0xbe824b03	-0.25447854
240	0x3d2aaf4d	0.041671086
241	0x3e82fba9	0.25582626
242	0x3e798913	0.24368696
243	0xbd371d22	-0.044705518
244	0xbdc6b25b	-0.09701987
245	0xbe0c8a3b	-0.13724606
246	0xbd79aea6	-0.060957573
247	0xbd7103b3	-0.05884142
248	0xbea75fb0	-0.3269019
249	0xbedb516f	-0.42835566
250	0x3e7b52c7	0.24543296
251	0xbe5c2121	-0.21497013
252	0xbe8058ce	-0.25067753
253	0x3dfc4851	0.12318481
254	0xbe65cb43	-0.2244082
255	0x3d4b9cfa	0.04971025

bias f4 [60]
0	0x3d213cd0	0.039364636
1	0xbe1f0ef6	-0.15533051
2	0x3e1b47bb	0.15164082
3	0x3de35cac	0.1110166
4	0xbcc3ad38	-0.023886308
5	0xbd77bea5	-0.060484547
6	0x3de6dace	0.112722024
7	0x3d81cbe9	0.06337721
8	0x3d6b5014	0.057449415
9	0xbe019989	-0.12656225
10	0x3d18eb6f	0.037333902
11	0x3e40a602	0.18813327
12	0x3d587671	0.05284733
13	0x3d57351a	0.052540876
14	0xbe85d5fb	-0.26139817
15	0x3e094aa9	0.13407387
16	0x3e75a875	0.23990043
17	0x3d7ddf0d	0.061980296
18	0xbbc9174d	-0.006136811
19	0xbdd4b326	-0.10385732
20	0x3d6b129d	0.057390798
21	0x3d36985a	0.044578888
22	0xbe58fe7e	-0.21190831
23	0xba089b86	-0.0005211163
24	0xbdf9e27a	-0.122014
25	0x3b7e4dd5	0.0038803716
26	0x3de3b784	0.11118987
27	0xbe422eea	-0.18963209
28	0x3e4a12fb	0.19733803
29	0x3d0562c2	0.032564886
30	0x3d4e7a4d	0.050409604
31	0x3ea67f14	0.32518828
32	0xbdcee189	-0.10101611
33	0xbd3e9afc	-0.046534523
34	0x3dc78274	0.09741679
35	0xbe314fc1	-0.1731558
36	0xbe17423d	-0.14771362
37	0xbdd0a136	-0.101869985
38	0x3e23887b	0.15970032
39	0x3ea5e727	0.32402918
40	0xbc049d1e	-0.0080941
41	0xbe0e1c6f	-0.13878034
42	0xbcfa01e2	-0.030518476
43	0x3dfbfe40	0.12304354
44	0x3bc8aadd	0.006123884
45	0xbe3a2665	-0.18178709
46	0xbe629582	-0.22127345
47	0xbd3906a2	-0.04517234
48	0x3e450982	0.19241908
49	0x3e318cfb	0.17338936
50	0x3ddf89ee	0.1091498
51	0xbc768651	-0.015046672
52	0xbda4e2b4	-0.08051053
53	0x3cbca3be	0.023027297
54	0x3e36cb05	0.17850883
55	0xbd78ec3c	-0.060772166
56	0x3e0157e4	0.12631184
57	0x3dfbbc83	0.12291815
58	0xbcfac28b	-0.030610343
59	0xbda52e70	-0.08065498

weight f4 [60, 60]
0	0x3e20dbb9	0.15708818
1	0x3df2cc5d	0.118553855
2	0xbd9894a0	-0.07450223
3	0xbc70c5c7	-0.014695591
4	0x3d4d0ecc	0.05006294
5	0x3d98ca30	0.07460439
6	0x3e000aa3	0.12504058
7	0xbdff826d	-0.124760486
8	0xbdb31249	-0.08743722
9	0x3e02956e	0.12752315
10	0xbdd346ef	-0.10316264
11	0xbcb912ef	-0.022592036
12	0xbdbfa47e	-0.09357546
13	0x3e11a717	0.14223896
14	0x3e290182	0.16504481
15	0xbd33fcf2	-0.0439424
16	0xbe24ea2f	-0.16104959
17	0x3e6b01d3	0.22949915
18	0xbe3396f1	-0.17538048
19	0xbd1edf9b	-0.038787466
20	0xbd941bdd	-0.07231877
21	0x3e096a6c	0.13419503
22	0x3e5fd10b	0.21857087
23	0x3bb31ab0	0.005465828
24	0xbe2275ab	-0.158652
25	0x3e0c1ac9	0.13682093
26	0x3e7c848a	0.24659935
27	0xbdfa01ff	-0.12207412
28	0xbe3914aa	-0.18074289
29	0x3e19c691	0.15017153
30	0x3daae479	0.08344359
31	0xbc8255b7	-0.015910013
32	0x3e38ca71	0.18045975
33	0x3d9b961e	0.07596992
34	0xbdd8b54b	-0.10581454
35	0x3e0db66b	0.13839118
36	0xbe654c46	-0.22392377
37	0xbe6de189	-0.23230566
38	0x3cb3b46f	0.021936623
39	0xbdb1bc9f	-0.08678555
40	0x3df8a029	0.12139923
41	0x3e2b954c	0.16756171
42	0xbda1a8a7	-0.07893496
43	0x3dabc126	0.083864495
44	0x3e24d020	0.16095018
45	0x3dd11e5a	0.10210867
46	0x3d6a1747	0.057151105
47	0x3db29ee7	0.087217145
48	0x3d7c9c06	0.061672233
49	0xbe2444de	-0.16041896
50	0xbd9dc13d	-0.07702873
51	0x3e269983	0.16269498
52	0x3d967a6e	0.0734757
53	0xbe10d780	-0.14144707
54	0xbdf9a9a1	-0.12190557
55	0x3e180c32	0.14848402
56	0xbe16ece9	-0.14738812
57	0xbe349587	-0.17635165
58	0x3d3d5ba7	0.046229985
59	0x3d0501aa	0.03247229
60	0x3d0df1df	0.034654494
61	0xbebe2398	-0.3713653
62	0x3e274968	0.16336596
63	0x3e846384	0.25857174
64	0xbd81e32d	-0.063421585
65	0xbd975f43	-0.073912166
66	0xbe0b65d6	-0.13613066
67	0x3df5c154	0.11999765
68	0x3e6162d0	0.2201035
69	0xbda4f3fc	-0.08054349
70	0x3dab9cba	0.083795026
71	0x3e8f593c	0.27997768
72	0x3df5c9f2	0.12001409
73	0xbe8edee7	-0.27904436
74	0xbdfd0dbb	-0.123561345
75	0x3e00d2a1	0.12580349
76	0x3e76d217	0.2410358
77	0x3d1c277d	0.038123596
78	0x3e3c7152	0.18402603
79	0xbe07f224	-0.13275963
80	0x3e66b7a2	0.22530988
81	0x3c929c58	0.017896816
82	0xbe856f05	-0.26061264
83	0xbe8a38fa	-0.26996595
84	0xbdc30c9c	-0.095238894
85	0xbd976e91	-0.07394136
86	0xbe8d70f0	-0.27625227
87	0x3e08415f	0.13306187
88	0xbd81668b	-0.06318387
89	0xbe439979	-0.19101514
90	0xbd37927a	-0.044817425
91	0x3e8c5b06	0.27413195
92	0xbe0eea39	-0.13956536
93	0xbdf0b4d1	-0.11753238
94	0xba4dedb7	-0.00078555517
95	0xbe21c56f	-0.15797971
96	0x3dab8836	0.083755895
97	0xbd69b3c9	-0.057056222
98	0xbd310d79	-0.04322574
99	0x3eae66a3	0.3406268
100	0xbe80da7c	-0.2516669
101	0xbdf85aac	-0.12126669
102	0xbd9e1a59	-0.07719869
103	0xbd974107	-0.0738545
104	0xbe4eaed0	-0.20183873
105	0x3dd5a8fd	0.104326226
106	0xbe7be42d	-0.24598761
107	0xbdf8d6cc	-0.12150344
108	0x3e75d4ee	0.24007007
109	0x3e730a77	0.23734461
110	0xbc3bd29b	-0.0114637865
111	0xbe523463	-0.20527796
112	0xbe7d4658	-0.24733865
113	0x3df42311	0.11920751
114	0x3ea4d949	0.32197025
115	0xbe8be9c7	-0.27326795
116	0x3e8f187c	0.27948368
117	0x3e291620	0.16512346
118	0xbe80845b	-0.2510098
119	0xbe4b9846	-0.19882306
120	0x3e3d0036	0.18457112
121	0x3c8330a5	0.016014406
122	0xbe3081df	-0.17237042
123	0xbdfe6d71	-0.12423218
124	0x3d40c1fd	0.04706
125	0x3e08225b	0.13294356
126	0x3d1ec5b2	0.038762756
127	0xbce2e86b	-0.027698716
128	0xbe31f898	-0.17379987
129	0xba86bb1d	-0.0010279153
130	0xbde977ec	-0.113998264
131	0xbdefc7f9	-0.11708064
132	0xbd976b9a	-0.0739357
133	0x3c0bf8f1	0.008543239
134	0x3e32fc98	0.1747917
135	0xbc6d51d3	-0.01448484
136	0xbe4d5d2e	-0.20055076
137	0x3db3fd82	0.08788587
138	0xbcfb053f	-0.03064215
139	0xbe31e002	-0.17370608
140	0xbdd27cea	-0.10277732
141	0x3d835c0f	0.06414043
142	0x3c49945b	0.012303437
143	0x3e2562cd	0.16150971
144	0xbdfe3975	-0.12413303
145	0x3defe4fb	0.117135964
146	0x3e16b462	0.14717248
147	0xbd87aea1	-0.06625105
148	0x3bd075ff	0.0063617225
149	0x3dba6336	0.09100954
150	0x3e1e0539	0.1543168
151	0xbe0b16e8	-0.13582957
152	0x3da50783	0.08058073
153	0x3acba9bd	0.0015538257
154	0xbd3a8412	-0.04553611
155	0x3ced4828	0.02896507
156	0xbd36f5e3	-0.04466809
157	0xbe1a18b4	-0.15048486
158	0x3ddc01ba	0.10742517
159	0xbe706e76	-0.23479638
160	0x3e848086	0.25879306
161	0x3c73727a	0.014858836
162	0xbcbe0f77	-0.023200734
163	0x3df1db89	0.11809451
164	0x3d847df1	0.06469334
165	0x3dc207c8	0.094741404
166	0x3cd1be96	0.025603574
167	0x3e122371	0.14271332
168	0xbca7a92f	-0.020466415
169	0xbe109a41	-0.14121343
170	0xbe06d221	-0.13166095
171	0x3d91f811	0.07127393
172	0x3e578ef0	0.2105062
173	0xbdc28d12	-0.09499563
174	0xbd87a176	-0.06622593
175	0x3e7fd260	0.24982595
176	0xbd97b388	-0.0740729
177	0xbca73e27	-0.020415379
178	0x3e3fd982	0.18735316
179	0x3dcc217d	0.09967325
180	0xbd415a2b	-0.04720513
181	0x3d23f216	0.040025793
182	0x3df9cf27	0.12197714
183	0xbce6493c	-0.028111093
184	0xbe251901	-0.1612282
185	0xbdda1248	-0.10648018
186	0xbe07ea0f	-0.1327288
187	0x3d83c966	0.06434898
188	0x3d9a8803	0.075454734
189	0x3d2c709f	0.04209959
190	0xbdcd7b52	-0.10033287
191	0x3da59584	0.080851585
192	0x3df6ffbe	0.12060498
193	0xbd317e3f	-0.04333329
194	0xbd936cce	-0.07198487
195	0xbcab61c9	-0.020920651
196	0x3d76ad46	0.06022384
197	0xbd876030	-0.06610143
198	0x3debb970	0.11509979
199	0x3df6f9cf	0.12059366
200	0xbc542822	-0.0129490215
201	0xbe1334aa	-0.14375558
202	0xba51fb80	-0.00080101937
203	0x3c4c5199	0.012470626
204	0x3e4b414f	0.19849132
205	0xbd0d05f7	-0.034429517
206	0xbd410ff4	-0.047134355
207	0xbdfb85d4	-0.12281385
208	0x3b1794e4	0.0023129517
209	0xbdb8381a	-0.089950755
210	0xbbd27a2f	-0.006423257
211	0x3e291995	0.16513665
212	0xbded2cd2	-0.115808144
213	0xbd8ad9b3	-0.06779804
214	0xbdd747af	-0.105117194
215	0xbca357ec	-0.019939385
216	0x3da4d891	0.08049119
217	0x3d950335	0.07276002
218	0xbca16e13	-0.019705808
219	0xbdb7f7d2	-0.08982815
220	0xbdd7f5fc	-0.10544965
221	0x3dadf65e	0.084942564
222	0x3e23dd29	0.16002335
223	0x3d3b4585	0.045720596
224	0xbe0db94b	-0.13840215
225	0xbd0e62fd	-0.03476237
226	0xbe059564	-0.13045269
227	0x3d44c47a	0.048038937
228	0xbcef256f	-0.029192654
229	0x3d8e3fa4	0.06945732
230	0x3e48823a	0.19580927
231	0x3d76ab63	0.06022204
232	0xbe15f5f9	-0.14644612
233	0x3d86c7fb	0.06581112
234	0x3d51a9ca	0.051187314
235	0xbde6f70f	-0.112775914
236	0xbcece753	-0.028918898
237	0x3e1a8992	0.15091541
238	0x3dc7fa03	0.09764483
239	0xbb018930	-0.0019765608
240	0xbc45290d	-0.012033713
241	0x3c1cc553	0.00956853
242	0xbe2164bc	-0.15761083
243	0xbe637df4	-0.22216016
244	0x3dbe92a7	0.093053155
245	0x3e3ab71e	0.18233916
246	0xbaaefa75	-0.0013349788
247	0xbe4a835b	-0.1977667
248	0xbe0bfc5d	-0.13670488
249	0x3d20faf6	0.039301835
250	0xbe4accff	-0.19804762
251	0xbe08c591	-0.13356616
252	0xbcbb8e9b	-0.022895148
253	0xbd842a7f	-0.06453418
254	0x3e031d0a	0.12804046
255	0xbe477720	-0.19479036

bias f4 [60]
0	0x3ca0090a	0.01953556
1	0x3e2654f0	0.16243339
2	0xbdf8e664	-0.121533185
3	0x3d55086e	0.052009992
4	0xbd1143e0	-0.03546512
5	0xbd5ea7cd	-0.054359246
6	0xbcdde849	-0.027088301
7	0x3d6cadbd	0.057782877
8	0x3c336de5	0.010951494
9	0x3dbe3af7	0.092885904
10	0x3dad2b26	0.084554955
11	0x3cc154c2	0.023599986
12	0x3e0f0cd4	0.13969737
13	0xbd52597e	-0.051354878
14	0x3d969d29	0.07354195
15	0xbc684a01	-0.0141778
16	0x3d6c1f22	0.057646878
17	0xbb4db25c	-0.0031386828
18	0xbd4b421f	-0.049623605
19	0x3dff44c9	0.124642916
20	0xbe08c780	-0.13357353
21	0x3e0b5608	0.13607037
22	0x3d91c856	0.07118289
23	0xbdf0b599	-0.11753387
24	0xbe1d9113	-0.15387373
25	0x3cfac726	0.03061254
26	0xbd0bb482	-0.034107693
27	0x3d98e147	0.07464843
28	0x3d40c03c	0.04705833
29	0x3c8d084a	0.017215867
30	0xbaa519d8	-0.0012596203
31	0xbda23768	-0.07920724
32	0xbdc92ec1	-0.09823371
33	0xbd93aed6	-0.07211082
34	0x3cdff8d5	0.027340332
35	0x3d6bc66e	0.057562284
36	0x3d9cdfd0	0.07659876
37	0xbd1b0714	-0.037848547
38	0xbcd3fd2a	-0.025877554
39	0x3d6cfce3	0.05785836
40	0xbddabbfd	-0.10680387
41	0xbc9a477d	-0.018832916
42	0x3c933ac6	0.017972361
43	0x3c973ff6	0.018463116
44	0x3c2e09b2	0.010622429
45	0xbd844aed	-0.064596035
46	0x3d4f1c34	0.050564006
47	0x3c9ec949	0.01938309
48	0xbd063c06	-0.032772087
49	0xbd9f7201	-0.077854164
50	0x3e08fc55	0.13377507
51	0xbdf31bd9	-0.11870546
52	0x3db246e9	0.08704931
53	0x3d5d9ae8	0.05410281
54	0xbd7e6d77	-0.062116113
55	0xbd18bd65	-0.037289996
56	0x3d926173	0.07147493
57	0xbd3059e4	-0.043054476
58	0xbe14f13d	-0.1454515
59	0xbce36a93	-0.02776078
