data/vanilla-valor-expts/vanilla-valor-expts_s0/pyt_save/model.pt (torch, 15419 bytes, 19 tensors)

weight f4 [10, 60]
0	0x3dc6cd2c	0.09707102
1	0x3c392e14	0.01130249
2	0xbd8365f7	-0.064159326
3	0x3da8a4f9	0.08234591
4	0xbd31a974	-0.043374494
5	0x3d293e9e	0.041319482
6	0x3e0459bf	0.1292486
7	0x3dbe079e	0.092787966
8	0xbdc57cb7	-0.09642928
9	0xbe2b50d6	-0.16730055
10	0x3d654fd3	0.05598433
11	0xbd5ff496	-0.054676615
12	0x3d8a8b42	0.067648426
13	0x3bee52a5	0.0072730356
14	0x3e147915	0.14499314
15	0x3e00625c	0.12537521
16	0xbb97263c	-0.004612712
17	0xbd47ad3e	-0.0487492
18	0x3c042b33	0.00806694
19	0x3d76ee3d	0.060285795
20	0xbcdb58b5	-0.026775697
21	0x3c9c4dfb	0.019080153
22	0x3d393782	0.045218952
23	0xbda9bd36	-0.08288042
24	0x3db2153f	0.086954586
25	0xbcb77852	-0.02239624
26	0xbce311c7	-0.027718438
27	0x3d0b1a19	0.033960436
28	0xbd4b6a34	-0.04966183
29	0x3d924fa6	0.07144098
30	0xbdd81be2	-0.10552193
31	0x3d81bb13	0.0633451
32	0x3c20fd01	0.009825946
33	0x3dca97cc	0.09892234
34	0x3bc82a84	0.006108584
35	0xbd9ff67f	-0.07810687
36	0x3d87daf0	0.06633556
37	0x3d8f6215	0.070011295
38	0xbd16d787	-0.036826637
39	0x3d7d1836	0.061790667
40	0xbd9eecb5	-0.07759992
41	0xbde4a730	-0.11164701
42	0xbdf7dc97	-0.12102621
43	0xbc22d06f	-0.00993739
44	0x3d002f34	0.031295016
45	0x3cdd765e	0.027033981
46	0xbdb5ccb8	-0.08876938
47	0xbd0ead24	-0.03483309
48	0x3c194805	0.00935555
49	0x3d00597c	0.03133534
50	0x3d6c7f3b	0.057738524
51	0xbd7e133f	-0.062030073
52	0x3dd360e8	0.10321218
53	0x3c244031	0.01002507
54	0x3d6e9142	0.058243997
55	0xbcf7f12b	-0.030266365
56	0xbda7b1f0	-0.08188236
57	0xbcaad349	-0.020852702
58	0x3c0334b5	0.008008172
59	0x3e02f92e	0.12790367
60	0x3dcf2888	0.101151526
61	0xbd155fd4	-0.036468342
62	0x3dd55a92	0.104176655
63	0xbdb4d60d	-0.088298894
64	0xbbb2642f	-0.0054440717
65	0xbdd7d890	-0.10539353
66	0x3d54a5b2	0.051915832
67	0x3e0eab93	0.13932638
68	0x3db41537	0.08793109
69	0xbe0e8435	-0.1391762
70	0xbd5c5fc0	-0.05380225
71	0x3e0ba5b2	0.13637426
72	0xbd751d88	-0.059842616
73	0xbd9a358e	-0.07529746
74	0x3cacd6a7	0.021098448
75	0x3c518b9b	0.012789632
76	0x3cdcdb3a	0.026960004
77	0xbd65eb30	-0.056132495
78	0x3cd0a160	0.025467575
79	0x3d798308	0.060915977
80	0x3d016662	0.03159178
81	0x3c9169c9	0.017750638
82	0xbc91b09c	-0.01778441
83	0xbd3bca05	-0.045846958
84	0x3de7e634	0.11323205
85	0xbcb93770	-0.022609442
86	0x3d9be686	0.07612328
87	0xbc3c5ffc	-0.011497494
88	0xbd09857e	-0.033574574
89	0xbdbc4de9	-0.09194548
90	0xbc27f523	-0.010251316
91	0x3dbb3907	0.091417365
92	0xbdce9331	-0.10086668
93	0x3d372b5f	0.044719096
94	0xbd2fa119	-0.042878244
95	0xbde2419e	-0.11047672
96	0xbc90e904	-0.017689236
97	0x3d2cb559	0.042165134
98	0x3dbbfd9d	0.09179232
99	0xbdd54802	-0.10414125
100	0x3dbe46ea	0.092908695
101	0x3d95a3c9	0.0730663
102	0x3d9fa1c3	0.077945255
103	0x3e016211	0.12635066
104	0xbd9b19a8	-0.07573253
105	0xbd96d96e	-0.0736569
106	0xbdd88875	-0.10572902
107	0xbd89bce2	-0.0672548
108	0x3c0d41fd	0.00862169
109	0xbbd82091	-0.006595679
110	0x3c9b8dd6	0.018988531
111	0x3a036557	0.0005012354
112	0xbd524e6e	-0.051344328
113	0xbdc77aac	-0.09740195
114	0x3d96b56d	0.07358823
115	0x3e001093	0.12506323
116	0xbd9d5a9d	-0.07683299
117	0x3dd8f6e4	0.10593966
118	0xbd535fb1	-0.05160493
119	0x3d97360a	0.07383354
120	0x3df2c11a	0.118532375
121	0xbd2002c6	-0.039065145
122	0x3caf2334	0.02137909
123	0xbbc8de16	-0.0061299903
124	0x3da063a5	0.07831506
125	0x3cb9a9d0	0.02266398
126	0xbe005d03	-0.12535481
127	0x3d922530	0.07135999
128	0xbdac4672	-0.08411874
129	0x3b90d225	0.0044195824
130	0xbd97b3aa	-0.07407315
131	0x3c908a1c	0.01764398
132	0xbd022995	-0.031777937
133	0xbbf983e1	-0.007614598
134	0x3d28f408	0.04124835
135	0x3c685e1e	0.014182596
136	0xbbd19dfc	-0.006397007
137	0xbbb594cd	-0.00554142
138	0x3d99a385	0.07501892
139	0xbcc5ac45	-0.024129996
140	0x3dd3f9e5	0.10350398
141	0xbcca50d7	-0.02469675
142	0xbc093597	-0.008374593
143	0xbd1045a1	-0.035222653
144	0xbcec11b5	-0.028817037
145	0xbba9e9d7	-0.0051853466
146	0x3d90c9f1	0.07069767
147	0x3dbe4b28	0.09291679
148	0x3c44afb1	0.012004779
149	0x3cbaeefd	0.022819037
150	0xbdbd41cc	-0.092410654
151	0xbca9a05b	-0.020706346
152	0x3d0c5a81	0.034266
153	0x3e05a41e	0.13050887
154	0xbd5615f4	-0.05226703
155	0xbe11c19e	-0.14234015
156	0x3c333494	0.010937829
157	0x3c051f91	0.008125202
158	0xba8dd6fd	-0.0010821518
159	0x3d87f855	0.066391625
160	0x3d415eb3	0.047209453
161	0xbca20a67	-0.01978035
162	0xbe07ea49	-0.13272966
163	0x3df10ca5	0.1176999
164	0xbd6ef711	-0.05834109
165	0xbd50ca74	-0.050974324
166	0xbdd8f24b	-0.10593089
167	0x3d800024	0.06250027
168	0x3dc3b02e	0.09555088
169	0xbdda4bd2	-0.10658993
170	0xbd707178	-0.058701962
171	0xbdd5b247	-0.10434394
172	0x3de9b092	0.11410631
173	0xbc328a58	-0.0108972415
174	0xbdb5c07d	-0.08874605
175	0x3db084a2	0.08619048
176	0x3c01f55f	0.007932036
177	0xbd106390	-0.0352512
178	0xbd717736	-0.05895158
179	0xbe001128	-0.12506545
180	0xbd1a46b6	-0.03766509
181	0x3dd0e2c4	0.10199502
182	0x3dc655e2	0.096843496
183	0xbdbda6de	-0.09260343
184	0xbd842215	-0.06451813
185	0x3d6b1d78	0.05740115
186	0xbe16731f	-0.14692353
187	0x3e135850	0.14389157
188	0xbc12460f	-0.008927836
189	0xbe0c5e88	-0.13707936
190	0xbc2e21eb	-0.010628204
191	0x3bd5d218	0.0065252893
192	0xbc9052b4	-0.01761756
193	0xbd55029b	-0.052004438
194	0x3c0efe21	0.008727581
195	0xbc9b2094	-0.018936433
196	0x3da0ccfd	0.078515984
197	0xbd05f563	-0.032704722
198	0xbcaa48be	-0.02078664
199	0x3d08d115	0.03340252
200	0x3ccb6985	0.02483059
201	0x3d84d3ff	0.064857475
202	0x3bfb0b22	0.0076612392
203	0xbbbc78ab	-0.0057516894
204	0x3dc25662	0.094891325
205	0xbd5f1866	-0.054466628
206	0x3dabc426	0.08387022
207	0xbd97ef74	-0.07418719
208	0x3dc6631d	0.09686873
209	0x3dfb2d93	0.12264552
210	0x3ce753c0	0.028238177
211	0xbd81d03a	-0.06338544
212	0xbd01b267	-0.03166428
213	0xbd355db2	-0.044278808
214	0x3b99b2a3	0.0046904846
215	0x3de08bd1	0.10964168
216	0x3d626f76	0.05528208
217	0xbd7168ca	-0.058937825
218	0x3dae8600	0.08521652
219	0x3d3f7e5a	0.046751358
220	0xbd1838af	-0.037163433
221	0xbd75c06e	-0.05999797
222	0x3d871304	0.06595424
223	0xbd966ac3	-0.07344582
224	0x3d742f10	0.059615195
225	0x3d9e0b0d	0.077169515
226	0xbd964847	-0.073380046
227	0xbcdbb3fd	-0.026819224
228	0xbdac50d3	-0.084138535
229	0x3d8e458b	0.06946858
230	0x3c6ecea9	0.014575639
231	0x3ccb6ee3	0.024833148
232	0xbd9eb02c	-0.07748446
233	0x3d1871e4	0.03721799
234	0xbd4fbd7a	-0.05071781
235	0x3d515f1f	0.051116105
236	0xbd227770	-0.039664686
237	0xbba38d2b	-0.004991194
238	0xbd6b430f	-0.057437
239	0x3d8c36e8	0.0684641
240	0x3dcf1d7d	0.10113046
241	0x3d80ebf9	0.06295008
242	0xbcf2c6bb	-0.029635778
243	0xbdaf1b67	-0.085501485
244	0x3de7f556	0.11326091
245	0x3d63b6c5	0.055594224
246	0x3d972d44	0.073816806
247	0x3d7de73f	0.06198811
248	0x3d4eb2d8	0.050463527
249	0xbe0a739e	-0.13520667
250	0x3d36002f	0.04443377
251	0x3b7112a8	0.0036784802
252	0x3db7b10a	0.089693144
253	0xbd2c88f4	-0.042122796
254	0x3d035617	0.032064524
255	0x3e174734	0.14773256

bias f4 [10]
0	0x3cc922a5	0.024552653
1	0xbd8316e4	-0.064008504
2	0x3c8cdc00	0.017194748
3	0xbe45d7ef	-0.19320653
4	0x3c83d022	0.016090456
5	0xbc5b8be2	-0.01340005
6	0x3d4b729c	0.049669847
7	0xbcb081de	-0.0215463
8	0x3df9f85c	0.12205574
9	0x3bb6113c	0.0055562537

weight f4 [2, 10]
0	0x3f123977	0.57118934
1	0x3f0fdf36	0.5619997
2	0xbea654bd	-0.32486525
3	0x3e91119e	0.28333753
4	0xbcac4c55	-0.021032492
5	0xbdd41b98	-0.103568256
6	0xbecbdcf0	-0.39817
7	0xbf12e726	-0.57383955
8	0xbeabec32	-0.3357864
9	0xbf129e9c	-0.5727327
10	0x3f2bb9ed	0.67080575
11	0xbf025f5e	-0.5092677
12	0xbf11dbf4	-0.56976247
13	0xbf22f087	-0.63648266
14	0x3e03d52d	0.12874289
15	0x3e97a7a3	0.29620084
16	0xbeefc2ef	-0.4682841
17	0x3f18ef42	0.5974008
18	0x3e319ada	0.17344227
19	0xbe56f8bf	-0.20993327

bias f4 [2]
0	0x3e082cf4	0.13298398
1	0xbe144c75	-0.14482291

weight f4 [2, 10]
0	0xbf3304e2	-0.69929326
1	0x3e7a0362	0.24415353
2	0x3def2878	0.11677641
3	0xbed59b99	-0.41720274
4	0xbed15d26	-0.4089138
5	0xbf25d7a1	-0.6478215
6	0xbe4baeaf	-0.19890855
7	0x3f04b19b	0.51833504
8	0xbe3ceec1	-0.18450452
9	0xbf0a5c02	-0.5404664
10	0xbefbcea1	-0.49181083
11	0x3ea945ba	0.3306101
12	0x3d096361	0.03354204
13	0xbe9d1992	-0.3068357
14	0x3f16a267	0.58841556
15	0xbeff2429	-0.49832276
16	0x3ee48aba	0.4463709
17	0xbf0210d5	-0.50806934
18	0xbb505420	-0.0031788424
19	0xbe268411	-0.16261317

bias f4 [2]
0	0xbc0c161a	-0.008550191
1	0xbd9a84ce	-0.07544862

weight f4 [5, 2]
0	0x3ef9113d	0.48645964
1	0x3f11df4f	0.56981367
2	0x3e6f5df1	0.2337568
3	0xbea69902	-0.3253861
4	0xbf2c7bae	-0.6737622
5	0x3f15ed7e	0.5856551
6	0xbd10289d	-0.03519498
7	0x3d98e41a	0.07465382
8	0x3e01ec33	0.12687759
9	0x3c11e10c	0.008903753

bias f4 [5]
0	0x3e913177	0.2835805
1	0xbf10828a	-0.56449187
2	0xbf19f554	-0.60139966
3	0xbf001af8	-0.5004115
4	0x3e978542	0.29593855

weight f4 [2, 5]
0	0x3de3ef03	0.11129572
1	0x3e8ac6ac	0.271047
2	0x3dfc4edf	0.12319731
3	0xbe1e932a	-0.15485826
4	0xbe43e455	-0.1913007
5	0xbd89d490	-0.06729996
6	0xbe1316f7	-0.14364229
7	0x3ecf52e4	0.40492928
8	0xbe8c1ee3	-0.27367315
9	0x3ec61cee	0.38693947

bias f4 [2]
0	0x3d94b7ed	0.072616436
1	0x3e5e33ca	0.21699443

latent_mean f4 [10, 2]
0	0x3c718b38	0.014742665
1	0xbb230fc0	-0.0024881214
2	0xbb9fd120	-0.0048772246
3	0xbb6041c0	-0.0034218878
4	0x3be38160	0.006942913
5	0xbb7bbfc0	-0.0038413852
6	0x3b92c1e0	0.004478678
7	0x3ac58780	0.0015070289
8	0xbbca8740	-0.006180674
9	0x3b8fcbe0	0.0043883175
10	0xbb281f00	-0.0025653243
11	0x3a743900	0.0009316355
12	0x3b6de340	0.0036298782
13	0x3bb5ca80	0.0055478215
14	0x3b676780	0.0035309494
15	0xbc80dcd8	-0.015730307
16	0x3c15fd00	0.009154558
17	0x3ae76a00	0.0017655492
18	0x3bf2eae0	0.007413253
19	0x3b9a7d20	0.004714623

latent_logvar f4 [10, 2]
0	0x3c41644e	0.0118037
1	0x3bc53530	0.0060183033
2	0x3c2c0f56	0.010501703
3	0x3bd3f850	0.00646881
4	0x3b8e1f2c	0.004337212
5	0x3b669d20	0.0035188869
6	0x3b02a768	0.0019936208
7	0xba909680	-0.0011031181
8	0xba7bc860	-0.00096047483
9	0xbc113d88	-0.008864768
10	0xba48b8e0	-0.0007656943
11	0xba8fde40	-0.001097627
12	0x3b9bcf2c	0.0047549214
13	0xba9a8cc0	-0.0011791214
14	0xbc3ec82e	-0.011644406
15	0xbb13e3a0	-0.0022566095
16	0xbbecdfe4	-0.0072288383
17	0xbc5bb2e0	-0.013409346
18	0xbc429a2a	-0.011877576
19	0xbc57f8b8	-0.013181858

log_std f4 [2]
0	0xbf10df6f	-0.5659093
1	0xbefccc77	-0.49374744

weight f4 [10, 62]
0	0xbd1d5d3f	-0.038419005
1	0xbcb15601	-0.021647455
2	0x3dab6d52	0.083704606
3	0x3c5777d1	0.013151125
4	0x3d8f6fec	0.07003769
5	0x3da19bac	0.0789102
6	0x3ddc7568	0.10764581
7	0xbcb879d4	-0.02251903
8	0x3cc10650	0.02356258
9	0xbd453347	-0.048144605
10	0x3d2eeec5	0.042708177
11	0x3c57e267	0.013176537
12	0xbcfb155f	-0.030649839
13	0x3df61c01	0.1201706
14	0xbd113d27	-0.03545871
15	0xbcd2b448	-0.02572073
16	0x3d817eeb	0.06323036
17	0x3d41a1a0	0.04727328
18	0xbd1d7e99	-0.03845081
19	0x3ca8ac33	0.020589923
20	0xbdfcaf4a	-0.12338121
21	0xbdb43bf7	-0.088005
22	0x3dae2b6e	0.08504377
23	0x3e113389	0.14179815
24	0xbd21510a	-0.039383925
25	0x3dc4c2be	0.096074566
26	0xbd6772ed	-0.056506086
27	0x3d9e2582	0.07721998
28	0x3c4ccc4f	0.012499883
29	0x3c230c7c	0.009951707
30	0x3de3f387	0.111304335
31	0xbdafa5e2	-0.085765615
32	0x3e3aad19	0.18230094
33	0x3e3b3b7b	0.18284409
34	0xbce1c307	-0.027558817
35	0x3d88edc2	0.06685974
36	0x3dacf931	0.08445967
37	0x3d506395	0.05087622
38	0x3cc5e274	0.024155833
39	0x3acc1d66	0.0015572726
40	0x3ce73c89	0.028227108
41	0x3c34eac0	0.011042297
42	0x3dde0f76	0.10842793
43	0xbd8bc4da	-0.06824656
44	0xbdc19d12	-0.09453787
45	0x3df35cfd	0.118829705
46	0x3e13537c	0.14387316
47	0xbd355a37	-0.04427549
48	0xbd698420	-0.05701077
49	0x3db994d7	0.09061592
50	0x3ddc2fef	0.1075133
51	0x3d2a2145	0.041535635
52	0x3d4dffb8	0.0502927
53	0xbc937f71	-0.018005105
54	0x3d671462	0.056415923
55	0x3dddb7d9	0.10826082
56	0x3cafb3eb	0.021448096
57	0x3d72f725	0.059317727
58	0xbc92f8f5	-0.017940978
59	0x3df29e24	0.11846569
60	0xbd2104af	-0.039311107
61	0xbc59abe2	-0.013285609
62	0x3de4750b	0.11155137
63	0x3c8eceae	0.017432537
64	0xbdfab184	-0.1224089
65	0xbc1d5561	-0.009602875
66	0xbddbb455	-0.10727755
67	0x3e02ea21	0.12784626
68	0xbc95060b	-0.018191358
69	0x3da08f66	0.07839851
70	0xbd0965ed	-0.03354447
71	0xbe336905	-0.1752053
72	0x3cb65fb9	0.022262441
73	0xbe1a4a9d	-0.15067525
74	0x3c62ae5f	0.013835519
75	0x3dc35863	0.09538343
76	0xbd3cc911	-0.04609019
77	0x3d627b6c	0.055293486
78	0x3d2b0460	0.04175222
79	0xbdd2d261	-0.10294033
80	0xbcf39b58	-0.02973716
81	0xbd46ed11	-0.048565928
82	0xbd9e7ae9	-0.07738287
83	0x3db42dbc	0.08797786
84	0x3d844d34	0.06460038
85	0x3cedc86f	0.029026238
86	0xbcec41ed	-0.02884003
87	0xbdca7509	-0.09885604
88	0x3d7c9ce0	0.061673045
89	0x3dd18872	0.10231103
90	0x3db95e4b	0.09051188
91	0x3d9a9095	0.07547108
92	0x3ba14443	0.0049214675
93	0x3dc78799	0.0974266
94	0xbd6d6997	-0.057962026
95	0xbdbad43e	-0.09122513
96	0x3d006e98	0.03135547
97	0xbd14fb2c	-0.03637235
98	0xbdb301ff	-0.08740615
99	0xbdac4e3c	-0.084133595
100	0xbc9b1b61	-0.018933954
101	0xbbebd147	-0.0071965787
102	0xbba7c6ae	-0.00512012
103	0x3c49f010	0.012325302
104	0x3d8d1fdf	0.068908446
105	0x3bd84344	0.0065998156
106	0xbd5254e2	-0.05135048
107	0xbd2fce34	-0.04292126
108	0x3daa6f83	0.083220504
109	0x3dbe6015	0.0929567
110	0xbc339492	-0.010960715
111	0xbd94cdd2	-0.072658196
112	0xbc003158	-0.0078242645
113	0x3d6db1ce	0.058030896
114	0xbd79e8ca	-0.06101302
115	0x3d776995	0.060403425
116	0x3c0d4d1d	0.008624342
117	0x3cbd3ea0	0.023101151
118	0xbe092d7a	-0.13396254
119	0xbd404c91	-0.04694802
120	0x3b885681	0.0041607027
121	0xbd4eb655	-0.050466854
122	0xbd8c970a	-0.06864746
123	0xbe03a7ff	-0.12857054
124	0xbcc73b62	-0.024320308
125	0xbd218182	-0.03943015
126	0xbd8b2401	-0.067939766
127	0xbe423ca1	-0.1896844
128	0xbddb3eaa	-0.107053116
129	0xbda5b781	-0.08091641
130	0xbcede92b	-0.029041847
131	0xbe154d28	-0.14580214
132	0xbdd8fee4	-0.105954915
133	0xbcda33ff	-0.026636122
134	0xbdeac6f5	-0.11463729
135	0x3d43ce91	0.04780442
136	0x3c8162bb	0.015794149
137	0x3cfd40b7	0.030914648
138	0xbd21ef98	-0.039535135
139	0x3d45bc18	0.048275083
140	0xbd8f414d	-0.06994877
141	0xbcd4d1c7	-0.025978936
142	0xbd8706ba	-0.0659308
143	0xbc70f416	-0.014706632
144	0xbbd79220	-0.0065786988
145	0x3d6a00c2	0.05712963
146	0xbdffd470	-0.12491691
147	0xbd639b05	-0.05556776
148	0xbd5059bb	-0.050866824
149	0xbbaafad1	-0.005217888
150	0xbd66d799	-0.056357954
151	0xbd1bc2d0	-0.038027585
152	0xbdd5b783	-0.10435393
153	0xbd3fc081	-0.046814445
154	0xbd0da53d	-0.03458141
155	0xbd62e698	-0.055395693
156	0xbc692408	-0.014229782
157	0xbe462eee	-0.1935384
158	0x3d20870f	0.039191302
159	0xbdf67783	-0.12034514
160	0xbe49d6f3	-0.19710903
161	0xbcccc43c	-0.024995916
162	0x3c130232	0.008972691
163	0x3d8b9583	0.068156265
164	0xbc4cc9b7	-0.012499264
165	0xbe374bbd	-0.17899986
166	0xbd9dcc10	-0.077049375
167	0xbcd0f2ee	-0.025506463
168	0xbe04636a	-0.12928548
169	0x3d2123d9	0.039340828
170	0x3c3584b8	0.011079006
171	0xbda5256a	-0.08063777
172	0x3d8d0330	0.068853736
173	0xbe2119d4	-0.15732509
174	0x3d89fb73	0.06737413
175	0x3cb47e13	0.022032773
176	0xb9feb3ab	-0.00048580518
177	0xbd02f1c6	-0.031968854
178	0xbe07967a	-0.13240996
179	0xbd5fb56a	-0.05461637
180	0xbbca71fb	-0.0061781383
181	0xbd416f68	-0.047225386
182	0xbdc4c6d8	-0.09608239
183	0x3dafb03d	0.08578537
184	0xbdba771f	-0.09104752
185	0xbd99d4d4	-0.07511297
186	0xbdcee7a8	-0.10102779
187	0x3c3a9e58	0.011390291
188	0xbdaaec7d	-0.08345888
189	0xbd6b9773	-0.05751748
190	0xbe05e6b3	-0.13076286
191	0xbcdc8dad	-0.026923025
192	0xbdd8a512	-0.1057836
193	0x3cc2cfaf	0.023780672
194	0xbde9cd50	-0.114161134
195	0xbc8b7645	-0.017024169
196	0xbe3366ac	-0.17519635
197	0xbe30b6b6	-0.17257199
198	0xbd9fe6e2	-0.07807709
199	0xbdbc3b75	-0.09191028
200	0xbc94a455	-0.018144766
201	0xbdded080	-0.10879612
202	0x3d8de32d	0.06928096
203	0x3c3b387e	0.011427043
204	0xbe05c8fc	-0.1306495
205	0x3cf006d2	0.029300127
206	0x3d17348b	0.036915343
207	0xbdb0b224	-0.08627728
208	0xbd40fbc8	-0.047115117
209	0x3d229249	0.03969029
210	0xbdc9cd6f	-0.098536365
211	0xbddc777b	-0.107649766
212	0xbe32a246	-0.17444715
213	0xbe06b215	-0.1315387
214	0x3d4c3975	0.049859483
215	0xbe06bfba	-0.13159075
216	0xbdf3c4b6	-0.11902754
217	0x3c4c9cd1	0.01248856
218	0xbe2eaeb0	-0.17058825
219	0xbd85f1b9	-0.065402456
220	0x3ab3224c	0.0013666837
221	0xbdf8f282	-0.1215563
222	0xbe31ec89	-0.17375387
223	0xba64d963	-0.0008729903
224	0xbd9148d2	-0.070939675
225	0x3d784eec	0.06062214
226	0x3b590fe3	0.0033121041
227	0xbb948296	-0.0045321686
228	0x3d474e00	0.04865837
229	0xbd5b2197	-0.05349883
230	0xbe15021a	-0.14551583
231	0x3d13720c	0.035997435
232	0x3d575aba	0.052576758
233	0xbc6a0430	-0.014283225
234	0x3dad6edc	0.084684104
235	0xbd85ccfe	-0.0653324
236	0xbe1ccd46	-0.1531268
237	0x3cf27080	0.02959466
238	0xbdc81fbc	-0.09771678
239	0xbdb1718c	-0.086642355
240	0xbda5f6d3	-0.081037186
241	0xbd552f96	-0.052047335
242	0xbdeb42d6	-0.11487357
243	0xbd982c76	-0.07430355
244	0xbdabd97f	-0.083910935
245	0xbdd34875	-0.103165545
246	0xbdedc2b7	-0.116094045
247	0xbdeb355e	-0.11484788
248	0x3daa168c	0.08305082
249	0xbc254595	-0.01008739
250	0xbdbde7ec	-0.09272751
251	0xbe1a5603	-0.15071873
252	0xbd7adb4f	-0.061244305
253	0xbe041c19	-0.12901343
254	0x3db96dfb	0.0905418
255	0xbdab6abd	-0.08369968

bias f4 [10]
0	0x3df68a09	0.12038047
1	0xbc2eb6a5	-0.010663663
2	0xbb701305	-0.003663243
3	0x3a862ad5	0.0010236154
4	0xbe320717	-0.17385517
5	0x3c94148a	0.0180762
6	0x3e37eaa3	0.179606
7	0x3dfadd0c	0.122491926
8	0xbcf4e344	-0.029893525
9	0xbc61ebfc	-0.013789173

weight f4 [10, 10]
0	0x3e3060a6	0.17224368
1	0x3e4300ed	0.19043322
2	0x3e3b951a	0.18318596
3	0x3eca627f	0.39528272
4	0x3e95eff3	0.2928463
5	0x3ecee60b	0.40409884
6	0xbe492a71	-0.19645096
7	0xbe8016f0	-0.250175
8	0xbe29ef6d	-0.1659524
9	0x3e0e1228	0.13874114
10	0xbc52ad62	-0.0128587205
11	0x3d1d156d	0.03835051
12	0xbe46497e	-0.19363973
13	0xbe18de66	-0.14928588
14	0xbe536de2	-0.20647386
15	0x3e46b57a	0.19405165
16	0x3eda9609	0.42692593
17	0x3e117e1b	0.14208262
18	0xbe44888d	-0.19192715
19	0x3d88a394	0.06671825
20	0x3e9432ac	0.2894491
21	0xbe2e3342	-0.17011741
22	0xbe4631cd	-0.19354935
23	0x3d176fef	0.036971983
24	0xbea65db8	-0.32493377
25	0xbc92e6b9	-0.017932283
26	0xbe59680e	-0.212311
27	0xbe4e11a8	-0.20123923
28	0x3cd4b796	0.025966447
29	0xbe152e4b	-0.1456844
30	0xbe08c859	-0.13357677
31	0x3e0f9570	0.1402185
32	0x3dfa7390	0.12229073
33	0xbe954825	-0.29156604
34	0xbe8d8733	-0.2764221
35	0x3da303c8	0.079597056
36	0x3e3db43a	0.18525782
37	0x3ed376d2	0.4130159
38	0x3d43f173	0.047837686
39	0x3d9028ab	0.07039007
40	0x3ec63364	0.38711083
41	0xbe2984e3	-0.16554599
42	0x3d859852	0.065231934
43	0xbe4e4169	-0.2014214
44	0xbeb7dc29	-0.35910156
45	0xbdc4b357	-0.09604519
46	0xbe2ce6e3	-0.16884951
47	0x3ecad063	0.3961211
48	0x3db29e1d	0.08721564
49	0x3bf71de3	0.0075414046
50	0x3de8a4f8	0.1135959
51	0xbdc55e04	-0.09637073
52	0xbea0d866	-0.314151
53	0xbe22e4e7	-0.15907632
54	0xbe80b427	-0.25137445
55	0xbeb82150	-0.35962915
56	0x3ea225f9	0.31669596
57	0xbc9abdcf	-0.018889336
58	0x3e11c006	0.14233407
59	0x3e098d30	0.13432765
60	0x3e9aa7ef	0.30206248
61	0xbe53e769	-0.20693745
62	0xbde5786b	-0.112046085
63	0xbdee6e03	-0.11642077
64	0xbe61ac38	-0.22038352
65	0xbd89f0df	-0.06735396
66	0xbe3001e9	-0.17188229
67	0x3d6c9832	0.057762332
68	0xbe72d620	-0.23714495
69	0xbe2c3659	-0.16817607
70	0xbe590f23	-0.2119718
71	0x3e772f5a	0.24139157
72	0x3e6ab841	0.2292185
73	0x3e935c0e	0.2878117
74	0x3e75b039	0.23993005
75	0x3e0e158b	0.13875405
76	0xbe5b4bfc	-0.21415704
77	0xbe0a1b02	-0.13486865
78	0xbe78248e	-0.24232695
79	0x3e3b59c0	0.18295956
80	0x3e8ddbfb	0.27706894
81	0x3df4e21a	0.11957188
82	0xbe1907ca	-0.14944378
83	0xbdd0f58f	-0.102030866
84	0xbeae7f48	-0.34081483
85	0xbe438af1	-0.1909597
86	0xbd11ef99	-0.03562889
87	0x3e360674	0.17775899
88	0x3e0264d4	0.12733775
89	0x3e44aba2	0.19206098
90	0xbe3a566c	-0.1819703
91	0xbec5dabb	-0.3864344
92	0xbe7b7779	-0.24557294
93	0x3d21bf50	0.03948909
94	0xbe38eaf6	-0.1805838
95	0xbec08606	-0.37602252
96	0x3e99e788	0.30059457
97	0x3d4d25a9	0.050084744
98	0x3df63288	0.12021357
99	0xbe26dbaa	-0.16294733

bias f4 [10]
0	0xbd43d9b3	-0.047815036
1	0x3ea927f4	0.33038294
2	0x3e96a87d	0.2942542
3	0xbe42c55f	-0.19020604
4	0x3e5f43e9	0.2180325
5	0x3e630c07	0.22172557
6	0xbcbd2fbf	-0.023094056
7	0xbebb06aa	-0.36528522
8	0x3e199aa9	0.15000404
9	0x3d842d56	0.0645396

weight f4 [2, 10]
0	0xbe2a560d	-0.16634388
1	0x3e9bb0d9	0.30408362
2	0x3e745b8a	0.23863044
3	0x3e58ab7f	0.2115917
4	0x3ecdee91	0.40221074
5	0x3e24166d	0.1602418
6	0x3ec65b08	0.38741326
7	0xbebb3d74	-0.36570323
8	0x3e511dbb	0.20421498
9	0x3ed63c14	0.4184271
10	0xbe360de6	-0.1777874
11	0x3ec8f5b9	0.39249972
12	0xbe2eb805	-0.17062385
13	0x3e7551cc	0.23956984
14	0x3e9720de	0.29517263
15	0x3e159b0d	0.14609928
16	0xbdcfb96d	-0.10142789
17	0xbea624c9	-0.3244994
18	0x3e9a917a	0.30189115
19	0x3caefe8a	0.021361608

bias f4 [2]
0	0x3ea55898	0.32294154
1	0x3eb3f8c6	0.35150737
