data/vanilla-valor-expts/vanilla-valor-expts_s0/pyt_save/model.pt (torch, 462418 bytes, 26 tensors)

weight f4 [100, 60]
000000 2b 68 c4 3c f2 9f 97 bb f7 65 83 bd 27 61 f5 3d
       0.023975452 -0.0046272213 -0.064159326 0.11981421
000010 21 5a 59 3c df 4e 37 3d 3d da 05 3e b1 a3 d0 bb
       0.013266117 0.04475295 0.13071533 -0.00636717
000020 54 07 8b bd 9f 6e 3b be 34 0a 88 3d 3a c4 69 bd
       -0.06788507 -0.18303917 0.06642571 -0.0570719
000030 ee 1d 38 3d 4e 09 af 3b 9d 4e 94 3e 08 05 1f 3e
       0.04495042 0.0053416854 0.28966227 0.15529263
000040 8f b1 93 3b cf 9c 23 bd dd f5 8e bd 3d ee 76 3d
       0.0045072506 -0.039944466 -0.069804884 0.060285795
000050 b5 58 db bc fd 76 a5 3b 86 9a 24 3e 03 99 52 bd
       -0.026775697 0.005049585 0.16074571 -0.051415455
000060 66 2d b5 3d e1 01 fc bd 79 c7 e9 bd 45 26 a0 bc
       0.0884655 -0.12305046 -0.114149995 -0.019549498
000070 cb e1 68 bc d3 78 18 3d 1c b9 1f be 08 ed 2a 3e
       -0.0142139895 0.037224602 -0.15597957 0.16691983
000080 ea b6 35 bd 40 10 4d 3e b4 75 f5 bc f3 2a 32 be
       -0.044363894 0.2002573 -0.029963352 -0.17399196
000090 a2 e3 2c 3e 0b 45 07 3e 1f bf 89 bd eb aa 18 3e
       0.1688371 0.13209932 -0.067259066 0.1490895
0000a0 b5 ec 9e bd 45 d9 ae bd 42 f0 13 be 38 b5 3b bc
       -0.07759992 -0.085375346 -0.1444712 -0.01145678
0000b0 3e f4 71 3d 89 7b 6d 3d 87 13 89 bd 10 dd 5e bd
       0.059070818 0.05797914 -0.06693178 -0.05441004
0000c0 c4 5e f7 3d 04 31 b9 3d f3 c0 80 bc 4d 0f 66 3d
       0.12078622 0.09042552 -0.015717005 0.056166936
0000d0 e5 d1 19 3e 0a 90 19 bd 55 6d 9d bc 01 40 6d bc
       0.15021475 -0.037490882 -0.019217173 -0.014480592
0000e0 4f 49 34 be 65 f1 08 bd ef 80 18 3d 2e f9 02 3e
       -0.1760609 -0.033433337 0.037232336 0.12790367
0000f0 8c 89 1d 3e c0 54 fd bc 92 5a d5 3d 61 a0 cf bd
       0.15384501 -0.030924201 0.104176655 -0.10138012
000100 48 38 9d bd be e4 e6 bd 54 a6 f5 3c 2e ad 25 3c
       -0.076767504 -0.11274098 0.029986538 0.01011209
000110 d5 42 5b 3e 8e 15 4f bd dd 13 cf bd 9c 0a 3d bd
       0.21412213 -0.050557666 -0.101112105 -0.046152696
000120 51 29 f8 bd 41 86 ce bd ee 8a 3d 3e 4a 20 11 3e
       -0.121172555 -0.10084201 0.18510029 0.14172474
000130 e3 60 26 3e 2e fc 8f 3c 5a 2a f5 3d 08 83 79 3d
       0.16247897 0.017576303 0.119709685 0.060915977
000140 62 66 01 3d f0 f4 0a 3d a8 46 ba bd 0f 71 1c 3d
       0.03159178 0.033924997 -0.09095508 0.03819376
000150 01 27 20 3e 9e 2f 2a 3d 3f e6 e5 3d 7f 76 60 3d
       0.15639879 0.041549318 0.112255566 0.054800507
000160 ce ff 11 bd c3 3e 2e be 2a ea eb bd 2a 51 58 3e
       -0.035644345 -0.17016129 -0.115192726 0.21124712
000170 5b b3 3b bd 5c fd 64 3d e0 a1 20 be 6f db 50 be
       -0.045825344 0.055905685 -0.1568675 -0.20396207
000180 12 85 15 3d 31 7d 1d 3d 01 cb 09 3d 46 75 b5 3d
       0.03650386 0.03844947 0.033640865 0.08860259
000190 ea 46 be 3d 21 02 ec bc 9f ba 34 3e 29 79 46 3d
       0.092908695 -0.028809609 0.17649315 0.04845539
0001a0 2f d9 ee bd aa bc aa bc 9a 60 fa 3c 28 39 b9 bd
       -0.11662518 -0.020841915 0.030563641 -0.09044105
0001b0 84 de 20 be 01 65 4f bc d2 2b 66 3d 74 97 10 3e
       -0.15709883 -0.012658359 0.056194134 0.14120275
0001c0 1e 2a e9 bd 65 08 5b be d0 2c c4 3d ea 65 8f 3e
       -0.11384986 -0.21389921 0.0957886 0.28007442
0001d0 bb cd 80 bd cc b8 38 3e b5 6a 88 bd 0a 36 97 3d
       -0.0628924 0.18039244 -0.06660978 0.07383354
0001e0 1b 56 cd 3d 97 aa cb 39 34 23 af 3c 64 8c 76 bc
       0.10026189 0.00038846277 0.02137909 -0.01504812
0001f0 5d 81 77 3e df f0 b4 3d 37 f5 0c bd 09 16 8f 3e
       0.24170442 0.08835005 -0.034413543 0.279465
000200 f8 77 13 be 8f a5 93 3b 0f 21 80 bc 53 ef 0a 3d
       -0.14401233 0.00450582 -0.015640764 0.033919644
000210 71 8c 64 3c 33 0c 65 3d 05 20 dd bd ed a9 a1 bb
       0.013949499 0.055919837 -0.10797123 -0.004933587
000220 16 ae f5 bd ec 16 ec bd cd 72 d8 3c 45 ac c5 bc
       -0.11996095 -0.115278095 0.026421929 -0.024129996
000230 e5 f9 d3 3d b1 1b 9a bc fb ff d9 bc e7 bf c1 3b
       0.10350398 -0.018812032 -0.026611319 0.005912769
000240 5f 99 ca bd df de 50 3b cb b9 65 3d c6 44 bb 3d
       -0.098925345 0.0031871123 0.05608539 0.09143977
000250 0f 18 95 3d 98 2e 66 3d c2 ce 0d be 36 cc e8 bc
       0.072799794 0.05619678 -0.13848403 -0.028417688
000260 56 36 23 3c 21 db 9c 3d 34 b8 f8 bc fa e5 24 be
       0.009961685 0.07658983 -0.030361272 -0.16103354
000270 12 b6 32 be c5 d0 63 3c 22 3f 89 3c 48 c7 3a 3d
       -0.17452267 0.013904755 0.016753737 0.045600206
000280 b3 5e 41 3d 2f 0e 1c bb 58 0f 87 be 36 ab cd 3d
       0.047209453 -0.0023812165 -0.26378894 0.100424215
000290 e7 f1 3f bd 28 f4 c6 bd 6d f8 d1 bd ac 52 ee 3d
       -0.046861555 -0.09714538 -0.102524616 0.11636862
0002a0 42 bc dd 3d 47 cc d2 bd 2b 35 b8 3d d8 07 08 bd
       0.10826923 -0.10292869 0.08994516 -0.033210605
0002b0 0d 48 b0 3d 41 3b 09 bc f3 25 b1 bd bc 0d 26 3d
       0.086074926 -0.008375944 -0.08649816 0.040540442
0002c0 82 d3 27 bc 9b ef d2 3c fc 52 02 be 28 11 00 be
       -0.0102432985 0.025749018 -0.12726969 -0.12506545
0002d0 5c 1f 1d b9 c1 57 cb 3b e2 55 c6 3d e4 be 49 bc
       -0.00014984369 0.0062055294 0.096843496 -0.012313578
0002e0 be 32 1f 3c 88 73 d8 3c 19 69 95 bd 33 03 4e 3e
       0.009716688 0.026422277 -0.072954364 0.20118408
0002f0 21 fa 4f 3d 01 f8 11 bc 1d ab 2a bc 71 13 c5 bd
       0.05077565 -0.008909226 -0.010416773 -0.09622849
000300 01 a2 05 be 16 1e 16 bd 80 b1 3b 3e 9a 45 4e bd
       -0.13050081 -0.036649786 0.1832943 -0.050359346
000310 08 2a c1 bc 28 44 0d be f1 6b c5 ba 15 d1 08 3d
       -0.023579612 -0.13795531 -0.0015062076 0.03340252
000320 85 69 cb 3c 3f 1c f0 3b fc d0 c9 3d b6 09 83 3d
       0.02483059 0.007327586 0.09854314 0.063983366
000330 46 9e 10 3d 9f ce 0f bd 23 94 91 3d e7 da 02 be
       0.03530719 -0.03510916 0.07108333 -0.12778817
000340 d8 3c c5 3d 4c 10 7c 3d 9b ea 80 3b 78 09 5d 3d
       0.09630746 0.06153898 0.003934217 0.05396411
000350 d8 da 90 bd 88 bf a1 bc f2 d8 3b bd 8e 56 2a 3d
       -0.07072991 -0.01974465 -0.045861192 0.04158645
000360 e6 21 f4 3d c1 ba 1b bd 34 94 d6 3d e7 0e a7 3d
       0.11920528 -0.0380199 0.10477486 0.08157139
000370 af 38 18 bd 91 71 e2 bc 8a 28 a7 3d 0d 46 80 bd
       -0.037163433 -0.027642043 0.08162029 -0.06263361
000380 3e 05 97 3d 3b ca 62 3d 96 1c 9b bd ef 68 3c 3c
       0.07374047 0.055368643 -0.07573812 0.0114996275
000390 b5 93 38 bd 17 9b a7 3c 1d 69 c5 3d 9f 05 52 3e
       -0.04506274 0.020459695 0.096391894 0.20509957
0003a0 5b 5a 8c bd 08 65 a5 bd d4 97 10 be 17 fd 30 3d
       -0.068531714 -0.08075911 -0.14120418 0.043210115
0003b0 f0 3a 59 bd d9 a8 07 3d 65 b8 95 3c e8 36 8c 3d
       -0.053034723 0.03312001 0.018276403 0.0684641
0003c0 f9 a7 20 3d 3d bc 30 3a bb c6 f2 bc 34 9c 2f bd
       0.03922269 0.0006741917 -0.029635778 -0.042873576
0003d0 9d 7e b1 3d 60 8a f8 bc 58 ae d8 3d e2 b0 9b 3d
       0.08666728 -0.03033942 0.105801284 0.07602097
0003e0 d9 ce 3c 3d 80 03 99 bd 55 03 e0 3b b9 5d cf 3b
       0.046095703 -0.07471371 0.0068363347 0.0063283113
0003f0 a5 58 1b 3e 0d 21 cf bd d0 9c 8e 3d ef e9 15 3e
       0.15170534 -0.10113726 0.06963503 0.1464002

bias f4 [100]
000000 56 0d 81 3d 2c e6 1f be b7 bf 14 3c e4 7a 53 3c
       0.06301372 -0.15615147 0.0090789115 0.012907717
000010 68 10 bf bd 9b 2a d4 3d cd 9b a4 3d d5 cf b5 bd
       -0.09329301 0.10359689 0.08037529 -0.088775314
000020 fb 24 b0 bd ba 0b 35 3d 6c dc af bd 49 5f 66 3d
       -0.086008035 0.044200636 -0.08586964 0.056243215
000030 e3 3c 12 3d fb 19 d8 bd bd 98 e9 bd 82 c9 a8 3c
       0.035702597 -0.105518304 -0.11406086 0.020603899
000040 ea f0 51 3d 4d c7 bc bd ac 5f 1e be 81 6b d3 3d
       0.051255144 -0.09217701 -0.15466183 0.10323239
000050 be b3 00 3b 03 16 9b 3d 4f dc 06 be ff 2e 92 bd
       0.0019638385 0.07572558 -0.13169979 -0.0713787
000060 ef d8 cc bd 44 2e 34 3d f4 19 a5 bd 4d 18 91 3a
       -0.10002314 0.043989435 -0.08061591 0.0011069864
000070 e5 57 85 3d 7b f4 04 be 07 fd ba bd a9 35 80 3d
       0.06510905 -0.12983887 -0.091302924 0.06260235
000080 fa 8a f3 bd 90 d9 b1 3d 94 49 a9 3d c3 14 93 bd
       -0.11891742 0.08684075 0.08265987 -0.07181694
000090 22 55 96 3c df fd da 3c 8f 61 b7 3d 19 6a 2f 3c
       0.018351141 0.026732383 0.08954155 0.010706448
0000a0 1c fd 55 3d 91 34 72 3d 35 31 11 be 0b bd 64 bb
       0.052243337 0.059132162 -0.14178927 -0.0034902717
0000b0 5b 84 03 be ce 4a a4 bd 6e 09 ef bd 09 70 d4 39
       -0.12843458 -0.0802208 -0.116717204 0.00040519264
0000c0 d5 7d 00 be fb 27 bb 3d 53 6d 91 bd 50 da 1e 3d
       -0.12548001 0.09138485 -0.0710093 0.038782418
0000d0 1c 78 3d 3d fe fd a9 b9 ac 0f 3f 3d 2c d9 4c 3d
       0.046257123 -0.0003242343 0.046645805 0.0500118
0000e0 7e 64 2b bc de da eb 3a 44 a3 96 bd 89 e2 98 bd
       -0.010460971 0.0017994305 -0.07355359 -0.07465083
0000f0 89 cb 20 3b b6 9a 4b bc 46 6c 9c bc b6 79 2d 3c
       0.002453538 -0.012427023 -0.019094598 0.0105881
000100 d2 91 b9 3d 05 7a ea 3c 6c 2a 98 bd 8f e2 97 3d
       0.09061016 0.028622637 -0.07429966 0.074162595
000110 78 19 85 3d 1c 76 34 3d 35 d4 47 bc cc db 36 3d
       0.064989984 0.04405795 -0.01219659 0.04464321
000120 9c 88 b6 3d 93 60 49 3d 3b 51 cc bd ee a5 e2 bd
       0.08912775 0.049164366 -0.09976431 -0.11066805
000130 e6 9e c2 3d 01 6b b2 3d 42 82 b3 3d f1 60 05 bd
       0.09502964 0.087118156 0.08765079 -0.032563154
000140 c9 20 13 be 94 b2 93 bd de 7d 1c bb 84 ea 09 be
       -0.14367975 -0.072117954 -0.0023878734 -0.13468367
000150 36 c7 f3 bd 84 9a 13 be d2 0e 89 3b ce 8a 01 3d
       -0.11903231 -0.14414412 0.004182675 0.031626515
000160 2d 15 45 3c 86 8c e7 3c 65 10 2f bd 11 4a d8 bd
       0.0120289745 0.028265249 -0.042740244 -0.10561002
000170 7b 43 a2 3d fc 04 99 3d 8b c6 cd 3c 8b 60 4e 3d
       0.07923027 0.07471654 0.025119087 0.05038504
000180 31 9c d1 bd 86 f3 98 3d 1d 18 84 3c df b5 86 3d
       -0.10234869 0.074683234 0.01612478 0.06577658

weight f4 [400, 100]
000000 72 18 b6 bc be 53 74 bd e5 73 e4 3c 00 52 85 bc
       -0.022228453 -0.059650175 0.027887294 -0.016274452
000010 35 96 fa 3c e6 ab ad 3d 27 44 00 bd 26 f4 37 3d
       0.030589202 0.08480053 -0.031314995 0.044910572
000020 bd a1 cc bc bb 39 9e bb e1 30 9c bd 2e f8 e5 bc
       -0.024979467 -0.0048286594 -0.076265104 -0.028072443
000030 7e 84 d4 3d 3c 87 a1 3d 69 1d 36 bd e1 b7 99 bc
       0.103768334 0.07887122 -0.04446164 -0.018764438
000040 a0 fc 5e 3d 46 e6 85 bd ae f8 ad bd 48 c6 3f 3c
       0.05444014 -0.06538062 -0.084946975 0.011704989
000050 c8 74 18 bd 8b 07 16 bd f6 7c 88 3d 00 b0 a3 3d
       -0.037220746 -0.036628287 0.066644594 0.07992554
000060 d9 38 21 3d 79 87 22 bd 8f 2f ac 3d 17 59 b2 bd
       0.039360855 -0.039679978 0.084075086 -0.08708399
000070 3f ba 46 3d 41 22 27 bd 0f b0 8b 3d 6d 49 70 3d
       0.048517462 -0.04080415 0.0682069 0.058663774
000080 e4 42 86 3b fc c2 87 3c af 04 8c 3d 00 a9 a9 3d
       0.0040973295 0.016572468 0.06836831 0.08284187
000090 89 ce 7c 3c bf 21 84 3c 46 aa 8f 3d bf 0d 76 3d
       0.015430101 0.016129373 0.07014899 0.060071703
0000a0 a4 6c b9 bd 34 53 b5 bd a5 9f 96 bd cf b9 09 bd
       -0.09053925 -0.0885376 -0.073546685 -0.033624467
0000b0 af b7 b2 bd bb e5 19 3c 77 04 07 bd 9d 26 21 3d
       -0.08726441 0.009393151 -0.032963242 0.039343465
0000c0 7a 8b db bd f1 d2 10 bd fc bc 34 3c 62 dc df 3d
       -0.107199624 -0.03535742 0.0110313855 0.109307066
0000d0 4c ca a5 3d bb 0a b3 bc 95 ed 32 bd 27 1b 65 bd
       0.08095226 -0.021855703 -0.043683607 -0.055934098
0000e0 93 84 80 3d 54 0b 72 3d 3f 80 bc bc 0f 00 82 3d
       0.062752865 0.059092835 -0.023010371 0.063476674
0000f0 e8 77 aa bc 73 6f e7 3d cb 55 96 bb 01 f7 a6 3d
       -0.020809129 0.11300554 -0.004587864 0.08152581
000100 65 56 9e bd d0 c5 91 bd d5 39 5a bb 1a ff 8b 3d
       -0.07731322 -0.07117808 -0.003329863 0.06835766
000110 29 ed e9 bc 5f 2e 63 bd 86 d0 65 3d 44 a4 aa 3d
       -0.02855547 -0.055464145 0.056107067 0.083321124
000120 75 1a b5 bb cc 43 ea bc 7c e0 70 3d 38 26 11 3c
       -0.0055268356 -0.028596781 0.058807835 0.00885921
000130 0e 96 dd bc 6a 74 d1 3d 7b 41 72 bd 45 fe 54 3b
       -0.02704909 0.10227282 -0.05914448 0.003250019
000140 55 f0 f1 bb 53 5c cf bc 29 17 9e 3d a7 b4 06 bd
       -0.007383386 -0.025312578 0.07719261 -0.032887127
000150 59 a9 dd bd 6d 44 15 3d d5 bb e6 b9 85 5b 19 bd
       -0.10823316 0.03644221 -0.00044008964 -0.037440795
000160 da b5 5b bd c7 1d 27 bd e8 4d 93 bd 0a 06 ff 3b
       -0.053640224 -0.040799882 -0.07192594 0.0077827023
000170 91 60 6a bd 4c bd ab 3d 9f 99 a9 3d ed 41 ce 3d
       -0.057221 0.08385715 0.08281254 0.10071168
000180 ec da b7 3b 1c d2 9b 3d 4f 97 89 bd 25 c9 76 bb
       0.0056108143 0.076084346 -0.06718313 -0.0037656513
000190 a3 bd 0e bb 9c 4d de 3a ed 8f 7f 3d 2f 5f aa 3d
       -0.0021780513 0.0016960385 0.062393118 0.08318936
0001a0 19 c5 93 bd 65 d7 94 bd 1e c8 d1 3d 52 0d 40 3b
       -0.07215328 -0.07267646 0.102432474 0.0029304815
0001b0 81 ae d5 bd 39 ef 9c bb a5 20 7c 3d 09 33 d3 3d
       -0.104336746 -0.0047892598 0.06155457 0.103124686
0001c0 d2 e9 71 bd b3 cb 00 3c cc 71 47 bd a4 74 1d 3d
       -0.05906088 0.007861066 -0.04869251 0.038441315
0001d0 34 e7 86 bd 68 03 46 bd b8 e3 82 3d 1a e6 3d 3d
       -0.06587067 -0.048343092 0.0639109 0.04636202
0001e0 3c c3 be 3d de 57 5a 3d 7a 03 90 3d ba 34 8c bd
       0.09314582 0.053306453 0.07031913 -0.06845994
0001f0 ab b1 7f 3d 5f 15 8d 3d fd 41 91 bc 50 1b 5b 3d
       0.062425297 0.06888842 -0.017731661 0.053492844
000200 ef 1d 5e bd 31 b9 3d bd 23 1f ef 3c 9c f3 c2 bb
       -0.054227766 -0.04631919 0.029189652 -0.0059494507
000210 03 2d a7 ba 02 d0 b1 bd a9 89 57 3d 55 d0 5c bd
       -0.0012754503 -0.086822525 0.052621517 -0.05390962
000220 ea 19 d2 3b f0 34 a0 bd 70 cd d4 3d 52 a0 60 bd
       0.0064117806 -0.07822597 0.103907466 -0.054840393
000230 54 99 b6 ba 59 82 60 ba b0 1b 0d 3d 11 eb bf 3d
       -0.0013931193 -0.0008564345 0.034450233 0.09371007
000240 dd 8b 7a 3c 47 99 2c bc 19 b6 83 bd 77 25 2e 3d
       0.015292135 -0.010534591 -0.06431217 0.042516198
000250 18 6b 61 3d e6 dd aa bc 67 8d d3 bd 0b 42 38 bd
       0.055033773 -0.020857763 -0.10329705 -0.04498486
000260 99 dd b8 bd 32 ff b1 3d 3c 51 af bd e2 74 85 bd
       -0.090266414 0.08691253 -0.08560416 -0.06516434
000270 65 c4 1a 3b 44 29 95 bb 85 0e 46 bd 0b 5f b1 3b
       0.0023615595 -0.0045520384 -0.04835369 0.0054129413
000280 e4 67 b1 3d 6e 39 9d 3d 48 e6 c3 3c 07 8e 71 3d
       0.08662394 0.076769695 0.023913518 0.05897334
000290 20 a9 9d bd 3a 6c 7c bd 4d fb 76 bc 89 a5 91 3d
       -0.07698274 -0.06162665 -0.015074563 0.071116515
0002a0 f8 ef 34 3d 90 2b 25 bd 46 06 08 bd 4a 53 5c 3d
       0.044174165 -0.040324748 -0.033209108 0.05379037
0002b0 66 eb 71 3c 5c e8 b3 bd 88 fa 88 3d bf 08 e4 3c
       0.014765596 -0.087845534 0.0668841 0.027836202
0002c0 39 55 80 3d 1a ff f5 b9 36 1a ee 3c 5f ff 72 bd
       0.06266255 -0.00046920107 0.029065233 -0.059325572
0002d0 bf bf 0b 3b c2 c4 9d bd ae 2e 63 bb 59 1b ab bd
       0.0021324006 -0.07703544 -0.0034665274 -0.083548255
0002e0 cc 1c 8f 3d 75 c9 c1 bd 13 c8 89 bd e1 3c 66 bd
       0.069879144 -0.09462253 -0.06727614 -0.056210402
0002f0 49 14 c5 3d 67 3f 96 3c ff 93 b4 3d 47 ab 5a 3d
       0.0962301 0.01834078 0.088172905 0.053386
000300 33 08 84 3c fd ec d6 3c 02 93 5d 3d ab 7f 4a bd
       0.016117191 0.026236052 0.054095276 -0.04943816
000310 76 8c b4 3d 3d 05 d5 bc a0 7b 7d bd 63 b8 08 3d
       0.08815853 -0.026003474 -0.061885476 0.03337897
000320 e5 f1 5a bc c4 1a 62 bd 4b 20 db 3d 08 c6 69 3d
       -0.013363336 -0.055201307 0.10699519 0.057073623
000330 d1 4f 5b bd 20 48 a1 bd dc 32 c1 bc 30 b0 83 bc
       -0.053542916 -0.07875085 -0.023583822 -0.016075224
000340 79 8b 9e 3c c2 e5 80 bd e9 68 f9 3c 3b 5b aa bc
       0.019353615 -0.06293823 0.030445533 -0.020795455
000350 1f 89 b5 bd d5 87 11 3d 5f 5a be 3d d6 c9 8a bd
       -0.088640444 0.03552993 0.09294581 -0.067767784
000360 46 78 10 3d 82 b9 ad 3d 8b d3 4e 3d e0 cb 3b bd
       0.03527095 0.084826484 0.05049471 -0.045848727
000370 e2 2b be bc 09 39 46 bd 1b 8f c8 3d cf 8f c4 3c
       -0.023214284 -0.048394237 0.0979292 0.023994355
000380 cd e4 44 3d e0 2d 02 bd 83 f9 8e 3d 0c 52 ff bc
       0.048069764 -0.03178203 0.06981184 -0.031167053
000390 1e 1c 04 bd 07 5a 9c bd 12 68 93 bd 86 bf 39 bd
       -0.032253377 -0.07634359 -0.07197584 -0.045348667
0003a0 da 89 5a 3d 5a c5 eb 3c bc 94 a2 3c 7a 33 38 3c
       0.05335412 0.028780628 0.019846313 0.011242742
0003b0 b0 c6 b1 bd 6a 11 80 3c 04 9e 4a bd b6 e1 a3 3d
       -0.08680475 0.015633304 -0.0494671 0.08002035
0003c0 6a e2 30 3d 22 fa 8c bc e5 8c 21 bd ce b3 d9 3c
       0.043184675 -0.017209116 -0.039441008 0.026574995
0003d0 f9 49 7f bd df b6 a9 bd 17 bc 99 3c 07 f8 c4 bc
       -0.062326405 -0.08286833 0.018766446 -0.02404405
0003e0 ed 44 13 bd ce 16 64 3c 77 de ac 3c 0a ee 69 3d
       -0.035954405 0.013921453 0.021102173 0.057111777
0003f0 fc b9 ba 3d e2 8b bb 3d b4 8f c0 3d 9c a0 b2 3d
       0.09117505 0.0915754 0.09402409 0.0872204

bias f4 [400]
000000 8f 1e 22 bd cd 3c 0c 3d b2 80 31 3c 4f a0 a6 3d
       -0.039579924 0.03423767 0.010833906 0.08136045
000010 50 9e c3 3d fd 05 17 3c 94 a6 82 3d 35 58 91 bb
       0.0955168 0.009217736 0.063794285 -0.004435564
000020 00 8a 57 3c 4a 80 2b ba f9 fd 9e 3d 5b 2f 48 3b
       0.01315546 -0.0006542249 0.07763285 0.0030545804
000030 3d ec 7e 3d b5 0a a3 bd d5 8e 46 bd af 97 ce bb
       0.062237013 -0.079610266 -0.04847606 -0.006304703
000040 8b c6 78 bc 7b fb 88 bd 83 8e ba 3b c2 ac 23 3d
       -0.015184055 -0.06688591 0.0056932583 0.039959677
000050 bf b8 98 bd 11 41 56 3d a7 d1 72 3d ca ee 27 bc
       -0.074571125 0.052308146 0.05928197 -0.010249803
000060 bd e2 ef 3d a5 d1 d6 bc b0 4a 3c 3d 43 44 b0 3d
       0.11713169 -0.026223013 0.045969665 0.0860677
000070 bb 43 90 bd 45 f1 26 bd fa 3c 2c bd 85 70 4b bd
       -0.070441686 -0.040757436 -0.04205034 -0.049667854
000080 5e f9 bf bb db 62 87 bd a7 81 09 bd ad 91 94 3d
       -0.0058585843 -0.06610652 -0.03357091 0.07254348
000090 85 3b fa bb c7 e0 b1 bd 8b be c9 3d cb a7 35 3d
       -0.00763649 -0.08685451 0.09850796 0.044349473
0000a0 5a 73 5f bd af 72 f8 3c 5f d3 cf 3d 62 07 83 bd
       -0.054553367 0.030328123 0.10147738 -0.063978925
0000b0 90 8b 99 3d 4e ab 0f 3d 4c ca cb 3d 9b 39 27 3e
       0.074973226 0.03507548 0.099506944 0.16330568
0000c0 38 46 51 bd 02 42 84 3d 4a a6 6f 3d 32 f2 c9 bd
       -0.051092356 0.064579025 0.058508195 -0.09860648
0000d0 23 93 14 3d 92 39 88 3c 78 30 7c 3d e2 f5 cf bc
       0.036273133 0.016629014 0.06156966 -0.0253858
0000e0 67 59 c6 3d 51 1a e7 bc f3 7f 50 bd 57 8f fe 3d
       0.09685021 -0.02821079 -0.050903272 0.12429684
0000f0 70 a4 20 3e 03 44 5a bd 17 25 93 3d f4 6c 11 bd
       0.15687728 -0.053287517 0.07184809 -0.035504296
000100 cc df 29 3d 41 42 87 bc 4e 4e 29 bd 43 32 08 3d
       0.041473195 -0.016511085 -0.041334443 0.03325106
000110 9f 33 fa 3d 5e 24 31 3b e0 57 8e 3d 4b 2b 4e bd
       0.12216877 0.0027029733 0.069503546 -0.050334256
000120 6e 75 86 3d 0f 88 d0 3d 35 d2 25 bd 93 4b 04 bc
       0.06565367 0.10182201 -0.040483672 -0.008074659
000130 83 e5 b1 3d c6 19 2d bd 51 6b 8c bd 36 48 d5 3d
       0.08686354 -0.042260908 -0.068564065 0.10414164
000140 6c 99 9b 3d 0f 56 80 bd 4b 31 5b 3c 79 93 cc 3d
       0.07597622 -0.062664144 0.013378452 0.09989066
000150 66 a3 a9 3b c1 04 90 3d a8 f1 31 3b cf a8 79 3d
       0.0051769493 0.07032157 0.0027152095 0.060952004
000160 d0 ae 1a 3d 11 8e b3 bd cd 40 df 39 3a 3d 49 bd
       0.03776437 -0.087673314 0.00042582155 -0.049130656
000170 aa c1 89 3b eb bf a8 bb be fa ae bd 6c a9 cf 3d
       0.0042039948 -0.0051498315 -0.08543919 0.101397365
000180 26 d7 c8 3b 6d c5 f9 3c 63 fe 16 3d 6b e0 8a bd
       0.0061291633 0.030489648 0.036863696 -0.067810856
000190 f8 62 c9 bb 63 85 a9 3d ec 48 96 3d 9d a4 f4 3c
       -0.006145831 0.082773946 0.073381275 0.02986365
0001a0 9f b5 1f 3d fe ad e2 bd 54 96 dd bc 67 a7 e3 3d
       0.038991567 -0.110683426 -0.027049221 0.11115914
0001b0 d3 ed 87 bd db eb 5a 3d 3c 54 88 3c 12 c3 a3 bd
       -0.06637158 0.053447586 0.016641729 -0.07996191
0001c0 80 fd 16 bd ba b5 a3 bb 4e 66 56 bc 99 00 a1 bd
       -0.03686285 -0.0049960287 -0.013085915 -0.07861442
0001d0 80 dd 5c 3d b0 e2 e7 3c 68 a3 a3 bd b6 54 1b 3d
       0.053922176 0.028306335 -0.07990152 0.037922584
0001e0 97 6b 78 bd 8e c9 00 3d 2e 7f 9d 3d 2b fd c5 3c
       -0.06064948 0.031442218 0.07690273 0.024168571
0001f0 aa 68 6f 3d 22 9e 22 3e b9 30 4e bd b5 6d 44 3d
       0.058449425 0.15880635 -0.050339434 0.047956187
000200 c0 d8 5c 3d f8 68 9f bd 17 54 c9 3c 5b b1 ae bc
       0.053917646 -0.07783693 0.02457623 -0.021324804
000210 35 e1 77 3d 2c 17 e3 3c 7a 51 8a 3b 53 a2 33 3e
       0.06051751 0.02772101 0.0042211385 0.1754239
000220 dd 0c 54 3c 93 8f 17 bb 95 54 20 3c 25 07 9c 3d
       0.01294252 -0.0023126348 0.009785791 0.0761855
000230 0c ce 22 3c 85 3c b7 3d 27 d8 b2 3c 65 d4 ab bd
       0.009936821 0.0894709 0.021831585 -0.083901204
000240 f8 db a3 3d 1e b1 38 3d 9e ef cb 3d c7 16 0b bd
       0.0800094 0.045090787 0.09957813 -0.03395727
000250 dc 5e ca bc 03 f9 82 bd 37 a0 b4 3a 7d 33 46 3d
       -0.024703436 -0.063951515 0.0013780658 0.048388947
000260 a3 84 37 3c db 1d 86 bd c6 ca 90 ba c3 0c a8 bd
       0.011201057 -0.06548663 -0.0011046759 -0.08205559
000270 5d ba a4 3d 21 69 77 bc 26 8d c8 bd 1c dc c0 3d
       0.080433585 -0.015100748 -0.09792547 0.094169825
000280 1b c8 5b ba 28 1e b7 bc 13 59 38 3d 51 7d 12 bd
       -0.0008384005 -0.022353247 0.045006823 -0.035764042
000290 42 16 9d 3d 12 57 d5 3c 19 6d fc 3b e1 44 ea 3d
       0.07670261 0.026042495 0.007703435 0.11438919
0002a0 b3 ce a3 3c 46 48 65 3d 58 09 02 bc 79 3a 9a 3d
       0.019996023 0.05597713 -0.007936798 0.07530684
0002b0 10 9a 6d 3d c2 d6 8d 3c cc 8a 66 bd 5e cd 8f 3d
       0.058008254 0.017314319 -0.05628471 0.070215926
0002c0 61 47 3a 3d 85 d6 50 3e 59 fa d5 3d 3f d2 95 3d
       0.04547823 0.20394333 0.10448141 0.07315492
0002d0 15 a6 64 bd e5 47 6b 3d de cb 9f bd 28 a3 a3 bd
       -0.05582245 0.05744161 -0.078025565 -0.07990104
0002e0 26 36 6b 3c b3 5b 07 bd 0e fc 8e 3d 81 03 a1 3d
       0.014356172 -0.033046436 0.06981669 0.078619964
0002f0 7c 6a a3 3d 9e 14 84 3d 2b fb 20 3e ba 68 89 bc
       0.07979295 0.06449245 0.15720813 -0.01677357
000300 e2 1a f7 bb 28 fb 32 3d 9d 92 51 bd 10 b0 86 3c
       -0.0075410465 0.043696553 -0.051165212 0.016441375
000310 f5 58 b2 bd 77 da b7 bd b4 65 84 bd ee 1b 10 bd
       -0.087083735 -0.08977216 -0.06464711 -0.035182886
000320 38 0d 82 3d 6d 53 45 bb 25 55 4e bd 48 17 a6 3c
       0.063501775 -0.003010954 -0.05037417 0.020274773
000330 83 6b b0 3d 0d 37 b2 3b 2c ab 2c 3d 12 64 af 3d
       0.08614256 0.0054386915 0.04215543 0.08564009
000340 5c c9 bc bc b2 b9 73 3d 11 a5 1a 3d df ce 76 3d
       -0.023045234 0.059503265 0.037755076 0.06025588
000350 19 72 a3 3d a6 c7 86 3d 69 8f a9 bd be 3d 79 3d
       0.07980747 0.06581049 -0.082793064 0.060849898
000360 35 6f 31 3d 6c e5 a4 bd 54 b3 76 bc 7b f7 23 3d
       0.043318946 -0.08051571 -0.015057404 0.040030938
000370 86 b9 90 3c b6 b9 98 3d a2 2e ad 3c 22 f7 de 3c
       0.01766659 0.074572966 0.0211404 0.027217451
000380 4b 28 9f 3d 41 82 2d 3d 85 5d 9b 3d 7e 04 0a 3c
       0.07771357 0.042360548 0.07586197 0.008423923
000390 c1 20 6a 3d 5e b5 99 3d 1d b8 16 3c 43 74 bf 3d
       0.057160143 0.07505296 0.009199169 0.09348347
0003a0 f8 84 54 bd 40 1e ed bc 48 97 08 3d a4 54 a7 3c
       -0.05188462 -0.028945088 0.033347398 0.020426102
0003b0 c5 35 59 bd ed 2a 1f 3c fc c7 c2 3d 53 67 a8 3c
       -0.053029794 0.009714824 0.095108 0.020557081
0003c0 a2 0e 67 bd 4c e5 3d 3c 01 85 15 bd 8d 87 67 3d
       -0.05641044 0.011590313 -0.036503796 0.056525756
0003d0 7b 86 4a 3c 4d fe 89 bd f6 9a af 3d 57 d3 c2 bd
       0.012361164 -0.06737957 0.08574478 -0.09512966
0003e0 69 b8 a7 3d bb 33 a3 bd d1 0f 37 3d 77 98 2f 3d
       0.0818947 -0.07968851 0.044692818 0.04287001
0003f0 49 0b 49 bc b1 90 30 bd d5 7d 70 bb b9 f6 a5 bd
       -0.012270757 -0.04310674 -0.0036696095 -0.08103699

weight f4 [2, 400]
000000 41 24 06 3c b7 6c cb 3c 6c 2e ed 3c 79 5f c2 bd
       0.008187355 0.024832113 0.0289528 -0.09490866
000010 bd ba 9f 3c 69 99 1a 3c e7 26 e7 3c d3 f0 fc bc
       0.019498223 0.00943599 0.028216792 -0.030876553
000020 87 66 04 3d cf 17 a5 ba 14 1e 24 3b c6 9a f9 bc
       0.03232434 -0.0012595596 0.0025042342 -0.03046931
000030 88 9d 05 be 87 2a 3d bc e2 59 3f bc ac 6b 6c bc
       -0.13048375 -0.011545784 -0.011679145 -0.014429968
000040 00 22 25 3d 83 ac b6 3c 27 33 27 3c 2f 1b 0b 3d
       0.040315628 0.022299057 0.010205067 0.03396147
000050 c2 8a 4d 3c e0 ca 27 3d 11 97 06 bd a6 f1 d2 3b
       0.0125452895 0.04096496 -0.032858912 0.006437498
000060 8e 87 15 be 7d 09 59 bd 00 5a be 3c a6 18 9b 3d
       -0.14602491 -0.052987564 0.023236275 0.07573061
000070 d2 aa ab bc 3a fd e0 3c 9e e9 c4 3c fe bb 25 3d
       -0.020955477 0.027464498 0.024037179 0.040462486
000080 ed 99 1f 3d 51 aa cf 3c 27 72 36 bc 4f 1a cc bc
       0.038965154 0.025349768 -0.0111356145 -0.024914889
000090 db 1d 99 3c d5 f4 27 3c 55 32 39 3d 37 c9 07 3c
       0.018690994 0.010251244 0.045214016 0.008287719
0000a0 d2 02 92 3d fa 1d 6c bc 50 88 69 3c 78 66 fd bc
       0.07129444 -0.014411444 0.014253691 -0.03093265
0000b0 f2 f5 88 3b 56 77 b8 bd bf da 9e bc 2f fb ae bb
       0.0041797096 -0.090071365 -0.019391416 -0.005340002
0000c0 45 b6 05 bd 2e 5e 14 bd d0 96 8f bc 2e 8c f0 bc
       -0.03264453 -0.03622263 -0.017527968 -0.029363718
0000d0 42 3a 07 bd 45 cc 27 3d 96 69 0c 3c dd 28 0e bd
       -0.033014543 0.04096629 0.0085700955 -0.03470694
0000e0 62 bd ae 3c 7a d6 b9 bc 40 77 d2 3c e4 ee 80 3d
       0.02133054 -0.022685278 0.025691628 0.06295565
0000f0 0f 9c 80 be 99 f1 9d 3c fb 05 20 3e 3d 3a 99 3b
       -0.25119063 0.019280242 0.15627281 0.004676132
000100 25 10 03 bd f7 69 0b 3c 1e 06 27 bd a5 ef 2a 3c
       -0.03199782 0.008509151 -0.04077732 0.010433112
000110 d8 d2 86 be 6f ea 61 3d 26 c0 0e 3d e7 ed c5 3c
       -0.26332736 0.055155214 0.034851216 0.024161292
000120 d8 1f 35 bd e4 b4 5e 3d f4 db 24 3d a0 23 28 bd
       -0.04421982 0.05437173 0.040248826 -0.0410496
000130 64 a0 23 3e 34 52 f3 3c 09 2b b3 3c 3c 7f 3a 3d
       0.15979153 0.029702283 0.021871107 0.045531496
000140 09 7b 3b 3c 29 a0 1d bc 15 42 c1 bb 92 c6 ea 3c
       0.011442908 -0.009620705 -0.00589777 0.028659139
000150 a8 e5 db 3c a5 1d 05 3c 2b 4f c1 3d 71 77 2c bc
       0.026842907 0.008124744 0.09438928 -0.010526524
000160 ea 9a 43 3d b8 fe 4f 3c f4 33 35 3d d8 3d cb bc
       0.04775516 0.012695007 0.044239 -0.024809763
000170 d7 f8 1e bd 05 d6 a1 b8 cd 05 a0 3c 44 9c 4b 3d
       -0.03881153 -7.7169425e-05 0.019534016 0.049709573
000180 95 27 d4 3c 88 5d 17 3d 25 51 75 3c b3 f5 2b 3c
       0.02589778 0.036954433 0.01497296 0.010495591
000190 2e db c8 3c d7 04 85 bc 2a 63 a8 bc b2 f4 fa 3d
       0.024518576 -0.01623766 -0.020555098 0.12253703
0001a0 ae 07 a5 3c dd 09 d1 bc cc f3 72 3d 95 96 f5 bd
       0.020145264 -0.025517398 0.059314534 -0.11991612
0001b0 c7 6b 16 bd e2 e4 a9 3b f7 a0 e5 bb bc b9 d9 3b
       -0.03672388 0.0051847557 -0.007007714 0.0066444557
0001c0 00 9d 99 3c e8 de 9a 3c 0f a9 61 bc d0 e1 68 3c
       0.018751621 0.018905118 -0.013773217 0.014213994
0001d0 86 59 10 3d 74 07 9d 3c b8 de 17 bd e6 e5 d3 bc
       0.035241626 0.019168593 -0.037077636 -0.02586646
0001e0 28 89 06 3d 10 66 d5 3c 8e ba 98 3c 8d f0 01 bd
       0.032845646 0.026049644 0.018643644 -0.031723548
0001f0 6e 32 4a 3d 2d 0f 14 3e 35 b5 23 3d eb ef 22 3d
       0.0493645 0.14458914 0.039967734 0.039779585
000200 3f 39 81 3c 26 c2 4a bc 22 c7 ea bc e3 bb c6 3c
       0.015774367 -0.01237539 -0.028659407 0.024259513
000210 99 2e 9a 3d 59 b5 19 3d 14 2e e2 b9 96 5d d6 bd
       0.07528419 0.037526462 -0.0004314041 -0.10467069
000220 e4 0a 1c 3c 68 0f b5 3c 1f bf d7 3c 0d e9 09 bd
       0.009524081 0.022102073 0.02633625 -0.03366952
000230 02 8e 66 3d cc c0 0c be 86 f8 67 3e ff 7b 97 bc
       0.056287773 -0.13745421 0.22653398 -0.018491743
000240 4b 17 a1 bc 19 e8 b7 3c e2 67 a1 bc 0f ab 0c bc
       -0.019664427 0.02244954 -0.019702855 -0.008585705
000250 ec 2e 0e bc bf 6c 15 3c b7 cb b8 38 19 20 48 3d
       -0.008678179 0.009120165 8.8117486e-05 0.048858736
000260 38 b2 31 3d 24 a2 6f 3c 97 45 02 bd f2 85 4c bc
       0.043382853 0.01462606 -0.031804647 -0.012483107
000270 37 92 03 bd 89 10 15 3d 54 bd 98 3b 9e dd 0f 3d
       -0.032121863 0.036392722 0.0046612415 0.03512346
000280 33 b8 e2 bc fe bc b4 3c c6 0e 6b 3c 2c df 99 bc
       -0.027675724 0.022062775 0.014346784 -0.018783174
000290 87 7c 73 bc aa de f7 ba 5d 93 2b 3d 19 af ba bd
       -0.014861233 -0.0018910964 0.041888583 -0.091154285
0002a0 57 3d 34 be 65 fd 43 bc 29 c5 9f 3c b6 c1 85 3b
       -0.17601524 -0.011962269 0.019503193 0.00408193
0002b0 bf 09 94 3c 88 41 21 be 39 4a 1b 3d 6d f1 3c bd
       0.018071054 -0.15747654 0.03791258 -0.04612868
0002c0 51 a6 e8 3c 3b 4f 37 be f0 d6 7c 3c 73 3d b6 3c
       0.028399618 -0.17901318 0.0154321045 0.022246098
0002d0 fe 30 d9 3c bb 30 0c bd 79 67 e4 3b 8b e4 3a 3d
       0.02651262 -0.03422616 0.0069703427 0.04562811
0002e0 fe 1a fc bc fd b0 a5 bc 16 0d 18 bd cd be 9a 3c
       -0.03077459 -0.020225996 -0.037121855 0.018889809
0002f0 61 86 3a 3d c1 e3 01 3d d2 e2 3b be 4b 6d d3 bc
       0.04553831 0.031711344 -0.18348244 -0.02580895
000300 00 bc 98 bc 2f a7 bc bc 9b 4a 42 3d 12 28 1d 3d
       -0.018644333 -0.023028938 0.04743443 0.038368292
000310 c7 01 14 bd 1d b1 89 bc b4 af db 3c 27 0e ff bc
       -0.036134508 -0.016808087 0.02681718 -0.031134678
000320 9f 9e d2 3b 5b 47 9d 3a 62 18 b3 3c d3 aa 2c 3d
       0.0064276005 0.0011999415 0.021862213 0.0421551
000330 06 22 13 be a2 f0 bc bb 74 2c db 3c 19 e9 53 be
       -0.14368448 -0.0057659904 0.026754595 -0.20694388
000340 e6 76 1e bd 7e 5e f9 bc 0e e1 7d 3c 1a ad a8 3c
       -0.03868761 -0.030440565 0.015495552 0.020590354
000350 ab 4f c8 3d 68 33 66 3d f6 df 80 3c 3b ac 5c bc
       0.097808205 0.05620137 0.015731793 -0.013468797
000360 77 91 7f bb d2 2a 58 3d 83 92 eb 3c c6 19 3e 3d
       -0.0038996616 0.05277521 0.028756386 0.0464113
000370 ca 00 fe 3d c1 e4 7a bb 7e a4 21 3d 2d eb c9 bc
       0.12402494 -0.003828332 0.039463513 -0.024648273
000380 75 3e f3 3b 73 c9 1a 3d bc cf c8 bb 7a 07 c4 3c
       0.007423217 0.037789773 -0.0061282795 0.023929346
000390 7c 45 b3 bc ab 0f 57 bd 9c 72 6d 3d ea fe d0 3c
       -0.021883719 -0.052505177 0.05797063 0.025512177
0003a0 71 7f b6 3a 5b 80 7f bc d9 1e c7 3c 93 9f 40 bd
       0.0013923479 -0.015594567 0.024306701 -0.04702718
0003b0 f6 57 72 3d 6a 6c e1 bd 12 37 38 3c 8d aa 3f 3d
       0.059165917 -0.110070065 0.011243599 0.04679351
0003c0 f9 41 f1 3c 43 d7 51 bc fd 0c 61 3c bc e1 cc 3c
       0.029450404 -0.01280767 0.013736007 0.025009982
0003d0 92 b0 af 3d 92 a7 75 bc c1 58 48 3d dd a1 92 3b
       0.085786 -0.014993565 0.048912767 0.004474862
0003e0 e4 86 16 bd 00 12 3f bd 13 ad ab 3c 55 09 51 bc
       -0.036749735 -0.046648026 0.020956552 -0.012758573
0003f0 1d b0 9c bc fe 69 fc bc 84 0a b2 3c 60 a3 d5 bc
       -0.019126946 -0.03081226 0.02173353 -0.02607888

bias f4 [2]
000000 5f 06 58 3d 71 57 1b 3d
       0.05274045 0.037925187

logits f4 [100, 2]
000000 24 18 96 c0 b1 8e a2 40 c2 55 73 bf 54 e3 91 3f
       -4.690447 5.0799184 -0.9505273 1.13975
000010 76 b7 84 bf ef cb 9c 3f 98 29 84 c0 f6 39 90 40
       -1.0368488 1.2249736 -4.1300774 4.5070753
000020 73 e9 5f bf eb e5 86 3f 02 75 16 c0 3c 6e 2f 40
       -0.8746559 1.0538915 -2.3508916 2.7411032
000030 e1 63 72 bf 5a 8f 90 3f be c0 60 bf 04 7f 87 3f
       -0.94683653 1.1293747 -0.877941 1.0585637
000040 ba 56 1c c0 66 13 36 40 28 31 6c bf 5d d3 8c 3f
       -2.4427934 2.844934 -0.92262506 1.1002003
000050 69 7f 72 bf 36 1b 91 3f 27 d7 72 c0 9e 54 85 40
       -0.9472566 1.1336429 -3.7943819 4.1665792
000060 9c 0e 37 c0 b0 b6 53 40 1a 57 72 bf 93 1c 90 3f
       -2.8602667 3.3080254 -0.94664156 1.125872
000070 80 58 62 bf 5f ca 88 3f 80 4d 3b c0 59 ce 4e 40
       -0.8841629 1.0686759 -2.9266052 3.2313445
000080 5a fb 5a bf 17 d4 83 3f 5c e0 82 bf 14 10 9b 3f
       -0.8553978 1.02991 -1.0224719 1.2114282
000090 44 16 e3 bf 07 7d 01 40 06 92 45 bf 5e 5c 71 3f
       -1.774117 2.023256 -0.7717594 0.94281566
0000a0 7e b6 72 bf d6 b9 90 3f f9 a6 76 bf 92 65 93 3f
       -0.9480971 1.1306713 -0.9634853 1.1515372
0000b0 66 1c 69 bf 60 41 8c 3f 54 b0 84 bf b7 c4 9c 3f
       -0.9105896 1.0957451 -1.0366311 1.2247533
0000c0 73 68 67 bf 48 7c 8b 3f 67 f8 74 bf 8e 75 92 3f
       -0.9039375 1.0897303 -0.9569153 1.1442125
0000d0 43 f6 48 bf f2 17 74 3f cb 03 33 bf d9 03 5e 3f
       -0.78500766 0.9534904 -0.6992766 0.8672462
0000e0 22 ac 5a bf 4e a8 83 3f c2 55 73 bf 54 e3 91 3f
       -0.85418904 1.0285738 -0.9505273 1.13975
0000f0 a2 31 5c bf dd c2 84 3f 74 5e 68 bf fa 9d 8b 3f
       -0.86013234 1.0371968 -0.90769124 1.0907586
000100 08 06 64 bf 74 44 89 3f 80 13 66 bf 4e a2 8a 3f
       -0.890717 1.0724015 -0.89873505 1.0830781
000110 d2 e1 2d bf 6a 7c 58 3f be 94 a6 bf 8b ac c1 3f
       -0.679227 0.8456484 -1.3014143 1.5130781
000120 6e 3a 67 bf 3c 86 8a 3f 60 1f 21 c0 12 4f 3b 40
       -0.9032353 1.0822215 -2.51754 2.926701
000130 65 79 67 bf bf 22 8b 3f 91 47 50 c0 44 ce 71 40
       -0.9041961 1.0869979 -3.254368 3.7782145
000140 d1 f9 83 bf cc 0c 9c 3f ea 24 73 bf ea c6 91 3f
       -1.0310613 1.2191405 -0.949782 1.1388829
000150 02 3a 63 bf fa cc 88 3f 4a ec 67 c0 3d af 7d 40
       -0.8876039 1.0687554 -3.623797 3.9638207
000160 92 76 f9 bf 7c f8 0c 40 0e 90 0f c0 c4 a9 23 40
       -1.948931 2.2026663 -2.2431674 2.5572367
000170 c5 5d 5d bf 88 d5 85 3f f4 27 81 bf b5 84 96 3f
       -0.86471206 1.045579 -1.0090318 1.1759249
000180 f4 8c 55 c0 32 e2 67 40 43 75 79 bf ac 53 91 3f
       -3.336728 3.6231809 -0.9744455 1.135366
000190 f6 92 62 bf 08 7b 88 3f 8e 9e 9f c0 a8 77 ac 40
       -0.88505495 1.0662546 -4.988105 5.3896065
0001a0 a0 6b 96 c0 3e 89 a2 40 71 48 7d bf cc 6e 97 3f
       -4.700638 5.079253 -0.9893866 1.1830688
0001b0 58 ec 47 c0 b4 d2 5b 40 91 15 0a bf 89 92 2e 3f
       -3.1238003 3.4347353 -0.5393916 0.68192345
0001c0 c4 bd 62 bf 42 8c 88 3f cc 07 44 c0 84 34 57 40
       -0.8857081 1.0667803 -3.062976 3.3625803
0001d0 c9 6c 68 bf 26 a6 8b 3f 95 1c 2a c0 54 41 3d 40
       -0.9079099 1.091008 -2.6579945 2.9571123
0001e0 b0 96 84 bf e6 82 9d 3f 60 35 6a bf 66 15 8c 3f
       -1.0358486 1.2305572 -0.91487694 1.094403
0001f0 b3 0e 61 bf 41 a7 87 3f 60 14 71 bf 44 77 91 3f
       -0.87913054 1.0597917 -0.94171715 1.1364522
000200 0c da 59 bf 28 fa 83 3f 61 da 66 bf e0 5d 8b 3f
       -0.8509834 1.0310717 -0.9017697 1.0888023
000210 51 7e 79 bf f2 25 95 3f a2 aa 62 bf 56 82 88 3f
       -0.9745837 1.1652205 -0.88541615 1.0664775
000220 cc 7d 61 bf a8 fa 87 3f 1a f4 6d bf 28 04 8e 3f
       -0.88082576 1.0623369 -0.92950594 1.1095018
000230 56 48 5c bf 40 d1 84 3f 08 be 6d bf f6 09 8e 3f
       -0.86047876 1.0376358 -0.9286809 1.109679
000240 ac ed 92 c0 8c 02 9e 40 3c fa 67 bf b8 ca 8b 3f
       -4.5915127 4.937811 -0.906162 1.092124
000250 0b a7 37 bf 27 00 63 3f a2 83 90 bf d4 02 ab 3f
       -0.7173926 0.8867211 -1.1290171 1.3360238
000260 46 a3 06 c0 db ec 19 40 e8 30 67 bf 36 1e 8b 3f
       -2.1037154 2.4050815 -0.90309 1.0868595
000270 e8 af 67 bf a4 13 8b 3f 58 a6 30 bf 0d 7a 5b 3f
       -0.90502787 1.0865369 -0.6900382 0.8573311
000280 42 c3 3c bf c6 b2 68 3f 47 7d 76 bf c4 55 93 3f
       -0.7373544 0.90897787 -0.9628491 1.1510549
000290 d2 e9 bb bf d8 87 de 3f e9 23 23 c0 98 de 3d 40
       -1.4680731 1.7385206 -2.5490668 2.966711
0002a0 18 88 61 bf 68 ff 87 3f 5c 62 58 bf b4 49 83 3f
       -0.8809829 1.0624819 -0.84525084 1.0256867
0002b0 22 bb c1 bf 12 6e df 3f 7a 3a 64 bf d7 d8 89 3f
       -1.5135233 1.7455466 -0.8915173 1.0769299
0002c0 c8 56 5a bf 44 79 83 3f 76 69 61 bf 92 f1 87 3f
       -0.8528867 1.0271382 -0.88051546 1.0620596
0002d0 00 ff af bf f3 e6 c8 3f 94 a3 86 c0 9e ae 91 40
       -1.3749695 1.569548 -4.207468 4.5525656
0002e0 be 8e 8b bf 2c f6 a4 3f c7 b8 6b bf ae 92 8d 3f
       -1.0902936 1.2887626 -0.9207882 1.1060388
0002f0 b8 36 2a c0 4f d9 45 40 48 28 70 bf 78 29 8f 3f
       -2.6595898 3.0913885 -0.93811464 1.118453
000300 3e 96 67 bf 18 33 8b 3f 64 74 68 bf 7d aa 8b 3f
       -0.90463626 1.0874968 -0.908026 1.0911404
000310 dc 07 84 bf 12 1a 9c 3f 12 16 00 c0 14 79 11 40
       -1.0314898 1.2195456 -2.001347 2.273015

logits f4 [100, 2]
000000 a6 53 1c c1 00 00 70 b8 3a 3d 0d c0 00 c4 ee bd
       -9.770422 -5.722046e-05 -2.206862 -0.11658478
000010 1c 19 17 c0 40 ed ca bd 81 32 0a c1 00 00 3a b9
       -2.3609076 -0.09908533 -8.63733 -0.00017738342
000020 ee 1c 04 c0 b8 f9 0a be d0 23 a3 c0 00 c4 c8 bb
       -2.0642657 -0.13571823 -5.0981216 -0.0061268806
000030 4b 70 0c c0 b0 f4 f1 bd d0 8e 04 c0 f0 f1 09 be
       -2.1943538 -0.118142486 -2.0712166 -0.13471198
000040 5b 5e a9 c0 00 2c a5 bb 6d 69 09 c0 90 6e fe bd
       -5.292768 -0.0050406456 -2.1470597 -0.12423432
000050 90 b4 0c c0 50 e3 f0 bd 0c c3 fe c0 00 c0 b6 b9
       -2.1985207 -0.117621064 -7.9613094 -0.00034856796
000060 ca 73 c5 c0 00 24 09 bb 78 3a 0c c0 10 cd f2 bd
       -6.1703844 -0.0020925999 -2.1910686 -0.11855519
000070 f1 78 05 c0 18 da 07 be 3e 1f c5 c0 00 90 0a bb
       -2.0855067 -0.1326679 -6.1600637 -0.002114296
000080 1e b4 01 c0 b8 b3 10 be 56 7b 15 c0 d0 63 d0 bd
       -2.0266185 -0.14131057 -2.3356528 -0.10175288
000090 96 73 74 c0 80 b6 b5 bc e4 a7 f0 bf 90 85 29 be
       -3.8195548 -0.02218175 -1.8801236 -0.16554856
0000a0 86 95 0c c0 70 5f f1 bd 87 a6 0e c0 00 40 e9 bd
       -2.1966262 -0.117857814 -2.228914 -0.1138916
0000b0 0a 7b 08 c0 08 34 01 be 9c 12 17 c0 e0 02 cb bd
       -2.1325097 -0.12617505 -2.3605108 -0.09912658
0000c0 3e c4 07 c0 d8 bf 02 be 89 db 0d c0 00 55 ec bd
       -2.1213527 -0.12768495 -2.2165244 -0.1153965
0000d0 66 41 f3 bf 60 d2 25 be bc c8 e0 bf 54 27 42 be
       -1.9004333 -0.16193533 -1.7561259 -0.18960315
0000e0 ec 8f 01 c0 c0 0b 11 be 3a 3d 0d c0 00 c4 ee bd
       -2.0244093 -0.14164639 -2.206862 -0.11658478
0000f0 40 5f 02 c0 98 16 0f be 38 09 08 c0 e8 29 02 be
       -2.0370636 -0.13973463 -2.1255627 -0.12711298
000100 89 0c 06 c0 d0 8c 06 be 6c 19 07 c0 48 36 04 be
       -2.094515 -0.13139653 -2.1109266 -0.12911332
000110 d5 63 dc bf b8 a5 49 be 51 da 37 c0 20 6b 6e bd
       -1.7217966 -0.19692123 -2.8727 -0.05820763
000120 e6 4d 07 c0 c8 c2 03 be 8c 5a ae c0 00 4a 8d bb
       -2.1141295 -0.12867272 -5.448553 -0.0043118
000130 93 a0 07 c0 a8 0d 03 be 24 12 e1 c0 00 40 67 ba
       -2.1191757 -0.12798178 -7.0334644 -0.00088214874
000140 c6 6c 16 c0 00 2f cd bd b8 25 0d c0 20 21 ef bd
       -2.350389 -0.1001873 -2.2054272 -0.1167624
000150 78 ab 05 c0 a0 67 07 be ea d1 f2 c0 00 c0 04 ba
       -2.0885906 -0.13223124 -7.5881243 -0.00050640106
000160 d1 59 85 c0 00 dd 7f bc 06 e0 99 c0 00 3b 06 bc
       -4.167214 -0.015616655 -4.8085966 -0.008192778
000170 15 18 03 c0 f8 5d 0d be c5 a8 12 c0 10 4e da bd
       -2.0483449 -0.13805377 -2.2915509 -0.106594205
000180 58 bf de c0 00 b0 78 ba 5d 5a 0e c0 c0 66 ea bd
       -6.9608574 -0.0009486675 -2.2242653 -0.11445379
000190 01 63 05 c0 f8 0b 08 be 3c 0b 26 c1 00 00 02 b8
       -2.0841677 -0.13285816 -10.377743 -3.0994415e-05
0001a0 aa 7a 1c c1 00 00 6e b8 c6 f0 11 c0 70 e8 dc bd
       -9.779947 -5.6743622e-05 -2.2803206 -0.107865214
0001b0 22 eb d1 c0 00 b8 b9 ba f0 66 bd bf 8c 4b 84 be
       -6.5599527 -0.0014169216 -1.4797039 -0.25838888
0001c0 ea 73 05 c0 80 e5 07 be 6a ab cd c0 00 20 d4 ba
       -2.0851998 -0.13271141 -6.4271746 -0.0016183853
0001d0 f9 0f 08 c0 40 1b 02 be be cc b3 c0 00 48 6e bb
       -2.125975 -0.12705708 -5.618743 -0.0036358833
0001e0 23 5d 17 c0 00 0b ca bd 95 a5 08 c0 a0 d8 00 be
       -2.3650596 -0.09865379 -2.1351063 -0.12582636
0001f0 6f b1 04 c0 20 a2 09 be cd 8c 0c c0 60 82 f1 bd
       -2.0733297 -0.13440752 -2.1960938 -0.11792445
000200 db 85 01 c0 40 24 11 be 9c 97 07 c0 40 21 03 be
       -2.023795 -0.14173985 -2.1186285 -0.12805653
000210 53 11 10 c0 c0 d8 e3 bd 62 6b 05 c0 e8 f8 07 be
       -2.2510574 -0.11125326 -2.0846791 -0.13278544
000220 30 ee 04 c0 98 16 09 be ce 53 0a c0 70 96 fa bd
       -2.0770378 -0.13387525 -2.161365 -0.12235725
000230 72 6a 02 c0 c0 fb 0e be 6a 4a 0a c0 90 bd fa bd
       -2.037747 -0.13963223 -2.1607919 -0.122431874
000240 68 78 18 c1 00 00 98 b8 db 06 08 c0 00 2f 02 be
       -9.529396 -7.247925e-05 -2.1254184 -0.12713242
000250 0e c7 e4 bf a4 9b 3b be eb fb 22 c0 00 16 a7 bd
       -1.7873247 -0.18321091 -2.5466259 -0.08158493
000260 c8 a1 90 c0 00 6e 33 bc a3 8e 07 c0 e0 34 03 be
       -4.5197487 -0.010951519 -2.1180809 -0.12813139
000270 ec a5 07 c0 00 02 03 be 60 c2 de bf 6c 91 45 be
       -2.119502 -0.12793732 -1.7403069 -0.19293755
000280 e8 4a e9 bf 20 7f 34 be 2d 96 0e c0 20 7f e9 bd
       -1.8225985 -0.1762662 -2.227916 -0.114012
000290 36 c3 4f c0 20 98 22 bd 24 a2 b0 c0 00 8e 83 bb
       -3.2462897 -0.03969586 -5.5197926 -0.0040147305
0002a0 85 f2 04 c0 b0 0c 09 be e5 e7 00 c0 40 a7 12 be
       -2.0773022 -0.13383746 -2.0141537 -0.14321613
0002b0 5a fe 52 c0 e0 6f 1a bd 1e 59 06 c0 38 e1 05 be
       -3.2967744 -0.03770435 -2.0991893 -0.13074195
0002c0 fe 68 01 c0 a8 6a 11 be c5 e5 04 c0 e8 29 09 be
       -2.0220332 -0.14200842 -2.076524 -0.13394892
0002d0 4c bb 3f c0 c0 14 52 bd be 29 0c c1 00 80 24 b9
       -2.9958067 -0.05128932 -8.760191 -0.00015687943
0002e0 ff ed 1d c0 40 71 b5 bd 58 a3 09 c0 e0 79 fd bd
       -2.4676511 -0.08859491 -2.1505947 -0.123767614
0002f0 05 22 b8 c0 00 0c 50 bb a0 52 0b c0 50 7a f6 bd
       -5.754153 -0.0031745434 -2.176918 -0.12035048
000300 1d ae 07 c0 18 f0 02 be 90 13 08 c0 80 13 02 be
       -2.120002 -0.12786901 -2.126194 -0.12702751
000310 22 79 16 c0 60 05 cd bd d4 38 89 c0 00 82 62 bc
       -2.3511434 -0.10010791 -4.288187 -0.01382494

probs f4 [100, 2]
000000 1b 90 6f 38 42 fc 7f 3f 7f 5f e1 3d 11 d4 63 3f
       5.711625e-05 0.9999429 0.110045426 0.8899546
000010 7c 32 c1 3d b0 d9 67 3f aa f9 39 39 61 f4 7f 3f
       0.09433457 0.9056654 0.00017735982 0.9998227
000020 13 f5 01 3e bc 82 5f 3f 5f 27 c8 3b b2 6f 7e 3f
       0.12691145 0.8730886 0.006108209 0.99389184
000030 b3 35 e4 3d 4b 79 63 3f a1 0e 01 3e 58 bc 5f 3f
       0.11143055 0.88856953 0.12603237 0.87396765
000040 73 c0 a4 3b 7e b6 7e 3f 17 43 ef 3d 9e 17 62 3f
       0.0050278245 0.9949721 0.11682718 0.88317287
000050 c3 42 e3 3d a8 97 63 3f 35 d1 b6 39 26 e9 7f 3f
       0.11096718 0.88903284 0.00034869617 0.9996513
000060 9f ff 08 3b ff 76 7f 3f ee f5 e4 3d 42 61 63 3f
       0.0020904315 0.9979095 0.1117972 0.8882028
000070 b8 73 fe 3d 89 31 60 3f 79 6b 0a 3b 95 75 7f 3f
       0.12424415 0.87575585 0.0021121188 0.9978879
000080 71 f1 06 3e a5 43 5e 3f 70 23 c6 3d 91 3b 67 3f
       0.1317804 0.8682197 0.09674728 0.90325266
000090 68 b6 b3 3c 4d 62 7a 3f a3 3b 1c 3e 17 f1 58 3f
       0.021937564 0.97806245 0.15257125 0.84742874
0000a0 19 b1 e3 3d dd 89 63 3f 20 75 dc 3d 5c 71 64 3f
       0.11117763 0.8888224 0.10764527 0.8923547
0000b0 ca c4 f2 3d 66 a7 61 3f 1b 46 c1 3d 3d d7 67 3f
       0.11853941 0.88146055 0.094372 0.905628
0000c0 14 7e f5 3d 3e 50 61 3f b5 34 df 3d 69 19 64 3f
       0.11986938 0.88013065 0.10898725 0.8910127
0000d0 87 17 19 3e 1e ba 59 3f 97 db 30 3e 1b c9 53 3f
       0.14950381 0.8504962 0.17271267 0.8272874
0000e0 d7 3d 07 3e 8a 30 5e 3f 7f 5f e1 3d 11 d4 63 3f
       0.13207184 0.86792815 0.110045426 0.8899546
0000f0 7c 8a 05 3e 62 9d 5e 3f 0c 76 f4 3d 3e 71 61 3f
       0.13041109 0.869589 0.11936578 0.8806342
000100 8d 2b fc 3d 8e 7a 60 3f bc 10 f8 3d e9 fd 60 3f
       0.12312994 0.87687004 0.12112567 0.87887436
000110 db 08 37 3e ca 3d 52 3f d5 9c 67 3d 33 86 71 3f
       0.17874472 0.8212553 0.05654605 0.94345397
000120 a8 45 f7 3d 4a 17 61 3f 31 fc 8c 3b 08 e6 7e 3f
       0.12073833 0.8792616 0.0043025245 0.9956975
000130 0a 07 f6 3d 1f 3f 61 3f 60 2d 67 3a 35 c6 7f 3f
       0.12013061 0.8798694 0.0008818712 0.99911815
000140 77 3d c3 3d 52 98 67 3f 57 b2 e1 3d b5 c9 63 3f
       0.09533208 0.904668 0.11020344 0.88979656
000150 25 ab fd 3d 9b 4a 60 3f f2 c1 04 3a d0 de 7f 3f
       0.12386159 0.8761384 0.00050643005 0.9994936
000160 51 e0 7d 3c 80 08 7c 3f 9b ae 05 3c 46 e9 7d 3f
       0.015495376 0.9845047 0.008159305 0.9918407
000170 fc 0a 04 3e 41 fd 5e 3f 87 12 cf 3d af 1d 66 3f
       0.12894815 0.87105185 0.10110956 0.89889044
000180 38 96 78 3a db c1 7f 3f 18 7c dd 3d 7e 50 64 3f
       0.00094828336 0.99905175 0.10814685 0.8918532
000190 00 cb fe 3d 9f 26 60 3f 0e 84 02 38 f6 fd 7f 3f
       0.12441063 0.8755893 3.11174e-05 0.9999689
0001a0 bd 4a 6d 38 4a fc 7f 3f 33 69 d1 3d db d2 65 3f
       5.657481e-05 0.9999434 0.10225143 0.89774865
0001b0 7f 97 b9 3a 34 a3 7f 3f 87 2b 69 3e 1e b5 45 3f
       0.0014159529 0.99858403 0.2277051 0.7722949
0001c0 b6 87 fe 3d 0a 2f 60 3f f7 f1 d3 3a 08 96 7f 3f
       0.124282286 0.87571776 0.0016170134 0.99838305
0001d0 42 5c f4 3d 78 74 61 3f e2 d7 6d 3b 28 12 7f 3f
       0.11931659 0.8806834 0.0036292006 0.9963708
0001e0 8d 65 c0 3d 4e f3 67 3f a1 23 f2 3d 8c bb 61 3f
       0.09394369 0.9060563 0.11823202 0.881768
0001f0 e3 c8 00 3e c8 cd 5f 3f 22 d0 e3 3d fc 85 63 3f
       0.12576632 0.8742337 0.111236826 0.8887632
000200 1d 53 07 3e 38 2b 5e 3f 82 29 f6 3d cf 3a 61 3f
       0.13215299 0.86784697 0.12019636 0.8798036
000210 26 a1 d7 3d db 0b 65 3f a5 a9 fe 3d ca 2a 60 3f
       0.105287835 0.89471215 0.12434701 0.8756529
000220 dc 4e 00 3e 49 ec 5f 3f 1b dd eb 3d 5c 84 62 3f
       0.12530082 0.8746992 0.11516782 0.88483214
000230 22 73 05 3e 38 a3 5e 3f b6 ff eb 3d 09 80 62 3f
       0.13032201 0.869678 0.11523382 0.88476616
000240 a7 6d 98 38 3c fb 7f 3f 13 7f f4 3d 1e 70 61 3f
       7.268349e-05 0.9999273 0.119383 0.880617
000250 db 6c 2b 3e c9 24 55 3f a4 73 a0 3d 8b f1 6b 3f
       0.16740744 0.83259255 0.07834557 0.9216544
000260 5a 73 32 3c 32 36 7d 3f 08 4c f6 3d 7f 36 61 3f
       0.01089176 0.9891082 0.120262206 0.8797378
000270 7d f2 f5 3d b0 41 61 3f 82 ad 33 3e a0 14 53 3f
       0.120091416 0.87990856 0.17546657 0.82453346
000280 db 7b 25 3e 0a a1 56 3f 7a ad dc 3d 51 6a 64 3f
       0.16160528 0.83839476 0.107752755 0.89224726
000290 d4 68 1f 3d 72 09 76 3f 77 4a 83 3b 6a f9 7e 3f
       0.03891833 0.9610816 0.0040066796 0.99599326
0002a0 2d 46 00 3e 74 ee 5f 3f bc a2 08 3e 52 d7 5d 3f
       0.1252677 0.87473226 0.13343328 0.8665668
0002b0 c3 8f 17 3d 04 87 76 3f 83 fe fa 3d 2f a0 60 3f
       0.037002336 0.9629977 0.122555755 0.8774442
0002c0 34 90 07 3e f3 1b 5e 3f be 5f 00 3e 10 e8 5f 3f
       0.13238603 0.867614 0.12536523 0.87463474
0002d0 e5 c8 4c 3d 72 33 73 3f 55 79 24 39 b8 f5 7f 3f
       0.049996275 0.95000374 0.00015685458 0.9998431
0002e0 1d a3 ad 3d 9c 4b 6a 3f ef 6a ee 3d a3 32 62 3f
       0.08478377 0.9152162 0.1164149 0.88358516
0002f0 e4 b8 4f 3b 47 30 7f 3f 3f 39 e8 3d d9 f8 62 3f
       0.0031695897 0.9968304 0.11339044 0.8866096
000300 03 d3 f5 3d a0 45 61 3f 8f 4e f4 3d 2f 76 61 3f
       0.12003138 0.87996864 0.11929046 0.8807096
000310 c5 17 c3 3d 07 9d 67 3f f0 f2 60 3c 35 7c 7c 3f
       0.09526018 0.9047398 0.013729796 0.98627025
