data/ppo_penalized_hyacinth_20Ks_1Ke_128x4/ppo_penalized_hyacinth_20Ks_1Ke_128x4_s0/pyt_save/model.pt (torch, 705862 bytes, 29 tensors)

log_std f4 [2]
00000000: 717f 0fc0 2c3d 0ec0
-2.2421534 -2.2224836

weight f4 [128, 60]
00000000: 0d90 073d c591 a43d 5504 b6bd aa49 36bd
00000010: 88e7 973e 17c3 be3e e9bb adbc 4f86 7d3e
00000020: fae2 af3e a1cf 033e 36d1 9fbd 703c 223e
00000030: 34a3 cc3d 4751 0b3d d237 15bd 1721 593c
00000040: 62d5 74bd a3e1 86be 9453 6cbe db44 66bd
00000050: e910 403d 0419 913d be89 b5bd e465 d53d
00000060: dc0b 873c 3640 bb3d 9c22 533e faeb 63bd
00000070: b448 edbd c949 2dbe ec2e b93c f9ab 503d
00000080: 125e 0ebe 8540 5a3d a620 cebc f88d 14be
00000090: a368 89bd 0a0c e53c b379 7d3d 77e4 9a3e
000000a0: cd7a de3b 805a 06be 720e 90be c3b9 ccbe
000000b0: a575 3fbb 3951 ba3d 780d 213e 6d48 d33e
000000c0: 3a79 ac3c 3f66 52bb f06e 203e 31ec 8d3e
000000d0: d1b6 183d d70f b3bd 1ef7 3abe 05ac 6fbe
000000e0: e9d7 bc3d 118b 123e dd8a 8fbe 1c95 88bd
000000f0: 456c 3a3e 9bc6 9b3d 2f6c 85bd e267 bf3b
00000100: ee3e ba3e ce4f e13d e378 3b3d b9d0 893e
00000110: bfe3 953e 3c57 ee3d 051f 4dbe d847 61bd
00000120: 22d6 783d 7512 2e3e 913b ac3e 7104 993e
00000130: 85fc 0d3c 5600 c1be 992d 23be 4768 a5bd
00000140: 9667 f6bd 5eb4 fb3c 8fde ea3d 593d 72be
00000150: 489d a0bd 5869 a73d 848c 2c3d 1963 51bd
00000160: 8948 223d d3a7 42be 4b98 993d 19da 653d
00000170: 709b 303e 6d7f c73d 96bb 1dbe e0fa 05be
00000180: ed5d c63d 7439 ea3d 501d 72be 1d5e d7bd
00000190: e3ba f83d 3706 293e 9e29 79bd b761 31be
000001a0: 365f cebd a087 dc3d 4e64 aabd b0df b8bd
000001b0: 4078 cdbb 71c7 d73d da67 fabb 6a37 893e
000001c0: 28da c2bb 8550 263d 2647 2cbd a42d 61be
000001d0: 01e8 fa3c 3be9 b8bd f984 93bd d6d4 fa3c
000001e0: 5940 373e d44f 073d 4361 6abd c87f 7c3d
000001f0: 57b0 853d 9fd1 11be bf9f 69be cd87 a7bc
00000200: 9c0e b6ba 649f bebd 5ec7 313c 3ba0 d83d
00000210: 49b8 0dbd 10e5 273e b803 983e 975b 3c3e
00000220: 9c82 a3bb 6b10 ccbd 4d0b 9fbc fa1c a83d
00000230: a272 fa3d 02f8 e0bc 05f7 443e e042 54bc
00000240: 19be 04be 55e3 23bd 15e3 343e 5ec6 99bc
00000250: b034 b0bd 8bbc 1ebe 5b2a 40be 9e69 4cbe
00000260: 0937 663d 9d65 f63d 828b 9e3d 2fa5 33be
00000270: d9ee 963d f5e8 71bd b8e2 22be e5af b23d
00000280: e2b4 cbbc ac56 41bd 309a 09bd 4206 3cbe
00000290: 5ab0 59bd bf48 463d ae25 bfbd b1ef 933c
000002a0: 70a5 52be 63cc 6a3d 0437 673e a4f1 e83d
000002b0: 6071 f33d f95d 0abe 2aac 49be a188 2e3e
000002c0: 8184 69bc a2c0 9d3d f024 a53d 29a8 d5bd
000002d0: 2143 8dbd b6be 723a e9c3 613d 7ea0 523d
000002e0: bbae d4bd cbac 18bd ca88 63bd 2e1f 0fbc
000002f0: 71c4 c73d fc70 2c3e d4ed b73d 7c95 47bd
00000300: ce9b f5bd 8c26 763c e981 39be f61c aabe
00000310: ec8b abbd 4f6e b53d e34a 6fbd 8796 38bb
00000320: 4af6 b13b 97b8 0b3e 82c4 37be b825 04be
00000330: 4897 86bc 05d4 fe3d ab7a 42be b1b3 0d3e
00000340: f0c4 c63d fdd3 8d3d 263a 213d 527c 133d
00000350: 3380 fcbb 7544 6dbd 9a77 14bd e768 3c3d
00000360: bb00 22be a051 12be 4bc3 493e 2915 a9bd
00000370: c8e1 17bc dd4a 483e 4d41 b2bd 7d0b b7ba
00000380: 70d7 f5bd f373 96bd b39f 933c ab78 4b3d
00000390: 9f0c 8dbc 2529 a8bd f503 66bd ce3a 253c
000003a0: 2df7 8abd 970d dd3d 76b9 383e e7b8 44bd
000003b0: 9895 8d3d d287 35be 0dc8 c8bd 8f87 1b3d
000003c0: 2150 f73c 6496 973e 7758 a1bc 3617 43be
000003d0: 8ada c53d 5286 49be f1ee 203e 4aa2 83be
000003e0: ced7 7ebe e2d9 a33e 88d5 3bbc d8d1 2a3e
000003f0: 64b2 ac3e c567 873b 0ed3 24be 33ad 52bd
0.033096362 0.08035616 -0.08887545 -0.044503845 0.29668832 0.37258217 -0.021207767 0.24758266
0.34352857 0.12872173 -0.07803576 0.15843368 0.09992066 0.03401306 -0.036430188 0.013252518
-0.05977381 -0.26344022 -0.23078758 -0.05621801 0.046891127 0.070848495 -0.08864163 0.10419825
0.016485147 0.09143107 0.20618671 -0.055644967 -0.11586133 -0.16922678 0.022605382 0.050945256
-0.13903072 0.053284187 -0.025162052 -0.14507282 -0.06709411 0.027959842 0.06188364 0.3025243
0.0067895413 -0.1312046 -0.2813602 -0.39985475 -0.0029214409 0.09097523 0.15727794 0.41266194
0.0210539 -0.00321044 0.1566732 0.27719262 0.037283722 -0.087432556 -0.1825833 -0.23405464
0.09220869 0.14310862 -0.28035632 -0.06669065 0.18205364 0.0760624 -0.06514775 0.005841241
0.36376137 0.1100155 0.045769583 0.26917055 0.2927532 0.116377324 -0.20031364 -0.055000156
0.060751088 0.16999228 0.33639196 0.298862 0.008666162 -0.3769557 -0.15935363 -0.0807653
-0.12031476 0.030725654 0.11468231 -0.23656215 -0.07842499 0.081743896 0.042126194 -0.051119898
0.039619956 -0.19009332 0.07499751 0.056116197 0.17246795 0.097411014 -0.1540359 -0.13083982
0.09685884 0.114367396 -0.23643994 -0.105159976 0.12145021 0.16506277 -0.060830705 -0.17322432
-0.10076754 0.10768056 -0.08319913 -0.0902704 -0.0062704384 0.10536087 -0.0076417746 0.2680009
-0.0059464164 0.040604133 -0.04206004 -0.21990067 0.030628206 -0.0902886 -0.07203097 0.030619066
0.1789564 0.033035114 -0.057221662 0.0616453 0.06527775 -0.1424012 -0.22814845 -0.020450497
-0.0013889852 -0.09307745 0.0108507555 0.105774365 -0.034599576 0.16395974 0.29690337 0.18394314
-0.004989935 -0.09964069 -0.019414568 0.08208652 0.12228896 -0.02746201 0.19234855 -0.012955397
-0.12963142 -0.040011723 0.1766475 -0.018771347 -0.08603799 -0.15501611 -0.18766157 -0.19962165
0.05620483 0.120311 0.07741453 -0.17543481 0.07369775 -0.059060056 -0.15906799 0.087249555
-0.024866525 -0.047201797 -0.03359431 -0.18361762 -0.053146698 0.04840922 -0.09333359 0.01805863
-0.20570922 0.057323825 0.2257958 0.11374214 0.11886859 -0.1351241 -0.19694582 0.17044307
-0.014252783 0.077027574 0.08063686 -0.10432465 -0.068975694 0.00092599855 0.055118475 0.05142259
-0.1038489 -0.037274163 -0.055550374 -0.008735461 0.09754265 0.16839975 0.08980909 -0.048726544
-0.11992608 0.015023839 -0.18115963 -0.3322522 -0.08376297 0.0885893 -0.058421027 -0.0028165893
0.0054309713 0.13644634 -0.17946056 -0.12905014 -0.016429558 0.12442783 -0.18992107 0.13838078
0.097055316 0.06925199 0.039362095 0.036007233 -0.007705712 -0.057926614 -0.036246873 0.04599848
-0.15820591 -0.1428895 0.19703405 -0.08255989 -0.009270139 0.19559808 -0.087038614 -0.0013965216
-0.12003982 -0.07346334 0.018020486 0.049675625 -0.017217932 -0.08210973 -0.056156117 0.010084821
-0.06785426 0.10793608 0.18039498 -0.0480279 0.06913298 -0.17727593 -0.09803782 0.037971076
0.030189576 0.29606926 -0.019695504 -0.19051823 0.09660824 -0.19680145 0.15716149 -0.25709754
-0.2488701 0.3200217 -0.011464484 0.16681612 0.3372985 0.0041322433 -0.16096136 -0.051434707

bias f4 [128]
00000000: ba37 393d 73c8 843c b754 bd3d a6e4 27be
00000010: 2e70 b23d f661 a4bd 9e58 113e 5ab3 d1bd
00000020: d78c 5fbc 6e3c 393d ccb7 623d 5b20 a23b
00000030: f076 0e3b 5699 c83c 50a6 d0bd daf1 67bc
00000040: b178 a63c 060a d53d b312 d0bd 6b50 cdbc
00000050: cd69 babd 11f1 babd 3c45 92bd fb74 debc
00000060: e4ea 993d c4ee 1cbd 004b 5c3d 38d8 89bb
00000070: 4258 d4bd 56c3 d23c 3735 ba3c ce23 c8bd
00000080: 9575 ffbd 34f5 ea3c daf0 92bd b1b3 d93c
00000090: 37af 963b 415e 10bd bc9a 2dbd 7b17 043e
000000a0: b8d7 86bd 9b36 8bbd 2d47 b5bc 9e53 ecbc
000000b0: 8616 493d 5f17 d13d 1bc5 013e 2d9d 4ebd
000000c0: 0bce a7bd 4546 343d 0513 ba3d ba95 e9bd
000000d0: ed3d d8bc 1091 4ebd 08db fabc 52ad cdbc
000000e0: 6088 8ebd f21c 82bc 805f 04bd 4ff2 06bc
000000f0: 2b7e 02bd fec0 50bd 9309 083e 0cb3 02bd
00000100: c24e 8c3d 7721 f8bd f28e 6bbd b2ba e23c
00000110: f0a6 5b3d 25ad ffbd f014 ec3d 3bdb 1ebd
00000120: 6e48 8abb ca26 9cbd f034 c13d 53de 09bc
00000130: b4d9 483d b60c 56bc 72d4 023e 3e02 3a3d
00000140: 8b62 fc3c dcf1 2fbd 2a14 d9bd d011 d93d
00000150: e474 0bbe 60eb 01be 09c3 9abc 8f4f 1bbd
00000160: 862e febd d46c 833d 236f af3c 927e 81bd
00000170: f06f c23d a9f4 163d fd33 bcbd bb87 dcba
00000180: 89e9 babd beb7 a6bd 09ef 703d ba9f 30bc
00000190: f58d 58bd 51d6 1ebd 8775 9dbd fc0e 84bd
000001a0: 81ac 51bc 230a 083d 3f75 6f3d ae3f a23d
000001b0: b0f2 c23d 048f 5e3d dfbd 95bd ce60 15bd
000001c0: 58fc ecbd 65f1 1e3c a1f5 8c3d c6ae a1bb
000001d0: 6cbd 183d 6ca9 b63d 1a97 cd3d c32d 73bd
000001e0: c4cd fc3d 3dde 883d 8ee8 9cbd 730e 833b
000001f0: 6d15 5f3d 0f89 253d 015e db3d 3f02 63bd
0.04521916 0.016208863 0.09244674 -0.16395816 0.08712803 -0.08026497 0.14193961 -0.10239287
-0.013644419 0.045223646 0.055351064 0.0049477047 0.0021738373 0.024487179 -0.101879716 -0.014156783
0.020321222 0.104023024 -0.101598166 -0.02506276 -0.09102211 -0.09128011 -0.07142112 -0.02715539
0.07515505 -0.038313642 0.053782463 -0.0042066835 -0.10368396 0.025727909 0.022730453 -0.09772454
-0.12473599 0.028681375 -0.07174845 0.026574941 0.004598524 -0.035246138 -0.042383894 0.12899582
-0.06584114 -0.067975245 -0.022128666 -0.028848466 0.049093746 0.10209536 0.12672846 -0.050442863
-0.081935965 0.044012327 0.09085659 -0.11405511 -0.026396716 -0.05043131 -0.03062202 -0.02510706
-0.06959605 -0.015882943 -0.03231764 -0.008236482 -0.031858604 -0.0509653 0.13284902 -0.031909034
0.06850959 -0.12115758 -0.05750937 0.027676914 0.053626 -0.124841966 0.11527431 -0.038783293
-0.00422006 -0.07624586 0.09433925 -0.008414823 0.049035743 -0.013064554 0.12776354 0.045412295
0.030808708 -0.042955264 -0.10599549 0.105991006 -0.13618809 -0.12687445 -0.018891828 -0.03791767
-0.124112174 0.06417242 0.021415299 -0.063229695 0.09494007 0.03685442 -0.091896035 -0.0016825119
-0.091265745 -0.08140515 0.05882171 -0.010780269 -0.052869756 -0.038778607 -0.07688432 -0.064481705
-0.012797476 0.033212792 0.058461424 0.07922302 0.09518945 0.05433561 -0.07311606 -0.036469273
-0.11571568 0.009701108 0.068827875 -0.0049341647 0.03729002 0.089190334 0.10038586 -0.059369814
0.12343934 0.066830136 -0.07661544 0.003999525 0.054463793 0.040413912 0.10711289 -0.055422064

weight f4 [128, 128]
00000000: d3c9 4d3b 0b4d b43d cb95 49bd aa90 14bd
00000010: 73dd 163e 5518 733d 174b e83c 9afe 8dbd
00000020: 2424 823d 4e45 e1bd b729 3abd 2c8b 123d
00000030: 4ec5 efbd 7570 84bd 28f5 c3bc eeb2 a33d
00000040: 0216 f9bb cb24 f53c 7727 dd3d c7b6 923d
00000050: 44a3 3a3c 335b 963d 3a07 9bbe 9935 abbd
00000060: fbb5 8b3d b840 7d3d 178f cbbc 6b8d be3d
00000070: 2a7a 9139 5725 c5bc 66b7 4d3d b1b5 f13d
00000080: cf20 13bd 2077 b13d e1a9 613d 641a 17bd
00000090: 3f40 b3bd 782b e0bc e2f6 563d 25ab b1bb
000000a0: 33ff a43d f039 ae3d 4db4 86bc 54ab 87bd
000000b0: beb6 dabd 4ec8 70bd 1aa3 013c 51c1 ad3d
000000c0: e0a7 bcbd 0414 42bd 8952 50bc cfe2 edbc
000000d0: 3957 b13c aa10 053c 15a8 663b 121d e0bd
000000e0: 3b17 a73c 6170 2d3b 2229 8f3d bd83 df3b
000000f0: efdc df3d 2a3a 56bd b5a6 2fbc f442 9a3d
00000100: b267 d6bd 5138 ab3d 46af d3bd 6baa 583e
00000110: 143f 4b3d 1897 dabc 4725 31bd 5cf0 e9bc
00000120: ca49 8abd 2e26 853d de8d 79bd 66fc 0fbb
00000130: 826c 0f3d 82de 0e3d 6101 0fbd ba71 acbd
00000140: e8f5 a9bc aeff eb3c 5382 513d bfed 0dbd
00000150: 5821 b93c 333b 11bd 2281 2a3d 5fda 41bd
00000160: 39f8 343d fdeb 11bd 87b7 943d 9e0f 103d
00000170: 5e05 e0bd a38f df3d ed42 c93a 3fd7 73bd
00000180: 2fe9 983c 7d1b a53c ac21 74be 5a4f 83bd
00000190: 2859 c93d a95f a5bd 003e 943b 6db6 a5bc
000001a0: 5ad1 5dbd 7eea c53c b125 b1bd a8f3 4abd
000001b0: 8e36 ff3d ce63 283c 4413 97bd 5f41 e9bd
000001c0: 9b57 7e3c bc7d 823d 599b 9ebd 3e73 303d
000001d0: 7490 0a3d 5181 ba3a 58a7 92bd 5069 9a3d
000001e0: 2fa9 053c 8a3e 373d c8a5 793d 4650 293d
000001f0: f26d a9bd 8eee 82bd 22c7 87bb 39ae ae3c
00000200: 7b7d 8c3b beb3 c03d 0ff9 2fbd a8c0 413d
00000210: da31 40bd 8b2d 7e3d e41d 0b3d 6456 c13c
00000220: 4fc1 1cbd 9411 773d 8f84 433d d298 983d
00000230: c83f b1bc 5408 b23c d215 f0bc a15b 65bc
00000240: fdd0 833c 34dd b93d 17fc 153d 0ca4 aabc
00000250: b3b9 ab3d 1120 783b 6fc3 db3d 275e cebd
00000260: 0cf7 073c 8188 74bd 6407 d33c 0bb2 533d
00000270: 5b98 0c3d 8ba3 24bd 169a cfba 4acb 513d
00000280: 449c 4dbd 9b66 b33d 10f4 3c3d 3648 793d
00000290: 164b 66bd 0b12 0b3d 6807 14bd ac20 a0bd
000002a0: 9ef0 f1bc 3e07 9e3b ac49 633d 13a1 423c
000002b0: 2b67 813d f78c 38bd af1e b83d 3325 ba3d
000002c0: cc36 81bd 6f3d dd3d a7d3 803c 0bbc 113d
000002d0: d270 6b3d 88be 1a3d 3fad 3cbc 6305 06bd
000002e0: 25ae 6ebd 3940 a7bd d074 383c 08ab a4bd
000002f0: c74f 483d f10b 95bd 1e90 f23d 6888 b9bd
00000300: fe51 fd3c 0af6 d339 0f4e 8abd 9dde 313d
00000310: 6beb 8bbd 83be 60bd 2e1a 5f3c a53c 423d
00000320: 8c3e 483d 69d5 b13d 8038 39bd 59c0 ca3d
00000330: 6b30 0fbd d127 b8bc 1e26 a13d 3769 d53b
00000340: 5c67 2bbd bd32 e3ba 3e29 3ebb 0f62 1dbc
00000350: 9c7e e23d c6c8 89bc e22d b3bd 92f9 89bd
00000360: 1581 a7bc 8f61 6a3c 714f 0abd d0bf ab3c
00000370: afe9 6f3d 78fd b33c d2e4 28bd 6387 073d
00000380: bbff 4e3d d141 543b cd9b dc3a 9e69 f43c
00000390: 2144 08be b731 b6bd 316c d4bc ea85 ab3d
000003a0: f509 b9bd 8035 19bd 8c95 bcbd c788 8bbc
000003b0: a5cb 9a3d 7b3f 9c3d 458a 5dbd 8409 403d
000003c0: 0585 2d3b 066b d7bd 7c39 c33d 1171 d03d
000003d0: e563 61bc df1d 1dbd 9774 d03c 6e73 563d
000003e0: 02b7 363d b588 6fbd d9dd 09bd 0560 fa3c
000003f0: a366 113c 5751 cb3c 1fdc fc3b 528e 4c3c
0.0031400814 0.08803757 -0.04921512 -0.036270775 0.14732914 0.059349377 0.028356118 -0.06933327
0.063545495 -0.10999547 -0.04544994 0.035777256 -0.11707555 -0.06466762 -0.02392061 0.079931125
-0.0076015005 0.02992477 0.10798543 0.07163768 0.011391465 0.073416136 -0.3027895 -0.08359832
0.068218194 0.0618293 -0.024848504 0.09304317 0.00027747574 -0.024065657 0.05022373 0.11802233
-0.03591996 0.086652994 0.05509365 -0.036890402 -0.08752488 -0.027364478 0.05248154 -0.0054220133
0.08056488 0.085071445 -0.016443396 -0.06624475 -0.106793866 -0.058784775 0.007912422 0.08484138
-0.09211707 -0.04738237 -0.01271499 -0.029038815 0.021648036 0.008121649 0.00351954 -0.10943045
0.02039682 0.0026464688 0.06990267 0.0068211243 0.109308116 -0.052301563 -0.010720898 0.075323015
-0.10468997 0.08360351 -0.10336165 0.2115876 0.049620703 -0.026683375 -0.04324844 -0.028556995
-0.067523554 0.06501423 -0.06092631 -0.002197051 0.03501559 0.03488017 -0.034913424 -0.08420129
-0.02074714 0.028808441 0.051149677 -0.03465056 0.022598907 -0.035456847 0.041627057 -0.047327396
0.044182036 -0.035625447 0.072615676 0.035171144 -0.10938524 0.109160684 0.0015355028 -0.059531447
0.018665878 0.020154709 -0.2384097 -0.064116195 0.09831458 -0.08074886 0.0045239925 -0.020228589
-0.05415473 0.024159666 -0.08649767 -0.049548775 0.12461577 0.010277702 -0.073767215 -0.11389422
0.015523816 0.06371638 -0.07744474 0.043078654 0.033829167 0.0014229213 -0.071608245 0.07539618
0.008158012 0.044737376 0.060949117 0.04133632 -0.082729235 -0.06393157 -0.0041436115 0.02132331
0.0042874194 0.09409283 -0.04296213 0.047302872 -0.046922542 0.062055152 0.033964053 0.023600765
-0.03827029 0.0603195 0.04773384 0.07451023 -0.021636859 0.021732487 -0.02930728 -0.013998897
0.016090864 0.09075394 0.036617365 -0.020830177 0.08385029 0.003786091 0.107306354 -0.10076552
0.008298647 -0.059700493 0.02576036 0.051683467 0.034324985 -0.04019503 -0.0015838768 0.051219262
-0.050197855 0.08759805 0.046131194 0.06085988 -0.05622395 0.033952754 -0.036139876 -0.07818732
-0.02953368 0.0048226407 0.05549018 0.011879223 0.06318506 -0.04505631 0.089902274 0.090891264
-0.0630928 0.10802733 0.015725924 0.035579722 0.05748064 0.03777936 -0.011515914 -0.03271998
-0.058271546 -0.081665464 0.011258319 -0.08040434 0.048904207 -0.07277668 0.118438944 -0.090592206
0.030922886 0.0004042837 -0.0675317 0.04342519 -0.06832012 -0.054869186 0.013617082 0.047421116
0.048887774 0.08683283 -0.0452199 0.09899969 -0.034958284 -0.022479923 0.078685984 0.0065127867
-0.041846618 -0.0017333847 -0.0029016281 -0.0096058985 0.11059305 -0.016819369 -0.08748986 -0.06737055
-0.020447293 0.014305486 -0.033767167 0.020965487 0.058572467 0.02197145 -0.041233845 0.0330881
0.050536852 0.0032387862 0.00168311 0.029835518 -0.13307239 -0.08896201 -0.025930496 0.083751515
-0.09035102 -0.037404537 -0.09208211 -0.017032994 0.07558373 0.076292954 -0.054086942 0.046884075
0.002647699 -0.1051846 0.09532449 0.10177816 -0.013756727 -0.038358565 0.02544622 0.052356176
0.044608124 -0.058479983 -0.033658836 0.030563364 0.008874568 0.02481906 0.00771667 0.012485104

bias f4 [128]
00000000: 328c dfbc c1dd 64bd 10c8 1c3d 9df2 81bd
00000010: 0733 2a3d 5a0d b53d 77e6 8dbc 01d9 573c
00000020: dd02 0fbd 0689 623d 29b8 a8bc 70ba 833d
00000030: c74a 963d 98eb be3c 724a 093d e9e0 efbc
00000040: e172 3a3d 55d4 71bd f7d6 af3c e26f 943d
00000050: d6b5 713d 1574 3abd 3c64 e8bc 30cc 57bd
00000060: 1457 aa3d 02e5 6dbd 0ee5 913d ce66 7dbd
00000070: 4063 80bd ed7f 803d a592 0d3c a056 1abd
00000080: afbb 0abc f01d a7bd db0f 783c decd 933b
00000090: 4ef7 4cbd a74c 583d d705 bbbc 0962 7e3d
000000a0: 5f7c 99bd da9d 1fbd b186 203d 6018 ccbd
000000b0: 4381 8cbd 1f29 62bd bad4 323d ea24 8a3d
000000c0: da35 ac3c 329f 3b3d ae41 de3c 0646 183d
000000d0: 4e79 043d 0865 97bd ec37 29bd 2478 533d
000000e0: d048 47bd e463 96bd 50a8 9a3d 975e 5f3d
000000f0: b6e4 cd3c 0da0 4a3c 3a01 c53c 13da 6dbd
00000100: 08b9 1d3d fa17 b93c 1f45 4dbb 9fe8 1cbd
00000110: 95ac 11bb 1a02 04bc 0a83 6abd 235b 813d
00000120: e618 9abc 96e6 47bd b93d 903d 0b45 853d
00000130: 0cc6 ee3c ee67 d23c cea5 76bd 7e27 273d
00000140: 67fa 9b3d cf2d 213d 4949 0bbd 2000 053c
00000150: 7320 a5bd 943f a3bd 4f9a 2e3d 407f aebc
00000160: c7fb a83d f38a 16bc 223e 5c3d 0f88 5b3d
00000170: 9aa8 21bd 7ced 7fbb 1ab9 02bc 9996 acbd
00000180: 30cf 433a 1d64 b1bd 76b3 213c 1a2b 683d
00000190: 3ea3 07bd fa8d aa3d 1047 02bd 9d2d 133d
000001a0: 653d 3e3b 3d40 0b3d e50c a03d 069a 87bd
000001b0: 0ac9 593d bdfc a33c 2dfe 70bd 1c55 563d
000001c0: 72aa 443d c5f0 c03b f41d 05ba 3cdd 49bd
000001d0: d849 b6bd 5ccd a3bd 60a8 a03d 4c77 383d
000001e0: dcb1 36bd ff71 313d 9ebf ac3d 9318 cf3c
000001f0: 7f46 0fbd cdea 07bc b391 5c3b 9c88 ec3c
-0.02728853 -0.055875544 0.038276732 -0.06345103 0.04155257 0.08840437 -0.017321808 0.013174296
-0.03491484 0.055306457 -0.020595627 0.064320445 0.073384814 0.0233057 0.033518262 -0.02928205
0.045519713 -0.059040386 0.021464808 0.072479025 0.059011303 -0.04552086 -0.028368108 -0.052684963
0.0831739 -0.058079727 0.07123767 -0.06186562 -0.062689304 0.062744 0.00864092 -0.03768027
-0.008467599 -0.08160007 0.015140499 0.0045106253 -0.050040536 0.052807476 -0.022829933 0.062105212
-0.07494425 -0.0389689 0.03919095 -0.09965587 -0.06860592 -0.055214997 0.043659903 0.06745322
0.021021772 0.045806117 0.027130928 0.037176155 0.032342248 -0.07392317 -0.041313097 0.051628247
-0.048653424 -0.073432714 0.07551634 0.054533567 0.025133472 0.012367261 0.024048436 -0.0580693
0.038506538 0.02259444 -0.0031321717 -0.038307782 -0.002222811 -0.008057142 -0.057253875 0.06316211
-0.0188107 -0.04880389 0.07043023 0.065073095 0.02914717 0.025684323 -0.060216717 0.040809147
0.0761612 0.039350327 -0.034005437 0.008117706 -0.0806283 -0.07971111 0.04262763 -0.021300912
0.08251148 -0.0091884015 0.053770192 0.053596552 -0.03946743 -0.0039051464 -0.007978702 -0.08427162
0.0007469533 -0.08661673 0.009869447 0.05668173 -0.033114664 0.08327861 -0.03180605 0.035932172
0.0029028293 0.03399681 0.078149594 -0.066211745 0.05317024 0.020017976 -0.05883615 0.05232726
0.04801411 0.005888077 -0.0005078011 -0.04928325 -0.08900803 -0.079981536 0.07844615 0.045035645
-0.044603214 0.043321606 0.084349856 0.025280273 -0.03497934 -0.008295727 0.003365618 0.028873734

weight f4 [128, 128]
00000000: 4a26 a8bd 8e69 dcbd d4bf 89bd fced 23be
00000010: 58c1 6e3d 3e85 763e 74e6 273e 71ed 183e
00000020: 3adf b9bd 5419 d4bc 17a3 c23d 2d8b 81ba
00000030: acd3 1ebe 911b 12bd 43d7 a53e 26de bb3d
00000040: ef0e e03d d669 b13e b8cc 853e fd5a 41bc
00000050: a9a4 27be 0c06 883e 1b64 51bd d75c a3be
00000060: 76f7 313d 318a e43d 03e5 cfbc 6a9e 8a3e
00000070: a995 0c3b 3ffa 5a3d ceef 253e e3d4 63bd
00000080: 19a2 643d 02bf 573d 5119 623c e1e7 3dbc
00000090: 1962 05bd dabf 473e 4c9d 20bd df47 8e3c
000000a0: 2b4d f1ba 9344 753d 4a96 323d 9028 4bbe
000000b0: 26f2 a1bc 5833 bbbc 7bb8 a43e 7818 cc3b
000000c0: 2ea9 db3d d640 48be 8441 5cbe 5f52 513e
000000d0: e477 8ebd 55ce 16be bc0d 403d 03ca 733d
000000e0: 88bb e23d aa2a 08be 4209 013d 88bf 343e
000000f0: 3e50 0fbe 0cb1 2b3e 765f 2dbd 9db1 9ebc
00000100: 95a8 333e 9e32 bebd a7e9 d1bd 3f41 233e
00000110: 5300 c9bc c84a f7bd 6fae c7bd 3895 ca3d
00000120: c86e 0e3e a1ef d9bd 4355 383d b624 703e
00000130: dd26 8e3d c306 be3c 5006 e23d 0830 e1bd
00000140: 067e 563c 0053 bdbd 63a3 f5bd 2276 a33d
00000150: 7e28 98bd c74e f9bd e53d ba3c 137b 78be
00000160: d721 6fbe b6bb 403d 3d4e bcbd c8b2 273e
00000170: 0574 eebd 4e50 8d3c 4767 223e 25aa 843d
00000180: f809 aebd 81a8 e5bd 417a 99bd 230d 7cbd
00000190: 150c d8be a7eb 1abe 655e a2bd 04c2 99bc
000001a0: 8394 81bc 0c90 843c 54a0 19be 6832 bb3d
000001b0: ef53 bb3e 2ab6 56be 8b2e d23b f080 0f3d
000001c0: d534 fbbd 31ca 6b3d 1aaf 07bd 4a3a b13d
000001d0: e9b5 4e3e e4f2 06bc 57c9 bd3d 65a2 cfba
000001e0: ed96 b53d b69b a13e 0c5d a8bd 9fa5 533e
000001f0: 75f9 5c3e 0952 833c b4f7 3ebd 370b 0dbe
00000200: da7a c4bd c36c 4b3d 233b e9bc 5aa1 10bc
00000210: e050 16bc 7d94 b73d 1112 ba3d 660d 383d
00000220: 4a46 ab3c 4899 68bb 9350 703c 7e6d e03c
00000230: eed2 21bd e232 273d 349c ba3d 8454 733d
00000240: fcdc 8f3d 9d62 57bc 6766 c43d 27e7 963d
00000250: 41ac 4dbd e165 1b3c a94c dbbd 14a4 8dbd
00000260: 239a 243d 5e28 16be fd6e 9b3d 4f6d 803d
00000270: 50cd 96bd 7871 443d 225f a2bc 4bde 01bd
00000280: 0005 2d3d 3aa8 063e a28d 31bd a4f2 cd3b
00000290: 4a11 36bc f5f4 113e 162d 483c f107 7f3d
000002a0: cb4a 133d 3516 4abd 1806 703d 45d6 10be
000002b0: d1fc 673d 9afd a3bd 3735 ef3c f7d9 bbb8
000002c0: 0114 523c 3255 963d f7b9 bcbd 4597 70bd
000002d0: 7412 593d 5e1d 95bd 7980 243d 1259 42bd
000002e0: 5f4e a23c 8543 7b3d 7217 173d 8f95 063e
000002f0: 8b2f 8cbd a9b2 b43d 35d4 09be 47d7 c53c
00000300: b076 3c3d 83c1 193d ee98 f33c b223 ef3d
00000310: 807c cdbc 2eb1 123c 8c9f 1dbd 03ce 45bd
00000320: 1b39 4ebc a096 22be ae6f ccbd 3cab d7bc
00000330: 4c3d 6ebd bc03 0c3e 6185 143d 72ec ebbd
00000340: 5862 1bbc 8f1e 90bc 6c74 b7bd 9371 943d
00000350: f527 6b3d 2437 debd c799 e6bd 8041 bcbd
00000360: 61ba 4f3d 8653 0f3d da25 6bbd d532 1d3d
00000370: 296e a1bc 3953 9cbc ef84 3bbd d809 b53d
00000380: a8cd a0bd 4fc7 b9bc 4af7 ae3d 88ba 0b3e
00000390: e85d 2fbd 4c27 02be 9bc3 62ba ae0b 78bd
000003a0: cc65 6dbd a8c8 d8bd f6d7 06be 3ab5 4cbc
000003b0: a8af 8c3d 4e76 8e3d db42 0f3c 9af5 813c
000003c0: 99cb adbd 800c d23c d4b9 dcbd e3e5 c5bc
000003d0: 7f79 dd3d c3ee c2bd 8b4a b5bc 949a 4f3d
000003e0: f485 ca3c db33 27bb be53 32bd a846 a93b
000003f0: 082e 0d3b 1af9 8f3c 06a4 30bd f7b1 77be
-0.08210428 -0.107623205 -0.067260414 -0.16008753 0.058289856 0.24074265 0.16396505 0.14934327
-0.0907578 -0.025890984 0.09503763 -0.0009883397 -0.15510434 -0.03567082 0.32390794 0.09173231
0.10940348 0.3465106 0.2613275 -0.011801478 -0.16371407 0.26567113 -0.05112086 -0.3190677
0.043448888 0.111591704 -0.025377756 0.27073985 0.002145151 0.05346131 0.1620476 -0.055622946
0.05581865 0.052672394 0.013799981 -0.011590929 -0.032564256 0.1950678 -0.03921251 0.017368255
-0.0018409839 0.05987985 0.043600358 -0.19839692 -0.019768786 -0.022851631 0.32171997 0.006228503
0.10725628 -0.19555983 -0.21509367 0.20441578 -0.06956461 -0.14727147 0.046888098 0.059518825
0.11070925 -0.13297525 0.03150297 0.17651188 -0.13995454 0.16766757 -0.042327367 -0.019371802
0.17544778 -0.09286998 -0.10249644 0.15942858 -0.024536287 -0.1207481 -0.097500674 0.098917425
0.13909447 -0.10641409 0.045003187 0.23451504 0.06941006 0.023196584 0.1103636 -0.10995489
0.01309157 -0.092443466 -0.11994054 0.079815164 -0.07429598 -0.12173229 0.022734592 -0.24265699
-0.23352753 0.047054015 -0.0919461 0.16376793 -0.11643223 0.017250206 0.1585971 0.06477765
-0.08497995 -0.1121378 -0.07494021 -0.061535966 -0.42196718 -0.15128957 -0.079281606 -0.018769272
-0.015817886 0.016181968 -0.15002567 0.091404736 0.36587474 -0.20967928 0.0064142398 0.035035074
-0.12265936 0.05756587 -0.033125974 0.08653696 0.2018658 -0.008236621 0.09266918 -0.0015841244
0.088666774 0.3156411 -0.08220872 0.20668648 0.21579535 0.016030328 -0.046622947 -0.1377381
-0.095937446 0.04966427 -0.028470581 -0.008827532 -0.009174556 0.08963869 0.09085477 0.044934653
0.02090754 -0.0035491753 0.014667648 0.02739596 -0.0395078 0.04082001 0.09111825 0.059406772
0.07024571 -0.01314607 0.09589844 0.073683076 -0.050213102 0.009484739 -0.10707981 -0.06916061
0.04018606 -0.14663836 0.07589529 0.06270849 -0.07363379 0.047959775 -0.019820753 -0.031706136
0.042241096 0.13150111 -0.043347962 0.0062850285 -0.0111125205 0.142536 0.012217781 0.062263433
0.03596 -0.049337585 0.05859956 -0.14144237 0.05663759 -0.08007355 0.02920018 -8.957454e-05
0.012822152 0.073404685 -0.092151575 -0.058738012 0.052996114 -0.07280992 0.040161584 -0.047448225
0.01981276 0.06134369 0.036887594 0.1314299 -0.068450056 0.08823139 -0.13459857 0.024150504
0.046011627 0.037538063 0.029736008 0.1167673 -0.02508378 0.008953376 -0.038482234 -0.04829217
-0.012586857 -0.15877771 -0.09982239 -0.026326768 -0.058163926 0.136733 0.036260013 -0.11519708
-0.009483896 -0.017592696 -0.089577526 0.07248225 0.057411153 -0.10850361 -0.112597995 -0.09192181
0.050714854 0.034991764 -0.057409145 0.038378555 -0.019705849 -0.019082652 -0.045781072 0.08839768
-0.07851726 -0.022678046 0.085432604 0.13645375 -0.042814165 -0.12710303 -0.00086503633 -0.060558014
-0.05795841 -0.10585147 -0.1316832 -0.01249438 0.06869441 0.069561586 0.008743967 0.015864182
-0.08486099 0.025640726 -0.107776314 -0.02415747 0.10814189 -0.095181964 -0.022130271 0.050684527
0.024722077 -0.0025513086 -0.043536894 0.0051658936 0.002154233 0.017574836 -0.043125175 -0.24188982

bias f4 [128]
00000000: 4055 a6bc 9787 9f3c 4c02 173d 9332 883b
00000010: b8ff 31bc 1b60 a63c a94b debc 43ec 66bd
00000020: 74d0 94bc 8aab 91bd 9bda 9ebd c774 7fbc
00000030: 3484 39bd 9f22 323d 8ad2 cf3c 2a49 56bd
00000040: abcc 393c fb51 f8bc ee5d a53c 8c34 6ebd
00000050: 00be 3cbd dfab b73c c7eb 473c 756b 92bc
00000060: 553b 37bc 8d7f 4bbd 11e6 a0bd b7ad 873c
00000070: f464 533d 6e47 be3c 7e30 363c 976f b13b
00000080: 98ca 8abd 9caa c3bb 9ae1 64bd c23d 7e3d
00000090: 3acf 163d d7e5 2e3d 22f3 3e3d 8218 023b
000000a0: 730d 943c 94f6 8a3b 35e3 1dbd 9389 8b3d
000000b0: 256c 88bc 1c69 dcbd 2afe e0bb 5789 8fbd
000000c0: 62c3 8b3d c3b7 4dba 08ac 5bbd f9a7 073d
000000d0: 72e7 183c 42d7 b83b 1882 20bd b5ea 66bd
000000e0: 1c06 63bd 784a 36bc 48d8 26bd 120a 8c3d
000000f0: 0c13 e93c 3e98 15bc e6a3 d3bc 2333 793d
00000100: d03b c63c d6d3 9dbd 1377 9dbd 360a 73bd
00000110: ff53 923d 6452 16bd fb54 483d 59d2 0e3d
00000120: 88c1 4f3d fd0d 893d 7ce3 453d 56d9 813d
00000130: 45bd c53c 090b b1bc ecb0 35bd 8aae 083c
00000140: 17b3 853d 8f8e 5fbd a07f a43d 6aee a33c
00000150: 037d eabc 20af 873c f1bb 12bd e082 c23b
00000160: 2e42 303b b158 87bd 910e 25bd 00bf 27bd
00000170: 37c3 8e3c 3888 63bc e5d7 86bd 062f 7c3d
00000180: bd42 6c3d 5ce0 31bd db76 63bd 4328 723d
00000190: 27df c43c 8225 6abd bed4 8dbd e663 113d
000001a0: 8a00 94bd 6370 82bc ff25 e6bb 8039 80bd
000001b0: 0636 983d be55 dbbc 98d3 dfbc b3d0 543d
000001c0: a934 aabc f6fd 283c 21b0 7bbd ee04 c2ba
000001d0: fbbe 7fbd cce3 c93b a726 edbc c6e6 163c
000001e0: a8af 353d b3ba 17bc 2309 033d ea4f 90bd
000001f0: 2097 c53c d5da d2ba c4d6 973d 0426 3cbd
-0.020304322 0.019473834 0.036867425 0.0041564195 -0.010864191 0.020309499 -0.027135687 -0.05637766
-0.018165804 -0.071127966 -0.077565394 -0.015591807 -0.045292094 0.04349005 0.025368948 -0.05231587
0.011340301 -0.030312529 0.02018639 -0.05815558 -0.046079636 0.022420822 0.01220221 -0.017873505
-0.011183579 -0.04968219 -0.07856382 0.016562326 0.05160995 0.02322742 0.01111996 0.005414914
-0.06776923 -0.005971266 -0.055879213 0.062070616 0.03681872 0.04269966 0.04661859 0.0019851034
0.01807282 0.00424082 -0.03854676 0.068133496 -0.01665313 -0.107622355 -0.006866236 -0.07008617
0.06824376 -0.0007847512 -0.05363086 0.033119176 0.009332525 0.005640895 -0.039186567 -0.056376178
-0.05542575 -0.011126153 -0.040733606 0.06837858 0.028451465 -0.009130536 -0.025834989 0.060839783
0.024198443 -0.0770642 -0.07688727 -0.05933591 0.07144927 -0.036699668 0.04890917 0.034868572
0.050721675 0.06692121 0.04831265 0.06340282 0.024138102 -0.021611707 -0.04435818 0.008342395
0.06528299 -0.054579314 0.08032155 0.020011146 -0.028624063 0.016562998 -0.035823766 0.0059360117
0.0026894915 -0.066087134 -0.040297095 -0.040953636 0.01742707 -0.013887458 -0.06584147 0.061568283
0.057680834 -0.043426856 -0.05553327 0.059120428 0.024032189 -0.057164676 -0.06925343 0.03549566
-0.07226665 -0.01592273 -0.0070235725 -0.06260967 0.07432179 -0.026774283 -0.027322575 0.051956844
-0.020777063 0.010314455 -0.061447266 -0.0014802495 -0.062437993 0.0061611887 -0.028949095 0.009210294
0.044356972 -0.009260821 0.031991135 -0.070464924 0.024119914 -0.0016086946 0.0741401 -0.045934692

weight f4 [128, 128]
00000000: f8e7 4b3d 3388 d53c 4c21 c43c 9fcc bcbc
00000010: 14b1 863d 31d5 2f3d c522 c73d c718 883d
00000020: b547 313d 6b65 07bd 4183 d7bd 320b cfbc
00000030: 92a4 4cbd 71cf f3bd 627b 303d 91d1 8e3d
00000040: 6bde 183d 830c 77bc 28d5 39bc c1c6 173e
00000050: 00f7 5f3d e114 ddbc bb3a a53d f922 793d
00000060: 7b5e b73c 8342 f1bd d30f bb3c 58e3 26bd
00000070: 3f0e 35bd 572d 20bd 512b 00bd 5d25 0dbb
00000080: 452d b23c 4308 27bd d57e bbbd a731 64bd
00000090: 1852 8cbd 827c 3f3d 566e 983d 316a aebb
000000a0: ae50 a1bc 5317 5f3d ec5e 69bc f020 cc3c
000000b0: c95d 233e 80d3 943c 642d ac3d b3a6 d0bd
000000c0: 775b bebd 183a 1d3d 952a cf3b e428 83bd
000000d0: 6d26 7c3c 3038 aa3d 1b10 973d 6324 d2bd
000000e0: 71ae 643b af20 b93d 4787 babd a16b 403d
000000f0: 1276 c5bd 621f dcbb de52 29bc a629 c73c
00000100: 57b1 3d3d 0328 cdbd 786f b83c 555b a5bd
00000110: c81f 503d dfa9 1cbc 86f7 23bd 39af b53d
00000120: fa66 0a3d bf0d f63d 81a3 b03c 1375 86bd
00000130: ca6c 01bd 9296 053c b2ac 41bd f794 9e3c
00000140: 84fb 57bd 1414 98bd 1925 0abc b23f 883c
00000150: 15b3 d1bd a288 85bd c975 b73d c0aa cbbd
00000160: 38a2 e4bc 9ab8 a33d 0b2e 7a3d d051 8fbc
00000170: e862 29bd e8f4 82bd 1719 7ebc 10a0 75bd
00000180: 5e41 a33d 66cb 9abc 50a7 e2bd 393b 81bd
00000190: 6b03 87bd a342 f43c 4cba 19be 737b d0bc
000001a0: 6d39 a4bc 5187 76bc fc59 673d 0886 60bd
000001b0: 7362 8ebd ec96 b9bd 04bc a4bd b1c5 10bd
000001c0: 2a5a 30bd 90f7 843d 806a 133e 85ec 5f3d
000001d0: f3f7 d6bc 2082 d53c b8ca 6ebd a409 8e3d
000001e0: 2d1c a03c 3781 54bd 5d1d 91bd 7781 dfbd
000001f0: 5f85 573d 065a d93d ee87 84bd 0f42 09bd
00000200: 0c82 a5bd b394 e1bd a8ed 05bd d654 0dbe
00000210: f9cd adbd 1e3f 6c3d 7b4d 853d c12f cabc
00000220: 7f41 bbbd 7bdf 5bbc 470c e8ba dfde 22bd
00000230: 58b7 3b3c e148 66bd 5d74 42bb 867d 13bb
00000240: 3c1c 0d3d 7dd6 b13d 693f 073e f5dc 183d
00000250: ba55 ef3d eaae 873d 2c98 273e 0f87 8c3d
00000260: 111d ba3c 8f4c 1e3d 8de4 883d 7646 62bd
00000270: 63e0 ed3d 41db 283e c53f e8bd 060b e93d
00000280: 2659 ff3c 8759 773d 196a 9fbd 3d50 1cbd
00000290: f8b9 103d 03c5 6c3c 2996 033e 1205 1f3c
000002a0: d6f4 8dbc fef5 c03c aa9d 323d 7695 c93d
000002b0: 4199 aa3d 84d9 bf3c c326 783d 2b59 cc3d
000002c0: efc7 c53d ae0f cf3c c3a2 a93d e631 0fbd
000002d0: 1cab 993d faa8 e83d b9ed 003b 65c2 06bd
000002e0: 0b54 a33c ca61 703d ede5 823c c3c7 c93d
000002f0: 8f90 14be af51 b0bd 064c e4bc 9ae1 91bc
00000300: 3211 2dbd 7262 713d b577 aa3d 3bb8 163c
00000310: ed5a adbd 4354 26be f393 d43c 5fd2 bfbd
00000320: 0c08 123e d495 593d 0e60 0b3e c3a6 05be
00000330: 958b ddbc 2fce 5a3e 5ac7 933d 010f 05be
00000340: c2dc 7b3d 6f58 05be 4ffb 113e bdb9 ff38
00000350: 8b93 51bd 3068 b73d a214 7bbd 1c63 b23d
00000360: e4de f33d 4470 e1bd 2b46 b2bd e803 cf3d
00000370: 437c 81bd c6eb 66bd dbd5 90bd 7f82 96bb
00000380: 940d c73c 1c4b 11be 3729 aebd 1cd8 34bd
00000390: b524 b43b bfc6 2fbd 97a4 fa3b ad5d 193e
000003a0: b376 57bc b38b b9bd 6fdd 253e 8b2e 023e
000003b0: bc12 9e3c 9ec5 a2bd e519 8fbd beee 083e
000003c0: 7a0b f43d 9c5a 92bc 4c97 a8bd b2d8 87bd
000003d0: 2548 84bd d0cd 193d d295 00bd f373 28bd
000003e0: bf2e 55bd bb77 cbbd ceb4 bb3d 05f3 f03c
000003f0: e9f3 023d 9859 09bd dc69 893d 303b da3c
0.04978177 0.026065921 0.023941658 -0.02304679 0.06576744 0.042927925 0.09723429 0.06645351
0.043281276 -0.033055704 -0.105230816 -0.025273893 -0.049961634 -0.11904801 0.043086417 0.06973565
0.03732149 -0.015078667 -0.011342324 0.14821912 0.054678917 -0.026987495 0.080678426 0.06082437
0.022383919 -0.11780264 0.022834694 -0.040744156 -0.04420304 -0.03910574 -0.03129131 -0.0021537163
0.021750102 -0.040779363 -0.09155051 -0.055711415 -0.06851596 0.0467496 0.0744292 -0.0053227176
-0.019691791 0.054465603 -0.014243823 0.02491805 0.15953745 0.018167257 0.08407095 -0.10188045
-0.09294789 0.03838548 0.006322215 -0.06404284 0.015390021 0.08311498 0.07376119 -0.102608465
0.0034894014 0.09039437 -0.09107833 0.046977643 -0.09641661 -0.0067176083 -0.0103346985 0.024311852
0.046311703 -0.10017397 0.02251409 -0.08074061 0.05081156 -0.009561985 -0.04003098 0.08871312
0.033789612 0.120143406 0.02156234 -0.06565299 -0.03159789 0.008153575 -0.047283836 0.019358141
-0.0527301 -0.074257046 -0.008431696 0.016631935 -0.10239235 -0.06520201 0.089580126 -0.09944677
-0.027909383 0.07994194 0.061079066 -0.017495066 -0.04135409 -0.063943684 -0.015508912 -0.0599671
0.07971452 -0.018895816 -0.110670686 -0.06310124 -0.06592449 0.029816931 -0.15012473 -0.02544949
-0.020046914 -0.01504691 0.0564823 -0.054815322 -0.069523714 -0.09061989 -0.08043674 -0.035344783
-0.043054737 0.06492531 0.14396095 0.054668922 -0.026241278 0.026063025 -0.058298796 0.069354326
0.019544685 -0.05188104 -0.07085679 -0.10913365 0.052617427 0.10612874 -0.06471239 -0.033510264
-0.08081445 -0.1101469 -0.03269735 -0.13801894 -0.08486552 0.05767738 0.06508919 -0.024680974
-0.09143352 -0.013419981 -0.0017703854 -0.039763328 0.011457287 -0.056221846 -0.0029671409 -0.0022505238
0.034450755 0.086834885 0.13207783 0.037320096 0.11686273 0.06625159 0.16366643 0.06861698
0.022718938 0.03864723 0.066842176 -0.055242978 0.11615064 0.16489889 -0.11340288 0.11379056
0.031170439 0.060388114 -0.077839084 -0.03816246 0.035333604 0.014451268 0.1285025 0.009705799
-0.017328661 0.023554798 0.04360739 0.098429605 0.08330012 0.02341915 0.06058384 0.09977945
0.09657275 0.025276031 0.082829975 -0.034959696 0.0750334 0.11360355 0.0019672944 -0.032900233
0.019937536 0.05868701 0.015978778 0.09852555 -0.1450827 -0.0860933 -0.027868282 -0.01780777
-0.042252727 0.058931775 0.083236136 0.009199197 -0.08464608 -0.16243081 0.025949454 -0.09366297
0.14260882 0.053121403 0.1361086 -0.13051896 -0.027044097 0.21367715 0.07215758 -0.12994005
0.061489828 -0.13022016 0.14256023 0.00012193944 -0.0511661 0.08955419 -0.061298974 0.0871031
0.119077474 -0.11007741 -0.0870479 0.10108167 -0.06322529 -0.056377195 -0.0707204 -0.004593193
0.024298467 -0.14188808 -0.08503955 -0.04415141 0.00549754 -0.04291415 0.007649015 0.1497714
-0.013150859 -0.09059849 0.16197751 0.12713067 0.019296043 -0.07947849 -0.06987361 0.13372323
0.119162515 -0.017865472 -0.082319826 -0.06633128 -0.06459073 0.037549794 -0.03139288 -0.041126203
-0.052046534 -0.09934946 0.09165345 0.029412756 0.031970892 -0.03353271 0.06709644 0.02663955

bias f4 [128]
00000000: 7799 a9bd d5aa 473d e1ee 683d 4f6f 953d
00000010: 35ed 5e3d a39f 37bd 0791 9b3d 8e50 73bd
00000020: 3b2b 9dbd 5192 4d3c 26e9 d1bc 8b11 93bc
00000030: ec39 96bd cd1f c8bc 1069 603d f62b 19bd
00000040: 15ca 4d3b f69c 03bd 6657 31bd 6f6e 6c3b
00000050: e13c 983d f40d b13d 64b7 943d 8284 86bd
00000060: 6b9e 76bd 5b6b b23b ad4a 9b3d ebf0 3ebd
00000070: 5b54 8b3c d536 c1bc e4cd d9bb 61b7 1a3d
00000080: 437d 803d f55d 2b3d 231c e13c f858 793d
00000090: 1411 003c 557b eebc ab40 84bd 3a67 5b3d
000000a0: a323 1dbd 9b3a 0bbc 2c4f b239 adf7 cc3d
000000b0: 4a36 76bd 5c26 f6bc 9437 113d 6f13 66bd
000000c0: 237b 053d 0eb0 86bd 339f 943d ac28 ec3c
000000d0: 3799 98bd cc60 633d f2e2 63bb b6f5 523d
000000e0: 3695 273c be17 283c df5d 80bd ae0d c03d
000000f0: 0a90 90bc 6443 65bd df1d 11ba 5760 313d
00000100: c739 353d f6b0 70bd fcf4 773c 1e74 ae3d
00000110: 377b a9bd 2061 933c ae60 1a3d 4a37 21bb
00000120: 736f 1d3d 1690 a9bc 7c15 a93d 2c02 d9bb
00000130: c77b 2fbb 3e4e 3f3d ad35 c3bc a4b2 aabd
00000140: 468b ad3b 03f4 69bd 4cc9 aebc 8746 2b3d
00000150: 4630 a6bc 044b 13bd 81f5 b53d 00ca d53c
00000160: c0c4 94bd 4bed 5fbd 8db5 863d 42cf 103d
00000170: fee7 c33d faa4 89bd b15b 1fbd c5ff a8bc
00000180: 67bf 86bd 4d0b 69bc 422a c03d 6b45 d33c
00000190: 64d3 db3b 0e33 973c a79d a93d 2663 863c
000001a0: 345c 9dbd 91f5 6f3c d7f2 1d3d fa56 193c
000001b0: ae9b 293d d43a 383c 343c 43bc 1863 a1bd
000001c0: 88d2 783d d409 07bd d2df 02bb 5867 80bd
000001d0: 4d62 5a3b 4bc8 01bd 8835 f5bc 5835 58bd
000001e0: d2d2 883c 6206 cd3c 51bd 9a3c 5427 823d
000001f0: dadb 9abc 1609 1fbd 3ef8 873d 4033 603d
-0.08281224 0.048746902 0.056868438 0.07296621 0.054425437 -0.044829976 0.07596021 -0.059402995
-0.07674261 0.012547092 -0.02562387 -0.017952701 -0.073352665 -0.024429226 0.054787695 -0.03739544
0.0031400968 -0.03213211 -0.04329624 0.0036076566 0.07433487 0.086452395 0.072615415 -0.065682426
-0.060209673 0.0054449267 0.07582603 -0.046616476 0.017007997 -0.023585716 -0.0066468585 0.03777254
0.06273892 0.04183765 0.027479237 0.060875863 0.007816572 -0.029111544 -0.06457647 0.05356524
-0.038364064 -0.008497859 0.00034009793 0.10008178 -0.060110368 -0.030047588 0.035453394 -0.056170877
0.032588135 -0.065765485 0.07256927 0.028827988 -0.074510984 0.055512235 -0.003477272 0.05150386
0.010228446 0.010259567 -0.062679045 0.09377609 -0.017646808 -0.05597247 -0.0005535762 0.043304767
0.044244554 -0.058762513 0.015134092 0.08518241 -0.082754545 0.017990649 0.037689857 -0.0024599605
0.038436364 -0.020698588 0.08256051 -0.0066225734 -0.0026776658 0.046705477 -0.023829306 -0.08334854
0.0052961437 -0.057117473 -0.02133622 0.041815307 -0.02028669 -0.035960212 0.08884717 0.026097298
-0.072640896 -0.05466966 0.06577597 0.035353906 0.095657334 -0.0672092 -0.038905803 -0.020629773
-0.06579476 -0.014223886 0.0938306 0.025789937 0.0067085493 0.018456962 0.08282023 0.0164047
-0.07683602 0.01464595 0.03856167 0.009359116 0.041408233 0.0112444945 -0.011916209 -0.07880229
0.060747653 -0.032968357 -0.0019969833 -0.06269711 0.0033322752 -0.031685155 -0.029932752 -0.052785248
0.01670209 0.025027458 0.018889101 0.063551575 -0.018903662 -0.038827024 0.06639145 0.054736376

weight f4 [2, 128]
00000000: cfb6 753d bda5 e13c fd91 653d 9935 ecbd
00000010: a973 72be e3ac b7bc 27e4 a5bd 47cb e4b9
00000020: adf6 bb3d 71d3 b6bd 8ca9 f23d 9027 2cbc
00000030: a7af 98bc f7ab f53d 59f5 1d3c 418d 39bd
00000040: a8f7 eabd 23bf f33d 89de 923b 1d32 abbd
00000050: 529f 293d 3210 953d d681 05be 1793 e8bd
00000060: 8d3e d4bc 9181 b93d f136 42bd 3645 e2bd
00000070: adcd b6bc 59ee 5dbd 0059 853c 28c5 a23d
00000080: 060d 9bbd 4e01 aebd 14b1 8b3d af8e 60bd
00000090: f536 b9bd bb5c 21be 7181 3abd f7b5 21be
000000a0: 726d 18bd 3a75 0b3e d8e9 3bbd f49e 763d
000000b0: c593 f1bc 9e5e 30bd f042 0cbe 88df 0fbb
000000c0: f75d 533c a971 a43c 0408 6e3d 4207 d3bd
000000d0: 0aba bebd 0062 d3bc ccfb 99bc ada4 0dbc
000000e0: 68f1 f43d 870d 483d ab30 bebc ecb4 c23c
000000f0: f21d 2f3e 88f3 c63d 2ec0 2dbd 4e31 1e3e
00000100: 3aca 8bbc 91da 5d3c 6060 6dbd b009 aebd
00000110: 1fe2 e6bb 3eef 90bd e5b7 d13d 6df7 7cbd
00000120: e1bc 313e f44f a0bd 0efc 93bc b96c ca3d
00000130: db3c 623d 41b9 d2bd e742 7b3d 2d87 393c
00000140: d97f 3bbd 21f8 63be 3b17 ecbd 460b 89bd
00000150: 0ce2 afbc a1c0 bd3a cd76 90bd 9738 92bd
00000160: 5558 27bd bfd9 7dbd 0b1b 9bbd 6b2b b23d
00000170: 06b9 fc3d 2b35 073e 6fde 0a3e 8a94 383e
00000180: 94b0 cfbd d783 33be ca3d 0cbd b6ba 92bd
00000190: 2cf0 0bbe cbc3 a63d 8903 103e 65ea 6f3d
000001a0: 65e8 f6bd edc3 aa3d f62b 9e3c 1b8c 27bd
000001b0: 38d6 413d faae fbbd ca37 843d 64fd 113d
000001c0: f854 88bc f319 f4bd 0151 6abe c570 3d3d
000001d0: c7bf f1bd 95e1 2ebe 03cb c33d a15a c0bd
000001e0: 5db3 cfbd cf98 8fbd dc5e 353d 11f0 5d3d
000001f0: 7f8a 413c eab0 01bd fd40 ffbd 620c 0f3d
00000200: b59d dd3c cafd fd3d 9853 acbc e6ba b8bd
00000210: 06f3 123d 45f2 a6bd 9af9 1ebe 8295 9dbc
00000220: 045f d3bc 9e39 b0bd 04b4 1d3e 5b74 853c
00000230: 40cd 0b3d 8121 ac3d ba42 84bd a3f4 41b9
00000240: ef6e 0e3d cc1c 4bbd 8637 0f3d d0e6 723e
00000250: 77c3 073e 23dd af3d 1b86 f7bc 1ec6 0abd
00000260: 3f9f 6a3d 7fbf 76bd d7bf 4b3b f48d aabd
00000270: 3ae0 543c 81c4 693d 7453 50be 731c 6e3c
00000280: ee9b 1dbd 1a6a 5dbd fdc4 b63d 83c9 ca3c
00000290: eb0c 81bd 7fa3 9cbb 7bf7 0ebe 62fd 133d
000002a0: 8227 863d eca9 0fbe b1ae 3fbe b8cb 37be
000002b0: 98e6 653d 6cd7 ebbd 04a3 45bd 8a9e 94bb
000002c0: fd3d f6bc e016 ee3c 7a9f 373d f8cc 823e
000002d0: 3bf8 b73d bb31 d43d 888c cbbd 02ac 19bd
000002e0: 6c97 1cbd 8043 6cbd afa5 95bd bb3b b73d
000002f0: 9004 7d3c 871d 8f3d 7e8a 49b9 1002 393d
00000300: 19b6 80bd b023 533d f06a e83d 5484 8e3d
00000310: a8c3 d3bd 6bf6 1e3d c9c4 53bc 5f30 aabc
00000320: 0fa0 023d d1e2 21be 2ad1 c83d 7ce2 9dbd
00000330: 1473 0abe 94e6 11be d42c 4e3e 9169 ba3d
00000340: 31ed c53d 4eb8 17bd 9a2c 02be 2c39 003e
00000350: 320a 5d3d 5678 40bd 5a1b 893d db91 b2bc
00000360: df21 043e 52fd 07bd 5355 213e e23e 383d
00000370: ac32 b13d e339 4a3b 4595 e5bd 6081 093e
00000380: fa4f 0e3e d58e 54be 2660 68bb e23a edbc
00000390: 5032 e73d b899 143e 0abf 9d3d ee4c 023e
000003a0: cc70 3bbd d805 cebd 66ca 9cbd b62f dabc
000003b0: b8b1 e43d aafa c5bd 9489 a6bd fadb c8bd
000003c0: 594e 21bd c03a 11bd 0766 14bd 5ee9 a93d
000003d0: 3cc8 6e3d c116 b0bd 8bc2 27bc 8e96 a0bd
000003e0: 5570 ad3d c1d3 7abd 74bc f23d 552c aabd
000003f0: e146 edba 4a4f a2bd e3e4 5ebd 869a d73d
0.059988793 0.02754485 0.05604743 -0.115336604 -0.23676933 -0.022421306 -0.08100157 -0.00043639002
0.09177909 -0.08927048 0.11848745 -0.010507479 -0.018638445 0.1199569 0.009641015 -0.045300726
-0.11473018 0.11901691 0.0044820947 -0.08359168 0.041411705 0.0727848 -0.1303781 -0.1135618
-0.025908733 0.09057916 -0.047415677 -0.11048357 -0.02231487 -0.054182384 0.01627779 0.07947761
-0.075708434 -0.084963426 0.06820884 -0.054823574 -0.09043685 -0.1575803 -0.0455336 -0.1579207
-0.03721375 0.13618937 -0.045877308 0.060210183 -0.029489407 -0.043058984 -0.1369741 -0.0021953303
0.012900821 0.020073729 0.058113113 -0.10304119 -0.09312828 -0.025803566 -0.018796824 -0.008645219
0.11960107 0.048841026 -0.023216566 0.02376791 0.17101267 0.09714419 -0.042419605 0.15448496
-0.017064203 0.01354088 -0.05795324 -0.084979415 -0.0070459987 -0.07076882 0.10240153 -0.0617594
0.17357208 -0.0782775 -0.018064525 0.098840185 0.055233818 -0.10289241 0.0613431 0.011323732
-0.045776222 -0.22262622 -0.11527868 -0.06691603 -0.021470092 0.0014476964 -0.070539095 -0.071397
-0.040855724 -0.061975237 -0.075735174 0.086996876 0.12339978 0.13203876 0.13561414 0.18025413
-0.101411015 -0.17530762 -0.034238614 -0.071645185 -0.13665837 0.08142813 0.14063849 0.058573145
-0.120560445 0.08338151 0.019308072 -0.0409051 0.047323436 -0.122892335 0.064559534 0.035642043
-0.016642079 -0.11919012 -0.22882463 0.046250124 -0.11804157 -0.1707824 0.09560206 -0.09392286
-0.10141633 -0.07011568 0.044279918 0.054184023 0.011812805 -0.03166286 -0.124635674 0.03492392
0.02705274 0.12401922 -0.021035954 -0.09020023 0.035876296 -0.08151678 -0.15524903 -0.01923633
-0.025802143 -0.086047396 0.15400702 0.016290834 0.03413129 0.08404828 -0.064580396 -0.00018497049
0.034773763 -0.04958801 0.03496506 0.2372086 0.13258158 0.085871 -0.030215314 -0.033880346
0.057280775 -0.06024122 0.0031089687 -0.08327857 0.012992913 0.057072166 -0.20344335 0.01453315
-0.038478784 -0.054056264 0.08924291 0.024754291 -0.06301292 -0.0047802324 -0.13961594 0.036130317
0.06550504 -0.14029664 -0.18718983 -0.17948806 0.056128114 -0.11515698 -0.048251167 -0.004535501
-0.030058855 0.029063642 0.044829823 0.25547004 0.08982893 0.10361048 -0.099389136 -0.037517555
-0.038230345 -0.05768156 -0.07306992 0.089469396 0.015442982 0.06988054 -0.00019220446 0.045167983
-0.06284732 0.051547706 0.11348522 0.06958833 -0.10340053 0.03880922 -0.012925335 -0.020775018
0.031890925 -0.1580918 0.0980552 -0.07709214 -0.13520461 -0.14248115 0.20134288 0.091021664
0.09664381 -0.037041 -0.12712327 0.1252181 0.0539648 -0.04698976 0.0669467 -0.021798065
0.12903546 -0.03320057 0.15755205 0.044981845 0.08652243 0.0030857257 -0.112101115 0.13428259
0.13897696 -0.20757611 -0.00354577 -0.028958742 0.11288893 0.14511764 0.077024534 0.12724659
-0.04576187 -0.10059708 -0.07655792 -0.026634078 0.1116671 -0.09666951 -0.0813171 -0.09807582
-0.03938136 -0.03545642 -0.036230113 0.082964644 0.058296427 -0.0859809 -0.010239254 -0.07841216
0.08468691 -0.0612371 0.11852351 -0.08309237 -0.0018102789 -0.079252794 -0.054417502 0.1052752

bias f4 [2]
00000000: a599 4e3c 33d3 403d
0.012609874 0.047076415
