algos/save-dir/Safexp-PointGoal1-v0.pt (torch, 112945 bytes, 17 tensors)

0.weight f4 [64, 60]
00000000: ef42 443d 12b0 3bbe 7aed 283c 6c69 a23d
00000010: f6e1 4f3e febd 86bd f671 163d a737 c0bc
00000020: d7b1 2abe bc73 21be a46b e83b 54a8 4dbc
00000030: ef6c 403e 26cb 223e 6a11 04bd b18f 1a3d
00000040: 0474 0fbe 2979 2fbe 570e acbd 8279 e73d
00000050: 9ec3 25bd 1396 c13b 2c77 1ebe 6786 00be
00000060: a238 c4bd 1288 903d 558e a03c f8af 0dbd
00000070: 4ebe 81bd 2e1c abbd 307c d3bd 7203 45bd
00000080: e6cc ccbc 017d dcbd 9254 bf3d a975 ca3d
00000090: fec5 143e 8419 003d ab6f 2b3d 3ca8 3b3c
000000a0: 1dbf 443b 201f b83d 04ff 53bd f317 d23d
000000b0: 11e0 91bd 74ae 5abd 5517 973d 3e59 0a3e
000000c0: f968 cc3b 7973 ef3b 6cac 793a 6cee de3d
000000d0: 019f cbbd d251 b23c 2153 29bc cbd7 9abd
000000e0: 9a00 853c b0bb 273e 0a32 6b3c b07e e1bd
000000f0: 8571 97bd e93f 083d f606 41bd a179 893d
00000100: 6132 ce3d 373e 323b ce28 5fbd f357 9fbd
00000110: c83c 693d 4438 673c 512a 62be bc18 09be
00000120: 530b f7bd 2d8c e9bd 96ea 05be f1f7 25bc
00000130: dccc 933b 482f f6bb 2a6e fd3d f9de 6bbc
00000140: f2bf f23d 055e 66bc 523d 36bd 84af a8bd
00000150: bd1d fc3d c254 5cbd d178 a9bd 898d c13d
00000160: 5899 4c3d 5c17 dfbd 1925 16bb 7254 d6bd
00000170: dbbe 9b3b 884b 72bd 839b 723d ba60 b53d
00000180: b758 acbd c96e d6bb b6fc dabc 3664 ecbd
00000190: ba30 59bd dae3 913b 9f76 c93d 8184 5bbd
000001a0: c056 0dbc 00e2 4dbd a1ed c43d 57dc bd3d
000001b0: 3f66 84bd 12ac 41bd 2465 bbbd 91cc 5b3d
000001c0: a96a 06be c5d9 973d bb74 f43d 9b88 50bb
000001d0: 3858 ac3c fed8 30bc 07e8 9f3d ad26 e9bb
000001e0: 0a52 89bd 1e09 a23e 446c 8c3d d0d3 bbbd
000001f0: 5cd6 27bb d10b 3cbb fa64 13bd 5afb 183e
00000200: b22f eb3d bf7c 7cbc aeb1 023e f4f9 f23d
00000210: dc7d d3bc 9c26 02bd 82c1 57bb ae04 0cbb
00000220: 241d 183d 65ec f0bc 525e 263d 67db f6bc
00000230: ed59 e9bc 8f6f 583d 042e 0ebd 96a2 e43d
00000240: 1b90 fb3c d30c 0a3e 3c1c 6ebd caf0 7c3d
00000250: c9fd fb3d 8bab 6f3d 5a90 a2bd ec2c fa3d
00000260: 784f 0a3d 3c77 843d 29d9 26bd 5d2c c13d
00000270: 62a2 36bd b44a 0abe 2579 a03d 4a94 9bbd
00000280: e75f 953b d67e 5f3d 4e05 e8bd 79e1 cebd
00000290: c7d7 6ebd 3a97 f5bc febc b63d 8ce5 a5bd
000002a0: 3eea 01bc 8aed 633d d4d4 6d3c dc70 f43d
000002b0: 5cc8 913d 230a a33d 78f8 07be d668 67bd
000002c0: 574c c03b 4f91 8abd 0013 a73d 0d0b 843d
000002d0: 71f5 54bd 8420 943b 13d5 333c 7132 a23c
000002e0: cef6 f5bd 7a2b 34bb 8688 433d 46a7 293e
000002f0: 46ca f33d f345 0b3d b0af 253e 18f7 eebd
00000300: 1186 6ebe ba06 67bd d239 c5bd 02b3 893d
00000310: bfb8 533e 1170 5f3c bd25 4ebd f7d1 a4bd
00000320: 649a f33b abaf e73c 54d4 cfbb 4376 633d
00000330: 866f 65ba 773f dabd e9a9 4fbd 6dfc 95bd
00000340: eaa2 903d 71f7 543d 3537 0fbd d3e5 c5bc
00000350: 09ae 2e3d bcd9 19bc 5719 aabd 531f 36bd
00000360: 13a6 333d 1d5b 80bd d506 cdbd 7ce9 ea3d
00000370: 992a 803d ec5b 2b3d 0cfe e5bc 83bf 033d
00000380: 758c 953c 20d4 be3d 6f58 06be 8b94 583d
00000390: f7ad 8abc 558e c4bd f706 9c3d d046 5d3d
000003a0: 5ae6 953d 9d31 96bd 1237 a0bc 5a32 afbd
000003b0: 3d2f 5c3d 6850 d7bd 6fbf 55bd 2400 f53d
000003c0: d9ff d2bd 0ce3 55bd 50cb 373e beb6 dc3d
000003d0: d902 a4bd 7216 e6bd 325e d73d 04a9 bcbd
000003e0: 2198 523d 7c7f 50bc 9244 bc3d 9955 5ebd
000003f0: 1191 e13d 7332 583d 6c41 dc3d 425a ca3d
0.047915395 -0.18328884 0.010310525 0.07930264 0.20301041 -0.06579207 0.036729775 -0.023464037
-0.16669403 -0.15766805 0.00709291 -0.01255234 0.18791555 0.15897807 -0.03224317 0.03773469
-0.140091 -0.17136063 -0.084011726 0.11302473 -0.04046976 0.005907783 -0.15475148 -0.1255127
-0.09581114 0.07057203 0.01959912 -0.034591645 -0.06335126 -0.08354984 -0.10326421 -0.04809899
-0.025000047 -0.1076603 0.093423024 0.09885723 0.14528653 0.031274334 0.04185454 0.011453684
0.003002114 0.089903116 -0.051756874 0.10258474 -0.071228154 -0.053389028 0.07377497 0.13510606
0.0062380997 0.0073074666 0.0009524289 0.10885319 -0.09942437 0.02176753 -0.010334761 -0.075606905
0.016235638 0.16380191 0.014355192 -0.11010492 -0.07394699 0.033264074 -0.04712578 0.06712652
0.10068203 0.0027197727 -0.054482274 -0.07780447 0.05694273 0.014112536 -0.22086455 -0.13388342
-0.12062707 -0.114036895 -0.13077769 -0.010129915 0.004510505 -0.0075129606 0.12374528 -0.014396423
0.11853017 -0.014060502 -0.044492073 -0.08236602 0.123103596 -0.05379177 -0.08274997 0.09450824
0.049950927 -0.10893127 -0.0022910296 -0.104653254 0.0047529764 -0.059154063 0.05923034 0.0885634
-0.084153585 -0.0065439683 -0.02673183 -0.11542551 -0.053024985 0.004452211 0.09837078 -0.053593162
-0.00862664 -0.05026436 0.096156366 0.09270542 -0.064648144 -0.04728324 -0.091501504 0.053661887
-0.13126625 0.07414583 0.11936327 -0.0031819704 0.02103816 -0.0107939225 0.078079276 -0.007115206
-0.06705101 0.3164758 0.068565875 -0.091712594 -0.0025609946 -0.0028693567 -0.03598497 0.14939633
0.114837065 -0.015410601 0.12763092 0.11864081 -0.02581685 -0.031775102 -0.0032921736 -0.0021365094
0.037137166 -0.029409597 0.040617295 -0.030133916 -0.028485263 0.052840766 -0.034711853 0.11163823
0.030708363 0.13481455 -0.058132395 0.06175307 0.12304265 0.058513205 -0.07937689 0.122155994
0.033767194 0.06468055 -0.040734444 0.0943229 -0.044588454 -0.1350506 0.078356065 -0.07596643
0.0045585516 0.05456432 -0.11329137 -0.10101599 -0.05831125 -0.029979337 0.08922766 -0.08100423
-0.007929383 0.055646457 0.014516074 0.11935589 0.07118294 0.07960918 -0.13278377 -0.056496464
0.0058684754 -0.06765997 0.08157921 0.0644742 -0.051991884 0.0045204777 0.010976094 0.019799443
-0.12009965 -0.0027491734 0.04773762 0.16567716 0.11903815 0.034002256 0.161803 -0.11668223
-0.2329333 -0.0564029 -0.09630169 0.06723596 0.20675944 0.013637559 -0.05032896 -0.0804786
0.0074341763 0.028282007 -0.00634245 0.055532705 -0.0008752275 -0.10656636 -0.05069915 -0.07323537
0.070623234 0.05199379 -0.03496476 -0.02415744 0.04264644 -0.009390291 -0.083056144 -0.044463467
0.043859553 -0.062673785 -0.10011069 0.11470315 0.06258125 0.04183571 -0.02807524 0.03216506
0.018255452 0.093178034 -0.13119672 0.052876037 -0.016928656 -0.0959746 0.07618516 0.05402261
0.07319327 -0.07333682 -0.01955751 -0.08554526 0.053755987 -0.10513383 -0.05218452 0.119629174
-0.10302705 -0.052218482 0.17948651 0.10777043 -0.08008356 -0.1123475 0.10516013 -0.09211925
0.051414613 -0.012725707 0.09192766 -0.05428085 0.11013997 0.052782487 0.10754666 0.098804966

0.bias f4 [64]
00000000: 2daa 50bd 987b be3d 120b 7fbd 445a 99bd
00000010: d361 24bd de00 a3bd 6d18 653d 5512 5dbd
00000020: 131a b33d 2e0c c23d e2e0 22bd 4510 54bd
00000030: 7b74 f2bd 00de ec3b 50d3 3d3d d7c4 8f3d
00000040: 2931 c3bd 4f01 b8bd 6239 223c fdea 9b3d
00000050: 0130 e53d 042c 0ebd c863 b33d 3e0d ae3d
00000060: c93b b13d 5dad c3bd faf2 fe3c 77a7 4cbd
00000070: 31eb 3cbd d3d6 f1bd 0f1d 8abd 6281 e93b
00000080: d416 d63c 543a 0bbe 947e 9b3d 75a0 d5bd
00000090: 5621 fabd 4c9e 98bd 941e 96bd 43e7 403d
000000a0: 03b3 993d ba50 debd 4543 3fbd c30c 883d
000000b0: 3332 b73d 3695 f23c 903b c6bc 0a87 37bd
000000c0: 7b84 e2bd 2624 ea3d 4d62 96bc 3862 f8bd
000000d0: f62e fabd 12fa 9bbd 637c 903d 19db 5a3c
000000e0: 2731 aebd 6cb6 3e3b 7420 853d d667 dc3d
000000f0: 8f82 9bbd 7895 51bd d516 d8bc 6498 703d
-0.050943542 0.093009174 -0.062266417 -0.0748792 -0.040132355 -0.0795915 0.055931497 -0.05397256
0.08745208 0.09474979 -0.039765246 -0.05177333 -0.11838623 0.007228613 0.0463441 0.07019966
-0.09530861 -0.089846246 0.009901376 0.0761318 0.11190797 -0.034709945 0.08759266 0.084986195
0.08653981 -0.09554551 0.03112172 -0.049964394 -0.046122734 -0.118085526 -0.06743824 0.0071260193
0.026133932 -0.13596469 0.07592502 -0.104309954 -0.122133896 -0.07452068 -0.07330051 0.04709555
0.07504847 -0.10855241 -0.046695013 0.06643059 0.089451216 0.029612165 -0.024198323 -0.044806518
-0.11060425 0.11432676 -0.01835742 -0.12128109 -0.12215988 -0.076160565 0.07054975 0.013357901
-0.08505469 0.002910043 0.065003306 0.10761993 -0.075932615 -0.051167935 -0.026378075 0.05873908

2.weight f4 [64, 64]
00000000: 4c1a 5dbd 5a97 eabd 9ffe 313d 101b 66bd
00000010: 1218 7bbc 13f4 72bd a388 343d 4542 9b3d
00000020: 5ea5 73bd 9bf0 4bbd 1ea6 a7bd 7d87 af3b
00000030: c98a c3bd 209d abbc 5419 7fba 3ede afbc
00000040: 2dc3 f23c 7c1d a9bd 9395 edbc 2bea b83a
00000050: 70cd d0bd 0a21 b8bd 28ee a2bd d42a cdbd
00000060: ce0f c33d 936c 58bd 1fa0 b83d c73c cd3d
00000070: 4887 953c c677 c03d 84ea da3d d18f e13d
00000080: 8f1e 653d e14f 3bbd d632 543a c3b6 513d
00000090: 058f 58bd 2e37 f53d 819b c93d b8ad 36bd
000000a0: 56de db3c e8cf 96bd 6198 593d c7e6 853d
000000b0: 2269 cf3b 5e4e 52bd 56ce a63d 477b 88bd
000000c0: 1dac c33b 60fc cabd 1e62 8d3d 0847 6a3d
000000d0: b31e ae3d 4625 83bd 9669 9bbc a7b3 b5bd
000000e0: adc7 a73d b869 0abd b63e 7cbd e9d5 d0bd
000000f0: b943 21bd 96d5 7dbd b8c1 c63d c9e5 d73d
00000100: a37f c8bc 5299 4bbb 8486 113e 7ef9 253d
00000110: a16b 0ebd 641b 63bc 6c20 103e 73b6 adbd
00000120: 7912 8d3d a5ea d5bd b250 bfbc 7ce8 f4bd
00000130: 918d 24bb 5a27 e93d 40ea ce3d 4df8 203c
00000140: 3bda fabd b404 ee3d 75b4 7cbd 5e7b cf3d
00000150: 7fdd d63d 7782 293d ac8e 5dbd 6e42 40bc
00000160: e1e5 f93d 00a8 ee3d f99a 503d d797 193d
00000170: 8062 47bd fa6f bb3c 3370 bcbc a135 cfbd
00000180: f032 a1bc ae4a e1bd 927e 1ebe 4446 9abd
00000190: 6808 ec3d a8c2 123e 6608 043e bb8c 8dbd
000001a0: d343 903d 1aa3 63bd 57fa bc3d 6b4b cd3d
000001b0: 33db f23c 2728 42bd 2f12 53bb 7f47 ef3d
000001c0: 0ba8 bd3d a8f7 473e ae39 f6bd 0b1f c83d
000001d0: cbb8 973d fd1b a1bd 23ec a4bc 3802 a63d
000001e0: 88f5 c03d dc84 8c3b 2408 b9bd 7574 34be
000001f0: d3fc d4bc b585 c13d 3181 9ebd 0380 bcbd
00000200: 60b9 4a3d c49a e63d 50a7 973d ebab 943d
00000210: 73d5 c4bd 494a 4dbd 6300 273d 2147 fdbc
00000220: a62a 92bd 98cd ce3d 0bdf f1bc b60d 8ebd
00000230: ce06 9a3d d860 13be 5875 a7bc 18a0 9a3c
00000240: 1a79 9d3d 9a01 c73d 29b2 153d a554 b83d
00000250: b1b9 5e3c 0323 103d fb39 9b3c 7daa 84bd
00000260: a205 a13d 5db0 3dbc a7b7 a2bd 10af e63c
00000270: 66d3 3b3d ba57 b3bd 64c9 583d 35a0 20bd
00000280: 4c4e 76bd 6c2d 96bc 1bdf 083e 2c5f 483d
00000290: a5ec 42bd c5c3 76bd 451e e93d d133 633d
000002a0: 1914 c5bd d88e dcbd a6aa d13c 4bf6 44bd
000002b0: fb85 34bd 1c30 c33d e4f9 67ba ac53 abbd
000002c0: 51e0 b13c 436a e2bd f5ca 16bc e87f ce3d
000002d0: 54a2 20be 49b9 82bd 7ebc 1fbd 706f d7bd
000002e0: 3563 c53c 81a5 ebbd d02f 7ebd 9b45 58bd
000002f0: fad1 e3bb 1ddb 5b3d 38cc 72bd 7c66 c03c
00000300: be7c 3e3d 5c68 cc3c 2e65 f93c 69cc 0f3d
00000310: d9e7 e83d 4ced 99bd 4b5c 703c 14cd 3d3d
00000320: 32ba ff3d 70be e43d 681e acbd 713e f4bd
00000330: e349 cbbd 55a1 2a3d 1627 ecbd c6e5 bc3d
00000340: 4c42 ddbd 1180 e83d 39ed e33c 94e2 bbbd
00000350: 2054 20bd 0da1 7abd 7a3e a0bc 6b35 c63b
00000360: 4a04 8fbd b75b e93d e296 a53d 1c5a 0cbe
00000370: 137c ae3d 5e9b d7bd dbed 663d 70c3 a33d
00000380: 288e eb3d e110 1abd 6479 bd3d 5e6a 64bc
00000390: 7b4f 503c 05f2 183d 4617 2b3d 69e6 de3d
000003a0: b07b 8cbd b83c fa3d de2e 3d3d d0a0 d5bd
000003b0: 9623 b43d 15af 2dbd 93d7 6abd 4fe1 383d
000003c0: caf3 aa3d af38 b0bb a29c 823d 4e39 d6bd
000003d0: 235f e93d d018 acbd 2e35 b0bc 788b b3bd
000003e0: f84e e0bd 2c7a b03d 325d c63d 995b c63c
000003f0: eca6 58bd 0f56 cf3d ea82 1abc e476 8bbd
-0.053980157 -0.11454649 0.043455716 -0.056178153 -0.015325563 -0.0593148 0.04407562 0.07580999
-0.05948388 -0.049790006 -0.08185981 0.0053567276 -0.095479555 -0.020948946 -0.0009731252 -0.021468278
0.029634083 -0.08257577 -0.029001987 0.0014107873 -0.10195434 -0.08990677 -0.07955581 -0.100179344
0.09524499 -0.05283792 0.09014916 0.10021358 0.018252984 0.09397845 0.106892616 0.11013759
0.055937346 -0.045730475 0.00080947333 0.051199686 -0.05287077 0.11973415 0.09844113 -0.044599265
0.026839416 -0.07363874 0.053123835 0.06538158 0.0063296715 -0.051344268 0.08144824 -0.06664138
0.0059714452 -0.09911418 0.0690348 0.057196647 0.08501949 -0.06403594 -0.018971246 -0.088721566
0.08192382 -0.033792228 -0.061583243 -0.1019705 -0.039371226 -0.06197127 0.09704918 0.10541875
-0.024474924 -0.0031066728 0.1421147 0.040521137 -0.03477061 -0.013861511 0.14074868 -0.08482065
0.06888289 -0.104451455 -0.023353908 -0.119584054 -0.0025108794 0.11384459 0.101032734 0.0098248245
-0.122486554 0.11621991 -0.061695535 0.10130952 0.10491466 0.041384187 -0.05409114 -0.011734588
0.12202049 0.11653137 0.050929043 0.03749832 -0.04867792 0.022880543 -0.02300272 -0.10117651
-0.01967761 -0.11000572 -0.1547797 -0.07532933 0.11525041 0.14332068 0.12893829 -0.06911608
0.070441864 -0.055575468 0.09227436 0.100241505 0.029645538 -0.047401574 -0.0032206883 0.11683559
0.09260567 0.19528067 -0.1202272 0.09771546 0.07408293 -0.078666665 -0.02013213 0.08105892
0.09421831 0.004288299 -0.09034756 -0.1762255 -0.025999462 0.09449331 -0.07739485 -0.09204104
0.049493194 0.11259988 0.07404959 0.07259353 -0.09611025 -0.050119672 0.040771853 -0.030917706
-0.07137041 0.10097808 -0.0295253 -0.06936209 0.07520829 -0.14392412 -0.020441696 0.018875167
0.07689114 0.09717102 0.03654686 0.0900052 0.013594077 0.03518964 0.018948546 -0.064778306
0.078624025 -0.011577693 -0.07945185 0.028159648 0.045855902 -0.08756967 0.052926436 -0.039215285
-0.060133263 -0.018332206 0.13366358 0.048918888 -0.047588963 -0.060245294 0.113827266 0.055469338
-0.09622974 -0.10769433 0.025594067 -0.048086446 -0.044073086 0.095306605 -0.0008849187 -0.083655685
0.021713408 -0.11055424 -0.009203662 0.1008299 -0.15686923 -0.063829966 -0.03899812 -0.10519302
0.024095157 -0.11506177 -0.062057316 -0.052800756 -0.0069525214 0.05367576 -0.05927679 0.023486368
0.046505682 0.024952106 0.030443754 0.03510705 0.113723464 -0.07515964 0.014670442 0.046338156
0.12486686 0.111691356 -0.08404237 -0.11925972 -0.09926202 0.041657764 -0.115308926 0.09223513
-0.10803661 0.11352552 0.027823078 -0.09174076 -0.039142728 -0.061188746 -0.019561041 0.0060488484
-0.0698324 0.11394446 0.08085419 -0.13706249 0.08519759 -0.10527681 0.05637918 0.07996261
0.115017235 -0.037613753 0.09251669 -0.013941376 0.012714262 0.037340183 0.041770242 0.10883791
-0.06859529 0.122186124 0.046187274 -0.10431063 0.0879585 -0.0424033 -0.057334494 0.045136746
0.0834728 -0.005377851 0.063775316 -0.10460149 0.11395099 -0.0840317 -0.021509733 -0.08766836
-0.10952562 0.086170524 0.09685744 0.024213599 -0.052893564 0.10123836 -0.009430626 -0.06809786

2.bias f4 [64]
00000000: 3dc6 0fbd 5b15 cebd 061b e6bd 7e37 a73d
00000010: 56fe e73c 1473 3a3c 6e4c e03d 5eca 643d
00000020: 040c 733a 6628 16bd 13d5 7d3d 4d86 8fba
00000030: dc08 21bd b32e 8dbc 1dbf ae3c 4026 b9bc
00000040: 2740 883d d025 8bbd e004 81bd 4ca7 ce3c
00000050: d073 043d 6ba4 6bbc 3c5a 41bd 64c6 383d
00000060: 7138 21bd 66d8 8abb c67b a3bd 645f fabc
00000070: 7b0b 1dbc 6229 6fbd e821 d53d 84a6 61bd
00000080: cb2e 92bd faee 7f3d 29f2 a9bd f8a6 9338
00000090: 069c 89bd f59f 363c 272e a13d f4ad d3bc
000000a0: 6a9a 023d 09b8 af3b 0872 b0bd 91d4 7abd
000000b0: 0a63 ff3d 6acb 9bbd c2a0 d4bc 581a ce3d
000000c0: 7872 a5bd 4027 b43c 8215 393c effa 203c
000000d0: c98d f93d c481 ddbd 537e d13d d1fc c6bd
000000e0: 85c9 ad3d ae15 48bc 23b2 8ebd db18 883d
000000f0: 5b7f fb3d 0c98 69bd eb6e 4abd 74f3 8ebd
-0.035101164 -0.10062667 -0.11235623 0.08164881 0.028319519 0.011379976 0.10952078 0.055857055
0.0009271505 -0.03665962 0.06197078 -0.0010950059 -0.03931509 -0.017234182 0.021331364 -0.022601247
0.06652861 -0.067943215 -0.06299758 0.025226258 0.03233701 -0.014382462 -0.047205195 0.045111075
-0.039360467 -0.0042372225 -0.07982592 -0.030563064 -0.009585257 -0.058389075 0.10406858 -0.055090442
-0.07137831 0.062483765 -0.082981415 7.0406066e-05 -0.06719212 0.011146535 0.07870131 -0.025839783
0.031885542 0.005362515 -0.086155 -0.061237875 0.12470062 -0.076071575 -0.025955562 0.100636184
-0.08078474 0.021991372 0.011296632 0.009825452 0.121852465 -0.108157665 0.102291726 -0.0971619
0.084857024 -0.0122122 -0.06967571 0.06645366 0.122801505 -0.05702977 -0.049422186 -0.06980029

4.weight f4 [2, 64]
00000000: 9cf5 5a3d 9e32 e4bc b050 1f3d e1ba 3ebd
00000010: d014 85be 7e70 1cbc d899 bbba b27e 073e
00000020: d543 2c3e 946d 693c aff2 6abe 8699 24be
00000030: fa47 53be 99ca 273e 19de c93c ea15 a6be
00000040: 8b95 dbbc 1ef4 fabd 2b23 153f 2764 9e3d
00000050: e5ea c73d 9b91 c03c 4b82 073e 0887 933e
00000060: 4d5f 5b3e 2557 28bd 0c76 8c3e 0099 a6bd
00000070: 13b5 52bd b488 25bd b5bf 5cbe f622 8ebd
00000080: 9c70 ae3d b05e c0bd 670e dd3d 67d9 a43e
00000090: f049 70be 4bfb 08be 2025 eabc 54a9 29be
000000a0: 8608 df3e 03e5 37be 4748 a7bd bcc6 a03d
000000b0: ec44 12be 53ef bdbd c6f5 913e 091e 043e
000000c0: 0d26 9cbd c61e 1f3d 451d ba3d 4702 a1bd
000000d0: bd1f 65bd e61f 39bd 8002 103e d048 1b3d
000000e0: 1bbd 57bc b8ca a53e 94bc 26be 570e aa3d
000000f0: b9df 1c3e 2398 e9bd b6e3 bebe 8ec9 2a3d
00000100: 540e 46bd 1015 c5be 8bd0 fc3d 4a6c c2bd
00000110: 975c 343c e77c 0dbe fd72 123e 0cbb 9ebe
00000120: 2d11 273d 3d82 c0bd 5751 5e3e c9fe ae3c
00000130: b6a2 e2bd dfbc 52be 2691 1dbc fa23 8e3e
00000140: ed5e 8cbd 2dd0 d43d 2165 633e 79fe 8abe
00000150: 1707 e23a 383c 5ebe 0b59 17be a85e 90be
00000160: 01ac d73c 93f9 1e3f 05b9 533d 49f4 d1be
00000170: a9a7 4c3e f15f c7bd 831e 2a3e 1833 823c
00000180: 5f3c e0bd e25e 67bd 3ddd 773e 9bce d3bd
00000190: 8003 8bbe cf22 0cbd 6051 16b9 c2c4 9cbe
000001a0: 3805 72be 8795 dc3d 64ec 96be 84e9 b53e
000001b0: 646e 6f3d 1691 a5bd 2ea1 e73d d721 b93e
000001c0: b89b 143e 44b5 393d bcff 133e 0120 c73d
000001d0: b67f 933e 4aed 03be 0324 4dbc 692e a53d
000001e0: 9d53 903d 2a27 04be 3b97 093e ec7a 0c3e
000001f0: fecb 78be 64d6 8ebe bf25 bcbe 6e9a 903e
0.053456888 -0.027856167 0.03889531 -0.04656494 -0.2599244 -0.009548305 -0.0014312817 0.13231924
0.16822751 0.014247317 -0.22944139 -0.1607419 -0.20632926 0.16385879 0.024642037 -0.32438594
-0.026804706 -0.12253593 0.5825679 0.07733946 0.097615995 0.02350693 0.13233297 0.28813958
0.21423073 -0.041098733 0.27433813 -0.08134651 -0.051442217 -0.040413573 -0.21557505 -0.06940262
0.08517572 -0.0939306 0.10793763 0.32197115 -0.23465705 -0.1337711 -0.028582156 -0.165685
0.4356119 -0.17958455 -0.08168083 0.078504056 -0.14284104 -0.09274163 0.28507823 0.12902083
-0.07624445 0.038847707 0.09087614 -0.078617625 -0.05593847 -0.045196436 0.14063454 0.037911236
-0.013167645 0.32381225 -0.16282874 0.08303516 0.15319718 -0.11405971 -0.37283105 0.041696124
-0.048353508 -0.38492632 0.12344464 -0.09493311 0.011008403 -0.13817178 0.14301677 -0.3100208
0.040787864 -0.09399841 0.21710716 0.021361725 -0.11066191 -0.20579861 -0.009617126 0.27761823
-0.06854043 0.10391269 0.22206546 -0.27147272 0.0017244545 -0.21702659 -0.14780061 -0.28197217
0.026327135 0.6209957 0.05169012 -0.41006687 0.19985832 -0.09735096 0.16613202 0.015893504
-0.10949015 -0.05648697 0.2420549 -0.10342141 -0.27151108 -0.034212884 -0.0001433543 -0.30618864
-0.23634803 0.107707076 -0.29477227 0.3552972 0.058454886 -0.080843136 0.113100395 0.3615863
0.14512527 0.045338884 0.14453024 0.09722901 0.28808373 -0.12883487 -0.012520793 0.08065493
0.07047198 -0.12905565 0.13436596 0.13718766 -0.24296567 -0.27897942 -0.36747548 0.2824282

4.bias f4 [2]
00000000: 8b97 8dbd edfc 1ebd
-0.0691367 -0.038815428

5.log_std f4 [2]
00000000: d9f5 2ebf 3560 403e
-0.68343884 0.187867

0.weight f4 [64, 61]
00000000: d884 c73d 5688 e4ba 7d92 d03c d0b7 57be
00000010: 6d3b 0bbe 9a34 7bbd b9c1 89bd ef31 a8bd
00000020: d7d4 adbd 24ab 9fbd 261c f5bd bbb8 d9bd
00000030: 0a88 10bd 13d6 343b 5fc5 7dbd 5fc4 97bd
00000040: f9c9 cebd f61e d7bd 8d64 4cbe ba8f ca2a
00000050: 7c24 e32a b150 de3c 8ed1 8ebd 24c6 3dbd
00000060: d841 23bd 3e17 42bd 55dd c2bc 4631 95bc
00000070: bfff 66bc ce98 8cba e121 1f3d 8764 403d
00000080: 6b43 0d3d 4db0 d43c 9be0 7cbc f574 4ebc
00000090: 5f8c 1cbd 68ab f2bc 348e a93c 4dbf 8bbc
000000a0: b277 b22a 5ca4 53bc 2180 06bd 7e89 37bd
000000b0: b3b8 d4bc f127 9bbc 388d 7ebc bf08 82bc
000000c0: 9e26 09bc 5b78 453d ae2e 5a3d 17c4 18bc
000000d0: aad0 0bbd 01cf 53bc e005 43bc d0f9 ddbc
000000e0: 8d5f 80bc 6038 afbd 615e 133d 5ad0 7c29
000000f0: e099 07bf 69d8 93bc 1972 8dbb 2424 bcbd
00000100: 87f2 753d d165 973d c471 563d 3e2f 583d
00000110: e458 743d 919e 703d dca5 8b3d 718d ae3d
00000120: 5334 ac3d 5357 053d c014 3e3c 2d65 4e3d
00000130: 9ce8 963d f5bd 913d afcf 3c3d 6607 e83d
00000140: 0126 1caa 82dc 86a9 1c66 0cbb 3abf 393d
00000150: 13bc 4b3c 86cc 5e3c c22e f73b a7d0 8cbc
00000160: 6963 14bd df6f cabc 7087 58bc ecda dd3b
00000170: 0cc6 ae3b 6e5a 223b f283 0cba 9448 db3c
00000180: 397a 67bb 7ee7 a4bc ff50 96bb 4cb9 273d
00000190: cff6 a23c 5674 a22a 6efd 153c 1850 423c
000001a0: 0821 37bc 9180 8e3a 3413 c23c 36c3 563b
000001b0: 1d7a a43b 5624 4fbc d023 91bd 5f16 53bd
000001c0: fe8c 2cbc 0e1d d3bb da4b 103d ef66 5a3d
000001d0: ebef 283c 6473 93bb f727 3cbd 31d8 873c
000001e0: 0e8c 57aa 3c49 663f 6652 36bb c82d 69bb
000001f0: 5f29 65bd 6026 193e 8a60 043e f7ba 823d
00000200: 4351 8f3d a45b a73d d7b4 a83d 4447 a63d
00000210: 6aa3 f83d 2d72 f13d 3aef 433d 6459 f73b
00000220: b071 833d 00b8 a23d e3f0 c83d b2a1 a13d
00000230: 48d8 0d3e a27b 272a 821a 89a9 0b70 ca38
00000240: 380d 843d 8c9c 823c 549d 793a 442b 833c
00000250: feab 20ba 544c 06bc fec2 54bc 4bfa 2bbc
00000260: 51ac d0bc c5bd b1bc 304f 7639 36db d4bb
00000270: 1807 953b d77c 11bc b4dc 123b 5d35 b33c
00000280: 6042 8a3b ce20 4a3d 7848 85aa 9c9f 6f3a
00000290: 110f 143c 68df 9f3c 2765 7f3c 1676 0a3c
000002a0: 7e07 3bbb 360c b83b 3b4f bcbb 0671 7cbd
000002b0: e235 66bd 5c3b 1fba f4a0 ca3c 154f 143d
000002c0: b6e4 283d 12e4 e53c 9fbf 1e3c e621 3e3d
000002d0: 9f4a e1bc f358 672a 96b9 223f 39e2 71bc
000002e0: c899 25bd b3aa 243c d69a 01bd a341 c2bc
000002f0: 232a 07bc 146a 3ebb be53 443c 89fc 833c
00000300: 6d69 19bc 6af6 1bbd d20e afbc 3bb9 623c
00000310: 0424 edbb 0d49 c1bc 4bf1 e8bc 7d7c f7bc
00000320: a629 b3bb b422 31bb 614f 4b29 4074 f9a9
00000330: 1d4e 963c f8b6 3cbd 0b9b 03bd 668c 26bc
00000340: 81b7 a4bc a7d2 3cbc 6e0c 82bc fbf3 76bc
00000350: 2383 ffbb 8099 373c 9489 c03c a6b8 113d
00000360: 0e2d 423d 3638 4b3c b181 82bc 72e7 8ebb
00000370: e4ad a83b 4818 c13b a970 32bd 76c9 f8a8
00000380: cb89 383a f829 833c 9f23 7cbc 844e 0cbd
00000390: 1b2b e2bc 6109 01bb 9c13 9abb e40e 2f3c
000003a0: dc7c d13c 79c5 1d3c 492a 4d3c a90d 8f3b
000003b0: 695f e93b f2df d13c 865e d33c 6ac2 6cbb
000003c0: 9dec adbb 30af 5639 39e0 ed2a cdcd ddbd
000003d0: 3bb6 753d a768 b5bd 6ef6 cbbc d45e 16bd
000003e0: 3e1d e2bc 5a61 0fbd 0e20 4bbd 7449 bfbd
000003f0: ec2e debd 823f 57bd 766a 643d 2042 1d3d
0.09742135 -0.0017435651 0.025460476 -0.21066213 -0.13596888 -0.06132946 -0.06726403 -0.08212649
-0.084878616 -0.07796314 -0.119682595 -0.10630938 -0.035285987 0.0027593418 -0.061955806 -0.07410502
-0.10097117 -0.10503952 -0.19960232 3.5982138e-13 4.0348616e-13 0.027138086 -0.06973563 -0.04633154
-0.039857715 -0.047385447 -0.02378718 -0.018211972 -0.014099061 -0.0010726692 0.03885067 0.04697087
0.034488123 0.025962973 -0.0154344095 -0.012601127 -0.038219806 -0.029622748 0.02069769 -0.017058993
3.1702207e-13 -0.012917604 -0.032837037 -0.044808857 -0.025966978 -0.018939944 -0.015536599 -0.015873311
-0.008371023 0.048210483 0.053267173 -0.009324095 -0.034134544 -0.012927772 -0.011903256 -0.027096659
-0.015670562 -0.085556746 0.03597868 5.6135957e-14 -0.5296917 -0.018047528 -0.00431658 -0.09186581
0.060045745 0.07392467 0.05235459 0.05277943 0.059655085 0.05874497 0.068187445 0.085230716
0.084084176 0.032553982 0.011601627 0.050389457 0.073685855 0.071163096 0.0460965 0.11329536
-1.3868769e-13 -5.9890474e-14 -0.0021423167 0.045348383 0.012434977 0.013598567 0.0075434158 -0.017189337
-0.036227617 -0.024711547 -0.013215885 0.0067704823 0.0053336676 0.0024773139 -0.00053602376 0.026768006
-0.0035320653 -0.020129915 -0.004587292 0.040948197 0.019893078 2.8857705e-13 0.009154661 0.011859916
-0.011177309 0.0010872056 0.023690797 0.0032770163 0.00501944 -0.0126429405 -0.07086909 -0.051535007
-0.010531662 -0.0064426726 0.035228588 0.05332082 0.010311107 -0.0044998396 -0.04593655 0.01658258
-1.9144427e-13 0.89955497 -0.002782011 -0.0035580266 -0.055947658 0.14956045 0.12927452 0.06383317
0.06997921 0.08171776 0.082376175 0.081190616 0.12140544 0.117893554 0.047835566 0.007548498
0.064181685 0.079452515 0.098115705 0.07892169 0.13852036 1.4875473e-13 -6.0886205e-14 9.65298e-05
0.06447834 0.015943788 0.000952204 0.016011842 -0.00061291445 -0.008196909 -0.012985943 -0.010496686
-0.025472792 -0.021696934 0.00023489888 -0.0064958585 0.004547965 -0.008879862 0.0022409381 0.021876032
0.0042193383 0.04934769 -2.367583e-13 0.000914091 0.009036795 0.019515708 0.015588081 0.008451005
-0.0028538401 0.00561669 -0.0057467497 -0.061631225 -0.05620373 -0.0006074214 0.024734952 0.03620823
0.04123374 0.028062854 0.009689241 0.046419047 -0.027501402 2.0547782e-13 0.6356443 -0.014763408
-0.04042986 0.0100504635 -0.031641804 -0.023712939 -0.008249792 -0.0029054927 0.011982856 0.01611163
-0.009363514 -0.038076796 -0.021369372 0.013838108 -0.0072369594 -0.023594404 -0.02843537 -0.030210728
-0.0054676114 -0.0027028741 4.5143905e-14 -1.10779875e-13 0.018347794 -0.04607293 -0.032130282 -0.0101653095
-0.020107033 -0.011524833 -0.015875068 -0.015072818 -0.007797615 0.011206031 0.023503102 0.035576485
0.04740625 0.012403538 -0.015930982 -0.0043610865 0.0051476825 0.005892787 -0.043564472 -2.76209e-14
0.0007039576 0.016011223 -0.015389352 -0.034254566 -0.027608445 -0.0019689428 -0.0047020447 0.010684703
0.025572233 0.009629601 0.012522289 0.004365642 0.0071219695 0.02561948 0.025801908 -0.0036126622
-0.0053077475 0.00020473893 4.2255243e-13 -0.10830269 0.05998824 -0.088578515 -0.02489778 -0.03671153
-0.027601834 -0.03500495 -0.049591117 -0.09340182 -0.108487934 -0.0525508 0.05576559 0.03839314

0.bias f4 [64]
00000000: 5472 8c3d 3c6a e3bc f1e4 85bd 8cc6 98ba
00000010: dcb9 a2bc c5b8 0c3c 4d20 cc3c 9ec2 193d
00000020: 3e22 8c3b 3734 4bbd 7737 c03b cc40 193c
00000030: bdf6 ea3b 254c bfbc a4d1 cdbb 471d fe3c
00000040: ccc6 d8bb 364a b4bc 0cb6 913d 9bf9 d5bc
00000050: c9ef d0bd 4b4a 98bb d60a f0bc 7a33 1fbc
00000060: b494 14bd 5497 563d 89f4 bf3c 2255 a43c
00000070: 68e5 863d b4b7 ce3c 9c76 8bbb 2f43 313d
00000080: 18a0 c4b9 e494 b73d 2165 a0bc d48d 49bc
00000090: 2804 c4bc 1ba7 123d e96b cb3c 83f1 1c3c
000000a0: 0c54 93bd c20d 073d 13b2 823c 8c9f 083d
000000b0: 68c2 523c c270 6dbb 6f2f 8f3b 19a3 213d
000000c0: eeee 903d a6f5 99bd d15a 86bc fc3c 093d
000000d0: c354 98bb be77 123b ccd5 41bc 6759 133e
000000e0: 5416 25ba 368b dbbb 428c 273b a87b 9dbd
000000f0: 6e5c 723c 0033 eeb7 b74a b23c 60e4 18bd
0.06857744 -0.027760617 -0.06537808 -0.0011655851 -0.019864015 0.008588974 0.024917746 0.037539117
0.004276543 -0.049610343 0.005865987 0.009353828 0.007170527 -0.023351738 -0.0062810946 0.03101982
-0.0066154953 -0.022008043 0.07114801 -0.026119998 -0.102019854 -0.0046475283 -0.029302042 -0.009716863
-0.036274627 0.05239041 0.023432033 0.020060126 0.065867245 0.02523408 -0.0042560827 0.043276962
-0.00037503312 0.089639455 -0.019579472 -0.012301881 -0.023927763 0.035803895 0.024831729 0.009579065
-0.07193765 0.032972105 0.015954053 0.03335528 0.012863733 -0.003623054 0.004369668 0.039462183
0.07076822 -0.07517557 -0.016400727 0.033505425 -0.0046487763 0.0022349204 -0.011830758 0.14389573
-0.00062975776 -0.006699945 0.0025565778 -0.07689601 0.014792545 -2.839556e-05 0.021764142 -0.03732717

2.weight f4 [64, 64]
00000000: ad37 993b d9c1 51bb 61ee 623a 588e ce3a
00000010: 2810 f33a 48a1 343a ef75 ea3b 9504 ad3b
00000020: 4db5 18bb 240d 6dbb 1177 823b 3430 00bc
00000030: 1ff4 273c 6c28 82bb 546a 4dbb b3aa 5dba
00000040: 8993 b93b 6147 82bd bece e53b cdb7 10bc
00000050: 13e4 70bd 3c19 023e 7fc0 f5bb 2a2c 36bb
00000060: aa58 f1bb 2773 a43d ce71 b63b 40e5 5eb7
00000070: 9b32 dc3c 595a d23a d360 4ebe 5a46 bfb9
00000080: d74b 25bc 5121 8bbb b211 ac3a e473 673a
00000090: 1abc 39bc 56ec e63b 46a8 053c f0e6 2bba
000000a0: 239b 21bd 7459 9237 b264 ef3d 68d4 5139
000000b0: e098 a5bd a833 b9bd 64ab b13b 4325 e7bb
000000c0: 58e7 793b 9885 02bb fff4 14bc 06d2 0b3b
000000d0: 93d6 bebc b18f 0bbc d297 b33a e0e6 dd3d
000000e0: bce3 dc3a 3586 c0bb efce 91bb 7855 e6bc
000000f0: cdc2 22bb 0cc5 51bb 9784 523c 482e 50bd
00000100: c36f 14bd 2650 103d 5888 183d 7348 a4bc
00000110: f4dc e339 6c97 e63c 0bbc c1bc db27 aa3c
00000120: 2f75 b1bc 4583 493d 1b08 473c 5c48 70bc
00000130: 7a76 c83c 762f f7bb f8bf e73a d25b a9bb
00000140: ae58 6dbc b064 43bd 43cf 4dbc d929 ca3b
00000150: 62b4 45bc 004e 273e 2da4 683c fb86 0ebc
00000160: 1c37 3e3d 8204 cc3d b679 57bd c021 343b
00000170: 607c 633a ac8e 043b 03f3 b8be 7aec 6bbb
00000180: e965 713c 2469 f8bc 7376 44bc 9fc9 ba3c
00000190: 9524 943d bab0 26bd 423a 323b 8522 8fbc
000001a0: 0062 213b 6896 b9bc 9099 1c3d 601a 61bc
000001b0: 9d5f 0dbd 83f6 1fbe a126 3bbc f055 fcbc
000001c0: a427 18bc 8d02 e7bc 6fa9 a2bb c0ab efbb
000001d0: 291f ba3b 6fae 293d 4811 9cbb 2ee0 cf3d
000001e0: 3045 ba3b 4bda a8ba e7e9 3bbc b261 5abd
000001f0: 99a6 6a3c 87a7 103d 28fb 093d 2388 56bd
00000200: 6fc7 b539 c881 993a 4f04 58b9 e62a 7ab8
00000210: 47bb bcba 0bfb 8639 9dbb a238 4490 d239
00000220: 6429 b0b9 b78f 5bba 4bb8 fc39 a474 83ba
00000230: f328 d0b9 052f 33ba 16aa 033a e3de 033a
00000240: 333f ebb8 9c5a 753a bd7b 27ba 04b7 cb38
00000250: d1f7 833a 7d9d 1738 2982 1e38 4c11 8bb8
00000260: 1c34 adb9 b4b0 e137 d8d4 0eba fd66 cab9
00000270: 136f 7aba 0577 2d39 cdd8 66ba 12b7 5cb9
00000280: 00eb 1bb8 f770 a739 26c4 1d37 8c8b e639
00000290: aa85 8aba f2b1 d538 d323 3bb9 8b7c 2eba
000002a0: b3e4 613a 1430 4d3a f343 93ba 4709 633a
000002b0: bf3f e339 bf6d 2e3a dae8 99b9 c925 4e3a
000002c0: dcfe cab7 30cd d4b8 5278 09b9 c8dd 063a
000002d0: b056 8e3a 7c34 5b39 9701 d8b8 a2d5 c4b9
000002e0: de12 d0b7 599d c0ba 7eb9 5d3a ce4f 02b9
000002f0: bfee 6a3a 62ff 13ba ba90 42b9 0d79 9238
00000300: 6d0d c5bc fe96 1d3d 933d 3c3d ad30 d6bb
00000310: 127e d0bb aabe 64ba 527f a7ba ec55 a93b
00000320: 64e4 91bb 620b b23c b753 d8bb 472c 67bc
00000330: 9677 ca3b 2c25 03bc 4b18 b43a c693 1b3c
00000340: 677e 64bc d7f1 083c 94b4 5e3b 0b7f 483b
00000350: 0a52 e23c a438 253d 1cf8 ffba 8140 2539
00000360: 3e18 373c fadc d03c 8552 95bc f865 d43a
00000370: f9e0 babc f664 5e3a 9bbe 01be 18f0 8fbb
00000380: a810 f13b 643f 8bbb 2455 bdbb e75a a43c
00000390: fad2 b53b 243c c3bc 970b 1a3a a48d a83b
000003a0: b264 903c 6d5b dc3b 4106 183d 1f11 56bb
000003b0: 1d23 c7bc b720 58bd dc9d 6a3a 2430 abbc
000003c0: e74d 00bc 15fb 6ebc 6b5d 15bb e15b 87bc
000003d0: 3c1c 8d3c 471d b63c fe98 dfb8 12ef 2d3c
000003e0: c96a 303b a310 25bc 1386 9dbb 8aaa 863a
000003f0: 0b36 923c 67b3 8c3c fa86 d9ba 3c3a 163b
0.0046758265 -0.0032006411 0.0008656737 0.0015758974 0.0018544244 0.0006890488 0.007155172 0.0052800872
-0.0023301423 -0.0036171163 0.003981479 -0.0078239925 0.010251074 -0.003972104 -0.0031343894 -0.0008455917
0.0056633395 -0.06361271 0.007013171 -0.008832884 -0.05881126 0.12704939 -0.007499754 -0.002779732
-0.007365306 0.08029776 0.005567766 -1.3285608e-05 0.0268796 0.0016048654 -0.20154123 -0.00036482775
-0.010088882 -0.004245915 0.0013127832 0.000882922 -0.011336351 0.0070472164 0.008157795 -0.00065575447
-0.03945459 1.7446211e-05 0.11689128 0.0002001092 -0.08085799 -0.09043056 0.0054220427 -0.0070540025
0.0038132276 -0.0019916054 -0.009091615 0.00213349 -0.023295676 -0.008518145 0.0013701862 0.108350515
0.0016852538 -0.0058753737 -0.0044497172 -0.028116927 -0.0024835349 -0.0032008318 0.012848995 -0.050825387
-0.036239397 0.035232686 0.037239403 -0.020054078 0.00043461437 0.028148375 -0.023649236 0.020770958
-0.021662323 0.049197454 0.012147929 -0.014665689 0.024470557 -0.0075434996 0.0017681113 -0.0051684165
-0.014486475 -0.047703445 -0.012561622 0.0061695394 -0.012066932 0.16338348 0.014199299 -0.008699174
0.046439275 0.09961797 -0.052606307 0.0027485937 0.0008677896 0.002022664 -0.36122903 -0.0035999105
0.01473377 -0.030323572 -0.011991131 0.022801219 0.0723354 -0.040695883 0.002719537 -0.017472515
0.0024625063 -0.022654727 0.038232386 -0.013739198 -0.034515012 -0.1562138 -0.011422784 -0.030802697
-0.009286795 -0.028199458 -0.0049640457 -0.0073141754 0.005679984 0.04142612 -0.0047628023 0.10150181
0.0056845173 -0.0012882439 -0.011469341 -0.053315826 0.014321947 0.035316017 0.033686787 -0.052375924
0.000346716 0.0011711651 -0.0002060097 -5.9644597e-05 -0.0014399075 0.00025745513 7.759708e-05 0.00040161808
-0.00033600174 -0.0008375602 0.00048202495 -0.0010029268 -0.0003970336 -0.00068353146 0.0005022598 0.0005030466
-0.00011217445 0.000935951 -0.0006388983 9.7138836e-05 0.0010068362 3.6147878e-05 3.7791357e-05 -6.631258e-05
-0.00033035956 2.6904374e-05 -0.00054485863 -0.00038605175 -0.00095532945 0.00016542904 -0.00088061095 -0.00021049034
-3.717374e-05 0.00031936888 9.403599e-06 0.0004397299 -0.00105684 0.000101897764 -0.00017847055 -0.00066561316
0.00086171477 0.00078272936 -0.001123546 0.0008660745 0.00043344309 0.00066539267 -0.00029355922 0.0007863907
-2.4198955e-05 -0.00010147167 -0.00013110161 0.00051447423 0.0010859575 0.0002090502 -0.00010299979 -0.00037543202
-2.4804318e-05 -0.0014695331 0.00084581214 -0.00012427496 0.00089619675 -0.000564566 -0.00018555197 6.98437e-05
-0.024054253 0.038474075 0.04595716 -0.0065365643 -0.006362685 -0.0008725921 -0.0012779033 0.0051677134
-0.004452275 0.021733943 -0.0066017765 -0.014109678 0.0061788065 -0.008004468 0.001374015 0.009495681
-0.013946152 0.00835844 0.0033982145 0.0030593302 0.02762701 0.04033722 -0.0019528898 0.00015759656
0.011175213 0.025495995 -0.018227825 0.0016204705 -0.022812353 0.0008483672 -0.12670366 -0.004392635
0.007356722 -0.0042495 -0.005777972 0.020062877 0.005548832 -0.023832388 0.0005876361 0.005143838
0.01762614 0.006724766 0.03711534 -0.0032664014 -0.024308736 -0.052765574 0.00089499145 -0.020896979
-0.007831073 -0.01458623 -0.0022791277 -0.016523303 0.017225377 0.022230757 -0.00010661966 0.010616081
0.0026919118 -0.010074767 -0.0048072427 0.0010274213 0.017848035 0.01717539 -0.0016596012 0.0022922894

2.bias f4 [64]
00000000: c7bd 083e 73bb a33d e9ef 4539 98c7 093d
00000010: d0a8 e6bb 7ea3 e23c a0ab af3d 89d4 123e
00000020: f6db 80bc 61e0 89bd 040a e0bd 715a 95bd
00000030: 66bc 1bbe 64b9 bcb9 6306 59bc 628d 06ba
00000040: 93ac 61be 2b69 503d 6c68 523c 56e3 f7bd
00000050: d400 8e3c f2b7 743c 412a ebbd b22a 93bc
00000060: 8fde 25bd 37e8 ef3c d205 a73d 144a 643d
00000070: 1e17 debb 406e 21bd d801 5ebe 9116 d13b
00000080: 17c6 ff3c 8622 e6bd e721 a93d f9a4 953d
00000090: b9aa fbbd 7c93 ad3b e73b 623d 36a0 3cbe
000000a0: 3e28 38bd 3869 dc3c 44b7 e6bd e88c f23d
000000b0: 728b 24bb e864 c1bc e41e 8c3d 95a9 9a39
000000c0: 5126 e1ba 5a89 ebbc 547f 0abe 85e7 213e
000000d0: 56c4 993d 9bae cebd 071b 0dbe 459a 1d3e
000000e0: 62fa 503e 40da 0dbc a674 ffbb af47 d43d
000000f0: 93bc 55bc a972 41be b38a 60bd 23c8 123c
0.13353644 0.079947375 0.00018876758 0.033637613 -0.007039167 0.02766585 0.08577657 0.14338888
-0.015729886 -0.0673225 -0.1093941 -0.07292641 -0.15208587 -0.0003599628 -0.013246152 -0.0005132762
-0.22038488 0.050881546 0.012842279 -0.12103908 0.01733438 0.014936434 -0.11482669 -0.017964695
-0.04049545 0.029285533 0.08155407 0.05573471 -0.006777658 -0.039411783 -0.21680391 0.006380864
0.031222386 -0.112370536 0.082584195 0.07306857 -0.12288422 0.0052971225 0.05523291 -0.1842049
-0.044960253 0.026905641 -0.11265424 0.11843282 -0.002510753 -0.023607686 0.068418294 0.00029499517
-0.0017177557 -0.028752018 -0.13525134 0.15810974 0.07508151 -0.10091897 -0.13779841 0.1539088
0.20408013 -0.008657992 -0.007795888 0.10365235 -0.013045448 -0.18891396 -0.054819774 0.008958849

4.weight f4 [1, 64]
00000000: a9eb 8f3d 0fd1 bb3d 2e48 33b8 63cf 913c
00000010: 328d adba e4ae a639 ab41 f83d 619b 0b3e
00000020: 8ff5 93bc cb97 a9bc b932 dabd 02e5 bfbd
00000030: eead 6dbe 3f4f 283b 4677 bdbd 7683 1abb
00000040: 890a 85be 7b1c 943d 8cce 09b9 577d f2bd
00000050: 7cc7 03ba c8fb b53a 277b 84bd 841c b83c
00000060: 9cd7 75bd d06b 183c 86c5 a13d 662b 353c
00000070: 025d 23be 4575 8abc 6d79 82be 39c7 8339
00000080: a251 c9ba 84a7 06be e522 953d 5d0d 103e
00000090: 1cf0 48be 7a0c de39 3397 383c 2960 62be
000000a0: d684 33bd 3a0c 913c 0e5a 51bd 9dfc 583e
000000b0: 1028 55b5 07a5 0d3a 53fd f53d 818e e03b
000000c0: aeea 2b3a 522e 96bb c953 64be 4383 283e
000000d0: 61e8 403e 0754 41be b976 25be 44d8 7f3e
000000e0: 070e 623e ecfd ec3b 54e7 523a 1259 f03d
000000f0: 5159 0dba 4fdf 17be 693c a0bd ccc7 8bbb
0.070273705 0.09170734 -4.274415e-05 0.017799085 -0.0013240932 0.0003179229 0.121219 0.13633491
-0.018061427 -0.020702263 -0.10654206 -0.09369852 -0.2321088 0.0025682 -0.09251265 -0.0023576892
-0.259846 0.07231995 -0.00013142283 -0.11840313 -0.0005026979 0.0013884241 -0.06468802 0.022474535
-0.060020074 0.009303048 0.07899003 0.01105771 -0.15953448 -0.016901622 -0.25483266 0.000251347
-0.0015359411 -0.1314984 0.07282046 0.14067598 -0.19622844 0.00042352435 0.011266517 -0.22106995
-0.043827854 0.017706025 -0.051111273 0.21190114 -7.940698e-07 0.0005403314 0.120112084 0.0068529253
0.00065581023 -0.0045831585 -0.22297587 0.16456322 0.18838646 -0.1887971 -0.1615857 0.24984843
0.22075664 0.0072324183 0.0008045335 0.11735739 -0.00053920323 -0.14831279 -0.07824022 -0.004265761

0.weight f4 [64, 61]
00000000: 4efa a03c b941 c13c 9da0 373e 12f8 f63b
00000010: dc3b 953b f0df 403a 8ed1 8739 5e50 5b3a
00000020: 50b0 a13a 2ade 763a 8588 1fbc 8e88 eabc
00000030: a66d a3bc 388e 9cba 567d bfb9 6f14 d8b9
00000040: 7d03 82ba d9ba 603b bad3 793c 3dd5 d82a
00000050: f22f 892a f8b8 1fbc 8232 203d 012f 103d
00000060: a70f 653d 71ef 833d 8daa a93c 2580 ba3b
00000070: 40d9 723c 0d98 ea3c 5533 2e3d 3553 4c3d
00000080: ab0d 0b3d cbb8 853d f6e3 8f3d 6a71 023d
00000090: c61c 9d3d 00e2 d23c 4268 1a3c 4199 98bb
000000a0: 0424 d5a9 919f a139 56e5 753a c4f4 1f3b
000000b0: 8842 193b 3d4d 4d3a 9826 ce37 8274 20bb
000000c0: 43bd e6bb 8f18 8bbb 8ea7 7ebb 525a d7bb
000000d0: 7369 17bc c943 03bc f039 adbb 2830 c2bb
000000e0: 9cd6 90bb b2e5 453b 2ca2 d0bb 9239 8729
000000f0: 24a8 043c c02e 4bbb 7ad2 05bd 9a13 233e
00000100: 5485 f93c 585d 493c 95a2 f03a 4074 0a39
00000110: 9459 9f39 1e79 b939 96f0 f938 9426 83bb
00000120: 0ed6 5abc 7a0e f9bb d2c3 12ba 46d3 0838
00000130: 5f8b 343b 4805 3e3b af43 393c 0023 2d3d
00000140: 0071 3b26 4ad3 4028 488a 2fbb aa95 e33d
00000150: dacb ac3d 6e57 1f3d dcfa 943d d896 413d
00000160: 3801 9c3d b788 823d 307e a83c 1444 423d
00000170: 0e0c d13d d62b a53d d546 7e3d c708 073e
00000180: 772e 273d 75a5 bb3d 1ba4 3a3d 0ee8 813c
00000190: 321a adbc bff1 5eaa ffbf 343b 7aff 473b
000001a0: 4ce1 a13b 90f0 3e3b 7890 5b3a 9c32 2d39
000001b0: be4f 55ba a1af c9ba 8e24 97ba 7114 9fba
000001c0: 1610 ebba 0ac4 60bb 3398 89bb 5c2b 53bb
000001d0: 976f 23bb c3da c3ba d6f2 1a3b 7d17 c5ba
000001e0: 21f3 96aa 1e61 933d 00af 063c c3a5 823c
000001f0: c331 22be 826a 4a3c d5f3 50bb d547 06ba
00000200: 92a1 d63a a66d 71bb a5f7 24bc da38 1bbc
00000210: ec98 6cbc a0f7 1c3d b173 9e3c 1cde eeba
00000220: fddb fe3a b916 893b 5a25 143c 013c a73c
00000230: c5bb d83c a8d0 f7a9 68f4 162a 06a3 3d3c
00000240: 3177 a4bb dfe1 8d3c eb93 9c3c f23f 3d3c
00000250: 1caf 563c 8ec5 433c 78e5 42ba 3db0 acbc
00000260: 7e22 a3bc 711f 703b 0a6c 873c f5cd 8f3c
00000270: b8a5 623c ae5d 093c 1475 6639 80a2 f8bb
00000280: 35f9 ebbc 0c5e 0abc 781a 61aa 763e e93a
00000290: 5290 603b cc72 3eba e6fb 5fbb 90c8 5939
000002a0: f653 c1bb b474 ec3b a170 2f3d 674e fa3c
000002b0: 1a52 ce3c 04a3 3d3d aef0 033d 824d cfbc
000002c0: f968 14bd 1368 033c 33ad 503c 7f80 f03c
000002d0: cdc7 903d 8055 7127 46b2 8a3d 6f5e 283c
000002e0: 2d01 f1bb 1bde 24be 4214 403c 3137 33bb
000002f0: c578 99b9 9843 9bb8 c745 3bbb cff2 c6bb
00000300: ac4f d5bb f6a3 a5bb 78b1 c63c f888 383c
00000310: 6052 73b9 65c1 c93a b4d8 7a3b dbf1 133c
00000320: 4ab7 c03c 8106 e53c feb5 5ca9 2fc5 12aa
00000330: 07e6 9a3c 4e48 80bb 013a 733c bbab 8a3c
00000340: 61b2 413c c8f4 543c 29e6 2d3c 2037 63b9
00000350: 68e3 91bc 249a 8abc e2f3 913b 88c3 913c
00000360: 6e96 8a3c 02f2 693c 4d88 183c 9a87 d13a
00000370: 6be0 bebb 7566 f9bc 9505 77bc d879 5f2a
00000380: a09b 7e39 c178 e83a 0b0a aeba aee3 91bb
00000390: e8ae 073a de2b 2bbb c0d8 e33b fb50 063d
000003a0: bac2 d03c 0a85 a83c 0685 123d 4447 d43c
000003b0: 456c b4bc fc4d 0fbd b6f6 013c 6551 583c
000003c0: 50d3 0a3d 1955 4f3d a7ce 952a bf12 7a3d
000003d0: 1e79 b1bc a945 06bd 4b1a 4e3e 2da4 493d
000003e0: 754b 723d dfa8 363c bbca 7838 2d2f a339
000003f0: a033 d939 ac47 8f39 32d8 1bbb a679 12bc
0.019650605 0.02359091 0.17932363 0.0075368965 0.004554255 0.0007357588 0.00025905337 0.00083661627
0.001233587 0.00094172603 -0.009737139 -0.028629567 -0.019949745 -0.001194424 -0.0003652374 -0.00041213955
-0.0009919252 0.0034291057 0.015248233 3.8517272e-13 2.4369357e-13 -0.00974869 0.039110668 0.035201076
0.05592313 0.06442154 0.020711208 0.0056915455 0.014822304 0.028636957 0.042529423 0.04988404
0.03394858 0.06529387 0.07025902 0.03184644 0.07671504 0.02574253 0.009424271 -0.004656941
-9.465348e-14 0.000308272 0.0009380182 0.0024407366 0.0023385603 0.0007831639 2.4575085e-05 -0.0024483507
-0.0070416047 -0.004244871 -0.0038857195 -0.0065720463 -0.00924145 -0.008011767 -0.0052864477 -0.005926151
-0.0044201147 0.0030196724 -0.0063669886 6.005191e-14 0.0080967285 -0.0031003207 -0.03267143 0.15925446
0.030459084 0.012290321 0.0018359 0.00013204012 0.00030393584 0.0003537619 0.00011918058 -0.0040024016
-0.013356699 -0.0076006027 -0.00055986375 3.262169e-05 0.0027548892 0.0028994847 0.011307641 0.042269707
6.50318e-16 1.0703957e-14 -0.0026785303 0.111125305 0.08437319 0.03890174 0.0727441 0.047262996
0.0761742 0.063737325 0.020567983 0.047428206 0.102073774 0.08065002 0.06207927 0.13186942
0.040815797 0.09162418 0.04556666 0.015857723 -0.021130655 -1.9801433e-13 0.002758026 0.0030517266
0.0049401876 0.0029135086 0.00083757145 0.00016517419 -0.00081371877 -0.0015387425 -0.001153128 -0.0012136829
-0.0017933871 -0.0034296536 -0.0041990518 -0.003222189 -0.002493834 -0.0014942515 0.0023643277 -0.0015036907
-2.6814057e-13 0.07196258 0.008220434 0.015948182 -0.15839295 0.012354495 -0.0031883616 -0.0005122398
0.0016375056 -0.0036839037 -0.010068809 -0.009474004 -0.014440756 0.03832209 0.019342275 -0.0018224153
0.0019444224 0.004183617 0.009042108 0.020414354 0.026456723 -1.10051996e-13 1.3407472e-13 0.011574512
-0.0050190915 0.017319618 0.019113502 0.01155089 0.013103273 0.011948956 -0.0007434706 -0.02108013
-0.019913908 0.0036639834 0.01653101 0.017554263 0.013833456 0.008384151 0.00021978124 -0.007587731
-0.028805355 -0.008445274 -1.9993198e-13 0.0017795104 0.003426571 -0.0007265031 -0.0034177243 0.00020769448
-0.0058999015 0.0072160605 0.04283202 0.030554963 0.025185633 0.046298042 0.032211952 -0.025305513
-0.036232922 0.008020419 0.012736606 0.029358147 0.07069359 3.3491818e-15 0.06772284 0.010276421
-0.0073548765 -0.16100352 0.01172358 -0.002734613 -0.00029272414 -7.403566e-05 -0.0028575526 -0.0060714255
-0.006509742 -0.005054946 0.024254546 0.011263125 -0.00023204973 0.0015392719 0.0038276138 0.009029831
0.023524899 0.027957203 -4.9007666e-14 -1.3035817e-13 0.018908514 -0.0039148694 0.014845372 0.01692759
0.011822314 0.0129978135 0.0106139565 -0.00021668943 -0.017808631 -0.016919203 0.004454122 0.017793432
0.016917434 0.014278891 0.00930984 0.0015985847 -0.0058250926 -0.030444363 -0.015077014 1.9848652e-13
0.00024281302 0.0017736183 -0.001327814 -0.0044521904 0.00051759044 -0.0026118676 0.006953329 0.032792073
0.025483478 0.02057125 0.035771392 0.025912888 -0.022024283 -0.03498648 0.007932356 0.013203
0.03389293 0.050618265 2.661111e-13 0.061053034 -0.021664198 -0.032781277 0.20127217 0.049228836
0.059153993 0.01114866 5.9316615e-05 0.0003112493 0.0004142793 0.00027328485 -0.0023779985 -0.008940136

0.bias f4 [64]
00000000: 2ea8 003d 7cad 863d 344d 663c 6c5f 863c
00000010: b2c3 393e c5ce ed3c 968b e23d be2e 693d
00000020: 1519 0e3d 36b0 983d ca11 70bd c429 13be
00000030: 842f febd 0bb0 55be a30e 493d dba6 9e3d
00000040: 944a 4cbe 2331 1a3e a653 e8bc 9098 ac3d
00000050: 8cb0 713d 4825 a93c 0080 be3d 844b 9c3d
00000060: 2051 cbbd 4a97 883d 1542 e8bc 5529 513b
00000070: 77b5 bc3d c268 7f3c f492 f2bb 6c4e 3abd
00000080: 8271 09be fe9f 2abd 5f4a afbc fd9d 55bd
00000090: 2430 a63d 1914 35bd 5b7b 6dbb 8ea4 503c
000000a0: ece2 abbc 7fe0 633c 9119 16be e6ef 3dbd
000000b0: 6442 bcbd 0b1e 43be c389 443d 2bb5 04be
000000c0: 3a30 e0bc f5c8 3f3d 1be0 ffbb 3b70 95ba
000000d0: 7665 bfba 9a33 f0bd d33f 1ebe 0cf9 cc3d
000000e0: 7fa7 643c abc6 82bd e578 913d e1fc 773d
000000f0: 3406 263d c54c 893d c886 833d b3a4 5bbc
0.03141039 0.06576058 0.014056493 0.016402923 0.18141058 0.02902926 0.1106178 0.056929342
0.03469189 0.074554846 -0.058610715 -0.14371401 -0.12411407 -0.20867936 0.049086224 0.07746669
-0.19950324 0.15057807 -0.0283602 0.084275365 0.05900626 0.02064766 0.09301758 0.07631591
-0.09927583 0.06669481 -0.028351823 0.0031915505 0.09214299 0.015588941 -0.007402772 -0.045484945
-0.13422206 -0.041656487 -0.021397768 -0.052152622 0.08114651 -0.04420862 -0.0036236856 0.012734545
-0.020982228 0.0139085045 -0.1465819 -0.046371363 -0.091923505 -0.19054429 0.047982942 -0.12959735
-0.027366746 0.046822507 -0.007808698 -0.0011401245 -0.0014602381 -0.11728592 -0.15454035 0.100084394
0.01395595 -0.06385549 0.07103137 0.0605439 0.04053326 0.06704096 0.06422192 -0.013405967
